GolfFeedback-poc/src/s3_NAM_model/output/NAM_Experiment/0/checkpoints/output/NAM_Experiment/0/epoch=03-val_loss=774.4003-v2.ckpt (torch, 605937 bytes, 240 tensors)

model.feature_nns.0.model.0.weights f4 [1, 1000]
000000 df d3 db 3f 8b 85 f0 3f ac 87 ed 3f 14 ad ed 3f
       1.7174033 1.8790754 1.8557029 1.8568444
000010 e9 a6 f0 3f 45 1b e2 3f 52 19 ef 3f ff 93 f0 3f
       1.8800937 1.7664572 1.8679602 1.8795165
000020 89 38 ea 3f 73 93 be 3f f5 04 ba 3f e5 5e df 3f
       1.8298503 1.4888748 1.4532763 1.7450835
000030 56 1c ec 3f 8d 44 ee 3f f8 83 eb 3f db 13 c8 3f
       1.8446147 1.861467 1.8399649 1.563106
000040 02 56 e4 3f 2a 50 ed 3f 75 72 eb 3f 39 54 e9 3f
       1.7838748 1.8540089 1.8394305 1.8228828
000050 a7 de ef 3f 98 91 d1 3f 8f 20 e7 3f 53 aa d7 3f
       1.8739823 1.6372557 1.8056811 1.6848854
000060 dc 0d bb 3f 89 af df 3f c9 70 e2 3f 4d 33 ee 3f
       1.4613605 1.7475444 1.7690669 1.8609406
000070 48 df d2 3f 6b b9 e9 3f 92 12 dc 3f dd 2a dd 3f
       1.647439 1.825971 1.7193167 1.7278706
000080 b0 3d cc 3f f2 3c ec 3f c9 55 ea 3f 31 fb e4 3f
       1.5956326 1.8456099 1.830743 1.7889158
000090 6f 5b c3 3f a3 42 f0 3f 7a 54 e5 3f 69 63 cf 3f
       1.5262278 1.8770336 1.7916405 1.6202213
0000a0 9a e0 ee 3f c2 73 ba 3f fc bc eb 3f 4d cd ed 3f
       1.8662293 1.4566576 1.8417048 1.8578278
0000b0 00 36 ed 3f 6a e9 ef 3f a6 2c d8 3f 78 76 c0 3f
       1.8532104 1.8743107 1.6888626 1.5036154
0000c0 d8 99 ef 3f 4c 5d ea 3f 41 2d ec 3f f7 11 ec 3f
       1.8718824 1.8309722 1.845131 1.8442982
0000d0 da 7b dc 3f a1 b2 ed 3f 6c 6d ea 3f 40 0c eb 3f
       1.7225296 1.8570138 1.8314643 1.8363113
0000e0 43 75 db 3f 38 6f d7 3f 68 41 e4 3f d9 5e cd 3f
       1.714516 1.6830816 1.783246 1.604457
0000f0 c2 32 e5 3f e5 f8 e7 3f 3f e5 d8 3f 40 2a e4 3f
       1.7906115 1.8122832 1.694496 1.7825394
000100 ca 9a ed 3f 97 0d d2 3f 54 b7 ea 3f f2 6c ef 3f
       1.8562863 1.6410397 1.8337197 1.8705122
000110 46 c9 ed 3f c1 15 d7 3f 79 0d ea 3f 7e e3 e7 3f
       1.8577049 1.6803514 1.8285362 1.81163
000120 fa 2b e2 3f 1c 6e eb 3f 4b da e8 3f 1c 76 d9 3f
       1.766967 1.8392978 1.8191618 1.6989169
000130 97 7b ef 3f 02 48 df 3f f5 2e ec 3f 1e 57 ec 3f
       1.8709592 1.744385 1.845183 1.8464086
000140 e9 d3 ed 3f 0a 35 e3 3f 29 a8 de 3f f8 16 ed 3f
       1.8580295 1.7750561 1.7395068 1.8522635
000150 ae 61 f0 3f a5 75 d6 3f ea 4d e3 3f c7 b2 ef 3f
       1.877981 1.6754652 1.7758152 1.8726434
000160 f2 d1 e9 3f 9c d5 ec 3f ba d2 e3 3f a9 4f ed 3f
       1.8267195 1.8502688 1.7798684 1.8539935
000170 74 9b e9 3f a9 1c d5 3f f1 2b f0 3f c0 c1 c7 3f
       1.8250566 1.6649371 1.876341 1.5606003
000180 3c 59 ee 3f cc e0 d8 3f da 67 f0 3f 24 f3 eb 3f
       1.8620982 1.6943603 1.8781693 1.8433576
000190 3f bc f0 3f 9e 1a f0 3f 7a e9 e8 3f 61 17 f0 3f
       1.8807448 1.8758123 1.8196251 1.8757135
0001a0 67 5c d8 3f 73 ac d7 3f 8c 5b cd 3f de be da 3f
       1.6903199 1.6849502 1.6043563 1.7089498
0001b0 02 56 ed 3f 23 23 ed 3f db 33 c7 3f de b2 d0 3f
       1.8541873 1.8526348 1.55627 1.6304586
0001c0 f7 89 ee 3f ca b5 f0 3f e6 b2 ed 3f 2c 7a e9 3f
       1.8635854 1.8805478 1.857022 1.8240409
0001d0 11 cf e1 3f 14 dd e8 3f a0 6f ee 3f 9c 44 cf 3f
       1.7641317 1.8192468 1.8627815 1.6192813
0001e0 d9 cf e4 3f 5a 64 e8 3f 06 59 ba 3f c2 ce e6 3f
       1.787593 1.8155625 1.4558418 1.8031847
0001f0 f5 21 e9 3f 0e be ea 3f 12 9d dd 3f fc ee ed 3f
       1.8213488 1.833925 1.7313559 1.8588557
000200 40 3f c4 3f 36 2e b8 3f 93 95 e9 3f 92 80 ed 3f
       1.5331802 1.4389102 1.8248771 1.8554862
000210 65 2c e7 3f d0 ec ee 3f 11 eb ec 3f 03 fe ed 3f
       1.8060423 1.866602 1.8509237 1.8593143
000220 27 91 e4 3f 2a 8f ee 3f 84 f0 d2 3f ce e8 db 3f
       1.7856797 1.863744 1.647965 1.7180421
000230 43 37 de 3f bb e4 ed 3f ee f4 ef 3f f7 0d dc 3f
       1.7360615 1.8585428 1.8746622 1.7191762
000240 97 ce ed 3f 06 3d dc 3f a5 76 ea 3f e8 18 ef 3f
       1.8578671 1.7206123 1.8317457 1.8679476
000250 f6 80 ea 3f 5e 64 e6 3f 0f 1f e7 3f cc 2d e6 3f
       1.8320606 1.799938 1.8056353 1.7982726
000260 7c 29 c0 3f dc 77 e9 3f 61 63 e7 3f a2 f9 f0 3f
       1.501266 1.8239703 1.8077203 1.8826182
000270 d2 4e d4 3f 13 7e f0 3f 4f 52 f0 3f ff 66 c9 3f
       1.6586554 1.8788475 1.8775119 1.5734557
000280 ee f4 e3 3f 18 fa eb 3f 54 81 ec 3f ac 08 e0 3f
       1.7809122 1.8435698 1.8476968 1.7502646
000290 f3 e4 d7 3f 5a 68 de 3f 3a 1d e5 3f d4 ba eb 3f
       1.6866745 1.7375596 1.7899544 1.841639
0002a0 4d ed e5 3f 39 33 ec 3f 03 a2 e4 3f 64 06 ea 3f
       1.7963043 1.8453132 1.7861942 1.82832
0002b0 ad fc eb 3f 82 d2 cf 3f 0b b5 e4 3f 62 bb bb 3f
       1.8436486 1.6236117 1.786775 1.466656
0002c0 fa 2a e1 3f b8 12 d8 3f fb 03 b0 3f 76 50 f0 3f
       1.759124 1.6880713 1.3751215 1.8774555
0002d0 7e a1 df 3f 3d 0a e7 3f 37 53 d9 3f 46 db e7 3f
       1.7471159 1.805 1.697852 1.8113792
0002e0 2f e8 c4 3f 3c 48 e4 3f ea b4 e4 3f 3c 3d e9 3f
       1.5383357 1.7834544 1.786771 1.8221812
0002f0 39 2f e8 3f c2 0c ee 3f 4d 32 e7 3f ae c3 df 3f
       1.8139411 1.8597643 1.8062226 1.7481592
000300 35 a5 f0 3f f5 31 e4 3f 0b 4d f0 3f e4 ea d2 3f
       1.8800417 1.7827746 1.8773512 1.6477933
000310 d9 6d db 3f 50 c6 ce 3f 86 45 dd 3f 65 ac e7 3f
       1.7142898 1.615427 1.7286842 1.8099486
000320 4f 15 ef 3f 83 47 d4 3f f0 ec ea 3f 1e a3 ee 3f
       1.8678378 1.6584324 1.8353558 1.864353
000330 a0 c9 f0 3f a4 2f eb 3f 94 5b e3 3f d3 a4 d1 3f
       1.8811531 1.8373914 1.7762322 1.6378425
000340 55 f1 e8 3f 7e 56 ed 3f 23 73 e8 3f a1 77 ec 3f
       1.8198649 1.854202 1.8160137 1.8474008
000350 92 18 f0 3f 9d 4f e5 3f 48 ba db 3f 29 f9 e4 3f
       1.8757498 1.7914921 1.7166224 1.7888538
000360 7a c9 e1 3f 65 87 ed 3f 8e 9e ec 3f f2 a5 e6 3f
       1.7639611 1.8556944 1.8485887 1.8019392
000370 2a 2e ed 3f 25 74 a1 3f 8a 64 d7 3f b5 99 e7 3f
       1.8529713 1.261357 1.6827557 1.8093783
000380 0f ee e9 3f d6 a0 ef 3f 36 24 e8 3f 84 e8 d9 3f
       1.8275775 1.8720958 1.8136051 1.7024083
000390 16 a3 e3 3f 76 15 d7 3f a5 ef dd 3f 0b af e1 3f
       1.7784145 1.6803424 1.7338759 1.7631544
0003a0 98 bd ed 3f 11 fd f0 3f e3 cb e9 3f bd 42 d5 3f
       1.8573484 1.882723 1.8265346 1.6660992
0003b0 9a a5 c6 3f 69 99 df 3f 8d 0a d2 3f 91 25 d7 3f
       1.5519288 1.7468692 1.640947 1.6808339
0003c0 ec c0 cb 3f 01 3e e9 3f 94 a6 e8 3f d9 58 e5 3f
       1.591825 1.8222047 1.8175836 1.7917739
0003d0 6e fc e7 3f a6 f1 e8 3f 17 5f ea 3f 0a 6a e8 3f
       1.812391 1.8198745 1.8310269 1.815736
0003e0 00 a3 e3 3f 5f 31 e6 3f db 41 c7 3f ab 7c d5 3f
       1.7784119 1.7983817 1.5566972 1.6678671
0003f0 09 26 db 3f 54 e5 ee 3f f1 7d ef 3f c6 e1 d4 3f
       1.7120982 1.8663735 1.8710309 1.66314

model.feature_nns.0.model.1.weight f4 [1, 1000]
000000 23 e9 43 3c ff 26 78 bc 12 bb ea 3b c0 bf cc 3c
       0.01195744 -0.015146016 0.007163414 0.024993777
000010 cb 25 c0 3c 0f f3 f5 3c 90 a3 e5 3c 8e 4b 9e bc
       0.023455521 0.030023126 0.028032094 -0.019323137
000020 92 46 43 bc a9 c3 6a 3c f6 7a 9e bb 36 20 1e 3c
       -0.011918681 0.014328876 -0.0048364354 0.009651234
000030 c6 93 2b bc f2 87 b2 3c e1 e8 13 3d b6 3e 9d bc
       -0.010472244 0.02179334 0.036110763 -0.019194942
000040 a8 ad b8 3c b8 fd a6 3c 7c fa 32 bc 65 cf 18 bc
       0.022543743 0.020384654 -0.010923978 -0.00932679
000050 0a 04 2c bc ec 73 07 3b b8 18 8c bb c6 55 8c bc
       -0.01049901 0.002066846 -0.0042754076 -0.017130744
000060 54 c7 03 3c 38 28 b3 3b 4a 1a c6 3c 59 c4 00 3d
       0.008043129 0.005467441 0.024182457 0.03143725
000070 8c 76 02 3d 76 d4 9d 3c 16 c9 86 bc 0b 0f 6a bc
       0.031851336 0.019266348 -0.016453307 -0.014285813
000080 72 c7 97 bb 46 ff e4 3c 9c 51 96 bc fe eb 08 3d
       -0.00463193 0.027953755 -0.018349461 0.033428185
000090 7a 89 eb 3a 46 92 d3 bb 36 24 00 3d 87 c6 f7 3c
       0.0017970048 -0.006456646 0.031284533 0.030246032
0000a0 d0 a5 5e ba 34 95 42 bb 9a 0c c7 bb a8 94 03 3a
       -0.0008493336 -0.0029690983 -0.0060745003 0.0005019405
0000b0 f3 e2 8f 3c 3d 68 6e 3c c7 bc c7 3b 10 12 45 3c
       0.017564273 0.0145512195 0.006095502 0.012028232
0000c0 2b c6 a2 bb de 04 8d 3c 98 c4 8e bc a8 6c ca 3a
       -0.004967471 0.017214235 -0.017427728 0.0015443759
0000d0 40 06 a9 bc ee 47 88 bb 78 77 6f 3b d1 3a 04 3c
       -0.020632863 -0.0041589653 0.0036539715 0.008070664
0000e0 94 38 f7 3c 99 e4 a6 bc ff 3a b9 3c 3a ad fa 3c
       0.030178346 -0.020372676 0.02261114 0.030600179
0000f0 c0 ff 93 bc 2e 19 89 3c 94 19 97 3c 59 85 9e bc
       -0.018066287 0.01673564 0.018444814 -0.019350694
000100 cb 7a 19 3d e9 21 22 3d 18 ef 68 bb ce 28 6b bc
       0.03747062 0.03958312 -0.0035542902 -0.01435299
000110 c9 93 ce 3c 04 b9 1d bc ea c9 5c bc c7 87 ab 3c
       0.025216954 -0.009626631 -0.013475874 0.020938767
000120 b0 3f a6 3c 90 13 39 3c 71 fb 01 3d 2a 7f 08 3d
       0.02029404 0.011296168 0.031733934 0.033324398
000130 c1 aa a5 3c b8 74 ae 3c 76 7f 97 bc 36 04 9a 3b
       0.020223023 0.02129589 -0.018493395 0.004700209
000140 0c 1f 1a bc 46 29 96 3c 5a ca 59 bc a9 1f eb 3b
       -0.009406816 0.018330228 -0.013292873 0.007175405
000150 8a e7 fc bb 51 2f 24 bc e3 54 a0 bc 16 33 e2 3c
       -0.0077180313 -0.010021047 -0.019571727 0.02761225
000160 e0 bf e1 3c ca bd 33 bc 62 a9 89 3c 68 8d 5f bc
       0.027557313 -0.010970542 0.0168044 -0.013644554
000170 20 cd a3 bc 7e b3 48 bc 1c 38 04 3d 28 25 b6 bc
       -0.019995272 -0.0122498255 0.032280073 -0.022234514
000180 04 6a d9 3b 31 0b 09 3d 07 87 87 3b 98 3c b4 bb
       0.0066349525 0.03345794 0.0041359696 -0.0055003874
000190 11 e5 2b 3c f4 a3 b0 3c 0b 53 86 bb 3a 41 f4 bb
       0.010491625 0.021562554 -0.004099255 -0.0074540647
0001a0 63 da fc 3c ce 14 2f bc 52 ec aa 3b 0c af 08 3c
       0.030865854 -0.010686113 0.00521616 0.008342516
0001b0 c8 02 25 3c 36 62 f0 3c 88 17 ba 3c c0 8f 78 bb
       0.010071464 0.029343706 0.022716299 -0.0037927479
0001c0 3d 56 05 3d f0 c3 5a 3b a6 e1 01 bc 78 84 88 3a
       0.032552946 0.0033380948 -0.007927334 0.0010415455
0001d0 28 ab 29 bc f0 f4 f4 39 0b 6f ac 3c 97 00 ce 3c
       -0.010355748 0.000467218 0.021049043 0.025146766
0001e0 4f ba 06 3d b3 41 36 3c 9a d6 65 3c 02 a6 5c 3c
       0.03289252 0.011124062 0.014028216 0.013467314
0001f0 12 80 83 3b 32 a6 bc 3b 96 84 96 3c f8 99 5b bc
       0.00401307 0.0057571167 0.018373769 -0.013403408
000200 34 f1 dd bb 72 58 f3 ba ee c2 db 3c 3c d0 57 3c
       -0.0067731384 -0.0018565787 0.026826348 0.013172206
000210 5e 75 95 3c 1c d6 bb 3c a0 b3 ca 3c 82 0a 75 3c
       0.018244442 0.022929244 0.024743855 0.014956119
000220 44 11 24 3b ff 87 3f 3b 16 43 e4 3b 44 d0 f2 3b
       0.0025034705 0.0029225347 0.006966005 0.007410081
000230 61 e0 01 3c 98 80 50 bc 66 e5 c8 3b f5 52 a2 3c
       0.007927031 -0.012725972 0.006130862 0.019814948
000240 0e 19 1d 3d 75 5f d1 3c 98 28 78 3a 10 2d 93 3c
       0.038353972 0.025558213 0.0009466498 0.017965823
000250 62 5d 1e 3d d4 74 87 bc 11 01 bb 3c 78 bc 9f bc
       0.038663276 -0.0165352 0.022827657 -0.019499049
000260 8d 24 42 bc 36 c4 e7 bb 88 ad 2c bc 6a dd 9e bc
       -0.011849535 -0.0070729507 -0.01053942 -0.019392688
000270 96 8a 84 bc 9a a4 86 3c e6 0f 67 bb 00 14 16 b9
       -0.016179364 0.01643591 -0.003525728 -0.00014312565
000280 1c 6b 1c bc 74 da 0a 3d 2c 69 fb 3b 3d c9 b1 3c
       -0.009547021 0.03389974 0.0076724496 0.021702403
000290 5a 77 b7 3c ea 8a 96 3b 1b ce 1e 3d 36 f2 07 3c
       0.022395778 0.0045941966 0.038770776 0.008297494
0002a0 ba 23 83 bc 1a 38 ac bc 9d 14 bd 3c 7b f8 25 3d
       -0.016008247 -0.021022845 0.023081118 0.040520173
0002b0 17 f8 e4 3c 90 18 4d 3a b5 4e 29 3d 00 6a 08 3d
       0.02795033 0.00078237895 0.041334826 0.033304214
0002c0 cb 65 c5 3c a6 c3 e7 3c f6 7d 8c 3c 8c 77 fd bb
       0.02409639 0.028291535 0.017149907 -0.0077351984
0002d0 56 a7 23 3d 33 1b a4 bb ff 35 41 bc 0d 52 c6 3c
       0.039954506 -0.005008125 -0.011792659 0.024209047
0002e0 b5 8e ca 3b 82 ac 0c 3d d2 74 cc bb 2b a3 d0 3b
       0.006181563 0.034344204 -0.006239512 0.0063671074
0002f0 46 8e 87 bc b4 ce 1c 3c 73 25 cb 3c 58 d0 7e bc
       -0.016547333 0.009570766 0.02479813 -0.015552603
000300 8f e0 be 3b f0 5f e3 3c 1d b9 e7 3c 6b 49 bd 3b
       0.0058251093 0.027755708 0.028286511 0.0057765744
000310 3e f0 b0 bb 2e 00 3f 3c 29 22 fa 3c 1b 1c 36 3c
       -0.005399733 0.011657758 0.030533867 0.011115099
000320 38 38 37 bb 60 d5 3a 3a 1d 76 84 bb dc 06 ed 3c
       -0.0027957093 0.0007127132 -0.0040424005 0.028933935
000330 ae 7a b7 3c a0 cd 40 ba 73 29 fe 3c d1 e6 08 3d
       0.022397365 -0.0007354859 0.031025624 0.03342325
000340 75 ac 71 3c 56 fd 96 bc e1 3a 24 3d f1 e0 5c 3c
       0.01475059 -0.018431347 0.040095214 0.013481365
000350 00 a3 0d bb 70 ba bc 3c 37 98 09 3d 2a 78 0c 3d
       -0.0021612048 0.02303812 0.03359243 0.034294285
000360 b9 d2 8d 3b 3d 0e 0c 3d 94 67 34 3c 19 07 b5 3b
       0.0043280986 0.034193266 0.011011023 0.0055245277
000370 33 a2 c9 3c 90 05 f5 39 d9 80 07 3c 9e c1 89 3c
       0.024613475 0.00046734186 0.008270466 0.016815957
000380 91 3f b8 3c b6 d3 12 3d 75 7f 9d bb f4 14 c2 3a
       0.022491248 0.035846435 -0.004806454 0.001480727
000390 85 ce 49 3b 5c 01 55 3c 2b 6c 2d 3b 00 11 8d 3c
       0.0030793261 0.013000812 0.0026462178 0.01722002
0003a0 ea 8b d9 bb 89 7f 5b bc db a5 c1 3c a6 47 94 bc
       -0.0066389935 -0.013397106 0.023638656 -0.01810057
0003b0 be 44 e4 bb 10 15 8e 3c 62 72 b0 bc ce 46 37 3c
       -0.0069662025 0.017344028 -0.021538917 0.011186315
0003c0 27 96 02 3d e0 3f 21 3b 80 a2 89 bc ad 5b 4d bb
       0.031881478 0.0024604723 -0.016801119 -0.003133516
0003d0 a4 5a 0d bc 68 a4 00 ba b0 62 56 ba 2c 36 83 bc
       -0.008627567 -0.0004907311 -0.0008178158 -0.016017042
0003e0 fb e0 42 3b 8f ef 3e bb 23 46 f0 3c be 22 12 bb
       0.002973615 -0.0029134487 0.029330319 -0.002229854
0003f0 49 48 a8 3c 3f 39 95 3b 8e 07 a1 bc dc 34 7f ba
       0.02054228 0.0045539434 -0.019656923 -0.00097353547

model.feature_nns.1.model.0.weights f4 [1, 244]
000000 4c 43 c2 3f 69 ba e6 3f 1e bc f0 3f fa 47 ec 3f
       1.5176787 1.8025638 1.8807409 1.8459466
000010 1f 92 de 3f 5d 65 f5 3f e0 ab 9f 3f b2 3c ee 3f
       1.7388343 1.9171559 1.2474327 1.8612273
000020 59 1a d9 3f c8 7c f2 3f 63 e0 e0 3f cd a7 ed 3f
       1.6961166 1.894433 1.7568477 1.8566834
000030 ad 45 ea 3f 7f 75 ec 3f 36 31 d6 3f b0 66 e3 3f
       1.8302513 1.8473357 1.6733768 1.7765713
000040 21 42 e0 3f fd 5b ef 3f 77 7d c7 3f 8a 60 dd 3f
       1.7520181 1.8699948 1.5585164 1.7295086
000050 bd a9 f1 3f 02 9c d7 3f 00 4a f4 3f b4 00 db 3f
       1.8879925 1.6844485 1.9085083 1.710959
000060 df 29 ef 3f 30 ab ed 3f 97 d1 e2 3f 54 00 f0 3f
       1.8684653 1.8567867 1.7720212 1.87501
000070 2c cd ed 3f 99 de f3 3f f6 50 ef 3f 54 44 ef 3f
       1.8578238 1.9052306 1.8696582 1.8692727
000080 a9 34 b5 3f c9 f7 d9 3f 7f a8 d9 3f 82 75 ef 3f
       1.4156696 1.7028743 1.7004546 1.8707736
000090 3d ca ef 3f 4c 73 f7 3f 17 80 e5 3f c1 6c f2 3f
       1.8733593 1.9332061 1.7929715 1.8939439
0000a0 17 0d e7 3f 25 a0 ec 3f 5f b1 de 3f d8 6e e5 3f
       1.805087 1.8486372 1.7397879 1.7924452
0000b0 df a8 ea 3f 8a a4 e5 3f 14 76 e9 3f b1 b3 ea 3f
       1.8332785 1.7940838 1.823916 1.8336087
0000c0 25 70 f2 3f d1 94 e4 3f 9d 8b f0 3f 50 d1 d7 3f
       1.8940474 1.7857915 1.8792607 1.6860752
0000d0 fe 6d f7 3f 8f 4f da 3f 37 df e8 3f c1 dd ec 3f
       1.9330442 1.7055529 1.819312 1.8505174
0000e0 b6 31 e7 3f 55 d9 f0 3f 9e c7 f0 3f 14 a3 e5 3f
       1.8062046 1.8816324 1.8810918 1.7940392
0000f0 7b f1 d9 3f b1 33 e6 3f 62 8a e2 3f de f0 c0 3f
       1.7026819 1.7984525 1.7698481 1.5073507
000100 2b 99 cb 3f f2 e1 de 3f 8d fc b9 3f ab ae eb 3f
       1.5906118 1.7412703 1.4530197 1.841268
000110 80 0c cb 3f 89 5d dc 3f 88 c6 bc 3f b1 3e f2 3f
       1.586319 1.7216045 1.4748087 1.8925382
000120 ef dd e9 3f ef 04 f1 3f 38 cf ee 3f c8 c4 f3 3f
       1.8270854 1.8829631 1.8656988 1.9044428
000130 08 49 f3 3f 18 a2 df 3f 75 b3 e2 3f 99 ff de 3f
       1.9006662 1.7471342 1.7711016 1.7421752
000140 3d aa ee 3f 4b 28 e8 3f 3a b3 f4 3f b7 c7 d4 3f
       1.8645703 1.8137296 1.9117196 1.6623448
000150 10 9f e2 3f fb 9a f1 3f 29 43 f0 3f 9f 35 e2 3f
       1.7704792 1.8875421 1.8770496 1.7672614
000160 e5 1e b6 3f 98 fd ea 3f ea 61 f2 3f bd af e8 3f
       1.4228178 1.8358641 1.8936131 1.8178631
000170 84 2b d7 3f ff f5 e5 3f 85 8f ee 3f c1 62 f6 3f
       1.6810155 1.7965697 1.8637549 1.9248887
000180 40 e5 f2 3f 19 c5 e2 3f 06 12 f5 3f 9e b8 f4 3f
       1.8976212 1.77164 1.9146125 1.9118841
000190 1a ae f2 3f 02 0c eb 3f bf 52 f0 3f e8 9b f4 3f
       1.8959382 1.836304 1.8775252 1.9110079
0001a0 7c f5 e0 3f a5 c7 bf 3f 75 74 f0 3f 26 a2 df 3f
       1.7574916 1.4982802 1.878554 1.7471359
0001b0 f4 0a f5 3f ac 9c f1 3f fe 1a f3 3f 95 66 c6 3f
       1.9143968 1.8875937 1.8992612 1.5500056
0001c0 e6 a8 f0 3f e4 56 ea 3f fe 81 d3 3f d2 5b e4 3f
       1.8801544 1.8307767 1.6524045 1.7840521
0001d0 a1 7b f4 3f f0 2d f1 3f e6 b9 eb 3f 42 af ec 3f
       1.9100229 1.8842144 1.8416107 1.8490984
0001e0 28 1d e3 3f 97 86 df 3f e8 15 f1 3f 36 31 e4 3f
       1.7743273 1.7462949 1.883481 1.7827518
0001f0 f1 6e ea 3f 07 71 ec 3f 04 ce ec 3f fa e5 ea 3f
       1.8315107 1.8471993 1.8500371 1.8351433
000200 9e 26 f0 3f 80 6d f3 3f b2 8c f4 3f 33 3d e8 3f
       1.8761785 1.9017792 1.9105437 1.8143677
000210 ef b2 d0 3f b0 5f ed 3f 76 5f cc 3f 3d 1c e0 3f
       1.6304606 1.8544827 1.5966632 1.7508618
000220 ab 79 e2 3f ab 79 eb 3f 3f 43 c5 3f 44 a3 e4 3f
       1.769338 1.8396505 1.5411147 1.7862325
000230 94 48 e6 3f 39 83 e0 3f 26 5a ef 3f 71 36 ef 3f
       1.7990899 1.7540046 1.8699386 1.8688489
000240 2a be e7 3f 2b 7a e8 3f 16 6a db 3f f2 b9 ed 3f
       1.8104908 1.8162283 1.714175 1.8572371
000250 1f de ea 3f 40 44 e3 3f 4a c9 e8 3f dd 0a d6 3f
       1.8349036 1.7755203 1.8186429 1.6722065
000260 5e 02 ec 3f e7 55 d1 3f cc a3 df 3f 42 0f f5 3f
       1.8438222 1.635434 1.7471862 1.9145281
000270 ff 93 ed 3f 37 d7 f0 3f ac c0 a2 3f 90 5a f6 3f
       1.856079 1.8815678 1.2715049 1.9246387
000280 bc d2 cc 3f 02 1b e6 3f 33 af c0 3f e8 c4 ef 3f
       1.6001811 1.7976992 1.5053467 1.8731966
000290 d3 55 df 3f 6a 17 f1 3f 1c bb ef 3f b7 1a d6 3f
       1.7448066 1.883527 1.8728976 1.6726903
0002a0 bf f8 dc 3f f7 41 e1 3f 9c 97 ea 3f fa 12 f5 3f
       1.7263411 1.7598256 1.8327518 1.9146416
0002b0 73 06 f5 3f e2 96 e8 3f f1 ea e6 3f ba 16 ef 3f
       1.9142593 1.8171046 1.8040448 1.8678811
0002c0 9f 80 d8 3f 26 9e ed 3f f0 bb ec 3f db 45 e0 3f
       1.6914252 1.8563888 1.8494854 1.7521318
0002d0 46 80 e9 3f cd aa f1 3f 6c b4 ef 3f 51 1b ec 3f
       1.8242271 1.8880249 1.8726935 1.8445836
0002e0 0d b1 e8 3f 4f 45 ef 3f 00 02 da 3f 4f a9 c9 3f
       1.8179032 1.8693026 1.703186 1.5754794
0002f0 ce cf f2 3f f0 51 f6 3f cc 3e e8 3f e7 0c d0 3f
       1.8969667 1.9243755 1.8144164 1.6253937
000300 68 08 d6 3f 4c 3e eb 3f 2f a5 f0 3f da 35 ea 3f
       1.6721315 1.8378386 1.880041 1.8297684
000310 37 7c ec 3f 2d ed f0 3f 7a aa ed 3f eb b3 e7 3f
       1.8475407 1.882238 1.856765 1.8101782
000320 c2 56 d6 3f 87 ac e2 3f 9e 91 e8 3f b8 18 e9 3f
       1.6745226 1.7708901 1.8169439 1.8210669
000330 2c b3 ec 3f f1 27 de 3f 74 74 f5 3f 52 75 e8 3f
       1.8492179 1.7355939 1.9176164 1.8160803
000340 3a 63 e0 3f 73 30 f4 3f 90 39 f0 3f e5 2c ef 3f
       1.7530282 1.9077286 1.8767567 1.8685576
000350 2b 8a f1 3f e4 c4 f0 3f 98 fb f0 3f 16 b6 e8 3f
       1.887029 1.8810086 1.882678 1.8180568
000360 8b b2 f3 3f 69 80 f7 3f ca 09 ee 3f 00 cc f5 3f
       1.9038862 1.9336063 1.8596737 1.9202881
000370 8e b9 e7 3f b6 6e ec 3f 45 a2 e7 3f 66 3c e3 3f
       1.8103502 1.8471286 1.8096396 1.7752807
000380 e3 55 f3 3f e8 3d d8 3f 82 35 e4 3f d2 5c cc 3f
       1.9010586 1.6893892 1.7828829 1.5965827
000390 ec f2 e1 3f 05 2e ef 3f 18 ea dd 3f ee c6 f4 3f
       1.7652259 1.8685919 1.7337065 1.9123209
0003a0 04 f5 e5 3f ac b7 e5 3f ac 28 c7 3f 10 f5 e6 3f
       1.7965398 1.7946677 1.5559287 1.8043537
0003b0 81 e9 d7 3f 9b 4d ef 3f 58 e5 cb 3f 00 40 da 3f
       1.6868135 1.8695558 1.5929365 1.7050781
0003c0 77 c2 ea 3f eb 3b ed 3f a3 4d f0 3f 56 47 f5 3f
       1.8340596 1.853391 1.8773693 1.9162395

model.feature_nns.1.model.1.weight f4 [1, 244]
000000 17 ca 42 3d 1b 84 28 bd 7a 4f d4 ba f9 18 6e 3c
       0.04755601 -0.04114161 -0.0016198002 0.014532321
000010 70 cb 37 3d 07 0d 3c 3d c7 8e 98 3d dc 8b 25 3d
       0.044871747 0.04591086 0.074491076 0.040416583
000020 10 93 25 3d a5 ed 2d 3d 5f 56 2e bd 77 92 63 3c
       0.040423453 0.042462964 -0.04256284 0.0138899
000030 10 87 0f 3d 22 ff 44 3d f3 f3 16 bd 14 95 01 3d
       0.035040915 0.048094876 -0.03685374 0.031636313
000040 bc 0d 6d 3c f6 fc 07 bd 18 8d 30 bc ef 15 82 3d
       0.014468607 -0.033200227 -0.010775827 0.0635184
000050 f4 97 bd bc 60 c7 15 bd 39 6a 88 3d 45 69 da 3c
       -0.023143746 -0.036567092 0.06660885 0.026661525
000060 e2 5f 91 3d 8e 03 eb bc 96 30 00 bd b2 18 23 3c
       0.07098366 -0.028688218 -0.031296335 0.009954618
000070 a7 28 a7 3c a3 50 93 3d cf 96 a6 bc 3e 65 2c 3c
       0.020405127 0.071931146 -0.020335583 0.010522185
000080 40 d0 4f 3d 16 88 54 3d 07 35 23 bd 6a af e1 3c
       0.050735712 0.051887594 -0.039845493 0.027549464
000090 4b 0f 72 3d 59 0d 84 3d f3 15 7d bc 4e 91 37 3d
       0.059096616 0.06447858 -0.015447128 0.044816308
0000a0 db 1c df bc 7f 10 48 3d 66 74 4a 3d 33 ad 57 bc
       -0.027235439 0.048843857 0.049427412 -0.0131638525
0000b0 3c 1a 69 bc 83 9f 1b bd fe 6f ab 3c 1b 8e 7d bb
       -0.014227446 -0.03799392 0.020927425 -0.0038689438
0000c0 70 1d 64 3d f2 cf c1 3c f3 b5 9b 3d 47 e5 a8 3c
       0.055692136 0.023658726 0.076030634 0.02061714
0000d0 48 e1 38 3d aa 23 13 bd 9e e0 46 bc 08 b0 0d 3d
       0.04513672 -0.035922684 -0.012138514 0.034591705
0000e0 34 63 81 bc 83 e2 01 3c 24 67 a9 3d f4 98 19 3d
       -0.015794374 0.00792754 0.08271626 0.037499383
0000f0 41 05 8d 3b db 6d 83 3d 2d c3 5f 3d 47 16 46 3d
       0.004303605 0.06417438 0.054629494 0.04836109
000100 cb 3d 09 3d 41 00 e3 3c 46 72 8b 3b b5 c4 97 3d
       0.033506196 0.027710082 0.004255566 0.07410566
000110 17 19 99 bc f2 e0 b8 bc 0a 67 70 bb 53 3c 25 3d
       -0.018688722 -0.0225682 -0.003668251 0.040340733
000120 a9 10 5f bc 1a 10 24 3d 7a ae 40 bc 8d 78 44 3d
       -0.013614812 0.04005442 -0.011760348 0.04796653
000130 1c ac 75 3d 20 e9 f4 3c 59 40 9a bc 64 15 31 3d
       0.05997859 0.029896319 -0.018829511 0.04323329
000140 df 2d 92 3d 36 da a4 3d 01 94 42 3d be 10 28 3c
       0.071376555 0.08049433 0.04750443 0.010257898
000150 6e 80 f4 3c 38 09 05 bd 60 13 18 bc 7b d0 8b 3d
       0.029846396 -0.032479495 -0.009281963 0.06826874
000160 59 ad 14 bc fe c8 e2 3c ec f5 13 3d a4 cb f3 3c
       -0.009074532 0.027683731 0.0361232 0.02976019
000170 25 82 21 3d 9c 6b 8f bc ec 14 af 3d 62 02 a0 3d
       0.039430756 -0.017507367 0.085489124 0.078129545
000180 05 e2 c6 3c 20 c1 66 3c 24 81 a3 3d 5b 75 5a 3d
       0.024277696 0.0140841305 0.07983616 0.053334575
000190 3d ee 50 3d 3b 79 56 bc 8e 03 ed bc 95 b3 95 3d
       0.05100845 -0.013090427 -0.02893236 0.07309643
0001a0 7a 3f 79 3c 54 f2 76 3d 2f 84 60 bc 59 84 f9 bc
       0.015212888 0.060289696 -0.01370339 -0.030458616
0001b0 72 8e 18 3d 0f 85 42 bd 2b 7e 1a 3d 8b 98 88 3c
       0.03724522 -0.047490176 0.03771798 0.0166743
0001c0 72 1b 1c bd 42 06 4d 3d d9 7e 3a 3d 07 b8 19 bd
       -0.03811211 0.050054796 0.045531128 -0.037529018
0001d0 65 e4 94 3d bf 37 09 3d 07 1c 8f bc 3a af 1e bc
       0.07270125 0.03350043 -0.01746942 -0.009685332
0001e0 22 05 99 3d ec 40 8b 3d 66 96 dc 3c 91 9f 6d bb
       0.07471682 0.06799492 0.026927184 -0.003625844
0001f0 79 6f 03 3d ff 45 5c 3c f7 0c 73 3d f3 5e 64 3d
       0.03208873 0.013444423 0.059338536 0.055754613
000200 00 37 ec 3c f2 3c 09 3d 5d cc 9c 3d 00 c5 ed bc
       0.02883482 0.033505388 0.07656167 -0.029024601
000210 0b 17 10 3d d7 1a 8f 3d c2 4a c3 bc 76 dc ad bc
       0.035178225 0.06987541 -0.023839358 -0.021223288
000220 5d a6 8e 3c f5 1e 91 3d f7 7d 04 3b cc 66 1d 3b
       0.017413313 0.07085983 0.0020216682 0.002401757
000230 71 c9 8f 3d 0f 01 19 bd ff b9 71 3d c7 b8 bb 3c
       0.07020844 -0.037354525 0.05901527 0.022915257
000240 d7 8c e3 bc ed 73 84 3d 1e 15 43 bc c6 06 d6 bc
       -0.027777119 0.064674236 -0.01190689 -0.026126277
000250 38 55 aa 3d 59 78 1a 3d 98 01 0a bd 53 e3 93 3c
       0.083170354 0.03771243 -0.033692926 0.018052733
000260 37 f8 59 3d e8 2b 25 bc 4e cf 44 3b b2 8c 2d 3d
       0.05321523 -0.010081269 0.003003079 0.042370506
000270 3c 0c 2e 3b 87 34 1c bd 19 88 df bc f1 05 78 3d
       0.0026557585 -0.03813603 -0.027286576 0.06055254
000280 cd ba a5 bc 04 b0 75 3a 60 19 3b 3c 34 f2 87 3c
       -0.020230675 0.00093722367 0.011419624 0.016594984
000290 89 a9 11 3d 73 e2 3a 3d e2 7c 35 3d e5 b3 fd bc
       0.035562072 0.045626115 0.04430855 -0.03096957
0002a0 70 0e 57 3d 5c e5 5a bc 4c b2 cd bc a5 32 97 3d
       0.052504003 -0.013360348 -0.025109433 0.073827066
0002b0 93 9a 22 3d 9e 81 98 3d a8 9a 47 bc c5 6c 6b 3d
       0.039698195 0.074465975 -0.012182869 0.057476778
0002c0 d3 98 2c bd c4 46 0a bd ce ce 21 3d 47 65 7e 3d
       -0.042137932 -0.033758894 0.039503865 0.062108304
0002d0 66 40 82 bc 25 b3 ae bb 8d 94 1c 3d 29 41 7c 3c
       -0.015899848 -0.0053314143 0.038227607 0.015396395
0002e0 5d a2 f3 bc 23 6b 7f 3d e2 9a 3c bc 22 59 e3 bc
       -0.029740507 0.062358033 -0.011511536 -0.027752463
0002f0 4b 98 88 3d 1d 4a 87 3d 0c d8 72 3d 1c b4 b2 bb
       0.066696726 0.06605933 0.05928807 -0.0054535996
000300 73 4a 33 3d 95 01 05 bc ce b2 50 3c c5 6e 01 bd
       0.043772172 -0.008118053 0.012737943 -0.03159978
000310 f4 6f 2c bd 86 ac 37 bc 14 9e 2c bd f0 ea 32 bb
       -0.042098954 -0.011210566 -0.042142943 -0.0027300678
000320 dc 1e 9d 3d ab 7b 7b bc 12 9d 1c 3c c2 e4 88 3c
       0.076719016 -0.015349309 0.009558933 0.016710643
000330 12 e1 0c bd 68 ab 47 3d 34 a1 37 3d 78 9f 42 bd
       -0.03439433 0.04874745 0.04483147 -0.047515363
000340 f6 3b 24 3d 0e 88 fd 3c c3 a0 75 3d 6f 53 66 3c
       0.040096246 0.030948665 0.059967767 0.014057978
000350 17 ec 92 3d df d1 5e 3c 83 3a f9 3b 59 ca 7f 3c
       0.07173937 0.013599842 0.007605852 0.015612208
000360 95 28 82 3d 6c db 56 3d a9 12 01 bd 99 fb 71 3d
       0.06355397 0.05245535 -0.031511936 0.059077833
000370 8e 02 0d 3c c6 56 fa 3a 90 78 a8 3b 3a 18 05 bc
       0.008606566 0.0019099347 0.0051413253 -0.008123452
000380 75 ce 8f 3d fa 50 bb 3c 3a 8d 83 3d 02 22 8a 3c
       0.070218004 0.022865761 0.06423421 0.01686192
000390 4d 5b d5 3b 9e 81 13 bc 71 cf c9 bc 2d b5 30 3d
       0.006511128 -0.009003071 -0.024635049 0.043141533
0003a0 13 ee b4 bc b3 d7 90 ba c9 55 b5 3c 62 81 6d 3d
       -0.022086179 -0.0011050612 0.022135632 0.057984717
0003b0 fe e1 74 bb aa 42 f9 bb 51 71 12 bd 7d d9 06 bd
       -0.0037366147 -0.007606824 -0.0357526 -0.032922257
0003c0 f3 2a 15 3c af 52 18 bd d3 15 88 bc 71 f2 86 3d
       0.009104478 -0.03718823 -0.01661197 0.06589211

model.feature_nns.2.model.0.weights f4 [1, 112]
000000 b6 00 ed 3f c7 86 e9 3f 29 d5 db 3f 4a 55 e8 3f
       1.8515842 1.8244256 1.7174426 1.8151028
000010 b5 8d e0 3f 78 70 ec 3f 89 55 ee 3f 1a 91 df 3f
       1.7543246 1.8471823 1.8619853 1.7466156
000020 65 b8 d9 3f 68 68 cb 3f 24 4f ec 3f a9 02 f1 3f
       1.7009398 1.5891237 1.8461652 1.8828937
000030 61 06 e3 3f f9 9c e4 3f ca 76 eb 3f 3a 3e d9 3f
       1.7736322 1.7860404 1.8395627 1.6972115
000040 07 2a d5 3f 40 1a e6 3f 63 d7 ec 3f ef 0b e9 3f
       1.6653451 1.7976761 1.8503231 1.8206767
000050 5d 70 da 3f 88 7e f0 3f 21 40 ed 3f 10 84 e1 3f
       1.706554 1.8788614 1.8535196 1.7618427
000060 ea 01 b8 3f ef 79 ec 3f 76 89 bf 3f 43 5e e9 3f
       1.4375584 1.8474711 1.4963825 1.8231891
000070 db cc e0 3f 55 58 e2 3f 90 b8 dd 3f e0 ab e5 3f
       1.7562517 1.7683207 1.7321949 1.7943077
000080 ab 47 f0 3f 7a c5 dd 3f 32 a7 d9 3f 70 d1 ea 3f
       1.8771871 1.732589 1.7004149 1.8345165
000090 9e 73 f0 3f ab b8 ee 3f 4b 90 dc 3f fe ac e4 3f
       1.8785284 1.8650106 1.7231535 1.7865293
0000a0 d5 4b e4 3f 9e e8 c6 3f 27 82 f0 3f 80 21 e6 3f
       1.7835642 1.5539739 1.8789719 1.7978973
0000b0 15 0f d3 3f 80 b2 de 3f c4 a7 df 3f d6 fe dc 3f
       1.6488978 1.7398224 1.7473073 1.726527
0000c0 d2 58 e5 3f b1 16 e7 3f ab 2f ea 3f 12 01 e0 3f
       1.7917731 1.80538 1.8295797 1.7500327
0000d0 6f f4 e2 3f 98 75 de 3f b6 b1 e8 3f 7e 58 ef 3f
       1.7730845 1.7379637 1.8179233 1.8698881
0000e0 bb 6d e0 3f 74 84 dd 3f 03 b3 eb 3f f7 bc ef 3f
       1.7533487 1.7306046 1.8414005 1.8729542
0000f0 81 e6 ea 3f 99 d7 ef 3f b6 b1 e8 3f aa 8f ee 3f
       1.8351594 1.873767 1.8179233 1.8637593
000100 84 eb ed 3f 4f 60 ef 3f 1e 68 ef 3f 9a f2 e9 3f
       1.8587499 1.8701266 1.8703649 1.8277161
000110 c0 e8 c3 3f 90 df eb 3f 25 2b de 3f 35 37 cb 3f
       1.5305405 1.8427601 1.7356917 1.5876223
000120 f8 b4 e4 3f 55 28 ce 3f 1b 09 e7 3f be 1c e8 3f
       1.7867727 1.6106058 1.8049654 1.8133771
000130 fd 3c ef 3f 2d 51 e5 3f f3 2f e6 3f 8d 08 f0 3f
       1.8690487 1.7915398 1.7983383 1.875261
000140 be 1c e8 3f e6 e1 d4 3f 3d ac dc 3f 65 e7 e9 3f
       1.8133771 1.6631439 1.7240063 1.8273741
000150 fb 35 ca 3f f1 bc e4 3f 1e 2e ed 3f af fc b3 3f
       1.5797724 1.787016 1.8529699 1.4061488
000160 dc 97 e1 3f ae 8d be 3f a6 40 df 3f 5d 70 da 3f
       1.7624469 1.4886987 1.7441604 1.706554
000170 90 b8 dd 3f eb e2 f0 3f 9a 4f da 3f e0 ab e5 3f
       1.7321949 1.881925 1.7055542 1.7943077
000180 15 0f d3 3f 29 3a e5 3f 07 8d f0 3f 27 b9 ef 3f
       1.6488978 1.7908374 1.8793038 1.8728379
000190 ad 6f e9 3f eb e2 f0 3f 62 83 ec 3f 32 69 e6 3f
       1.8237206 1.881925 1.8477595 1.8000853
0001a0 36 00 db 3f 35 75 ec 3f c5 4c e9 3f 64 a4 e5 3f
       1.7109439 1.8473269 1.8226553 1.7940793
0001b0 58 2f c8 3f e2 92 e3 3f 9b 52 e9 3f 4b 21 ef 3f
       1.5639448 1.77792 1.8228334 1.8682035

model.feature_nns.2.model.1.weight f4 [1, 112]
000000 de 0f b0 3d 6d e2 b7 bb da 5d ad bb 5d 25 76 bd
       0.085967764 -0.005611709 -0.005290729 -0.060094226
000010 62 1a 16 bd 7e 44 b1 bc 0e be 75 bd 88 0a 17 3d
       -0.036646254 -0.021639105 -0.059995703 0.036875278
000020 19 82 f1 3c d8 54 d4 3b 33 49 e7 3b 92 c8 43 bd
       0.02948098 0.0064798407 0.0070582866 -0.0477987
000030 14 29 c3 3b 7d 99 a7 3c a6 92 1d 3c bc 62 c9 ba
       0.0059558246 0.020458931 0.009617483 -0.0015364508
000040 f4 3f a7 3b 7f 04 19 bc 55 17 0f bd ea ca bb bb
       0.0051040594 -0.009339451 -0.03493436 -0.0057309764
000050 0d 48 ce bb 86 41 2d bd 6c 6b 0a 3d 10 aa a3 3c
       -0.00629521 -0.042298816 0.03379385 0.019978553
000060 87 9a 82 bd 6e 2b 24 3c 6d f9 33 bd c8 60 a4 3a
       -0.0637713 0.01002012 -0.043939043 0.001254105
000070 6a a1 e3 bb 26 55 09 3c 1a 9d 02 3d 8f 95 ee bb
       -0.0069467323 0.008382117 0.031888105 -0.0072810124
000080 10 93 11 3d df c9 54 bd 5e c9 b0 3c a0 e2 e3 b9
       0.03554064 -0.05195033 0.021580394 -0.00043465663
000090 2b 74 21 3d e8 bc ca 3b 84 f9 e8 ba 61 a7 10 bd
       0.039417427 0.00618707 -0.0017774557 -0.035315875
0000a0 3c 43 b5 3b 51 39 53 bc 0a 15 e6 bc 26 31 1a bd
       0.0055316966 -0.012892083 -0.028086204 -0.037644528
0000b0 57 fe 92 3d 42 ee 4d 3b 9b 7c fd bb 50 b5 4b 3d
       0.07177418 0.003142253 -0.0077358014 0.04973346
0000c0 d6 0e 05 bb 20 6a 57 bd ce 04 0f bc 35 e2 8b 3d
       -0.0020303032 -0.052591443 -0.008729173 0.06830255
0000d0 3c ef e9 bb ce 33 c3 3b 71 2c 7b bd e4 b7 a3 3c
       -0.0071391147 0.0059571033 -0.06132168 0.019985147
0000e0 b7 c5 7e 3d d3 c7 01 bc aa cf ef bc 90 0e 47 bd
       0.062200274 -0.007921177 -0.029273827 -0.048597872
0000f0 c4 94 16 3d 84 40 16 bd 60 bf f5 3c b9 8b 46 bd
       0.036762968 -0.03668262 0.029998481 -0.048473094
000100 9a 8e 82 bd cc 59 3c bc 9b a4 18 bc 45 aa c1 3d
       -0.06374855 -0.011496019 -0.009316589 0.094563045
000110 ec 13 92 3d 56 09 9d bc db ed 06 3d 15 3f 08 3c
       0.07132706 -0.01916949 0.03294168 0.008315821
000120 36 be c8 bc ae f2 64 3c 10 11 05 3a 74 e7 02 3d
       -0.024504762 0.013973875 0.000507609 0.031959012
000130 ca 43 85 3d 00 77 d6 ba c0 33 3a 3d 3e 81 37 3d
       0.0650707 -0.0016362369 0.04545951 0.04480099
000140 e2 16 72 bc 2a b5 3b 3d 56 3c a2 3d 27 39 a6 bb
       -0.0147759635 0.04582707 0.079216644 -0.005072731
000150 40 d9 88 bc 80 10 ad 3d 7c ef 2f 3d eb ac 80 bb
       -0.016705155 0.08450413 0.042953 -0.0039268634
000160 30 ab 80 b9 9a a3 18 bd 85 3f 1f 3d 8a 7a 6c bd
       -0.00024541607 -0.037265398 0.038878936 -0.05773405
000170 0a da 2b bc bc 3f a3 bb 04 a8 83 bd 1e f5 2f 3c
       -0.010488996 -0.004981963 -0.06428531 0.010739593
000180 e0 25 c0 3c 94 eb 17 3d 78 16 84 3c fc 8b c8 3c
       0.02345556 0.0370899 0.016123995 0.024480812
000190 30 d1 d1 3d fc 76 2a bc 9a 90 9d bc b4 57 dd ba
       0.102449775 -0.010404345 -0.01923399 -0.00168871
0001a0 c0 40 e5 3d ea ca ae 3c 0c 21 2f 3c c4 b6 c3 3c
       0.11193991 0.021336991 0.010689031 0.02389086
0001b0 e6 28 cb 3c 40 02 9d bc a2 8a eb 3c 2b f3 66 bc
       0.024799775 -0.019166112 0.028752629 -0.014096062

model.feature_nns.3.model.0.weights f4 [1, 272]
000000 4a 55 e8 3f 35 e5 ec 3f 38 96 ec 3f 22 fc ec 3f
       1.8151028 1.8507448 1.8483343 1.8514445
000010 7f 09 ee 3f 03 b3 eb 3f 49 d8 f0 3f 69 85 cd 3f
       1.8596648 1.8414005 1.8816005 1.6056339
000020 5c 74 e2 3f ee c3 e8 3f 4b 90 dc 3f fd f0 ea 3f
       1.769176 1.8184793 1.7231535 1.8354794
000030 25 a9 d6 3f e8 e6 e6 3f bd d4 f0 3f b2 f9 ad 3f
       1.6770369 1.8039217 1.8814923 1.3591826
000040 fd e9 f0 3f bb a1 e1 3f 63 d7 ec 3f 89 1a d9 3f
       1.8821408 1.7627481 1.8503231 1.6961223
000050 6a 5d eb 3f f4 02 d8 3f 87 1a ee 3f 9a 4f da 3f
       1.8387883 1.6875901 1.8601846 1.7055542
000060 6a ad e0 3f ff 0d bf 3f bb 2c dc 3f 0e 52 ed 3f
       1.7552922 1.4926146 1.7201151 1.8540666
000070 67 95 e5 3f 44 16 ee 3f aa 8f ee 3f ae 8d be 3f
       1.7936219 1.8600545 1.8637593 1.4886987
000080 2e 3f e7 3f f7 db d7 3f a2 80 da 3f fa 66 ec 3f
       1.8066156 1.6864003 1.7070506 1.8468926
000090 e2 8c e4 3f e2 03 e5 3f 3b e6 d3 3f 95 60 e7 3f
       1.7855494 1.789181 1.6554636 1.807635
0000a0 07 8d f0 3f e3 7a f0 3f 8c da d9 3f 68 c4 e6 3f
       1.8793038 1.8787502 1.701982 1.8028688
0000b0 11 4d d4 3f 02 2a e3 3f 23 ba dc 3f 73 32 e5 3f
       1.6586019 1.7747195 1.7244304 1.7906021
0000c0 68 81 ea 3f 27 b9 ef 3f 2d 51 e5 3f f2 ea df 3f
       1.8320742 1.8728379 1.7915398 1.7493575
0000d0 3d c0 ec 3f f7 db d7 3f 33 c7 e2 3f 29 4d ee 3f
       1.8496166 1.6864003 1.7717041 1.8617297
0000e0 b3 1f c9 3f b4 09 e8 3f 99 d7 ef 3f c1 3e eb 3f
       1.5712799 1.8127961 1.873767 1.8378526
0000f0 e5 80 eb 3f 0d 4f e8 3f c9 df e5 3f ce 17 e9 3f
       1.839871 1.8149124 1.7958919 1.821039
000100 6e 95 e7 3f 8c 0c e2 3f be 1c e8 3f 3c 05 ee 3f
       1.8092477 1.7660079 1.8133771 1.8595347
000110 1f 6a dd 3f 17 0b eb 3f a5 50 ef 3f 3a 3e d9 3f
       1.729801 1.8362759 1.8696486 1.6972115
000120 e1 8d e5 3f f0 b6 ec 3f 94 50 ea 3f 24 33 e4 3f
       1.7933923 1.8493328 1.830584 1.7828107
000130 5e 61 f0 3f 33 54 d1 3f 3b 77 e5 3f 49 83 ee 3f
       1.8779714 1.635382 1.7927011 1.8633815
000140 6d b0 c7 3f 65 01 ef 3f fc 3d c4 3f 32 5c e4 3f
       1.5600716 1.86723 1.5331416 1.7840636
000150 f8 b4 e4 3f 88 45 e2 3f e7 e3 db 3f 7f 09 ee 3f
       1.7867727 1.7677469 1.7178925 1.8596648
000160 0d 4f e8 3f 2d 51 e5 3f fd 12 e6 3f 26 cc ea 3f
       1.8149124 1.7915398 1.7974545 1.8343551
000170 7d aa ed 3f 16 06 df 3f ab 2f ea 3f 91 ab e1 3f
       1.8567654 1.7423732 1.8295797 1.7630483
000180 48 54 cc 3f bb 2c dc 3f 80 e2 de 3f e8 2e db 3f
       1.5963221 1.7201151 1.7412872 1.712369
000190 c0 e8 c3 3f a6 40 df 3f c7 0f dc 3f b2 0b e5 3f
       1.5305405 1.7441604 1.7192315 1.7894194
0001a0 24 38 ee 3f c5 1e ee 3f 67 e2 e2 3f 29 3a e5 3f
       1.8610883 1.860314 1.7725343 1.7908374
0001b0 7e f0 e3 3f 46 e5 ee 3f 37 00 d4 3f 3e 1b e5 3f
       1.7807767 1.8663719 1.6562566 1.7898939
0001c0 32 f1 dc 3f b6 70 d5 3f 20 37 ed 3f 98 26 d6 3f
       1.7261107 1.6675022 1.8532448 1.6730528
0001d0 d2 28 b6 3f 57 03 e8 3f 6a ac ee 3f 4f 1a c2 3f
       1.4231207 1.8126019 1.8646367 1.5164279
0001e0 15 dc e8 3f 8a 8a db 3f 56 19 ef 3f 38 1b f0 3f
       1.8192164 1.7151654 1.8679607 1.8758307
0001f0 41 53 e7 3f 1c 46 d3 3f ac 7e c5 3f 0e 8b ef 3f
       1.8072282 1.6505771 1.5429282 1.8714311
000200 95 99 db 3f 3c 05 ee 3f 3d e1 ea 3f 4b 0c f0 3f
       1.7156245 1.8595347 1.8349987 1.8753752
000210 55 28 ce 3f 32 b5 e3 3f 86 49 e5 3f f6 02 e2 3f
       1.6106058 1.7789671 1.7913063 1.7657154
000220 b2 0b e5 3f 8e 91 dd 3f bb 2c dc 3f c7 86 e9 3f
       1.7894194 1.7310045 1.7201151 1.8244256
000230 94 50 ea 3f 73 5b cd 3f e7 c3 ce 3f 95 a1 e6 3f
       1.830584 1.6043533 1.6153535 1.8018061
000240 24 88 d8 3f b3 52 f0 3f bf bc ee 3f f1 bc e4 3f
       1.6916547 1.8775238 1.8651351 1.787016
000250 89 1a d9 3f 57 eb bc 3f 81 eb d9 3f 08 1f ec 3f
       1.6961223 1.475932 1.7024995 1.844697
000260 35 37 cb 3f 54 ed ee 3f c7 0f dc 3f 77 d6 e7 3f
       1.5876223 1.8666177 1.7192315 1.8112324
000270 d7 6e df 3f 05 60 da 3f 68 89 f0 3f b6 e6 ef 3f
       1.7455701 1.7060553 1.8791933 1.8742282
000280 ca b7 e8 3f 88 b5 c1 3f 80 e2 de 3f 9e e8 c6 3f
       1.8181088 1.5133524 1.7412872 1.5539739
000290 02 b1 da 3f 1e 3f da 3f e1 a2 e0 3f ab 75 ed 3f
       1.7085268 1.7050512 1.7549707 1.8551534
0002a0 f3 1e b5 3f e3 c4 ee 3f 73 9c df 3f 8d af e6 3f
       1.415007 1.8653835 1.746962 1.8022324
0002b0 95 19 ea 3f 8e 91 dd 3f 26 66 e1 3f b2 58 ec 3f
       1.8289057 1.7310045 1.7609298 1.8464568
0002c0 78 f0 c7 3f 07 8d f0 3f 8b 84 d9 3f a1 96 ef 3f
       1.562026 1.8793038 1.6993574 1.8717843
0002d0 50 0f e3 3f 61 06 e3 3f bb a1 e1 3f 01 6b ca 3f
       1.7739048 1.7736322 1.7627481 1.5813905
0002e0 9e 39 eb 3f e1 a2 e0 3f 3e 1b e5 3f a0 32 ed 3f
       1.8376958 1.7549707 1.7898939 1.8531075
0002f0 67 05 ef 3f ea e2 ed 3f 84 b6 e6 3f df 34 dd 3f
       1.8673524 1.8584874 1.8024449 1.728176
000300 82 b0 ee 3f 44 16 ee 3f bb 6d e0 3f 0c a4 eb 3f
       1.8647616 1.8600545 1.7533487 1.8409438
000310 8c 91 ea 3f 35 c2 e5 3f ea e2 ed 3f a4 09 e4 3f
       1.8325667 1.7949892 1.8584874 1.7815442
000320 3a 67 e7 3f 0b cc d3 3f 64 c9 c9 3f 2e 3f e7 3f
       1.8078377 1.6546644 1.5764585 1.8066156
000330 d4 d7 cd 3f fa 35 e8 3f 34 cc ef 3f 8c b4 d7 3f
       1.608149 1.8141472 1.8734193 1.6851974
000340 c0 06 ec 3f 65 3b e4 3f 06 0b bb 3f 8c 20 ed 3f
       1.843956 1.7830626 1.4612739 1.8525558
000350 5c 4a ec 3f e1 f7 cb 3f 62 df f0 3f dc 6d e7 3f
       1.8460193 1.5935022 1.8818171 1.8080401
000360 fc 3d c4 3f 19 2a f0 3f ca 76 eb 3f 55 28 ce 3f
       1.5331416 1.8762847 1.8395627 1.6106058
000370 dc 97 e1 3f 88 2d ec 3f 67 e2 e2 3f a8 7d e2 3f
       1.7624469 1.8451395 1.7725343 1.7694597
000380 f0 12 ed 3f 25 1e b7 3f a9 e8 d6 3f 18 3c e2 3f
       1.8521404 1.4306074 1.6789752 1.7674589
000390 9b 52 e9 3f 10 fa e8 3f b6 70 d5 3f ca bb f0 3f
       1.8228334 1.8201313 1.6675022 1.8807309
0003a0 2a 2a eb 3f 50 98 e0 3f 09 9a eb 3f fd fc eb 3f
       1.8372242 1.7546482 1.8406383 1.8436581
0003b0 4e ac ea 3f 93 81 cc 3f ea e2 ed 3f 11 fc e4 3f
       1.8333833 1.5977043 1.8584874 1.7889425
0003c0 5d d9 e2 3f 35 01 dc 3f 78 f0 c7 3f 1d 1f ea 3f
       1.7722584 1.7187868 1.562026 1.8290745
0003d0 f1 a8 ec 3f 4d 7c d3 3f 7d e4 eb 3f e5 d0 da 3f
       1.8489057 1.6522309 1.8429104 1.7095
0003e0 ac a0 d7 3f 91 a8 db 3f 67 f8 ed 3f 9e 44 ed 3f
       1.6845908 1.7160817 1.8591431 1.8536565
0003f0 97 9f ec 3f 90 7b ef 3f 49 83 ee 3f 5c f6 e0 3f
       1.8486203 1.8709583 1.8633815 1.7575183

model.feature_nns.3.model.1.weight f4 [1, 272]
000000 4d 0f 96 bc 4f fa 25 bc 4c d6 cb 3b c4 de f1 bb
       -0.018317843 -0.010130479 0.0062206145 -0.007381292
000010 a0 ff 6d bc 58 73 c9 3c ca 36 2c bc 0f 03 0f bc
       -0.014526278 0.024591133 -0.01051111 -0.008728757
000020 e9 ad b8 bc a8 1a 56 bc 68 a2 29 3c c8 a9 b4 3c
       -0.022543864 -0.013067879 0.010353662 0.022053614
000030 8b 70 80 bc 9f 5b ef 3b fe ea 3d bc 07 d1 80 bd
       -0.015678665 0.0073046233 -0.011591671 -0.06289869
000040 30 1a 98 3c 92 b5 90 bc b0 2b b2 3c 69 7d 35 3c
       0.018567175 -0.017664704 0.021749347 0.011077263
000050 3a aa f4 3b 6a 97 4a bd 4e 4d 11 bc 88 20 0b 3c
       0.0074665817 -0.049460806 -0.0088685285 0.008491643
000060 50 fa c3 3c 7e c4 45 bd e4 c8 d7 3c 42 19 00 bd
       0.02392307 -0.048283093 0.02634091 -0.031274088
000070 18 cb 05 3c 73 b6 ff bc 2c fd 54 bd c0 37 6c 3c
       0.008166097 -0.031214928 -0.051999256 0.014417589
000080 98 49 83 bd 54 8d 12 bc d1 3c ca bc bd a3 b8 bc
       -0.06410521 -0.008944828 -0.024687203 -0.022539014
000090 12 4f d2 bc e6 0f 05 bc d5 39 a2 bc cf 79 f4 bb
       -0.02567247 -0.008121466 -0.019802967 -0.00746081
0000a0 e3 84 74 bd 30 0d fb bb 7d 30 85 bb 19 49 10 bc
       -0.059697043 -0.007661484 -0.004064618 -0.00880649
0000b0 2c 1a 85 bd e8 91 e2 ba 26 c3 d5 bc 00 17 fd 39
       -0.064991325 -0.0017285915 -0.02609403 0.00048273057
0000c0 be 0d da bc ab 0e 2c 3c 06 97 87 bb 29 0b f2 bc
       -0.02661788 0.010501544 -0.0041378764 -0.029546337
0000d0 00 1f 02 b9 07 29 c1 3c 95 18 5b bc eb 8c 9f 3b
       -0.00012409315 0.023579134 -0.01337256 0.0048690937
0000e0 46 8d 22 3c 44 be 0c bd 42 06 16 bc 2f c8 db bc
       0.0099213775 -0.03436114 -0.009156765 -0.026828853
0000f0 2c 22 a7 3c a8 b6 49 bc 10 e3 20 3a 86 0c 66 bc
       0.020402037 -0.012311615 0.00061373506 -0.014041072
000100 74 27 58 bd d3 10 a2 3c 5f cc 93 bc a8 5f d3 3b
       -0.052772 0.019783413 -0.018041788 0.006450612
000110 4d ac 21 bd 7e d3 da 3c f4 6c 28 3c a9 a1 82 bc
       -0.03947096 0.026712175 0.010279883 -0.015946226
000120 c7 00 0d bd cb e4 9e bc 34 e7 1e 3b dc 5e 2e bc
       -0.03442457 -0.019396206 0.0024246695 -0.010642733
000130 0a 63 cd bc 70 cc b6 bc 20 65 d5 bb c2 6a 96 3c
       -0.02507164 -0.02231428 -0.006512299 0.018361453
000140 a2 99 0c bd 9e 5e 79 3c 92 8f 01 bc f0 a2 95 39
       -0.034326203 0.015220312 -0.007907765 0.00028540893
000150 52 30 48 bb 74 8d 50 3c 94 9f 3b bc 8d a8 62 bc
       -0.003054638 0.012729038 -0.011451621 -0.013834131
000160 f5 b5 38 bc 48 b1 41 bc 1e 5c f0 bb b6 43 53 bd
       -0.011273851 -0.011822052 -0.0073352 -0.051578246
000170 f0 b6 0f bc e6 77 08 3c 4d a4 d2 bc 60 b5 7b bb
       -0.008771643 0.008329367 -0.02571311 -0.0038407668
000180 d4 0b c6 3b 2c 15 47 bd 08 6a 19 3a a8 d8 cd 3a
       0.0060438905 -0.048604175 0.00058522867 0.0015704827
000190 d0 49 5c bc a0 38 c8 bc 2b a0 e3 bc 4e f1 21 bd
       -0.013445333 -0.024441063 -0.027786335 -0.039536767
0001a0 fc 17 56 3b cf d6 c0 bc 62 4b d2 3a 67 39 78 bd
       0.0032668104 -0.023539929 0.0016044194 -0.06060162
0001b0 94 ca 15 bc 06 a0 5e bc 82 cb 3d bb 26 78 f1 3a
       -0.009142537 -0.013587957 -0.0028960411 0.0018422648
0001c0 a6 0b 97 3b 02 25 b4 3c 72 58 2e bc b3 4a d6 bc
       0.004609543 0.021990303 -0.010641204 -0.026158666
0001d0 90 66 e6 bc e5 d2 02 3c 50 40 88 bc 52 d2 ec 3b
       -0.028125077 0.0079848515 -0.01663223 0.0072272206
0001e0 68 c9 54 3a 07 35 6f bd 7a d7 34 bd 46 e6 98 bc
       0.000811717 -0.05840018 -0.044150807 -0.01866449
0001f0 a1 e8 01 bd e2 98 2d bd 3f 73 65 bb 78 55 41 bb
       -0.031715993 -0.04238213 -0.003501132 -0.0029500406
000200 f6 2c 23 3b 2c 0b 85 3c 6d c6 37 bc 92 85 57 bc
       0.0024898625 0.016240679 -0.011216742 -0.013154404
000210 32 bc c5 bc a7 ea 2b bd a5 bc 3b bd ec 2f a5 3b
       -0.02413759 -0.04197183 -0.045834202 0.005041113
000220 4f 6b e3 3b fe b4 76 bd d6 57 80 bb 8a c3 ce bb
       0.0069402824 -0.0602312 -0.003916721 -0.006309931
000230 08 a4 ff 3b e8 72 69 bd 62 f6 5b bc a0 71 01 b9
       0.0078015365 -0.05699435 -0.013425441 -0.00012344727
000240 2a a2 9e bb fe 5a 26 bc b0 9f 28 bc e4 ce c8 bb
       -0.004841109 -0.01015353 -0.010291979 -0.006128179
000250 1b fa 7e bd 17 b7 b9 3c fe 36 28 bc 6b 1d 6b bc
       -0.062250238 0.022670312 -0.010267017 -0.0143502755
000260 4a cc bb bb 88 f4 1d 3c a3 d3 cc bc 80 ac cc bc
       -0.0057311403 0.00964082 -0.02500326 -0.024984598
000270 2a cd e4 bc 50 63 ab 3b 91 51 86 bd 48 87 6d 3c
       -0.027929861 0.005230345 -0.06558526 0.014497586
000280 f5 05 d1 bb cc 84 4a bd 5d 01 ba bb ee 71 68 bb
       -0.006378884 -0.04944305 -0.005676432 -0.0035468298
000290 62 76 ec bc dc 83 f2 bc b3 a6 4d bc 03 c0 90 bc
       -0.028865043 -0.029603891 -0.012551951 -0.017669683
0002a0 ac 0f 2e 3c e7 c0 50 bc cc 17 58 bd 09 88 7f bc
       0.010623854 -0.012741304 -0.05275707 -0.015596398
0002b0 70 b6 c3 39 69 1f 03 bc 7f a4 6f bd 90 fc bc 3a
       0.00037329225 -0.008003094 -0.058506485 0.0014418531
0002c0 5a c4 22 bb a5 d1 71 bb ea 02 18 bd 9f fb d7 bb
       -0.0024836273 -0.003689864 -0.037112154 -0.006591275
0002d0 97 29 b6 3b a0 ad 9b bc b3 01 b1 bb c1 ab d7 3c
       0.005559157 -0.01900369 -0.005401814 0.026327016
0002e0 af b8 32 3c b4 e5 b8 bb d0 0b 43 bc f3 3e 3a 3c
       0.01090829 -0.005642617 -0.011904672 0.011367547
0002f0 cc 97 80 bc 9a c4 29 3c c8 84 1c bd 90 64 e2 ba
       -0.015697382 0.010361815 -0.038212568 -0.0017272402
000300 61 b0 6a bc c7 dc 33 3c 00 d8 a4 b8 10 8c 2b bc
       -0.014324279 0.01097793 -7.8603625e-05 -0.010470405
000310 74 30 94 bc b8 c1 7f bc ee 98 6a bd 68 9f f9 bb
       -0.01808951 -0.015610151 -0.05727475 -0.0076178797
000320 7a 98 15 bd 20 1b 65 3c 68 6b 83 bc 24 8b a6 bc
       -0.036522366 0.013983518 -0.016042426 -0.02033002
000330 66 85 17 bc b5 ab 13 bd 86 3c 10 bc 1f 98 95 bc
       -0.009248113 -0.036052424 -0.008803492 -0.018261014
000340 cc 6e bc ba 37 cb 7e bd b5 ea d2 bb 46 4e 16 3c
       -0.0014376282 -0.06220552 -0.0064366707 0.009173935
000350 56 a3 bf bc 07 c3 37 bc ac ee 83 3c 38 f4 ad bc
       -0.023393314 -0.011215932 0.016105019 -0.021234617
000360 6e 02 94 bb aa d5 77 3c d4 88 99 bb 0f fe 00 3c
       -0.004516891 0.015126625 -0.0046855006 0.007873072
000370 9a 8a 94 3b f5 88 a4 bc e9 4e 2a bd e8 d8 da bb
       0.004533124 -0.020084837 -0.04157916 -0.0066786893
000380 c8 d9 e2 3c d2 6d 8e bb a0 be 99 3c 9c 68 ae bc
       0.027691737 -0.0043465877 0.018767655 -0.021290116
000390 94 e0 22 3c 9f f4 3d bc be 77 61 bc 12 ab 08 bb
       0.009941239 -0.011593967 -0.013761459 -0.002085392
0003a0 8c 77 47 bd 0a 26 db bc c6 b7 6d bc a9 02 52 bd
       -0.048697993 -0.026751537 -0.014509147 -0.05127207
0003b0 05 60 2c bd 7e ac 2e bc 18 da 91 bc 7c 06 3f bd
       -0.04208376 -0.0106612425 -0.01780419 -0.046637043
0003c0 ba f4 52 bd 91 87 4c 3c 76 2a 83 bc a7 4c 93 3c
       -0.05150292 0.012483493 -0.016011458 0.017980887
0003d0 97 24 ab 3c 95 22 99 3c b7 48 92 3c 64 8a 36 3c
       0.02089147 0.018693248 0.017856939 0.011141393
0003e0 14 90 66 bc 3a 58 a7 bc 0f c7 89 bd 4f b6 84 3b
       -0.014072437 -0.020427812 -0.067274205 0.004050053
0003f0 7c 80 c3 bc 11 1d df 3b 93 4e 0a bd 58 b5 4f 3b
       -0.023864977 0.006808885 -0.03376634 0.0031693783
