GolfFeedback-poc/src/s3_NAM_model/output/NAM_Experiment/0/checkpoints/output/NAM_Experiment/0/epoch=04-val_loss=843.8608-v2.ckpt (torch, 605937 bytes, 240 tensors)

model.feature_nns.0.model.0.weights f4 [1, 1000]
0	0x3fd86cd2	1.6908209
1	0x3fecee0d	1.8510147
2	0x3fe9f905	1.827912
3	0x3fea1aa8	1.8289385
4	0x3fed0f2b	1.8520254
5	0x3fdead2d	1.7396599
6	0x3feb8ae5	1.8401762
7	0x3fed0799	1.8517944
8	0x3fe6b03f	1.8022536
9	0x3fbb773e	1.4645765
10	0x3fb71ce3	1.430569
11	0x3fdbf770	1.7184887
12	0x3fe88f7d	1.8168789
13	0x3feab6e3	1.8337063
14	0x3fe809f3	1.8128036
15	0x3fc5314b	1.5405668
16	0x3fe0e2a3	1.7569164
17	0x3fe9c9c3	1.8264698
18	0x3fe7e9b3	1.8118194
19	0x3fe5ceec	1.7953773
20	0x3fec4aec	1.8460364
21	0x3fce51ff	1.6118773
22	0x3fe39f39	1.7782966
23	0x3fd47225	1.6597334
24	0x3fb7fd6c	1.4374213
25	0x3fdc4205	1.7207648
26	0x3fdf1bbe	1.7430341
27	0x3feaa425	1.8331343
28	0x3fcfb6cf	1.6227664
29	0x3fe6376b	1.7985662
30	0x3fd90902	1.6955874
31	0x3fd9da08	1.7019663
32	0x3fc9194f	1.5710849
33	0x3fe8b591	1.818041
34	0x3fe6d145	1.8032614
35	0x3fe194b2	1.7623503
36	0x3fc04137	1.5019902
37	0x3fecab17	1.8489712
38	0x3fe1e9c1	1.7649461
39	0x3fcc4750	1.5959263
40	0x3feb4ba3	1.8382457
41	0x3fb76b07	1.4329537
42	0x3fe83058	1.8139753
43	0x3fea3b80	1.8299408
44	0x3fe9a8d6	1.825465
45	0x3fec539b	1.8463014
46	0x3fd4d385	1.6627051
47	0x3fbd5a2b	1.4793142
48	0x3fec0336	1.843848
49	0x3fe6da0a	1.803529
50	0x3fe8a199	1.8174316
51	0x3fe8859c	1.8165774
52	0x3fd94b8a	1.6976178
53	0x3fea2153	1.829142
54	0x3fe6e4c1	1.803856
55	0x3fe78322	1.8086894
56	0x3fd81a36	1.6882999
57	0x3fd455ec	1.6588721
58	0x3fe0cd5e	1.7562673
59	0x3fca2ef6	1.5795581
60	0x3fe1b98d	1.7634751
61	0x3fe47d7a	1.7850792
62	0x3fd58bd9	1.6683303
63	0x3fe0b8bf	1.755638
64	0x3fea20e1	1.8291284
65	0x3fcf2d4b	1.6185697
66	0x3fe72d24	1.8060651
67	0x3febdd53	1.8426918
68	0x3fea40d7	1.8301038
69	0x3fd3cde1	1.6547204
70	0x3fe68934	1.8010621
71	0x3fe468b1	1.7844449
72	0x3fdebc58	1.7401228
73	0x3fe7e432	1.8116515
74	0x3fe553fa	1.7916253
75	0x3fd6249b	1.6729921
76	0x3febee2c	1.8432059
77	0x3fdbe766	1.7179992
78	0x3fe8ac7a	1.8177636
79	0x3fe8cb18	1.8186979
80	0x3fea4372	1.8301833
81	0x3fdfc4d1	1.7481939
82	0x3fdb5fd2	1.7138617
83	0x3fe986af	1.8244227
84	0x3fecc9be	1.8499067
85	0x3fd335c6	1.6500785
86	0x3fdfe2a7	1.7491044
87	0x3fec1fd4	1.8447213
88	0x3fe64b51	1.7991735
89	0x3fe94939	1.8225471
90	0x3fe05e74	1.7528825
91	0x3fe9c453	1.8263038
92	0x3fe61571	1.7975293
93	0x3fd1fcf2	1.6405318
94	0x3fec9cb6	1.8485324
95	0x3fc4b8f8	1.5368948
96	0x3feac6e1	1.8341943
97	0x3fd59c39	1.66883
98	0x3fecd021	1.8501016
99	0x3fe8656b	1.815595
100	0x3fed263c	1.8527293
101	0x3fec894e	1.8479402
102	0x3fe5635e	1.792095
103	0x3fec80ea	1.8476841
104	0x3fd50d77	1.6644734
105	0x3fd4654a	1.6593411
106	0x3fca1be8	1.5789766
107	0x3fd75ccb	1.6825193
108	0x3fe9c59b	1.8263429
109	0x3fe99d57	1.8251141
110	0x3fc404c9	1.531396
111	0x3fcd6a31	1.6048032
112	0x3feb0439	1.8360664
113	0x3fed1d06	1.8524482
114	0x3fea2193	1.8291496
115	0x3fe5f364	1.7964902
116	0x3fdea16a	1.739301
117	0x3fe55820	1.7917519
118	0x3feadf65	1.8349425
119	0x3fcc0d59	1.5941573
120	0x3fe1cb63	1.7640194
121	0x3fe4e1c2	1.7881396
122	0x3fb74931	1.4319211
123	0x3fe34ef2	1.7758467
124	0x3fe59b7a	1.7938073
125	0x3fe7339c	1.8062625
126	0x3fda3630	1.7047787
127	0x3fea6117	1.831088
128	0x3fc115f5	1.5084826
129	0x3fb53250	1.4155979
130	0x3fe614c8	1.7975092
131	0x3fe9f1ac	1.8276877
132	0x3fe3ab1e	1.7786596
133	0x3feb5ddd	1.838802
134	0x3fe96107	1.8232735
135	0x3fea6bae	1.8314111
136	0x3fe1167e	1.7584989
137	0x3feafceb	1.8358434
138	0x3fcfa311	1.6221639
139	0x3fd884e8	1.691556
140	0x3fdad07e	1.7094877
141	0x3fea5837	1.8308171
142	0x3fec5e03	1.846619
143	0x3fd8ba31	1.6931821
144	0x3fea564e	1.8307588
145	0x3fd8e3c0	1.6944504
146	0x3fe6ed13	1.8041099
147	0x3feb8891	1.8401052
148	0x3fe70d89	1.8051006
149	0x3fe2ec81	1.7728425
150	0x3fe3a87e	1.7785795
151	0x3fe2b7de	1.7712362
152	0x3fbd1a98	1.4773741
153	0x3fe5f248	1.7964563
154	0x3fe3e225	1.7803389
155	0x3fed631d	1.8545872
156	0x3fd0ff36	1.6327884
157	0x3fecece1	1.850979
158	0x3fecba98	1.8494444
159	0x3fc63569	1.548505
160	0x3fe07e12	1.7538474
161	0x3fe87d42	1.8163226
162	0x3fe8f4bd	1.8199688
163	0x3fdca199	1.7236816
164	0x3fd491a2	1.6606944
165	0x3fdafdda	1.7108719
166	0x3fe1fc56	1.7655132
167	0x3fe82f08	1.8139353
168	0x3fe27568	1.769208
169	0x3fe8b16c	1.8179145
170	0x3fe12c8b	1.7591718
171	0x3fe69156	1.8013103
172	0x3fe877bf	1.8161544
173	0x3fcc908d	1.5981613
174	0x3fe1e59f	1.76482
175	0x3fb8d459	1.4439803
176	0x3fddd7e4	1.733151
177	0x3fd4db18	1.6629362
178	0x3fad2ae6	1.3528717
179	0x3fecb864	1.8493772
180	0x3fdc3428	1.7203417
181	0x3fe38938	1.7776251
182	0x3fd5f52c	1.6715446
183	0x3fe458fc	1.7839656
184	0x3fc1c035	1.5136782
185	0x3fe0e083	1.7568516
186	0x3fe139ea	1.7595799
187	0x3fe5b739	1.794654
188	0x3fe4b2f6	1.7867115
189	0x3fea7d8f	1.8319567
190	0x3fe3b9bb	1.7791055
191	0x3fdca70d	1.723848
192	0x3fed0d03	1.8519596
193	0x3fe0bcf0	1.7557659
194	0x3fecc0d7	1.849635
195	0x3fcfa342	1.6221697
196	0x3fd8153f	1.6881484
197	0x3fcb827f	1.5899199
198	0x3fda1291	1.7036916
199	0x3fe42d7b	1.782638
200	0x3feb809e	1.8398626
201	0x3fd0fca0	1.6327095
202	0x3fe76210	1.8076801
203	0x3feb1670	1.8366222
204	0x3fed4060	1.8535271
205	0x3fe7a496	1.8097103
206	0x3fe01ed5	1.7509409
207	0x3fcecf98	1.6157103
208	0x3fe56f76	1.792464
209	0x3fe9d0b1	1.8266813
210	0x3fe4fc57	1.7889508
211	0x3fe8ea15	1.8196436
212	0x3fec8069	1.8476688
213	0x3fe1d5a7	1.7643327
214	0x3fd89440	1.6920242
215	0x3fe18d5a	1.7621262
216	0x3fde572d	1.7370354
217	0x3fe9f805	1.8278815
218	0x3fe91357	1.8209027
219	0x3fe3264b	1.7746061
220	0x3fe99dbc	1.8251262
221	0x3f9eabe1	1.2396203
222	0x3fd40dd8	1.6566725
223	0x3fe41a7a	1.782058
224	0x3fe6675c	1.8000293
225	0x3fec125d	1.8443104
226	0x3fe4a049	1.7861415
227	0x3fd68ddd	1.6762043
228	0x3fe029d7	1.7512769
229	0x3fd3bea6	1.6542556
230	0x3fda9540	1.7076797
231	0x3fde4864	1.7365842
232	0x3fea2d77	1.8295125
233	0x3fed6870	1.8547497
234	0x3fe64ce5	1.7992216
235	0x3fd23652	1.6422827
236	0x3fc376ee	1.527067
237	0x3fdc3555	1.7203776
238	0x3fcecc25	1.615605
239	0x3fd3ca63	1.6546139
240	0x3fc89d36	1.5672977
241	0x3fe5b755	1.7946573
242	0x3fe52bd2	1.7903998
243	0x3fe1dc2c	1.7645316
244	0x3fe47977	1.7849568
245	0x3fe56bc8	1.7923517
246	0x3fe6d586	1.8033912
247	0x3fe4e89b	1.7883486
248	0x3fe029c5	1.7512747
249	0x3fe2b236	1.7710636
250	0x3fc4180b	1.5319837
251	0x3fd242d7	1.6426648
252	0x3fd7ca2b	1.6858572
253	0x3feb520c	1.8384414
254	0x3febf359	1.8433639
255	0x3fd18db1	1.6371366

model.feature_nns.0.model.1.weight f4 [1, 1000]
0	0x3bede1aa	0.0072595673
1	0xbc9f0cb4	-0.019415237
2	0x3b2ab210	0.0026046075
3	0x3ca98f07	0.020698084
4	0x3c9da403	0.019243246
5	0x3ccdb22c	0.025109373
6	0x3cbd13cf	0.023080735
7	0xbcc0671a	-0.023486663
8	0xbc85fbd2	-0.016355429
9	0x3c15b356	0.009136995
10	0xbc12bb3e	-0.008955775
11	0x3bc33196	0.005956839
12	0xbc75f0b1	-0.015010999
13	0x3c8a10aa	0.01685365
14	0x3d021942	0.03176237
15	0xbcbfa15b	-0.02339237
16	0x3c9666f8	0.018359646
17	0x3c857726	0.016292166
18	0xbc840993	-0.016117847
19	0xbc637898	-0.013883732
20	0xbc759404	-0.014988903
21	0xbb246d1b	-0.0025089446
22	0xbc01e0b7	-0.007927111
23	0xbcaf7cf9	-0.021421896
24	0x3b66acbe	0.0035198177
25	0x39b39020	0.00034248922
26	0x3c9d32b8	0.019189224
27	0x3ce014d7	0.027353687
28	0x3ce23971	0.02761528
29	0x3c6c1bb8	0.014410906
30	0xbca5ba3c	-0.020230405
31	0xbc9b3c58	-0.018949673
32	0xbc19609a	-0.0093614105
33	0x3cc1a1d6	0.02363674
34	0xbcb9e7dd	-0.022693569
35	0x3ce77cae	0.028257694
36	0xbb0f045e	-0.0021822671
37	0xbc2e61eb	-0.010643463
38	0x3cd5e986	0.02611233
39	0x3cd5975f	0.026073156
40	0xbbb0396f	-0.0053779404
41	0xbbedb14e	-0.0072538024
42	0xbc2b2db3	-0.010447907
43	0xbb6d0b55	-0.0036170084
44	0x3c4edf6d	0.012626511
45	0x3c25e88d	0.010126245
46	0x3abc58ec	0.0014369763
47	0x3bf56eb9	0.007490006
48	0xbc130b48	-0.008974858
49	0x3c4b36f6	0.01240324
50	0xbcb01dbd	-0.021498555
51	0xbb68f2e1	-0.0035545158
52	0xbccc549c	-0.024942689
53	0xbc0e3399	-0.008679294
54	0xb9ed8688	-0.00045304396
55	0x3b46ad90	0.0030315854
56	0x3cce10c9	0.025154488
57	0xbccb0b65	-0.024785707
58	0x3c93ac16	0.018026393
59	0x3ccd47ac	0.02505859
60	0xbcb5f2d8	-0.022210523
61	0x3c4cfc84	0.012511376
62	0x3c672014	0.014106769
63	0xbcc31656	-0.023814362
64	0x3d03f446	0.03221538
65	0x3d0e25e7	0.034704115
66	0xbc02fa44	-0.007994238
67	0xbc987175	-0.018608788
68	0x3ca82988	0.020527616
69	0xbc655597	-0.013997457
70	0xbc8e3c5a	-0.017362762
71	0x3c86a26c	0.01643487
72	0x3c84649d	0.016161257
73	0x3bdee115	0.006801734
74	0x3cdd5609	0.027018564
75	0x3cea79bd	0.028622502
76	0x3c82e1bc	0.01597678
77	0x3c8b7478	0.01702331
78	0xbcbc9e4b	-0.023024699
79	0x395228c0	0.00020042341
80	0xbc61e0e8	-0.013786532
81	0x3c5b1ce6	0.013373589
82	0xbc898fb4	-0.016792156
83	0x3b1fd04e	0.0024385634
84	0xbc4eb57f	-0.012616514
85	0xbc6a000e	-0.01428224
86	0xbcc0a1fd	-0.023514742
87	0x3cc01c2a	0.02345093
88	0x3cbaf0c9	0.022819893
89	0xbc73cff0	-0.014881119
90	0x3c4e01ce	0.012573672
91	0xbc9695a8	-0.018381909
92	0xbcc95b0e	-0.024579551
93	0xbc88518c	-0.016640447
94	0x3ce21793	0.027599132
95	0xbcdc2311	-0.02687219
96	0x3af2c0b8	0.001852057
97	0x3ce92729	0.028461056
98	0xba6e1c08	-0.00090831565
99	0xbc1b11e1	-0.009464712
100	0x3bd3bd83	0.0064618005
101	0x3c895d74	0.016768195
102	0xbc0574ac	-0.0081454925
103	0xbc40b342	-0.011761488
104	0x3cd2d67c	0.02573704
105	0xbc7b1fe7	-0.01532743
106	0x39e29070	0.00043213693
107	0x3b61405a	0.0034370632
108	0x3bcb902e	0.006212256
109	0x3ccf8747	0.02533306
110	0x3c990aa7	0.018681837
111	0xbc0660a2	-0.00820175
112	0x3ce22e62	0.027610008
113	0xba9117f4	-0.0011069761
114	0xbc479477	-0.012181393
115	0xbb38a43f	-0.002817407
116	0xbc7455b3	-0.01491301
117	0xbb8db2f9	-0.0043243137
118	0x3c883430	0.016626447
119	0x3ca33e7e	0.01992726
120	0x3ce57bab	0.028013071
121	0x3bd8458c	0.0066000875
122	0x3c1ac0dc	0.009445395
123	0x3c067eb8	0.008208923
124	0xb9655ee0	-0.00021874486
125	0x3aa954e8	0.0012918981
126	0x3c6090da	0.01370641
127	0xbc8eec53	-0.017446673
128	0xbc3b37c8	-0.0114268735
129	0xbbdb1d3e	-0.0066868355
130	0x3cb5e661	0.02220458
131	0x3c008e4a	0.007846424
132	0x3c5d4a1e	0.01350644
133	0x3c941a5e	0.01807898
134	0x3ca0bd42	0.019621495
135	0x3c227667	0.009915925
136	0xbb0f3c34	-0.0021855952
137	0xba9e9af8	-0.0012100628
138	0x3aa7b3c8	0.0012794668
139	0x3b242c98	0.0025050994
140	0x3b6f788e	0.0036540362
141	0xbc8f7672	-0.017512534
142	0x3ac65db8	0.0015134132
143	0x3c70becc	0.014693927
144	0x3d0afd3a	0.033932902
145	0x3caccb7b	0.02109312
146	0xbb875bb0	-0.004130803
147	0x3c6582b9	0.0140082175
148	0x3d09b3e3	0.03361882
149	0xbcab6e77	-0.020926697
150	0x3c91bc92	0.017790113
151	0xbcbfedc8	-0.023428813
152	0xbc8a13c7	-0.016855134
153	0xbc3a9a4e	-0.011389328
154	0xbc740b6c	-0.014895301
155	0xbcc21d9a	-0.023695756
156	0xbca61481	-0.020273449
157	0x3c3f51ec	0.011677247
158	0xbbfe2976	-0.0077564074
159	0xbba2305b	-0.004949612
160	0xbc661b6a	-0.014044622
161	0x3cf01753	0.029307997
162	0x3b28c1be	0.0025750245
163	0x3c8a8a74	0.016911723
164	0x3c941bbe	0.018079635
165	0x399cdb60	0.00029918086
166	0x3d088222	0.03332723
167	0x3b5ae6fe	0.0033401842
168	0xbca4e478	-0.020128474
169	0xbcd22568	-0.025652602
170	0x3c93c886	0.018039953
171	0x3d141056	0.03614839
172	0x3cbfa629	0.023394661
173	0xbb88540c	-0.00416041
174	0x3d17c3a0	0.037051797
175	0x3ce99c95	0.028517047
176	0x3c9f03af	0.019410936
177	0x3cbf3371	0.023339959
178	0x3c524e0a	0.012835989
179	0xbc493a16	-0.012281915
180	0x3d128c7c	0.035778508
181	0xbc227dee	-0.009917719
182	0xbc87ab54	-0.016561188
183	0x3c9e23b3	0.019304132
184	0x3aac4244	0.0013142307
185	0x3cefb4fa	0.029261101
186	0xbc31cda4	-0.010852251
187	0x3ac9c4e4	0.0015393761
188	0xbcaf941c	-0.021432929
189	0x3b9c5f88	0.0047721304
190	0x3ca280c2	0.019836787
191	0xbca3b4af	-0.019983618
192	0x3aa26a70	0.001239134
193	0x3cc1e059	0.023666548
194	0x3cbdc1e3	0.023163741
195	0x3aa33240	0.0012450889
196	0xbc20d972	-0.009817468
197	0x3bfd0474	0.007721478
198	0x3ccec358	0.025239632
199	0x3bcd9e2d	0.0062749595
200	0xbbc9046a	-0.0061345594
201	0xbb564fe3	-0.0032701425
202	0xbc068681	-0.008210779
203	0x3cca0e58	0.024665043
204	0x3c8f0a52	0.017460976
205	0xbbb8c8b8	-0.005639162
206	0x3cd865d9	0.026415752
207	0x3ce491b3	0.027901506
208	0x3c27ca6c	0.010241132
209	0xbcbd136a	-0.023080546
210	0x3d11e318	0.035616964
211	0x3c21f5db	0.009885277
212	0xbbcad218	-0.006189596
213	0x3c9f26db	0.019427707
214	0x3cea8c70	0.028631419
215	0x3cecdfe0	0.028915346
216	0xb968be60	-0.00022196164
217	0x3cefd0fc	0.029274456
218	0x3bbd2789	0.005772535
219	0x3a1a5298	0.0005886941
220	0x3ca277ce	0.019832518
221	0xbb82e535	-0.0039946088
222	0x3b946d47	0.0045296284
223	0x3c4a5b74	0.012350906
224	0x3c92c935	0.017918209
225	0x3cfd90e9	0.030952888
226	0xbc20ae2c	-0.009807151
227	0xbb31c2e1	-0.0027124214
228	0xbaa10cf4	-0.0012287186
229	0x3c0c9f26	0.008582866
230	0xba8dd58c	-0.0010821088
231	0x3c49fb18	0.012327932
232	0xbc305ccd	-0.010764313
233	0xbc8c6884	-0.01713968
234	0x3ca1f89e	0.01977187
235	0xbcb64d92	-0.022253785
236	0xbc34f2f7	-0.011044255
237	0x3c5410ce	0.01294346
238	0xbcd61842	-0.026134614
239	0x3bd221c7	0.006412718
240	0x3cddaf36	0.027061086
241	0xbb0d8cc3	-0.0021598793
242	0xbcabd333	-0.020974731
243	0xbbe8d188	-0.007105056
244	0xbc530fcd	-0.012882185
245	0xbbb82544	-0.005619677
246	0xbbaabb02	-0.0052102813
247	0xbca60e74	-0.020270564
248	0xbaa063c4	-0.0012236764
249	0xbbe28354	-0.006912628
250	0x3cc91be1	0.024549427
251	0xbbc91d34	-0.0061375145
252	0x3c8196bd	0.015818948
253	0x391042c0	0.00013757776
254	0xbcc17cce	-0.023619082
255	0xbba78d6d	-0.005113295

model.feature_nns.1.model.0.weights f4 [1, 244]
0	0x3fbfba99	1.497882
1	0x3fe3d67a	1.7799828
2	0x3fed7083	1.8549961
3	0x3fe8cdea	1.818784
4	0x3fdb80e8	1.7148714
5	0x3ff23bf2	1.8924544
6	0x3f9d5b58	1.2293501
7	0x3feb2731	1.8371335
8	0x3fd626eb	1.6730627
9	0x3fef6d3d	1.8705212
10	0x3fde490e	1.7366045
11	0x3fea1d1b	1.8290132
12	0x3fe71cd4	1.8055673
13	0x3fe96f49	1.8237087
14	0x3fd3bfac	1.6542869
15	0x3fe00ae0	1.7503319
16	0x3fdce1ab	1.7256368
17	0x3fec7aba	1.8474953
18	0x3fc4d40b	1.537721
19	0x3fda88fb	1.7073053
20	0x3fee92d0	1.8638554
21	0x3fd52798	1.6652708
22	0x3ff1ceaf	1.88912
23	0x3fd7a7f5	1.6848131
24	0x3fed0172	1.8516066
25	0x3feabe8e	1.8339403
26	0x3fe04525	1.7521101
27	0x3fec9735	1.8483645
28	0x3fea3d79	1.830001
29	0x3ff1088f	1.8830737
30	0x3fec4203	1.8457645
31	0x3febbd86	1.8417213
32	0x3fb2f48a	1.3980877
33	0x3fd715b3	1.6803497
34	0x3fd73fba	1.6816323
35	0x3febf85e	1.8435171
36	0x3fed003b	1.8515695
37	0x3ff4bbb0	1.9119778
38	0x3fe2826a	1.7696049
39	0x3fef387d	1.8689114
40	0x3fe419c7	1.7820367
41	0x3fe9ebd9	1.82751
42	0x3fdb7cfd	1.7147518
43	0x3fe22a72	1.7669203
44	0x3fe785eb	1.8087744
45	0x3fe2b8b4	1.7712617
46	0x3fe60b00	1.7972107
47	0x3fe7867c	1.8087916
48	0x3fef7632	1.8707945
49	0x3fe14ec0	1.7602158
50	0x3fee3ac5	1.8611685
51	0x3fd492b1	1.6607267
52	0x3ff453cf	1.9088076
53	0x3fd7a9e9	1.6848727
54	0x3fe5c61f	1.7951087
55	0x3fe98a31	1.8245298
56	0x3fe43a53	1.7830299
57	0x3fed6269	1.8545657
58	0x3fee78c1	1.8630601
59	0x3fe2570d	1.7682816
60	0x3fd6bcd6	1.6776378
61	0x3fe3a2f5	1.7784106
62	0x3fdfa642	1.7472613
63	0x3fbe2338	1.4854498
64	0x3fc8ccf2	1.5687544
65	0x3fdb8921	1.7151223
66	0x3fb70dec	1.4301124
67	0x3fe8d572	1.8190138
68	0x3fc8761e	1.5661047
69	0x3fd9a077	1.7002095
70	0x3fb9ec44	1.4525228
71	0x3feedf6e	1.8661935
72	0x3fe6d2d8	1.8033094
73	0x3fedd7bf	1.8581465
74	0x3feba321	1.8409158
75	0x3ff0d705	1.8815619
76	0x3ff0612a	1.8779652
77	0x3fdc6c00	1.7220459
78	0x3fdfd857	1.7487897
79	0x3fdbe524	1.7179303
80	0x3fec133d	1.8443371
81	0x3fe58a27	1.7932786
82	0x3ff17ea1	1.8866769
83	0x3fd1745b	1.6363634
84	0x3fdf29de	1.7434652
85	0x3fee88c7	1.8635491
86	0x3fed0a69	1.8518802
87	0x3fdfda72	1.7488539
88	0x3fb3826e	1.4024179
89	0x3fe7933e	1.809181
90	0x3feedd8b	1.866136
91	0x3fe54635	1.791205
92	0x3fd4131c	1.6568332
93	0x3fe2eff8	1.7729483
94	0x3fec38cb	1.8454832
95	0x3ff40133	1.9062866
96	0x3fef76fa	1.8708184
97	0x3fdf65d2	1.7452948
98	0x3ff2947c	1.8951564
99	0x3ff1d628	1.889348
100	0x3fef8607	1.8712777
101	0x3fe7c139	1.8105842
102	0x3fed3fe8	1.8535128
103	0x3ff1ff7e	1.8906095
104	0x3fdda369	1.7315494
105	0x3fbd5a58	1.4793196
106	0x3fed529e	1.8540838
107	0x3fdcc7a8	1.724843
108	0x3ff1ddac	1.8895774
109	0x3feefa9a	1.8670228
110	0x3ff0016c	1.8750434
111	0x3fc33f91	1.5253774
112	0x3fed7d42	1.8553851
113	0x3fe775fc	1.8082881
114	0x3fd08886	1.6291664
115	0x3fe19b2b	1.7625479
116	0x3ff1b102	1.8882143
117	0x3fedf146	1.8589256
118	0x3fe8d469	1.8189822
119	0x3fe96bc4	1.8236012
120	0x3fe027c7	1.7512139
121	0x3fdc9e9b	1.7235903
122	0x3fedaa6c	1.8567634
123	0x3fe10e6e	1.7582529
124	0x3fe72f44	1.8061299
125	0x3fe8ec4c	1.8197112
126	0x3fea3b33	1.8299316
127	0x3fe81d72	1.8133986
128	0x3feccece	1.8500612
129	0x3ff00f58	1.8754683
130	0x3ff20080	1.8906403
131	0x3fe5705c	1.7924914
132	0x3fcd8f4b	1.6059355
133	0x3fea7245	1.8316122
134	0x3fc9ec01	1.5775148
135	0x3fdd2f12	1.727999
136	0x3fdf0a11	1.7424947
137	0x3fe87cac	1.8163047
138	0x3fc23796	1.5173213
139	0x3fe15dcc	1.760675
140	0x3fe3c06c	1.7793097
141	0x3fddbd2e	1.7323358
142	0x3fecd0b3	1.850119
143	0x3feba828	1.8410692
144	0x3fe4d499	1.787738
145	0x3fe5cba0	1.7952766
146	0x3fd86b70	1.6907787
147	0x3fead93b	1.8347543
148	0x3fe84845	1.8147055
149	0x3fe0559a	1.7526124
150	0x3fe5d767	1.795636
151	0x3fd2c436	1.6466129
152	0x3fe942da	1.8223526
153	0x3fce7078	1.6128073
154	0x3fdc6c03	1.7220463
155	0x3ff1f020	1.8901405
156	0x3fea1c19	1.8289825
157	0x3fedc870	1.8576794
158	0x3fa0b8ef	1.2556437
159	0x3ff3558c	1.9010482
160	0x3fc9f977	1.5779256
161	0x3fe2ae0d	1.7709366
162	0x3fbd9891	1.4812185
163	0x3fec3415	1.8453394
164	0x3fdc3310	1.7203083
165	0x3fee0836	1.8596256
166	0x3fec9612	1.8483298
167	0x3fd3a802	1.6535647
168	0x3fda57ab	1.7058004
169	0x3fde3095	1.7358576
170	0x3fe7a02c	1.8095756
171	0x3ff26077	1.8935689
172	0x3ff1cefa	1.8891289
173	0x3fe5db42	1.7957537
174	0x3fe3d0f7	1.7798146
175	0x3fec18bc	1.8445048
176	0x3fd5f4db	1.6715349
177	0x3feab203	1.8335575
178	0x3fe982ac	1.8243003
179	0x3fddae93	1.7318901
180	0x3fe66c65	1.8001829
181	0x3fee566b	1.8620123
182	0x3fec79c6	1.8474662
183	0x3fe8b441	1.8180009
184	0x3fe5d90f	1.7956866
185	0x3fec6f9f	1.8471564
186	0x3fd71bfd	1.6805416
187	0x3fc71062	1.5551875
188	0x3feff137	1.8745488
189	0x3ff39ab7	1.903159
190	0x3fe5dbf2	1.7957747
191	0x3fcd2358	1.6026411
192	0x3fd3018b	1.6484846
193	0x3fe80921	1.8127786
194	0x3fed21f7	1.852599
195	0x3fe70e78	1.805129
196	0x3fe989f1	1.8245221
197	0x3fedd3e7	1.8580292
198	0x3fead8ef	1.8347453
199	0x3fe47672	1.7848647
200	0x3fd3972e	1.6530511
201	0x3fdfd4a0	1.7486763
202	0x3fe529b7	1.7903355
203	0x3fe59ee9	1.793912
204	0x3fe9a3d2	1.8253119
205	0x3fdb3496	1.7125423
206	0x3ff2a72a	1.8957264
207	0x3fe5b861	1.7946893
208	0x3fdd4b68	1.7288637
209	0x3ff1222c	1.8838553
210	0x3fedcf54	1.8578897
211	0x3feba2ca	1.8409054
212	0x3feec64e	1.8654268
213	0x3fed48db	1.8537859
214	0x3fed6745	1.854714
215	0x3fe53424	1.7906537
216	0x3ff103f1	1.8829328
217	0x3ff4c28e	1.9121873
218	0x3feb1ec2	1.8368762
219	0x3ff2ee39	1.897895
220	0x3fe4500b	1.7836927
221	0x3fe90cc9	1.8207027
222	0x3fe43169	1.7827579
223	0x3fe01821	1.7507364
224	0x3ff07e5a	1.878856
225	0x3fd4ff5c	1.664043
226	0x3fe18afc	1.762054
227	0x3fc948e0	1.5725365
228	0x3fdec615	1.74042
229	0x3fec133e	1.8443372
230	0x3fdb2f89	1.7123882
231	0x3ff194fe	1.8873594
232	0x3fe2e89d	1.7727238
233	0x3fe2a00d	1.7705094
234	0x3fc3f42a	1.5308888
235	0x3fe3d333	1.7798828
236	0x3fd4e359	1.6631881
237	0x3fec0d79	1.8441612
238	0x3fc93adb	1.5721086
239	0x3fd7951c	1.684238
240	0x3fe76235	1.8076845
241	0x3fea6e9b	1.8315004
242	0x3fed4bb5	1.8538729
243	0x3ff24a1a	1.8928864

model.feature_nns.1.model.1.weight f4 [1, 244]
0	0x3d44eb6d	0.048076082
1	0xbd347c89	-0.04406408
2	0x3abb9780	0.0014312118
3	0x3c413a0e	0.0117936265
4	0x3d2b904b	0.041885655
5	0x3d306bc6	0.04307153
6	0x3d948936	0.072527334
7	0x3d1be3d0	0.038059056
8	0x3d13f9d8	0.03612694
9	0x3d2c415a	0.04205451
10	0xbd3910f3	-0.04518218
11	0x3c4f0e7b	0.01263773
12	0x3d070aed	0.032969404
13	0x3d37c6cc	0.04486732
14	0xbd18fb51	-0.03734905
15	0x3cf83425	0.030298302
16	0x3c63e95f	0.0139106205
17	0xbd07a0f4	-0.03311248
18	0xbc2558ed	-0.010092002
19	0x3d7b1dab	0.06130759
20	0xbcb28308	-0.021790996
21	0xbd159910	-0.036522925
22	0x3d855dcf	0.06512033
23	0x3cc36efb	0.02385663
24	0x3d8cd71c	0.06876966
25	0xbce1f14b	-0.027580878
26	0xbd08dc52	-0.03341324
27	0x3c1d1983	0.009588602
28	0x3c8c0637	0.017092807
29	0x3d8c5790	0.06852639
30	0xbcc40ef7	-0.023932917
31	0x3c0a5aee	0.008444531
32	0x3d4947fe	0.049140923
33	0x3d4637b9	0.048392985
34	0xbd2f3ebc	-0.042784438
35	0x3cbafcb3	0.022825575
36	0x3d62c345	0.055362005
37	0x3d807885	0.06272987
38	0xbc773c1e	-0.015090017
39	0x3d378abb	0.044810038
40	0xbce69290	-0.028146058
41	0x3d48b99f	0.049005147
42	0x3d3145ce	0.04327946
43	0xbc7413de	-0.014897315
44	0xbc8cc7a5	-0.017185042
45	0xbd1e0c9b	-0.03858624
46	0x3ca3a753	0.019977247
47	0xbb8c769e	-0.004286601
48	0x3d55c54d	0.052190114
49	0x3ca9827b	0.0206921
50	0x3d9b559f	0.0758469
51	0x3c98ae4f	0.018637804
52	0x3d343b3d	0.044001807
53	0xbd1602ad	-0.036623646
54	0xbc4b5fa0	-0.0124129355
55	0x3d0daf56	0.03459104
56	0xbc846db1	-0.016165586
57	0x3bbb0360	0.0057071894
58	0x3da94c7f	0.082665436
59	0x3d0d0a6e	0.034433775
60	0x3b2b0370	0.0026094578
61	0x3d82d8d0	0.0638901
62	0x3d608e62	0.054823287
63	0x3d3f12a1	0.046648625
64	0x3d04f6b1	0.032461826
65	0x3cd27255	0.025689283
66	0x3b25ce02	0.0025299792
67	0x3d9096c4	0.07060006
68	0xbc990a89	-0.018681781
69	0xbcb7ec82	-0.022451643
70	0xbbe41f3f	-0.0069617326
71	0x3d130894	0.035896853
72	0xbc64d6e7	-0.013967252
73	0x3d1a60bc	0.03768991
74	0xbc33a7f1	-0.010965333
75	0x3d3fef65	0.046859164
76	0x3d739541	0.05946851
77	0x3cc64dfe	0.024207111
78	0xbc9ba68d	-0.019000316
79	0x3d23b199	0.039964292
80	0x3d93acda	0.07210703
81	0x3d9f3cd2	0.077752724
82	0x3d3445c3	0.044011842
83	0x3bee0e85	0.0072649145
84	0x3d03fcd8	0.032223552
85	0xbcf9abfc	-0.030477516
86	0xbc0e20ba	-0.008674795
87	0x3d90249d	0.070382334
88	0xbc28cd54	-0.01030286
89	0x3cc32e0e	0.023825672
90	0x3d1cf71b	0.038321596
91	0x3ce053aa	0.027383644
92	0x3d0f36e6	0.034964465
93	0xbc897bf1	-0.016782733
94	0x3db22647	0.08698707
95	0x3da01144	0.07815793
96	0x3cb9a0b1	0.022659631
97	0x3c6e4ff0	0.014545426
98	0x3da1fe8f	0.07909881
99	0x3d4901cb	0.049073976
100	0x3d482f64	0.04887332
101	0xbc89340b	-0.016748449
102	0xbcdb0cd6	-0.02673952
103	0x3d93b159	0.07211561
104	0x3c5a9390	0.013340846
105	0x3d6bd7b4	0.057578757
106	0xbc80d5e8	-0.015726998
107	0xbd050a11	-0.032480303
108	0x3d1de7a8	0.038551003
109	0xbd5285ef	-0.05139726
110	0x3d1b13b9	0.037860606
111	0x3c7cfe70	0.015441522
112	0xbd28a07a	-0.041168667
113	0x3d3fef15	0.046858866
114	0x3d3c242f	0.045932945
115	0xbd234391	-0.03985936
116	0x3d9125f5	0.07087318
117	0x3cfdfce0	0.03100437
118	0xbca43f11	-0.020049604
119	0xbc1fbb48	-0.009749241
120	0x3d8f3e51	0.06994308
121	0x3d81a1de	0.06329702
122	0x3cd960f8	0.026535496
123	0xbbaa4967	-0.0051967385
124	0x3cf50bcf	0.029912857
125	0x3c3831c6	0.011242336
126	0x3d747ec6	0.059691213
127	0x3d5bbcea	0.05364696
128	0x3cdd0982	0.026982073
129	0x3d06b793	0.032889914
130	0x3d9ba4d4	0.07599798
131	0xbce8bb4c	-0.028409623
132	0x3d0a0951	0.03370029
133	0x3d89f271	0.06735695
134	0xbcd8da40	-0.026471257
135	0xbcb8e280	-0.022568941
136	0x3c8ac17e	0.016937967
137	0x3d89a88b	0.067216
138	0xb9dd8700	-0.00042252988
139	0x3b1630de	0.002291731
140	0x3d8c6ef6	0.068571016
141	0xbd189e6b	-0.037260454
142	0x3d723364	0.05913104
143	0x3cb23cb0	0.021757454
144	0xbce00b29	-0.027349072
145	0x3d854a12	0.065082684
146	0xbc7c05a8	-0.015382208
147	0xbcc44a44	-0.023961194
148	0x3da7b19e	0.08188175
149	0x3d203542	0.03911329
150	0xbd117f90	-0.035522044
151	0x3c7827de	0.015146224
152	0x3d498f02	0.04920865
153	0xbc188fb6	-0.009311607
154	0x3b63eb2d	0.0034777627
155	0x3d2d8dc7	0.042371538
156	0x3932f7b0	0.00017067674
157	0xbd2c08d2	-0.0420006
158	0xbceaf5c4	-0.028681643
159	0x3d72129d	0.059099782
160	0xbcbee487	-0.02330233
161	0xbb375b8e	-0.0027978155
162	0x3c13328d	0.00898422
163	0x3c7fe39b	0.01561823
164	0x3d0a6bf4	0.03379436
165	0x3d357ad1	0.04430658
166	0x3d346b2f	0.04404753
167	0xbd069e40	-0.032865763
168	0x3d51d804	0.0512314
169	0xbc8124fa	-0.015764702
170	0xbcde2371	-0.02711651
171	0x3d96df80	0.07366848
172	0x3d1d6d53	0.038434338
173	0x3d97a020	0.07403588
174	0xbc6a307b	-0.014293785
175	0x3d5d9d50	0.054105103
176	0xbd2f2dcc	-0.042768285
177	0xbd107f34	-0.03527756
178	0x3d1ac941	0.037789587
179	0x3d76b505	0.060231227
180	0xbc841955	-0.01612536
181	0xbb751e84	-0.0037402222
182	0x3d0f2eca	0.03495673
183	0x3c8b7602	0.017024044
184	0xbcf8aaaf	-0.030354826
185	0x3d6e9ae4	0.058253184
186	0xbc6af744	-0.014341179
187	0xbcdab924	-0.02669961
188	0x3d8364b4	0.06415692
189	0x3d85624a	0.06512888
190	0x3d724cd2	0.059155293
191	0xbb300c42	-0.0026862775
192	0x3d28ec9d	0.041241277
193	0xbbb1545e	-0.0054116687
194	0x3c571f15	0.013129969
195	0xbd0c4b18	-0.034251302
196	0xbd29dca1	-0.041470174
197	0xbc4ce828	-0.012506522
198	0xbd3ed424	-0.04658903
199	0xbb90ab03	-0.0044149174
200	0x3d934a32	0.07191886
201	0xbc66400e	-0.014053358
202	0x3c18bfb4	0.009323049
203	0x3c7e7fee	0.0155334305
204	0xbd1b6f76	-0.037948094
205	0x3d41897a	0.04725025
206	0x3d406b60	0.0469774
207	0xbd4bb515	-0.04973324
208	0x3d16fb78	0.036860913
209	0x3ce3f4f1	0.027826758
210	0x3d7d30bc	0.061814055
211	0x3c377214	0.011196632
212	0x3d90e815	0.07075516
213	0x3c870519	0.016481923
214	0x3b6d17fa	0.0036177621
215	0x3c4b9828	0.012426414
216	0x3d7c0705	0.06153013
217	0x3d514dea	0.051099695
218	0xbd09e1a7	-0.033662464
219	0x3d709d6b	0.058743875
220	0x3bf0bd10	0.0073467568
221	0x3988c2bc	0.0002608503
222	0x3b63ae35	0.0034741287
223	0xbbf00af1	-0.007325523
224	0x3d8d2a72	0.068928614
225	0x3cc075a3	0.023493594
226	0x3d83d320	0.06436753
227	0x3ca6fec3	0.020385152
228	0x3bfc9a1e	0.007708802
229	0xbc333f7d	-0.01094043
230	0xbccc7de8	-0.02496238
231	0x3d2fae88	0.042891055
232	0xbcc848b1	-0.024448724
233	0xbae93f3a	-0.0017795332
234	0x3c8f21b6	0.01747213
235	0x3d5ee377	0.054416146
236	0xbba6e49a	-0.0050931694
237	0xbc17cd31	-0.00926523
238	0xbd0e7a48	-0.034784585
239	0xbd075edf	-0.03304946
240	0x3c2c5e8c	0.010520589
241	0xbd1fa09e	-0.038971536
242	0xbc88ee2e	-0.016715135
243	0x3d817010	0.06320202

model.feature_nns.2.model.0.weights f4 [1, 112]
0	0x3fe970e8	1.8237581
1	0x3fe5ffa9	1.7968646
2	0x3fd87041	1.6909257
3	0x3fe4d126	1.7876327
4	0x3fdd1d02	1.7274477
5	0x3fe8e213	1.8193992
6	0x3feac268	1.8340578
7	0x3fdc22de	1.7198141
8	0x3fd658c4	1.6745839
9	0x3fc82c8b	1.5638593
10	0x3fe8c112	1.818392
11	0x3fed68d8	1.8547621
12	0x3fdf8f81	1.7465669
13	0x3fe12221	1.758854
14	0x3fe7ead4	1.8118539
15	0x3fd5dfcb	1.6708921
16	0x3fd1d5c9	1.6393367
17	0x3fe29baf	1.7703761
18	0x3fe947fc	1.8225093
19	0x3fe58603	1.7931522
20	0x3fd70ef1	1.6801435
21	0x3fece601	1.8507692
22	0x3fe9afb5	1.8256747
23	0x3fde10f6	1.7348926
24	0x3fb4f689	1.4137737
25	0x3fe8eb72	1.8196852
26	0x3fbc6b43	1.4720234
27	0x3fe5d78a	1.7956402
28	0x3fdd5b8a	1.729356
29	0x3fdee328	1.7413073
30	0x3fda4ef0	1.705534
31	0x3fe22e64	1.7670407
32	0x3fecafad	1.8491112
33	0x3fda5bba	1.7059243
34	0x3fd647bc	1.6740642
35	0x3fe74717	1.806857
36	0x3fecdb33	1.8504394
37	0x3feb2492	1.8370535
38	0x3fd92990	1.6965809
39	0x3fe131fe	1.7593381
40	0x3fe0d1c8	1.756402
41	0x3fc3b7ff	1.5290526
42	0x3fece997	1.8508786
43	0x3fe2a2dd	1.7705952
44	0x3fcfc01a	1.62305
45	0x3fdb4670	1.7130871
46	0x3fdc394f	1.7204989
47	0x3fd99707	1.6999215
48	0x3fe1dc25	1.7645308
49	0x3fe395aa	1.7780049
50	0x3fe6a6e7	1.8019685
51	0x3fdc91be	1.7231977
52	0x3fdf7dbc	1.7460246
53	0x3fdb0a20	1.7112465
54	0x3fe52cac	1.7904258
55	0x3febc2d5	1.8418833
56	0x3fdcfd58	1.7264814
57	0x3fda1b56	1.7039592
58	0x3fe82677	1.8136739
59	0x3fec2654	1.8449197
60	0x3fe75bf4	1.8074937
61	0x3fec40b3	1.8457245
62	0x3fe52cac	1.7904258
63	0x3feafbf8	1.8358145
64	0x3fea596c	1.8308539
65	0x3febca93	1.8421196
66	0x3febd24e	1.8423555
67	0x3fe66a6f	1.8001231
68	0x3fc0bfa0	1.5058479
69	0x3fe85295	1.8150202
70	0x3fdac067	1.7089967
71	0x3fc7fbd3	1.5623726
72	0x3fe139e4	1.7595792
73	0x3fcae599	1.5851318
74	0x3fe38836	1.7775943
75	0x3fe49929	1.7859241
76	0x3feba799	1.8410522
77	0x3fe1d493	1.7642998
78	0x3fe2b12c	1.7710319
79	0x3fec712d	1.8472039
80	0x3fe49929	1.7859241
81	0x3fd18e5c	1.637157
82	0x3fd9453c	1.6974254
83	0x3fe65f56	1.7997844
84	0x3fc6fd1c	1.5545993
85	0x3fe141c9	1.7598201
86	0x3fe99ddf	1.8251303
87	0x3fb0fb5b	1.3826708
88	0x3fde2490	1.7354908
89	0x3fbb71f1	1.4644147
90	0x3fdbd333	1.7173828
91	0x3fd70ef1	1.6801435
92	0x3fda4ef0	1.705534
93	0x3fed496a	1.8538029
94	0x3fd6ee80	1.6791534
95	0x3fe22e64	1.7670407
96	0x3fcfc01a	1.62305
97	0x3fe1bdc9	1.7636043
98	0x3fecf45c	1.8512073
99	0x3fec228d	1.8448044
100	0x3fe5e8c8	1.7961664
101	0x3fed496a	1.8538029
102	0x3fe8f4ce	1.8199708
103	0x3fe2e9dc	1.7727618
104	0x3fd79d63	1.6844906
105	0x3fe8e6c4	1.8195424
106	0x3fe5c638	1.7951117
107	0x3fe226fa	1.7668145
108	0x3fc4fb89	1.5389262
109	0x3fe01aa3	1.7508129
110	0x3fe5cbff	1.795288
111	0x3feb8c2d	1.8402153

model.feature_nns.2.model.1.weight f4 [1, 112]
0	0x3db57b43	0.08861401
1	0xbc3556b6	-0.011068037
2	0xbad555a2	-0.0016276131
3	0xbd653e81	-0.05596781
4	0xbcde73ca	-0.027154822
5	0xbc92a7f0	-0.017902344
6	0xbd64d83e	-0.055870287
7	0x3ce047fe	0.027378079
8	0x3ca56692	0.02019051
9	0x3bab10f2	0.005220526
10	0x3b7c1837	0.0038466582
11	0xbd1be479	-0.038059685
12	0xbb017a62	-0.0019756784
13	0x3c3c82f5	0.011505832
14	0x3c4c99bd	0.012487826
15	0xbc073d75	-0.008254399
16	0xbb32d332	-0.0027286527
17	0xbbef4323	-0.0073017045
18	0xbcfe7795	-0.03106288
19	0xbb0d41e0	-0.0021554157
20	0xbba474ae	-0.005018792
21	0xbd1d17bc	-0.038352713
22	0x3cc7b2eb	0.024377307
23	0x3c34ffdd	0.011047331
24	0xbd742722	-0.059607632
25	0x3adeb158	0.0016990108
26	0xbd0c682e	-0.03427904
27	0x3c03ae05	0.008037095
28	0xbbbd5d25	-0.005778926
29	0x3c4a46b6	0.01234596
30	0x3cb886b0	0.022525162
31	0xbb87ed6f	-0.0041481773
32	0x3cd5a08c	0.026077531
33	0xbd2c92ec	-0.042132303
34	0x3ccbcf71	0.02487919
35	0x3b4a532e	0.0030872333
36	0x3d2e39a8	0.042535454
37	0xbae80190	-0.0017700661
38	0x3afd70b4	0.0019335956
39	0xbd00c7c9	-0.03144053
40	0x3c349002	0.011020662
41	0xbb8ec064	-0.004356431
42	0xbcc6ef7a	-0.024284113
43	0xbce66d2b	-0.028128227
44	0x3d98b528	0.07456428
45	0x3c1abc93	0.009444374
46	0xbb87a835	-0.004139925
47	0x3d580d2e	0.052746944
48	0x3ac59fe8	0.0015077563
49	0xbd46d2fb	-0.04854105
50	0xbba7e0c6	-0.0051232306
51	0x3d91ab79	0.07112784
52	0xbbc588d4	-0.006028274
53	0xbb016754	-0.0019745426
54	0xbd6a388b	-0.05718283
55	0x3cbedfde	0.023300108
56	0x3d854c8c	0.06508741
57	0xbc47dbf6	-0.012198439
58	0xbca3c1cb	-0.019989869
59	0xbd36a1d9	-0.044587944
60	0x3d237677	0.0399079
61	0xbd065266	-0.032793425
62	0x3d080945	0.033211965
63	0xbd1e99c2	-0.038720854
64	0xbd740f86	-0.059585117
65	0xbc00cfc7	-0.007862038
66	0xba8a3f60	-0.0010547452
67	0x3dc6e7fd	0.09712217
68	0x3d97cd1e	0.0741217
69	0xbc7d4286	-0.015457755
70	0x3cc0e940	0.023548722
71	0x3c49f76c	0.012327056
72	0xbca9e4c2	-0.020738963
73	0x3bafde96	0.0053671105
74	0xbbd97d66	-0.006637263
75	0x3d0ffc34	0.03515263
76	0x3d8b1e3a	0.06792875
77	0x3af8c097	0.0018978295
78	0x3d12811e	0.035767667
79	0x3d0fdcf2	0.03512282
80	0xbbc88520	-0.0061193854
81	0x3d13fa9c	0.03612767
82	0x3da7cb9b	0.081931315
83	0xbc2ffb36	-0.010741046
84	0xbc554b15	-0.013018389
85	0x3db283ac	0.08716521
86	0x3d3c8f67	0.046035197
87	0xb9c1c4d8	-0.0003695849
88	0x3b5699f0	0.0032745562
89	0xbd08af4b	-0.033370297
90	0x3cf04b3b	0.029332748
91	0xbd5bacc2	-0.05363155
92	0xbc449437	-0.011998228
93	0xbc2f0cf9	-0.010684245
94	0xbd763ca5	-0.06011643
95	0x3b1ab7e4	0.0023608143
96	0x3cdb0418	0.02673535
97	0x3d24c9ce	0.04023152
98	0x3bf21d26	0.0073887287
99	0x3c7bb11d	0.015362051
100	0x3dd6e4ff	0.10492896
101	0xbc1d2dfe	-0.009593485
102	0xbc7e4e50	-0.015521601
103	0xbc09251f	-0.008370667
104	0x3dea2220	0.1143229
105	0x3cc9d629	0.024638252
106	0x3c3b2b14	0.011423845
107	0x3c726537	0.014794639
108	0x3ce5ea8d	0.028065944
109	0xbc7d347d	-0.015454409
110	0x3c9f9f8f	0.019485263
111	0xbbb39e9e	-0.005481555

model.feature_nns.3.model.0.weights f4 [1, 272]
0	0x3fe4d126	1.7876327
1	0x3fe955ac	1.822927
2	0x3fe90775	1.8205401
3	0x3fe96c5f	1.8236197
4	0x3fea771c	1.8317599
5	0x3fe82677	1.8136739
6	0x3fed3ee2	1.8534815
7	0x3fca4444	1.5802083
8	0x3fdefee9	1.7421542
9	0x3fe53eb6	1.7909763
10	0x3fd92990	1.6965809
11	0x3fe76655	1.8078104
12	0x3fd3512a	1.6509144
13	0x3fe36658	1.7765608
14	0x3fed3b5f	1.8533744
15	0x3fab0764	1.336163
16	0x3fed506a	1.8540165
17	0x3fde2e57	1.7357892
18	0x3fe947fc	1.8225093
19	0x3fd5bc73	1.6698135
20	0x3fe7d1b4	1.8110871
21	0x3fd4a798	1.6613646
22	0x3fea87f9	1.8322746
23	0x3fd6ee80	1.6791534
24	0x3fdd3c68	1.728406
25	0x3fbbf101	1.4682924
26	0x3fd8c6f8	1.693572
27	0x3fe9c175	1.8262163
28	0x3fe21823	1.7663616
29	0x3fea83c1	1.8321458
30	0x3feafbf8	1.8358145
31	0x3fbb71f1	1.4644147
32	0x3fe3bdc2	1.7792284
33	0x3fd480fd	1.6601864
34	0x3fd71f0d	1.6806351
35	0x3fe8d8ad	1.8191124
36	0x3fe11232	1.7583678
37	0x3fe18809	1.761964
38	0x3fd09526	1.6295516
39	0x3fe3ded5	1.7802378
40	0x3fecf45c	1.8512073
41	0x3fece265	1.850659
42	0x3fd67a96	1.675616
43	0x3fe3442e	1.7755182
44	0x3fd0fafb	1.6326593
45	0x3fdfb2c9	1.7476436
46	0x3fd952ff	1.6978453
47	0x3fe1b626	1.7633712
48	0x3fe6f7d8	1.8044386
49	0x3fec228d	1.8448044
50	0x3fe1d493	1.7642998
51	0x3fdc7bd5	1.722529
52	0x3fe93111	1.8218099
53	0x3fd480fd	1.6601864
54	0x3fdf50f1	1.7446576
55	0x3feaba1d	1.8338047
56	0x3fc5e98b	1.5461897
57	0x3fe4864e	1.7853487
58	0x3fec40b3	1.8457245
59	0x3fe7b357	1.8101605
60	0x3fe7f4d6	1.8121593
61	0x3fe4caf9	1.7874442
62	0x3fe261cb	1.7686094
63	0x3fe591c5	1.793511
64	0x3fe4132a	1.7818348
65	0x3fde981c	1.739017
66	0x3fe49929	1.7859241
67	0x3fea72e3	1.8316311
68	0x3fda0144	1.7031636
69	0x3fe7802e	1.8085992
70	0x3febbb10	1.8416462
71	0x3fd5dfcb	1.6708921
72	0x3fe210b0	1.7661343
73	0x3fe927db	1.8215288
74	0x3fe6c77e	1.802963
75	0x3fe0b954	1.7556558
76	0x3fecc920	1.8498878
77	0x3fce098a	1.6096661
78	0x3fe1fa42	1.7654498
79	0x3feaefb6	1.8354404
80	0x3fc47ddb	1.5350908
81	0x3feb6c97	1.8392514
82	0x3fc11407	1.5084237
83	0x3fe0e1fc	1.7568965
84	0x3fe139e4	1.7595792
85	0x3fded08a	1.7407391
86	0x3fd87eda	1.6913712
87	0x3fea771c	1.8317599
88	0x3fe4caf9	1.7874442
89	0x3fe1d493	1.7642998
90	0x3fe2947e	1.7701566
91	0x3fe741da	1.8066971
92	0x3fea1907	1.8288888
93	0x3fdb9935	1.715613
94	0x3fe6a6e7	1.8019685
95	0x3fde3813	1.7360862
96	0x3fc9161e	1.5709875
97	0x3fd8c6f8	1.693572
98	0x3fdb75f8	1.7145376
99	0x3fd7cba0	1.6859016
100	0x3fc0bfa0	1.5058479
101	0x3fdbd333	1.7173828
102	0x3fd8aa4d	1.6926972
103	0x3fe18fc6	1.7622001
104	0x3feaa54c	1.8331695
105	0x3fea8c2d	1.8324028
106	0x3fdf6be1	1.7454797
107	0x3fe1bdc9	1.7636043
108	0x3fe07755	1.7536417
109	0x3feb50be	1.8384016
110	0x3fd0aee1	1.6303369
111	0x3fe19f2b	1.7626699
112	0x3fd98985	1.6995093
113	0x3fd21bc8	1.6414728
114	0x3fe9a6ca	1.8254025
115	0x3fd2cfe3	1.6469692
116	0x3fb3220f	1.3994769
117	0x3fe48001	1.7851564
118	0x3feb1870	1.8366833
119	0x3fbef5b3	1.4918731
120	0x3fe556a1	1.7917062
121	0x3fd8265c	1.6886706
122	0x3feb844c	1.8399749
123	0x3fec83a9	1.847768
124	0x3fe3d1a3	1.7798351
125	0x3fcff697	1.6247128
126	0x3fc25196	1.5181148
127	0x3febf4e7	1.8434113
128	0x3fd83542	1.6891253
129	0x3fea72e3	1.8316311
130	0x3fe756bd	1.8073345
131	0x3fec74e2	1.847317
132	0x3fcae599	1.5851318
133	0x3fe03c9e	1.7518499
134	0x3fe1ccff	1.7640685
135	0x3fde8e9e	1.7387273
136	0x3fe18fc6	1.7622001
137	0x3fda2850	1.7043552
138	0x3fd8c6f8	1.693572
139	0x3fe5ffa9	1.7968646
140	0x3fe6c77e	1.802963
141	0x3fca1ab7	1.5789403
142	0x3fcb7fa6	1.589833
143	0x3fe321b2	1.7744658
144	0x3fd52b7c	1.6653895
145	0x3fecba9a	1.8494446
146	0x3feb289c	1.8371768
147	0x3fe141c9	1.7598201
148	0x3fd5bc73	1.6698135
149	0x3fb9d3af	1.4517726
150	0x3fd68b61	1.6761285
151	0x3fe8916e	1.8169382
152	0x3fc7fbd3	1.5623726
153	0x3feb58b8	1.838645
154	0x3fd8aa4d	1.6926972
155	0x3fe45391	1.7838002
156	0x3fdc00f1	1.7187787
157	0x3fd6fec2	1.6796496
158	0x3fecf0c6	1.8510978
159	0x3fec4faa	1.8461812
160	0x3fe532b1	1.7906095
161	0x3fbe91e8	1.4888277
162	0x3fdb75f8	1.7145376
163	0x3fc3b7ff	1.5290526
164	0x3fd74ef4	1.682097
165	0x3fd6de2d	1.6786553
166	0x3fdd31f9	1.7280875
167	0x3fe9e4b9	1.8272926
168	0x3fb21ac9	1.3914424
169	0x3feb30ac	1.8374228
170	0x3fdc2e1a	1.7201569
171	0x3fe32f87	1.7748879
172	0x3fe69108	1.801301
173	0x3fda2850	1.7043552
174	0x3fddf356	1.7339885
175	0x3fe8ca88	1.8186808
176	0x3fc4bd46	1.5370262
177	0x3fecf45c	1.8512073
178	0x3fd6256c	1.673017
179	0x3fec005d	1.8437611
180	0x3fdf985a	1.7468369
181	0x3fdf8f81	1.7465669
182	0x3fde2e57	1.7357892
183	0x3fc7319d	1.5562016
184	0x3fe7ae41	1.8100053
185	0x3fdd31f9	1.7280875
186	0x3fe19f2b	1.7626699
187	0x3fe9a255	1.8252665
188	0x3feb708f	1.8393725
189	0x3fea50e7	1.830594
190	0x3fe3366d	1.7750984
191	0x3fd9cc89	1.7015544
192	0x3feb1c7e	1.836807
193	0x3fea83c1	1.8321458
194	0x3fdcfd58	1.7264814
195	0x3fe817a5	1.8132216
196	0x3fe707d3	1.8049263
197	0x3fe24481	1.7677156
198	0x3fea50e7	1.830594
199	0x3fe0903c	1.7544017
200	0x3fe3e56a	1.7804387
201	0x3fd07b37	1.6287602
202	0x3fc69194	1.5513177
203	0x3fe3bdc2	1.7792284
204	0x3fca95e1	1.582699
205	0x3fe4b226	1.7866867
206	0x3fec356b	1.8453802
207	0x3fd459f4	1.6589952
208	0x3fe87963	1.8162044
209	0x3fe0c181	1.7559053
210	0x3fb7f80e	1.4372575
211	0x3fe9906e	1.8247201
212	0x3fe8bc56	1.8182476
213	0x3fc8ba9e	1.5681951
214	0x3fed45ea	1.8536961
215	0x3fe3ebfb	1.780639
216	0x3fc11407	1.5084237
217	0x3fec9265	1.8482176
218	0x3fe7ead4	1.8118539
219	0x3fcae599	1.5851318
220	0x3fde2490	1.7354908
221	0x3fe89fca	1.8173764
222	0x3fdf6be1	1.7454797
223	0x3fdf081d	1.7424351
224	0x3fe982f4	1.8243089
225	0x3fb414fd	1.4068905
226	0x3fd3900f	1.6528338
227	0x3fdec731	1.7404538
228	0x3fe5cbff	1.795288
229	0x3fe57451	1.7926122
230	0x3fd21bc8	1.6414728
231	0x3fed22aa	1.8526204
232	0x3fe79ef4	1.8095384
233	0x3fdd2782	1.7277682
234	0x3fe80dbb	1.812919
235	0x3fe86fb8	1.8159094
236	0x3fe72252	1.8057349
237	0x3fc942f8	1.5723562
238	0x3fea50e7	1.830594
239	0x3fe1804c	1.7617278
240	0x3fdf62ee	1.7452066
241	0x3fd89bdf	1.6922568
242	0x3fc4bd46	1.5370262
243	0x3fe69682	1.8014681
244	0x3fe919ff	1.8211058
245	0x3fd02c41	1.6263505
246	0x3fe85775	1.815169
247	0x3fd76e88	1.6830606
248	0x3fd44646	1.6583946
249	0x3fd84418	1.689578
250	0x3fea662e	1.8312433
251	0x3fe9b426	1.8258102
252	0x3fe910bc	1.8208232
253	0x3febe590	1.8429432
254	0x3feaefb6	1.8354404
255	0x3fdd84a3	1.7306103

model.feature_nns.3.model.1.weight f4 [1, 272]
0	0xbca28ad7	-0.019841595
1	0xbb9989c2	-0.0046856115
2	0x3a12e1e8	0.00056031207
3	0xbc3ebc54	-0.011641581
4	0xbc995354	-0.018716492
5	0x3ca76f46	0.020438801
6	0xbba5ee6d	-0.005063823
7	0xbc0a30f0	-0.008434519
8	0xbcc4d113	-0.024025476
9	0xbbf877e7	-0.007582653
10	0x3c0bf917	0.008543274
11	0x3cbf2f70	0.02333805
12	0xbc9f268a	-0.019427557
13	0x3b3d65c2	0.0028899764
14	0xbc23517e	-0.00996816
15	0xbd8306d6	-0.06397788
16	0x3c8899c4	0.016674884
17	0xbc9d3ec4	-0.019194968
18	0x3c8ccd43	0.01718772
19	0x3bafec2d	0.0053687305
20	0x3c44f36a	0.012020925
21	0xbd4f8f8c	-0.050674006
22	0xbc4fd326	-0.012684619
23	0x3c226906	0.009912735
24	0x3cce5877	0.025188668
25	0xbd3d972e	-0.046286754
26	0x3cd751d6	0.02628414
27	0xbd05d04e	-0.032669358
28	0x3bd0fa8a	0.006377523
29	0xbd0e91ed	-0.034807134
30	0xbd59dac3	-0.053187143
31	0x3c29db1a	0.010367179
32	0xbd8d7297	-0.06906622
33	0xbbf0bab8	-0.0073464774
34	0xbce83360	-0.02834481
35	0xbcb51717	-0.022105737
36	0xbcde30cf	-0.027122883
37	0xbc48fb88	-0.012267001
38	0xbcae9651	-0.02131191
39	0xbc14fd25	-0.0090935575
40	0xbd848265	-0.06470183
41	0xbbc70d31	-0.0060745706
42	0xbc01ec46	-0.007929867
43	0xbbec312f	-0.0072080116
44	0xbd83583d	-0.064133145
45	0x3bb87a4a	0.0056298124
46	0xbd00bf68	-0.03143254
47	0xbbda2730	-0.0066575035
48	0xbd02df3f	-0.031951185
49	0x3c810114	0.015747584
50	0x3aa3acb4	0.0012487383
51	0xbd07cdd0	-0.033155262
52	0x3bab64bd	0.005230515
53	0x3ccb8e72	0.024848197
54	0xbc55801a	-0.01303103
55	0x3bcf501e	0.0063266894
56	0x3bc1db1b	0.005916012
57	0xbd05240b	-0.032505076
58	0xbbf79c59	-0.00755648
59	0xbcf993e8	-0.030466035
60	0x3c81e07e	0.015854117
61	0xbc91b7e2	-0.017787877
62	0x3bf6f56b	0.0075365803
63	0xbc9fbcf3	-0.019499278
64	0xbd65fbaf	-0.056148227
65	0x3c652fb2	0.013988422
66	0xbc85f0d0	-0.01635018
67	0x3ba9fee3	0.0051878556
68	0xbd300c45	-0.04298045
69	0x3cb8a2dc	0.022538595
70	0x3c1795ae	0.009251995
71	0xbc8f4ecc	-0.017493628
72	0xbd0abdb7	-0.033872332
73	0xbccb2dcc	-0.024802111
74	0xbba549e8	-0.0050442107
75	0xbc73a02c	-0.014869731
76	0xbceb5185	-0.028725395
77	0xbce2d8aa	-0.027691204
78	0xbc30a4d4	-0.010781486
79	0x3cc0a4c6	0.02351607
80	0xbd1b2fa7	-0.03788724
81	0x3bd63566	0.0065371273
82	0xbb22c84a	-0.002483862
83	0x3a004caf	0.0004894239
84	0x3b18215d	0.0023213245
85	0x3c3280ca	0.0108949635
86	0xbc55b8e7	-0.013044572
87	0xbc08a972	-0.00834118
88	0xbc1e1d08	-0.009650476
89	0xbc8dbf63	-0.017303174
90	0x3a429a30	0.00074234884
91	0xbd5825b4	-0.05277033
92	0xbb5a37b4	-0.0033297362
93	0x3c5ecaaa	0.013598124
94	0xbcf08778	-0.029361472
95	0xbbfc958e	-0.007708258
96	0x3c3967c7	0.011316246
97	0xbd56d04d	-0.052444745
98	0xba93d110	-0.0011277515
99	0x3be1eb07	0.0068944725
100	0xbc56ae47	-0.013103074
101	0xbcc4840f	-0.023988752
102	0xbcdfa561	-0.027300538
103	0xbd1a2066	-0.037628554
104	0x3b799697	0.0038084143
105	0xbcb2870c	-0.021792911
106	0x3be346c2	0.006935925
107	0xbd74e39c	-0.059787378
108	0xbc54493b	-0.012956913
109	0xbc8e31f0	-0.017357796
110	0x3b221436	0.0024731285
111	0x3beaf483	0.0071702613
112	0xba87a0c8	-0.0010347599
113	0x3cbeac00	0.023275375
114	0xbc3efc52	-0.011656838
115	0xbcf7a006	-0.030227672
116	0xbd08fce2	-0.033444293
117	0x3c5924ec	0.013253432
118	0xbc751197	-0.014957807
119	0x3b386060	0.0028133616
120	0x3a84718f	0.0010104644
121	0xbd6bf656	-0.05760797
122	0xbd322e56	-0.04350122
123	0xbc8afd8e	-0.016966607
124	0xbd1257fc	-0.03572844
125	0xbd2b024e	-0.041750245
126	0xbb0065a6	-0.0019591837
127	0x3b96a5fd	0.004597424
128	0xbaf5dcf0	-0.0018757861
129	0x3c404494	0.0117351
130	0xbb379530	-0.0028012507
131	0xbc71549b	-0.014729644
132	0xbcb75fcd	-0.022384549
133	0xbd240005	-0.04003908
134	0xbd50cce8	-0.050976664
135	0xbb3673f8	-0.002784012
136	0x3bbd1894	0.005770752
137	0xbd736317	-0.05942067
138	0xbbb700c6	-0.005584809
139	0xbb3c3219	-0.0028716384
140	0x3bc526e1	0.0060165976
141	0xbd7e0ef3	-0.062025975
142	0xbc410f48	-0.0117834285
143	0xbb83fed4	-0.0040281806
144	0xbb5724ee	-0.0032828408
145	0xbc8036fe	-0.015651222
146	0xbc483994	-0.012220759
147	0xba3d1a90	-0.0007213736
148	0xbd89afb5	-0.067229666
149	0x3cb98d15	0.022650281
150	0xbc170aa6	-0.009218847
151	0xbc655be5	-0.01399896
152	0xb9ac78e0	-0.00032896455
153	0x3bb8c132	0.005638265
154	0xbcd8c35e	-0.026460346
155	0xbcf8811c	-0.030335002
156	0xbd083238	-0.033251017
157	0x3a5b5d28	0.00083680684
158	0xbd9072dc	-0.07053158
159	0x3c0f717f	0.008755087
160	0xbb9d72c8	-0.0048049428
161	0xbd5a36fa	-0.053275086
162	0xb9924d70	-0.00027904985
163	0x3aefb8e2	0.0018289352
164	0xbd0bfc2a	-0.03417603
165	0xbcfe14eb	-0.031015834
166	0xbc32e491	-0.010918752
167	0xbc8d9b47	-0.017285956
168	0x3c81fea8	0.0158685
169	0xbc87542a	-0.016519625
170	0xbd551455	-0.052021343
171	0xbcac5c28	-0.021040037
172	0x3bbb4a36	0.0057156337
173	0xbb285baa	-0.0025689402
174	0xbd7d3c7c	-0.06182526
175	0xbb88acd2	-0.0041709924
176	0xbc12e826	-0.008966481
177	0x3addd1be	0.001692347
178	0xbd1d7c2a	-0.03844849
179	0xbc3e37b6	-0.011609962
180	0x3a98576c	0.0011622733
181	0xbcbd9bb0	-0.023145527
182	0xbb7b8372	-0.0038377908
183	0x3cd734fd	0.026270384
184	0x3be1defc	0.006893037
185	0xbb85a9d8	-0.004079085
186	0xbc3db45e	-0.011578647
187	0x3c87ed5a	0.01659267
188	0xbbe4edf2	-0.006986373
189	0x3c472b46	0.012156313
190	0xbd1a19f7	-0.03762242
191	0x3b6ec8ee	0.0036435681
192	0xbc94287b	-0.018085709
193	0x3b292068	0.002580667
194	0xbbe901c0	-0.0071108043
195	0xbc45076d	-0.012025696
196	0xbcb63b3c	-0.022245042
197	0xbc647168	-0.013943054
198	0xbd6f3f5b	-0.05841003
199	0xbc17895f	-0.00924906
200	0xbd25d489	-0.040485892
201	0x3c9d2420	0.019182265
202	0xbc6b7439	-0.014370971
203	0xbcc4dd3f	-0.02403128
204	0xbc4cc5f2	-0.012498366
205	0xbd19300b	-0.037399333
206	0xbb5cecee	-0.0033710557
207	0xbcb7960a	-0.022410411
208	0xbbbcda18	-0.0057633035
209	0xbd819f0b	-0.06329163
210	0xbc44232a	-0.011971274
211	0x3ba99beb	0.0051760576
212	0xbce133b0	-0.027490467
213	0xbbbc6543	-0.005749376
214	0x3c4539ca	0.012037704
215	0xbcda1516	-0.026621383
216	0xbc09423c	-0.008377608
217	0x3bd35216	0.0064489944
218	0xbb7afa9a	-0.0038296343
219	0x3c4792f8	0.012181036
220	0x3c213a5c	0.009840574
221	0xbcc2e261	-0.023789586
222	0xbd22686d	-0.03965037
223	0xbc336bde	-0.0109510105
224	0x3ce2465f	0.027621446
225	0xbbc4f2cd	-0.0060103894
226	0x3cc3f00e	0.023918178
227	0xbcbaa5fd	-0.022784228
228	0x3c054883	0.008134964
229	0xbc234e28	-0.009967364
230	0xbc7b2d64	-0.015330646
231	0x3adb5050	0.0016732309
232	0xbd5c69fd	-0.053812016
233	0xbcfc6eb5	-0.030814508
234	0xbc83a89c	-0.01607161
235	0xbd4f0ec8	-0.050551206
236	0xbd3aa48a	-0.045567073
237	0xbc3db2a2	-0.011578234
238	0xbcb3eb77	-0.021962864
239	0xbd4d1b2b	-0.050074738
240	0xbd60d64a	-0.054891862
241	0x3c2e852c	0.010651868
242	0xbc8fd7c5	-0.017558942
243	0x3c83d87e	0.016094442
244	0x3c896e40	0.016776204
245	0x3c680abc	0.0141627155
246	0x3c61a442	0.013772072
247	0x3c8617da	0.016368795
248	0xbc60dda1	-0.013724715
249	0xbcd389e6	-0.025822591
250	0xbd8be5ff	-0.06830978
251	0x3bb4bebf	0.005515903
252	0xbcef6c6a	-0.0292265
253	0x3b66634c	0.00351544
254	0xbd0feacf	-0.03513604
255	0x3abb83f6	0.0014306295
