GolfFeedback-poc/src/s3_NAM_model/output/NAM_Experiment/0/checkpoints/output/NAM_Experiment/0/epoch=09-val_loss=711.9047.ckpt (torch, 605937 bytes, 240 tensors)

model.feature_nns.0.model.0.weights f4 [1, 1000]
000000 2b 2f c8 3f d3 a2 db 3f 99 f8 d8 3f 46 5d d9 3f
       1.5639395 1.7159065 1.6950866 1.698159
000010 89 35 dc 3f d2 3c cf 3f e5 f8 da 3f 3f e0 db 3f
       1.7203838 1.6190436 1.7107207 1.717781
000020 9f c2 d5 3f 46 c3 ac 3f 39 ef a8 3f fb c5 cb 3f
       1.6700019 1.3497093 1.3198005 1.5919794
000030 3e 91 d7 3f 01 fb d9 3f d7 a5 d7 3f c7 ba b6 3f
       1.6841199 1.7029725 1.6847485 1.427575
000040 f6 e7 d0 3f f2 20 d9 3f cc e6 d6 3f a5 ea d4 3f
       1.6320789 1.6963179 1.6789184 1.6634108
000050 cd 23 db 3f 93 b3 be 3f 3f cf d2 3f 7e b5 c4 3f
       1.71203 1.4898552 1.6469496 1.5367887
000060 00 49 a9 3f 1c f0 cb 3f 8d 57 cf 3f 8b 21 da 3f
       1.3225403 1.593265 1.6198593 1.7041487
000070 d1 1e c1 3f 9f cd d5 3f 14 1a ca 3f cd c1 c9 3f
       1.508753 1.6703376 1.5789208 1.5762268
000080 50 db b9 3f 2e 48 d8 3f 1e 0b d6 3f ee 1f d2 3f
       1.4520054 1.6897027 1.6722143 1.6415994
000090 09 4c b1 3f b0 67 db 3f 9d 64 d2 3f 16 70 bd 3f
       1.3851329 1.7141018 1.6436955 1.4799831
0000a0 34 23 da 3f 68 d9 a8 3f 8b 2b d7 3f 94 26 d9 3f
       1.7041993 1.3191347 1.6810163 1.6964898
0000b0 3e dd d8 3f 42 5b db 3f ba e4 c4 3f 71 92 ae 3f
       1.6942518 1.7137225 1.5382302 1.363844
0000c0 72 cc da 3f e6 59 d6 3f f7 9c d7 3f ea 7b d7 3f
       1.7093642 1.6746185 1.6844777 1.683469
0000d0 c1 85 c9 3f e2 0d d9 3f 43 f6 d5 3f d4 b0 d6 3f
       1.5743943 1.6957362 1.6715778 1.6772714
0000e0 34 cd c8 3f 14 0c c5 3f 51 80 d0 3f a8 c0 bb 3f
       1.5687623 1.5394311 1.6289159 1.4668169
0000f0 09 01 d1 3f 51 f7 d3 3f c1 ba c5 3f 4f 1f d0 3f
       1.6328441 1.655985 1.5447618 1.6259555
000100 ab 3c da 3f 1d f2 c1 3f 02 30 d6 3f fb b3 da 3f
       1.7049764 1.5152012 1.6733401 1.7086176
000110 35 80 d9 3f c1 e6 c3 3f bf b1 d5 3f 24 f4 d3 3f
       1.6992251 1.5304796 1.6694869 1.6558881
000120 3b d8 ce 3f 1c 23 d7 3f 6e c8 d4 3f 43 e7 c6 3f
       1.6159738 1.680759 1.6623666 1.5539325
000130 73 23 db 3f e2 22 cc 3f 66 b4 d7 3f c0 ca d7 3f
       1.7120193 1.5948145 1.6851928 1.6858749
000140 3b 2c d9 3f 82 7e cf 3f ed 5c cb 3f 6c 85 d8 3f
       1.6966623 1.6210482 1.5887734 1.6915717
000150 ce 8c db 3f 58 7b c3 3f 3c 61 cf 3f c5 79 db 3f
       1.7152345 1.5272017 1.6201549 1.7146536
000160 f8 b0 d5 3f 5b 34 d8 3f c0 f9 cf 3f 94 b5 d8 3f
       1.6694632 1.6890978 1.6248093 1.6930413
000170 32 31 d5 3f ed df c2 3f 38 63 dc 3f b0 07 b6 3f
       1.6655638 1.5224587 1.7217779 1.4221096
000180 35 ce d9 3f 9f 56 c6 3f ad aa db 3f c8 5c d7 3f
       1.7016054 1.5495185 1.7161461 1.682519
000190 3a 07 dc 3f 20 b1 db 3f 82 76 d4 3f b1 52 db 3f
       1.7189705 1.7163429 1.6598666 1.713461
0001a0 60 df c5 3f 86 87 c4 3f b2 92 ba 3f 07 47 c7 3f
       1.5458794 1.5353858 1.4576018 1.5568551
0001b0 4d de d8 3f e7 7c d9 3f 6f 6d b6 3f 3f a7 bd 3f
       1.6942841 1.6991242 1.4252146 1.4816664
0001c0 e8 a6 da 3f 34 e1 db 3f 2a 00 d9 3f 0a 17 d5 3f
       1.7082186 1.7178102 1.6953175 1.6647656
0001d0 0c fe ce 3f 0b 79 d4 3f 8e 1c da 3f 73 ef bc 3f
       1.6171279 1.6599439 1.7039964 1.4760574
0001e0 a7 38 d3 3f 4b 40 d4 3f 20 05 a9 3f 83 95 d2 3f
       1.6501664 1.6582121 1.3204689 1.6451877
0001f0 92 c9 d4 3f cc 4f d6 3f f9 41 ca 3f 44 51 d9 3f
       1.6624014 1.6743102 1.5801383 1.6977925
000200 b7 fd b1 3f af cd a6 3f 7e 93 d5 3f 0a 02 d9 3f
       1.3905553 1.303152 1.6685636 1.6953747
000210 55 08 d3 3f a3 ce da 3f b8 dd d8 3f d4 66 d9 3f
       1.6486918 1.709431 1.6942663 1.6984506
000220 d1 7f d0 3f 4b e7 d9 3f 8c e9 bf 3f ea 55 c8 3f
       1.6289006 1.702371 1.4993148 1.5651219
000230 0f 8d ca 3f 21 3a d9 3f ba 48 db 3f 22 ef c8 3f
       1.5824298 1.6970865 1.7131569 1.5697978
000240 82 32 da 3f 83 51 c9 3f 97 f6 d5 3f 29 9f da 3f
       1.7046664 1.5728 1.6715878 1.7079822
000250 62 fe d6 3f 35 31 d2 3f c6 37 d3 3f e1 1f d2 3f
       1.6796381 1.6421267 1.6501396 1.6415979
000260 6b 6f ae 3f 93 02 d5 3f 4e 0b d3 3f 46 1c dc 3f
       1.3627752 1.664141 1.6487825 1.7196128
000270 5a 0e c1 3f 96 08 dc 3f e0 7d db 3f de eb b6 3f
       1.5082505 1.719012 1.7147789 1.4290731
000280 aa ca cf 3f 1b 6d d8 3f f4 0e d8 3f 76 7f cc 3f
       1.6233723 1.6908296 1.6879563 1.5976398
000290 82 29 c5 3f 1b aa ca 3f 3e eb d2 3f 2f 4f d7 3f
       1.5403292 1.5833162 1.647804 1.682104
0002a0 a4 c9 d1 3f cd c7 d7 3f 75 05 d1 3f f4 51 d6 3f
       1.6389661 1.6857849 1.632979 1.674376
0002b0 b1 5e d8 3f 40 ed bc 3f fb f0 d3 3f d8 93 ad 3f
       1.6903898 1.4759903 1.6557916 1.3560743
0002c0 44 44 ce 3f 49 d3 c5 3f 3c ff a0 3f 2c 81 db 3f
       1.6114583 1.5455104 1.2577891 1.7148795
0002d0 3b 38 cc 3f 51 b9 d2 3f e3 d5 c5 3f cc a0 d3 3f
       1.595466 1.6462804 1.5455898 1.6533446
0002e0 36 94 b2 3f 83 80 d1 3f 57 92 d0 3f b3 ee d4 3f
       1.395148 1.6367344 1.6294659 1.6635345
0002f0 8c fc d3 3f 8f 80 d9 3f 34 5a d3 3f 80 41 cd 3f
       1.6561446 1.6992358 1.6511903 1.6035614
000300 89 ec db 3f 93 a4 d0 3f 7d 36 dc 3f 06 ea bf 3f
       1.718156 1.6300224 1.7204129 1.4993293
000310 86 fb c7 3f d1 f5 bb 3f fa d8 ca 3f 1c 83 d3 3f
       1.5623634 1.4684392 1.5847466 1.6524386
000320 50 55 da 3f b2 30 c1 3f a0 5e d6 3f 64 c8 da 3f
       1.7057285 1.5092986 1.6747627 1.7092404
000330 79 81 dc 3f 15 a9 d6 3f 36 2a d1 3f 46 50 c1 3f
       1.7227012 1.677035 1.6341007 1.5102623
000340 40 ea d4 3f ef 07 d9 3f 4e ee d4 3f ed 04 d8 3f
       1.6633987 1.6955546 1.6635225 1.6876503
000350 56 49 db 3f 5a 93 d1 3f 7e 97 c9 3f b4 07 d2 3f
       1.7131755 1.6373093 1.5749357 1.6408601
000360 ba d6 cd 3f 6c 5c d9 3f fa 28 d8 3f 8e 76 d2 3f
       1.6081154 1.698133 1.6887505 1.644243
000370 f2 19 d9 3f f0 45 91 3f 8a 37 c4 3f 14 b6 d3 3f
       1.6961043 1.1349468 1.5329449 1.6539941
000380 29 c6 d5 3f ac 95 db 3f 16 c8 d3 3f 31 90 c6 3f
       1.6701099 1.7155051 1.6545436 1.5512754
000390 6c 90 cf 3f 81 e4 c3 3f f4 8c ca 3f e8 3d ce 3f
       1.6215949 1.5304109 1.5824265 1.6112642
0003a0 c9 1e d9 3f e3 28 dc 3f 4c 02 d6 3f 36 37 c3 3f
       1.696252 1.7199978 1.6719451 1.5251224
0003b0 74 21 b4 3f 22 fd cb 3f 8f 21 bf 3f 9a c7 c3 3f
       1.4072709 1.5936625 1.4932116 1.5295289
0003c0 7a 16 ba 3f ac de d4 3f c8 7a d4 3f 43 1c d1 3f
       1.4538109 1.6630454 1.659997 1.633675
0003d0 41 9d d3 3f 54 8f d4 3f a7 e0 d5 3f 95 11 d4 3f
       1.6532365 1.660624 1.6709183 1.6567866
0003e0 6d 8f cf 3f 2b ef d1 3f 56 b3 b6 3f 7c ad c2 3f
       1.6215645 1.6401113 1.4273479 1.5209193
0003f0 26 c0 c7 3f a4 37 da 3f bd f6 da 3f fb 98 c1 3f
       1.5605514 1.704823 1.7106549 1.5124811

model.feature_nns.0.model.1.weight f4 [1, 1000]
000000 30 08 7e 3b 7f 1d bc bc 10 0f 37 ba ee c8 93 3c
       0.0038762204 -0.022963284 -0.00069831405 0.018040147
000010 0c 1a 8a 3c 76 a9 a3 3c 04 71 92 3c 8d 81 cc bc
       0.016858123 0.019978266 0.017876156 -0.024964118
000020 2e 92 a8 bc b6 87 71 3b 38 06 37 bc ec 69 94 3b
       -0.020577516 0.0036854572 -0.011170916 0.0045292284
000030 70 49 8e bc 3b c3 4b 3c e9 f6 ed 3c 01 f1 e1 bc
       -0.017369002 0.012436683 0.0290484 -0.02758074
000040 44 df 81 3c b0 2a 60 3c 00 90 b3 bc 17 73 88 bc
       0.015853532 0.0136820525 -0.02191925 -0.016656442
000050 df e7 9b bc ca a7 d4 bb 1a 43 22 bc 9b 3a cb bc
       -0.019031463 -0.0064897286 -0.009903694 -0.024808219
000060 b0 97 47 39 e6 c5 9b bb 9c c1 70 3c f1 60 c2 3c
       0.00019034627 -0.004753816 0.014694598 0.023727866
000070 f1 a2 d3 3c 3d a5 1d 3c 48 84 a7 bc b2 92 bb bc
       0.025834532 0.009621915 -0.020448819 -0.022897098
000080 ba e6 59 bc 7b 87 ac 3c 6e c1 d0 bc ad d9 b5 3c
       -0.013299638 0.021060696 -0.02548286 0.022198522
000090 20 5f f3 ba ca 7c 56 bc 1d d5 a2 3c 3f 4c b0 3c
       -0.0018567778 -0.0130912755 0.019877011 0.021520732
0000a0 7a f8 0a bc 00 0b 27 bc d0 68 66 bc 88 ee b9 bb
       -0.008482093 -0.010195494 -0.014063075 -0.005674187
0000b0 a4 ee 01 3c b9 fa b9 3b f4 32 5f bb cf 02 2d 3b
       0.0079304315 0.0056756404 -0.003405747 0.002639938
0000c0 86 0b 25 bc 7d ef 03 3c b3 3e c4 bc 86 c3 f0 bb
       -0.010073548 0.008052704 -0.023955679 -0.007347527
0000d0 5c 95 e1 bc 17 fd 54 bc 67 15 0f bb 68 b8 80 ba
       -0.02753704 -0.012999794 -0.0021832825 -0.0009820582
0000e0 0a 1b a4 3c cd 5a e8 bc ba 7c 69 3c b5 6a 91 3c
       0.020032424 -0.02836361 0.014250929 0.017751077
0000f0 c5 56 c6 bc ce 4c 2c 3c de 34 41 3c 40 b5 d5 bc
       -0.024211297 0.010516359 0.01179239 -0.026087403
000100 d5 7a d3 3c 7e 69 e7 3c 45 5d 18 bc 96 a4 b1 bc
       0.025815407 0.028248545 -0.009299581 -0.021684926
000110 08 ed 8f 3c 24 7d 8e bc 0f 31 98 bc e1 23 49 3c
       0.01756908 -0.017393656 -0.01857808 0.012276621
000120 78 a9 6c 3c f1 14 22 3b c8 9d b7 3c 2c f0 ba 3c
       0.014444701 0.002473172 0.022414103 0.022819601
000130 69 41 46 3c c5 cb 4f 3c ec 23 d9 bc c8 e0 cc ba
       0.012100556 0.01268286 -0.026506387 -0.0015630955
000140 1e 95 8b bc 06 67 13 3c 00 84 8a bc 20 f4 96 ba
       -0.017038878 0.008996731 -0.016908646 -0.0011516847
000150 d4 35 8f bc e2 19 84 bc 37 e4 d4 bc 2e 71 a1 3c
       -0.017481722 -0.016125623 -0.025987728 0.019707289
000160 28 75 92 3c 6d 9b 8c bc 2e c9 17 3c cb dc bb bc
       0.01787813 -0.017163957 0.009264274 -0.02293243
000170 eb 66 d6 bc 4a 48 ab bc 71 11 b8 3c a4 a6 ee bc
       -0.026172122 -0.020908494 0.022469254 -0.029132195
000180 06 31 3d bb 08 b0 b9 3c 88 0b e2 bb 77 74 24 bc
       -0.0028868332 0.022666946 -0.0068983473 -0.010037533
000190 04 00 60 3b 86 3d 31 3c b8 be 1b bc 12 86 78 bc
       0.0034179697 0.010817891 -0.00950592 -0.015168684
0001a0 d4 29 9d 3c 4e d5 91 bc a2 82 61 bb c8 97 a0 39
       0.019184984 -0.017801907 -0.0034410139 0.00030630664
0001b0 ba 4b c8 3b bc 22 b7 3c 3a b4 8f 3c 2e da 22 bc
       0.006112543 0.02235543 0.017541993 -0.009939713
0001c0 f0 94 b2 3c 94 9b ac bb 7b 25 73 bc e4 f2 8e bb
       0.021799535 -0.00526757 -0.014840479 -0.004362451
0001d0 49 36 94 bc 0e 2c f5 bb 54 c2 47 3c 2e df 63 3c
       -0.018092291 -0.0074820584 0.0121923275 0.013908191
0001e0 a6 99 b5 3c 08 04 0a 3b d5 30 9e 3b d6 b0 fb 39
       0.022167992 0.0021059532 0.0048275986 0.00048006204
0001f0 3e d4 50 bb 4d c1 29 bb 6d 9d 35 3c d0 fa a7 bc
       -0.0031864787 -0.002590257 0.0110848965 -0.020505339
000200 72 ca 79 bc 1c 28 2d bc 43 81 95 3c e5 27 ae 3a
       -0.015246021 -0.010568645 0.018250113 0.0013287036
000210 41 3d 01 3c 94 f3 50 3c ce 48 64 3c dc 02 a2 3b
       0.007888139 0.012753386 0.013933374 0.0049441885
000220 56 9d ca bb 9d 6a 58 bb d4 43 9f bb 5c 35 82 ba
       -0.0061833067 -0.003302253 -0.0048603807 -0.0009934115
000230 bc fc 65 3a 00 75 ab bc 22 7b 20 bb 90 8c 16 3c
       0.0008773317 -0.020929813 -0.0024487455 0.009188786
000240 4b 47 f2 3c 99 c5 8c 3c cb 34 0a bc 4a 4e 3f 3c
       0.02957501 0.017184066 -0.008435438 0.01167638
000250 48 47 e3 3c 90 a1 c5 bc 74 89 5d 3c a5 c3 c5 bc
       0.02774395 -0.02412489 0.013521541 -0.024141142
000260 a4 49 b0 bc a4 c9 69 bc 31 a6 90 bc c5 a2 d2 bc
       -0.02151949 -0.014269266 -0.017657371 -0.02571238
000270 50 56 b8 bc fb 2f 10 3c 95 83 33 bc 9b de 13 bc
       -0.022502095 0.008800502 -0.010956665 -0.009025241
000280 9f e9 99 bc 0a 2e c7 3c fd e9 06 bb 02 43 5a 3c
       -0.018788157 0.024313945 -0.0020586245 0.01332164
000290 e1 7c 69 3c 21 fa 15 bb d3 75 dc 3c 72 74 5a bb
       0.014250965 -0.0022884684 0.026911652 -0.0033333567
0002a0 f4 73 b9 bc 5a 92 ed bc 1f 1d 54 3c 10 8a 09 3d
       -0.022638299 -0.02900045 0.012946396 0.033578932
0002b0 75 73 a0 3c 22 66 25 bc f9 a6 0a 3d 7c 0f c3 3c
       0.019586304 -0.010095151 0.033850644 0.023811094
0002c0 5d 77 65 3c 78 b6 a1 3c 1a dd 19 3c d0 db 89 bc
       0.014005509 0.019740328 0.009391094 -0.016828448
0002d0 b4 fc 05 3d c1 ef 5e bc 6d 56 9d bc ab 96 69 3c
       0.0327117 -0.0136069665 -0.01920625 0.014257113
0002e0 a1 59 99 bb 88 98 c2 3c 0b f0 76 bc 9a f0 23 bb
       -0.004679874 0.023754373 -0.015071879 -0.0025015236
0002f0 fe c2 c7 bc ae 53 47 3a 5b a3 71 3c 55 1a c0 bc
       -0.024384972 0.0007603717 0.01474842 -0.023450056
000300 8e 55 0f bb e3 24 b0 3c 29 1e 8b 3c 68 23 52 bb
       -0.0021871063 0.021501964 0.016982155 -0.003206456
000310 6d 20 5a bc 4a 5d 9a 3b 82 5a 96 3c da 9b 57 3b
       -0.013313395 0.004710828 0.018353704 0.0032899291
000320 05 18 ae bb da 53 c4 bb e7 e7 28 bc 13 d9 ab 3c
       -0.005312922 -0.005991441 -0.010309196 0.020977532
000330 0b 54 59 3c 8c 76 2a bc 3b c3 ba 3c 47 eb ab 3c
       0.013264666 -0.01040424 0.022798171 0.020986212
000340 2a 58 e7 3b 9e 00 d8 bc 82 77 01 3d af 84 06 3c
       0.0070600705 -0.026367482 0.031608112 0.008210345
000350 3a 33 ce bb 73 f0 95 3c 6b 9c bc 3c 23 ba be 3c
       -0.006292728 0.018303132 0.023023805 0.023282116
000360 2c f1 51 bb 5c 57 c2 3c 18 28 d6 3a 9e a8 94 bb
       -0.0032034619 0.023723297 0.0016338853 -0.0045367023
000370 30 aa 7a 3c 85 71 ee bb 1e 91 83 3b 6f ab 19 3c
       0.015299365 -0.007276716 0.004015102 0.009379252
000380 eb eb 64 3c 55 5c d2 3c 68 f4 6e bc ae f0 b4 bb
       0.013972263 0.025678793 -0.014584638 -0.0055218553
000390 a9 d1 6c bb a7 b6 bd 3b fc cd 9d ba 2a 90 ff 3b
       -0.003613571 0.005789596 -0.0012039538 0.007799168
0003a0 24 63 53 bc 06 c0 93 bc 43 8c 9c 3c b1 96 c3 bc
       -0.012902055 -0.0180359 0.01910985 -0.023875566
0003b0 68 23 61 bc 63 5f 0c 3c 08 36 e9 bc bb ee 32 3b
       -0.013741352 0.008567664 -0.028468147 0.002730294
0003c0 59 47 b1 3c c1 80 c4 bb ba 4e af bc 33 9e 19 bc
       0.021640467 -0.005996794 -0.021399844 -0.009376097
0003d0 93 0d 76 bc 11 99 47 bc 5e a4 15 bc 62 4b b6 bc
       -0.015017885 -0.01218249 -0.0091334265 -0.022252742
0003e0 ce 73 97 bb c0 eb 05 bc 13 e4 ab 3c 90 8a d3 bb
       -0.0046219593 -0.008173883 0.020982778 -0.006455727
0003f0 26 c6 2a 3c 56 2f 69 bb 02 87 ca bc e2 80 d3 bb
       0.010423219 -0.0035581193 -0.02472258 -0.006454573

model.feature_nns.1.model.0.weights f4 [1, 244]
000000 b4 cf b4 3f fb 06 d5 3f 4f f5 dd 3f 62 b2 d8 3f
       1.4125886 1.6642755 1.7340487 1.6929438
000010 11 fa ce 3f ab db e4 3f db 28 94 3f 3b 23 dd 3f
       1.6170064 1.7879537 1.1574968 1.7276376
000020 14 08 c9 3f 53 2c e3 3f 87 c6 d0 3f e4 bd d9 3f
       1.570559 1.7747902 1.6310586 1.7011075
000030 56 57 d9 3f 87 53 dc 3f a2 99 c7 3f 2e 26 d1 3f
       1.6979778 1.721299 1.559376 1.6339777
000040 a7 58 cd 3f 3e 0b de 3f d5 0d b8 3f 14 89 ce 3f
       1.604268 1.7347181 1.4379221 1.6135583
000050 31 93 df 3f e1 c4 c8 3f ba 3c e6 3f 90 79 c8 3f
       1.7466794 1.5685083 1.7987282 1.5662098
000060 88 88 e2 3f 1d 7c dc 3f 69 b1 d2 3f 1b c9 dc 3f
       1.7697916 1.7225376 1.6460391 1.7248873
000070 2a c4 d9 3f 36 da e4 3f 4a 5a dd 3f 62 32 db 3f
       1.701299 1.7879093 1.7293179 1.7124751
000080 0f 5a a9 3f ce bb ca 3f 63 3c ca 3f c8 57 dc 3f
       1.3230609 1.5838563 1.5799679 1.7214289
000090 11 63 e0 3f b5 3a e8 3f 06 9f d3 3f d2 04 e1 3f
       1.7530233 1.8142916 1.6532905 1.7579596
0000a0 33 03 d5 3f b6 1c df 3f 5d 45 cd 3f bd 27 d2 3f
       1.6641601 1.7430637 1.6036793 1.6418377
0000b0 6c bf d7 3f 8a 04 d4 3f e4 43 d6 3f cf 5c d8 3f
       1.6855292 1.6563885 1.6739469 1.6903323
0000c0 6f c0 e1 3f 29 82 d2 3f 03 da e3 3f fc 49 c6 3f
       1.7636851 1.6445972 1.7800907 1.5491328
0000d0 2d 9b e6 3f 90 0e ca 3f 80 d5 d6 3f bb 2f db 3f
       1.8016106 1.5785694 1.6783905 1.7123941
0000e0 36 54 d5 3f 8e 08 dd 3f cd dc e3 3f fa 8d d4 3f
       1.6666324 1.7268236 1.7801758 1.6605828
0000f0 7b 8e c7 3f d9 35 d8 3f 5b 50 d5 3f ef 6a b2 3f
       1.5590357 1.6891433 1.6665148 1.3938884
000100 b9 0a bc 3f 8c e4 cc 3f 23 28 a9 3f 3e 7a dc 3f
       1.4690772 1.6007247 1.3215374 1.7224805
000110 27 91 bb 3f 71 1c cc 3f 6b 25 ac 3f 87 f5 df 3f
       1.4653672 1.594618 1.3448919 1.7496804
000120 af 28 d8 3f b3 bf e0 3f ad 5d dc 3f b5 59 e3 3f
       1.6887416 1.7558502 1.7216088 1.7761751
000130 db cd e4 3f d4 45 ce 3f 76 b0 d1 3f 75 05 cf 3f
       1.7875322 1.611506 1.6381977 1.617354
000140 8d 71 e0 3f a5 26 db 3f 15 59 e3 3f 38 fc c1 3f
       1.7534653 1.7121168 1.7761561 1.5155096
000150 58 ca d0 3f eb 0e e0 3f f9 72 dd 3f 9c af d5 3f
       1.631175 1.7504553 1.7300712 1.6694217
000160 e9 9e a6 3f 5e 1d d8 3f b6 60 e0 3f 01 ca d5 3f
       1.3017246 1.6883962 1.7529514 1.6702272
000170 a3 98 c6 3f 31 f1 d3 3f d0 fc e1 3f 3e 84 e8 3f
       1.5515331 1.6557981 1.7655277 1.8165357
000180 fc 67 df 3f a5 17 d0 3f ab 07 e8 3f fa 23 e5 3f
       1.7453609 1.6257216 1.812734 1.7901604
000190 37 55 e3 3f de 7d d7 3f 40 2c de 3f c5 2f e7 3f
       1.776038 1.6835287 1.7357254 1.8061453
0001a0 4e 94 ce 3f e2 34 b2 3f 0c 05 de 3f f9 2d ce 3f
       1.6139009 1.3922389 1.734529 1.610778
0001b0 7f 48 e4 3f 5d 25 e1 3f 17 dc e1 3f cc f1 b4 3f
       1.7834624 1.7589527 1.7645291 1.413629
0001c0 84 9c dd 3f 9a be da 3f b0 be c3 3f c5 46 d3 3f
       1.731339 1.7089417 1.5292568 1.6505972
0001d0 52 40 e5 3f 1c 64 df 3f 0d 3b da 3f dc a3 d9 3f
       1.7910254 1.7452426 1.7049271 1.7003131
0001e0 f3 59 d3 3f 2f 06 d1 3f 8e 80 de 3f 94 d4 d1 3f
       1.6511825 1.6330012 1.7382982 1.6392999
0001f0 07 42 d8 3f f6 91 d8 3f 2f dd de 3f 83 1c db 3f
       1.689515 1.6919544 1.741125 1.7118076
000200 e0 fb dd 3f 59 ec e1 3f bc 1c e7 3f d9 a9 d7 3f
       1.7342491 1.7650253 1.8055644 1.6848708
000210 e1 69 c0 3f 47 ba dd 3f 37 83 bd 3f 51 b7 ce 3f
       1.5032312 1.7322472 1.4805669 1.6149694
000220 43 c9 cf 3f 29 81 db 3f 72 b6 b3 3f c9 dc d1 3f
       1.6233295 1.7148792 1.4040053 1.6395503
000230 42 af d7 3f e9 42 d0 3f 9a 78 e1 3f 4c c1 db 3f
       1.685036 1.6270419 1.761493 1.7168365
000240 2e aa d6 3f 3c 0e da 3f b1 47 c9 3f 88 7e dc 3f
       1.6770685 1.7035594 1.5725003 1.7226114
000250 5c 4a dd 3f d8 f0 d3 3f 09 6e d7 3f 42 c8 c3 3f
       1.7288318 1.6557875 1.6830455 1.5295489
000260 46 01 dd 3f 5c 82 c0 3f 1d 3f cd 3f 40 8b e4 3f
       1.7266014 1.5039783 1.6034886 1.7854996
000270 ea 82 d9 3f 81 ca dd 3f da 43 96 3f 85 27 e6 3f
       1.6993077 1.7327424 1.1739457 1.798081
000280 6b 98 bb 3f 2b 35 d2 3f 52 39 af 3f 39 80 db 3f
       1.4655889 1.6422476 1.3689368 1.7148505
000290 6f 0e cf 3f bc 87 e1 3f 12 dc dd 3f 49 89 c6 3f
       1.617628 1.7619548 1.7332785 1.5510646
0002a0 98 2e cf 3f 9f f1 ce 3f 10 17 d8 3f 65 50 e7 3f
       1.6186094 1.6167487 1.6882038 1.807141
0002b0 49 7b e3 3f 1a 04 dc 3f 40 71 d4 3f 8d bf de 3f
       1.7771999 1.7188752 1.6597061 1.7402207
0002c0 c8 99 c8 3f 37 62 dc 3f 1e ea db 3f 0e 88 d2 3f
       1.567193 1.7217473 1.7180822 1.644777
0002d0 ea 8a d7 3f 6a 5e de 3f a5 54 de 3f dd 1d d9 3f
       1.6839268 1.7372563 1.7369581 1.6962239
0002e0 45 ca d7 3f 41 7a df 3f ea 74 c8 3f 03 99 ba 3f
       1.6858603 1.7459184 1.5660679 1.4577945
0002f0 ce 5c e3 3f e1 6c e7 3f 8d e7 da 3f 77 63 bf 3f
       1.7762697 1.8080102 1.7101914 1.4952229
000300 5e 86 c6 3f 6c d8 d8 3f b6 bd dc 3f 35 4b d7 3f
       1.5509756 1.6941047 1.7245395 1.6819826
000310 80 e9 da 3f 57 90 de 3f 6b dd db 3f 1c ca d4 3f
       1.7102509 1.7387799 1.7176946 1.6624179
000320 60 46 c7 3f 78 d1 d1 3f 00 53 d5 3f d2 9b d5 3f
       1.5568352 1.639205 1.6665955 1.6688178
000330 f1 6b da 3f fd 34 cf 3f 43 b2 e6 3f c1 19 d8 3f
       1.7064191 1.6188046 1.8023151 1.688286
000340 51 a5 d0 3f 5b 4f e3 3f 51 ec e2 3f c2 15 db 3f
       1.630045 1.7758592 1.7728368 1.7116015
000350 d7 d4 e1 3f 27 80 dd 3f dd 74 dc 3f d0 d3 d4 3f
       1.7643079 1.7304734 1.7223164 1.662714
000360 24 85 e5 3f e7 67 e9 3f 4c 45 dc 3f af 15 e6 3f
       1.7931256 1.8234833 1.7208648 1.7975367
000370 39 55 d4 3f f9 d8 d8 3f d3 d7 d3 3f 44 e1 d0 3f
       1.6588508 1.6941215 1.6550239 1.6318746
000380 06 fa e3 3f 0d 74 c7 3f 2e 3f d6 3f 97 e7 bb 3f
       1.7810676 1.5582291 1.6738031 1.4680051
000390 da eb cf 3f c5 e8 dc 3f 12 9a cd 3f 52 78 e3 3f
       1.6243851 1.7258536 1.6062644 1.7771094
0003a0 27 eb d3 3f 7a db d3 3f b4 c4 b5 3f 4c ef d5 3f
       1.6556138 1.6551354 1.4200654 1.6713653
0003b0 6d 44 c6 3f ff 2f dc 3f 5f cd bb 3f ea 43 ca 3f
       1.5489632 1.7202147 1.4672049 1.5801976
0003c0 d8 f3 d7 3f 10 3a dc 3f ea d1 de 3f e8 d4 e5 3f
       1.687129 1.7205219 1.7407811 1.7955599

model.feature_nns.1.model.1.weight f4 [1, 244]
000000 10 9b 6e 3d 2e ac 18 bd 94 f5 c0 3c 55 fa 2d 3c
       0.058253348 -0.03727358 0.0235546 0.010618766
000010 67 b2 37 3d 18 79 35 3d 49 41 a0 3d 31 5d 17 3d
       0.044847872 0.044304937 0.07824952 0.03695411
000020 38 7e d0 3c 02 e9 54 3d 0c b2 3f bd 80 cb 75 3c
       0.02545081 0.051980026 -0.046800658 0.015002131
000030 ca e4 1f 3d e7 dd 40 3d 82 a1 08 bd 04 30 1a 3d
       0.03903655 0.047086623 -0.03335715 0.037643448
000040 38 65 90 3c 1b 0f cb bc a0 ad 00 b9 3a 32 82 3d
       0.01762639 -0.024787476 -0.00012271712 0.06357236
000050 4d 17 de bb c2 2f f0 bc c3 e4 89 3d 92 12 ba 3c
       -0.00677768 -0.029319648 0.06733086 0.022713933
000060 73 53 8e 3d 06 36 5a bc 46 6f ed bc 2b 63 a9 3c
       0.069495104 -0.013318544 -0.028983723 0.02067717
000070 5d 9e 3c 3c 75 37 8b 3d cc 53 fe bc 4d 3d 3e 3c
       0.011512366 0.06797687 -0.031045817 0.011611295
000080 b0 03 69 3d 11 45 36 3d b5 27 26 bd 58 8f ac 3c
       0.056888282 0.04449946 -0.04056521 0.021064445
000090 ff 2d 4f 3d b1 ca 7e 3d 0a 81 20 bb 88 88 60 3d
       0.050580975 0.06220502 -0.0024490976 0.054817706
0000a0 c1 be 32 bc a9 fb 71 3d a0 f8 0b 3d 82 f5 11 bc
       -0.010909737 0.059077892 0.034172654 -0.008908631
0000b0 28 4c 85 bc 2b 88 d9 bc 28 2c ca 3c cf 48 11 3b
       -0.016271666 -0.026554188 0.024679258 0.0022168641
0000c0 48 3f 31 3d e9 7f 98 3c a8 8c a9 3d f8 45 b4 3c
       0.04327324 0.01861568 0.08278781 0.02200602
0000d0 77 57 4e 3d f5 73 e4 bc d0 ee ec bb 3c 45 37 3d
       0.05037638 -0.027887324 -0.007230617 0.04474376
0000e0 0e f6 ac bb 58 1a 70 3b 56 69 b5 3d 11 63 1b 3d
       -0.0052783554 0.0036636796 0.08857982 0.037936274
0000f0 dd b1 71 3b 1f 23 92 3d 16 1c 95 3d 3f 83 5b 3d
       0.0036879696 0.07135605 0.072807476 0.053591963
000100 42 9d 09 3d f2 68 e2 3c fe 82 93 3b ee 76 8b 3d
       0.03359724 0.027637932 0.0045016995 0.068097934
000110 45 9d f1 bb 76 66 10 bc cc 8b 53 bc a1 1d e6 3c
       -0.0073734843 -0.008813491 -0.012911748 0.0280903
000120 3c f1 12 bc 68 a2 20 3d 4d 76 a6 3b c7 8c 43 3d
       -0.008968648 0.039217383 0.0050800205 0.047741678
000130 c8 16 96 3d ef e0 93 3c ab 6c b9 bb 7b 75 27 3d
       0.07328564 0.018051593 -0.005658706 0.040883522
000140 ca 99 af 3d a0 09 a5 3d 88 b2 31 3d 92 38 4e 3c
       0.08574255 0.080584764 0.04338315 0.01258673
000150 d0 a8 4a 3d 0d f5 81 bc f0 77 e7 b9 3e 3a ae 3d
       0.0494774 -0.01586392 -0.00044149114 0.085072026
000160 88 dd 58 ba 0e 67 a9 3c 52 5c 59 3d 8a c2 cc 3c
       -0.0008272757 0.020679023 0.05306656 0.024995107
000170 de 77 f7 3c 82 17 e4 ba d7 4d ce 3d d9 f2 a9 3d
       0.030208524 -0.0017402025 0.100734405 0.08298273
000180 19 fb b3 3c c4 f3 cb 3c 32 89 aa 3d 20 36 5d 3d
       0.021970319 0.02489651 0.08326949 0.054006696
000190 b9 3b 68 3d ec 83 38 bc 6e 8a 5b bb 6b c6 a3 3d
       0.05669758 -0.011261921 -0.0033499259 0.079968296
0001a0 bf 8d a7 3c 93 95 58 3d 93 53 57 bc b9 ee ec bc
       0.020453332 0.05287702 -0.013142484 -0.028922426
0001b0 66 36 4d 3d c6 b7 5d bd e2 81 3e 3d 1a dc b4 3c
       0.050100707 -0.054130338 0.046510585 0.022077609
0001c0 dd d6 fa bc 25 ae 37 3d 59 f4 62 3d a7 f9 0c bd
       -0.030620033 0.04484381 0.05540881 -0.034417775
0001d0 fb fb 91 3d 11 83 ed 3c 3b 37 87 bc 51 01 b4 3b
       0.071281396 0.028993161 -0.016505828 0.005493321
0001e0 be a4 7d 3d ce b6 76 3d 06 a1 16 3d f0 d1 f9 b9
       0.06192469 0.06023293 0.036774658 -0.00047649397
0001f0 36 0b e0 3c ae 66 3a 3c 79 cd 8d 3d 10 61 52 3d
       0.027349096 0.01137702 0.069239564 0.051362097
000200 2f 92 0c 3d 1b 52 2a 3d fd e1 a7 3d 0a 64 91 bc
       0.0343191 0.041582208 0.08197401 -0.017747898
000210 6b 46 3b 3d ff 30 8a 3d 3d 2a 02 bd f4 43 6e bc
       0.045721453 0.067476265 -0.031778563 -0.0145425685
000220 46 71 b4 3c c0 b2 73 3d 4c 62 e4 b9 42 ab 29 3c
       0.02202667 0.05949664 -0.00043560786 0.010355772
000230 73 bc 88 3d 85 a1 ed bc 2c 11 8c 3d c2 2c f6 3c
       0.06676569 -0.029007683 0.06839213 0.030050639
000240 31 b4 9a bc 86 05 a5 3d 1f 85 9e bc c8 fe 7b bb
       -0.01888475 0.08057694 -0.019350586 -0.0038451422
000250 9a a2 ac 3d 53 2f 4c 3d 02 5c 11 bd b1 d0 54 3c
       0.08429451 0.04984982 -0.035488136 0.012989209
000260 14 9d 27 3d 97 0d 02 3c ec 72 86 3c 8f 6a 51 3d
       0.040921286 0.00793781 0.01641222 0.051127013
000270 53 56 13 3b 1d c3 fe bc 72 08 bc bc ba 06 80 3d
       0.0022481873 -0.031098897 -0.022953246 0.06251283
000280 5a 43 a0 bc e9 3e a4 bb 24 1c 44 3c e5 a2 9f 3c
       -0.019563366 -0.0050123823 0.0119696 0.019486854
000290 a2 94 22 3d 7e 71 4e 3d 0c f0 4d 3d 9e c6 c0 bc
       0.03969253 0.050401203 0.050277755 -0.023532208
0002a0 71 12 66 3d ec 2b 51 bc 9a a7 8e bc c2 ca ad 3d
       0.05616993 -0.012766819 -0.017413903 0.084859386
0002b0 9b 9f 37 3d 9f 42 b8 3d 72 68 3b bc 34 4d 48 3d
       0.044829946 0.08997082 -0.011438476 0.04890175
0002c0 55 76 f0 bc 69 af 07 bd c0 7d 3d 3d ab 3b 81 3d
       -0.0293533 -0.03312627 0.046262503 0.06310209
0002d0 c8 dd 93 bb 5c ec 30 3c 0a 3a 03 3d 53 63 03 3d
       -0.0045125224 0.01079854 0.032037772 0.032077145
0002e0 21 cd d5 bc 2b 88 4c 3d 82 5f 51 bc 6d ab 9d bc
       -0.02609879 0.049934547 -0.0127791185 -0.019246781
0002f0 c5 52 86 3d b2 4e 92 3d 8c e8 82 3d 1f b7 9f 3c
       0.06558756 0.07143916 0.06392011 0.019496499
000300 fa e3 36 3d a0 16 2b 3c 00 b8 ad 3c 5f f9 c8 bc
       0.04465101 0.010442406 0.021205902 -0.024532972
000310 ee b3 f1 bc 6a 1a ef bb 6f 76 40 bd 5b e0 28 bb
       -0.029504742 -0.00729685 -0.046987947 -0.0025768492
000320 63 17 6f 3d c0 7c 30 39 f2 a1 b1 3c 5a ea bf 3c
       0.058371913 0.00016831141 0.021683667 0.023427177
000330 67 a5 18 bd d5 9a 56 3d 92 5d 81 3d 01 f1 55 bd
       -0.037267115 0.052393753 0.06316675 -0.052231792
000340 59 0e 1e 3d 0c aa 02 3d b8 01 9e 3d 43 d6 5e 3c
       0.0385879 0.03190045 0.077151716 0.013600889
000350 5e 23 90 3d 7b 43 18 3d 0b 7a c4 3a dd e8 24 3c
       0.07037996 0.03717373 0.0014989985 0.010065285
000360 5b 04 82 3d de 81 7f 3d 9c 7d f0 bc e1 56 7c 3d
       0.06348487 0.06237971 -0.02935677 0.06160629
000370 29 f5 0a 3c 6e 42 2a 3b c3 b8 c0 3b 52 4a cd 3b
       0.008481302 0.0025979537 0.0058814003 0.006264963
000380 da 02 95 3d 8f 1f 1e 3d ba 2e 96 3d 92 01 32 3d
       0.072759345 0.038604315 0.07333131 0.04345853
000390 72 5c 9a 3c 1f 8c 31 bc 1d e6 60 bc 3d 60 46 3d
       0.01884291 -0.01083663 -0.013726738 0.048431624
0003a0 94 e8 d9 bc 9c 1b 81 3b 88 7d 99 3c c7 ff 48 3d
       -0.02660016 0.003940059 0.018736616 0.049072053
0003b0 c3 f1 d3 3a 24 e3 87 ba ce 66 84 bc 30 91 c7 bc
       0.0016170073 -0.0010367376 -0.016162302 -0.024361223
0003c0 74 9a da 3c 52 1b 0f bd 16 c1 02 bc 37 4e 88 3d
       0.026684977 -0.034938164 -0.007980606 0.06655543

model.feature_nns.2.model.0.weights f4 [1, 112]
000000 15 6f d8 3f 71 27 d5 3f f2 3b c8 3f 37 07 d4 3f
       1.69089 1.6652662 1.5643294 1.6564702
000010 31 b0 cc 3f fe e6 d7 3f a8 b0 d9 3f dd c1 cb 3f
       1.5991269 1.6867368 1.7007036 1.5918537
000020 c0 3d c6 3f e6 bc b8 3f 8b c7 d7 3f 10 37 dc 3f
       1.5487595 1.4432647 1.6857771 1.7204304
000030 1a 05 cf 3f b8 84 d0 3f 6e fb d6 3f 7e ca c5 3f
       1.6173432 1.6290503 1.679548 1.5452421
000040 51 f1 c1 3f 73 ec d1 3f 1a 48 d8 3f 8a b3 d4 3f
       1.5151769 1.6400284 1.6897004 1.6617291
000050 51 eb c6 3f 67 ba db 3f eb aa d8 3f a0 98 cd 3f
       1.5540563 1.716626 1.692716 1.6062202
000060 48 6f a6 3f ed ef d7 3f cd 89 ad 3f 37 01 d5 3f
       1.300271 1.6870095 1.3557678 1.6640996
000070 c6 eb cc 3f e6 60 ce 3f 08 04 ca 3f 51 84 d1 3f
       1.6009452 1.6123321 1.578248 1.6368505
000080 a3 86 db 3f 36 10 ca 3f 85 2d c6 3f 6b 5f d6 3f
       1.7150463 1.5786197 1.5482641 1.6747869
000090 1c b0 db 3f 2e 0e da 3f 80 ec c8 3f d6 93 d0 3f
       1.7163119 1.7035577 1.5697174 1.6295116
0000a0 28 38 d0 3f 3c 7e b4 3f d3 bd db 3f 4a f3 d1 3f
       1.6267138 1.4101024 1.7167305 1.6402371
0000b0 d7 f4 bf 3f d7 ef ca 3f 3f d7 cb 3f cd 54 c9 3f
       1.4996594 1.5854443 1.5925063 1.5729004
0000c0 f3 35 d1 3f a1 da d2 3f c9 c6 d5 3f 7f 2b cc 3f
       1.6344589 1.647297 1.670129 1.5950774
0000d0 2d f4 ce 3f 60 b6 ca 3f 69 5e d4 3f f9 a4 da 3f
       1.6168267 1.5836906 1.6591312 1.7081596
0000e0 05 92 cc 3f dd d2 c9 3f 3e 34 d7 3f c5 03 db 3f
       1.5982062 1.5767475 1.6812818 1.7110525
0000f0 4a 73 d6 3f e7 1c db 3f 69 5e d4 3f 7f e7 d9 3f
       1.6753933 1.7118195 1.6591312 1.7023772
000100 a0 4c d9 3f 5a ac da 3f b7 b3 da 3f 2d 8d d5 3f
       1.6976509 1.7083848 1.7086095 1.6683708
000110 ca a9 b1 3f 48 5e d7 3f 22 70 ca 3f 7a 8e b8 3f
       1.387994 1.6825647 1.581547 1.441848
000120 5b 9b d0 3f 06 55 bb 3f ce cd d2 3f df d1 d3 3f
       1.6297411 1.4635322 1.6469057 1.6548423
000130 06 8b da 3f bd 2e d1 3f eb 00 d2 3f 16 4b db 3f
       1.7073677 1.6342388 1.640653 1.713229
000140 df d1 d3 3f 41 ad c1 3f e1 06 c9 3f 9c 82 d5 3f
       1.6548423 1.5130998 1.5705224 1.6680484
000150 cb 9b b7 3f e2 a2 d0 3f ee 99 d8 3f 48 a4 a2 3f
       1.4344419 1.6299708 1.6921976 1.2706385
000160 4c ab cd 3f 43 9c ac 3f f5 75 cb 3f 51 eb c6 3f
       1.6067901 1.3485187 1.5895373 1.5540563
000170 08 04 ca 3f 1d 19 dc 3f 69 cc c6 3f 51 84 d1 3f
       1.578248 1.7195164 1.5531131 1.6368505
000180 d7 f4 bf 3f 06 19 d1 3f 15 c8 db 3f 2c 00 db 3f
       1.4996594 1.6335762 1.7170435 1.7109427
000190 a5 11 d5 3f 1d 19 dc 3f d7 f8 d7 3f ed 36 d2 3f
       1.664601 1.7195164 1.6872815 1.6423012
0001a0 0a 73 c7 3f 77 eb d7 3f b8 f0 d4 3f 3e 7d d1 3f
       1.5581982 1.6868733 1.6635962 1.6366346
0001b0 7c b2 b5 3f ab 89 cf 3f 3a f6 d4 3f e5 70 da 3f
       1.4195094 1.6213888 1.6637642 1.7065703

model.feature_nns.2.model.1.weight f4 [1, 112]
000000 a4 9d d5 3d 27 24 27 3b 30 36 24 3b 9e af 2a bd
       0.10430458 0.0025503726 0.0025056712 -0.041671388
000010 f8 de a5 ba ab 0d b4 bb 6e 4e 2a bd 01 f6 23 bc
       -0.0012654951 -0.0054947934 -0.041578703 -0.010007382
000020 f5 e8 6a bc 81 8c 95 3c 1f e5 91 bb ea f7 3a bc
       -0.014337768 0.018255474 -0.004452362 -0.011411646
000030 90 74 01 3c 70 a1 94 bc 12 e2 e8 3c e6 42 60 bc
       0.007901326 -0.018143386 0.028428111 -0.013687825
000040 c7 17 f0 3b bc c7 c6 3b 76 79 93 bc f4 2a 1b 3c
       0.007327053 0.0060662907 -0.018002253 0.00947069
000050 78 0f 69 3c a0 d0 86 bc bb f1 fd 3c d4 c8 9a 3c
       0.014224879 -0.016456902 0.030999055 0.01889459
000060 e0 da 38 bd 88 94 31 3c d8 7c aa 3b 6d 7a 64 3c
       -0.04513061 0.010838635 0.005202871 0.013945204
000070 dc 9c 8e 3b 26 f7 8c 3b 41 fb ef 3c 6d 4e 81 3c
       0.004352195 0.0043019233 0.029294612 0.015784467
000080 5e c3 31 bc 78 0e 4d ba b6 07 10 3d 4c 12 bc 3c
       -0.010849802 -0.00078222854 0.035163604 0.022957943
000090 04 b8 77 3d a6 c3 96 bc fa 54 b6 ba 2d ea 21 bc
       0.060478225 -0.01840384 -0.0013910823 -0.009882492
0000a0 7d 54 15 3c fd 15 9f 3c 2d 93 49 bb ba fe 0d bb
       0.009114382 0.019419665 -0.003075789 -0.0021666721
0000b0 3b b8 a8 3d a8 9f ef 3c 8d c2 83 3c 1a c0 8f 3d
       0.08238264 0.029250935 0.01608398 0.07019062
0000c0 e9 34 54 3c 05 33 d6 bc 8e e9 d9 3b f7 8d b3 3d
       0.012952068 -0.026147375 0.0066501563 0.08767312
0000d0 8a 07 96 3b f4 1c 96 bc 49 c4 0c bd 1a e2 09 3d
       0.0045785354 -0.018324353 -0.03436688 0.033662893
0000e0 3f 46 96 3d a9 6e 36 3b fd 95 ae 3b 1d c6 fc bc
       0.07337617 0.0027836955 0.0053279386 -0.030856187
0000f0 7c 7b 6d 3d 98 f2 a0 bc 72 65 53 3d 3f 18 45 bc
       0.057979092 -0.019646928 0.051610418 -0.0120297065
000100 6e c4 38 bd 5f 84 4d 3c 55 21 b4 3c fd 9f d4 3d
       -0.045109205 0.012543767 0.02198855 0.10382078
000110 e2 62 b9 3d 2e d9 4f bb bd 75 4b bc 46 70 91 3b
       0.090520635 -0.0031715143 -0.012418208 0.004438433
000120 10 40 9b 39 50 2d 64 3c f0 1e 7c bc ec f4 5a 3d
       0.00029611634 0.013926819 -0.015388235 0.053456232
000130 b1 52 ad 3d ce 47 5a 3c ac 7f 86 bb 4c 2a 96 bb
       0.08463038 0.013322784 -0.004104575 -0.004582679
000140 c0 33 91 3c 31 a5 2b 3d f3 0e b7 3d 61 9e 1f bc
       0.017724872 0.041905586 0.08938398 -0.00974235
000150 66 a9 5f ba cf 3e c1 3d 61 62 62 3d 1c 23 a1 3c
       -0.0008532017 0.09435808 0.055269603 0.019670062
000160 a6 b7 6f 3c af fc 3f bc 30 be 11 3d ee dc fd bc
       0.014631188 -0.011717959 0.035581768 -0.030989137
000170 e1 89 eb 3a d3 97 21 bc ea d5 3a bd 32 80 9e bc
       0.0017970168 -0.009862858 -0.04561416 -0.019348238
000180 72 41 17 3d d3 ca 4b 3d f3 66 80 3c 7c 79 ba 3c
       0.036927648 0.049753975 0.01567409 0.022763006
000190 42 65 f5 3d 65 e2 1a 3c a5 4f ac 3b 7c ef 5d bc
       0.11982204 0.009453391 0.005258518 -0.013545867
0001a0 d1 d8 03 3e 9d 17 0f 3d 05 7d 59 bb 95 ba 8a bc
       0.12875678 0.03493463 -0.003318609 -0.016934672
0001b0 6e 6f 1c 3d c1 67 ae 3b 96 2a d9 3c c9 b2 95 3c
       0.038192205 0.005322427 0.026509564 0.018273728

model.feature_nns.3.model.0.weights f4 [1, 272]
000000 37 07 d4 3f 24 55 d8 3f 9d 0a d8 3f c4 6a d8 3f
       1.6564702 1.6900983 1.6878239 1.6907582
000010 e9 68 d9 3f 3e 34 d7 3f 15 0f dc 3f 50 bb ba 3f
       1.6985141 1.6812818 1.7192103 1.4588413
000020 57 7b ce 3f 9b 6f d4 3f 80 ec c8 3f 2e 7d d6 3f
       1.613139 1.6596559 1.5697174 1.6756952
000030 c7 5a c3 3f 89 ad d2 3f ba 0b dc 3f 60 f8 9c 3f
       1.5262078 1.6459209 1.7191079 1.2263298
000040 c8 1f dc 3f 9f b4 cd 3f 1a 48 d8 3f d0 a8 c5 3f
       1.7197199 1.6070746 1.6897004 1.5442142
000050 7c e3 d6 3f 08 a1 c4 3f fb 78 d9 3f 69 cc c6 3f
       1.6788173 1.5361643 1.6990045 1.5531131
000060 1d ce cc 3f 51 15 ad 3f 92 8e c8 3f d6 bb d8 3f
       1.6000401 1.352213 1.5668509 1.6932323
000070 1b 6f d1 3f f5 74 d9 3f 7f e7 d9 3f 43 9c ac 3f
       1.6362032 1.6988817 1.7023772 1.3485187
000080 d3 00 d3 3f 40 7c c4 3f ab fa c6 3f 09 de d7 3f
       1.6484627 1.5350418 1.5545248 1.6864635
000090 89 75 d0 3f d0 e5 d0 3f d2 bf c0 3f 57 20 d3 3f
       1.6285869 1.6320133 1.5058539 1.6494244
0000a0 15 c8 db 3f f7 b6 db 3f f8 5d c6 3f fe 8c d2 3f
       1.7170435 1.7165211 1.5497427 1.6449277
0000b0 d8 20 c1 3f b8 26 cf 3f fc 13 c9 3f c0 11 d1 3f
       1.5088148 1.6183691 1.5709224 1.6333542
0000c0 e8 13 d6 3f 2c 00 db 3f bd 2e d1 3f 9f 16 cc 3f
       1.6724825 1.7109427 1.6342388 1.5944403
0000d0 43 32 d8 3f 40 7c c4 3f 7f c9 ce 3f c0 a8 d9 3f
       1.6890339 1.5350418 1.6155242 1.7004623
0000e0 40 95 b6 3f e9 bf d3 3f e7 1c db 3f 8d c6 d6 3f
       1.4264297 1.6542941 1.7118195 1.6779343
0000f0 f7 04 d7 3f 55 01 d4 3f 4b b5 d1 3f be be d4 3f
       1.679839 1.6562907 1.6383451 1.662071
000100 33 52 d3 3f 63 19 ce 3f df d1 d3 3f e2 64 d9 3f
       1.650946 1.6101497 1.6548423 1.6983912
000110 06 ba c9 3f cf 95 d6 3f 92 9d da 3f 7e ca c5 3f
       1.5759895 1.6764468 1.7079337 1.5452421
000120 02 68 d1 3f 7e 29 d8 3f d7 e5 d5 3f dc 20 d0 3f
       1.6359866 1.6887662 1.6710767 1.6260028
000130 e3 9e db 3f fc 52 be 3f a5 52 d1 3f d2 db d9 3f
       1.7157863 1.4869075 1.6353346 1.7020209
000140 bf 3a b5 3f cd 52 da 3f 33 fa b1 3f 9a 47 d0 3f
       1.4158553 1.7056519 1.390448 1.6271851
000150 5b 9b d0 3f 27 4f ce 3f db 49 c8 3f e9 68 d9 3f
       1.6297411 1.6117905 1.5647539 1.6985141
000160 55 01 d4 3f bd 2e d1 3f 98 e5 d1 3f 6c 5a d6 3f
       1.6562907 1.6342388 1.6398191 1.6746345
000170 46 0f d9 3f b3 3e cb 3f c9 c6 d5 3f e5 bd cd 3f
       1.6957786 1.5878509 1.670129 1.6073576
000180 71 9b b9 3f 92 8e c8 3f 20 1d cb 3f 19 9f c7 3f
       1.4500562 1.5668509 1.5868263 1.5595428
000190 ca a9 b1 3f f5 75 cb 3f 41 73 c8 3f 30 ed d0 3f
       1.387994 1.5895373 1.5660173 1.6322384
0001a0 eb 94 d9 3f fb 7c d9 3f 29 e3 ce 3f 06 19 d1 3f
       1.6998571 1.6991266 1.6163074 1.6335762
0001b0 fe e1 cf 3f 46 38 da 3f 57 d8 c0 3f d9 fb d0 3f
       1.6240842 1.7048423 1.5066022 1.6326858
0001c0 ee 47 c9 3f 02 34 c2 3f 6c a2 d8 3f 99 df c2 3f
       1.5725076 1.5172122 1.6924567 1.5224487
0001d0 f4 b0 a4 3f e7 b9 d3 3f 9f 02 da 3f 7f f5 af 3f
       1.2866502 1.6541108 1.703205 1.3746794
0001e0 63 86 d4 3f 8a f5 c7 3f 63 69 da 3f b4 5c db 3f
       1.6603512 1.5621808 1.7063411 1.7137666
0001f0 c4 13 d3 3f c1 28 c0 3f c1 28 b3 3f af d4 da 3f
       1.6490407 1.5012437 1.3996812 1.7096156
000200 bd 03 c8 3f e2 64 d9 3f 53 6e d6 3f 9e 4e db 3f
       1.5626141 1.6983912 1.6752418 1.7133367
000210 06 55 bb 3f 0b aa cf 3f 85 27 d1 3f 59 10 ce 3f
       1.4635322 1.6223768 1.6340185 1.6098739
000220 30 ed d0 3f 3c df c9 3f 92 8e c8 3f 71 27 d5 3f
       1.6322384 1.5771251 1.5668509 1.6652662
000230 d7 e5 d5 3f b8 93 ba 3f cc e7 bb 3f 22 6c d2 3f
       1.6710767 1.457633 1.4680114 1.643925
000240 b2 1e c5 3f 0d 91 db 3f 08 12 da 3f e2 a2 d0 3f
       1.5399992 1.7153641 1.7036753 1.6299708
000250 d0 a8 c5 3f 95 11 ab 3f f9 6d c6 3f 29 9a d7 3f
       1.5442142 1.3364741 1.5502311 1.6843921
000260 7a 8e b8 3f de 3f da 3f 41 73 c8 3f 8f 8f d3 3f
       1.441848 1.7050741 1.5660173 1.6528186
000270 8a a1 cb 3f e6 db c6 3f ab c4 db 3f 27 2b db 3f
       1.5908673 1.5535858 1.7169393 1.7122544
000280 27 64 d4 3f 6d 96 af 3f 20 1d cb 3f 3c 7e b4 3f
       1.6593064 1.3717781 1.5868263 1.4101024
000290 4f 28 c7 3f db bc c6 3f 2a c4 cc 3f 6e dd d8 3f
       1.5559176 1.5526384 1.5997365 1.6942575
0002a0 1e b6 a3 3f b7 19 da 3f 90 cc cb 3f 50 79 d2 3f
       1.2789953 1.7039098 1.5921803 1.6443272
0002b0 f3 b1 d5 3f 3c df c9 3f 65 7c cd 3f 8f d0 d7 3f
       1.6694931 1.5771251 1.6053587 1.6860522
0002c0 2c 77 b5 3f 15 c8 db 3f d5 0c c6 3f 9a df da 3f
       1.4176993 1.7170435 1.5472666 1.7099488
0002d0 87 0d cf 3f 1a 05 cf 3f 9f b4 cd 3f d2 cd b7 3f
       1.6176003 1.6173432 1.6070746 1.4359686
0002e0 b6 c1 d6 3f 2a c4 cc 3f d9 fb d0 3f 2e 9e d8 3f
       1.6777866 1.5997365 1.6326858 1.6923273
0002f0 95 56 da 3f 83 44 d9 3f e3 7f d2 3f c8 87 c9 3f
       1.7057673 1.6974033 1.6445278 1.5744562
000300 7d 06 da 3f f5 74 d9 3f 05 92 cc 3f 20 26 d7 3f
       1.703323 1.6988817 1.5982062 1.680851
000310 22 23 d6 3f 62 99 d1 3f 83 44 d9 3f b7 f9 cf 3f
       1.6729472 1.6374934 1.6974033 1.6248082
000320 9b 26 d3 3f 1c a7 c0 3f 58 35 b7 3f d3 00 d3 3f
       1.6496156 1.5050998 1.4313154 1.6484627
000330 12 09 bb 3f af e9 d3 3f 26 12 db 3f 10 57 c4 3f
       1.4612143 1.655569 1.7114913 1.5339069
000340 40 83 d7 3f a7 28 d0 3f 6f 4c a9 3f 20 8d d8 3f
       1.6836929 1.6262406 1.3226451 1.6918068
000350 09 c3 d7 3f 42 44 b9 3f c8 15 dc 3f de 2c d3 3f
       1.6856395 1.4473956 1.7194147 1.6498067
000360 33 fa b1 3f bd 6a db 3f 6e fb d6 3f 06 55 bb 3f
       1.390448 1.7141949 1.679548 1.4635322
000370 4c ab cd 3f d6 a7 d7 3f 29 e3 ce 3f 1a 84 ce 3f
       1.6067901 1.6848094 1.6163074 1.6134064
000380 47 80 d8 3f 66 98 a5 3f b4 96 c3 3f 3f 46 ce 3f
       1.6914147 1.2937133 1.5280366 1.6115187
000390 3a f6 d4 3f ad a2 d4 3f 02 34 c2 3f 32 f4 db 3f
       1.6637642 1.6612145 1.5172122 1.7183897
0003a0 21 b3 d6 3f 32 ba cc 3f ae 1c d7 3f 0a 7a d7 3f
       1.6773416 1.5994322 1.6805627 1.6834118
0003b0 61 3c d6 3f 2b c6 b9 3f 83 44 d9 3f 71 de d0 3f
       1.6737176 1.4513601 1.6974033 1.6317884
0003c0 a1 da ce 3f 80 65 c8 3f 2c 77 b5 3f 2c b7 d5 3f
       1.616047 1.5655975 1.4176993 1.6696525
0003d0 49 1c d8 3f e0 5b c0 3f ec 62 d7 3f 64 46 c7 3f
       1.6883632 1.5028038 1.6827064 1.5568357
0003e0 4f 44 c4 3f e0 11 c8 3f c6 58 d9 3f 28 af d8 3f
       1.5333346 1.5630455 1.6980217 1.6928453
0003f0 75 13 d8 3f 11 c6 da 3f d2 db d9 3f ed 12 cd 3f
       1.6880938 1.7091695 1.7020209 1.6021401

model.feature_nns.3.model.1.weight f4 [1, 272]
000000 83 71 c8 bc 6b ad 55 3c e2 d1 91 bc 58 e8 ce bc
       -0.02446819 0.013041834 -0.017800275 -0.025257275
000010 24 05 03 bd 3e d9 d9 3b e0 b5 4f 3c 06 bb f0 bb
       -0.031987324 0.0066482117 0.01267764 -0.0073465137
000020 6b 0e e9 bc 8c 21 29 3c a4 59 26 3b 10 39 de 3c
       -0.028449258 0.01032294 0.002538302 0.027126819
000030 1c 14 00 bd aa e3 3b bc e9 e8 94 bb c0 1e 88 bd
       -0.031269178 -0.011467854 -0.0045443666 -0.0664649
000040 88 5b 28 3c 2e 67 c3 bc 89 a5 0a 3b 40 ad 58 bc
       0.010275729 -0.02385291 0.0021155796 -0.0132249
000050 c6 8d c6 3b a3 63 5c bd 82 97 cb bc 47 48 6b 3c
       0.006059381 -0.05380596 -0.024852518 0.014360494
000060 95 a3 ec 3c ee 07 20 bd f7 63 d2 3c 0d 3a 16 bd
       0.028886596 -0.039070062 0.025682433 -0.036676455
000070 f6 5d fa 39 cc fa 3b bd 1c 2f 66 bd c0 16 40 bb
       0.00047753722 -0.045893475 -0.05619727 -0.0029310435
000080 ff 21 ac bd 4b 1d 06 bb da cd 22 bd 6d b4 a6 bc
       -0.08404922 -0.0020464237 -0.039747097 -0.020349706
000090 a2 99 00 bd 9b 40 9e bb 86 e7 d3 bc e0 5d 69 bc
       -0.031396516 -0.004829479 -0.025867235 -0.014243573
0000a0 b6 a0 a3 bd 64 1e 5a ba a2 92 a6 bc 62 51 fa ba
       -0.079896376 -0.00083205686 -0.020333592 -0.001909774
0000b0 59 1e 77 bd f7 ff 84 3c eb 96 45 bd 4c d1 7b bc
       -0.060331676 0.016235335 -0.04823963 -0.0153697245
0000c0 66 9c 47 bd 51 1b 05 3d a6 1c 99 3c 5d 8b 35 bd
       -0.048733138 0.032496754 0.018690418 -0.04432236
0000d0 10 59 b8 3c 9e fc e9 3c 35 f7 3f bc a1 69 33 3c
       0.022503406 0.02856284 -0.011716654 0.010950477
0000e0 18 c5 ea bb 3b b4 d4 bc b1 3e 13 bb e9 14 2b bd
       -0.0071646087 -0.025964847 -0.0022467787 -0.04176799
0000f0 98 74 5e 3a ef 6b 10 bd ab 97 6d 3c 79 14 17 bd
       0.0008486002 -0.035259183 0.0145014925 -0.03688476
000100 3e 8f 87 bd b4 97 a4 bb 12 b8 2d bc 29 75 75 bb
       -0.06619118 -0.0050229672 -0.010602968 -0.0037453866
000110 23 d2 5b bd 40 a5 0d 3c 82 2e bc bb 2d 24 b6 bc
       -0.0536672 0.008645356 -0.005742849 -0.022234047
000120 e6 33 01 bd 68 c2 2b bd b4 87 88 bc 52 07 e8 bc
       -0.031543635 -0.041933447 -0.01666627 -0.028323803
000130 68 49 24 bd 03 05 37 bd 19 37 c8 bc 57 31 23 3d
       -0.04010907 -0.044682514 -0.024440335 0.039841976
000140 9f fa 47 bd 19 cb 9d bc 55 0c 78 3c 6b d4 95 3a
       -0.048822995 -0.019261884 0.015139659 0.0011431103
000150 df 78 a1 3c ee 7f 9c 3b 27 7b 93 bc 0a 51 1d 3c
       0.019710956 0.0047759926 -0.01800306 0.009601841
000160 95 ae 8a bb 51 88 0e bd fa 9e 99 3c 3c 8f 64 bd
       -0.0042322376 -0.03479797 0.018752564 -0.05580066
000170 39 5f 6b 3c f0 7e f9 3c 53 c7 26 bd 9c d8 a4 bc
       0.014365965 0.030456036 -0.040717434 -0.020122819
000180 c6 34 09 3c 68 1d 83 bd fa 5c da bb 7c f1 c4 3c
       0.008374399 -0.06402093 -0.0066639157 0.02404093
000190 ad 16 41 bc 32 61 b5 bc 7e 30 cf bc 8c 9d fc bc
       -0.0117851915 -0.022141073 -0.025291678 -0.030836843
0001a0 6e fb 0e bb ee 41 81 bc 18 7a c5 3c 43 2f 66 bd
       -0.0021817344 -0.015778508 0.02410607 -0.056197416
0001b0 b6 bd cd bc d3 07 f0 bc d8 83 a2 3c a6 45 c7 3c
       -0.025114875 -0.029300606 0.019838259 0.024325203
0001c0 db 40 9e bc 12 bc dd 3c 58 fe 36 3b a9 c6 2f bd
       -0.019318035 0.027067218 0.0027922597 -0.042914066
0001d0 2d 71 4d bd b0 b6 f6 3c a9 2f 18 bc f4 14 3d bc
       -0.05015676 0.030116409 -0.009288707 -0.01154064
0001e0 c5 cc d6 3a 37 b1 5d bd 1e b9 26 bd 9d 52 37 bc
       0.001638793 -0.054124083 -0.040703885 -0.01118913
0001f0 64 2e 45 bd 72 e6 1f bd c6 48 49 3b b5 ff 8a 3c
       -0.048139945 -0.03903813 0.0030713542 0.016967634
000200 fd 08 83 bc 18 d8 48 bb 9f c9 9e 3c ac 98 a0 bc
       -0.015995497 -0.003064638 0.01938325 -0.01960405
000210 c6 dd 85 bc 54 b2 07 bd 8f e1 88 bd 98 3f 93 bc
       -0.016341101 -0.03312905 -0.06683647 -0.01797466
000220 1e 5c 8e bb 74 c1 64 bd 88 aa 32 bc 96 06 70 3b
       -0.0043444773 -0.055848554 -0.010904916 0.003662502
000230 14 9f 0c 39 ca 69 9e bd 64 78 cd bb 3b 2c 88 bc
       0.00013410702 -0.077350214 -0.006270455 -0.016622653
000240 c2 cc ee 3a 13 18 08 bd 58 70 68 3a c6 c5 89 3c
       0.0018218982 -0.033226084 0.0008866838 0.016817939
000250 cb 8d a8 bd 1c 12 b6 3c 4f b7 bc 3b 69 0d 4f bc
       -0.0823017 0.022225432 0.005759157 -0.012637475
000260 cd cf 8c 3c 18 6d f3 bb 2b 09 fc bc de 52 41 bd
       0.01718893 -0.0074287765 -0.03076609 -0.04719817
000270 55 b0 4c bd 02 d9 5b bc 06 fd ae bd 3b e2 23 bc
       -0.04997285 -0.013418438 -0.08544354 -0.010002668
000280 f4 a7 c4 39 fd ba 84 bd 2d 16 8d 3c c6 7f 9d 3c
       0.00037509168 -0.06480978 0.017222488 0.019225966
000290 41 48 50 bd 50 c8 0f bd 5a 87 b2 bb 23 2a 81 bc
       -0.050850157 -0.035103142 -0.005448264 -0.015767163
0002a0 4c 93 05 3d fe 7f e9 bc 4f ec 47 bd c9 18 1d bd
       0.032611176 -0.028503414 -0.048809346 -0.038353715
0002b0 6c ee bb 3c b5 38 77 3c 1e 9e 92 bd 3f b3 b6 bc
       0.022940837 0.015089204 -0.07159065 -0.022302268
0002c0 a5 2e 51 bc d4 91 9c 3c b2 bd 2c bd 3f d6 f6 bb
       -0.012767469 0.019112505 -0.042173095 -0.0075328643
0002d0 1d c8 56 bc 9d 37 14 bd 56 ad a9 3a 84 48 d2 3c
       -0.013109234 -0.03618585 0.0012945335 0.025669344
0002e0 e4 51 cc bb ab 59 8a 3a 1e 5f 29 bc de 3b 08 3d
       -0.006235348 0.0010555288 -0.010337619 0.03326022
0002f0 f0 4c 9d 3c 0e 37 9b ba c4 d0 0f bd 7e fd ab 3c
       0.019201726 -0.0011841969 -0.035111204 0.020994898
000300 a6 ac f5 bc d4 a7 9e bc 30 bf 74 bc 45 ce de 3a
       -0.029989552 -0.019367136 -0.014938161 0.0016998729
000310 a4 c5 10 bd 88 37 08 bc 38 8a 7a bd 7b ca 6b bc
       -0.035344735 -0.008314021 -0.061166972 -0.014391537
000320 ab b1 57 bd 3f 51 12 3d 3b e2 0e bc ea ff 11 bd
       -0.05265967 0.035722014 -0.00872093 -0.03564445
000330 86 1a 19 bb e7 a6 28 bd fe 33 6a 3c 50 5b 11 bd
       -0.0023361756 -0.041174795 0.0142946225 -0.035487473
000340 53 4a a1 bc 67 c8 86 bd c8 80 f3 bc 68 ea 00 bc
       -0.01968876 -0.065811925 -0.029724494 -0.007868387
000350 eb 1f 25 bd 6b af 45 3c 60 ec af ba 94 d6 32 bd
       -0.040313642 0.012065749 -0.0013421886 -0.04366167
000360 b7 0f aa bc 9f e1 9d bc 3c 77 01 3b 0a 07 ae 3b
       -0.020759447 -0.019272624 0.0019754907 0.0053108977
000370 8e 3e dc 3c 6a 12 11 bd bc 2e 06 bd 02 aa c9 bc
       0.026885297 -0.03541795 -0.032759413 -0.024617199
000380 03 d0 dc 3c 03 4d 39 bc 2f c2 24 3d 83 61 df bc
       0.026954656 -0.011309865 0.04022425 -0.027268177
000390 6c e3 0c 3b 45 8e 94 bb f9 47 a5 bc 8e 9f 8f ba
       0.0021497859 -0.0045335614 -0.02017592 -0.0010957585
0003a0 0e 68 8e bd 3e 0f 32 bd 93 13 ab bc c8 31 42 bd
       -0.069534406 -0.043471567 -0.020883357 -0.047410756
0003b0 cc e5 65 bd 61 56 43 3b 5c ad 0f bd 57 75 77 bd
       -0.056127355 0.0029806125 -0.035077438 -0.06041464
0003c0 be 1c 85 bd 8c eb 94 3b 89 ab b6 bc 00 4f 1f 3c
       -0.06499623 0.004544681 -0.022298591 0.009723425
0003d0 49 66 4f 3b de c8 46 ba a8 29 a1 39 b5 5c 07 3d
       0.003164666 -0.0007583032 0.0003073935 0.033047397
0003e0 4d d2 4a bc 93 b9 2f bd d0 8f 90 bd e0 c7 26 3c
       -0.012379241 -0.042901587 -0.0705868 0.01017949
0003f0 dc 00 3d bd b0 86 89 bb b7 d4 1f bd 11 98 8a bb
       -0.046143398 -0.004196964 -0.03902122 -0.0042295535
