GolfFeedback-poc/src/s3_NAM_model/output/dtl_BS/0/checkpoints/epoch=220-val_loss=101.7557.ckpt (torch, 411921 bytes, 150 tensors)

model.feature_nns.0.model.0.weights f4 [1, 46]
0	0x3e0fa4d6	0.14027724
1	0x3dfb1a81	0.122609146
2	0x3df2e8ce	0.1186081
3	0x3dfebcd8	0.12438363
4	0x3e058ff4	0.13043195
5	0x3e09c0b9	0.13452424
6	0x3dd918e7	0.10600453
7	0x3e09a3c4	0.13441378
8	0x3ddf62c5	0.10907511
9	0x3e17b612	0.14815548
10	0x3e155f32	0.14587095
11	0x3e07fd76	0.13280281
12	0x3ded138e	0.115759954
13	0x3e158ca9	0.14604439
14	0x3df41b8c	0.11919317
15	0x3de015ab	0.10941633
16	0x3dc83e2b	0.097774826
17	0x3e1546ff	0.14577864
18	0x3e02c3bd	0.1276998
19	0x3e01974e	0.12655374
20	0x3e00315b	0.12518828
21	0x3e09c01a	0.13452187
22	0x3e04b3d8	0.1295923
23	0x3e178881	0.14798166
24	0x3dd1b10d	0.10238848
25	0x3e15952c	0.14607686
26	0x3dff8f15	0.124784626
27	0x3e0f7759	0.14010371
28	0x3dce223a	0.10065122
29	0x3df96589	0.121775694
30	0x3e134a6a	0.14383855
31	0x3dcbe56e	0.099558696
32	0x3d9d5186	0.07681565
33	0x3dfc6067	0.12323075
34	0x3e159d28	0.14610732
35	0x3dd70a67	0.10500031
36	0x3dde271e	0.10847305
37	0x3e161645	0.14656933
38	0x3e130bdd	0.14359994
39	0x3e12612e	0.14294884
40	0x3e1074b9	0.14107026
41	0x3e079015	0.13238557
42	0x3dbfb9f1	0.093616374
43	0x3e0b281e	0.13589522
44	0x3e0b2c44	0.13591105
45	0x3e14766b	0.14498298

model.feature_nns.0.model.1.weight f4 [1, 46]
0	0xbb9c381b	-0.0047674305
1	0xbb881437	-0.0041528004
2	0xbb841557	-0.004030864
3	0xbb961348	-0.004579935
4	0xbb8a2435	-0.004215742
5	0xbbaa9581	-0.0052058105
6	0xbba88e87	-0.0051439437
7	0xbbbeea00	-0.005826235
8	0xbb997f6f	-0.0046843807
9	0xbb9d9796	-0.00480933
10	0xbb995d37	-0.0046803015
11	0xbb9aaa11	-0.0047199805
12	0xbb981e6f	-0.0046423
13	0xbb98a726	-0.0046585975
14	0xbbc19abf	-0.0059083398
15	0xbb906e50	-0.0044076815
16	0xbb55a36a	-0.0032598623
17	0xbbb52a26	-0.005528706
18	0xbb95afd4	-0.0045680795
19	0xbba7d053	-0.0051212697
20	0xbb9ff40b	-0.004881387
21	0xbb930349	-0.0044864756
22	0xbb8a39b4	-0.0042183045
23	0xbb90a471	-0.004414134
24	0xbb929acc	-0.0044740196
25	0xbb949e6b	-0.0045354865
26	0xbb9bfd0a	-0.004760389
27	0xbb84e373	-0.0040554344
28	0xbb878363	-0.0041355356
29	0xbb9dce68	-0.0048158653
30	0xbb979382	-0.0046257386
31	0xbb968d9d	-0.0045945183
32	0xbb7049b0	-0.0036665015
33	0xbb870e7d	-0.0041216
34	0xbbaabe2a	-0.0052106576
35	0xbb90a23c	-0.004413871
36	0xbb6117ea	-0.003434653
37	0xbb90f8bb	-0.004424182
38	0xbb9c468f	-0.0047691534
39	0xbb99f24b	-0.004698073
40	0xbba652ae	-0.005075774
41	0xbb7b3990	-0.003833387
42	0xbb649432	-0.003487837
43	0xbb889c22	-0.004169003
44	0xbba2b80e	-0.0049657887
45	0xbb945152	-0.0045262957

model.feature_nns.1.model.0.weights f4 [1, 1000]
0	0x3e12a15b	0.14319365
1	0x3e1751d0	0.14777303
2	0x3e00c36f	0.12574552
3	0x3e14dd35	0.14537509
4	0x3e172254	0.14759189
5	0x3e0d28f6	0.13785157
6	0x3d9d55ed	0.07682405
7	0x3d90c2a9	0.070683785
8	0x3df92098	0.1216442
9	0x3e102f80	0.1408062
10	0x3e138743	0.14407067
11	0x3e0eff2c	0.13964528
12	0x3db420fa	0.08795352
13	0x3e042c9d	0.12907644
14	0x3e120205	0.14258583
15	0x3e0f1fbe	0.13976952
16	0x3e0bd1d9	0.1365427
17	0x3e161450	0.14656186
18	0x3dd0aab6	0.101888105
19	0x3e0870ea	0.13324323
20	0x3de1104d	0.10989437
21	0x3d945ea4	0.07244614
22	0x3dfa547e	0.12223147
23	0x3df8daae	0.12151085
24	0x3e136667	0.14394532
25	0x3dcab6d3	0.09898152
26	0x3e0c7cb6	0.13719448
27	0x3ded1046	0.115753695
28	0x3df1c40c	0.11804971
29	0x3dc14451	0.094368584
30	0x3e105b37	0.14097296
31	0x3e0d317c	0.13788408
32	0x3e04d88a	0.12973228
33	0x3da987ae	0.08277832
34	0x3e16af9d	0.14715429
35	0x3e058c34	0.13041764
36	0x3dc14a2b	0.094379745
37	0x3e148b0a	0.14506164
38	0x3d9297ca	0.07157858
39	0x3e0f9bdb	0.14024298
40	0x3e12d852	0.14340332
41	0x3e11eccf	0.14250492
42	0x3e162f34	0.14666444
43	0x3de400ae	0.11132942
44	0x3da241f4	0.07922736
45	0x3e15a7bd	0.14614768
46	0x3e0d6515	0.13808091
47	0x3e104cfe	0.1409187
48	0x3e101f62	0.14074472
49	0x3deecc76	0.116600916
50	0x3e12af48	0.14324677
51	0x3e0d8efd	0.13824077
52	0x3e0e8726	0.13918743
53	0x3ded99d7	0.11601608
54	0x3ddfa1e3	0.10919549
55	0x3e0406ef	0.1289327
56	0x3dc43407	0.09580236
57	0x3e055060	0.13018942
58	0x3e09acf9	0.1344489
59	0x3de5ece7	0.11226826
60	0x3e03a154	0.1285451
61	0x3e124f71	0.14288117
62	0x3dc4b100	0.096040726
63	0x3e0e0411	0.13868739
64	0x3e153a8e	0.14573118
65	0x3e12bcef	0.14329885
66	0x3de05a3b	0.1095471
67	0x3e0cecbb	0.1376218
68	0x3e098553	0.13429765
69	0x3e00e176	0.12586007
70	0x3e0f2720	0.13979769
71	0x3e0b1968	0.1358391
72	0x3de79118	0.11306971
73	0x3e1558fa	0.14584723
74	0x3df84dc4	0.121242076
75	0x3e102954	0.14078265
76	0x3e1088a5	0.14114626
77	0x3e12de20	0.14342546
78	0x3e026682	0.12734416
79	0x3df5e3ea	0.12006362
80	0x3e11bafe	0.14231488
81	0x3e16ea0a	0.14737716
82	0x3dde24fb	0.10846897
83	0x3e027571	0.12740113
84	0x3e15cd36	0.14629063
85	0x3e0c95a3	0.13728957
86	0x3e114950	0.14188123
87	0x3e0353f2	0.12824991
88	0x3e1201d6	0.14258513
89	0x3e0c507f	0.13702582
90	0x3dd9a530	0.1062721
91	0x3e167a6d	0.14695139
92	0x3db42377	0.08795827
93	0x3e13bc45	0.14427288
94	0x3de4e1cb	0.11175879
95	0x3e16fac9	0.14744104
96	0x3e0fea84	0.14054304
97	0x3e177256	0.1478971
98	0x3e166935	0.14688571
99	0x3e0b3631	0.13594891
100	0x3e1673d8	0.14692628
101	0x3de3c5c8	0.11121708
102	0x3de1bfbf	0.11022901
103	0x3dc522c0	0.09625769
104	0x3deb9bc6	0.11504321
105	0x3e121de1	0.1426921
106	0x3e119f75	0.14220984
107	0x3db42437	0.0879597
108	0x3dce87d4	0.10084501
109	0x3e13d03d	0.14434905
110	0x3e176d0e	0.14787695
111	0x3e12b08d	0.14325161
112	0x3e0c1a26	0.1368185
113	0x3dfe800e	0.12426768
114	0x3e0b22b8	0.13587463
115	0x3e13d62e	0.14437172
116	0x3dca4ec9	0.09878308
117	0x3dfa5520	0.122232676
118	0x3e0a6f5b	0.13519041
119	0x3d929b37	0.07158511
120	0x3e07f382	0.13276485
121	0x3e0b9208	0.13629925
122	0x3e0e14d7	0.13875137
123	0x3df41d32	0.11919631
124	0x3e12eaaf	0.14347337
125	0x3dac4160	0.08410907
126	0x3d8cbbaf	0.06871735
127	0x3e0c33c4	0.13691622
128	0x3e125c8d	0.14293118
129	0x3e08868b	0.13332574
130	0x3e149795	0.14510949
131	0x3e116c38	0.14201438
132	0x3e132353	0.14368944
133	0x3e048f7e	0.12945363
134	0x3e140954	0.14456683
135	0x3dd4ef5b	0.10397216
136	0x3deef81b	0.11668416
137	0x3df5bf7f	0.119994156
138	0x3e12ec0d	0.14347859
139	0x3e16444f	0.14674495
140	0x3dee48df	0.11634993
141	0x3e1277d6	0.14303526
142	0x3def4e9f	0.11684918
143	0x3e0da041	0.13830663
144	0x3e14d695	0.14534982
145	0x3e0d5cc8	0.13804924
146	0x3e0724b7	0.131976
147	0x3e08484c	0.13308829
148	0x3e06ee15	0.13176759
149	0x3da1101a	0.07864399
150	0x3e0c11e2	0.13678697
151	0x3e08cee8	0.13360178
152	0x3e17c0eb	0.14819686
153	0x3dd8865b	0.10572501
154	0x3e170b88	0.14750493
155	0x3e16d2ef	0.14728902
156	0x3dba0e18	0.090847194
157	0x3e0393fa	0.12849417
158	0x3e0fd302	0.14045337
159	0x3e10cba1	0.14140178
160	0x3dfa55e5	0.12223414
161	0x3de2e451	0.11078704
162	0x3df67748	0.1203447
163	0x3dfe022b	0.12402757
164	0x3e0f9ca4	0.14024597
165	0x3e0665de	0.13124797
166	0x3e103e1a	0.1408619
167	0x3e049ae6	0.12949714
168	0x3e0cc2e0	0.13746214
169	0x3e0ff71b	0.14059107
170	0x3dcbe700	0.09956169
171	0x3df8dc82	0.121514335
172	0x3d8cc16a	0.06872828
173	0x3dfcc62a	0.12342484
174	0x3dd9a7e3	0.10627725
175	0x3d71c4b3	0.059025478
176	0x3e16cc08	0.14726269
177	0x3dfa121b	0.122104846
178	0x3e0851ee	0.13312504
179	0x3de75c4c	0.11296901
180	0x3e098efc	0.1343345
181	0x3dadf97f	0.08494853
182	0x3e03d2a9	0.12873329
183	0x3e04c042	0.12963966
184	0x3e0bbf8e	0.13647291
185	0x3e09f104	0.13470846
186	0x3e1336d2	0.14376381
187	0x3e0872d1	0.13325049
188	0x3df7e20c	0.12103662
189	0x3e175bbb	0.14781086
190	0x3e03ee22	0.12883809
191	0x3e16ab61	0.14713813
192	0x3dd49d58	0.103815734
193	0x3ded3bb9	0.11583657
194	0x3dc9152f	0.098184936
195	0x3de6f460	0.112770796
196	0x3e0948c2	0.13406661
197	0x3e14dd0b	0.14537446
198	0x3dd887be	0.10572766
199	0x3e0e569b	0.13900225
200	0x3e141dfc	0.14464563
201	0x3e176cae	0.14787552
202	0x3e0ebf98	0.13940275
203	0x3dfa54e2	0.12223221
204	0x3dc24829	0.0948642
205	0x3e0b47ca	0.13601604
206	0x3e11f991	0.14255358
207	0x3e0a7105	0.13519676
208	0x3e10bd1d	0.14134641
209	0x3e16751b	0.1469311
210	0x3e05a368	0.13050616
211	0x3de26e16	0.110561535
212	0x3e04f0dc	0.12982506
213	0x3e004f8f	0.12530349
214	0x3e125d99	0.14293517
215	0x3e10f062	0.14154199
216	0x3e07bdac	0.13255948
217	0x3e11d786	0.14242372
218	0x3d322920	0.04349625
219	0x3de1c18a	0.11023243
220	0x3e09345b	0.13398878
221	0x3e0cc162	0.13745645
222	0x3e15a8c8	0.14615166
223	0x3e0a056e	0.13478634
224	0x3de8f54b	0.11374911
225	0x3e03203e	0.12805268
226	0x3de0d381	0.10977841
227	0x3df48ea0	0.11941266
228	0x3dff73c5	0.12473253
229	0x3e12bd1b	0.1432995
230	0x3e17b39d	0.14814611
231	0x3e0c8493	0.13722448
232	0x3dd9a2f6	0.106267855
233	0x3db2ae7e	0.08724688
234	0x3df989b4	0.12184468
235	0x3dd20717	0.102552585
236	0x3de10fe5	0.1098936
237	0x3dbfbb68	0.09361917
238	0x3e0bc003	0.13647465
239	0x3e0ab39b	0.13545077
240	0x3e05ba9f	0.13059472
241	0x3e09c1b3	0.13452797
242	0x3e0b4881	0.13601877
243	0x3e0d7e4d	0.13817711
244	0x3e0a50d9	0.13507403
245	0x3e032092	0.12805393
246	0x3e07045c	0.13185257
247	0x3db42a62	0.087971464
248	0x3ddb4b4e	0.107077226
249	0x3debfb54	0.115225464
250	0x3e149097	0.14508282
251	0x3e156b9f	0.14591835
252	0x3dda7dc5	0.1066852
253	0x3e1043ef	0.14088415
254	0x3e06682a	0.13125673
255	0x3e0d63e1	0.13807632

model.feature_nns.1.model.1.weight f4 [1, 1000]
0	0xb9d52bac	-0.00040659064
1	0xba0d3322	-0.00053863425
2	0xb91a868d	-0.00014736709
3	0xb9d8898b	-0.00041301208
4	0xb9d510fe	-0.00040639186
5	0xb95bd7e7	-0.00020965897
6	0xb955b770	-0.00020381599
7	0xb9baf650	-0.00035660202
8	0xb9ab12d2	-0.00032629684
9	0xb9836ae4	-0.00025065907
10	0xb9cecece	-0.00039445463
11	0xb9e41d6c	-0.0004350947
12	0xb8cb0dc2	-9.682357e-05
13	0xb9df40f9	-0.00042582283
14	0xba69acb8	-0.0008913982
15	0x382f652e	4.1817482e-05
16	0xb995337e	-0.0002845786
17	0x383f69ae	4.563637e-05
18	0xb90aa5df	-0.00013222497
19	0xb991064a	-0.0002766124
20	0xb99b04f9	-0.0002956761
21	0xb97edc13	-0.00024305312
22	0xb967866f	-0.00022079957
23	0xb9a65af3	-0.0003172975
24	0xba364e98	-0.00069544604
25	0xba21f579	-0.0006178241
26	0xb895c825	-7.1421535e-05
27	0xb97887d7	-0.00023701727
28	0xb86216f7	-5.3903987e-05
29	0xb99fd32b	-0.00030484176
30	0xb992faef	-0.0002803425
31	0xb905f65c	-0.00012775644
32	0xb9a48195	-0.00031377064
33	0xb716add9	-8.981174e-06
34	0xb9e4aa91	-0.0004361463
35	0xb985cded	-0.00025521163
36	0xb9a09386	-0.00030627492
37	0xba077f53	-0.0005168814
38	0x3988fc67	0.00026127996
39	0xb9bf9654	-0.00036542362
40	0xba05393c	-0.0005082076
41	0xba0e846d	-0.0005436603
42	0xb9d0901b	-0.00039780219
43	0xb9c908ea	-0.0003834435
44	0x390af511	0.00013252
45	0xba3d2d99	-0.00072165724
46	0xb9e5d78e	-0.00043838884
47	0xb9ac8a65	-0.00032909508
48	0xba321a9f	-0.0006794128
49	0xb92923a8	-0.00016130379
50	0xba397da2	-0.00070759107
51	0xb92a6407	-0.00016249726
52	0xb9a20acf	-0.000309071
53	0xb9878c32	-0.0002585366
54	0xb955b437	-0.00020380398
55	0xb9a37971	-0.00031180264
56	0xb949c2cd	-0.00019241423
57	0xb92c4176	-0.00016427584
58	0xb98f540a	-0.000273377
59	0xb87629f3	-5.869004e-05
60	0xb9ce05d5	-0.00039295727
61	0xb9830ab5	-0.00024994244
62	0xb92cc67f	-0.00016477144
63	0xb9c54fac	-0.00037634128
64	0xba297bc8	-0.0006465283
65	0xb9c18438	-0.0003691034
66	0xb9f1e32b	-0.00046136355
67	0xba437978	-0.000745676
68	0xb9a7f7d3	-0.00032037366
69	0xb9cdb662	-0.00039236533
70	0xb9d8280e	-0.00041228574
71	0xb9d8c19b	-0.00041342978
72	0x3729f1be	1.012947e-05
73	0xb9c3342d	-0.00037232172
74	0xb9982cd7	-0.00029025108
75	0xb95efdce	-0.0002126612
76	0xb9a46440	-0.0003135521
77	0xb82d50e2	-4.1321742e-05
78	0xb930209e	-0.00016796819
79	0xb799c2f8	-1.832981e-05
80	0xb97bc0c2	-0.00024009033
81	0xba04da29	-0.0005067909
82	0x3928bcd4	0.00016092072
83	0xb9b45bfc	-0.0003440081
84	0xb9a95478	-0.00032297126
85	0xba1271b2	-0.00055864
86	0xba2a8529	-0.0006504828
87	0xb8f1a067	-0.00011521653
88	0xba16db0e	-0.00057546876
89	0x36c0e879	5.7491093e-06
90	0xb8a056bc	-7.64555e-05
91	0xb98b57e8	-0.0002657764
92	0x3814d2df	3.548234e-05
93	0xb9c1b54b	-0.00036946902
94	0xb998ec97	-0.00029167972
95	0xb9e1b6be	-0.00043051498
96	0xb9b766b9	-0.00034981014
97	0xba082c2b	-0.000519457
98	0xba21fe6b	-0.0006179574
99	0xb9df6415	-0.0004260844
100	0xba029435	-0.0004981191
101	0xb98bc691	-0.0002666009
102	0xba0a36c8	-0.0005272445
103	0xb9c7d7b1	-0.0003811694
104	0xb93a7ea7	-0.00017785524
105	0xba23316b	-0.00062253204
106	0xba0a1730	-0.00052677374
107	0x384148fc	4.6082758e-05
108	0xba06321e	-0.00051191624
109	0xb993a827	-0.00028163308
110	0xb98a9672	-0.00026433502
111	0xb9eb8aea	-0.00044926192
112	0xb9581467	-0.00020606966
113	0xb98d2d05	-0.00026927158
114	0xb96a0fbd	-0.00022321842
115	0xb9dbc67f	-0.00041918826
116	0xb9f9e22e	-0.00047661498
117	0xb972d968	-0.00023159909
118	0xba43a6c0	-0.00074635074
119	0xb8c26585	-9.26955e-05
120	0xb9c863ee	-0.00038221426
121	0xb887177a	-6.4416745e-05
122	0xba080055	-0.0005188038
123	0xb8f7c075	-0.00011813726
124	0xb994c63a	-0.0002837645
125	0xb92eeb2a	-0.00016681539
126	0xb8925852	-6.9782734e-05
127	0xb991441c	-0.000277073
128	0xb94f79b5	-0.00019786398
129	0xb9b6ae04	-0.00034843397
130	0xb9f08ce4	-0.0004588134
131	0xba4fc454	-0.00079256785
132	0xb93bee99	-0.00017922594
133	0xb98f74e2	-0.0002736217
134	0xb946a4a2	-0.00018944082
135	0xb9ec06a7	-0.00045018384
136	0xba0718f5	-0.000515356
137	0x38bbd3a1	8.956274e-05
138	0xba0aba05	-0.00052920013
139	0x38c58158	9.417784e-05
140	0x392eb590	0.0001666157
141	0xba0baba7	-0.00053280074
142	0xb9d58659	-0.00040726623
143	0xb98c7154	-0.00026787317
144	0xb9b74457	-0.00034955397
145	0xb8f73e24	-0.000117894524
146	0xb9064b18	-0.0001280721
147	0xb9527992	-0.00020072449
148	0xb9ac1cd0	-0.00032827863
149	0xb9603e4a	-0.00021385509
150	0xb9075b2e	-0.0001290857
151	0xb9b923d9	-0.00035312658
152	0xba02e307	-0.0004992936
153	0xb825f5de	-3.9568047e-05
154	0xb9fb07b1	-0.0004788018
155	0xb8a85071	-8.025848e-05
156	0xb980ff26	-0.00024604163
157	0xb9483c14	-0.00019095867
158	0xba27afe0	-0.0006396752
159	0xb9d4752b	-0.00040523088
160	0xb9912614	-0.00027684926
161	0xb8c484f2	-9.370771e-05
162	0xb921c2ef	-0.00015426775
163	0xba300e08	-0.0006715958
164	0xb9a9fd84	-0.00032423076
165	0xba23a6c3	-0.0006242806
166	0xb9daec40	-0.0004175622
167	0xb9a18114	-0.00030804484
168	0xba502182	-0.00079395634
169	0xba1dd3fd	-0.00060206634
170	0xb968b438	-0.00022192381
171	0xba2888a4	-0.00064290524
172	0xb9a97862	-0.00032323884
173	0xba02358a	-0.00049670844
174	0xb941b0cd	-0.00018471778
175	0xb988e50b	-0.00026110592
176	0xb8982b18	-7.255952e-05
177	0xb9966b1f	-0.0002869004
178	0xba4bef66	-0.00077795086
179	0x384fd46e	4.9550486e-05
180	0xb985348c	-0.00025406887
181	0xb9522875	-0.00020042232
182	0xba479557	-0.0007613501
183	0x37a5438c	1.9700987e-05
184	0xba38a9af	-0.0007044328
185	0xb9379cea	-0.00017510695
186	0xb977ce24	-0.00023632549
187	0xb982862a	-0.00024895492
188	0x38a058b6	7.645918e-05
189	0xb9d9239a	-0.0004141599
190	0xb9da74f6	-0.00041667343
191	0xb9bae7fe	-0.00035649532
192	0xb9083603	-0.00012990092
193	0xb8f1d064	-0.00011530591
194	0xb9a9274e	-0.00032263476
195	0xb8407fef	-4.5895515e-05
196	0xb9df030d	-0.00042536148
197	0xba8684f4	-0.0010263012
198	0xb9e05c77	-0.000427935
199	0xb8bf40b3	-9.119641e-05
200	0xb93dfae9	-0.00018117916
201	0xba2f9ac7	-0.0006698784
202	0xb992da91	-0.00028010135
203	0xb9a042db	-0.0003056739
204	0xb9431c0d	-0.00018607099
205	0xb932968e	-0.00017031489
206	0x384c85d2	4.876202e-05
207	0xb9c5b304	-0.00037708145
208	0x37e13738	2.6847803e-05
209	0xb995e0a9	-0.0002858688
210	0xb94c99dd	-0.00019512275
211	0xb98c7c30	-0.00026795408
212	0xb9427bd0	-0.00018547405
213	0xb922d9a3	-0.000155306
214	0xb9e25566	-0.00043169706
215	0x39635d59	0.00021683182
216	0xba091bcb	-0.0005230277
217	0xb9561b93	-0.00020418903
218	0xb9440ddc	-0.0001869718
219	0xb977312e	-0.00023574076
220	0xba1cd31e	-0.00059823866
221	0xb8d6c4fc	-0.000102410064
222	0xb77b58ca	-1.4981439e-05
223	0xb9921dc5	-0.0002786947
224	0xb94abd43	-0.00019334727
225	0xb9f4e7ac	-0.00046711916
226	0xb999e0f7	-0.00029350046
227	0xb8d2bb97	-0.00010048522
228	0xb93c50a4	-0.00017959118
229	0xb966170a	-0.00021943092
230	0xb9d4268a	-0.00040464505
231	0xba1fb419	-0.00060922053
232	0xb97382ff	-0.00023223086
233	0xb861f773	-5.3874635e-05
234	0xb9a88c40	-0.0003214795
235	0xb99a9002	-0.00029480463
236	0xb9bf7625	-0.00036518383
237	0x38ecbf54	0.000112889946
238	0x3952e622	0.00020112892
239	0xb989d368	-0.00026288186
240	0xba0bffb8	-0.0005340534
241	0xb95a8e8b	-0.00020843201
242	0xb9f38e8e	-0.00046454783
243	0xb9175be2	-0.00014434711
244	0xb8f2d3fb	-0.00011578944
245	0xb9e50099	-0.0004367873
246	0xb780afc7	-1.5340642e-05
247	0xb8f1e59e	-0.00011534545
248	0xb9a63d57	-0.0003170769
249	0x3958fcb0	0.00020693499
250	0xb92e83df	-0.00016643059
251	0xb9de1173	-0.0004235614
252	0xb9c5420c	-0.00037623977
253	0xb9f7010b	-0.00047112288
254	0xb86bd18b	-5.622352e-05
255	0xba30827a	-0.000673331

model.feature_nns.2.model.0.weights f4 [1, 104]
0	0x3e1037a0	0.14083719
1	0x3de83a9e	0.11339305
2	0x3e15b01f	0.14617966
3	0x3d137401	0.0359993
4	0x3e0a8f3b	0.135312
5	0x3dd8395e	0.10557817
6	0x3e115360	0.14191961
7	0x3df8d2f5	0.12149612
8	0x3e126ad4	0.14298564
9	0x3e079e39	0.13243951
10	0x3e0751e0	0.13214827
11	0x3dd91cf0	0.106012225
12	0x3e022be6	0.12712058
13	0x3dfb9914	0.12285057
14	0x3e135fce	0.14392015
15	0x3db1f00a	0.08688362
16	0x3de095be	0.10966061
17	0x3e171e03	0.14757542
18	0x3ddcdd82	0.10784437
19	0x3e12ae7a	0.1432437
20	0x3debd356	0.115149185
21	0x3e08d361	0.13361885
22	0x3e10c652	0.14138153
23	0x3dfe5c3f	0.12419938
24	0x3e159176	0.1460627
25	0x3e12c285	0.14332016
26	0x3e11f6e8	0.14254344
27	0x3e137dbb	0.14403431
28	0x3e14e086	0.14538774
29	0x3d71be33	0.05901928
30	0x3dd8c61f	0.105846636
31	0x3de1faf0	0.11034191
32	0x3e14db67	0.1453682
33	0x3e0b724d	0.13617821
34	0x3e1732cf	0.14765476
35	0x3e03e401	0.12879945
36	0x3e12a6c2	0.14321426
37	0x3e069f1b	0.13146631
38	0x3e0671a9	0.13129295
39	0x3de72dce	0.112880334
40	0x3e04b1f7	0.12958513
41	0x3e0cde73	0.13756733
42	0x3e04378a	0.12911811
43	0x3e0bfac2	0.13669875
44	0x3e0cbf11	0.13744761
45	0x3e109c63	0.14122157
46	0x3dfeba7a	0.12437911
47	0x3e0b9859	0.13632335
48	0x3de2b1e1	0.11069084
49	0x3e17db33	0.14829712
50	0x3de541eb	0.111942135
51	0x3e0988bf	0.1343107
52	0x3e10619f	0.1409974
53	0x3e06884b	0.13137929
54	0x3e171a23	0.14756064
55	0x3e0bc2de	0.13648555
56	0x3e004dae	0.12529632
57	0x3de7c68f	0.11317169
58	0x3df9f137	0.12204211
59	0x3df34d22	0.11879946
60	0x3d97904c	0.07400569
61	0x3db2ac75	0.087243
62	0x3df77916	0.12083642
63	0x3d90c089	0.07067973
64	0x3e0606cf	0.13088535
65	0x3dbb3c67	0.0914238
66	0x3dec8145	0.11548094
67	0x3d9797ea	0.07402022
68	0x3e112352	0.1417363
69	0x3e0afdbc	0.13573354
70	0x3e0f3d98	0.1398834
71	0x3e132162	0.14368203
72	0x3e12de25	0.14342554
73	0x3e11576e	0.14193508
74	0x3ded3c3c	0.115837544
75	0x3dff3c57	0.12462681
76	0x3de8f30f	0.11374485
77	0x3e0a959b	0.13533632
78	0x3dff6b15	0.12471596
79	0x3e15cc6f	0.14628766
80	0x3dda383c	0.10655257
81	0x3e018d07	0.12651454
82	0x3e170a0b	0.14749925
83	0x3e15499d	0.14578862
84	0x3ded5e51	0.11590255
85	0x3d85a295	0.06525151
86	0x3e0975a7	0.13423787
87	0x3e14e2cc	0.14539641
88	0x3e0a531a	0.13508263
89	0x3dd3b9e8	0.10338193
90	0x3e04d8ca	0.12973323
91	0x3e0884fb	0.13331978
92	0x3e143899	0.14474715
93	0x3e157c47	0.1459819
94	0x3e016015	0.12634309
95	0x3e132236	0.14368519
96	0x3e147ddd	0.14501138
97	0x3e117df7	0.14208208
98	0x3e0dbffa	0.13842764
99	0x3e153f57	0.14574943
100	0x3e12cf92	0.14336994
101	0x3dfdcdf1	0.12392796
102	0x3d8ecc31	0.0697254
103	0x3e15866b	0.14602058

model.feature_nns.2.model.1.weight f4 [1, 104]
0	0xbb163830	-0.0022921674
1	0xbb19938a	-0.0023433887
2	0xbb274537	-0.0025523433
3	0xbb0813c4	-0.0020763734
4	0xbb188597	-0.0023272985
5	0xbb23c3f2	-0.0024988619
6	0xbb1a4d52	-0.0023544622
7	0xbb203b19	-0.0024449287
8	0xbb0e0136	-0.0021668202
9	0xbb0d022d	-0.002151619
10	0xbb21559d	-0.002461768
11	0xbb239386	-0.0024959757
12	0xbb298754	-0.0025868015
13	0xbb169f39	-0.0022983088
14	0xbb057a19	-0.0020366965
15	0xbb0e54f1	-0.002171811
16	0xbaec6d7c	-0.0018038
17	0xbb0c7737	-0.0021433362
18	0xbaf5236a	-0.0018702571
19	0xbb280c78	-0.0025642198
20	0xbb11f63c	-0.0022272011
21	0xbb1248a1	-0.0022321122
22	0xbb25c7d7	-0.0025296116
23	0xbb09bd72	-0.002101746
24	0xbb18e24a	-0.0023328238
25	0xbb12ffc6	-0.0022430285
26	0xbb2d9104	-0.002648414
27	0xbb19b87f	-0.0023455916
28	0xbb220c0e	-0.0024726423
29	0xbb134afa	-0.002247511
30	0xbb216bb8	-0.0024630856
31	0xbb0a6f3e	-0.0021123434
32	0xbb14d2c1	-0.0022708627
33	0xbb275cde	-0.002553753
34	0xbb1411aa	-0.0022593536
35	0xbb33d5b1	-0.0027440602
36	0xbb10e23e	-0.0022107507
37	0xbb0708d6	-0.0020604632
38	0xbb0f4304	-0.0021860013
39	0xbb13db5f	-0.0022561175
40	0xbb140342	-0.002258495
41	0xbb0b8f83	-0.0021295256
42	0xbb230751	-0.0024876187
43	0xbb0c9dfd	-0.0021456473
44	0xbb12669e	-0.0022338997
45	0xbb1d72ca	-0.0024024718
46	0xbb135ce5	-0.002248579
47	0xbb2028b1	-0.0024438316
48	0xbb0db5cf	-0.002162326
49	0xbb16ee6a	-0.002303029
50	0xbb172f33	-0.0023068904
51	0xbb151713	-0.002274935
52	0xbb2795b7	-0.0025571415
53	0xbb21ff8b	-0.0024718966
54	0xbb27d68f	-0.0025610065
55	0xbb1ee3c2	-0.002424464
56	0xbb182ec3	-0.0023221232
57	0xbb18bcb5	-0.0023305838
58	0xbb0af411	-0.0021202604
59	0xbb0a752f	-0.0021126976
60	0xbaf1e0f0	-0.0018453877
61	0xbb1622eb	-0.0022908996
62	0xbb209a32	-0.002450597
63	0xbb0afa13	-0.0021206185
64	0xbaee4099	-0.0018177211
65	0xbb13c478	-0.0022547524
66	0xbb14a7ca	-0.0022683018
67	0xbb1aab87	-0.0023600773
68	0xbb14db49	-0.0022713712
69	0xbb221caf	-0.0024736335
70	0xbb03c94c	-0.0020108996
71	0xbb1640be	-0.0022926773
72	0xbb102928	-0.0021997187
73	0xbb20af7f	-0.0024518666
74	0xbb0c0ded	-0.0021370605
75	0xbb189141	-0.0023279937
76	0xbb1ed0e4	-0.0024233395
77	0xbb0ce98c	-0.002150151
78	0xbaf95bf4	-0.0019024597
79	0xbb1d5a1a	-0.0024010004
80	0xbb0d1904	-0.0021529803
81	0xbb0f9ee3	-0.0021914772
82	0xbb18a9d1	-0.0023294578
83	0xbb1e9628	-0.0024198387
84	0xbb198c8d	-0.0023429722
85	0xbb0f35d8	-0.0021852162
86	0xbb1e1a66	-0.0024124621
87	0xbb138cf6	-0.002251444
88	0xbb1ae373	-0.0023634105
89	0xbb0a18d5	-0.002107193
90	0xbb104dde	-0.0022019069
91	0xbb0c70a8	-0.0021429453
92	0xbb1f8b42	-0.0024344479
93	0xbb282c1f	-0.0025661064
94	0xbb127d0c	-0.0022352366
95	0xbb235778	-0.0024923962
96	0xbb15d14b	-0.0022860344
97	0xbb142586	-0.0022605374
98	0xbb1c7822	-0.0023875316
99	0xbb223f0c	-0.0024756817
100	0xbb212f94	-0.002459501
101	0xbb15cd29	-0.002285788
102	0xbb03a64f	-0.0020088141
103	0xbb0bfc08	-0.002135994

model.feature_nns.3.model.0.weights f4 [1, 78]
0	0x3e171a5c	0.14756149
1	0x3e17bda6	0.14818439
2	0x3e0ae108	0.13562405
3	0x3e112e39	0.14177789
4	0x3e17e27f	0.14832495
5	0x3e113a3d	0.14182372
6	0x3e15973f	0.14608477
7	0x3e08d59c	0.13362736
8	0x3e100063	0.14062648
9	0x3e08f6ac	0.13375348
10	0x3e011801	0.12606813
11	0x3e109289	0.14118399
12	0x3de3c7f3	0.11122122
13	0x3df524be	0.11969899
14	0x3dc15008	0.09439093
15	0x3dfee006	0.12445073
16	0x3e1352bb	0.14387028
17	0x3df12148	0.11773926
18	0x3e148fb0	0.14507937
19	0x3e050806	0.12991342
20	0x3e04e481	0.12977792
21	0x3db41b55	0.08794276
22	0x3dffca19	0.12489719
23	0x3de144fa	0.10999484
24	0x3e140410	0.14454675
25	0x3dbd84d7	0.09253853
26	0x3de54e2c	0.11196551
27	0x3e0d61e1	0.13806869
28	0x3e0fe2ce	0.14051363
29	0x3e14ead2	0.14542702
30	0x3e153476	0.14570794
31	0x3e136f9d	0.14398046
32	0x3e10819a	0.14111939
33	0x3d696c46	0.056988023
34	0x3dfb8b92	0.1228248
35	0x3e06ac5e	0.1315169
36	0x3e115cf4	0.14195615
37	0x3e1087e3	0.14114337
38	0x3e167cd0	0.1469605
39	0x3e0fa0ae	0.14026138
40	0x3e0ffbb6	0.14060864
41	0x3e0eceb6	0.13946041
42	0x3d9bf980	0.07615948
43	0x3e072533	0.13197784
44	0x3e0d5c32	0.13804701
45	0x3e110dd9	0.14165439
46	0x3db05d38	0.0861153
47	0x3e0af6f7	0.13570772
48	0x3e068199	0.13135375
49	0x3db6e1e3	0.08929803
50	0x3dee705a	0.11642523
51	0x3e13be14	0.14427978
52	0x3dda3be5	0.10655955
53	0x3dafa0df	0.085756056
54	0x3e162437	0.14662252
55	0x3e0a92e0	0.13532591
56	0x3e15b27d	0.14618869
57	0x3dc5962a	0.09647782
58	0x3dcee969	0.10103113
59	0x3e029a63	0.12754206
60	0x3e087894	0.13327247
61	0x3e16d81c	0.14730877
62	0x3de8275b	0.113356315
63	0x3e04b37d	0.12959094
64	0x3e12a81b	0.1432194
65	0x3e12c90f	0.1433451
66	0x3dc4aff2	0.096038714
67	0x3e0b8926	0.13626537
68	0x3e146752	0.14492539
69	0x3e15048c	0.14552516
70	0x3defa618	0.11701602
71	0x3e0ed6c7	0.13949119
72	0x3dd0a0bc	0.10186908
73	0x3e108b15	0.14115556
74	0x3e11bdf3	0.14232616
75	0x3df48e83	0.119412445
76	0x3df4d4da	0.11954661
77	0x3dbfb9da	0.0936162

model.feature_nns.3.model.1.weight f4 [1, 78]
0	0xbb6fb12c	-0.0036574109
1	0xbb753363	-0.0037414662
2	0xbb55d86e	-0.0032630223
3	0xbb569b7b	-0.0032746482
4	0xbb4cbf02	-0.003124178
5	0xbb4e5a14	-0.0031486796
6	0xbb6657fb	-0.0035147655
7	0xbb5cfd05	-0.0033720147
8	0xbb2839aa	-0.0025669136
9	0xbb48956b	-0.0030606638
10	0xbb66da76	-0.0035225428
11	0xbb6ec439	-0.0036432876
12	0xbb7b1141	-0.0038309845
13	0xbb2b495d	-0.0026136257
14	0xbb6786cb	-0.0035328146
15	0xbb5f2fcb	-0.0034055586
16	0xbb51efa1	-0.00320337
17	0xbb72633f	-0.0036985425
18	0xbb4e312f	-0.0031462421
19	0xbb4a17b7	-0.003083689
20	0xbb6f27bb	-0.0036492187
21	0xbb4a3dff	-0.0030859706
22	0xbb41c639	-0.0029567613
23	0xbb573699	-0.003283894
24	0xbb4c54d1	-0.0031178484
25	0xbb4b06ed	-0.003097947
26	0xbb461da6	-0.0030230074
27	0xbb570d88	-0.0032814462
28	0xbb5e5d3a	-0.003393008
29	0xbb785301	-0.003789127
30	0xbb7b4104	-0.0038338313
31	0xbb5fae85	-0.0034131121
32	0xbb4ef8e2	-0.0031581451
33	0xbb232d82	-0.002489895
34	0xbb6b6c1e	-0.0035922597
35	0xbb45b1c5	-0.0030165773
36	0xbb4b3176	-0.0031004823
37	0xbb5fcfa8	-0.0034150872
38	0xbb417ae4	-0.0029522711
39	0xbb7803e9	-0.0037844128
40	0xbb3dda24	-0.0028969133
41	0xbb7bfb35	-0.0038449292
42	0xbb4ea29e	-0.0031530033
43	0xbb681c01	-0.0035417082
44	0xbb620023	-0.0034484945
45	0xbb4083c1	-0.0029375406
46	0xbb3ae96c	-0.0028520478
47	0xbb6d1386	-0.0036174967
48	0xbb64bfad	-0.0034904287
49	0xbb5e79bb	-0.0033947069
50	0xbb716916	-0.0036836318
51	0xbb5e993e	-0.0033965851
52	0xbb370ece	-0.0027932408
53	0xbb524eb1	-0.003209036
54	0xbb64b0de	-0.003489546
55	0xbb5d954f	-0.0033810919
56	0xbb4da661	-0.0031379687
57	0xbb5388ed	-0.003227766
58	0xbb4da1aa	-0.0031376877
59	0xbb4748e8	-0.0030408446
60	0xbb7b3823	-0.003833302
61	0xbb61ba02	-0.0034443145
62	0xbb4fd686	-0.003171356
63	0xbb2e4c42	-0.0026595746
64	0xbb5c29fe	-0.0033594365
65	0xbb5033e5	-0.0031769213
66	0xbb0e2b25	-0.0021693197
67	0xbb60fb9e	-0.0034329663
68	0xbb58338f	-0.0032989716
69	0xbb4f1a9f	-0.003160156
70	0xbb4b6a7a	-0.0031038807
71	0xbb676a42	-0.0035311137
72	0xbb71e532	-0.0036910293
73	0xbb3b2467	-0.0028555633
74	0xbb44c2db	-0.003002337
75	0xbb79d999	-0.0038124083
76	0xbb7743c5	-0.0037729603
77	0xbb367012	-0.0027837795

model.feature_nns.4.model.0.weights f4 [1, 182]
0	0x3e129fc4	0.14318758
1	0x3e12c973	0.1433466
2	0x3e0bd9ce	0.13657305
3	0x3e0ceb05	0.13761528
4	0x3e175992	0.14780262
5	0x3dd759a0	0.105151415
6	0x3e0d7bfe	0.1381683
7	0x3e15d72e	0.14632866
8	0x3de95448	0.113930285
9	0x3de687a1	0.11256338
10	0x3e075a8f	0.13218139
11	0x3e169611	0.14705683
12	0x3e03df7e	0.12878224
13	0x3dffca3f	0.12489747
14	0x3e154501	0.14577104
15	0x3d991b78	0.074759424
16	0x3e12cfe7	0.14337121
17	0x3e08b716	0.13351092
18	0x3dda3141	0.10653926
19	0x3e123f6c	0.14282006
20	0x3dfa5007	0.12222295
21	0x3dc91011	0.098175175
22	0x3e17e717	0.14834248
23	0x3e0d9c79	0.13829221
24	0x3dcf3d21	0.10119081
25	0x3e08eae4	0.13370854
26	0x3e1391e9	0.14411129
27	0x3ded6332	0.11591186
28	0x3e00fb08	0.12595761
29	0x3e0f4e0f	0.1399462
30	0x3e041d1e	0.12901732
31	0x3dca4b6a	0.09877665
32	0x3dce25de	0.10065816
33	0x3e136a81	0.14396097
34	0x3deb0b79	0.114767976
35	0x3e03d2fc	0.12873453
36	0x3e04be37	0.12963186
37	0x3e075070	0.13214278
38	0x3e0d16ea	0.13778272
39	0x3e0fd8b5	0.14047511
40	0x3e0fdfde	0.14050242
41	0x3dcd08c8	0.100114405
42	0x3e12310c	0.14276522
43	0x3deec806	0.11659245
44	0x3ddb4465	0.107064046
45	0x3e155131	0.14581753
46	0x3e0eb601	0.13936616
47	0x3e16138c	0.14655894
48	0x3dfab5f6	0.122417375
49	0x3e136bea	0.14396635
50	0x3d694ede	0.05695998
51	0x3dcab23a	0.09897275
52	0x3e0f921b	0.14020579
53	0x3e14681c	0.1449284
54	0x3deaa953	0.11458077
55	0x3df2db06	0.11858182
56	0x3e0ebe93	0.13939886
57	0x3e03a058	0.12854135
58	0x3dd1acd8	0.102380455
59	0x3e14edd5	0.1454385
60	0x3dfd60e8	0.12371999
61	0x3dc607cf	0.09669458
62	0x3e159b36	0.1460999
63	0x3e146f36	0.14495549
64	0x3e13857d	0.1440639
65	0x3df67608	0.120342314
66	0x3e0efdfe	0.13964078
67	0x3defa025	0.11700467
68	0x3e05b902	0.13058856
69	0x3dd202d1	0.102544434
70	0x3d9fd82c	0.078049034
71	0x3df54ae8	0.11977178
72	0x3dab5b16	0.08366983
73	0x3e001ef8	0.12511814
74	0x3e17cb52	0.14823654
75	0x3de92328	0.11383659
76	0x3e041172	0.1289728
77	0x3e079bac	0.13242978
78	0x3dc03b3f	0.093863
79	0x3e0f6c71	0.14006211
80	0x3e0f6492	0.14003208
81	0x3d8a84c4	0.06763604
82	0x3e0f648b	0.14003198
83	0x3e0e6d2c	0.13908833
84	0x3e11f16b	0.1425225
85	0x3e064f08	0.13116086
86	0x3e16b338	0.14716804
87	0x3e0506e1	0.12990905
88	0x3e0692b3	0.13141899
89	0x3e07fbf7	0.1327971
90	0x3e14b529	0.14522232
91	0x3e12cf6b	0.14336936
92	0x3dd588d0	0.104264855
93	0x3e12eb2e	0.14347526
94	0x3e03924d	0.12848778
95	0x3e01ce4a	0.1267635
96	0x3e049976	0.12949166
97	0x3dfa0ccf	0.12209474
98	0x3e15ca08	0.1462785
99	0x3e09c806	0.13455209
100	0x3e14c1dd	0.14527078
101	0x3e0512e9	0.12995495
102	0x3e012696	0.12612376
103	0x3df7ba71	0.12096108
104	0x3dd44ac5	0.10365824
105	0x3e0e5525	0.13899668
106	0x3de26d9e	0.11056064
107	0x3dfd40b6	0.12365858
108	0x3e0995d5	0.13436063
109	0x3e13854c	0.14406317
110	0x3df79695	0.12089268
111	0x3df7df8c	0.12103185
112	0x3d9916c5	0.07475046
113	0x3dc8a418	0.097969234
114	0x3e015095	0.12628396
115	0x3da5881e	0.08082603
116	0x3de68b3c	0.112570256
117	0x3e159ad5	0.14609845
118	0x3ddcdc19	0.10784168
119	0x3e1195e1	0.1421733
120	0x3e0c29b6	0.13687786
121	0x3deec7a3	0.116591714
122	0x3e0a519a	0.13507691
123	0x3dfce360	0.12348056
124	0x3e10b38b	0.1413099
125	0x3e13aced	0.14421435
126	0x3df9eae7	0.12203007
127	0x3de88ece	0.11355363
128	0x3dbfb71c	0.09361097
129	0x3e107ecb	0.14110868
130	0x3e17e840	0.1483469
131	0x3e022e8c	0.12713069
132	0x3e0499ac	0.12949246
133	0x3e0f2d75	0.13982184
134	0x3de7275d	0.11286805
135	0x3ddb47d7	0.10707062
136	0x3e06e111	0.13171794
137	0x3e1154bf	0.14192484
138	0x3e0b6a8a	0.1361486
139	0x3deaad2d	0.11458812
140	0x3e171556	0.14754233
141	0x3e11f92b	0.14255206
142	0x3dffca51	0.12489761
143	0x3d8cb554	0.06870523
144	0x3e10c2d5	0.14136823
145	0x3d9fda60	0.078053236
146	0x3e0beb0b	0.1366388
147	0x3dfda25e	0.12384485
148	0x3e012692	0.1261237
149	0x3df46572	0.11933412
150	0x3e063820	0.13107347
151	0x3e16becc	0.1472122
152	0x3df48be2	0.11940743
153	0x3de85d14	0.11345878
154	0x3e0e2b9d	0.13883825
155	0x3e17048c	0.14747828
156	0x3e144978	0.14481151
157	0x3df0f38f	0.11765205
158	0x3e04b214	0.12958556
159	0x3e041eab	0.12902324
160	0x3db366dd	0.08759854
161	0x3e171b76	0.1475657
162	0x3e06ec84	0.13176161
163	0x3dd53c9c	0.10411951
164	0x3df750c4	0.12075952
165	0x3dfa300c	0.122161955
166	0x3df23cae	0.1182798
167	0x3e05b91b	0.13058893
168	0x3e086659	0.13320293
169	0x3e0d2f0e	0.13787481
170	0x3dfb3b99	0.12267227
171	0x3e021344	0.12702662
172	0x3df698bc	0.120408505
173	0x3e0adfec	0.13561982
174	0x3e154466	0.14576873
175	0x3dfc8297	0.123295955
176	0x3df3caf3	0.11903944
177	0x3e0f8a0e	0.14017507
178	0x3e15e514	0.14638168
179	0x3e0e4c66	0.13896331
180	0x3e160ddf	0.14653729
181	0x3e0adf30	0.13561702

model.feature_nns.4.model.1.weight f4 [1, 182]
0	0xbb02d5b7	-0.001996381
1	0xbb0b7254	-0.0021277862
2	0xbb08c94b	-0.0020871933
3	0xbb10a8c3	-0.0022073246
4	0xbb26fb4e	-0.002547938
5	0xbaf23c33	-0.0018481076
6	0xbb064ac2	-0.0020491336
7	0xbad58519	-0.0016290277
8	0xbb00b627	-0.0019639821
9	0xbaec6863	-0.0018036481
10	0xbaf6662c	-0.001879876
11	0xbb325456	-0.0027210913
12	0xbaf6275a	-0.0018780038
13	0xbac7dd64	-0.0015248475
14	0xbb0d087a	-0.0021519945
15	0xbaba1dba	-0.0014199533
16	0xbb18ea18	-0.002333289
17	0xbad507c9	-0.001625293
18	0xbac0cfbc	-0.0014710347
19	0xba926967	-0.0011170328
20	0xbaf58352	-0.0018731153
21	0xbb0c7be6	-0.0021436154
22	0xbb2832a8	-0.002566496
23	0xbb0460db	-0.0020199332
24	0xbb1920f8	-0.0023365598
25	0xbb020bb0	-0.0019843392
26	0xbab1c454	-0.0013562539
27	0xbadaa7dc	-0.0016682106
28	0xbadb0a2f	-0.0016711409
29	0xbb0fd556	-0.0021947226
30	0xbae72a36	-0.0017636481
31	0xba85b177	-0.0010199983
32	0xbb0a0f6c	-0.002106632
33	0xbb07142b	-0.0020611386
34	0xbb0d2bcf	-0.0021541005
35	0xbaad2fe5	-0.0013213126
36	0xbb0283f5	-0.0019915078
37	0xbadb14f4	-0.0016714619
38	0xbb070fe0	-0.0020608827
39	0xbadb2de1	-0.0016722047
40	0xbadb7f02	-0.0016746225
41	0xbaf4f190	-0.0018687714
42	0xbb04a61c	-0.002024061
43	0xbae2097a	-0.0017245256
44	0xbae0db61	-0.0017155224
45	0xbaf11e16	-0.0018395807
46	0xbae28866	-0.0017283082
47	0xbafbaafc	-0.0019200738
48	0xbaf55a7e	-0.0018718985
49	0xbacf6502	-0.0015822949
50	0xbaebe550	-0.0017997418
51	0xbb0dd506	-0.0021641864
52	0xbabccdcb	-0.0014404593
53	0xbaad186f	-0.0013206134
54	0xbb072437	-0.002062095
55	0xbb0da7ea	-0.0021614977
56	0xbad4bead	-0.0016231142
57	0xbaf3f5a0	-0.0018612631
58	0xbabeea48	-0.0014565671
59	0xbb4552f9	-0.003010927
60	0xbb022369	-0.0019857532
61	0xbae0aa59	-0.0017140611
62	0xbada9b21	-0.0016678312
63	0xbaa98f28	-0.0012936341
64	0xbad3655e	-0.0016128232
65	0xbb03b3ba	-0.002009614
66	0xbad7d943	-0.0016467947
67	0xbaabd834	-0.0013110698
68	0xbb10df3e	-0.002210572
69	0xbae193f3	-0.001721023
70	0xbaf1e9a8	-0.0018456476
71	0xbad26952	-0.0016053116
72	0xbab2e8da	-0.0013649717
73	0xbae8bb1b	-0.0017755957
74	0xbae413db	-0.0017400937
75	0xbb055b66	-0.0020348667
76	0xbb0dd833	-0.0021643757
77	0xbb09506b	-0.0020952474
78	0xbb477aa0	-0.003043808
79	0xbb0ae298	-0.002119219
80	0xbb417927	-0.0029521675
81	0xbad720cd	-0.0016412974
82	0xbaf6e98a	-0.0018837911
83	0xbad41f6a	-0.0016183679
84	0xbac6b563	-0.0015160259
85	0xbb02a56d	-0.0019935027
86	0xbaf1c624	-0.0018445891
87	0xbaf9aa88	-0.0019048015
88	0xbb0aefde	-0.00212001
89	0xbad5b65b	-0.0016304957
90	0xbaf55550	-0.0018717442
91	0xbaf3bfb3	-0.001859656
92	0xbb0c7b80	-0.0021435916
93	0xbb104c52	-0.0022018147
94	0xbaecef45	-0.0018076679
95	0xbac51466	-0.0015035986
96	0xbabd49d0	-0.0014441554
97	0xbaedd202	-0.0018144252
98	0xbb05ce8a	-0.0020417296
99	0xbb0e6abc	-0.00217311
100	0xbb0b4e0f	-0.0021256243
101	0xbb0c113f	-0.0021372584
102	0xbb098f8a	-0.0020990097
103	0xbb154399	-0.0022775887
104	0xbb088fe0	-0.002083771
105	0xbad404c8	-0.0016175741
106	0xbaeb1101	-0.0017934145
107	0xbab29952	-0.0013626015
108	0xbb0959ad	-0.0020957992
109	0xbb010c41	-0.0019691142
110	0xbafb7fa0	-0.0019187815
111	0xbb042766	-0.0020165085
112	0xbb0dce72	-0.0021637944
113	0xbab95b23	-0.0014141541
114	0xbac5ecf7	-0.0015100528
115	0xbabd51d8	-0.0014443947
116	0xbb0c86e0	-0.0021442696
117	0xbb07ee30	-0.0020741336
118	0xbb07e699	-0.0020736812
119	0xbac669df	-0.0015137753
120	0xbb121b98	-0.002229428
121	0xbb097297	-0.0020972842
122	0xbae223ba	-0.0017253079
123	0xbae60be0	-0.0017551146
124	0xbadafa4b	-0.0016706673
125	0xbafe0e09	-0.0019382845
126	0xbb23b351	-0.0024978707
127	0xba7fff73	-0.0009765543
128	0xbadf9efc	-0.0017060931
129	0xbab344f9	-0.0013677172
130	0xbadd3b92	-0.0016878715
131	0xbaf1ebdf	-0.0018457136
132	0xba9fd66b	-0.0012194639
133	0xbb06dffe	-0.0020580287
134	0xbaa42c6f	-0.0012525449
135	0xbb0bb408	-0.0021317024
136	0xba981d24	-0.0011605364
137	0xbb243109	-0.0025053641
138	0xbb2cfba2	-0.0026395102
139	0xbaa5ca6a	-0.0012648825
140	0xbacc4e28	-0.0015587257
141	0xbafa15be	-0.0019079966
142	0xbaf13e1a	-0.0018405349
143	0xbabe07f2	-0.0014498217
144	0xbad8a828	-0.0016529607
145	0xbad7b330	-0.00164566
146	0xbaf02e04	-0.0018324261
147	0xbad9b912	-0.0016610941
148	0xbb040fc4	-0.0020150999
149	0xbafea95d	-0.0019429136
150	0xbaa3d144	-0.0012498279
151	0xbab651ba	-0.0013909854
152	0xbab2ee30	-0.0013651308
153	0xbb151be3	-0.0022752217
154	0xbacf1468	-0.0015798928
155	0xbac8595a	-0.0015285418
156	0xbb21e15e	-0.002470098
157	0xbb1dbd58	-0.0024069156
158	0xbac6931b	-0.0015150042
159	0xbad2c250	-0.0016079638
160	0xbad890a7	-0.0016522602
161	0xbafdcc87	-0.0019363322
162	0xbb2304bd	-0.002487465
163	0xbabb34af	-0.0014282669
164	0xbb0701ef	-0.0020600518
165	0xbaeeef86	-0.0018229343
166	0xbaf4f037	-0.0018687312
167	0xbb0804f6	-0.002075491
168	0xbb0b4e84	-0.0021256516
169	0xbae08783	-0.0017130229
170	0xbaaeb13f	-0.001332797
171	0xbb1fce45	-0.002438442
172	0xbaeb24a0	-0.0017939992
173	0xbaf7ccab	-0.00189056
174	0xbada85e2	-0.001667198
175	0xba51e7b5	-0.00080072443
176	0xbaeff1ae	-0.0018306279
177	0xbaf9532e	-0.0019021982
178	0xbb158b82	-0.002281875
179	0xbafd1de8	-0.0019311281
180	0xbb036fe8	-0.0020055715
181	0xbb017ec3	-0.0019759394

model.feature_nns.5.model.0.weights f4 [1, 1000]
0	0x3de38c2e	0.111107215
1	0x3e135096	0.1438621
2	0x3dea4c48	0.11440331
3	0x3dfd415d	0.12365983
4	0x3d9e9a2e	0.07744251
5	0x3defcbd2	0.117087975
6	0x3e1213fe	0.14265439
7	0x3e0615a1	0.13094188
8	0x3e134abf	0.14383982
9	0x3e140840	0.14456272
10	0x3d9d4ed4	0.07681051
11	0x3e08a31b	0.1334347
12	0x3de31b40	0.11089182
13	0x3deadb3c	0.11467597
14	0x3e10a53e	0.14125535
15	0x3e0480aa	0.12939706
16	0x3e053662	0.13009027
17	0x3dd7a39d	0.10529254
18	0x3e08d644	0.13362986
19	0x3e172d17	0.14763294
20	0x3e171068	0.14752352
21	0x3de8f3bb	0.11374613
22	0x3e07e781	0.13271905
23	0x3dd8c9b5	0.105853476
24	0x3e026447	0.12733565
25	0x3df16d64	0.11788443
26	0x3e057e3e	0.13036439
27	0x3e0daf20	0.13836336
28	0x3e15dd73	0.14635257
29	0x3e05ac59	0.13054027
30	0x3dfafb37	0.12254947
31	0x3e1130b3	0.14178734
32	0x3de31a00	0.110889435
33	0x3e01cea7	0.12676488
34	0x3e13a034	0.14416581
35	0x3db96f32	0.09054412
36	0x3e09dbec	0.134628
37	0x3e160d81	0.14653589
38	0x3e0ed595	0.13948663
39	0x3e0f3d86	0.13988313
40	0x3e0a4695	0.13503487
41	0x3e068714	0.13137466
42	0x3e0b7f7e	0.13622853
43	0x3e092859	0.13394298
44	0x3e00b40a	0.1256868
45	0x3e09fbd3	0.1347497
46	0x3e132ef0	0.14373374
47	0x3df37a90	0.11888611
48	0x3e0e8578	0.13918102
49	0x3e15383e	0.14572236
50	0x3de72612	0.11286558
51	0x3e0609dc	0.13089699
52	0x3e112261	0.14173271
53	0x3e0d62df	0.13807248
54	0x3e03f98f	0.12888168
55	0x3e16e784	0.14736754
56	0x3dd04bc8	0.10170704
57	0x3e05e8b4	0.1307705
58	0x3e13f507	0.1444894
59	0x3db584e6	0.08863239
60	0x3e14bb4b	0.14524572
61	0x3dac3de4	0.08410242
62	0x3e043661	0.12911369
63	0x3e04be56	0.12963232
64	0x3e010a66	0.12601623
65	0x3deef4a0	0.11667752
66	0x3e1334d6	0.14375624
67	0x3e0a4695	0.13503487
68	0x3e05addd	0.13054605
69	0x3e06d783	0.13168149
70	0x3e0e23b0	0.13880801
71	0x3e129f94	0.14318687
72	0x3df8498c	0.12123403
73	0x3e0d2ff8	0.1378783
74	0x3e002179	0.12512769
75	0x3dc2441d	0.09485648
76	0x3defcda6	0.11709146
77	0x3df7e02e	0.12103306
78	0x3decdde0	0.11565757
79	0x3dab5bec	0.08367142
80	0x3df8fc94	0.121575505
81	0x3def7750	0.11692679
82	0x3e0542e8	0.13013804
83	0x3e137dcc	0.14403456
84	0x3e1356a3	0.14388518
85	0x3e01f632	0.12691572
86	0x3e058a38	0.13041008
87	0x3e03944b	0.12849538
88	0x3e148d94	0.14507133
89	0x3dd7ee50	0.105435014
90	0x3e055a35	0.13022693
91	0x3df210e3	0.11819627
92	0x3ddc1405	0.10746006
93	0x3e11eb0f	0.14249824
94	0x3dde2228	0.108463585
95	0x3d8827f9	0.06648249
96	0x3e09d066	0.13458404
97	0x3e143538	0.14473426
98	0x3da690c3	0.0813308
99	0x3e0b20b2	0.13586691
100	0x3dedecfa	0.11617465
101	0x3e14e18c	0.14539164
102	0x3e1677e1	0.14694168
103	0x3e08c2c0	0.13355541
104	0x3dd5da3a	0.10442014
105	0x3daf988d	0.085740186
106	0x3e15958b	0.14607827
107	0x3dee182d	0.11625705
108	0x3e132ea4	0.1437326
109	0x3e0e43f6	0.13893113
110	0x3e1661f9	0.14685811
111	0x3dc75c81	0.097344406
112	0x3e03388c	0.1281454
113	0x3e05a08c	0.13049525
114	0x3e00a64f	0.12563442
115	0x3e0543dd	0.13014169
116	0x3df3f034	0.119110495
117	0x3defcb75	0.11708728
118	0x3e0c2901	0.13687517
119	0x3e0d62b5	0.13807185
120	0x3dc52004	0.09625247
121	0x3dc9100f	0.09817516
122	0x3e07b03b	0.1325082
123	0x3de50f1c	0.111845225
124	0x3e16d07b	0.14727966
125	0x3e144ebc	0.1448316
126	0x3e04ca2b	0.12967746
127	0x3de6bb3f	0.11266183
128	0x3d99197c	0.07475564
129	0x3de92244	0.11383489
130	0x3e1032f7	0.14081942
131	0x3dbf2f61	0.09335209
132	0x3e149b00	0.14512253
133	0x3def741a	0.116920665
134	0x3e098c50	0.13432431
135	0x3df984a5	0.12183503
136	0x3dea7af2	0.11449231
137	0x3e1726f6	0.14760956
138	0x3e16255e	0.14662692
139	0x3e0ae8bd	0.13565345
140	0x3da58812	0.08082594
141	0x3df7e097	0.12103384
142	0x3db3676c	0.087599605
143	0x3deb68b1	0.11494578
144	0x3dea1ac8	0.11430889
145	0x3dfd236c	0.12360272
146	0x3e124c0d	0.14286824
147	0x3d859e3d	0.06524322
148	0x3e145bac	0.14488095
149	0x3dfa0e0f	0.12209713
150	0x3e07c794	0.13259727
151	0x3e0d0ee3	0.1377521
152	0x3df3f2f6	0.119115755
153	0x3dff7099	0.12472648
154	0x3e108efe	0.14117047
155	0x3db6337b	0.08896538
156	0x3e172be5	0.14762838
157	0x3de7f552	0.11326088
158	0x3e15a81b	0.14614908
159	0x3e023c41	0.12718298
160	0x3e022e9d	0.12713094
161	0x3e001194	0.12506706
162	0x3dbcfb41	0.092276104
163	0x3e0ecd76	0.13945565
164	0x3dfd21df	0.12359976
165	0x3e055bf0	0.13023353
166	0x3e11e2e8	0.14246714
167	0x3e14c16a	0.14526907
168	0x3e12f989	0.14353003
169	0x3e07d230	0.13263774
170	0x3df2ded5	0.11858908
171	0x3e143d0e	0.14476416
172	0x3e13492f	0.14383386
173	0x3dfc80d5	0.1232926
174	0x3e0f73ed	0.14009066
175	0x3e0dc95b	0.13846342
176	0x3e065b12	0.13120678
177	0x3e12f8a4	0.14352661
178	0x3e03b930	0.12863612
179	0x3e08e171	0.13367249
180	0x3dd756a2	0.10514571
181	0x3dbb3f45	0.09142927
182	0x3e08a49a	0.1334404
183	0x3dc6779b	0.09690782
184	0x3e0a1fbe	0.13488671
185	0x3e15fb74	0.14646703
186	0x3de2a678	0.11066908
187	0x3e100ec3	0.14068131
188	0x3e0404c1	0.12892438
189	0x3d94546d	0.072426654
190	0x3e11c767	0.14236222
191	0x3e10781b	0.14108317
192	0x3dc141ce	0.094363794
193	0x3e17aea3	0.14812712
194	0x3e08eb25	0.1337095
195	0x3dac3daf	0.08410203
196	0x3e16906c	0.1470353
197	0x3e0f2df7	0.13982378
198	0x3dc75b3f	0.09734201
199	0x3e00033e	0.12501237
200	0x3e104c6a	0.1409165
201	0x3e01f8b6	0.12692532
202	0x3e016061	0.12634422
203	0x3e11b225	0.14228113
204	0x3d8a82d6	0.06763236
205	0x3de054d5	0.109536804
206	0x3e00fb34	0.12595826
207	0x3e0bd896	0.1365684
208	0x3e0b4f01	0.13604356
209	0x3ddc1289	0.10745723
210	0x3e17777c	0.14791673
211	0x3e0eb710	0.1393702
212	0x3dfd026a	0.12353976
213	0x3e0f6530	0.14003444
214	0x3e0fffc5	0.14062412
215	0x3e0df1f4	0.13861829
216	0x3dc2c01e	0.095093
217	0x3e12f8cd	0.14352722
218	0x3e052cdf	0.13005398
219	0x3e01eb83	0.12687497
220	0x3def4aa8	0.116841614
221	0x3db6347c	0.08896729
222	0x3e0d168b	0.1377813
223	0x3e110c10	0.14164758
224	0x3dd674a2	0.10471465
225	0x3e0fd86f	0.14047407
226	0x3debc878	0.11512846
227	0x3de26c0b	0.11055764
228	0x3dee430e	0.116338834
229	0x3e131a51	0.14365508
230	0x3e120086	0.14258012
231	0x3e10fd8d	0.14159222
232	0x3e157c54	0.14598209
233	0x3e13f4e4	0.14448887
234	0x3dfe21d9	0.124088
235	0x3e13072a	0.14358202
236	0x3e15c516	0.14625964
237	0x3dbea501	0.09308816
238	0x3e161fcf	0.14660572
239	0x3e128a27	0.14310513
240	0x3e0b7d22	0.13621953
241	0x3de5e867	0.11225968
242	0x3e09aae9	0.13444103
243	0x3dc8a603	0.09797289
244	0x3e10eea5	0.14153536
245	0x3e16ad5f	0.14714573
246	0x3e12073b	0.1426057
247	0x3e0249ce	0.12723467
248	0x3dcbe37c	0.099554986
249	0x3dbbd588	0.09171587
250	0x3e060943	0.1308947
251	0x3e16374d	0.14669533
252	0x3e06204b	0.13098256
253	0x3e0daed6	0.13836226
254	0x3e1391a1	0.14411022
255	0x3e028c2b	0.12748782

model.feature_nns.5.model.1.weight f4 [1, 1000]
0	0xb97c5e85	-0.00024067804
1	0xba07e35d	-0.0005183721
2	0xb9f82852	-0.00047332287
3	0xb9d81663	-0.0004121541
4	0xb9d9c280	-0.0004153438
5	0xb8f596a8	-0.00011710572
6	0xba13841b	-0.000562729
7	0xba1a8678	-0.0005894671
8	0xb9d06d3f	-0.00039754246
9	0xba2790aa	-0.0006392101
10	0xb98568b4	-0.00025445747
11	0xb9b14490	-0.00033811154
12	0xb999a242	-0.00029303326
13	0xb9f1ee2f	-0.00046144563
14	0xb9c57148	-0.0003765917
15	0xba0dc52f	-0.0005408106
16	0xb9eb6666	-0.00044898986
17	0xb98b85a1	-0.00026611707
18	0xba108eba	-0.0005514432
19	0xb9bd7b84	-0.00036140915
20	0xba1ccf92	-0.0005981858
21	0xb9b000d8	-0.00033569965
22	0xb9ef357e	-0.00045625487
23	0xb9ca0a94	-0.00038536324
24	0xb9f1fe16	-0.0004615641
25	0xba1326d4	-0.0005613391
26	0xba1120e8	-0.00055362144
27	0xba1c646d	-0.00059658923
28	0xb9c51100	-0.00037587434
29	0xb9ba6e14	-0.000355587
30	0xb97b62c6	-0.00023974021
31	0xb9ddd5df	-0.0004231175
32	0xb9df4a70	-0.00042589335
33	0xb98a6e5b	-0.00026403632
34	0xba1f6264	-0.000608003
35	0xb99490bf	-0.00028336604
36	0xb9c9f845	-0.00038522683
37	0xba2f7267	-0.00066927675
38	0xba133e5c	-0.0005616897
39	0xba02f59c	-0.0004995705
40	0xb98455da	-0.00025240966
41	0xba09240f	-0.00052315084
42	0xb9dbb250	-0.00041903788
43	0xba12264f	-0.00055751664
44	0xb9bd3117	-0.00036085464
45	0xb99e35ea	-0.00030176278
46	0xb9fe61e8	-0.000485196
47	0xb9c6f64b	-0.00037949005
48	0xb9a8bd05	-0.00032184288
49	0xba234ce6	-0.00062294153
50	0xb993ebdb	-0.0002821375
51	0xb9ade3ed	-0.0003316695
52	0xba17c590	-0.0005789632
53	0xb98a4d56	-0.0002637903
54	0xb9f7d6c8	-0.00047271536
55	0xba26f3b6	-0.0006368713
56	0xb9c3b2a8	-0.00037326408
57	0xb9d95066	-0.00041449367
58	0xb9f799f1	-0.00047226207
59	0xba08f754	-0.0005224843
60	0xb9b64a48	-0.0003476909
61	0xb9adf488	-0.0003317932
62	0xba10e0dc	-0.0005526671
63	0xb9b97ad6	-0.0003537747
64	0xb9ab0e18	-0.00032626162
65	0xb9d6773f	-0.00040906106
66	0xb9d4d350	-0.0004059323
67	0xb9d89b1c	-0.00041314296
68	0xb9e07171	-0.0004280913
69	0xba114826	-0.0005542062
70	0xb9890632	-0.00026135292
71	0xb9c647fd	-0.00037819138
72	0xb9bbe0fb	-0.00035835043
73	0xba0d8f55	-0.0005400081
74	0xb9f28fd1	-0.00046264988
75	0xb9f86351	-0.00047376243
76	0xb8ee0206	-0.00011349101
77	0xba0268fc	-0.00049747503
78	0xb9ad9c7c	-0.0003311372
79	0xb96986bf	-0.00022270808
80	0xb9e0263b	-0.00042753093
81	0xb9972ab3	-0.00028832778
82	0xb9afb200	-0.0003351122
83	0xb99df498	-0.0003012761
84	0xb9eec4a6	-0.00045541412
85	0xba07cb3c	-0.00051801256
86	0xb9f20e54	-0.00046168512
87	0xb99c10f4	-0.0002976727
88	0xb9e3ba98	-0.00043435837
89	0xb9d06b8b	-0.00039752977
90	0xba2bd976	-0.00065555365
91	0xb9c738dd	-0.00037998604
92	0xb9a89f1f	-0.00032162011
93	0xba02f12c	-0.0004995044
94	0xb9ed7938	-0.00045294478
95	0xb93dd14e	-0.00018102417
96	0xb9eba4a2	-0.00044945354
97	0xb9866480	-0.0002563335
98	0xb9af8a95	-0.00033481853
99	0xb9f1c4c2	-0.00046113698
100	0xba08f1e4	-0.0005224033
101	0xb9c9d9af	-0.00038499894
102	0xb9fef8ce	-0.0004863203
103	0xb9d54ba8	-0.00040682894
104	0xb9a961c4	-0.00032307033
105	0xb9b726d4	-0.0003493341
106	0xb9a78e32	-0.00031958666
107	0xb9b8af8d	-0.0003522601
108	0xb9b1e393	-0.00033929627
109	0xb9f8b5ea	-0.00047437783
110	0xb9bb3fc0	-0.00035714917
111	0xb9fb5390	-0.0004793671
112	0xb9fce5bd	-0.00048236354
113	0xba164744	-0.00057326653
114	0xb9fc02f6	-0.00048067392
115	0xba229292	-0.000620165
116	0xb9fe8746	-0.00048547442
117	0xb9f64c22	-0.000469775
118	0xba1bc892	-0.0005942668
119	0xba1551b4	-0.00056960736
120	0xba1b407e	-0.0005922391
121	0xb9ea0ebf	-0.00044642945
122	0xb9e3c41a	-0.0004344292
123	0xba04171a	-0.0005038843
124	0xb9da6078	-0.00041652075
125	0xb9b300d2	-0.00034142152
126	0xb9b6ecc5	-0.00034890152
127	0xb982f77a	-0.00024979917
128	0xb998cb97	-0.00029143385
129	0xb9f7ad5e	-0.0004724068
130	0xb9ab9975	-0.00032729996
131	0xb9db97d4	-0.00041884056
132	0xb9f19c24	-0.00046083436
133	0xba0ca691	-0.00053653965
134	0xba5b1d9f	-0.0008358601
135	0xba17f4f0	-0.00057966914
136	0xb9bf8138	-0.00036526634
137	0xba0fc0d7	-0.00054837525
138	0xb9b75555	-0.00034968057
139	0xb9c6f1b8	-0.00037945597
140	0xb98be5b4	-0.00026683288
141	0xb94f493d	-0.00019768342
142	0xb9d06a09	-0.00039751854
143	0xb9da4e51	-0.0004163855
144	0xb9830fd9	-0.00024998075
145	0xb9a9d26d	-0.0003239097
146	0xba229273	-0.0006201632
147	0xba1232b3	-0.0005577013
148	0xb9f85527	-0.0004736569
149	0xb9cad660	-0.00038688164
150	0xb9b620d9	-0.00034738219
151	0xb9ff83e1	-0.00048735648
152	0xba0c8298	-0.0005360036
153	0xb97212b2	-0.00023085883
154	0xba03d411	-0.0005028854
155	0xb9d7a3b5	-0.00041129967
156	0xb9f6a7a7	-0.00047045687
157	0xb9d1e005	-0.00040030494
158	0xba013807	-0.0004929308
159	0xba019f92	-0.00049447373
160	0xba0234af	-0.0004966957
161	0xba0a2d56	-0.0005271038
162	0xba2d156a	-0.0006602617
163	0xba2e5ccc	-0.0006651401
164	0xb9e7f99f	-0.00044245736
165	0xb9875caa	-0.00025818247
166	0xb986b0ff	-0.00025690344
167	0xba27880d	-0.00063908176
168	0xb9d91ab7	-0.0004140937
169	0xb9fce13d	-0.00048233
170	0xba098bec	-0.0005246985
171	0xb9e7bc9c	-0.00044200278
172	0xba0fbfc1	-0.00054835906
173	0xba182f8c	-0.0005805425
174	0xb9ed87d4	-0.00045305362
175	0xb9f1d57a	-0.00046126154
176	0xb9ab04a9	-0.00032619134
177	0xb9f8f73f	-0.0004748646
178	0xb9b297fa	-0.00034064037
179	0xba049f92	-0.0005059178
180	0xb9b1fad7	-0.0003394696
181	0xb978b002	-0.00023716691
182	0xba022e3d	-0.00049659965
183	0xba0046a8	-0.0004893341
184	0xba0d1fe1	-0.00053834735
185	0xba0d2f39	-0.000538576
186	0xb9bac461	-0.00035622998
187	0xba092734	-0.0005231977
188	0xb9eeb964	-0.00045533024
189	0xb9d49f6d	-0.00040554572
190	0xba26c68a	-0.0006361982
191	0xb9b24f6a	-0.00034009974
192	0xb9615334	-0.00021488668
193	0xb9e6f5fc	-0.0004405229
194	0xb9ff147a	-0.00048652646
195	0xb9fa4802	-0.00047737366
196	0xb9eded8a	-0.00045381143
197	0xba1bf300	-0.00059489906
198	0xb9ae2889	-0.00033218067
199	0xb9e959b6	-0.00044508063
200	0xb9c87c52	-0.00038239599
201	0xb9d2e39c	-0.00040223903
202	0xb9471cf8	-0.0001898891
203	0xb99876a1	-0.00029080085
204	0xb981b77c	-0.00024741504
205	0xb9841bef	-0.00025197814
206	0xb9e5df37	-0.00043844592
207	0xba3796fb	-0.0007003394
208	0xb9e6f58b	-0.00044051962
209	0xb9d1173d	-0.000398809
210	0xb9c1ca96	-0.00036962767
211	0xb9b265a0	-0.00034026522
212	0xb9d5a2e1	-0.0004074788
213	0xb9cf4f68	-0.0003954128
214	0xb9abc98b	-0.00032765823
215	0xba1215f9	-0.0005572732
216	0xb9dd9ebb	-0.00042270668
217	0xba095662	-0.00052390073
218	0xb9db3da2	-0.00041816855
219	0xb9cfc37e	-0.0003962777
220	0xb9bdaa83	-0.0003617593
221	0xb9dae824	-0.00041753158
222	0xb9fc8f2b	-0.00048171854
223	0xb9e33811	-0.00043338587
224	0xb9c61a5a	-0.00037785136
225	0xb9a06927	-0.00030595923
226	0xb9848f31	-0.00025283688
227	0xba35bc04	-0.00069326186
228	0xba25554d	-0.00063069613
229	0xb9d84f30	-0.0004125773
230	0xb9dcba31	-0.00042100393
231	0xba05ce23	-0.0005104264
232	0xba1109df	-0.0005532782
233	0xb9f8ab58	-0.00047429907
234	0xb9a5ff75	-0.00031661583
235	0xba009a0d	-0.0004905768
236	0xba02cd17	-0.0004989667
237	0xb9e4dd8d	-0.00043652617
238	0xb9dd8170	-0.00042248843
239	0xba1a9857	-0.0005897334
240	0xb9c3f510	-0.00037375884
241	0xb9c3b1d6	-0.00037325796
242	0xba0af137	-0.0005300226
243	0xb9bac74e	-0.00035625178
244	0xb9eb5199	-0.00044883488
245	0xb9fd5d37	-0.0004832537
246	0xba20bdc3	-0.00061317923
247	0xb9e72b63	-0.0004409208
248	0xba0fafb8	-0.0005481201
249	0xb9fff2a6	-0.00048818177
250	0xb9a18e18	-0.0003081418
251	0xb9e3032b	-0.00043299174
252	0xb995b9ba	-0.00028557872
253	0xba12b019	-0.00055956986
254	0xba34e290	-0.00069002155
255	0xba230da1	-0.00062199874
