GolfFeedback-poc/src/s3_NAM_model/output/dtl_BS/0/checkpoints/epoch=497-val_loss=6.5956.ckpt (torch, 411921 bytes, 150 tensors)

model.feature_nns.0.model.0.weights f4 [1, 46]
0.03608848 0.029627802 0.028580563 0.030156223 0.03249955 0.033834923 0.02401802 0.033902597
0.025166094 0.038853344 0.037967898 0.033126153 0.026783552 0.03902139 0.028440394 0.025365494
0.020961538 0.038008086 0.031354733 0.031050853 0.030520562 0.03379351 0.032042217 0.03912515
0.022799456 0.038366843 0.030295163 0.036038328 0.02288589 0.029286284 0.037215114 0.021898033
0.014998507 0.02970414 0.037881352 0.024013905 0.024722416 0.038175065 0.03703347 0.037731234
0.036632985 0.03335776 0.01993023 0.035172768 0.034357335 0.038620286
00000000: 84d1 133d 01b6 f23c c921 ea3c 2f0a f73c
00000010: 401e 053d 7d96 0a3d 70c1 c43c 73dd 0a3d
00000020: 2029 ce3c af24 1f3d 3a84 1b3d 4aaf 073d
00000030: 2e69 db3c e5d4 1f3d d4fb e83c 4ccb cf3c
00000040: 88b7 ab3c 5eae 1b3d d26d 003d 5c5e fe3c
00000050: 4206 fa3c 106b 0a3d b33e 033d b141 203d
00000060: edc5 ba3c 8d26 1d3d 902d f83c ed9c 133d
00000070: 317b bb3c cae9 ef3c e06e 183d 8163 b33c
00000080: 4cbc 753c 1956 f33c 7a29 1b3d cfb8 c43c
00000090: aa86 ca3c 755d 1c3d 68b0 173d 118c 1a3d
000000a0: 780c 163d 26a2 083d b944 a33c 5211 103d
000000b0: 47ba 0c3d 4e30 1e3d

model.feature_nns.0.model.1.weight f4 [1, 46]
-0.0012815536 -0.0014586564 0.0024767797 -0.0007367752 0.0020025526 -0.0011455893 0.00069726433 0.00025358878
-0.0014986525 -0.0015653777 -0.00044459887 -0.0007258697 0.0026130655 0.0031892927 -0.0016351795 -0.0018921456
0.0007857449 -0.001146595 -0.00061602966 -0.0013351626 -1.9884099e-05 -0.0008244183 -0.00071072986 -0.0024018914
0.00063912076 0.0036445232 -0.0006009468 0.0009943409 -0.0027328415 -0.00024286214 0.003112143 -0.0010606125
-0.0012982514 -0.0020808387 -0.0010393808 -0.002820595 0.00072473066 -0.003439836 -0.0015505832 0.0020871973
0.0026536179 -0.0040204013 0.0003748754 0.0017928272 -0.0019919246 0.0021265163
00000000: cef9 a7ba 6330 bfba 7851 223b 2624 41ba
00000010: 423d 033b 9927 96ba 9ec8 363a 1cf4 8439
00000020: 6f6e c4ba 5c2d cdba 0d19 e9b9 4a48 3eba
00000030: f73f 2b3b 7403 513b 8553 d6ba df01 f8ba
00000040: 73fa 4d3a 5849 96ba 0d7d 21ba 9f00 afba
00000050: c7cc a6b7 c71d 58ba 4650 3aba 0d69 1dbb
00000060: ab8a 273a f4d8 6e3b db88 1dba 8b54 823a
00000070: 7919 33bb cfa8 7eb9 18f5 4b3b 4004 8bba
00000080: 172a aaba ae5e 08bb d53b 88ba bbd9 38bb
00000090: dafb 3d3a df6e 61bb f03c cbba 5cc9 083b
000000a0: 52e8 2d3b 92bd 83bb ed8a c439 4cfd ea3a
000000b0: f38a 02bb 065d 0b3b

model.feature_nns.1.model.0.weights f4 [1, 1000]
0.037115924 0.038781464 0.03074594 0.03782627 0.03874758 0.035186175 0.014989964 0.013268949
0.029299553 0.036122054 0.03734631 0.035670366 0.01823286 0.031807583 0.036886584 0.035882264
0.034619264 0.03838791 0.022632055 0.03350682 0.025295433 0.01370914 0.029504282 0.029340284
0.037417732 0.021682683 0.034833536 0.027280642 0.028188346 0.020186478 0.036370855 0.035135373
0.03210064 0.016793303 0.03843683 0.032399118 0.02023506 0.037764404 0.013591578 0.035853025
0.03710935 0.03683532 0.03842545 0.025773255 0.015652573 0.038183417 0.035197318 0.036168315
0.03615707 0.027680214 0.037086807 0.035235014 0.035576005 0.027337637 0.024976635 0.031837627
0.02073656 0.032350108 0.033836048 0.026085785 0.031802215 0.036931157 0.020755017 0.035321813
0.037862852 0.03705791 0.025193319 0.035117734 0.033688825 0.030785436 0.035771515 0.034482177
0.026521577 0.0380343 0.029126182 0.03621493 0.036306918 0.037124224 0.031232102 0.028774882
0.036742285 0.038509764 0.02483892 0.03136834 0.03820721 0.034930654 0.03654586 0.031595554
0.036799263 0.03466356 0.023934796 0.03841285 0.018264437 0.03748772 0.025841258 0.03863065
0.03606537 0.038756438 0.038382657 0.034433506 0.038427465 0.025747253 0.02534865 0.020818705
0.026984848 0.036858298 0.03674525 0.018330174 0.02225982 0.03754491 0.038763747 0.037066884
0.034685466 0.030133436 0.034371246 0.037528936 0.021805126 0.029464966 0.034126207 0.013459634
0.033175915 0.034529757 0.035418574 0.028437786 0.037153397 0.017135208 0.012712477 0.034720324
0.037009507 0.033429913 0.037786502 0.0367155 0.037203245 0.032041732 0.037555568 0.02328342
0.027607603 0.028727079 0.037151832 0.03838805 0.027532166 0.03727938 0.02767388 0.035234984
0.037941933 0.03522826 0.03292404 0.03334026 0.032932322 0.015593526 0.034656603 0.033613116
0.038991883 0.023824077 0.03862745 0.03857898 0.019148985 0.0317403 0.036205728 0.03637992
0.029485362 0.025636327 0.028841913 0.030104633 0.03594921 0.032740477 0.036128595 0.032087997
0.034970876 0.036235712 0.021849139 0.0292332 0.01260458 0.02993252 0.02416812 0.0102092745
0.038466338 0.029363494 0.033420872 0.026365913 0.03381128 0.017356003 0.031678777 0.03212843
0.034583814 0.03385933 0.037259653 0.033420846 0.029213289 0.03873459 0.031779185 0.03855012
0.02325814 0.027267773 0.02148161 0.026335603 0.033737905 0.037874658 0.023890778 0.03546398
0.037564304 0.03888512 0.035681617 0.029464222 0.020580618 0.034429282 0.03684721 0.034023613
0.036367472 0.038423244 0.032418676 0.025523342 0.03210373 0.030612685 0.03703136 0.036480695
0.033183586 0.036735334 0.0064029875 0.025395375 0.033707388 0.035052206 0.038094334 0.034008954
0.026591856 0.031563446 0.025264898 0.028532987 0.030361643 0.037018154 0.038902886 0.03495514
0.02401287 0.018054014 0.029345877 0.022879949 0.025288872 0.020127293 0.034580287 0.034095317
0.032457013 0.033844214 0.034446124 0.035205606 0.034141816 0.03158719 0.032942433 0.018318707
0.024309803 0.027070727 0.03773317 0.03808342 0.024164433 0.03621792 0.032670584 0.035212025
00000000: de06 183d 50d9 1e3d e9de fb3c b8ef 1a3d
00000010: c8b5 1e3d 611f 103d 7798 753c 0266 593c
00000020: 9e05 f03c b8f4 133d 72f8 183d 171b 123d
00000030: 145d 953c ab48 023d 6316 173d 48f9 123d
00000040: eecc 0d3d a43c 1d3d dc66 b93c 733e 093d
00000050: 5e38 cf3c 4d9c 603c f7b2 f13c 095b f03c
00000060: 5643 193d e29f b13c 9cad 0e3d a77b df3c
00000070: 3feb e63c 1d5e a53c 9bf9 143d 1cea 0f3d
00000080: f67b 033d 1c92 893c f06f 1d3d f0b4 043d
00000090: ffc3 a53c d9ae 1a3d 36af 5e3c 9fda 123d
000000a0: f9ff 173d a2e0 163d 0164 1d3d 6f22 d33c
000000b0: d339 803c 3766 1c3d 102b 103d 3a25 143d
000000c0: 7019 143d 9ec1 e23c 56e8 173d 9752 103d
000000d0: 25b8 113d 2ef3 df3c cd9b cc3c 2c68 023d
000000e0: b8df a93c 8c81 043d ab97 0a3d dbb1 d53c
000000f0: 0a43 023d 2045 173d 6d06 aa3c 9bad 103d
00000100: 1416 1b3d 09ca 173d 3862 ce3c 9dd7 0f3d
00000110: 4bfd 093d bd31 fc3c 2785 123d 2f3d 0d3d
00000120: c743 d93c dbc9 1b3d 089a ee3c 1b56 143d
00000130: 90b6 143d 920f 183d 77da ff3c 4db9 eb3c
00000140: 147f 163d 6abc 1d3d fe7a cb3c 177c 003d
00000150: 2a7f 1c3d 7213 0f3d 1db1 153d 576a 013d
00000160: d3ba 163d 61fb 0d3d e812 c43c cb56 1d3d
00000170: 4d9f 953c b98c 193d 0cb1 d33c 2c3b 1e3d
00000180: 48b9 133d 12bf 1e3d 2237 1d3d 260a 0d3d
00000190: 1e66 1d3d e7eb d23c f9a7 cf3c fd8b aa3c
000001a0: 540f dd3c baf8 163d 3082 163d 2929 963c
000001b0: 3a5a b63c b1c8 193d bcc6 1e3d 72d3 173d
000001c0: 5912 0e3d 65da f63c ddc8 0c3d f1b7 193d
000001d0: aaa0 b23c 8360 f13c ecc7 0b3d cc85 5c3c
000001e0: 78e3 073d 136f 0d3d 1113 113d 5cf6 e83c
000001f0: 292e 183d 235f 8c3c fe47 503c e636 0e3d
00000200: 4897 173d ceed 083d 05c6 1a3d fe62 163d
00000210: 6e62 183d 313e 033d ded3 193d dfbc be3c
00000220: 5729 e23c 0d55 eb3c 852c 183d ca3c 1d3d
00000230: 238b e13c 43b2 183d 55b4 e23c 8f52 103d
00000240: 0069 1b3d 824b 103d 5cdb 063d cc8f 083d
00000250: 0be4 063d fd7b 7f3c 15f4 0d3d e8ad 093d
00000260: f4b5 1f3d b62a c33c d137 1e3d fe04 1e3d
00000270: 55de 9c3c 1e02 023d 754c 143d 1c03 153d
00000280: 498b f13c 4603 d23c e045 ec3c fe9d f63c
00000290: 7b3f 133d e11a 063d 94fb 133d b46e 033d
000002a0: 9f3d 0f3d e66b 143d f7fc b23c 777a ef3c
000002b0: 7183 4e3c 0b35 f53c 39fc c53c cd44 273c
000002c0: e18e 1d3d b68b f03c 53e4 083d 54fd d73c
000002d0: b27d 0a3d 2d2e 8e3c 9bc1 013d 1a99 033d
000002e0: c2a7 0d3d 15b0 0a3d 949d 183d 4ce4 083d
000002f0: b550 ef3c 29a8 1e3d e42a 023d bbe6 1d3d
00000300: db87 be3c aa60 df3c 34fa af3c c3bd d73c
00000310: c230 0a3d 7522 1b3d 98b6 c33c ae42 113d
00000320: 07dd 193d 0146 1f3d e326 123d f45e f13c
00000330: af98 a83c b805 0d3d 1aed 163d 585c 0b3d
00000340: 0ff6 143d b161 1d3d 72c9 043d 5416 d13c
00000350: 337f 033d 74c7 fa3c 32ae 173d c86c 153d
00000360: 83eb 073d ca77 163d 27d0 d13b f609 d03c
00000370: c210 0a3d e792 0f3d ce08 1c3d f94c 0b3d
00000380: 2ad7 d93c ac48 013d 55f8 ce3c 03be e93c
00000390: fbb8 f83c 59a0 173d a258 1f3d 1f2d 0f3d
000003a0: a3b6 c43c 03e6 933c c466 f03c bb6e bb3c
000003b0: 9c2a cf3c fee1 a43c 0fa4 0d3d 88a7 0b3d
000003c0: a5f1 043d 3ba0 0a3d 6117 0d3d c133 103d
000003d0: 4ad8 0b3d 9261 013d a5ee 063d 1d11 963c
000003e0: 5a25 c73c 6ec3 dd3c 198e 1a3d 5cfd 1b3d
000003f0: 7df4 c53c 3e59 143d 97d1 053d 7c3a 103d

model.feature_nns.1.model.1.weight f4 [1, 1000]
0.0021888316 8.926422e-05 0.0027412747 0.00029046123 -0.0017054594 -0.00093259895 -0.0010049593 -0.00041655646
-5.1393083e-05 -0.00033482251 0.001293837 0.0015553734 -0.0023144342 0.00073700945 0.00033013074 -0.0003412802
-0.0013371487 -0.0015001906 0.00026828478 -0.0006918227 -0.0012027194 -0.00012612312 0.0007805602 -0.00010358889
0.0028529982 0.0007515666 0.0016247573 -0.0021615464 -0.0009948773 -0.0016066756 0.0011002586 -0.0026878961
0.0024106763 -0.0008800354 -0.0013551418 0.00093691854 0.0005956519 0.0006211583 -0.0009750747 -0.0014412466
0.00035308616 0.00088970014 0.00088771706 -4.529053e-05 -0.00044483293 0.00017010132 0.0007831684 -0.0016041762
0.00067305565 -0.001156532 -0.0001989313 0.00087744714 0.00044618963 0.0013596987 -0.0017151684 0.00026767422
0.0028961715 -0.0028164475 0.0012051245 0.0004093243 -0.001258695 0.0017352559 0.0012817993 -0.001611242
-0.0019866433 0.0014018727 -0.0012604672 -0.0006408144 0.0017329606 0.00029963648 0.00096022227 0.0008903145
0.0013038642 0.0010484848 0.00095956394 -7.589524e-05 0.00073124305 -0.0010592493 0.0007703003 -0.0015855143
0.0012157649 -0.0014299331 -0.0018610493 -0.0012457571 0.00052509474 0.0007674711 -0.0015134151 9.58409e-05
-0.0021932018 -0.002420675 -0.0022525857 0.0013278985 -0.0015955479 0.0008603893 0.002395139 -5.0900697e-05
0.00016063095 -0.0005825589 0.0017108041 0.00035822694 -0.00019946019 0.0018310504 -0.0017026021 0.00047468668
0.0013131731 0.00074936415 0.0013946852 0.00093831954 -0.0014718123 0.0009641015 -0.0010115117 -0.00090245315
-0.00090193516 -0.0013600086 -0.00037574396 0.0008697278 0.0013500092 0.00084476115 0.00036244502 0.0006011415
-0.00067991874 -0.0010984003 0.0005977786 0.000903431 -0.0017973081 -0.001269115 -8.850904e-05 0.0018968211
0.00082060543 0.0017949878 0.0007915042 0.0017740631 0.0005324778 -0.0004865563 -0.00030766934 -0.00046142514
-0.000505558 0.00017873893 -0.0017703001 0.0003394986 -0.00013915126 0.0023961684 0.000760591 -0.00038037292
0.000932656 0.0019584373 -0.0010067897 0.00080898165 -0.001422517 -0.0014620866 -0.0016308182 2.1100493e-06
-0.0023114232 -0.0023359791 0.00022959801 -0.0012609513 -0.0002336828 -0.00059316907 0.0015076675 -0.0009683035
0.0012925848 0.0005797774 0.0003678704 0.0020866361 -0.00057813496 -0.00039042538 -0.0022511084 -0.00029057843
0.001921613 0.0013059691 -0.00061221415 0.0024591284 0.0009926105 0.0013235571 0.0014365963 0.00055979413
-0.0017499976 0.0026160418 -0.0012480475 -0.0020604029 0.0022358838 0.00015389222 0.002185619 0.00042271538
0.0009792759 -0.0023939942 -0.00065896614 0.0012233659 -0.001481487 -0.0009581555 0.0021913263 0.0013604525
-0.0011783362 -0.0012054244 0.0013217472 0.0018004526 -0.0005024606 -0.00088351313 -0.0010849069 -0.0012018458
0.001508168 0.0006952892 0.0010723437 0.0020453057 0.0007997887 0.00052260666 -0.002163148 0.0025684931
0.0005434612 -0.0012766316 0.0013118364 0.0027245278 0.0018652764 0.00030832234 0.0018825777 -8.296945e-05
4.1760326e-05 0.0005376742 -0.0013429374 0.00021799591 -0.00038844513 0.0006053304 0.0018797303 -0.00038575885
-0.0012656677 -0.00010532088 3.5588746e-05 0.00049464917 0.00026071872 -0.001686533 -0.0019502153 0.000842767
-0.0029623818 7.332139e-05 0.00027021958 -0.0021416207 0.00065623823 0.0019002672 -2.366731e-05 -0.002889396
-0.0013937056 -0.0013816102 -0.0008091043 -9.300136e-05 -0.001573519 -0.0010212595 -0.0001967086 0.0004753508
-0.00047648934 4.1868454e-05 -0.0006764195 -0.0006144011 -0.0012890738 -0.0016168541 0.0014768334 -0.0004049963
00000000: 8072 0f3b 5d33 bb38 f5a6 333b 0c49 9839
00000010: b989 dfba a879 74ba d7b8 83ba 4365 dab9
00000020: e78e 57b8 1e8b afb9 f795 a93a acdd cb3a
00000030: c3ad 17bb de33 413a 6615 ad39 daed b2b9
00000040: 4443 afba 0ba2 c4ba 93a8 8c39 6f5b 35ba
00000050: 91a4 9dba eb3f 04b9 829e 4c3a dd3d d9b8
00000060: 5ef9 3a3b c804 453a cff5 d43a bba8 0dbb
00000070: 8b66 82ba 1697 d2ba 8d36 903a 6a27 30bb
00000080: 70fc 1d3b 2db2 66ba 039f b1ba 8a9b 753a
00000090: 8625 1c3a 3ad5 223a 289c 7fba 36e8 bcba
000000a0: 6c1e b939 c43a 693a afb5 683a 56f6 3db8
000000b0: 7738 e9b9 3a5d 3239 8b4d 4d3a 3943 d2ba
000000c0: 0070 303a c696 97ba 3798 50b9 7b04 663a
000000d0: 8fee e939 eb37 b23a 80cf e0ba a056 8c39
000000e0: b2cd 3d3b 2694 38bb 45f5 9d3a 949a d639
000000f0: ccfa a4ba 8771 e33a 0c02 a83a 4f30 d3ba
00000100: 5832 02bb 0bbf b73a 4336 a5ba 54fc 27ba
00000110: 8224 e33a 8718 9d39 6db7 7b3a ff63 693a
00000120: 6ce6 aa3a 506d 893a 3f8b 7b3a f229 9fb8
00000130: e4b0 3f3a 82d6 8aba faed 493a 08d1 cfba
00000140: 4d5a 9f3a 986c bbba 74ee f3ba ac48 a3ba
00000150: 83a6 093a 1d30 493a c95d c6ba 31fe c838
00000160: d2bb 0fbb 30a4 1ebb 1ea0 13bb e10c ae3a
00000170: b421 d1ba c08b 613a c4f7 1c3b 357e 55b8
00000180: 0b6f 2839 deb6 18ba 0f3d e03a 68d0 bb39
00000190: 3026 51b9 dbff ef3a d929 dfba 5edf f839
000001a0: c71e ac3a fa70 443a dfcd b63a 8ff9 753a
000001b0: d3e9 c0ba c2bb 7c3a b394 84ba 9b92 6cba
000001c0: d86f 6cba 5142 b2ba 80ff c4b9 72fe 633a
000001d0: cbf2 b03a f672 5d3a 8c06 be39 ec95 1d3a
000001e0: 933c 32ba 33f8 8fba 3eb4 1c3a 3ad4 6c3a
000001f0: a793 ebba 6f58 a6ba ee9d b9b8 c19e f83a
00000200: e61d 573a cc45 eb3a f37c 4f3a ae87 e83a
00000210: fb95 0b3a 7b18 ffb9 ae4e a1b9 6feb f1b9
00000220: 6c87 04ba de6b 3b39 6a09 e8ba bbfe b139
00000230: 22e9 11b9 0909 1d3b 6662 473a ca6c c7b9
00000240: 7c7d 743a 2059 003b 42f6 83ba d711 543a
00000250: c073 baba 7ca3 bfba 2ec1 d5ba 5f9a 0d36
00000260: 3f7b 17bb 3a17 19bb 3fc0 7039 8146 a5ba
00000270: c008 75b9 e77e 1bba ed9c c53a bfd5 7dba
00000280: f36b a93a 34fc 173a bbde c039 f2bf 083b
00000290: fb8d 17ba 02b2 ccb9 5587 13bb c758 98b9
000002a0: a2de fb3a 0d2d ab3a ff7c 20ba 5429 213b
000002b0: 7b1a 823a 357b ad3a 2c4c bc3a 26bf 123a
000002c0: 2d60 e5ba e671 2b3b 8695 a3ba d307 07bb
000002d0: e887 123b 215e 2139 9a3c 0f3b e69f dd39
000002e0: 0c5b 803a 8fe4 1cbb 78be 2cba 5959 a03a
000002f0: 742e c2ba ba2c 7bba 5b9c 0f3b 3651 b23a
00000300: 6772 9aba 55ff 9dba 7a3e ad3a 2afd eb3a
00000310: 8fb7 03ba 909b 67ba 6f33 8eba 4187 9dba
00000320: b8ad c53a 1244 363a e28d 8c3a 890a 063b
00000330: e9a8 513a 8aff 083a 9ac3 0dbb 2a54 283b
00000340: 1077 0e3a a654 a7ba edf1 ab3a fe8d 323b
00000350: 4a7c f43a 53a6 a139 d3c0 f63a e2ff adb8
00000360: cf27 2f38 b4f2 0c3a 8005 b0ba d595 6439
00000370: 39a8 cbb9 09af 1e3a 4861 f63a ad3f cab9
00000380: c3e4 a5ba b8df dcb8 2045 1538 58ab 013a
00000390: 13b1 8839 a80e ddba 5e9e ffba 23ed 5c3a
000003a0: 8524 42bb 1fc4 9938 42ac 8d39 6f5a 0cbb
000003b0: 6707 2c3a 6312 f93a 2989 c6b7 055c 3dbb
000003c0: 00ad b6ba 2517 b5ba 121a 54ba ba09 c3b8
000003d0: 893e ceba c8db 85ba 9043 4eb9 8138 f939
000003e0: 51d1 f9b9 e99b 2f38 bf51 31ba c30f 21ba
000003f0: 24f6 a8ba 9fec d3ba 4e92 c13a af55 d4b9

model.feature_nns.2.model.0.weights f4 [1, 104]
0.036406282 0.026645558 0.038175292 0.004703384 0.034027405 0.023890397 0.036473226 0.029310066
0.03700391 0.033216253 0.032947816 0.023809168 0.031662177 0.029920505 0.037764642 0.017993232
0.025240298 0.0388292 0.024603412 0.03718014 0.02699058 0.033415273 0.0366557 0.030140322
0.038304903 0.037102334 0.036786366 0.037323993 0.03765032 0.010370849 0.024134666 0.025514783
0.037777804 0.034553315 0.038665503 0.031788558 0.037023935 0.032660097 0.032817833 0.026162442
0.03208664 0.03517642 0.031917512 0.034776215 0.034832325 0.036044113 0.030290667 0.034572355
0.025488352 0.039127406 0.026263125 0.033861693 0.036426034 0.032699868 0.03855637 0.03471729
0.030567821 0.02628571 0.029297343 0.028683372 0.01476706 0.018452909 0.028878352 0.012905598
0.03234333 0.019322181 0.027108202 0.013862836 0.036788117 0.03436918 0.035782773 0.0373108
0.037108924 0.0366993 0.02718438 0.030265495 0.026554419 0.034095164 0.030358223 0.038332567
0.024209473 0.031118616 0.03867242 0.038181487 0.027545756 0.011604609 0.03387532 0.037817582
0.03406802 0.023288492 0.032003593 0.033410132 0.03773294 0.03804684 0.03092208 0.037190534
0.03766524 0.036631476 0.03526815 0.037980687 0.03704008 0.030458368 0.012922265 0.03837569
00000000: c11e 153d c947 da3c b25d 1c3d d81e 9a3b
00000010: 5260 0b3d cbb5 c33c f364 153d aa1b f03c
00000020: 6991 173d c40d 083d 4af4 063d 720b c33c
00000030: 33b0 013d d91b f53c 19af 1a3d 8b66 933c
00000040: bec4 ce3c 5e0b 1f3d 188d c93c 344a 183d
00000050: 591b dd3c 74de 083d 4a24 163d d6e8 f63c
00000060: 9ae5 1c3d 9ef8 173d 4dad 163d 0be1 183d
00000070: 3937 1a3d 7eea 293c 10b6 c53c 6104 d13c
00000080: e6bc 1a3d c787 0d3d b85f 1e3d b834 023d
00000090: 69a6 173d 98c6 053d fe6b 063d 9e52 d63c
000000a0: 486d 033d 2615 103d f0bb 023d 8171 0e3d
000000b0: 57ac 0e3d fea2 133d 2224 f83c be9b 0d3d
000000c0: f3cc d03c 0f44 203d c425 d73c 8fb2 0a3d
000000d0: 7733 153d 4cf0 053d 49ed 1d3d b833 0e3d
000000e0: 5e69 fa3c 2155 d73c fb00 f03c 64f9 ea3c
000000f0: 8af1 713c 8e2a 973c 4b92 ec3c 0072 533c
00000100: 717a 043d 8d49 9e3c 0512 de3c f320 633c
00000110: 23af 163d b3c6 0c3d f590 123d 36d3 183d
00000120: 87ff 173d 0152 163d c7b1 de3c 58ef f73c
00000130: a788 d93c 5fa7 0b3d cfb1 f83c 9c02 1d3d
00000140: f252 c63c 78ec fe3c f966 1e3d 3164 1c3d
00000150: a3a7 e13c 4221 3e3c d9c0 0a3d 9ce6 1a3d
00000160: e88a 0b3d 82c7 be3c 3316 033d 10d9 083d
00000170: db8d 1a3d 01d7 1b3d 4d50 fd3c 1a55 183d
00000180: de46 1a3d e30a 163d 5675 103d a391 1b3d
00000190: 57b7 173d d483 f93c e8b7 533c d42f 1d3d

model.feature_nns.2.model.1.weight f4 [1, 104]
0.0019151006 0.0031603493 0.0012339951 -0.008689803 0.0029592628 -0.002333105 -0.0073416624 -0.0023795713
0.0016282594 0.0026258202 0.00063463737 0.0022635884 -0.0035376116 -0.006334656 0.007521439 -0.0021663452
-0.0025013522 -0.00043753226 -0.00096273056 -0.004041074 0.0001737534 0.0040726005 0.0019038296 -0.00054129184
-0.005467475 -0.0025173177 -0.005593451 -0.002528656 -0.003605941 -0.0034805674 -0.005263467 -0.0022903203
-0.002460408 -0.0052974336 0.0008981283 0.0021856762 -0.00066639716 -0.0026587883 -0.0038834997 0.00078424095
-0.0033515706 -0.0035271489 -0.0016237028 -0.0056963293 -0.0014214527 -0.0042052735 -0.0030285574 0.0034621735
0.0019060916 0.0044259517 -0.005771618 0.0043603047 -0.005062344 -0.0011118622 -0.008137465 0.005176242
-0.0057540294 0.0014030649 0.0028047834 -0.0044694715 -0.004264344 -0.00450492 0.0012513951 -0.00040335872
0.00508857 -0.0024244252 8.669845e-05 0.0018712103 -0.0028418156 0.0008095461 -0.002493675 -0.004143019
0.00043504697 0.0048362417 0.0009058765 0.0038642068 -0.00024987204 0.00012013804 -0.0034067356 -0.0036428093
0.0013977572 0.004727452 -0.0012758287 -0.0075910115 -0.0051436177 0.0008013442 0.0035533838 5.6704554e-05
0.0021640926 0.0045740926 0.0020841574 -0.0025375814 -0.0041409004 -0.0012875348 -0.00177317 -0.0011744944
0.00091358536 -0.0056571765 0.002704585 -0.0009960941 -0.0045577995 0.0038608862 -0.0002799743 0.0013097209
00000000: 1d04 fb3a dd1d 4f3b 01be a13a ad5f 0ebc
00000010: 31f0 413b 02e7 18bb 5492 f0bb 95f2 1bbb
00000020: 526b d53a f415 2c3b cb5d 263a b658 143b
00000030: 46d7 67bb f292 cfbb 6776 f63b 3ef9 0dbb
00000040: baed 23bb 9664 e5b9 c15f 7cba fc6a 84bb
00000050: 9331 3639 7373 853b ec89 f93a 7be5 0dba
00000060: 8128 b3bb 95f9 24bb 4549 b7bb cfb7 25bb
00000070: a751 6cbb 3b1a 64bb 2979 acbb 3319 16bb
00000080: cc3e 21bb 1896 adbb 5f70 6b3a 903d 0f3b
00000090: 28b1 2eba 113f 2ebb 5082 7ebb 8595 4d3a
000000a0: 06a6 5bbb bd27 67bb 6dd2 d4ba 46a8 babb
000000b0: 0a50 baba 64cc 89bb c37a 46bb a2e5 623b
000000c0: d2d5 f93a 9307 913b d71f bdbb e3e0 8e3b
000000d0: 05e2 a5bb e8bb 91ba 0153 05bc 779d a93b
000000e0: 4c8c bcbb 0ce7 b73a 75d0 373b a574 92bb
000000f0: e9bb 8bbb 029e 93bb da05 a43a e479 d3b9
00000100: 05be a63b 1be3 1ebb e0d1 b538 6643 f53a
00000110: c13d 3abb b837 543a ed6c 23bb 2ac2 87bb
00000120: 0417 e439 5679 9e3b 5878 6d3a a23e 7d3b
00000130: 4201 83b9 9ef2 fb38 8a43 5fbb 33bc 6ebb
00000140: f334 b73a bee8 9a3b b539 a7ba 05be f8bb
00000150: cb8b a8bb 4d11 523a e3df 683b 0dd6 6d38
00000160: 73d3 0d3b 45e2 953b 5c96 083b 8d4d 26bb
00000170: 64b0 87bb 80c2 a8ba b669 e8ba 7ef1 99ba
00000180: ad7d 6f3a d65f b9bb 683f 313b 5f8f 82ba
00000190: 9859 95bb ec06 7d3b 84c9 92b9 f1aa ab3a

model.feature_nns.3.model.0.weights f4 [1, 78]
0.038530547 0.039022498 0.034230903 0.036970235 0.03884493 0.0365548 0.038029883 0.03340583
0.036040053 0.03352156 0.030687721 0.03639267 0.02570058 0.0285504 0.020327402 0.03029963
0.037188813 0.02787588 0.037674233 0.031988706 0.03210277 0.01816458 0.03029176 0.02504673
0.037479714 0.019712925 0.02597909 0.035205245 0.03601744 0.03778399 0.037885368 0.037290003
0.036319677 0.009734951 0.029983066 0.032787316 0.036488835 0.036210705 0.038007457 0.035770707
0.03609868 0.035653677 0.014712405 0.032911517 0.035082784 0.036466237 0.017778242 0.03429673
0.03270735 0.01863254 0.027253857 0.03743912 0.024386466 0.017451705 0.038319565 0.034197252
0.038266428 0.020781746 0.022351665 0.031229822 0.033400908 0.038526937 0.026045159 0.03205171
0.03695019 0.03709397 0.020842772 0.034476954 0.037554365 0.037985116 0.02767865 0.035489514
0.022144595 0.03640937 0.03677112 0.02842484 0.028469417 0.019974455
00000000: 35d2 1d3d 0ed6 1f3d b435 0c3d 1a6e 173d
00000010: dc1b 1f3d 7cba 153d 39c5 1b3d 8dd4 083d
00000020: bc9e 133d e74d 093d d164 fb3c 7b10 153d
00000030: 068a d23c 87e2 e93c a785 a63c ee36 f83c
00000040: 4c53 183d f55b e43c 4c50 1a3d 9706 033d
00000050: 327e 033d e3cd 943c 6d26 f83c cd2e cd3c
00000060: 5484 193d 007d a13c 1ad2 d43c 6033 103d
00000070: 0687 133d 63c3 1a3d b02d 1b3d 67bd 183d
00000080: f1c3 143d 587f 1f3c 0c9f f53c fe4b 063d
00000090: 5175 153d ad51 143d b5ad 1b3d 4e84 123d
000000a0: 36dc 133d 9709 123d 4d0c 713c 3ace 063d
000000b0: f7b2 0f3d 9f5d 153d ada3 913c ba7a 0c3d
000000c0: 24f8 053d 45a3 983c 7b43 df3c c359 193d
000000d0: 20c6 c73c e1f6 8e3c faf4 1c3d 6b12 0c3d
000000e0: 42bd 1c3d 7b3e aa3c d71a b73c afd5 ff3c
000000f0: 64cf 083d 6cce 1d3d a85c d53c a748 033d
00000100: 1559 173d d9ef 173d 76be aa3c b537 0d3d
00000110: 9bd2 193d 4896 1b3d 56be e23c 745d 113d
00000120: 9568 b53c fe21 153d 509d 163d 36db e83c
00000130: b238 e93c 78a1 a33c

model.feature_nns.3.model.1.weight f4 [1, 78]
-0.001022413 0.0014244503 0.00059921585 0.00090568536 -0.0003731354 0.0004140428 -0.0014887688 -0.0011790141
0.0005128347 -0.0011086933 -0.00018345496 0.0015389655 -8.71626e-05 -0.0007913853 0.0010788833 0.00034204317
0.0008974832 -2.1443986e-05 8.921749e-05 -0.0006864618 0.0011476756 -0.001868472 -0.001298005 -0.0011231317
0.00051510223 -0.0013638677 0.00051770295 -0.00085717975 0.0014611845 0.0001145282 0.00045823553 -0.00027237667
0.00080905174 0.0017821906 0.0010421682 0.0015549394 -0.00031739502 0.00033686153 -0.0013813262 -0.00061074423
0.00088180247 -0.0011333764 0.00030500267 0.00012685753 0.0006217699 0.0004761584 -0.0011300615 0.0014356754
0.0012495705 -0.00064849824 -0.00072767976 0.0023071228 0.0011426907 0.00076123956 -0.00079688476 -0.0005892119
0.0010496961 7.1303875e-05 0.00023346943 -0.0012115758 -0.001840452 0.0004567507 -0.0011988556 0.00081021327
1.1592239e-05 -0.000809869 0.0006652083 0.00024115489 -0.00038148725 0.000966732 -0.00018797047 -0.00076648465
-0.0009567974 0.0011882414 0.0015362172 -0.0005643934 -0.0007133585 0.0005716612
00000000: 7d02 86ba 9fb4 ba3a b214 1d3a 846b 6d3a
00000010: 63a1 c3b9 e213 d939 cb22 c3ba 2689 9aba
00000020: c16f 063a 9351 91ba d15d 40b9 1db7 c93a
00000030: 11cb b6b8 f874 4fba 5169 8d3a 4254 b339
00000040: 1445 6b3a 9ce2 b3b7 461a bb38 acf3 33ba
00000050: 9a6d 963a 84e7 f4ba d221 aaba 0c36 93ba
00000060: ed07 073a cec3 b2ba 75b6 073a 5cb4 60ba
00000070: 3785 bf3a dc2e f038 553f f039 c7cd 8eb9
00000080: 8b16 543a 6598 e93a 5d99 883a 1ccf cb3a
00000090: 0a68 a6b9 ca9c b039 9e0d b5ba 5a1a 20ba
000000a0: c328 673a cd8d 94ba c4e8 9f39 0f05 0539
000000b0: 46fe 223a e6a4 f939 921e 94ba 462d bc3a
000000c0: a1c8 a33a fbff 29ba c3c1 3eba 1933 173b
000000d0: 56c6 953a ec8d 473a 08e6 50ba 5775 1aba
000000e0: f595 893a fa88 9538 79cf 7439 bdcd 9eba
000000f0: 523b f1ba 0b78 ef39 eb22 9dba 7e64 543a
00000100: 4a7c 4237 634d 54ba 6061 2e3a 86de 7c39
00000110: 5a02 c8b9 496c 7d3a f019 45b9 eaed 48ba
00000120: 96d1 7aba c4be 9b3a e55a c93a cdf3 13ba
00000130: ae00 3bba 89db 153a

model.feature_nns.4.model.0.weights f4 [1, 182]
0.036987506 0.037061688 0.034609035 0.034967322 0.03866565 0.023744896 0.035164483 0.038198087
0.026608445 0.02609182 0.03296912 0.03851779 0.031943943 0.030385848 0.03799579 0.014396454
0.037075475 0.033532836 0.02409807 0.036935125 0.029466944 0.021421168 0.03894467 0.03518684
0.022373317 0.033477183 0.03737051 0.02720028 0.030685514 0.035844177 0.031809278 0.021672023
0.0221951 0.0372743 0.026718438 0.03156025 0.032049075 0.033065654 0.035057075 0.035924185
0.03590628 0.02203394 0.03686854 0.027539333 0.024170088 0.037976883 0.03559569 0.038309444
0.029511558 0.037344746 0.009535903 0.021704294 0.035953164 0.037680496 0.026834015 0.02817209
0.035741705 0.031813703 0.022752274 0.0378617 0.029968668 0.021005306 0.038163744 0.03766797
0.03735745 0.028810702 0.03560156 0.027659642 0.03244055 0.022836953 0.01525426 0.028677499
0.016928358 0.030359589 0.038798265 0.02660079 0.031833787 0.033055272 0.019998552 0.035916746
0.035851076 0.012356615 0.035889737 0.03554231 0.036746193 0.032639485 0.03830602 0.03219237
0.032713186 0.033221323 0.037783593 0.037028573 0.023410358 0.037137 0.03167396 0.031066537
0.032060485 0.029427817 0.03823453 0.03385972 0.037750088 0.032171436 0.030817356 0.028963901
0.02317435 0.035459872 0.025500022 0.029964874 0.033783842 0.037330262 0.028937213 0.02900999
0.014284026 0.021299371 0.03090514 0.016079877 0.026132178 0.038050257 0.024542283 0.036655687
0.034712818 0.027532505 0.0341601 0.029987667 0.03629684 0.03733858 0.029341282 0.0264757
0.019982222 0.03624221 0.038908157 0.03128157 0.03208689 0.03572736 0.026245903 0.024238827
0.032866616 0.03656863 0.034420535 0.02696974 0.038634766 0.03682527 0.030401418 0.012633706
0.036347304 0.015243634 0.034621555 0.030041566 0.03085695 0.028479755 0.032608345 0.038602296
0.02851566 0.026372738 0.035317633 0.03848108 0.037603006 0.027933849 0.032057427 0.031884994
0.01810911 0.038642846 0.032886546 0.02336326 0.028987808 0.029473873 0.028117407 0.032531887
0.033410937 0.035133664 0.029633934 0.031195331 0.028834585 0.034225076 0.03796484 0.029851181
0.0283135 0.03583439 0.038153354 0.035481032 0.038238186 0.034181353
00000000: 3680 173d ffcd 173d 34c2 0d3d e539 0f3d
00000010: df5f 1e3d a884 c23c a208 103d 9975 1c3d
00000020: f4f9 d93c 83be d53c a10a 073d d5c4 1d3d
00000030: a7d7 023d beeb f83c 79a1 1b3d 1bdf 6b3c
00000040: 74dc 173d ba59 093d 5169 c53c 4949 173d
00000050: a964 f13c 727b af3c 7284 1f3d 1320 103d
00000060: 3f48 b73c 5f1f 093d d211 193d 1fd3 de3c
00000070: 3060 fb3c 58d1 123d 724a 023d 8789 b13c
00000080: 80d2 b53c f0ac 183d a0e0 da3c 5245 013d
00000090: e445 033d da6f 073d 0298 0f3d 3d25 133d
000000a0: 7712 133d 8580 b43c 7703 173d 2b9a e13c
000000b0: 5900 c63c a68d 1b3d c9cc 113d 5dea 1c3d
000000c0: 39c2 f13c cef6 183d 7a3c 1c3c 34cd b13c
000000d0: a043 133d dd56 1a3d 02d3 db3c 28c9 e63c
000000e0: e565 123d 164f 023d fa62 ba3c df14 1b3d
000000f0: da80 f53c 5213 ac3c 9651 1c3d bb49 1a3d
00000100: 2004 193d 6c04 ec3c f1d2 113d 7996 e23c
00000110: 62e0 043d 9014 bb3c 01ed 793c 13ed ea3c
00000120: 57ad 8a3c acb4 f83c eeea 1e3d e6e9 d93c
00000130: 2564 023d f764 073d 01d4 a33c 701d 133d
00000140: 94d8 123d 6673 4a3c 1e01 133d d094 113d
00000150: 2d83 163d fbb0 053d c6e6 1c3d 26dc 033d
00000160: 43fe 053d 1513 083d f8c2 1a3d 46ab 173d
00000170: 14c7 bf3c f81c 183d 8ebc 013d 407f fe3c
00000180: db51 033d 9b12 f13c cf9b 1c3d 7db0 0a3d
00000190: d69f 1a3d 32c6 033d ae74 fc3c b445 ed3c
000001a0: 22d8 bd3c 5f3e 113d 6ce5 d03c e578 f53c
000001b0: ed60 0a3d 9ee7 183d bc0d ed3c 5ca6 ed3c
000001c0: 8c07 6a3c 057c ae3c c72c fd3c f2b9 833c
000001d0: 2613 d63c 96da 1b3d e60c c93c 4624 163d
000001e0: 072f 0e3d d98b e13c 76eb 0b3d b2a8 f53c
000001f0: ffab 143d 57f0 183d 215d f03c 91e3 d83c
00000200: c2b1 a33c b672 143d 295e 1f3d 1b21 003d
00000210: 8b6d 033d da56 123d a601 d73c 8190 c63c
00000220: 259f 063d fdc8 153d 8cfc 0c3d a5ef dc3c
00000230: 7d3f 1e3d 18d6 163d 650c f93c 9bfd 4e3c
00000240: e9e0 143d 6fc0 793c 55cf 0d3d bb19 f63c
00000250: b7c7 fc3c 604e e93c 5490 053d 711d 1e3d
00000260: ac99 e93c a40b d83c 39a9 103d 569e 1d3d
00000270: 9c05 1a3d 87d5 e43c a64e 033d d799 023d
00000280: 8e59 943c f647 1e3d 0bb4 063d 4f64 bf3c
00000290: d777 ed3c 3173 f13c 7a56 e63c 2840 053d
000002a0: e8d9 083d 51e8 0f3d ddc2 f23c 5a8d ff3c
000002b0: 8236 ec3c 982f 0c3d 0581 1b3d 778a f43c
000002c0: b7f1 e73c 15c7 123d b146 1c3d 8f54 113d
000002d0: a59f 1c3d bf01 0c3d

model.feature_nns.4.model.1.weight f4 [1, 182]
0.00041104804 -0.0012541427 0.00035911307 0.0004035303 -0.00057259656 -0.00058550754 0.00072078884 0.00046830726
-0.0012021745 0.0004366031 -6.6502274e-05 -0.0005138831 0.00039965982 0.00025076518 2.5288067e-05 0.00029755526
0.00053454505 0.001006633 -0.00057447114 -0.00014735451 -0.00012947666 0.00033360644 -0.00018829739 -0.00029970892
-0.00016433992 -0.00020946565 0.0006886465 -0.0008283161 -0.0004687274 0.00046880604 0.0006771861 4.024698e-06
-0.00027735956 -0.00016692301 -0.00026968156 0.0001034256 0.0013533646 -1.6636013e-05 0.0006234241 -0.00012299058
-0.00012288452 0.00011206588 2.3007624e-05 0.0004770764 0.00083423586 -0.00032041583 0.00059429393 -4.694187e-05
-1.7526304e-08 -0.00076384563 -2.7193004e-05 -6.655952e-05 0.00024668465 -0.00036722474 0.0002872014 -0.00021050972
0.00034953025 0.00040977652 0.00029781318 0.00062948035 0.0001355298 -0.00092353305 0.0009322213 0.0004175561
0.00026534387 0.00028770274 8.013293e-05 -0.00038406107 -0.00040952384 -0.0007151544 0.00047099616 0.00037382336
0.00066834735 -0.0003186306 0.0004739805 -0.0006352078 0.0006278515 6.892295e-05 -0.0003307133 -0.00019567016
0.00015088113 -0.00053184334 -0.00069603865 -0.0006474344 -0.0004057898 -0.00092170766 0.0006718376 -0.00036569554
0.0010358169 0.0007283635 -0.00056045176 -0.0005832943 0.00041473156 -0.0006569296 -0.0014747389 0.0013324796
0.00087780505 -0.0008579044 0.0006250176 0.0005884849 -0.0006805242 0.0006119628 0.00059961324 0.0006151965
-5.8645215e-05 0.0010974024 -0.0013996869 0.000202267 -0.0004942103 0.0008215205 0.000223881 -0.00024217946
-0.00057960197 -0.0005001034 -0.00066581956 0.00013369913 -0.0010441635 0.00011846031 -0.00060292735 -0.00052402564
0.0011962693 0.00047398958 -0.0009993375 -6.397074e-05 0.0002530984 3.6851146e-05 8.511479e-05 0.00022864505
-0.00075541146 0.00047094037 -4.521355e-05 0.00024858105 -0.00071392185 0.0011869804 -0.00022625894 0.00018540277
0.0006603052 0.00016637711 -0.0010403189 -0.0005479337 0.00051181286 -0.00026652883 0.0020333934 0.00021593065
-0.00054095447 -0.0002442342 -0.0005354543 -0.00039219199 0.0011902887 0.00031188125 0.0012958401 0.00058832415
0.0007647932 0.00039865062 -0.00041638827 -0.00012248877 -0.0007370446 -0.00011986836 -0.0005660215 0.00039985622
0.001614758 0.0011167912 -0.00024185555 0.00016287861 -0.0002049124 5.0721945e-05 0.00024151249 -0.00025976918
4.8125085e-06 -0.00020824578 0.00037074985 0.00014870377 -0.0012179081 -0.00068451243 -7.931681e-05 0.0005653806
-0.0014732417 -0.0001530019 -0.0004741939 -0.00032602128 -0.0010616122 -0.00032162524
00000000: ef81 d739 0c62 a4ba 5747 bc39 ec90 d339
00000010: 4e1a 16ba bf7c 19ba 52f3 3c3a 2387 f539
00000020: 4892 9dba e0e7 e439 2377 8bb8 1cb6 06ba
00000030: 6f89 d139 2279 8339 b621 d437 3101 9c39
00000040: b620 0c3a 00f1 833a 1b98 16ba 2d83 1ab9
00000050: 20c4 07b9 e6e7 ae39 b271 45b9 4022 9db9
00000060: a952 2cb9 02a4 5bb9 4986 343a 5a23 59ba
00000070: 87bf f5b9 15ca f539 3185 313a e40b 8736
00000080: 926a 91b9 0e08 2fb9 0c64 8db9 32e6 d838
00000090: 6163 b13a 918d 8bb7 486d 233a 08f7 00b9
000000a0: 90da 00b9 e904 eb38 7f00 c137 1c20 fa39
000000b0: 9fb0 5a3a 7cfd a7b9 64ca 1b3a 73e3 44b8
000000c0: c08c 96b2 d03c 48ba 881c e4b7 df95 8bb8
000000d0: 7455 8139 1288 c0b9 8593 9639 46bc 5cb9
000000e0: 2841 b739 46d7 d639 cf23 9c39 b603 253a
000000f0: 011d 0e39 4119 72ba 5060 743a 6eeb da39
00000100: da1d 8b39 cfd6 9639 0a0d a838 ce5b c9b9
00000110: 5cb5 d6b9 3379 3bba 09f0 f639 b9fd c339
00000120: 0834 2f3a e00d a7b9 9680 f839 1384 26ba
00000130: 6796 243a ba8a 9038 9663 adb9 cf2c 4db9
00000140: d835 1e39 676b 0bba 5d76 36ba 96b8 29ba
00000150: 2fc0 d4b9 c19e 71ba 421e 303a d3ba bfb9
00000160: 3fc4 873a a6ef 3e3a 48eb 12ba 38e8 18ba
00000170: 5470 d939 cd35 2cba 074c c1ba 99a6 ae3a
00000180: 801c 663a fde4 60ba 39d8 233a 8e44 1a3a
00000190: 3565 32ba 216c 203a 5d2f 1d3a 2345 213a
000001a0: d2f9 75b8 b7d6 8f3a b375 b7ba a217 5439
000001b0: e48d 01ba 4f5b 573a 99c1 6a39 8ef1 7db9
000001c0: 6ef0 17ba 5f19 03ba 658a 2eba 9631 0c39
000001d0: 50dc 88ba e56d f838 c50d 1eba c45e 09ba
000001e0: 23cc 9c3a ce81 f839 34fc 82ba 0828 86b8
000001f0: 4bb2 8439 9e90 1a38 a87f b238 70c0 6f39
00000200: ce06 46ba 8ce8 f639 aea3 3db8 fc53 8239
00000210: 7c26 3bba 7494 9b3a ec3f 6db9 ad68 4239
00000220: 5518 2d3a 8475 2e39 4f5b 88ba 35a3 0fba
00000230: 2e2b 063a e5bc 8bb9 ae42 053b 716b 6239
00000240: d7ce 0dba 8f0c 80b9 bb5d 0cba 1e9f cdb9
00000250: 7603 9c3a fe83 a339 2ed9 a93a c439 1a3a
00000260: 677c 483a fb01 d139 b04e dab9 5470 00b9
00000270: 3a36 41ba d661 fbb8 0f61 14ba cba3 d139
00000280: 4aa6 d33a 4b61 923a 9b9a 7db9 65ca 2a39
00000290: c1dd 56b9 46be 5438 843e 7d39 a131 88b9
000002a0: 227b a136 8d5c 5ab9 3461 c239 5ded 1b39
000002b0: 37a2 9fba da70 33ba e356 a6b8 0d36 143a
000002c0: ca19 c1ba 236f 20b9 3a9d f8b9 d6ed aab9
000002d0: cb25 8bba cf9f a8b9

model.feature_nns.5.model.0.weights f4 [1, 1000]
0.025607742 0.037153117 0.02667966 0.029979277 0.01506342 0.027666127 0.03688758 0.032515895
0.03711561 0.037507817 0.014900838 0.03347496 0.025535215 0.026833348 0.036257893 0.03197113
0.03221402 0.023712816 0.033537094 0.038610823 0.038606822 0.026445143 0.03317077 0.023949536
0.031263374 0.028000053 0.03232108 0.03522281 0.038149495 0.032416433 0.029535003 0.036405522
0.02557469 0.031059548 0.037358813 0.018943258 0.033853162 0.038168453 0.035620697 0.035760872
0.034021743 0.032711867 0.034320496 0.033620194 0.030615875 0.03380518 0.037162554 0.02829366
0.035518534 0.037932124 0.026230374 0.03250427 0.036399547 0.035125718 0.03167007 0.038475122
0.022575047 0.03240853 0.037568677 0.018405078 0.03779595 0.017021444 0.031900216 0.032065473
0.030734375 0.027529111 0.03716463 0.033933237 0.032337546 0.03271151 0.035410866 0.037014015
0.02911474 0.035061613 0.030444361 0.02030077 0.02765146 0.029038968 0.027180187 0.016922629
0.02913422 0.027607767 0.032253675 0.037351258 0.037263073 0.031212008 0.032319963 0.03158384
0.037809685 0.023760991 0.032299493 0.028119553 0.024471456 0.03674373 0.024751883 0.012065816
0.03390684 0.037618924 0.016193805 0.034321435 0.027302114 0.03782272 0.038390644 0.033476077
0.023407869 0.017471375 0.038028162 0.027400525 0.037200052 0.03545164 0.038373165 0.021138996
0.031516638 0.032368295 0.030519709 0.032175045 0.028392347 0.02769687 0.03471611 0.035124324
0.020786019 0.021387516 0.033071034 0.025937874 0.038526498 0.037623346 0.032081563 0.02620837
0.014305995 0.026534947 0.03624246 0.019814178 0.03776481 0.027660081 0.033699546 0.029319849
0.02679352 0.038648468 0.038281675 0.034225933 0.016052661 0.029042795 0.018105041 0.026940336
0.026707832 0.029935021 0.036957115 0.011670859 0.037613127 0.029366555 0.033132225 0.03492881
0.028335555 0.030249521 0.03631768 0.018497445 0.038644455 0.026298245 0.038032927 0.031174645
0.031182116 0.030479638 0.019489244 0.035688814 0.029947676 0.032209326 0.036743194 0.037802625
0.03702587 0.03309648 0.028104058 0.037501197 0.037244625 0.029875206 0.03584558 0.03520926
0.03260376 0.037082285 0.031653717 0.033578854 0.023726476 0.019249067 0.033410635 0.021027163
0.03401086 0.038204905 0.025441168 0.036034975 0.031799156 0.013641613 0.03668639 0.03618173
0.020153187 0.03883217 0.033588406 0.017062068 0.03842685 0.03573207 0.021104045 0.030429527
0.03606484 0.031043924 0.030867321 0.036684237 0.012318601 0.02513139 0.030772015 0.034542028
0.0344625 0.024428098 0.038730044 0.035533063 0.029906107 0.03582959 0.03603144 0.03532925
0.020438988 0.037062418 0.032115914 0.03099072 0.027556797 0.018513888 0.034982763 0.036430668
0.023481807 0.035977665 0.026981432 0.025437182 0.027473794 0.037110392 0.036797 0.036388397
0.038043365 0.037500255 0.030056663 0.037059747 0.03815975 0.019798135 0.038277585 0.03696527
0.03446973 0.026090942 0.03380964 0.02130409 0.03635364 0.038490262 0.03678839 0.031208085
0.021799764 0.019318104 0.032545406 0.038322818 0.032498732 0.03527603 0.037293117 0.03133275
00000000: 54c7 d13c de2d 183d 4d8f da3c 1a97 f53c
00000010: 90cc 763c 13a4 e23c 6e17 173d 632f 053d
00000020: 8a06 183d cca1 193d a522 743c 0a1d 093d
00000030: 3a2f d13c 9cd1 db3c 2883 143d 29f4 023d
00000040: d9f2 033d 6141 c23c 315e 093d 6226 1e3d
00000050: 3022 1e3d 7ca3 d83c 13de 073d d131 c43c
00000060: 060e 003d 5e60 e53c 1c63 043d cb45 103d
00000070: a542 1c3d 18c7 043d 64f3 f13c f51d 153d
00000080: 0382 d13c 9870 fe3c 8e05 193d e42e 9b3c
00000090: 9da9 0a3d 8656 1c3d 02e7 113d fe79 123d
000000a0: 625a 0b3d e1fc 053d a693 0c3d 54b5 093d
000000b0: 25ce fa3c 4d77 0a3d c337 183d 1bc8 e73c
000000c0: e27b 113d b75e 1b3d 15e1 d63c 3323 053d
000000d0: b117 153d fcdf 0f3d 7ab8 013d 1798 1d3d
000000e0: 4eef b83c cfbe 043d 9de1 193d 3fc6 963c
000000f0: edcf 1a3d 8e70 8b3c cda9 023d 1657 033d
00000100: a8c6 fb3c bb84 e13c f039 183d 94fd 0a3d
00000110: 6074 043d 81fc 053d fc0a 113d 029c 173d
00000120: 0982 ee3c c49c 0f3d 7466 f93c cd4d a63c
00000130: 5185 e23c 21e3 ed3c fca8 de3c 53a1 8a3c
00000140: e3aa ee3c af29 e23c 6e1c 043d a2fd 183d
00000150: 2aa1 183d 53b0 ff3c f061 043d 0e5e 013d
00000160: 54de 1a3d 69a6 c23c 794c 043d fa5a e63c
00000170: 5d78 c83c 9880 163d 76c4 ca3c b3af 453c
00000180: e6e1 0a3d 4d16 1a3d dfa8 843c a294 0c3d
00000190: afa8 df3c ffeb 1a3d 823f 1d3d 361e 093d
000001a0: dcc1 bf3c 2120 8f3c 6bc3 1b3d 1177 e03c
000001b0: 155f 183d bd35 113d 2e2d 1d3d b02b ad3c
000001c0: 9717 013d 9e94 043d 7804 fa3c fbc9 033d
000001d0: 1197 e83c 8ce4 e23c 7b32 0e3d 86de 0f3d
000001e0: 7147 aa3c df34 af3c 7e75 073d aa7b d43c
000001f0: f6cd 1d3d f01a 1a3d f567 033d f0b2 d63c
00000200: b163 6a3c d15f d93c f972 143d 5851 a23c
00000210: 46af 1a3d 6597 e23c 8908 0a3d 2e30 f03c
00000220: 167e db3c db4d 1e3d 3fcd 1c3d 7e30 0c3d
00000230: df80 833c 28eb ed3c 0651 943c fbb1 dc3c
00000240: 62ca da3c 4a3a f53c 5860 173d 2137 3f3c
00000250: 3910 1a3d 2192 f03c a8b5 073d 8311 0f3d
00000260: f71f e83c d8cd f73c d9c1 143d f487 973c
00000270: a649 1e3d 6b6f d73c 6ac8 1b3d f861 ff3c
00000280: a371 ff3c 6fb0 f93c e8a7 9f3c 6f2e 123d
00000290: d454 f53c eded 033d 0880 163d edd6 1a3d
000002a0: 70a8 173d 2d90 073d 7b3a e63c db9a 193d
000002b0: d28d 183d d9bc f43c d1d2 123d 9637 103d
000002c0: 858b 053d 98e3 173d 54a7 013d fb89 093d
000002d0: 075e c23c 38b0 9d3c 97d9 083d 2841 ac3c
000002e0: f94e 0b3d bf7c 1c3d ff69 d03c 6999 133d
000002f0: d53f 023d 1281 5f3c 7844 163d 4b33 143d
00000300: 4c18 a53c 7b0e 1f3d ff93 093d c0c5 8b3c
00000310: 7965 1d3d cb5b 123d 64e2 ac3c 5847 f93c
00000320: bab8 133d d44f fe3c 77dd fc3c 3642 163d
00000330: f5d3 493c 58e0 cd3c 9815 fc3c f17b 0d3d
00000340: 8d28 0d3d 6f1d c83c 65a3 1e3d 1e8b 113d
00000350: a7fd f43c 0cc2 123d b495 133d 67b5 103d
00000360: aa6f a73c c3ce 173d fa8b 033d 40e0 fd3c
00000370: cbbe e13c 70aa 973c 164a 0f3d 5338 153d
00000380: eb5c c03c 515d 133d 2a08 dd3c a361 d03c
00000390: b910 e13c 1101 183d 73b8 163d 000c 153d
000003a0: 5cd3 1b3d de99 193d 6439 f63c f6cb 173d
000003b0: 664d 1c3d b32f a23c f5c8 1c3d e568 173d
000003c0: 2230 0d3d acbc d53c fa7b 0a3d ea85 ae3c
000003d0: 8ee7 143d f7a7 1d3d 6caf 163d 19a8 ff3c
000003e0: 6b95 b23c 0041 9e3c 554e 053d 63f8 1c3d
000003f0: 641d 053d 997d 103d abc0 183d c556 003d

model.feature_nns.5.model.1.weight f4 [1, 1000]
0.002053153 0.0027480326 0.0022618857 -0.0009889583 -2.1051303e-05 0.0002385353 -0.0014593997 -0.0011246096
0.0010968408 1.4577773e-05 0.0014909174 -0.0009496435 0.0012607139 0.0004772964 0.0014966661 -0.001180842
-0.00024013476 0.00042422593 -0.00069112564 0.0013249599 0.00083931646 0.0007901512 0.0004745017 -0.0026352166
-0.000657395 -0.001135012 -0.0003823426 0.0002941708 -0.0015009994 0.00092632347 0.0008613762 -0.002842932
0.00019204138 -0.00014128712 0.0004968938 0.0019113519 -0.0005395515 -0.0019299327 -0.0013450929 0.0003233186
-0.00043771262 -0.0016955563 0.0008215912 -0.00089938135 0.0012781059 0.0015097602 0.00076214987 -0.00047981882
2.8162533e-05 -0.00042829913 -0.00068829587 -0.000360494 0.001441364 -0.00073186064 0.0023181774 -0.0018847256
6.442049e-05 0.00020395918 0.0015199455 -0.00014096111 -0.000112233145 -0.0003973296 -0.0007581496 -0.00078700745
0.0018137699 0.00019635569 -0.002145755 -0.0025166918 0.0009881422 0.0020333903 0.0007928974 -0.00076689885
-0.0012728397 -0.0014983858 9.3601164e-05 0.0014211945 0.0016795003 0.00075912167 0.00041769375 0.00038584616
0.0020319445 0.0009658629 0.0003839865 -0.0027022453 6.467783e-05 -0.0017134503 0.0002841878 0.0024148289
-0.0011007944 -0.0009129153 -0.00090396736 -0.0025707302 0.0018849478 0.0007392232 -0.00043147913 0.00226698
-0.0023860212 -0.0018261829 -0.0012688542 -0.0006388555 0.0013789166 0.001107972 -0.0014211319 -0.00072147493
0.00045521726 -0.001976667 0.0007276528 0.00066314917 -0.0010025626 0.0005095267 0.002576473 0.0016025887
-4.583101e-06 -0.0022111256 0.0028944088 0.0010985973 0.00025944313 -0.000775931 -0.00092225283 -0.0007734535
0.0017763453 -0.0008779213 -0.0022064499 -0.0018430238 0.0003177865 -0.0019257464 0.0008704392 -0.0024908516
0.00069399393 -0.0004874122 -0.0013407412 0.0015852712 -0.0015048705 -0.002237428 -0.0028833132 0.00047497067
0.0012205315 0.0008800909 -0.0015188184 -0.0010969236 -0.00053586793 6.7143774e-05 0.0006450957 -1.3512685e-06
0.002624433 0.002094156 -0.00093995867 0.0005004758 -0.00026149143 5.83412e-05 0.0013566852 0.000707694
0.0026936925 0.0010215548 0.0011437001 -0.00220116 -0.0014997413 0.0019840377 0.0021005718 0.00073530787
0.00011119537 -0.0018196981 0.0015306303 -0.00082204945 -4.807241e-05 0.0011269827 -0.0020561214 -0.0018003384
0.0021806294 0.00065646484 0.0010213536 0.0018588776 -0.0013382261 -0.0009666632 -0.0003722889 0.00013638321
0.0007704947 -0.0005300082 0.002333905 -0.0012128328 -0.0014689956 0.0018974709 0.0025088026 -0.0015772155
-0.0020514235 -0.00015482554 -0.001864398 -8.171876e-05 -0.00025176405 0.0012260539 0.0011005129 0.0006174042
-0.0022476232 -0.0005871072 -0.0023822035 -0.0022971642 0.0008993166 0.0017525841 -0.00043462534 -0.0005159495
0.0014594293 0.00038077222 0.0013811446 -0.00037470102 -0.0008974343 -0.0014055425 -0.00060787704 -0.0017111801
-0.0022392517 -0.002071475 0.0019687966 0.0012503464 -0.00041716683 0.0010250099 0.0022525194 0.0021438452
-0.000920952 0.00052286894 0.0015821026 0.0016152527 -0.0013421386 0.0018698159 0.0002778304 -0.0003898003
-0.000143933 -0.00067883794 0.001062649 -0.0013077926 -0.00092175545 -0.0016087788 -0.0004172247 0.0008557481
0.0012847749 -0.00052810396 0.0011343374 0.0013969615 -0.0018050398 0.0022689544 -0.0005028624 -0.0019341506
-0.0025360584 -0.0017209712 -0.00039816863 0.0018392329 -0.0017247127 -0.0018054846 4.7436173e-05 0.00046124955
0.0018866543 0.0012832189 -0.0009739998 -0.00019438782 -0.0010481575 -0.0012389364 -0.0008139662 -0.0014506459
00000000: 318e 063b 5618 343b 253c 143b ef9f 81ba
00000010: 5497 b0b7 551f 7a39 5449 bfba a367 93ba
00000020: dfc3 8f3a 0f93 7437 e36a c33a 7ff1 78ba
00000030: 8a3e a53a a33d fa39 c82b c43a 7cc6 9aba
00000040: afcc 7bb9 a46a de39 a82c 35ba 47aa ad3a
00000050: 9305 5c3a 2622 4f3a 8ac6 f839 99b3 2cbb
00000060: 0855 2cba afc4 94ba 2875 c8b9 f03a 9a39
00000070: 2fbd c4ba 84d4 723a facd 613a 7c50 3abb
00000080: b75e 4939 7926 14b9 fa41 023a 5486 fa3a
00000090: b070 0dba ccf5 fcba d44d b0ba 1783 a939
000000a0: cb7c e5b9 6e3d deba 0d60 573a 76c4 6bba
000000b0: 1e86 a73a 25e3 c53a 03cb 473a 3190 fbb9
000000c0: 943e ec37 568d e0b9 c16e 34ba b000 bdb9
000000d0: 26ec bc3a 56da 3fba 90ec 173b e608 f7ba
000000e0: 7d19 8738 e0dd 5539 e838 c73a f6ce 13b9
000000f0: b65e ebb8 ad50 d0b9 8fbe 46ba 2d4f 4eba
00000100: 05bc ed3a d4e4 4d39 cc9f 0cbb 15ef 24bb
00000110: 8d84 813a a142 053b 72da 4f3a b609 49ba
00000120: 6ad5 a6ba 7c65 c4ba be4b c438 6047 ba3a
00000130: ae22 dc3a cbff 463a e8fd da39 654b ca39
00000140: 5f2a 053b f631 7d3a cc51 c939 2718 31bb
00000150: a5a3 8738 da95 e0ba 0aff 9439 1b42 1e3b
00000160: 8848 90ba b550 6fba 39f8 6cba b279 28bb
00000170: 5a10 f73a 6ec8 413a 2638 e2b9 9d91 143b
00000180: cb5e 1cbb 885c efba af4f a6ba de78 27ba
00000190: c3bc b43a 5f39 913a 4645 baba 5d21 3dba
000001a0: 3aaa ee39 f88a 01bb f4bf 3e3a 30d7 2d3a
000001b0: 6b68 83ba c291 053a 0bda 283b f40d d23a
000001c0: 8ac8 99b6 88e8 10bb 1fb0 3d3b cffe 8f3a
000001d0: de05 8839 d967 4bba 57c3 71ba 96c1 4aba
000001e0: 42d4 e83a 4d24 66ba 169a 10bb 9e91 f1ba
000001f0: 959c a639 5469 fcba 302e 643a 8e3d 23bb
00000200: 25ed 353a 5c8b ffb9 cfbb afba e0c8 cf3a
00000210: 133f c5ba d0a1 12bb f8f5 3cbb 7c05 f939
00000220: 3efa 9f3a e7b5 663a 1713 c7ba a6c6 8fba
00000230: 7d79 0cba 8acf 8c38 a41b 293a 3b5d b5b5
00000240: aefe 2b3b 1c3e 093b 8f67 76ba 5d32 033a
00000250: c918 89b9 63b3 7438 cdd2 b13a 8a84 393a
00000260: a988 303b b1e5 853a 35e8 953a 5641 10bb
00000270: f892 c4ba a106 023b bfa9 093b adc1 403a
00000280: 8f31 e938 f082 eeba 6e9f c83a ce7e 57ba
00000290: 5ba1 49b8 44b7 933a febf 06bb 55f9 ebba
000002a0: e4e8 0e3b 9c16 2c3a f1de 853a 95a5 f33a
000002b0: 6b67 afba ab67 7dba c52f c3b9 1702 0f39
000002c0: 06fb 493a 40f0 0aba 6ef4 183b eaf7 9eba
000002d0: 508b c0ba 8fb4 f83a b96a 243b 92ba ceba
000002e0: 2d71 06bb aa58 22b9 d15e f4ba 6d60 abb8
000002f0: 33ff 83b9 8bb3 a03a 163f 903a 4bd9 213a
00000300: dc4c 13bb 19e8 19ba be1e 1cbb 058c 16bb
00000310: 1ec0 6b3a f7b6 e53a 6dde e3b9 c940 07ba
00000320: 524a bf3a 62a2 c739 8607 b53a 8573 c4b9
00000330: cc41 6bba 2e3a b8ba f059 1fba ad49 e0ba
00000340: 69c0 12bb 95c1 07bb ed06 013b aae2 a33a
00000350: 2fb7 dab9 a059 863a 019f 133b c17f 0c3b
00000360: 0b6c 71ba 2411 093a 8e5e cf3a e3b6 d33a
00000370: b3ea afba 9c14 f53a c4a9 9139 1c5e ccb9
00000380: b8ec 16b9 0bf4 31ba 9548 8b3a 3d6a abba
00000390: f6a1 71ba a9dd d2ba f4be dab9 4854 603a
000003a0: e465 a83a 7570 0aba 0cae 943a 401a b73a
000003b0: 1697 ecba bdb2 143b 86d2 03ba 5383 fdba
000003c0: 0034 26bb 3692 e1ba 4ac1 d0b9 6a12 f13a
000003d0: c10f e2ba 03a6 ecba 34f6 4638 ded3 f139
000003e0: 9d49 f73a ae31 a83a 0554 7fba 95d4 4bb9
000003f0: 5462 89ba cf63 a2ba 5960 55ba 9923 beba
