GolfFeedback-poc/src/s3_NAM_model/output/dtl_BS/0/checkpoints/epoch=219-val_loss=103.4533.ckpt (torch, 411921 bytes, 150 tensors)

model.feature_nns.0.model.0.weights f4 [1, 46]
0.14142177 0.12365067 0.119625606 0.12543571 0.13151963 0.1356357 0.106944606 0.13552457
0.11003434 0.14934455 0.14704719 0.13390431 0.11676023 0.14722161 0.12021416 0.11037772
0.09866278 0.14695433 0.12877147 0.12761863 0.12624511 0.13563335 0.13067509 0.14916977
0.10330587 0.14725424 0.12583908 0.14124724 0.1015576 0.122812234 0.14500329 0.10045808
0.077563554 0.124276 0.14728488 0.10593415 0.1094286 0.14774951 0.14476337 0.14410853
0.14221929 0.13348469 0.094477415 0.1370146 0.13703053 0.14615418
00000000: ded0 103e 903c fd3d 45fe f43d 3872 003e
00000010: 15ad 063e 16e4 0a3e c605 db3d f4c6 0a3e
00000020: af59 e13d c7ed 183e 8a93 163e 361e 093e
00000030: fd1f ef3d 43c1 163e d732 f63d b70d e23d
00000040: b60f ca3d 327b 163e abdc 033e 75ae 023e
00000050: 6646 013e 78e3 0a3e b1cf 053e f6bf 183e
00000060: 0792 d33d d1c9 163e f6db 003e 1ea3 103e
00000070: 6efd cf3d fb84 fb3d be7b 143e f7bc cd3d
00000080: a4d9 9e3d 6a84 fe3d d9d1 163e 01f4 d83d
00000090: 1a1c e03d a64b 173e d93c 143e 3091 133e
000000a0: efa1 113e 36b0 083e 607d c13d 8e4d 0c3e
000000b0: bb51 0c3e 71a9 153e

model.feature_nns.0.model.1.weight f4 [1, 46]
-0.004789038 -0.004136266 -0.0039499467 -0.004579195 -0.0041778055 -0.0052581374 -0.005105513 -0.0058141258
-0.0046368996 -0.0047996794 -0.004664504 -0.004731301 -0.00461839 -0.004602586 -0.005895521 -0.004447461
-0.0033184274 -0.0055405768 -0.00456278 -0.0050778543 -0.004850695 -0.0044813436 -0.0041966224 -0.0044103577
-0.004474764 -0.00458127 -0.004776358 -0.003983655 -0.0040345695 -0.0048723575 -0.004602475 -0.004565654
-0.0035924767 -0.00410673 -0.0052168327 -0.0043594996 -0.0034257108 -0.004367333 -0.0047903727 -0.0046535013
-0.0050031994 -0.0038646173 -0.0034844745 -0.0041633686 -0.004998189 -0.004461231
00000000: 5ded 9cbb 8489 87bb 8e6e 81bb 120d 96bb
00000010: f9e5 88bb 744c acbb 264c a7bb 6c84 bebb
00000020: 22f1 97bb a146 9dbb b2d8 98bb 0809 9bbb
00000030: dd55 97bb 4ad1 96bb 372f c1bb 02bc 91bb
00000040: f979 59bb ba8d b5bb 5f83 95bb 2164 a6bb
00000050: 94f2 9ebb 3cd8 92bb d283 89bb c384 90bb
00000060: 0ba1 92bb 7a1e 96bb ff82 9cbb 5289 82bb
00000070: 6c34 84bb 4ca8 9fbb 5cd0 96bb 7b9b 95bb
00000080: c26f 6bbb c091 86bb f7f1 aabb 22da 8ebb
00000090: e481 60bb d81b 8fbb 8ff8 9cbb 667c 98bb
000000a0: e1f1 a3bb 8545 7dbb c85b 64bb de6c 88bb
000000b0: d9c7 a3bb 852f 92bb

model.feature_nns.1.model.0.weights f4 [1, 1000]
0.14435485 0.14896005 0.12680575 0.14654861 0.1487779 0.13898231 0.0775721 0.07138848
0.12268005 0.14195383 0.14523685 0.14078629 0.08877734 0.13015628 0.14374359 0.14091125
0.13766591 0.1477421 0.10280241 0.1343474 0.1108588 0.07316339 0.123270825 0.1225459
0.14511079 0.099877305 0.13832144 0.11675403 0.119063966 0.09523462 0.14212155 0.13901502
0.13081597 0.08356733 0.14833784 0.13150534 0.09524583 0.14623342 0.07228968 0.1413874
0.14456572 0.14366221 0.14784522 0.112302706 0.079992056 0.14732559 0.13921297 0.14206699
0.141892 0.1176064 0.14440827 0.13937375 0.14032583 0.117018 0.11015559 0.13001171
0.096677676 0.13127579 0.13556005 0.11324732 0.12962183 0.14404058 0.096917585 0.13982293
0.14690673 0.14446066 0.11050937 0.13875122 0.13540791 0.12692097 0.14093958 0.13695827
0.114053674 0.14702344 0.12227552 0.14193015 0.14229584 0.14458801 0.12841384 0.12109
0.14347109 0.14856197 0.10942457 0.12847112 0.14746931 0.13841708 0.14303498 0.12932491
0.14374287 0.13815182 0.10721402 0.1481338 0.08878211 0.14544019 0.112734705 0.14862621
0.14168918 0.14908482 0.14806774 0.1370687 0.14810856 0.11218967 0.11119551 0.09713596
0.11603923 0.14385046 0.14336546 0.08878355 0.10175268 0.1455168 0.14906456 0.14441314
0.13794331 0.12531915 0.13699402 0.1455396 0.09967759 0.12327204 0.13630584 0.072296254
0.13386622 0.13742107 0.13988727 0.12021747 0.14463617 0.08490709 0.069407925 0.1380416
0.1440909 0.13443036 0.14628153 0.1431689 0.14485346 0.13053569 0.14573582 0.10489963
0.11769015 0.12102012 0.14464141 0.14792623 0.11735389 0.14419557 0.11785617 0.13943999
0.1465232 0.1391811 0.1330728 0.13419154 0.13286316 0.07940468 0.13791159 0.13470802
0.14938626 0.106663495 0.14869045 0.14847334 0.09169017 0.1295706 0.14159898 0.14255281
0.123273514 0.11175698 0.121372774 0.12507762 0.14139041 0.13234052 0.14200985 0.13057946
0.13859062 0.14173749 0.100461185 0.1225494 0.069418915 0.124471314 0.10721919 0.059644282
0.14844686 0.12314344 0.13422851 0.11395237 0.13544498 0.08575222 0.12981112 0.1307228
0.13759573 0.13582112 0.14492825 0.13435468 0.122068845 0.1489981 0.12991655 0.14832157
0.10474223 0.11683741 0.09907561 0.11375293 0.13517553 0.14654799 0.10666615 0.1401396
0.14581504 0.14906313 0.14054237 0.12327158 0.095733434 0.13713624 0.14371116 0.1363122
0.14249712 0.14811338 0.13159437 0.11153009 0.1309093 0.12636112 0.14409491 0.14269382
0.13365965 0.14358056 0.04399143 0.11119895 0.13509725 0.13858493 0.14732957 0.13589942
0.114737235 0.12912652 0.110742114 0.12043513 0.12578677 0.14446132 0.14933524 0.1383516
0.10720974 0.08806599 0.122881725 0.10347109 0.110858016 0.0944803 0.13759749 0.13656768
0.13168345 0.13563955 0.13713898 0.13930973 0.1361888 0.12912777 0.13294865 0.08879537
0.10802416 0.11622259 0.1462547 0.14709495 0.10762969 0.14203224 0.13234933 0.13920836
00000000: c2d1 133e fc88 183e 5ed9 013e d710 163e
00000010: 3c59 183e 6151 0e3e 1fde 9e3d 2034 923d
00000020: ae3f fb3d 585c 113e f8b8 143e 482a 103e
00000030: e5d0 b53d b047 053e 8531 133e 0a4b 103e
00000040: 4bf8 0c3e b449 173e 128a d23d 5d92 093e
00000050: f009 e33d b0d6 953d 6a75 fc3d 58f9 fa3d
00000060: ec97 143e 798c cc3d 23a4 0d3e bd1c ef3d
00000070: cfd7 f33d 5e0a c33d 5088 113e f459 0e3e
00000080: 9ff4 053e 5925 ab3d e0e5 173e 56a9 063e
00000090: 3f10 c33d 37be 153e 9d0c 943d dcc7 103e
000000a0: 0909 143e 301c 133e bd64 173e f6fe e53d
000000b0: e0d2 a33d 85dc 163e d88d 0e3e 027a 113e
000000c0: 234c 113e a0db f03d c3df 133e feb7 0e3e
000000d0: 93b1 0f3e 22a7 ef3d 4199 e13d ca21 053e
000000e0: f2fe c53d 296d 063e 41d0 0a3e 36ee e73d
000000f0: 96bb 043e 607f 133e ba7c c63d be2d 0f3e
00000100: b86e 163e 7fed 133e bd52 e23d cd14 0e3e
00000110: 5fa8 0a3e 92f7 013e 7752 103e ca3e 0c3e
00000120: f994 e93d 508d 163e 966b fa3d 2356 113e
00000130: 00b6 113e e10e 143e eb7e 033e 09fe f73d
00000140: 16ea 123e a120 183e fd19 e03d ef8d 033e
00000150: 3202 173e 35bd 0d3e c377 123e c06d 043e
00000160: 5531 133e ac77 0d3e 0693 db3d 63b0 173e
00000170: 65d3 b53d 46ee 143e 74e1 e63d 7831 183e
00000180: f816 113e b1a9 183e 129f 173e bd5b 0c3e
00000190: c5a9 173e b3c3 e53d 79ba e33d 38ef c63d
000001a0: faa5 ed3d 894d 133e 65ce 123e 26d4 b53d
000001b0: b663 d03d 5b02 153e 61a4 183e 0ae1 133e
000001c0: 0341 0d3e aa53 003e 2948 0c3e 5508 153e
000001d0: c423 cc3d 0d76 fc3d c293 0b3e 0f10 943d
000001e0: 3a14 093e 1cb8 0c3e 9c3e 0f3e 9434 f63d
000001f0: 811b 143e c5e3 ad3d be25 8e3d c75a 0d3e
00000200: 918c 133e 1da8 093e d3ca 153e de9a 123e
00000210: 7754 143e 26ab 053e c53b 153e 9ed5 d63d
00000220: 8907 f13d 66d9 f73d e11c 143e f979 173e
00000230: 3c57 f03d 01a8 133e 935e f13d 5bc9 0e3e
00000240: 2e0a 163e 7e85 0e3e 3c44 083e 8269 093e
00000250: 480d 083e ec9e a23d b238 0d3e e6f0 093e
00000260: b6f8 183e 6472 da3d 4f42 183e 6509 183e
00000270: 0ec8 bb3d 28ae 043e 53ff 103e 5df9 113e
00000280: d376 fc3d d8e0 e43d 4a92 f83d 5914 003e
00000290: a6c8 103e 4684 073e 086b 113e 9fb6 053e
000002a0: b3ea 0d3e a223 113e 98be cd3d 2efb fa3d
000002b0: 812b 8e3d d1ea fe3d bc95 db3d 904d 743d
000002c0: 7402 183e a132 fc3d 3373 093e dc5f e93d
000002d0: 17b2 0a3e dc9e af3d 35ed 043e 33dc 053e
000002e0: e5e5 0c3e b114 0b3e 1268 143e 4694 093e
000002f0: 3bff f93d f592 183e d808 053e 9ce1 173e
00000300: 1883 d63d 7448 ef3d 27e8 ca3d 4cf7 e83d
00000310: 746b 0a3e ad10 163e c873 da3d c180 0f3e
00000320: 8a50 153e 01a4 183e 57ea 0f3e cf75 fc3d
00000330: e40f c43d 716d 0c3e 0529 133e 6d95 0b3e
00000340: c4ea 113e 09ab 173e adc0 063e e369 e43d
00000350: 160d 063e cf64 013e 9e8d 133e 541e 123e
00000360: 13de 083e c806 133e 5c30 343d 46bc e33d
00000370: ef56 0a3e 35e9 0d3e 90dd 163e 3829 0b3e
00000380: 5bfb ea3d be39 043e c3cc e23d b2a6 f63d
00000390: 3fce 003e abed 133e 56eb 183e 0bac 0d3e
000003a0: c890 db3d f15b b43d 6aa9 fb3d a7e8 d33d
000003b0: 8709 e33d e37e c13d 5be6 0c3e 66d8 0b3e
000003c0: 07d8 063e 18e5 0a3e 296e 0c3e 36a7 0e3e
000003d0: 1475 0b3e 123a 043e b123 083e 59da b53d
000003e0: c53b dd3d 1c06 ee3d cbc3 153e 0fa0 163e
000003f0: f46c dc3d e670 113e 9586 073e a38c 0e3e

model.feature_nns.1.model.1.weight f4 [1, 1000]
-0.00039314653 -0.00055964006 -0.00015101323 -0.00040746242 -0.00041852272 -0.00021143757 -0.00019963061 -0.00035793133
-0.00032830966 -0.00025837566 -0.00039538147 -0.0004409643 -8.719848e-05 -0.000416094 -0.0008881157 5.077895e-05
-0.00027522404 4.1593696e-05 -0.00011306208 -0.00027284204 -0.00029930403 -0.00023866417 -0.0002091433 -0.00032139168
-0.00070270285 -0.0006219883 -6.5824606e-05 -0.0002386718 -5.841782e-05 -0.0003057747 -0.00028166067 -0.000117019976
-0.0003271554 -1.7971986e-06 -0.00042986876 -0.00024450646 -0.00030097459 -0.0005182441 0.00026135222 -0.00036416293
-0.00049552834 -0.00055650796 -0.00039186474 -0.00039365867 0.00013152626 -0.0007177611 -0.00044935814 -0.00032646625
-0.00068233657 -0.00015930727 -0.0006984604 -0.00017593625 -0.00029597463 -0.0002517304 -0.00020899017 -0.00031663085
-0.00019589826 -0.0001720452 -0.00026279906 -5.2801377e-05 -0.00039039186 -0.00023829051 -0.00016692883 -0.00036932045
-0.0006505251 -0.0003593851 -0.000458272 -0.0007498093 -0.0003290576 -0.00040377048 -0.00040746253 -0.00041296906
1.3763594e-05 -0.00037056618 -0.00029224195 -0.00022634405 -0.0002981678 -4.1449384e-05 -0.00017951666 -2.4080953e-05
-0.00023619378 -0.0005114462 0.00016508716 -0.00034243095 -0.00032620263 -0.0005515576 -0.0006440044 -0.00011631747
-0.0005616138 3.765963e-07 -7.5393014e-05 -0.0002796498 3.8793605e-05 -0.00036672116 -0.00029574652 -0.00043267958
-0.00035072738 -0.0005231563 -0.0006231425 -0.0004345256 -0.0005059885 -0.0002681941 -0.00051228807 -0.00039520318
-0.00016958355 -0.00062723557 -0.00052291603 4.950961e-05 -0.0005118149 -0.00027132127 -0.00027479616 -0.00045593633
-0.0002089881 -0.0002679096 -0.00021805985 -0.0004247921 -0.00046877968 -0.00020888782 -0.0007613163 -9.566378e-05
-0.0003669846 -5.6287012e-05 -0.0005321743 -0.00012773905 -0.00029215566 -0.00017773615 -6.547037e-05 -0.00025618658
-0.0001965824 -0.00032583435 -0.00046311063 -0.0007849085 -0.00016032514 -0.0002610943 -0.00018469551 -0.00044939827
-0.00050699676 9.000843e-05 -0.00050921313 0.00010497448 0.00017041611 -0.0005245623 -0.00040199893 -0.00028785574
-0.0003349306 -0.00012368301 -0.00012861511 -0.00018659927 -0.00030407766 -0.00021098628 -0.00012479047 -0.00035690298
-0.00049673335 -2.2919525e-05 -0.0004741419 -8.8581124e-05 -0.00024505449 -0.00017483403 -0.0006331848 -0.00039791025
-0.00026450097 -0.00010919821 -0.00014983396 -0.00067543314 -0.0003429894 -0.0006231622 -0.00042498673 -0.00029042235
-0.00080294796 -0.0005875717 -0.00022366685 -0.0006329203 -0.0003245309 -0.0004940994 -0.00018676888 -0.0002755648
-7.8962046e-05 -0.00027728456 -0.00077675586 5.7380745e-05 -0.00024876787 -0.00019685045 -0.000768516 1.519573e-05
-0.00072125054 -0.00018353293 -0.00025052065 -0.00024535606 7.440722e-05 -0.00042315116 -0.00040014094 -0.0003401282
-0.00013992752 -0.00011702391 -0.00032477724 -4.4982185e-05 -0.00041534126 -0.0010337622 -0.00043486097 -7.957176e-05
-0.00018031825 -0.0006838492 -0.00026846485 -0.00029578272 -0.00017786573 -0.00016551912 4.667936e-05 -0.00038095028
2.8829494e-05 -0.0002956547 -0.00019214045 -0.00027353456 -0.00017515305 -0.00016308283 -0.0004361412 0.0002321717
-0.00051575893 -0.00020916457 -0.00018099403 -0.00022125905 -0.0005934216 -8.172581e-05 -1.4002246e-05 -0.0002850844
-0.00019796658 -0.0004539965 -0.00029163522 -0.00011303037 -0.00018061783 -0.00021956657 -0.00038181792 -0.0006180748
-0.0002249796 -5.1478568e-05 -0.0003249378 -0.00029585444 -0.00036885228 0.0001098391 0.00021103153 -0.00025909382
-0.0005313515 -0.00020101684 -0.0004812483 -0.00012630782 -0.000104100145 -0.00044790655 -1.7011029e-05 -0.00011340077
-0.0003152088 0.00023345811 -0.00017810024 -0.0004276251 -0.00036392253 -0.00047308055 -4.6697554e-05 -0.00068227446
00000000: 3c1f ceb9 cfb4 12ba 4e59 1eb9 aea0 d5b9
00000010: 2b6d dbb9 57b5 5db9 ef53 51b9 bba8 bbb9
00000020: fa20 acb9 9876 87b9 344b cfb9 3a31 e7b9
00000030: 54de b6b8 3127 dab9 70d0 68ba 7bfb 5438
00000040: f24b 90b9 e474 2e38 be1b edb8 3d0c 8fb9
00000050: e8eb 9cb9 ed41 7ab9 7a4d 5bb9 7680 a8b9
00000060: 9735 38ba ee0c 23ba 510b 8ab8 f943 7ab9
00000070: a805 75b8 6350 a0b9 dbab 93b9 9f68 f5b8
00000080: 0e86 abb9 4637 f1b5 0260 e1b9 1a31 80b9
00000090: 20cc 9db9 c6da 07ba 1a06 8939 1fed beb9
000000a0: 58e6 01ba 9ee2 11ba 3273 cdb9 f963 ceb9
000000b0: 50ea 0939 2228 3cba d497 ebb9 8f29 abb9
000000c0: d5de 32ba b80b 27b9 e218 37ba 877b 38b9
000000d0: 0b2d 9bb9 affa 83b9 5f24 5bb9 7901 a6b9
000000e0: 0a6a 4db9 0867 34b9 4bc8 89b9 0c77 5db8
000000f0: 82ad ccb9 9fdd 79b9 9e09 2fb9 5aa1 c1b9
00000100: 0088 2aba da6b bcb9 3a44 f0b9 da8e 44ba
00000110: 5d85 acb9 28b1 d3b9 b2a0 d5b9 c583 d8b9
00000120: 30ea 6637 8d48 c2b9 0d38 99b9 c556 6db9
00000130: 6853 9cb9 f0d9 2db8 a33c 3cb9 7401 cab7
00000140: c9aa 77b9 9312 06ba 3f1b 2d39 4e88 b3b9
00000150: 2d06 abb9 6796 10ba 67d2 28ba 77ef f3b8
00000160: 4439 13ba 002f ca34 511c 9eb8 f69d 92b9
00000170: 51b6 2238 7b44 c0b9 6d0e 9bb9 45d9 e2b9
00000180: d5e1 b7b9 6d24 09ba 635a 23ba 0ad1 e3b9
00000190: 50a4 04ba 679c 8cb9 124b 06ba 4633 cfb9
000001a0: 3dd2 31b9 116d 24ba 4d14 09ba 8aa8 4f38
000001b0: 512b 06ba 2040 8eb9 8412 90b9 bd0a efb9
000001c0: d123 5bb9 3876 8cb9 ffa6 64b9 a1b6 deb9
000001d0: 8bc6 f5b9 e608 5bb9 1293 47ba 1a9f c8b8
000001e0: d767 c0b9 b815 6cb8 9d81 0bba b1f1 05b9
000001f0: 782c 99b9 af5e 3ab9 234d 89b8 c850 86b9
00000200: b021 4eb9 bfd4 aab9 a8cd f2b9 51c2 4dba
00000210: f41c 28b9 7ce3 88b9 d3aa 41b9 379d ebb9
00000220: fae7 04ba e8c2 bc38 b77c 05ba bf25 dc38
00000230: bab1 3239 c882 09ba 62c3 d2b9 58eb 96b9
00000240: a099 afb9 e8b0 01b9 dbdc 06b9 dca9 43b9
00000250: 9d6c 9fb9 333c 5db9 30da 02b9 b51e bbb9
00000260: 3637 02ba 4e43 c0b7 4096 f8b9 a1c4 b9b8
00000270: a87a 80b9 a753 37b9 50fc 25ba 9c9e d0b9
00000280: b8ac 8ab9 5801 e5b8 bf1c 1db9 8d0f 31ba
00000290: 42d3 b3b9 b55b 23ba c1d0 deb9 d443 98b9
000002a0: ed7c 52ba 4507 1aba 1d88 6ab9 90ea 25ba
000002b0: cd25 aab9 7386 01ba 64d7 43b9 ae79 90b9
000002c0: 6d98 a5b8 8160 91b9 349f 4bba 1bac 7038
000002d0: 0f6d 82b9 a469 4eb9 3c76 49ba 2af1 7e37
000002e0: 4e12 3dba bf72 40b9 5058 83b9 22a3 80b9
000002f0: 120b 9c38 63da ddb9 02ca d1b9 3c53 b2b9
00000300: 82b9 12b9 bc6a f5b8 dd46 aab9 41ab 3cb8
00000310: 29c2 d9b9 4e7f 87ba 0dfe e3b9 c3df a6b8
00000320: d013 3db9 5844 33ba bec0 8cb9 4913 9bb9
00000330: 7881 3ab9 338f 2db9 95c9 4338 48ba c7b9
00000340: ded6 f137 1a02 9bb9 4f79 49b9 3069 8fb9
00000350: 4aa9 37b9 3701 2bb9 e2a9 e4b9 1e73 7339
00000360: ff33 07ba 3053 5bb9 37c9 3db9 c601 68b9
00000370: d98f 1bba 3664 abb8 30eb 6ab7 6177 95b9
00000380: 4095 4fb9 6106 eeb9 9ee6 98b9 b80a edb8
00000390: 3b64 3db9 743b 66b9 bc2e c8b9 4c06 22ba
000003a0: 80e8 6bb9 b1ea 57b8 6a5c aab9 e91c 9bb9
000003b0: 8462 c1b9 6b59 e638 5848 5d39 fcd6 87b9
000003c0: 654a 0bba 0cc8 52b9 0e50 fcb9 7f71 04b9
000003d0: 5750 dab8 00d5 eab9 e8b2 8eb7 93d1 edb8
000003e0: 9c42 a5b9 6fcc 7439 6bc0 3ab9 df32 e0b9
000003f0: dbcc beb9 cc07 f8b9 1edd 43b8 aada 32ba

model.feature_nns.2.model.0.weights f4 [1, 104]
0.14198498 0.114378944 0.14735772 0.036429822 0.1364281 0.10651572 0.14307359 0.12253109
0.14414567 0.13353898 0.13324603 0.106952466 0.12818895 0.12389364 0.14508547 0.08770028
0.11062358 0.14876133 0.10879608 0.14440517 0.11614581 0.13472514 0.14253242 0.12525046
0.14724013 0.14448208 0.14370096 0.14520028 0.14656134 0.059638016 0.106785886 0.11130909
0.1465417 0.13729933 0.14884113 0.12987764 0.14437558 0.13256013 0.13238576 0.11386312
0.13066795 0.13869646 0.1301982 0.13782288 0.13857603 0.14237158 0.12543125 0.13744526
0.11166015 0.14948706 0.11291919 0.13542101 0.14214613 0.13247259 0.14874648 0.13760841
0.12635389 0.11415626 0.12308032 0.119818255 0.07473401 0.088062055 0.12186741 0.0713844
0.13197573 0.092270575 0.11647961 0.07474861 0.14288922 0.13685209 0.14102577 0.14484599
0.14458805 0.14308913 0.11683838 0.12568039 0.11473293 0.13645259 0.12577012 0.14746636
0.1074962 0.1275793 0.14868474 0.1469645 0.11690381 0.06591681 0.13534775 0.14657006
0.13619742 0.10430563 0.1308169 0.13442437 0.14591715 0.14715885 0.12740684 0.14484917
0.14618285 0.14323698 0.13956164 0.14692508 0.14453214 0.12497737 0.07042322 0.14719772
00000000: 8364 113e 823f ea3d f1e4 163e 7037 153d
00000010: cfb3 0b3e ea24 da3d e281 123e 95f1 fa3d
00000020: ec9a 133e 71be 083e a671 083e e509 db3d
00000030: f743 033e f3bb fd3d 4991 143e 349c b33d
00000040: 9e8e e23d e454 183e 7bd0 de3d f3de 133e
00000050: dbdd ed3d 63f5 093e 05f4 113e a841 003e
00000060: 1ec6 163e 1cf3 133e 5826 133e 62af 143e
00000070: 2d14 163e fe46 743d 8fb2 da3d 05f6 e33d
00000080: 070f 163e 3298 0c3e cf69 183e a5fe 043e
00000090: 31d7 133e d8bd 073e 2290 073e 1131 e93d
000000a0: d2cd 053e 7206 0e3e ad52 053e 7121 0d3e
000000b0: e0e6 0d3e dbc9 113e 0d71 003e 73be 0c3e
000000c0: 14ae e43d 2313 193e 2d42 e73d ceab 0a3e
000000d0: c18e 113e e5a6 073e ff50 183e 38e9 0c3e
000000e0: ea62 013e c2ca e93d 8911 fc3d 4663 f53d
000000f0: 250e 993d e159 b43d 9f95 f93d fc31 923d
00000100: a524 073e 5bf8 bc3d dd8c ee3d cd15 993d
00000110: 8d51 123e f422 0c3e 0f69 103e 8252 143e
00000120: e40e 143e f585 123e f648 ef3d 5cb2 003e
00000130: 19f9 ea3d 3aba 0b3e e2c9 003e 6c01 173e
00000140: f826 dc3d 26a4 023e d040 183e dd7d 163e
00000150: 446b ef3d 64ff 863d 9a98 0a3e 7616 163e
00000160: 5677 0b3e 319e d53d def4 053e 8ba6 093e
00000170: 4e6b 153e cfb0 163e f076 023e 5753 143e
00000180: f5b0 153e b7ac 123e 3fe9 0e3e 8773 163e
00000190: 3c00 143e 23f4 ff3d 0d3a 903d 00bb 163e

model.feature_nns.2.model.1.weight f4 [1, 104]
-0.0023217704 -0.0023208188 -0.0025626123 -0.002073411 -0.0023169 -0.0024821395 -0.0023762665 -0.0024541456
-0.0021556315 -0.002162756 -0.002446976 -0.0024996882 -0.0025619639 -0.0023413307 -0.0020258701 -0.002150397
-0.0018243692 -0.0021407534 -0.0018706545 -0.002544506 -0.0022142322 -0.0022363716 -0.0025214024 -0.0021129572
-0.0023367782 -0.0022438301 -0.0026443745 -0.002333898 -0.002470509 -0.0022589467 -0.0024749187 -0.002119734
-0.002269699 -0.0025490236 -0.0022517552 -0.002742807 -0.0022178483 -0.0020530361 -0.0022013814 -0.0022712054
-0.0022345404 -0.0021092165 -0.0025373753 -0.0021337245 -0.0022266484 -0.0024252671 -0.0022210258 -0.0024308146
-0.0021837142 -0.0022869764 -0.0022828928 -0.0022814341 -0.0025412522 -0.0024727923 -0.002538197 -0.0024390698
-0.0023592678 -0.002337835 -0.0021114063 -0.0021201058 -0.0018692567 -0.0022875944 -0.0024567686 -0.0021575424
-0.0018342611 -0.0022860856 -0.0022618226 -0.002374003 -0.002298701 -0.0024580285 -0.0019988727 -0.0022538714
-0.0022159303 -0.0024301852 -0.0021220401 -0.0023834286 -0.0024191292 -0.0021577275 -0.0018901363 -0.0024018025
-0.0021468953 -0.0022159687 -0.0023250685 -0.0024297468 -0.0023557667 -0.0022038862 -0.0024154596 -0.002267086
-0.0023634057 -0.0021099008 -0.002172161 -0.002137838 -0.0024401026 -0.0025808304 -0.0022225545 -0.0024798901
-0.0022750595 -0.002272409 -0.0023598648 -0.0024887838 -0.0024613766 -0.0022863343 -0.0020104735 -0.0021446128
00000000: d828 18bb e118 18bb 80f1 27bb 10e2 07bb
00000010: 22d7 17bb 64ab 22bb 23bb 1bbb bbd5 20bb
00000020: 7f45 0dbb 06bd 0dbb 725d 20bb cfd1 23bb
00000030: 9fe6 27bb 0371 19bb 76c4 04bb aded 0cbb
00000040: ac1f efba e24b 0cbb c030 f5ba bac1 26bb
00000050: a71c 11bb 1790 12bb 1d3e 25bb 8a79 0abb
00000060: a224 19bb 390d 13bb 3e4d 2dbb 50f4 18bb
00000070: 43e8 21bb d60a 14bb 3f32 22bb 3ceb 0abb
00000080: 3bbf 14bb 850d 27bb 2f92 13bb aac0 33bb
00000090: 5259 11bb 3b8c 06bb 0d45 10bb 81d8 14bb
000000a0: 5e71 12bb c83a 0abb 184a 26bb f5d5 0bbb
000000b0: f6ec 11bb 3bf1 1ebb a18e 11bb 4d4e 1fbb
000000c0: a51c 0fbb 19e1 15bb 969c 15bb 1d84 15bb
000000d0: 238b 26bb 920e 22bb e157 26bb cdd8 1fbb
000000e0: f29d 1abb 5d36 19bb 855f 0abb 79f1 0abb
000000f0: d901 f5ba 77eb 15bb bd01 21bb 8e65 0dbb
00000100: 976b f0ba 27d2 15bb 163b 14bb 2995 1bbb
00000110: cea5 16bb e016 21bb 85ff 02bb b0b5 13bb
00000120: 2439 11bb be43 1fbb ed11 0bbb 4c33 1cbb
00000130: 418a 1ebb a968 0dbb 73be f7ba 8f67 1dbb
00000140: edb2 0cbb c939 11bb 2d60 18bb 633c 1fbb
00000150: 3563 1abb 136f 10bb b04c 1ebb 6493 14bb
00000160: 5ee3 1abb 4346 0abb d05a 0ebb f81a 0cbb
00000170: 21ea 1fbb 2623 29bb 47a8 11bb a785 22bb
00000180: 2a19 15bb b2ec 14bb f6a7 1abb dd1a 23bb
00000190: 0c4f 21bb 53d6 15bb 26c2 03bb a28c 0cbb

model.feature_nns.3.model.0.weights f4 [1, 78]
0.1487473 0.14937365 0.13674194 0.142931 0.14951503 0.1429771 0.14726229 0.1347337
0.14177306 0.13486055 0.12713021 0.1423337 0.11219374 0.120723136 0.09525699 0.12550323
0.14503527 0.11875156 0.14625119 0.13099812 0.1308618 0.08876645 0.12595238 0.11095984
0.14571556 0.09339257 0.112942636 0.13920064 0.14165954 0.14660077 0.14688328 0.14514609
0.14226876 0.057591192 0.12386759 0.13261096 0.14311029 0.14229286 0.14814295 0.14140587
0.14175509 0.14060031 0.07690282 0.1330746 0.13917881 0.14280681 0.08692679 0.13682604
0.13244684 0.090130694 0.11742959 0.14544706 0.10750319 0.0865651 0.14780304 0.13644207
0.14736675 0.09735745 0.10193992 0.12861286 0.13437672 0.14849313 0.11434199 0.13067378
0.14438069 0.14450711 0.09691552 0.13738692 0.14609635 0.14669947 0.11802396 0.14063127
0.1027832 0.14230514 0.14348239 0.12043483 0.12056981 0.094477266
00000000: 3651 183e 68f5 183e 1406 0c3e 815c 123e
00000010: 781a 193e 9768 123e edcb 163e a2f7 093e
00000020: f52c 113e e218 0a3e 6c2e 023e edbf 113e
00000030: d5c5 e53d b13d f73d 1916 c33d eb83 003e
00000040: 2084 143e 0534 f33d dfc2 153e 5f24 063e
00000050: a300 063e 2fcb b53d a9f9 003e ea3e e33d
00000060: 7636 153e 9b44 bf3d 784e e73d 9d8a 0e3e
00000070: 330f 113e 831e 163e 9268 163e 2da1 143e
00000080: e7ae 113e bee4 6b3d 4bae fd3d 2bcb 073e
00000090: 818b 123e 38b5 113e c9b2 173e b3cc 103e
000000a0: 3f28 113e 87f9 0f3e 3a7f 9d3d b544 083e
000000b0: e484 0e3e f33b 123e ac06 b23d 201c 0c3e
000000c0: 25a0 073e 7196 b83d ed7e f03d 13f0 143e
000000d0: a22a dc3d 0b49 b13d ae59 173e 78b7 0b3e
000000e0: 4fe7 163e 5863 c73d e0c5 d03d 17b3 033e
000000f0: 0d9a 093e 950e 183e 222c ea3d 59cf 053e
00000100: 88d8 133e acf9 133e a57b c63d 28af 0c3e
00000110: 489a 153e 6338 163e 8cb6 f13d a501 103e
00000120: 0080 d23d 70b8 113e 0ced 123e 89a6 f63d
00000130: 4eed f63d 4c7d c13d

model.feature_nns.3.model.1.weight f4 [1, 78]
-0.0036295403 -0.003679192 -0.003268211 -0.0032620442 -0.0030530237 -0.0030991451 -0.0034713068 -0.0033359244
-0.0025843899 -0.003094441 -0.0034771813 -0.0036443972 -0.0037932678 -0.0026081412 -0.0034679424 -0.0033550544
-0.0032065182 -0.003703304 -0.0031096865 -0.0030433107 -0.0036316528 -0.0030953824 -0.002927122 -0.0033131936
-0.0030770986 -0.0031154007 -0.0029913038 -0.0032306765 -0.0033622528 -0.0037807531 -0.0037905967 -0.0034000515
-0.0031594723 -0.0025210476 -0.0035518764 -0.0029459316 -0.0031162277 -0.0033456974 -0.0029631497 -0.0037903376
-0.0029319557 -0.003793612 -0.0031913465 -0.0034774747 -0.0034778328 -0.0028987525 -0.0028335091 -0.0035877577
-0.0034974965 -0.0033128513 -0.0036965525 -0.0033699002 -0.0027910087 -0.0031748298 -0.003515955 -0.0033351271
-0.0030855832 -0.0032069471 -0.0030934706 -0.0030682185 -0.0037696748 -0.0034538775 -0.0031308164 -0.0026511352
-0.003334178 -0.0031969785 -0.0021207505 -0.003387793 -0.0032386207 -0.003155983 -0.0031463078 -0.0035160503
-0.0036902418 -0.002828705 -0.00295057 -0.0037830612 -0.003810002 -0.0027800414
00000000: 95dd 6dbb 991e 71bb 7b2f 56bb 05c8 55bb
00000010: 3d15 48bb 071b 4bbb dd7e 63bb 869f 5abb
00000020: de5e 29bb 1bcc 4abb 6ce1 63bb d7d6 6ebb
00000030: 7998 78bb 59ed 2abb 6b46 63bb 79e0 5bbb
00000040: 7324 52bb 22b3 72bb e2cb 4bbb 4872 47bb
00000050: 0601 6ebb e6db 4abb f5d4 3fbb 2a22 59bb
00000060: 26a9 49bb c02b 4cbb c009 44bb c2b9 53bb
00000070: 3e59 5cbb 83c6 77bb a96b 78bb 66d3 5ebb
00000080: 260f 4fbb 2938 25bb 99c6 68bb 8810 41bb
00000090: a039 4cbb 7d43 5bbb 6731 42bb 5067 78bb
000000a0: 0e26 40bb 3f9e 78bb e925 51bb 58e6 63bb
000000b0: 5aec 63bb fff8 3dbb 65b2 39bb 9620 6bbb
000000c0: 4136 65bb 6c1c 59bb dc41 72bb 8bd9 5cbb
000000d0: 5be9 36bb ce10 50bb f06b 66bb 2692 5abb
000000e0: 7f37 4abb a52b 52bb d3bb 4abb 2a14 49bb
000000f0: a60c 77bb 735a 62bb 622e 4dbb abbe 2dbb
00000100: 3982 5abb 6684 51bb 4afc 0abb bc05 5ebb
00000110: 0a3f 54bb 9cd4 4ebb 4932 4ebb 896d 66bb
00000120: fcd7 71bb cb61 39bb 5a5e 41bb 3ced 77bb
00000130: 3ab1 79bb 5b31 36bb

model.feature_nns.4.model.0.weights f4 [1, 182]
0.14434876 0.14450866 0.13769643 0.13874468 0.14898981 0.106086306 0.13930087 0.14750758
0.11491951 0.113544255 0.13327938 0.14823984 0.12986037 0.12595269 0.14694682 0.07549304
0.14453343 0.13461664 0.107482836 0.14397916 0.123262264 0.099065796 0.1495327 0.13942547
0.102100685 0.1348154 0.14527771 0.11691316 0.1270191 0.14108893 0.13009684 0.099671125
0.10156465 0.14512652 0.115762316 0.12981237 0.13071497 0.13324055 0.13891307 0.14162086
0.14164834 0.10101743 0.14392401 0.11759789 0.10801092 0.14699358 0.14050558 0.14773914
0.12345784 0.14513192 0.05756301 0.099868484 0.14135 0.14609942 0.11557398 0.11959928
0.14053845 0.12961806 0.103297874 0.1466124 0.12476822 0.09757567 0.14727752 0.14612667
0.14523004 0.12137036 0.14078178 0.11801261 0.13167726 0.10346289 0.078805596 0.1207964
0.08446488 0.12617467 0.14942616 0.11482525 0.13005204 0.13352922 0.09472573 0.1412055
0.1411753 0.068318784 0.1411752 0.14022617 0.14367992 0.1322529 0.14835167 0.13099378
0.13251254 0.13389868 0.146395 0.14453156 0.10519418 0.14463806 0.1295642 0.12782975
0.13057396 0.12313329 0.14745714 0.13566384 0.14644372 0.13103995 0.12718624 0.121992834
0.104583725 0.14013399 0.11152918 0.124706455 0.13547127 0.14522931 0.121924035 0.12206403
0.07548402 0.098858535 0.12734738 0.081601724 0.11355116 0.14727607 0.10879337 0.14332873
0.138003 0.11759715 0.13619168 0.12452736 0.14246042 0.14538135 0.12306823 0.11454056
0.09447206 0.14225805 0.14953715 0.1281991 0.13057476 0.14096385 0.11385078 0.108017504
0.13281323 0.14307885 0.13726956 0.11558136 0.14872806 0.14370963 0.12595282 0.06939572
0.14251906 0.07880983 0.13776259 0.124893814 0.12718618 0.12035611 0.132165 0.14839609
0.120429866 0.11444513 0.13997465 0.14866365 0.14598188 0.1186639 0.1306684 0.13010278
0.08841999 0.14875157 0.13285716 0.10504791 0.12179007 0.12320089 0.11929545 0.13167763
0.13430685 0.13900569 0.12371425 0.12809442 0.12143695 0.13673772 0.1469445 0.12434166
0.12005966 0.14131913 0.14756088 0.14010043 0.14771737 0.1367349
00000000: 29d0 133e 14fa 133e 4b00 0d3e 1613 0e3e
00000010: c990 183e c743 d93d e3a4 0e3e 3a0c 173e
00000020: ec5a eb3d e489 e83d 647a 083e 2fcc 173e
00000030: 1efa 043e bef9 003e 3a79 163e 189c 9a3d
00000040: 9200 143e f2d8 093e f61f dc3d 466f 133e
00000050: ed70 fc3d 02e3 ca3d 1a1f 193e 8dc5 0e3e
00000060: 2a1a d13d 0c0d 0a3e aec3 143e 2b70 ef3d
00000070: 4c11 023e 9e79 103e 1b38 053e 6020 cc3d
00000080: 2101 d03d 0c9c 143e cb14 ed3d 89ed 043e
00000090: 25da 053e 3670 083e 3a3f 0e3e 0f05 113e
000000a0: 430c 113e 3ae2 ce3d d160 133e 2ad7 f03d
000000b0: d434 dd3d 7c85 163e b2e0 0f3e ee48 173e
000000c0: 77d7 fc3d 769d 143e 31c7 6b3d d987 cc3d
000000d0: 0ebe 103e 169b 153e 0db2 ec3d 78f0 f43d
000000e0: 50e9 0f3e 99ba 043e d68d d33d 9021 163e
000000f0: 7b86 ff3d c1d5 c73d ebcf 163e 3ba2 153e
00000100: 2fb7 143e 0691 f83d 1929 103e 98b0 f13d
00000110: 67d6 063e 5ae4 d33d d464 a13d 1a64 f73d
00000120: ecfb ac3d ef33 013e 2c03 193e 8029 eb3d
00000130: 5d2c 053e e2bb 083e 90ff c13d 2d98 103e
00000140: 4290 103e b8ea 8b3d 3b90 103e 7397 0f3e
00000150: d420 133e 4e6d 073e 80e9 173e 3c23 063e
00000160: 5eb1 073e bc1c 093e 92e8 153e 1500 143e
00000170: 0c70 d73d 001c 143e 7aac 043e cde5 023e
00000180: 2eb5 053e 4e2d fc3d 01ff 163e 76eb 0a3e
00000190: 58f5 153e 562f 063e 1c3d 023e 61d7 f93d
000001a0: fe2f d63d 497f 0f3e 6969 e43d 1966 ff3d
000001b0: fbb8 0a3e feb6 143e 4fb3 f93d b5fc f93d
000001c0: 5e97 9a3d 5876 ca3d 5a67 023e ce1e a73d
000001d0: 838d e83d 8acf 163e 0fcf de3d c4c4 123e
000001e0: a950 0d3e c6d6 f03d d575 0b3e 3308 ff3d
000001f0: 25e1 113e d9de 143e 320b fc3d 3e94 ea3d
00000200: 917a c13d 18ac 113e 4420 193e a046 033e
00000210: 64b5 053e d458 103e 992a e93d 4838 dd3d
00000220: 3100 083e 4383 123e 6490 0c3e ecb5 ec3d
00000230: 2b4c 183e 9e28 133e c7f9 003e 581f 8e3d
00000240: 84f0 113e 0c67 a13d a311 0d3e 54c8 ff3d
00000250: 183d 023e 447d f63d 4356 073e 25f5 173e
00000260: efa3 f63d 3562 ea3d 8455 0f3e 493b 183e
00000270: 467c 153e 0f06 f33d f0cd 053e aa39 053e
00000280: 8a15 b53d 5552 183e b50b 083e 5c23 d73d
00000290: 126d f93d c050 fc3d 2c51 f43d 80d6 063e
000002a0: bc87 093e 8257 0e3e e65d fd3d 2f2b 033e
000002b0: f0b3 f83d f904 0c3e 9e78 163e d7a6 fe3d
000002c0: d7e1 f53d f6b5 103e 331a 173e 7d76 0f3e
000002d0: 3943 173e 3c04 0c3e

model.feature_nns.4.model.1.weight f4 [1, 182]
-0.0020171327 -0.001987192 -0.002073559 -0.002155385 -0.0025900835 -0.0018267157 -0.002000551 -0.0015260096
-0.0020208377 -0.0017204543 -0.0018759954 -0.0026578228 -0.0019180027 -0.0015147367 -0.0022798441 -0.001469633
-0.0021946619 -0.0016540949 -0.0014820723 -0.0010440589 -0.001860891 -0.0019259334 -0.0027154856 -0.0020547083
-0.002221392 -0.0021012493 -0.001364629 -0.0017694704 -0.0016560752 -0.0022224674 -0.0016303326 -0.0011369064
-0.0020757716 -0.0020166738 -0.0021639653 -0.0013898071 -0.0018477726 -0.0016527758 -0.002021062 -0.0017852755
-0.0017596855 -0.0018330666 -0.0019820605 -0.001637452 -0.0017824044 -0.0016778169 -0.0019288819 -0.0018681033
-0.0017653882 -0.0015376695 -0.0018496078 -0.0021256115 -0.0015104383 -0.0014082629 -0.0019930059 -0.002180683
-0.0015465755 -0.0020452815 -0.0014689497 -0.0031345498 -0.0019123044 -0.0018185712 -0.0016521106 -0.0012410439
-0.0015994867 -0.0021751495 -0.0015367828 -0.001304223 -0.0020373834 -0.0018158236 -0.0018093269 -0.0016745785
-0.0015390466 -0.0018022731 -0.0018366044 -0.0019197669 -0.0020830573 -0.0020200543 -0.0030364166 -0.0021124755
-0.0028952074 -0.0016383226 -0.001925322 -0.0017906169 -0.0015255023 -0.0019262396 -0.001778611 -0.0019106884
-0.0020005521 -0.0015571832 -0.0021482354 -0.0018896664 -0.0020485206 -0.0022227394 -0.0018758094 -0.0015941311
-0.0014327421 -0.0016197509 -0.0020098228 -0.0020832731 -0.0021425462 -0.0020745606 -0.0020563696 -0.0022717263
-0.0020621205 -0.0016854976 -0.0018404871 -0.0015836528 -0.0020165003 -0.0018119793 -0.0018650822 -0.0023050464
-0.00208806 -0.0014397164 -0.0014480619 -0.0013462378 -0.0022376187 -0.002077484 -0.002054456 -0.0013859243
-0.0022730823 -0.002076134 -0.0016595109 -0.0018652927 -0.0018010775 -0.0019205905 -0.00252906 -0.0010187642
-0.0016529023 -0.0011985897 -0.0016778723 -0.0020359196 -0.0011447155 -0.0021662372 -0.0012260538 -0.0022447242
-0.0011105216 -0.002407365 -0.0027002012 -0.0014003925 -0.0016056366 -0.0019735054 -0.0018268368 -0.0014461083
-0.0016059171 -0.0017039311 -0.0017205793 -0.0016316654 -0.0019388604 -0.0019788176 -0.0013636271 -0.0013297135
-0.00137928 -0.0022065633 -0.0017082938 -0.0016711295 -0.0024987182 -0.002237332 -0.0015530719 -0.0016423134
-0.0017081323 -0.001815887 -0.002551798 -0.0015099201 -0.0021296628 -0.0017494218 -0.0018674919 -0.0021462296
-0.0021041 -0.0017366023 -0.0014635524 -0.0026473613 -0.001956985 -0.0020062122 -0.0016920865 -0.0011240563
-0.0018253213 -0.00195349 -0.0023304238 -0.0019494845 -0.0019454595 -0.0018972588
00000000: df31 04bb 8d3b 02bb 8ce4 07bb 5c41 0dbb
00000010: 64be 29bb 686e efba ad1b 03bb 6304 c8ba
00000020: 0870 04bb de80 e1ba f6e3 f5ba de2e 2ebb
00000030: 7e65 fbba 218a c6ba 7069 15bb b3a0 c0ba
00000040: 51d4 0fbb 37ce d8ba 1842 c2ba ced8 88ba
00000050: 24e9 f3ba 9a6f fcba 4af6 31bb 49a8 06bb
00000060: c694 11bb 1db5 09bb 5add b2ba 93ed e7ba
00000070: aa10 d9ba d1a6 11bb e2b0 d5ba 4004 95ba
00000080: ab09 08bb 2c2a 04bb 50d1 0dbb 302a b6ba
00000090: f630 f2ba f4a1 d8ba cb73 04bb e8ff e9ba
000000a0: 3fa5 e6ba 8243 f0ba 75e5 01bb c69f d6ba
000000b0: 919f e9ba 31ea dbba 89d2 fcba 25db f4ba
000000c0: 9964 e7ba a08b c9ba 8a6e f2ba d84d 0bbb
000000d0: e6f9 c5ba 7695 b8ba 179d 02bb cae9 0ebb
000000e0: 76b6 caba 210a 06bb c689 c0ba 056d 4dbb
000000f0: 4aa6 faba 205d eeba a28b d8ba 86aa a2ba
00000100: dea5 d1ba f48c 0ebb e06d c9ba 76f2 aaba
00000110: 9f85 05bb ee00 eeba f026 edba 887d dbba
00000120: d6b9 c9ba 403a ecba 38ba f0ba b0a0 fbba
00000130: e783 08bb e362 04bb 9efe 46bb 7571 0abb
00000140: 85bd 3dbb fcbc d6ba 165b fcba 22b3 eaba
00000150: 5df3 c7ba e079 fcba 4820 e9ba 1070 faba
00000160: b21b 03bb 661a ccba 69c9 0cbb afae f7ba
00000170: 7940 06bb 61ab 11bb b8dd f5ba 2af2 d0ba
00000180: d9ca bbba d24d d4ba 3bb7 03bb 8687 08bb
00000190: f669 0cbb 5af5 07bb 28c4 06bb 3ee1 14bb
000001a0: a424 07bb eaeb dcba 803c f1ba 9292 cfba
000001b0: 4327 04bb f07f edba c675 f4ba 4310 17bb
000001c0: d5d7 08bb deb4 bcba e5cc bdba 3f74 b0ba
000001d0: 03a5 12bb 6626 08bb 0da4 06bb e7a7 b5ba
000001e0: fef7 14bb c00f 08bb f283 d9ba d67c f4ba
000001f0: 2212 ecba 53bc fbba 96be 25bb 0e88 85ba
00000200: 33a6 d8ba ff19 9dba 0dec dbba 106d 05bb
00000210: 470a 96ba 6ef7 0dbb 8ab3 a0ba 391c 13bb
00000220: ec8e 91ba e2c4 1dbb dcf5 30bb 608d b7ba
00000230: 3974 d2ba ed55 01bb 7972 efba 588b bdba
00000240: a37d d2ba 7156 dfba 1085 e1ba 9bdd d5ba
00000250: 5c21 feba 0daf 01bb bcbb b2ba c849 aeba
00000260: f5c8 b4ba fd9b 10bb d4e8 dfba cd09 dbba
00000270: 89c1 23bb 34a0 12bb 7290 cbba e542 d7ba
00000280: 69e3 dfba 0f03 eeba 113c 27bb 83e8 c5ba
00000290: d091 0bbb db4c e5ba a1c6 f4ba c2a7 0cbb
000002a0: f1e4 09bb b49e e3ba abd4 bfba 5a7f 2dbb
000002b0: c340 00bb a87a 03bb 00c9 ddba 1255 93ba
000002c0: 9f3f efba 2006 00bb 06ba 18bb d885 ffba
000002d0: cafe feba 71ad f8ba

model.feature_nns.5.model.0.weights f4 [1, 1000]
0.11207914 0.1450271 0.11539543 0.12470771 0.07819489 0.11809643 0.14381257 0.13203266
0.14500467 0.14573169 0.07755848 0.13453999 0.11186241 0.11566976 0.14240555 0.13047881
0.13117607 0.10622832 0.13473627 0.1488192 0.14870915 0.11473424 0.13382018 0.10679279
0.12840529 0.11889771 0.1314518 0.13949704 0.14753163 0.1316287 0.123590715 0.14294058
0.11186002 0.12783116 0.14533253 0.0913851 0.13574019 0.14771599 0.14062676 0.14102551
0.13614942 0.13246796 0.13734993 0.1350512 0.12674668 0.13586256 0.14489801 0.119905435
0.1403194 0.14689788 0.11384831 0.1319875 0.14288563 0.13920452 0.1299604 0.14855231
0.102620214 0.13186027 0.14565793 0.08946072 0.14641854 0.08490041 0.13019377 0.13071544
0.12707807 0.117683485 0.14492066 0.13614942 0.13163452 0.13277656 0.13994424 0.14434806
0.12226745 0.13900921 0.12618428 0.09572567 0.11809992 0.12206525 0.11665733 0.08446649
0.12261094 0.11793426 0.13122413 0.14520055 0.14505032 0.12798288 0.13149773 0.12957181
0.14624318 0.10637169 0.13131353 0.119211435 0.10840938 0.14365551 0.10941916 0.06715683
0.135696 0.14590421 0.082109965 0.13698626 0.11717755 0.14656529 0.14812407 0.13466139
0.10535044 0.086549215 0.14725578 0.117260456 0.14489688 0.14006808 0.14804 0.098229684
0.12921979 0.13158342 0.126694 0.13122778 0.12013116 0.11809573 0.13800034 0.13920388
0.09713071 0.09906579 0.13360812 0.112821706 0.14846393 0.1460021 0.13076085 0.11364332
0.07548923 0.114823565 0.14196716 0.09421148 0.14629467 0.11792811 0.13543476 0.12287203
0.115484975 0.14879568 0.14780752 0.13677156 0.08160164 0.122066036 0.08842107 0.11594122
0.11530044 0.124650255 0.14402762 0.06590849 0.14605172 0.12313569 0.13369767 0.13888226
0.12013643 0.12578069 0.14232019 0.08979593 0.14881462 0.114246026 0.14732699 0.12825172
0.12819937 0.1261233 0.09312847 0.1405956 0.12464729 0.13132015 0.14362425 0.14644204
0.14469314 0.13373838 0.11960659 0.14593424 0.14499871 0.12433831 0.14123422 0.13959768
0.1322991 0.14468972 0.1297134 0.13477916 0.106080584 0.092276074 0.1345457 0.09779031
0.1360004 0.14764674 0.11163831 0.14182824 0.13000335 0.0731438 0.14351873 0.1422324
0.095229805 0.14931616 0.1348164 0.08490002 0.14821818 0.14096582 0.09822728 0.12606828
0.14206477 0.12799253 0.127408 0.14343718 0.06831509 0.11049904 0.12701978 0.13769178
0.13716394 0.10840655 0.14910457 0.14050965 0.12458693 0.14117768 0.14177072 0.13975343
0.09596374 0.14469032 0.13113956 0.12794188 0.11784857 0.08979784 0.13891166 0.1428
0.1056468 0.14161983 0.116125 0.111526184 0.11734275 0.14481892 0.14373785 0.14274435
0.14715905 0.14565742 0.1251384 0.14474542 0.14743818 0.09394583 0.1477862 0.14426586
0.1373409 0.11323869 0.13555214 0.098862216 0.14268716 0.14832924 0.14376359 0.1283037
0.10045444 0.09256457 0.13198522 0.14787632 0.1320736 0.13949595 0.14527664 0.12855837
00000000: c089 e53d fc81 143e 7054 ec3d c266 ff3d
00000010: a424 a03d 8bdc f13d 9a43 133e 9233 073e
00000020: 1b7c 143e b03a 153e fbd6 9e3d dac4 093e
00000030: 1f18 e53d 44e4 ec3d c3d2 113e 3d9c 053e
00000040: 0553 063e 3c8e d93d 4ef8 093e 0f64 183e
00000050: 3647 183e c9f9 ea3d 2808 093e 2eb6 da3d
00000060: ad7c 033e a580 f33d 4d9b 063e 50d8 0e3e
00000070: 8812 173e adc9 063e 211d fd3d 045f 123e
00000080: de16 e53d 2ce6 023e 0dd2 143e 1c28 bb3d
00000090: 7aff 0a3e dc42 173e 7600 103e fe68 103e
000000a0: c16a 0b3e aea5 073e 76a5 0c3e dd4a 0a3e
000000b0: e2c9 013e 8e1f 0b3e 2560 143e fb90 f53d
000000c0: e4af 0f3e 666c 163e 4e29 e93d bb27 073e
000000d0: 9c50 123e a18b 0e3e 5714 053e 191e 183e
000000e0: 8c2a d23d 6106 073e 5a27 153e 2f37 b73d
000000f0: beee 153e 44e0 ad3d 8451 053e 45da 053e
00000100: c120 023e 0a04 f13d 1566 143e c16a 0b3e
00000110: 33cb 063e 94f6 073e 8b4d 0f3e facf 133e
00000120: 5b67 fa3d 6e58 0e3e 7436 013e d20b c43d
00000130: 5fde f13d 59fd f93d 0aea ee3d c4fc ac3d
00000140: 721b fb3d 8487 f13d 9e5f 063e 74af 143e
00000150: 1288 143e f20d 033e 57a7 063e 79ae 043e
00000160: c6c0 153e 67d9 d93d 0e77 063e 2025 f43d
00000170: bd05 de3d 6e1a 133e 2717 e03d 8589 893d
00000180: e4f3 0a3e ea67 153e 4529 a83d 2046 0c3e
00000190: c9fa ef3d 3615 163e d6ad 173e ade4 093e
000001a0: f9c1 d73d b740 b13d 38ca 163e 4026 f03d
000001b0: d95f 143e 026e 0f3e cc97 173e a52c c93d
000001c0: 3152 043e cebd 063e 12bc 013e 9360 063e
000001d0: 5307 f63d 2ddc f13d f64f 0d3e 768b 0e3e
000001e0: 77ec c63d 01e3 ca3d 91d0 083e 110f e73d
000001f0: ee06 183e 9381 153e 2ce6 053e d4bd e83d
00000200: 199a 9a3d 9e28 eb3d d75f 113e f3f1 c03d
00000210: 45ce 153e 4b84 f13d 69af 0a3e 55a4 fb3d
00000220: 6383 ec3d e55d 183e db5a 173e d80d 0c3e
00000230: c31e a73d c2fd f93d 1b16 b53d 9772 ed3d
00000240: a322 ec3d a248 ff3d fa7b 133e 08fb 863d
00000250: 958e 153e 912e fc3d 0be8 083e 2737 0e3e
00000260: 170a f63d a7cc 003e 62bc 113e eee6 b73d
00000270: dc62 183e d2f9 e93d e3dc 163e 6b54 033e
00000280: b246 033e 7726 013e 24ba be3d 4bf8 0f3e
00000290: 1447 ff3d ca78 063e 3c12 133e e7f4 153e
000002a0: 702a 143e b7f2 083e 4df4 f43d c96f 153e
000002b0: 8b7a 143e 15a5 fe3d b49f 103e b2f2 0e3e
000002c0: 6a79 073e 8b29 143e 97d3 043e 8c03 0a3e
000002d0: c740 d93d 3dfb bc3d 59c6 093e 4946 c83d
000002e0: b043 0b3e b530 173e a0a2 e43d 6c3b 113e
000002f0: 991f 053e 6bcc 953d 93f6 123e 5fa5 113e
00000300: d807 c33d 56e6 183e 4f0d 0a3e 10e0 ad3d
00000310: 82c6 173e 5859 103e 622b c93d 0b18 013e
00000320: 6d79 113e 7910 033e 3e77 023e 32e1 123e
00000330: c8e8 8b3d 524d e23d 7911 023e 13ff 0c3e
00000340: b474 0c3e 4104 de3d deae 183e c3e1 0f3e
00000350: 6f27 ff3d e290 103e 582c 113e 861b 0f3e
00000360: a388 c43d b329 143e 7349 063e 3203 033e
00000370: 975a f13d eee7 b73d dc3e 0e3e 2a3a 123e
00000380: 595d d83d ca04 113e f2d2 ed3d d767 e43d
00000390: 6551 f03d 694b 143e 0430 133e 932b 123e
000003a0: ddb0 163e 3827 153e 4824 003e 2538 143e
000003b0: 09fa 163e ac66 c03d 4455 173e 6eba 133e
000003c0: 18a3 0c3e b0e9 e73d 2ece 0a3e 4678 ca3d
000003d0: 951c 123e 9fe3 173e c336 133e 0c62 033e
000003e0: 0fbb cd3d 7e92 bd3d 2227 073e e46c 173e
000003f0: 4d3e 073e 07d8 0e3e 66c3 143e cea4 033e

model.feature_nns.5.model.1.weight f4 [1, 1000]
-0.0002468435 -0.00052999606 -0.00048179072 -0.00043019676 -0.0004268088 -0.00012849462 -0.00058948284 -0.00060036767
-0.00040548897 -0.00065391604 -0.0002644256 -0.00035254832 -0.0003065026 -0.0004640677 -0.00039322904 -0.0005453609
-0.00045641427 -0.0002847017 -0.0005624696 -0.0003677804 -0.00061270094 -0.00033998175 -0.00046747204 -0.00039183555
-0.00047387872 -0.00057353475 -0.00057166046 -0.0006021209 -0.0003790626 -0.00037129963 -0.0002485919 -0.00043352673
-0.00044250046 -0.00026962292 -0.0006135341 -0.0002901062 -0.0003911423 -0.00068558747 -0.00058319187 -0.00050093106
-0.00026472847 -0.0005335884 -0.00042934358 -0.000572499 -0.00037126028 -0.00031132915 -0.0004918997 -0.00039009913
-0.0003372968 -0.0006330562 -0.00029540792 -0.00034248165 -0.0005875414 -0.00027447022 -0.00048582337 -0.00065160444
-0.00038217564 -0.00042318116 -0.00048766844 -0.00053353625 -0.00035902884 -0.00033983408 -0.00056403223 -0.0003642916
-0.00032839124 -0.00041394407 -0.00042181637 -0.00042127955 -0.00043787938 -0.00057008833 -0.00026840856 -0.0003913079
-0.00036083473 -0.0005562708 -0.00046950387 -0.00047960863 -0.00012396395 -0.000507685 -0.00034017317 -0.00022610689
-0.00043099813 -0.00029927897 -0.00034086802 -0.00031215663 -0.00046473794 -0.00053631276 -0.00046891547 -0.000307618
-0.00045213752 -0.00040289407 -0.0006690521 -0.00038694002 -0.00033229406 -0.00050719234 -0.00046698152 -0.00018698926
-0.0004623178 -0.0002741419 -0.000349393 -0.0004665535 -0.0005345615 -0.0003919413 -0.00050294254 -0.00041850947
-0.0003309223 -0.00035437843 -0.0003235452 -0.0003628313 -0.0003556614 -0.0004923382 -0.00036955572 -0.0004905914
-0.00049047574 -0.0005848407 -0.0004949423 -0.000625141 -0.0004905042 -0.0004861598 -0.0006102102 -0.00058431394
-0.0006017643 -0.0004578977 -0.00044259953 -0.00051756046 -0.00042310922 -0.00034521217 -0.0003637276 -0.0002588052
-0.00030429589 -0.0004841103 -0.00034051947 -0.00042466188 -0.00047621227 -0.00054837804 -0.00085009704 -0.0005953864
-0.00037313334 -0.0005590777 -0.0003591304 -0.00039364732 -0.00027679466 -0.00020912815 -0.0004082304 -0.00042876802
-0.00025048974 -0.0003277152 -0.00063158304 -0.0005694878 -0.00049363734 -0.00039572184 -0.00035941726 -0.000492025
-0.00054287864 -0.00024246317 -0.00052065065 -0.0004259902 -0.00047956774 -0.00041110435 -0.00050721236 -0.00050730753
-0.00051440834 -0.00053556386 -0.00067237427 -0.00068003585 -0.00045053527 -0.00026863872 -0.00026812596 -0.00065980555
-0.00042532105 -0.0004947616 -0.0005287391 -0.00045178976 -0.0005596139 -0.0005974781 -0.0004672827 -0.00047254117
-0.00033207404 -0.0004884874 -0.00034770503 -0.0005177504 -0.00035038893 -0.00024448003 -0.00051222724 -0.00049934094
-0.00055216893 -0.00055190903 -0.00036040158 -0.0005313136 -0.00046177456 -0.00041311258 -0.000648898 -0.00036035746
-0.00022629894 -0.00045328197 -0.0004993486 -0.00048767286 -0.00046452152 -0.00060407474 -0.00035099624 -0.00046254267
-0.00039517006 -0.0004145103 -0.00020019304 -0.0003014896 -0.00025256796 -0.00025102188 -0.0004509678 -0.0007148165
-0.0004542717 -0.0004070239 -0.00037916834 -0.00034748652 -0.00041976856 -0.00041041194 -0.00034386842 -0.0005681754
-0.00042811624 -0.000533155 -0.00043573198 -0.00040813547 -0.00036469844 -0.00042869407 -0.0004944029 -0.0004416954
-0.00039266248 -0.00032219052 -0.0002594482 -0.00070674316 -0.000643734 -0.00042437864 -0.00042680305 -0.00052013184
-0.00056279305 -0.000483692 -0.00033249892 -0.0005099194 -0.000509126 -0.00044668224 -0.00043966522 -0.0005972651
-0.00039333213 -0.0003816609 -0.0005260835 -0.0003684349 -0.00046041582 -0.0004893612 -0.00062823674 -0.00045141374
-0.00055182393 -0.0004968869 -0.00032578147 -0.00044545892 -0.00029914646 -0.00057080865 -0.000707751 -0.0006369299
00000000: c66a 81b9 6fef 0aba db98 fcb9 088c e1b9
00000010: 4fc5 dfb9 83bc 06b9 8687 1aba fe61 1dba
00000020: cf97 d4b9 906b 2bba 9aa2 8ab9 3cd6 b8b9
00000030: 15b2 a0b9 1d4e f3b9 4f2a ceb9 8df6 0eba
00000040: e34a efb9 0444 95b9 b272 13ba a6d2 c0b9
00000050: aa9d 20ba 943f b2b9 0917 f5b9 476f cdb9
00000060: ed72 f8b9 4459 16ba 7cdb 15ba a6d7 1dba
00000070: ecbc c6b9 feaa c2b9 7155 82b9 f94a e3b9
00000080: 68ff e7b9 2d5c 8db9 94d5 20ba 6519 98b9
00000090: 3b12 cdb9 ffb8 33ba 58e1 18ba ea50 03ba
000000a0: 41cb 8ab9 83e0 0bba 8519 e1b9 c213 16ba
000000b0: b6a5 c2b9 e439 a3b9 d4f2 00ba 3886 ccb9
000000c0: 36d7 b0b9 aff3 25ba fbe0 9ab9 1c8f b3b9
000000d0: 3c05 1aba c5e6 8fb9 1cb6 feb9 6fd0 2aba
000000e0: bf5e c8b9 6ade ddb9 c0ad ffb9 03dd 0bba
000000f0: 093c bcb9 c22b b2b9 90db 13ba 64fe beb9
00000100: ed2b acb9 a206 d9b9 3c27 ddb9 2fdf dcb9
00000110: 2d93 e5b9 fb71 15ba 30b9 8cb9 7528 cdb9
00000120: 6b2e bdb9 b4d2 11ba be27 f6b9 fb73 fbb9
00000130: 52fc 01b9 2a16 05ba 4559 b2b9 1b17 6db9
00000140: 97f7 e1b9 8be8 9cb9 88b6 b2b9 f4a8 a3b9
00000150: 12a8 f3b9 5797 0cba c5d8 f5b9 ca47 a1b9
00000160: df0c edb9 873b d3b9 5463 2fba 36de cab9
00000170: c137 aeb9 1af5 04ba 33d5 f4b9 8c12 44b9
00000180: 3f63 f2b9 b4ba 8fb9 bc2e b7b9 c09b f4b9
00000190: d121 0cba 797d cdb9 e7d7 03ba 646b dbb9
000001a0: a47f adb9 decb b9b9 80a1 a9b9 653a beb9
000001b0: 1178 bab9 4210 01ba eec0 c1b9 089b 00ba
000001c0: 4593 00ba ff4f 19ba 04bf 01ba 81e0 23ba
000001d0: 2e95 00ba 44e3 feb9 83f6 1fba a52c 19ba
000001e0: b8bf 1dba fd11 f0b9 b40c e8b9 e5ac 07ba
000001f0: c2d4 ddb9 98fd b4b9 b1b2 beb9 3fb0 87b9
00000200: e789 9fb9 2fd0 fdb9 c087 b2b9 27a5 deb9
00000210: 21ac f9b9 07c1 0fba 0cd9 5eba b413 1cba
00000220: 1ca1 c3b9 128f 12ba ab49 bcb9 7362 ceb9
00000230: c01e 91b9 6949 5bb9 c207 d6b9 45cc e0b9
00000240: 2a54 83b9 31d1 abb9 d290 25ba ae49 15ba
00000250: 7167 01ba e378 cfb9 2b70 bcb9 3dfb 00ba
00000260: f84f 0eba b63d 7eb9 467c 08ba 7057 dfb9
00000270: 7e6e fbb9 7e89 d7b9 72f6 04ba d5fc 04ba
00000280: 5cd9 06ba 1565 0cba 4642 30ba 6f44 32ba
00000290: d235 ecb9 14d8 8cb9 4293 8cb9 cdf6 2cba
000002a0: a0fd deb9 e4b2 01ba 159b 0aba 32de ecb9
000002b0: 0eb3 12ba 14a0 1cba 9ffd f4b9 67bf f7b9
000002c0: 391a aeb9 d60d 00ba 2e4c b6b9 a4b9 07ba
000002d0: 68b4 b7b9 8e2d 80b9 fd46 06ba 34e6 02ba
000002e0: 6ebf 10ba fdad 10ba 48f4 bcb9 da47 0bba
000002f0: 551a f2b9 0897 d8b9 cf1a 2aba 5cee bcb9
00000300: a94a 6db9 7aa6 edb9 b8e6 02ba 58ae ffb9
00000310: 068b f3b9 c55a 1eba eb05 b8b9 6d81 f2b9
00000320: d42e cfb9 a152 d9b9 e9ea 51b9 4011 9eb9
00000330: 196b 84b9 969b 83b9 e06f ecb9 8662 3bba
00000340: 512b eeb9 d365 d5b9 1dcb c6b9 da2e b6b9
00000350: 6214 dcb9 8f2c d7b9 3d49 b4b9 9bf1 14ba
00000360: ca74 e0b9 6dc3 0bba f572 e4b9 04fb d5b9
00000370: ff34 bfb9 58c2 e0b9 d19a 01ba 5a93 e7b9
00000380: 44de cdb9 aeeb a8b9 8c06 88b9 bb44 39ba
00000390: 42c0 28ba 237f deb9 89c4 dfb9 7559 08ba
000003a0: 6788 13ba 0b98 fdb9 4053 aeb9 1dac 05ba
000003b0: de76 05ba ad30 eab9 de82 e6b9 c891 1cba
000003c0: 2538 ceb9 a919 c8b9 dee8 09ba 7f2a c1b9
000003d0: f763 f1b9 7948 00ba 41b0 24ba baab ecb9
000003e0: 47a8 10ba 8441 02ba a6cd aab9 7c8c e9b9
000003f0: c2d6 9cb9 52a2 15ba 5e88 39ba a4f7 26ba
