GolfFeedback-poc/src/s3_NAM_model/output/dtl_DA/0/checkpoints/epoch=497-val_loss=9.4455-v1.ckpt (torch, 588817 bytes, 198 tensors)

model.feature_nns.0.model.0.weights f4 [1, 46]
00000000: 060d 133d 243a f23c cada e63c 324f f73c
00000010: a672 043d a674 0a3d f400 c43c a651 0a3d
00000020: 0453 cc3c ee0d 1f3d 4a92 1b3d 8eec 073d
00000030: 86d7 de3c a8e1 1b3d 907e e83c af4f cd3c
00000040: ec25 ae3c d968 1b3d fd74 003d 639d fd3c
00000050: 8aa6 f93c 057c 0a3d 7337 033d 59ca 1e3d
00000060: 244f ba3c c0e1 1b3d b776 f83c 39d5 123d
00000070: 59b2 b53c 9bda ef3c f278 183d 47c9 b23c
00000080: eedb 733c 8007 f43c 01eb 1b3d fd4f c13c
00000090: f4b8 ca3c 5d9e 1c3d bf17 183d 3d1c 173d
000000a0: 0a4c 143d be4e 073d 6e5e a33c 6b87 0c3d
000000b0: bc8a 0c3d ed37 1a3d
0.035901092 0.02956874 0.028180499 0.03018913 0.0323359 0.03380265 0.023926236 0.033769272
0.024941929 0.038831644 0.03798131 0.03318458 0.027202379 0.038057 0.028380662 0.02506241
0.021258317 0.037941787 0.03136157 0.030958837 0.03047492 0.03380968 0.032035302 0.038767193
0.022742815 0.03805709 0.030330045 0.035847876 0.02217977 0.029279044 0.037224717 0.021824492
0.014883978 0.029788733 0.038065914 0.023597712 0.024746396 0.038236964 0.03713202 0.036892164
0.03620533 0.03303408 0.019942489 0.034308832 0.034311995 0.03765099

model.feature_nns.0.model.1.weight f4 [1, 46]
00000000: 1ceb 81bb 5276 8bbb caba 79bb 6178 90bb
00000010: 633c 82bb da72 82bb e816 86bb 8cba 75bb
00000020: cbcf 8abb 1eac 86bb df81 8ebb dd53 86bb
00000030: 64a6 89bb 3e94 82bb a4b7 82bb f879 81bb
00000040: 15ee 87bb ab75 88bb cc87 78bb 3b20 95bb
00000050: c2a0 93bb a9b1 82bb a673 8dbb 8abe 86bb
00000060: 743f 87bb 6ba1 93bb 2778 7dbb 74f2 80bb
00000070: dfcb 7ebb 63a1 86bb 8876 8dbb 72af 7ebb
00000080: 7128 82bb ceaf 84bb 8a52 96bb b65a 80bb
00000090: 0e03 89bb 140f 8bbb c1f6 7fbb a851 8abb
000000a0: ced4 8abb f830 8abb 9b94 7fbb 4e0d 8cbb
000000b0: b56d 81bb 9dfc 8bbb
-0.003964795 -0.0042560482 -0.003810572 -0.0044088815 -0.003974484 -0.0039809765 -0.004092086 -0.0037495224
-0.0042361966 -0.0041098734 -0.004348978 -0.0040993528 -0.0042007435 -0.003984957 -0.003989177 -0.0039513074
-0.0041482546 -0.0041644177 -0.0037922738 -0.0045509613 -0.004505248 -0.003988464 -0.004316765 -0.0041120695
-0.0041274372 -0.0045053265 -0.0038676353 -0.0039351527 -0.003887884 -0.0041085943 -0.0043171085 -0.0038861898
-0.003972106 -0.004049278 -0.004587476 -0.0039170636 -0.0041812724 -0.004243741 -0.003905699 -0.00422116
-0.004236794 -0.0042172633 -0.0038998488 -0.004274047 -0.0039498457 -0.004272057

model.feature_nns.1.model.0.weights f4 [1, 1000]
00000000: 1976 173d 8271 1e3d 0b37 fb3c d4c4 1a3d
00000010: 1728 1e3d f564 0f3d 17c0 733c ac54 573c
00000020: c867 ef3c b0d4 133d c7ca 183d 651b 123d
00000030: 11ef 943c b56e 023d 1888 163d 6246 123d
00000040: eb70 0d3d 8594 1c3d 94e8 b83c 168d 083d
00000050: da85 ce3c 2454 5f3c 7416 f13c 8506 ef3c
00000060: 5599 183d f336 b13c 686a 0e3d 89c0 de3c
00000070: 5335 e53c 223c a53c d818 143d d273 0f3d
00000080: 9264 033d 602a 883c 6d7e 1d3d 0f66 043d
00000090: 1839 a53c b649 1a3d 5b6d 5b3c c9fe 123d
000000a0: cac4 173d 0369 163d 9bbb 1c3d 3877 d23c
000000b0: 432b 7f3c 57f2 1b3d 02bf 0f3d b701 143d
000000c0: 9cbf 133d 8721 e13c 6b89 173d 3afb 0f3d
000000d0: d167 113d a577 df3c 789d cc3c 2238 023d
000000e0: 2bea a83c fd0d 043d 9e54 0a3d e210 d53c
000000f0: 10a8 013d 92fc 163d 8e7f a93c afa7 103d
00000100: 884f 1b3d ec9e 173d 5596 cd3c b30f 0f3d
00000110: ad1b 0a3d b27f fb3c 2653 123d bd67 0c3d
00000120: b146 d73c 977e 1b3d 5741 ee3c 29cb 133d
00000130: 8e5a 143d 48cf 173d a3d1 ff3c b1e8 ea3c
00000140: 641e 163d dbd3 1d3d a7a3 ca3c 11f6 ff3c
00000150: b52c 1c3d 6291 0e3d 9e73 153d 663a 013d
00000160: 3784 163d d227 0e3d 13b0 c43c c82f 1d3d
00000170: d1f0 943c 7516 193d efa2 d33c 66ee 1d3d
00000180: 5771 133d fda2 1e3d ec15 1d3d 098f 0c3d
00000190: 4422 1d3d 962a d23c 616f cf3c 551c aa3c
000001a0: b7c5 dc3c d9b0 163d d9f6 153d b3f1 943c
000001b0: e423 b63c 4535 193d 0399 1e3d 7e87 173d
000001c0: 51db 0d3d 47eb f63c d073 0c3d 4b3f 193d
000001d0: 55b1 b03c 3518 f13c 986f 0b3d 0570 5b3c
000001e0: 55d8 073d 0f15 0d3d adbf 103d 526f e83c
000001f0: d0e2 173d c36e 8b3c 7f75 4e3c fd01 0e3d
00000200: ca0e 173d 4dab 083d 4960 1a3d a5ad 153d
00000210: 3634 183d 62fa 023d ac89 193d 9876 be3c
00000220: 825c e13c a1b5 ea3c f2e2 173d 6dde 1c3d
00000230: 116b e03c 0f39 173d e0d1 e13c 8515 103d
00000240: eabc 1a3d 4fb2 0f3d 52af 063d 0e51 083d
00000250: 2c5d 063d 1369 7c3c 29cd 0d3d 8112 093d
00000260: 5316 1f3d 8d2e c33c 3d08 1e3d 79b0 1d3d
00000270: f43a 9c3c c995 013d 294f 133d c1bd 143d
00000280: b614 f13c a2f9 d03c 40b4 eb3c ac41 f63c
00000290: 50ff 123d 349f 053d d7ec 133d 230c 033d
000002a0: bed1 0e3d 0b89 133d fbbf b23c 5b0a ef3c
000002b0: 3372 4e3c 7782 f43c 73ae c43c c461 243c
000002c0: d8a5 1d3d c7ba f03c 8d5f 083d fa05 d73c
000002d0: ad2a 0a3d 0f79 8d3c 8def 013d 8841 033d
000002e0: 5b57 0d3d 0ab7 0a3d 8152 183d ce8c 083d
000002f0: b2b0 ed3c ba80 1e3d dd11 023d db76 1d3d
00000300: da0d be3c a1fe de3c a020 af3c 3f77 d63c
00000310: 45c4 093d 73c3 1a3d 8730 c33c dc20 113d
00000320: 74ab 193d 9b9a 1e3d d9ba 113d a718 f13c
00000330: d17c a63c e6a9 0c3d 8f7b 163d df70 0b3d
00000340: 12a8 143d 6024 1d3d 4285 043d f45c d03c
00000350: 8588 033d 57e6 f93c 5510 173d 33f4 143d
00000360: ad8a 073d 564c 163d f956 cf3b 0f73 cf3c
00000370: 13a8 093d 7fd1 0e3d adf8 1b3d 27d5 0a3d
00000380: 412c d93c fcef 003d cf32 ce3c b70f e93c
00000390: 7a42 f83c 5d9a 173d 3804 1f3d 3d76 0e3d
000003a0: 1eae c43c ec30 933c 6ff8 ef3c 5baf ba3c
000003b0: 7484 ce3c e245 a33c 1a58 0d3d afce 0b3d
000003c0: 73a5 043d d96e 0a3d 1da9 0c3d 57e3 0f3d
000003d0: b544 0b3d 74f0 003d 447f 063d eaf5 943c
000003e0: 1bda c63c 3044 dd3c cb53 1a3d 8097 1b3d
000003f0: 20c7 c53c 73f2 133d 26a0 053d 4fbd 0f3d
0.03697786 0.03868247 0.030665895 0.037785366 0.03861245 0.03500839 0.014877341 0.013142746
0.029224291 0.036091506 0.03730276 0.035670657 0.018180402 0.03184386 0.036750883 0.035711654
0.034531515 0.038227577 0.02257184 0.033337675 0.02521031 0.0136309005 0.029429652 0.029177913
0.037255604 0.021632647 0.034769446 0.027191417 0.027979529 0.020170275 0.036156505 0.035022564
0.032078333 0.016621768 0.038450647 0.032323893 0.020168826 0.037667952 0.013392772 0.035887513
0.037052907 0.03672124 0.038264852 0.025691614 0.015574279 0.03807291 0.03509427 0.036134448
0.036071405 0.027481807 0.036996286 0.035151698 0.035499398 0.02727873 0.02497743 0.031791814
0.020619472 0.032239903 0.033772103 0.026009027 0.031654418 0.036861964 0.020690706 0.035316166
0.037917644 0.037016794 0.025096098 0.03492708 0.0337178 0.030700538 0.035723828 0.03427862
0.026278825 0.037962522 0.02908389 0.03608242 0.036219172 0.037062913 0.031227892 0.028675409
0.036650077 0.03853212 0.024736239 0.031245263 0.038128573 0.034806617 0.036487214 0.031549834
0.036747184 0.034705944 0.02400974 0.038375646 0.018181236 0.037374932 0.025834529 0.038557433
0.03599676 0.038729656 0.038350984 0.034316096 0.038362756 0.025655072 0.025321664 0.020765463
0.026949747 0.03678975 0.036612365 0.018181657 0.02223391 0.037404317 0.038720142 0.03699445
0.034632985 0.030141486 0.034290135 0.037413877 0.021568934 0.029430488 0.03404197 0.013393407
0.033165295 0.03444391 0.035339046 0.028373394 0.03708154 0.017020589 0.012601255 0.034669865
0.03687934 0.03336649 0.03768948 0.036542553 0.037159167 0.031977065 0.03748481 0.02324991
0.027509931 0.02865106 0.037081666 0.03829806 0.027394803 0.03691965 0.027565897 0.035176773
0.03777782 0.035082158 0.032882042 0.033280425 0.0328037 0.015405911 0.034619484 0.033464912
0.03883965 0.023825908 0.038582075 0.038498376 0.01907108 0.031636987 0.035964165 0.036313776
0.029428821 0.02550966 0.028772473 0.030060612 0.035888016 0.03262253 0.03611454 0.031993996
0.034867994 0.036019366 0.021820059 0.029179743 0.012600469 0.029847367 0.024008965 0.010033075
0.03848824 0.029385937 0.03329425 0.026247967 0.033732105 0.01726964 0.031722594 0.032044917
0.034507137 0.033865966 0.037188057 0.033337407 0.029014919 0.038696982 0.031755317 0.038443428
0.023199964 0.027221026 0.021377861 0.026179908 0.033634443 0.03778405 0.02382685 0.035431728
0.037517026 0.038721662 0.035578582 0.0294307 0.020323189 0.034341715 0.03673893 0.03404319
0.036293097 0.038364768 0.032353647 0.025434949 0.032112617 0.030505342 0.03688081 0.0363657
0.033091236 0.036693893 0.0063275066 0.025323419 0.033607554 0.03486776 0.038078953 0.033894684
0.02651036 0.031478867 0.025170712 0.028449876 0.030305136 0.037012447 0.038822383 0.03478073
0.024008807 0.017967664 0.029293267 0.022788694 0.025209643 0.019930784 0.03450785 0.034132656
0.032384347 0.03379712 0.034340966 0.035128918 0.03400107 0.031479314 0.032836214 0.018183667
0.024273923 0.027010053 0.037677567 0.03798628 0.024142802 0.03611989 0.032623433 0.035092648

model.feature_nns.1.model.1.weight f4 [1, 1000]
00000000: 3316 f7b9 ab2b 5bb9 ed10 bcb9 cb4f 83b9
00000010: c9df 7eb9 eb26 e8b8 a3bb 96b9 5524 99b9
00000020: 7a62 94b8 a344 c6b9 8024 e3b9 ecbf 50b9
00000030: 15d8 7cb9 b691 7fb9 d272 96b9 c585 1db9
00000040: e2ce b9b9 4d58 60b9 62fe f8b9 9c44 88b9
00000050: 2ee9 18b9 9f96 82b8 69cb 52b9 71e3 8cb9
00000060: 2d50 64b9 985f 12b9 1df8 8fb9 65ec b2b9
00000070: 670d bfb9 f73f cdb9 51ff 93b9 7051 ccb9
00000080: 1513 6eb8 c706 abb9 940c f3b9 36ac a7b9
00000090: c9f5 d2b9 add4 3ab9 5a93 b2b9 ae27 f4b9
000000a0: d7ee a4b9 4b5b 8cb9 b871 98b9 bf9c 86b9
000000b0: 69f4 b4b9 15fe e8b9 dc43 b2b9 c09d a4b9
000000c0: fae0 99b9 2a76 b7b9 8aed d3b9 006b 6db9
000000d0: 60e7 a6b9 6826 ddb9 ad6f ddb9 7107 a3b9
000000e0: 59f8 c1b9 e5e0 b1b9 ff11 ebb9 956c 45b9
000000f0: 4d0b b5b9 1b25 b8b9 01d7 f0b8 5f6a e5b9
00000100: 3daa 90b9 efa2 00ba e920 c6b9 0390 13ba
00000110: 692f 95b9 19b4 8bb9 f671 58b9 32d1 e2b9
00000120: f8f2 bdb9 671f e9b9 057f 94b9 30ab 88b9
00000130: f0d8 bdb9 0845 30b9 8d55 ebb8 6250 01b9
00000140: ca26 c0b9 b63d 9cb9 967c d9b9 741f fab9
00000150: d29b beb9 799f abb9 f709 c7b9 e8d4 0eb9
00000160: 0908 9eb9 c9b9 7fb9 3683 b4b9 e0cb a1b9
00000170: 3c08 a1b9 74bf b5b9 2a1f 6fb9 0ed2 82b9
00000180: ef8f c3b9 1745 69b9 177f c5b9 5196 99b9
00000190: 8e76 cab9 adb2 ddb9 e154 cbb9 9f62 62b9
000001a0: 2ae3 d1b8 85da 9eb9 db34 a3b9 31ac 29ba
000001b0: 15c4 98b9 83ee acb9 076a acb9 47f7 b8b9
000001c0: 8b14 a8b9 20a8 8ab9 b06e d3b9 c774 93b9
000001d0: 4adb fab9 9e3e a7b9 95c7 b5b9 e77b 83b9
000001e0: 042d 5cb9 5bdf 97b9 614b b8b9 f453 d6b9
000001f0: 9a7f 4fb9 e9f9 deb9 6942 6cb9 6325 a7b9
00000200: c807 abb9 6eb3 87b9 fac2 85b9 591a c6b9
00000210: 93fd 89b9 c355 b4b9 181b 92b9 adb5 c0b9
00000220: 41d1 9ab9 96a0 83b9 14d7 c6b9 f5a7 22b9
00000230: 1d2a 6ab9 510f 1bba 28e9 ceb9 8dcc 80b9
00000240: 1aaa d1b9 48ad 46b9 a4b6 a7b9 d4fe 53b9
00000250: 1398 b8b9 f633 d2b9 3140 4fb9 a510 a4b9
00000260: c28a 12b9 0880 cbb9 1e45 d2b9 8918 17b9
00000270: 7bf5 e7b9 24ca 97b9 b128 ccb9 a23d 5fb9
00000280: 0e6c c2b9 729a 87b9 845e 81b9 4c24 92b9
00000290: 02c3 b6b9 85eb fdb9 cdff 67b9 1cbc ceb9
000002a0: 8c86 8eb9 e006 68b9 b6cf 5eb9 2962 d6b8
000002b0: 50a4 65b9 b3eb c5b9 06b6 dbb9 5125 66b9
000002c0: e2b7 4cb9 8e8d 6bb9 c837 55b9 72d9 dcb9
000002d0: 7b31 82b9 216e 96b9 4a25 e9b9 5573 c4b9
000002e0: 389b a1b9 a914 b8b9 155c 44b8 c4b9 1ab9
000002f0: a7a5 a9b9 568d dfb9 8cf5 08ba d557 4cb9
00000300: 44ea 71b9 627d 36b9 754c 86b9 26d5 b3b9
00000310: 8935 b2b9 efab d2b9 8e73 c8b9 e968 bdb9
00000320: bc6c e9b9 3b19 b6b9 ef13 b9b9 5dc7 d2b9
00000330: f964 7ab9 84dd d8b9 19f4 8eb9 ecb2 cab9
00000340: bcc6 29b9 dce3 0eba 33d3 97b9 424b afb9
00000350: 1935 b1b9 c88b 08ba a449 d4b9 57fa adb9
00000360: d5a3 0cba 4942 8eb9 4f3d 68b9 cb49 c3b9
00000370: 95b1 dcb9 1da4 f7b8 1be6 a5b9 cdb1 12b9
00000380: 1945 64b9 3027 d6b9 82a0 aab9 db95 dfb8
00000390: 4b9d cab8 1d92 6cb9 7539 a1b9 98df c7b9
000003a0: 8f63 e0b9 7f1c 04ba b02f 62b9 5c8a 9fb9
000003b0: dc3a 16ba af79 72b9 d418 e8b9 ca36 f1b9
000003c0: b3e0 dcb9 e635 c2b9 e4fd 20b9 9929 d9b9
000003d0: 8c73 bcb9 4324 bdb9 2257 d5b9 e21a 8bb9
000003e0: 42f6 bdb8 3201 d6b9 06d4 c1b9 c6ea b5b9
000003f0: 5727 93b9 7262 b5b9 8715 abb9 ba46 d7b9
-0.0004712805 -0.00020901735 -0.00035870765 -0.00025045717 -0.00024306694 -0.00011069871 -0.0002875003 -0.00029209504
-7.0755326e-05 -0.0003781664 -0.0004332401 -0.00019907922 -0.0002411309 -0.00024372977 -0.00028695777 -0.0001502252
-0.0003544009 -0.000213952 -0.00047491776 -0.0002599106 -0.00014582716 -6.2269384e-05 -0.00020102937 -0.00026872338
-0.00021773642 -0.00013959256 -0.00027459944 -0.00034126933 -0.00036440344 -0.00039148304 -0.0002822825 -0.00038970588
-5.6761393e-05 -0.0003262071 -0.00046357943 -0.0003198103 -0.00040237446 -0.0001781757 -0.0003406059 -0.0004656887
-0.00031458467 -0.000267709 -0.00029076426 -0.00025675257 -0.00034514375 -0.00044439794 -0.00034001365 -0.0003139805
-0.00029350055 -0.0003499252 -0.00040422037 -0.00022641942 -0.00031834375 -0.0004218102 -0.0004223561 -0.00031095327
-0.00036996862 -0.0003392763 -0.000448361 -0.00018827834 -0.0003453143 -0.0003512286 -0.000114841394 -0.00043757536
-0.00027592658 -0.00049070915 -0.00037790023 -0.00056290644 -0.00028454818 -0.0002664633 -0.00020641819 -0.00043261942
-0.00036229915 -0.0004446462 -0.00028323397 -0.00026067486 -0.0003621052 -0.00016810384 -0.00011221608 -0.00012332344
-0.00036649994 -0.00029800617 -0.0004148229 -0.0004770715 -0.0003635572 -0.00032734478 -0.00037963662 -0.00013621489
-0.00030142095 -0.00024387905 -0.00034430035 -0.00030860212 -0.00030714448 -0.00034665654 -0.00022804426 -0.00024952035
-0.00037300537 -0.0002224635 -0.00037669457 -0.00029294429 -0.00038616773 -0.0004228553 -0.00038782417 -0.00021589779
-0.00010008209 -0.00030298918 -0.00031129163 -0.0006472497 -0.00029137792 -0.00032984102 -0.00032885393 -0.0003527945
-0.00032058763 -0.00026446674 -0.00040327525 -0.0002812503 -0.000478471 -0.00031899376 -0.0003467171 -0.00025078582
-0.00020997605 -0.00028967377 -0.00035151377 -0.0004087981 -0.00019788594 -0.00042529337 -0.00022531454 -0.00031880577
-0.0003262146 -0.00025882892 -0.00025513006 -0.00037785133 -0.00026319604 -0.00034396173 -0.00027867476 -0.00036756453
-0.00029529075 -0.00025105913 -0.0003792575 -0.00015512093 -0.00022331667 -0.0005915063 -0.00039465097 -0.00024566465
-0.00039990322 -0.00018947304 -0.000319888 -0.00020217459 -0.0003520852 -0.00040093035 -0.00019764972 -0.0003129292
-0.00013975336 -0.00038814568 -0.00040105818 -0.00014409622 -0.0004424265 -0.0002895157 -0.0003894023 -0.00021289897
-0.0003708307 -0.00025864277 -0.00024675217 -0.00027874333 -0.00034859037 -0.00048431396 -0.0002212517 -0.00039431534
-0.00027184596 -0.00022127805 -0.00021248948 -0.00010222599 -0.00021900353 -0.00037750378 -0.00041906553 -0.0002194841
-0.00019523458 -0.0002246408 -0.00020334043 -0.0004212368 -0.00024832398 -0.00028692282 -0.00044469006 -0.00037469962
-0.0003082396 -0.00035110608 -4.68158e-05 -0.00014755788 -0.00032357613 -0.00042639178 -0.00052245776 -0.00019487676
-0.00023070822 -0.00017403581 -0.00025615437 -0.00034300348 -0.00033990692 -0.00040182422 -0.00038233068 -0.00036127053
-0.00044522237 -0.00034732543 -0.000353008 -0.00040202859 -0.00023879473 -0.00041363772 -0.00027266218 -0.0003866175
-0.0001619113 -0.0005450824 -0.0002895832 -0.00033434673 -0.00033799632 -0.00052088173 -0.00040490658 -0.0003318365
-0.0005364989 -0.00027133737 -0.00022148083 -0.00037248278 -0.0004209398 -0.00011808446 -0.00031642694 -0.00013989881
-0.00021769515 -0.00040846458 -0.00032544514 -0.000106613814 -9.661409e-05 -0.00022561145 -0.00030751122 -0.00038122828
-0.00042798786 -0.00050396466 -0.00021570805 -0.0003042993 -0.00057308166 -0.00023124249 -0.00044268987 -0.00046007923
-0.00042129084 -0.0003704272 -0.0001535337 -0.00041420458 -0.00035944243 -0.00036075906 -0.00040691445 -0.00026532175
-9.0580914e-05 -0.0004081815 -0.00036969798 -0.0003469793 -0.00028067335 -0.00034596358 -0.000326317 -0.0004106069

model.feature_nns.2.model.0.weights f4 [1, 104]
00000000: 3eeb 133d 502a d83c 1105 1c3d 4e6b 9b3b
00000010: 44a0 0b3d 31c7 c23c fb83 153d 92fc ee3c
00000020: e327 173d 705e 073d 9df4 063d b7f4 c33c
00000030: af32 ff3c aedc f23c da96 183d 4347 923c
00000040: dfe3 cd3c 7d26 1e3d bdec c83c 3b88 173d
00000050: 5911 dd3c fe1a 093d bfb6 143d 0fbd f63c
00000060: bbd0 1b3d 72a7 173d 8575 163d 19bb 183d
00000070: 1acf 1a3d a470 243c 487f c33c d0bc cf3c
00000080: 07be 1a3d e9e8 0c3d e245 1e3d 030b 023d
00000090: d37c 173d 32f1 053d 44ab 053d cac1 d63c
000000a0: 332b 033d e1ff 0e3d aa7d 023d 42b1 0d3d
000000b0: bacd 0e3d 3374 143d 1c39 f73c 4d21 0d3d
000000c0: 9bb1 d03c 0641 1f3d 8126 d43c 1625 0a3d
000000d0: b01c 143d 99cf 053d 7a17 1e3d c45e 0d3d
000000e0: 54e1 f93c e496 d73c 388b f03c f457 e73c
000000f0: acbe 663c d830 933c ae19 ed3c 9654 573c
00000100: b314 053d 25b8 9d3c d001 de3c 96b4 663c
00000110: b439 153d 8a41 0c3d b475 123d 5a2f 183d
00000120: 02d1 173d 8097 153d 7a00 df3c 5bf4 f73c
00000130: ee29 d93c baa7 0b3d 2635 f83c bf2e 1c3d
00000140: da72 c53c 6a74 fd3c f107 1e3d c569 1b3d
00000150: bf31 df3c 991d 3f3c 9e06 0a3d 8ad1 1a3d
00000160: 0749 0b3d c8d9 bc3c 9c67 033d 2daa 083d
00000170: a6d6 193d efb4 1b3d 91ec fc3c a436 183d
00000180: 363c 1a3d 97c2 153d 6340 103d 1c58 1b3d
00000190: 50b9 173d 3df5 f53c 5a0a 533c 26c6 1b3d
0.036113016 0.026387364 0.03809077 0.0047430163 0.034088388 0.023776622 0.03650282 0.02917317
0.036903273 0.033049047 0.032948125 0.0239204 0.031152098 0.029646244 0.03725324 0.017856246
0.025133071 0.038610924 0.024526948 0.036995154 0.026985811 0.033473007 0.036307093 0.030119447
0.038040858 0.037024923 0.03673317 0.037287805 0.037795164 0.010036621 0.023864403 0.025358588
0.03777888 0.034401808 0.038640864 0.031748783 0.036984276 0.032700725 0.032634035 0.026215453
0.03202362 0.034911994 0.031858124 0.034592874 0.034864165 0.03624363 0.030178599 0.034455586
0.025475314 0.03888037 0.025897266 0.033726774 0.03616017 0.032668684 0.038596608 0.034514204
0.030502953 0.026317067 0.02936326 0.028240182 0.014083546 0.017967626 0.02894291 0.013142725
0.032490443 0.019252846 0.027100474 0.014081141 0.036431983 0.03424219 0.03575678 0.037154533
0.03706456 0.036521435 0.027221907 0.030267885 0.026509251 0.034095503 0.03029878 0.038130518
0.024102617 0.0309393 0.038581792 0.037942667 0.0272454 0.0116647715 0.033697717 0.03779749
0.03400519 0.023053065 0.03208123 0.033365417 0.03755822 0.03801435 0.030874522 0.037161484
0.037655078 0.03656253 0.035217654 0.037925825 0.037041962 0.030024165 0.012880886 0.038030766

model.feature_nns.2.model.1.weight f4 [1, 104]
00000000: 2f5d 0cbb 6dcd 0ebb 44ca 0ebb 0e80 00bb
00000010: 5c64 0cbb 1127 17bb b349 14bb 2fe8 12bb
00000020: 40c7 19bb 5c85 06bb dbcd 08bb 6513 14bb
00000030: 03cc 0bbb 238b 0ebb 855b 04bb 4b36 f0ba
00000040: 7cee 10bb ba2b 07bb d875 10bb f323 15bb
00000050: f501 0dbb 50a7 15bb 0e29 12bb 1336 0dbb
00000060: 5c37 10bb 9177 12bb ca7f 0cbb 4950 12bb
00000070: 3596 1abb 8de7 0bbb 029a 0bbb f5da 09bb
00000080: 848d 08bb ad47 05bb 4382 12bb 1a40 16bb
00000090: dd92 11bb 5556 01bb 2a6e 12bb 0acd 0dbb
000000a0: bc25 0ebb 2dff 0dbb 49b0 08bb 1861 0fbb
000000b0: 477a 12bb b931 12bb 6133 12bb f1ce 18bb
000000c0: eb0a 16bb f330 09bb 86eb 10bb 644a 12bb
000000d0: f7ed 08bb 5a37 0fbb 7527 18bb 9dc0 12bb
000000e0: a018 16bb 300e 0dbb 6b0c 10bb dba6 12bb
000000f0: 93cd 15bb 17ea 0fbb 7130 11bb 9dcb 09bb
00000100: 9d11 0fbb ea07 0bbb d1d9 15bb 433c 18bb
00000110: 361f 0dbb ae36 07bb 42da 0cbb 4da3 15bb
00000120: 2918 12bb daf3 0ebb 4704 15bb da32 0bbb
00000130: ea7e 1bbb 6ee2 10bb fdcf 0dbb a756 11bb
00000140: f648 15bb 7ebb 0bbb d66f 1bbb 2f59 0dbb
00000150: 6bd2 0cbb 623a 07bb bbaf 12bb 76b5 07bb
00000160: c9df 10bb 7336 09bb 0ef4 17bb 462b 0dbb
00000170: 6ae4 0abb 25d7 0fbb 614c 14bb dbf5 11bb
00000180: 00fb 0abb 3e14 02bb e60f 0dbb b8ec 12bb
00000190: 4f9a 0dbb 058a 16bb a987 0bbb bc3a 12bb
-0.0021417846 -0.0021789924 -0.002178804 -0.0019607577 -0.0021422124 -0.0023064057 -0.0022626936 -0.0022416224
-0.002346471 -0.0020526266 -0.0020874653 -0.0022594568 -0.0021331317 -0.0021750412 -0.0020196151 -0.0018326727
-0.0022114804 -0.0020625428 -0.0022042897 -0.0022757023 -0.002151606 -0.0022835322 -0.0022302303 -0.0021547123
-0.0022005653 -0.00223491 -0.0021438473 -0.0022325686 -0.0023588066 -0.0021347732 -0.0021301513 -0.002103505
-0.0020836303 -0.0020336912 -0.0022355474 -0.002292639 -0.0022212781 -0.0019735296 -0.0022343495 -0.0021637105
-0.0021689972 -0.002166699 -0.0020857027 -0.002187794 -0.0022350715 -0.002230747 -0.0022308456 -0.0023316706
-0.0022894691 -0.0020933717 -0.002211304 -0.0022322172 -0.0020893791 -0.002185306 -0.0023216878 -0.0022392638
-0.0022902861 -0.002152335 -0.0021980058 -0.0022377286 -0.0022858127 -0.0021959597 -0.0022154117 -0.0021025904
-0.0021830567 -0.0021214434 -0.0022865424 -0.0023229278 -0.0021533496 -0.0020631957 -0.0021492396 -0.002283293
-0.0022292233 -0.0021812827 -0.0022738145 -0.0021240027 -0.002372677 -0.002210762 -0.0021638863 -0.0022176893
-0.0022779084 -0.002132147 -0.0023717782 -0.002156805 -0.0021487724 -0.0020634164 -0.0022382576 -0.0020707524
-0.0022106043 -0.0020936995 -0.002318624 -0.0021540686 -0.0021193274 -0.0021948304 -0.0022628533 -0.0022271785
-0.0021206737 -0.001984849 -0.0021524369 -0.0022418927 -0.0021606868 -0.002297045 -0.0021290577 -0.002231284

model.feature_nns.3.model.0.weights f4 [1, 78]
00000000: 1326 1e3d 581a 1f3d 9a1a 0c3d 7d50 153d
00000010: 2750 1f3d 7367 153d e9e0 1b3d c525 093d
00000020: 5398 133d 2f50 093d 452a fc3c 9e70 143d
00000030: d038 d23c 69e5 e93c e54b a53c d777 f73c
00000040: 3980 183d 4560 e43c 5e58 1a3d 19ac 033d
00000050: d17e 033d 60ef 943c f2c8 f83c 8ed5 ce3c
00000060: 4088 193d d391 a03c 5c41 d43c dfc2 0f3d
00000070: 2f6b 133d 58de 1a3d 724e 1b3d edab 183d
00000080: 1656 143d 82f7 1b3c ccc9 f23c e108 063d
00000090: 199a 153d 7c5e 143d a839 1d3d 150a 133d
000000a0: 8d8f 133d cdd4 113d c5b9 703c 3fb4 063d
000000b0: 6bb7 0f3d ef25 153d 716e 903c 7439 0c3d
000000c0: bdc6 053d 9e58 983c 5eae e03c b61d 193d
000000d0: fb79 c53c 2483 8f3c 14b6 1c3d 73ab 0b3d
000000e0: f606 1c3d 44b7 aa3c 39a8 b63c c336 003d
000000f0: 349e 083d 36c1 1d3d 4717 d83c ad34 033d
00000100: a783 173d 49b2 173d f494 a93c a40f 0d3d
00000110: 851d 1a3d b307 1b3d c556 e23c b6df 113d
00000120: 01ea b83c 3868 143d cc25 163d 8619 e93c
00000130: c77f e93c 4651 a33c
0.03861053 0.038843483 0.034205057 0.036453713 0.0388948 0.03647561 0.038056288 0.033483285
0.03603394 0.033523735 0.030781874 0.036240213 0.025661856 0.028551774 0.02017779 0.030208511
0.037231658 0.027877936 0.03768193 0.032146547 0.032103363 0.01818055 0.030369256 0.025248315
0.037483454 0.019600784 0.025910072 0.035097953 0.03599089 0.0378097 0.03791661 0.037273336
0.03621491 0.00951946 0.02963724 0.03272331 0.036523912 0.03622292 0.038385063 0.035898287
0.036025573 0.035603333 0.014692728 0.03288674 0.03508703 0.03641313 0.017630788 0.03423448
0.032660235 0.018596943 0.027426895 0.03738185 0.024106016 0.017518587 0.03825958 0.034099054
0.038092576 0.020839341 0.022297012 0.031302225 0.033354 0.03851434 0.026378287 0.032032657
0.036990788 0.03703526 0.02070091 0.034438744 0.03762581 0.03784914 0.027629266 0.035613738
0.02257252 0.036232203 0.03665714 0.028454553 0.028503312 0.019936215

model.feature_nns.3.model.1.weight f4 [1, 78]
00000000: 69b4 49bb 1695 4bbb 9c3f 49bb bbcc 4fbb
00000010: 667e 52bb ead6 49bb af82 4abb c4aa 4fbb
00000020: ea4d 51bb dc69 43bb e09b 43bb e596 5ebb
00000030: de3a 4bbb 9240 5ebb 3047 35bb ca07 3ebb
00000040: b913 4fbb 5348 5abb 70f4 5bbb 6d4b 4fbb
00000050: 0991 3abb 1bbe 43bb e46e 3bbb b026 3cbb
00000060: 1a75 3cbb b314 3fbb f5d3 3ebb 0e09 4dbb
00000070: abf9 52bb df7d 49bb 01c6 54bb 0364 62bb
00000080: 34fc 4cbb 8806 36bb 8943 4bbb cf9d 3fbb
00000090: dbab 47bb bfe6 57bb 8843 36bb 0efe 4abb
000000a0: 3d59 4cbb 868f 4ebb a6f0 41bb 5603 4bbb
000000b0: c56a 57bb 9f3b 37bb 3b94 4fbb 9428 43bb
000000c0: c98b 3ebb 67c2 4fbb 4fee 4bbb 9651 49bb
000000d0: 6761 51bb 4002 5bbb f45d 68bb 7924 52bb
000000e0: 74d2 3fbb 7048 41bb 7c82 50bb 1dc7 4bbb
000000f0: 6179 47bb 1052 60bb 588b 57bb fc25 35bb
00000100: 6aef 55bb df48 46bb 49cd 4dbb beee 4abb
00000110: 48af 4ebb bced 5abb 7e53 42bb 6c4d 5abb
00000120: 7608 50bb 9c96 4ebb 5dec 48bb fcec 40bb
00000130: bd92 45bb a5fd 38bb
-0.00307777 -0.0031064204 -0.003070808 -0.0031707722 -0.0032118796 -0.0030798265 -0.0030900647 -0.0031687478
-0.003193731 -0.0029817736 -0.0029847547 -0.0033964452 -0.003101043 -0.0033912999 -0.002766084 -0.0028996342
-0.003159745 -0.0033307269 -0.0033562444 -0.003163065 -0.0028467795 -0.002986795 -0.0028600032 -0.0028709583
-0.0028756321 -0.0029156625 -0.0029118035 -0.0031285915 -0.003219227 -0.003074519 -0.0032466652 -0.0034544475
-0.0031278254 -0.002777489 -0.0031015596 -0.0029238348 -0.0030467424 -0.0032943932 -0.0027811248 -0.0030974182
-0.003118112 -0.0031518652 -0.00295929 -0.003097733 -0.0032870036 -0.002795912 -0.0031674046 -0.0029778825
-0.0029075018 -0.0031701566 -0.0031117385 -0.0030718795 -0.0031948925 -0.003341809 -0.003545639 -0.0032065196
-0.0029269727 -0.002949264 -0.0031816056 -0.0031094023 -0.0030437338 -0.00342286 -0.0032889452 -0.0027641049
-0.0032643923 -0.0030255837 -0.0031402877 -0.0030965055 -0.0031537581 -0.003340586 -0.0029651816 -0.0033310307
-0.0031743324 -0.0031522876 -0.0030658462 -0.0029438129 -0.0030147277 -0.0028227356

model.feature_nns.4.model.0.weights f4 [1, 182]
00000000: ce73 173d 05b1 173d 3f7e 0d3d 860d 0f3d
00000010: 9e7f 1e3d 7da2 c13c 0ae3 0f3d ef3c 1c3d
00000020: f2ad d93c e3e3 d53c 58fd 063d 065a 1d3d
00000030: c900 023d fdbe f83c cb62 1b3d 4219 6a3c
00000040: daba 173d 2bf5 083d dd63 c53c fee3 163d
00000050: 3012 f13c 831c af3c 5353 1f3d 2414 103d
00000060: 930f b73c 2c3f 093d bcdb 183d 3736 df3c
00000070: 0fd0 fb3c 8c8c 123d 6b5a 023d 7bb0 b03c
00000080: 77a5 b53c 94a0 183d 4402 dc3c b7ee 013d
00000090: 203f 033d 4eee 063d 774d 0f3d 4d59 133d
000000a0: 9e64 133d aa34 b43c d5cf 163d af1d e13c
000000b0: f9d3 c63c 3075 1b3d 14ae 113d e396 1c3d
000000c0: 679f f13c 8ea0 183d 45d9 1b3c 8333 b13c
000000d0: 3cf3 123d c71a 1a3d b77d db3c 57b8 e63c
000000e0: 8eba 113d d3a6 013d 6838 ba3c aae0 1a3d
000000f0: b75b f53c 9d3f ab3c 26e3 1b3d 9b24 1a3d
00000100: f9c7 183d f4b2 eb3c ab17 123d b346 e23c
00000110: e8a5 043d 06a8 ba3c e59a 793c 7a15 ea3c
00000120: fa58 8a3c e166 f93c ad29 1f3d f068 d93c
00000130: ec48 023d 495b 073d 5fed a33c cab9 123d
00000140: 6eae 123d 0fa1 493c 67ae 123d 6c43 113d
00000150: 2572 163d 937c 053d f885 1d3d 2ca7 033d
00000160: fddd 053d 4de6 073d 4b8c 1a3d edba 173d
00000170: 2043 bf3c 41e3 173d 5d94 013d bd24 fe3c
00000180: dd0a 033d 65b4 f03c 0c2b 1c3d ca7e 0a3d
00000190: 359f 1a3d 7cb8 033d 6549 fc3c 8278 ed3c
000001a0: 1da1 bd3c 5e1f 113d 7f5b d03c 302f f53c
000001b0: e136 0a3d fcc7 183d 7146 ed3c 29ab ed3c
000001c0: 6119 6a3c 9f91 ae3c 58c1 fc3c 0870 833c
000001d0: 6fe4 d53c 98e2 1b3d 96ec c83c 59e9 153d
000001e0: 89f4 0d3d 911d e13c 7c44 0b3d 53aa f43c
000001f0: d69b 143d e502 193d f484 f03c 4e9f d83c
00000200: 9546 a33c a34e 143d 7653 1f3d ea34 ff3c
00000210: f00a 033d a25d 123d d3b8 d63c 63d4 c63c
00000220: 4a4f 063d 098a 153d c8de 0c3d 797f db3c
00000230: 2119 1e3d 5a7c 163d c9be f83c 896e 4e3c
00000240: f1b1 143d e09a 793c b098 0d3d 9db5 f53c
00000250: a249 fc3c 3dd8 e83c 775c 053d 8297 1d3d
00000260: b60c e93c 665a d83c 42e3 103d dfff 1d3d
00000270: c7ea 193d 8f17 e43c 312e 033d da5a 023d
00000280: 4a0e 943c 8522 1e3d 035f 063d ffdc be3c
00000290: d2e2 ec3c 63e3 f03c 5edc e53c 79a5 043d
000002a0: bd7d 083d 8d72 0f3d a05a f23c a3e7 fe3c
000002b0: 53e5 eb3c 3e13 0c3d 7062 1b3d 4123 f43c
000002c0: 4303 e83c 28e7 123d f64e 1c3d 7e13 113d
000002d0: 108e 1c3d ad13 0c3d
0.036975674 0.037034053 0.034544226 0.034925006 0.038695924 0.02363705 0.03512863 0.03814405
0.026572201 0.026109641 0.03295645 0.03841593 0.03173903 0.030364508 0.037936013 0.0142882485
0.03704343 0.033436935 0.02409547 0.036838524 0.029427618 0.0213759 0.038897824 0.035175458
0.022346294 0.03350751 0.03731893 0.027247531 0.030738859 0.035778567 0.03182451 0.021568527
0.022173626 0.037262514 0.02685655 0.031721797 0.032042623 0.03294211 0.034985986 0.035973836
0.035984628 0.021997768 0.036819298 0.027479975 0.024270998 0.037953556 0.035566404 0.038229834
0.029494954 0.037262492 0.00951225 0.021631008 0.035876498 0.037623193 0.026793344 0.028164072
0.035578303 0.031653237 0.022731975 0.037811913 0.02995096 0.020904357 0.038058423 0.037632566
0.037300084 0.028771855 0.035667103 0.027621603 0.032384783 0.022785198 0.015234684 0.028574694
0.01688813 0.030444564 0.038858104 0.026539296 0.031807825 0.03304604 0.020010648 0.035821714
0.03581088 0.012306466 0.035810854 0.03546469 0.03672995 0.032589506 0.03845784 0.03214185
0.032682408 0.033178616 0.03773145 0.0370435 0.023347437 0.03708196 0.03163563 0.031023378
0.031992782 0.029382894 0.03812699 0.03381232 0.037749488 0.03215836 0.030796716 0.028988127
0.023148114 0.035430305 0.025434254 0.029929727 0.033743743 0.037300095 0.028964253 0.02901228
0.014288277 0.021309672 0.030853912 0.016044632 0.026109902 0.038057894 0.024526875 0.03659949
0.034657035 0.027479919 0.03400086 0.029866373 0.03628143 0.037356276 0.029360272 0.02644315
0.019931117 0.036207806 0.038897954 0.031153161 0.031992853 0.035733826 0.026211178 0.024271196
0.03279046 0.036508594 0.03439215 0.026794182 0.038598184 0.036739685 0.030364411 0.012599596
0.03630251 0.015234679 0.034569442 0.029993827 0.03079683 0.028423423 0.032558884 0.038474567
0.028448444 0.026410293 0.03537298 0.038574096 0.037577417 0.027843265 0.032026473 0.031824924
0.01807322 0.03860714 0.032805454 0.023298739 0.02891675 0.029405301 0.02805918 0.03238437
0.03332304 0.035021354 0.029584229 0.031116312 0.028795874 0.03419804 0.037935674 0.029801967
0.028321868 0.03586498 0.03816124 0.03541898 0.03822142 0.03419845

model.feature_nns.4.model.1.weight f4 [1, 182]
00000000: b67c d0ba fa76 c0ba f847 b6ba 6f6d aaba
00000010: 3408 a9ba 013f d2ba fce2 cfba e3cb efba
00000020: c036 97ba 1179 c1ba 0f55 99ba fe2c caba
00000030: ce3c bbba ac22 b6ba abfe b1ba 0ec5 d2ba
00000040: c240 c7ba c557 cfba dbee d2ba b066 b7ba
00000050: 7e0d 8eba 307c c4ba bb25 eaba db0d d0ba
00000060: 5da4 daba 65ec f0ba 0258 cbba 6b08 d2ba
00000070: ac52 b9ba 6b8a adba 48ba d1ba 7bd7 c3ba
00000080: 0dba f6ba 723a 93ba fbc0 c6ba f4d4 ccba
00000090: d19d d0ba 7ff1 b5ba 65e5 caba 010d 8dba
000000a0: 42f0 afba fe33 d1ba 1633 d9ba e9f3 dbba
000000b0: f9b1 bcba ee48 fdba 8cad f2ba 5135 daba
000000c0: 9d17 dbba 990c b8ba 02cd aeba 04ae ebba
000000d0: c090 a6ba 039b dbba 7395 e9ba 2e5f d9ba
000000e0: 896f beba 3fc6 ceba 9ad8 dfba 0ac1 beba
000000f0: fcaa c8ba e612 b8ba 92a7 a1ba 271b c6ba
00000100: 00d4 deba 50db d2ba 931b bdba cb56 c8ba
00000110: ba4f dcba 0f90 c4ba 8592 ebba be69 d8ba
00000120: de22 dcba 2c28 d1ba 745f ceba db29 daba
00000130: 3d68 96ba 0e45 c4ba 4ca9 bdba 5581 d9ba
00000140: 4b48 b7ba 3553 cfba 3aab b2ba e441 e0ba
00000150: 13be a1ba 3b61 fcba 3d5d ceba de30 a0ba
00000160: e990 d8ba 837e aaba dcca a8ba 9f7a c7ba
00000170: 1c34 e2ba c27a c1ba 3c05 bdba 1bf2 a7ba
00000180: 4158 beba c7c8 c2ba 9114 aeba 6ce4 adba
00000190: cb65 b0ba 75ab b8ba 8e74 c9ba 8ed0 e8ba
000001a0: 9708 d5ba bb01 c5ba 6e32 c5ba 7255 a2ba
000001b0: fd8a c0ba fc51 b9ba 54dc e1ba a07b bbba
000001c0: 4f74 daba 4133 e3ba 5f48 ccba 09f7 adba
000001d0: 2753 c2ba 5972 cbba bdf1 c5ba 1af8 d6ba
000001e0: b7cf cdba 6ca8 f2ba eaaf c9ba 918a fdba
000001f0: a80f d9ba de71 c2ba 4919 b6ba e2b4 a8ba
00000200: 063c afba 7bfa d5ba e202 e9ba 2132 d8ba
00000210: b325 c1ba 9f1c b1ba 8113 e8ba 0652 a8ba
00000220: 2d7e 9eba cfab afba 6c4e aeba 88f0 06bb
00000230: 1c49 bdba 3fa6 f5ba db82 c5ba 039f d4ba
00000240: b14a e8ba 8f11 b0ba 9c8f b9ba b665 b8ba
00000250: d26a a4ba a8a3 aeba e84c b4ba 6e5f ccba
00000260: a880 ebba 7ee8 beba 4229 bdba aa7c deba
00000270: fd59 c2ba ad81 daba 3dd9 b0ba 0aff c0ba
00000280: ee10 ceba fb16 daba 938e e6ba 7237 caba
00000290: ac9c d1ba b1ca b8ba 5151 dfba fa06 d3ba
000002a0: 78e8 e6ba 3908 e4ba 4210 b2ba 38d8 e5ba
000002b0: a09d c4ba 7655 dbba d5b4 e8ba b612 d3ba
000002c0: 7d6e d5ba 4a6d a5ba b1d0 baba 4b77 d6ba
000002d0: c8c8 b7ba e01d ffba
-0.0015906307 -0.0014683895 -0.0013906946 -0.0013002584 -0.0012896121 -0.0016040505 -0.0015860493 -0.0018295016
-0.0011536703 -0.0014760812 -0.0011698323 -0.0015424786 -0.0014285089 -0.0013895831 -0.0013579925 -0.0016080455
-0.0015201794 -0.0015819004 -0.0016092913 -0.0013992395 -0.0010837761 -0.0014990624 -0.0017864028 -0.001587327
-0.0016681064 -0.0018380998 -0.0015513899 -0.0016024237 -0.0014139018 -0.0013240104 -0.0016000951 -0.0014941538
-0.0018823758 -0.0011232628 -0.0015163714 -0.001562743 -0.0015916174 -0.0013881176 -0.0015479742 -0.0010761322
-0.0013423043 -0.001596093 -0.0016571011 -0.0016781065 -0.0014396302 -0.0019324103 -0.0018514856 -0.001664797
-0.0016715411 -0.001404184 -0.0013336244 -0.0017980938 -0.0012707934 -0.0016754571 -0.0017821029 -0.0016584152
-0.001452909 -0.0015775635 -0.0017078102 -0.001455338 -0.0015309746 -0.0014043718 -0.0012333265 -0.0015114293
-0.0017000437 -0.0016087089 -0.0014427773 -0.0015284655 -0.0016808428 -0.0014996546 -0.0017972743 -0.0016511006
-0.0016795059 -0.0015957407 -0.0015745 -0.0016644554 -0.0011475157 -0.0014974193 -0.001447001 -0.001659433
-0.0013983337 -0.0015817644 -0.0013631352 -0.0017109481 -0.0012339972 -0.0019255051 -0.001574434 -0.0012221595
-0.0016522679 -0.0013007674 -0.001287784 -0.0015219039 -0.0017257961 -0.0014761316 -0.0014421116 -0.0012813242
-0.0014522151 -0.0014860862 -0.0013281276 -0.0013266928 -0.0013458071 -0.0014089184 -0.0015369819 -0.001776235
-0.001625317 -0.0015030423 -0.0015044936 -0.0012385084 -0.0014689859 -0.0014138813 -0.0017231801 -0.0014303811
-0.0016666743 -0.0017334 -0.0015585533 -0.0013272475 -0.0014825807 -0.0015521749 -0.0015101951 -0.0016400844
-0.0015702163 -0.0018513328 -0.001538751 -0.0019343664 -0.0016560452 -0.001483496 -0.0013893034 -0.001287129
-0.0013369329 -0.0016325259 -0.0017777348 -0.0016494432 -0.0014735967 -0.0013512558 -0.0017706008 -0.0012841828
-0.0012092047 -0.0013402643 -0.0013298518 -0.0020590145 -0.0014441344 -0.0018741562 -0.0015068905 -0.0016221706
-0.0017722455 -0.0013432967 -0.0014157179 -0.0014068398 -0.0012544042 -0.001332392 -0.001375583 -0.0015592405
-0.001796742 -0.0014565138 -0.0014431851 -0.0016974409 -0.0014827844 -0.0016670726 -0.0013492476 -0.0014724445
-0.0015721598 -0.0016638929 -0.0017590098 -0.0015427901 -0.0015992126 -0.0014098493 -0.0017037784 -0.0016100102
-0.0017616889 -0.001739747 -0.0013585167 -0.0017535752 -0.0015000589 -0.0016733843 -0.0017754087 -0.0016103599
-0.0016283538 -0.0012621072 -0.0014252869 -0.0016362456 -0.001402163 -0.001946386

model.feature_nns.5.model.0.weights f4 [1, 1000]
00000000: e3d9 d13c 5d78 183d 02f8 da3c 9e2b f53c
00000010: 96b0 763c 8e7f e23c e9a3 163d 7f29 053d
00000020: e36e 183d 8f89 193d c3b0 733c 95d5 083d
00000030: 0341 d13c 8abc db3c 5085 143d 4be6 023d
00000040: 64ea 033d 4f04 c23c fd1f 093d 813b 1e3d
00000050: ee0f 1e3d 7f25 d93c eec5 073d 9987 c33c
00000060: 9dca ff3c cbbf e43c 5250 043d c62b 103d
00000070: 6244 1c3d 4f93 043d 68fb f13c fb51 153d
00000080: a040 d13c f221 fe3c aaee 183d b072 9b3c
00000090: e599 0a3d 058d 1c3d eada 113d 1374 123d
000000a0: b034 0b3d 00cc 053d 7af9 0c3d 5396 093d
000000b0: 6204 fb3c ddc5 0a3d ac47 183d a791 e73c
000000c0: a965 113d 644e 1b3d 6db5 d63c bd18 053d
000000d0: d23d 153d 09bc 0f3d 4d25 023d edd1 1d3d
000000e0: 636c b83c bce8 043d 886e 193d 23a2 963c
000000f0: 4a94 1a3d 3d65 8b3c 187c 023d ed3d 033d
00000100: 4bf6 fb3c 4057 e13c 524f 183d 9a33 0b3d
00000110: 3b94 043d 9b3e 063d 71d6 103d 5472 173d
00000120: 833b ee3c c970 0f3d ae65 f93c 0d77 a63c
00000130: 2480 e23c 0baa ed3c e47b de3c c154 8a3c
00000140: 1132 ef3c 680a e23c b4fb 033d 16bc 183d
00000150: 5d81 183d 6793 fe3c a261 043d bb93 013d
00000160: b650 1a3d 7b65 c23c 5a1d 043d f9a0 e53c
00000170: aee0 c73c 8d66 163d 6d9c ca3c d480 443c
00000180: 988a 0a3d d3cb 193d 2ea7 843c 9a71 0c3d
00000190: deec df3c 23cd 1a3d db2b 1d3d 0203 093d
000001a0: bca9 bf3c cc6c 8f3c 4bd9 1b3d 8229 e03c
000001b0: f645 183d f305 113d 410a 1d3d 81ed ac3c
000001c0: 8b12 013d 2682 043d bfdc fa3c 8bfd 033d
000001d0: 4834 e83c 2b7e e23c a9f2 0d3d 2fbc 0f3d
000001e0: 9715 aa3c 7f1a af3c ee77 073d dbe4 d33c
000001f0: b3b0 1d3d 06f2 193d 794f 033d ba25 d63c
00000200: fb14 6a3c dd66 d93c e6dc 133d 3b96 a23c
00000210: 1365 1a3d 4708 e23c f725 0a3d 8ef2 ef3c
00000220: 073b db3c f931 1e3d 88b0 1c3d 1720 0c3d
00000230: 3c6d 833c cea9 ed3c cb0c 943c be7e dc3c
00000240: 51b6 da3c d701 f53c bdf5 163d c80c 3f3c
00000250: 3106 1a3d 4ab1 f03c b497 073d 9c41 0f3d
00000260: 2735 e83c 883e f83c fb64 143d 7777 973c
00000270: cc39 1e3d 1ccf d73c 24f4 1b3d 1e59 ff3c
00000280: 4f32 ff3c 1a39 f93c fed9 9f3c 98ce 113d
00000290: af00 f53c b01e 043d 9b5b 163d 419c 1a3d
000002a0: 35f7 173d 83a8 073d beb7 e63c bed8 193d
000002b0: ae6d 183d b31f f43c eac3 123d 4051 103d
000002c0: 198c 053d 87f5 173d 9cca 013d a52e 093d
000002d0: b69e c13c eeaf 9d3c 17d7 083d 75ce ab3c
000002e0: 8ffc 0a3d 7671 1c3d f4a5 d03c daa6 133d
000002f0: e434 023d 5b4c 5f3c 2532 163d f243 143d
00000300: b533 a53c b6fd 1e3d 7a3d 093d be65 8b3c
00000310: 4351 1d3d 1f5d 123d 98ec ac3c 5110 f93c
00000320: 2a02 143d a098 fe3c 31e8 fc3c 3112 163d
00000330: 509c 493c 068b cd3c dfcc fb3c 247c 0d3d
00000340: 88b4 0c3d 7bdf c73c d1aa 1e3d caad 113d
00000350: 5fd4 f43c 04ae 123d cb91 133d 588e 103d
00000360: a315 a73c c7f6 173d 96da 033d bb70 fe3c
00000370: 01ce e13c ee76 973c e34c 0f3d 1e1d 153d
00000380: af74 c03c 0258 133d 2d00 dd3c 6358 d03c
00000390: d465 e03c 3626 183d cc86 163d 6c07 153d
000003a0: 90b4 1b3d 4a6c 193d df63 f63c dc0b 183d
000003b0: 7720 1c3d d0ec a13c ffa7 1c3d 2052 173d
000003c0: adf7 0c3d 0909 d53c 7d52 0a3d c490 ae3c
000003d0: 39f1 143d 3b7b 1d3d 7190 163d 2c7f ff3c
000003e0: d4b7 b23c 836b 9e3c 4b18 053d accb 1c3d
000003f0: 8839 053d 492b 103d 88d9 183d 721e 003d
0.025616592 0.037224162 0.026729587 0.029928025 0.01505675 0.027648713 0.03677741 0.032510277
0.037215125 0.0374847 0.014873686 0.033406813 0.025543695 0.0268233 0.03625995 0.031957906
0.032205954 0.023683695 0.033477772 0.038630966 0.03858941 0.026507137 0.033147745 0.023868369
0.031224543 0.027923485 0.032303162 0.035197996 0.038151152 0.032367047 0.029538825 0.036455136
0.02554351 0.031022046 0.037336983 0.018975586 0.03383817 0.038220424 0.035609163 0.03575523
0.033985794 0.032665253 0.034417607 0.033590626 0.030641738 0.033880103 0.037177727 0.028267695
0.03549734 0.037916556 0.026209557 0.032494295 0.03643591 0.035091434 0.031773854 0.03853028
0.02251262 0.032448515 0.037458926 0.01838786 0.037739076 0.017016048 0.031856626 0.03204148
0.03075709 0.027507424 0.03718502 0.033984758 0.032367926 0.03277455 0.035360757 0.036974266
0.029081112 0.03501967 0.030443992 0.02032044 0.027648993 0.029011747 0.027158685 0.016886117
0.029198678 0.027592853 0.032222465 0.037288748 0.037232745 0.031076146 0.032319672 0.031635027
0.03767463 0.02373003 0.032254554 0.02803086 0.024399128 0.036718894 0.024732793 0.011993606
0.03382358 0.037547898 0.016192999 0.034288026 0.027334627 0.03779329 0.038371902 0.033450134
0.023396365 0.017507933 0.038049024 0.027363542 0.037176095 0.035406064 0.038339857 0.021109344
0.031511825 0.03235068 0.030622838 0.03222422 0.028345242 0.027648052 0.034655247 0.035091575
0.020762248 0.021374939 0.03307336 0.025865963 0.03849859 0.037584327 0.032058213 0.026141036
0.014287229 0.026538307 0.036099337 0.019847026 0.037694048 0.027591838 0.033727612 0.029290464
0.026761545 0.038621876 0.03825429 0.03421029 0.016043298 0.029011633 0.018072506 0.026915904
0.026698263 0.029908104 0.036855448 0.011660762 0.03760356 0.029381413 0.03310366 0.03497468
0.028345658 0.030303255 0.036229115 0.018489582 0.03862934 0.026343875 0.038074628 0.031170424
0.031151919 0.030422736 0.019513126 0.035597414 0.029907553 0.03225583 0.036708456 0.03774667
0.03710099 0.03311969 0.028163787 0.037560217 0.037213974 0.029800272 0.03583137 0.035233736
0.03260431 0.037099387 0.031687364 0.03349175 0.02363525 0.019248929 0.03340825 0.02097247
0.033932265 0.038194142 0.025469758 0.036047794 0.03178872 0.013629044 0.036668915 0.03619761
0.020166257 0.038816176 0.033505894 0.017016288 0.038407575 0.03573334 0.02110891 0.030403288
0.036134876 0.031078637 0.030872436 0.036638442 0.012305334 0.025090706 0.030737339 0.034542218
0.034351856 0.024398556 0.038737122 0.03556613 0.029886423 0.035810485 0.03602771 0.035292
0.02039606 0.03710058 0.03219088 0.031059613 0.02756405 0.018489327 0.034985434 0.03640472
0.02349314 0.035972603 0.026977623 0.025432771 0.027392305 0.037145816 0.036749646 0.03638403
0.038013995 0.037456788 0.03007692 0.037120685 0.0381169 0.019766241 0.03824615 0.036943555
0.03441589 0.026005285 0.033770073 0.021309264 0.03636286 0.0384476 0.036758844 0.03118857
0.021816172 0.019338375 0.03249387 0.038280174 0.03252557 0.03519753 0.03731683 0.031279035

model.feature_nns.5.model.1.weight f4 [1, 1000]
00000000: a88d efb9 849c e1b9 0ea9 c4b9 23c5 d5b9
00000010: 1133 d6b9 1e8b bab9 2a8d 09ba 1d4f dbb9
00000020: 2414 f6b9 e1d9 03ba 16a3 feb9 ca37 0dba
00000030: c3a7 dab9 f725 e8b9 2995 afb9 7c04 efb9
00000040: 8f87 d0b9 ed5f d4b9 247d cfb9 4a9e c5b9
00000050: af1d e5b9 6535 dbb9 9cce ebb9 3d74 f0b9
00000060: 0d5b ecb9 b39c f7b9 997d efb9 7953 03ba
00000070: 5bd0 02ba d1ed ecb9 e6a5 fcb9 e9d8 e7b9
00000080: 3c2d 08ba 7453 dbb9 2f58 05ba 7b89 e6b9
00000090: f7f7 03ba a8e3 03ba 2652 05ba 23b6 e3b9
000000a0: 30ff 05ba 4eb1 f3b9 0a38 01ba 17df bab9
000000b0: 9feb ddb9 f995 03ba a4a6 cfb9 7cf7 d5b9
000000c0: f0e8 c8b9 8142 b8b9 45ab edb9 884e 01ba
000000d0: d82a 04ba aa80 ecb9 30c6 e6b9 dc56 f1b9
000000e0: 29c3 fcb9 bd6f e2b9 538d 97b9 80c7 e7b9
000000f0: 2ad4 0aba 4b67 a9b9 dc05 e5b9 c935 07ba
00000100: ee67 b5b9 2b51 e2b9 640a dab9 e387 01ba
00000110: 8b77 09ba 013d ceb9 4c46 c4b9 7919 07ba
00000120: be53 01ba 23ef 02ba 1e2f 01ba 76d3 e3b9
00000130: 0396 eab9 8424 ceb9 72b0 17ba 689c f9b9
00000140: f7a9 dcb9 8ae2 0aba 83f6 0eba 2ba0 efb9
00000150: 2669 eeb9 7682 03ba 582b e3b9 e679 c5b9
00000160: e5cc cab9 dc49 edb9 66e8 fab9 75de f4b9
00000170: 146a d4b9 ddca fab9 4e4f f0b9 37e5 f7b9
00000180: 5b7f ddb9 194a fbb9 2dea fdb9 42fc 0dba
00000190: 50be d1b9 4816 07ba edad 01ba bac2 07ba
000001a0: 9e0c e5b9 d0e8 bbb9 9d26 e5b9 1f74 03ba
000001b0: 2391 08ba 6666 f2b9 a3c4 ceb9 d24b dfb9
000001c0: 81b1 cbb9 e806 e8b9 9f4f d0b9 a73f 03ba
000001d0: a137 bcb9 4697 e4b9 7360 e0b9 2606 b7b9
000001e0: 7068 04ba 2dbf 01ba cf41 d3b9 1348 08ba
000001f0: 6ae2 ffb9 afd6 0aba 07d7 14ba 4f4f 09ba
00000200: 90cc d2b9 7f25 beb9 46e9 01ba d3c0 e2b9
00000210: e897 01ba 8243 beb9 818c f8b9 2e04 13ba
00000220: 4b2e ceb9 6e67 e6b9 1a4e f0b9 adba f7b9
00000230: 3ce0 bfb9 715c cbb9 bddc d7b9 1175 e4b9
00000240: f77a c2b9 7ae6 ddb9 c873 15ba 7dcd c4b9
00000250: c386 0aba 14cd d2b9 9edb d2b9 c0d5 f5b9
00000260: b5c0 c7b9 bd2f dab9 c9c9 abb9 4c25 bbb9
00000270: ace5 d1b9 13ae c5b9 e81c d2b9 c84c 01ba
00000280: f6fd fcb9 8774 d6b9 2ae4 f4b9 b12d e0b9
00000290: cfc7 e9b9 6e7d d8b9 c180 d3b9 0322 dab9
000002a0: 78b7 eeb9 db8a edb9 3854 02ba 4ba9 02ba
000002b0: cca7 03ba bab7 d6b9 24fa f5b9 6d3d f9b9
000002c0: dd38 ebb9 ecf1 07ba efe9 dfb9 56ba 02ba
000002d0: 828f edb9 8da8 abb9 b6b9 f3b9 e6d2 dfb9
000002e0: 73e5 05ba d8cb e7b9 ce01 01ba c31f deb9
000002f0: efd6 edb9 8b9f adb9 3fee 1dba eccb cab9
00000300: d824 cdb9 2446 d0b9 99c1 d4b9 4623 abb9
00000310: 681c bbb9 03a5 c3b9 07a8 e4b9 d29f 07ba
00000320: d0ce ddb9 3dd8 fcb9 9efe e7b9 248f 15ba
00000330: 27ce c3b9 5736 dcb9 2030 d3b9 3042 05ba
00000340: 8140 dbb9 b548 03ba 38ee edb9 349c c1b9
00000350: 128a 04ba 3559 d8b9 1ca6 e9b9 c2ca fbb9
00000360: 5024 fbb9 959a e2b9 12b4 d8b9 23a9 fcb9
00000370: 45fb cbb9 8819 ccb9 3398 f9b9 49ba c6b9
00000380: 8d7b e7b9 2b8e cfb9 75aa d7b9 1714 09ba
00000390: 02c1 feb9 3587 bab9 97ed c5b9 5eaa d0b9
000003a0: c444 d5b9 8326 09ba a225 cfb9 2bf0 01ba
000003b0: 3d40 f3b9 1d56 eab9 2376 e5b9 73df beb9
000003c0: 9ff6 fbb9 8884 08ba e918 f8b9 21dd d8b9
000003d0: 1583 e4b9 7581 ebb9 83b9 c5b9 3f05 e0b9
000003e0: aa75 05ba 49d8 01ba b4fc eeb9 221c fcb9
000003f0: bbb5 e8b9 98ca dcb9 76bf bcb9 7ce9 07ba
-0.00045691174 -0.00043031957 -0.0003750999 -0.00040773404 -0.00040855308 -0.00035580335 -0.00052471703 -0.0004182988
-0.00046935782 -0.000502972 -0.00048568164 -0.00053870364 -0.00041705192 -0.00044278774 -0.00033489734 -0.00045588973
-0.0003977385 -0.0004050726 -0.00039575354 -0.00037692703 -0.000437004 -0.00041810717 -0.0004497663 -0.00045862971
-0.00045081266 -0.0004722826 -0.0004567921 -0.0005009692 -0.0004990154 -0.00045190615 -0.0004818879 -0.00044221364
-0.0005194729 -0.00041833112 -0.0005086688 -0.0004397145 -0.0005034203 -0.0005031177 -0.00050857884 -0.00043432516
-0.0005111573 -0.00046480674 -0.000492931 -0.000356429 -0.00042327956 -0.0005019601 -0.00039606274 -0.00040810916
-0.00038320525 -0.00035144764 -0.00045331768 -0.00049326615 -0.00050417846 -0.0004510929 -0.0004401668 -0.00046031817
-0.0004821059 -0.0004318933 -0.0002890626 -0.00044208393 -0.0005295897 -0.0003231115 -0.0004368265 -0.0005157856
-0.00034600444 -0.00043166554 -0.00041587942 -0.0004941208 -0.00052439485 -0.00039336833 -0.00037436408 -0.0005153637
-0.0004933438 -0.00049947406 -0.00049279805 -0.00043454365 -0.00044743725 -0.00039318588 -0.0005786485 -0.00047609513
-0.00042088304 -0.0005298039 -0.0005453603 -0.00045704967 -0.0004547324 -0.00050166936 -0.00043329108 -0.0003766559
-0.000386811 -0.00045259192 -0.00047856866 -0.0004670505 -0.00040514825 -0.0004783486 -0.00045835454 -0.0004728229
-0.00042247292 -0.00047929658 -0.00048430395 -0.00054163125 -0.0004000538 -0.00051531615 -0.00049468764 -0.0005178858
-0.00043687684 -0.00035840878 -0.00043707053 -0.0005014557 -0.00052096153 -0.0004623413 -0.00039437888 -0.00042590365
-0.00038851428 -0.00044255634 -0.00039732174 -0.00050067384 -0.000358996 -0.00043600256 -0.0004279647 -0.0003490906
-0.0005050963 -0.0004949447 -0.00040294087 -0.0005198728 -0.00048806082 -0.00052962726 -0.00056777935 -0.0005237953
-0.00040206732 -0.0003626756 -0.000495572 -0.00043249744 -0.0004943595 -0.0003628992 -0.0004740693 -0.0005608228
-0.00039325873 -0.0004394608 -0.00045834557 -0.00047250596 -0.00036597427 -0.00038788051 -0.00041172458 -0.0004357477
-0.0003709418 -0.00042324123 -0.00057011517 -0.00037537134 -0.0005284363 -0.00040207116 -0.0004021795 -0.00046889298
-0.00038099816 -0.00041615768 -0.00032766003 -0.00035695208 -0.00040034705 -0.00037704463 -0.00040075858 -0.0004932401
-0.000482544 -0.0004090408 -0.00046709302 -0.00042758652 -0.00044590092 -0.00041292183 -0.00040340985 -0.0004160554
-0.00045531592 -0.00045307618 -0.0004971656 -0.0004984333 -0.0005022257 -0.00040954148 -0.0004691641 -0.00047538747
-0.0004486506 -0.00051858905 -0.0004270817 -0.00049868727 -0.00045311084 -0.00032741242 -0.00046486937 -0.00042691006
-0.0005107738 -0.0004421163 -0.00049212284 -0.00042366804 -0.000453643 -0.00033116 -0.0006024576 -0.00038680376
-0.00039128098 -0.0003972511 -0.00040580033 -0.00032641942 -0.00035688584 -0.00037316242 -0.0004361274 -0.00051736564
-0.00042306492 -0.00048226296 -0.00044249458 -0.00057052285 -0.00037346894 -0.00042002156 -0.00040280912 -0.000508341
-0.00041818994 -0.00050080876 -0.0004538165 -0.0003692821 -0.00050559745 -0.00041265195 -0.00044564984 -0.00048025517
-0.00047901506 -0.00043221252 -0.00041332893 -0.00048191202 -0.00038906388 -0.00038928934 -0.00047606378 -0.00037904296
-0.00044151806 -0.0003958804 -0.00041134996 -0.0005229129 -0.00048590457 -0.00035577422 -0.00037751786 -0.00039799785
-0.0004067776 -0.0005231874 -0.00039510155 -0.0004956747 -0.00046396433 -0.00044696117 -0.00043766302 -0.00036406107
-0.00048058198 -0.0005207737 -0.00047320806 -0.00041363484 -0.00043585213 -0.00044919146 -0.00037712985 -0.00042728518
-0.00050910807 -0.00049531885 -0.00045583176 -0.00048086146 -0.00044385888 -0.00042112614 -0.00036000804 -0.0005184633
