GolfFeedback-poc/src/s3_NAM_model/output/dtl_DA/0/checkpoints/epoch=499-val_loss=9.3459.ckpt (torch, 588817 bytes, 198 tensors)

model.feature_nns.0.model.0.weights f4 [1, 46]
000000 e4 47 12 3d 53 e6 f0 3c 55 93 e5 3c f2 f5 f5 3c
       0.03571309 0.029406702 0.028024355 0.030024502
000010 a8 bc 03 3d 60 b8 09 3d 70 e0 c2 3c 86 95 09 3d
       0.03216234 0.0336231 0.02378866 0.033589862
000020 0d 29 cb 3c ac 3c 1e 3d 89 c4 1a 3d ec 32 07 3d
       0.024799848 0.03863208 0.037785087 0.033007547
000030 e9 98 dd 3c 97 13 1b 3d 51 35 e7 3c 97 24 cc 3c
       0.027050452 0.03786048 0.028223665 0.024919791
000040 d1 1e ad 3c 40 9b 1a 3d 6b 86 ff 3c 65 3d fc 3c
       0.021132858 0.037745714 0.031192025 0.030790994
000050 c5 4a f8 3c b9 bf 09 3d c5 82 02 3d 5d f9 1d 3d
       0.03030909 0.033630107 0.031862993 0.03856789
000060 ce 39 b9 3c b1 13 1b 3d 33 1c f7 3c 52 10 12 3d
       0.022610571 0.037860576 0.030164814 0.035660096
000070 58 a2 b4 3c 62 89 ee 3c 52 ae 17 3d b5 bc b1 3c
       0.022050068 0.029118244 0.03703148 0.021696428
000080 76 4e 72 3c bc b1 f2 3c e6 1c 1b 3d 95 32 c0 3c
       0.014789214 0.029625766 0.037869357 0.02346162
000090 ca 90 c9 3c 8c cf 1b 3d 7d 4d 17 3d fb 52 16 3d
       0.024605174 0.03803973 0.036939133 0.03670023
0000a0 a7 85 13 3d c4 95 06 3d 27 64 a2 3c 02 c9 0b 3d
       0.036016133 0.03285767 0.019823147 0.034127243
0000b0 4e cc 0b 3d 88 6b 19 3d
       0.034130387 0.037456065

model.feature_nns.0.model.1.weight f4 [1, 46]
000000 c7 0f 83 bb 16 9a 8b bb a5 38 7b bb c2 80 91 bb
       -0.0039996835 -0.004260312 -0.0038333323 -0.004440398
000010 6b 99 81 bb dd cf 82 bb 67 88 86 bb 37 96 77 bb
       -0.0039550564 -0.0039920644 -0.004105616 -0.0037778744
000020 3d 39 8a bb 20 04 87 bb 05 a9 8f bb ee 0a 87 bb
       -0.004218249 -0.004120365 -0.0043841624 -0.004121176
000030 f0 7e 8b bb 6e 4c 82 bb 7f f7 82 bb f6 40 80 bb
       -0.0042570755 -0.0039763963 -0.003996789 -0.003913994
000040 bb 6a 87 bb af 2d 89 bb 61 a7 76 bb 9e ed 94 bb
       -0.0041325963 -0.004186354 -0.0037636387 -0.0045449277
000050 b3 1e 93 bb ea 75 82 bb 7f d2 8d bb ef 07 87 bb
       -0.0044897436 -0.0039813416 -0.0043280716 -0.004120819
000060 d2 22 88 bb 4e c4 93 bb 93 ec 7c bb f3 72 81 bb
       -0.0041545415 -0.0045094853 -0.0038593158 -0.0039504706
000070 f4 e9 7d bb 35 5f 86 bb 36 b1 8d bb ca 72 7e bb
       -0.0038744183 -0.004100705 -0.0043241037 -0.0038825744
000080 76 5b 82 bb fe 8a 84 bb 7d c7 95 bb 43 9f 80 bb
       -0.003978188 -0.0040448895 -0.0045709 -0.0039252355
000090 58 1d 87 bb 14 15 8a bb fa 5b 80 bb f3 d6 8a bb
       -0.004123371 -0.0042139385 -0.0039172145 -0.0042370497
0000a0 18 7b 8b bb a6 2d 8b bb 69 71 81 bb 9d e6 8b bb
       -0.0042566173 -0.004247385 -0.003950287 -0.0042694346
0000b0 de 6e 82 bb 8b e9 8b bb
       -0.0039805016 -0.004269784

model.feature_nns.1.model.0.weights f4 [1, 1000]
000000 6d ac 16 3d ce a0 1d 3d 73 d9 f9 3c d0 f7 19 3d
       0.03678553 0.038483433 0.030499196 0.037589848
000010 ac 57 1d 3d 85 a3 0e 3d 74 32 72 3c 5a ec 55 3c
       0.03841369 0.034823913 0.014782537 0.013056839
000020 e2 16 ee 3c b5 0e 13 3d c2 ff 17 3d 2c 57 11 3d
       0.029063646 0.035902698 0.037109144 0.035483524
000030 28 06 94 3c c8 ba 01 3d 5c bf 15 3d fc 81 11 3d
       0.018069342 0.03167227 0.036559448 0.035524353
000040 7e b1 0c 3d ae c5 1b 3d b9 d4 b7 3c bd d2 07 3d
       0.034348957 0.03803032 0.022440301 0.03315996
000050 43 59 cd 3c 33 e1 5d 3c bd c3 ef 3c 0a b6 ed 3c
       0.025066977 0.013542461 0.02926814 0.029017467
000060 81 ce 17 3d 14 2c b0 3c f9 a9 0d 3d d9 81 dd 3c
       0.03706217 0.021505393 0.034585927 0.027039455
000070 88 ef e3 3c 75 3f a4 3c 96 52 13 3d 53 b2 0e 3d
       0.027824178 0.02004979 0.035967432 0.034838032
000080 a2 af 02 3d 57 51 87 3c ad ae 1c 3d 10 b0 03 3d
       0.031905778 0.016518278 0.03825252 0.03215033
000090 6e 3c a4 3c 2f 7d 19 3d 97 ff 59 3c a7 39 12 3d
       0.020048346 0.0374729 0.013305566 0.035699513
0000a0 cd fa 16 3d 67 a0 15 3d 9d ec 1b 3d 33 46 d1 3c
       0.036860276 0.036529925 0.03806745 0.025546169
0000b0 f4 8e 7d 3c 24 24 1b 3d 35 fd 0e 3d 8d 3b 13 3d
       0.015475977 0.037876263 0.034909446 0.035945464
0000c0 b6 f9 12 3d 36 e0 df 3c aa bf 16 3d 2f 39 0f 3d
       0.035882674 0.027328592 0.03680388 0.034966644
0000d0 51 a4 10 3d 2c 38 de 3c 0a 73 cb 3c 70 84 01 3d
       0.035312954 0.027126394 0.024835128 0.031620443
0000e0 1a e9 a7 3c 5a 58 03 3d 6b 98 09 3d f4 dc d3 3c
       0.020496894 0.03206668 0.033592623 0.025862195
0000f0 f7 f4 00 3d 61 33 16 3d cb 7d a8 3c f3 e4 0f 3d
       0.031483617 0.036670092 0.020567795 0.035130452
000100 f9 81 1a 3d 16 d5 16 3d cf 6a cc 3c 9b 4e 0e 3d
       0.037721608 0.03682431 0.024953274 0.034742933
000110 b5 5f 09 3d cc 21 fa 3c b3 8e 11 3d 63 a9 0b 3d
       0.03353854 0.030533694 0.03553648 0.034097087
000120 4c 10 d6 3c d8 b0 1a 3d b1 f1 ec 3c 36 05 13 3d
       0.026130818 0.037766308 0.028923841 0.03589364
000130 08 94 13 3d 41 05 17 3d 24 6f fe 3c ac 9c e9 3c
       0.036029845 0.036870245 0.031058855 0.02851709
000140 15 56 15 3d c5 03 1d 3d 75 7b c9 3c 6a 93 fe 3c
       0.036459047 0.038333673 0.024595002 0.031076152
000150 47 5e 1b 3d cc d0 0d 3d fb ab 14 3d c1 87 00 3d
       0.037931707 0.034622952 0.036296826 0.031379465
000160 7f bb 15 3d a8 67 0d 3d a7 8e c3 3c 57 60 1c 3d
       0.036555763 0.034522682 0.023871733 0.038177814
000170 e5 07 94 3c 23 4b 18 3d 9b 70 d2 3c 35 1e 1d 3d
       0.01807017 0.03718103 0.02568846 0.038358886
000180 c1 ab 12 3d 18 d2 1d 3d 93 46 1c 3d 85 d0 0b 3d
       0.03580833 0.03853044 0.038153242 0.034134407
000190 df 52 1c 3d e7 f9 d0 3c c4 41 ce 3c d9 19 a9 3c
       0.03816497 0.025509788 0.025177844 0.020642208
0001a0 36 89 db 3c f5 e7 15 3d b0 2e 15 3d c8 08 94 3c
       0.026798826 0.036598165 0.036421478 0.018070593
0001b0 41 13 b5 3c d4 69 18 3d 27 c8 1d 3d c0 bd 16 3d
       0.022103908 0.0372103 0.03852096 0.036802053
0001c0 77 1b 0d 3d 49 92 f5 3c 6a b5 0b 3d d0 73 18 3d
       0.03445002 0.02997698 0.034108557 0.037219822
0001d0 12 a7 af 3c 7c c5 ef 3c 3f b2 0a 3d 3c 02 5a 3c
       0.02144197 0.029268973 0.033861395 0.013306197
0001e0 b9 1e 07 3d 01 56 0c 3d d9 fc 0f 3d 00 26 e7 3c
       0.032988284 0.034261707 0.035153244 0.028216362
0001f0 b5 18 17 3d a1 91 8a 3c 12 19 4d 3c fa 41 0d 3d
       0.036888797 0.016915144 0.012518184 0.03448675
000200 86 45 16 3d d4 f0 07 3d aa 93 19 3d c8 e5 14 3d
       0.036687396 0.033188656 0.03749434 0.03635195
000210 c9 69 17 3d e2 45 02 3d e6 bd 18 3d 50 5c bd 3c
       0.03696612 0.031804927 0.037290476 0.023115307
000220 f1 1a e0 3c d5 69 e9 3c d7 18 17 3d 4c 0f 1c 3d
       0.027356597 0.028492847 0.036888923 0.038100526
000230 8a 2a df 3c a1 6f 16 3d cd 8f e0 3c 5f 53 0f 3d
       0.027241964 0.03672755 0.02741232 0.03499162
000240 ee ef 19 3d 8f f0 0e 3d ec f6 05 3d f2 96 07 3d
       0.03758233 0.034897383 0.032706186 0.033102937
000250 1d a5 05 3d 4a d0 7a 3c 5c 0d 0d 3d 9d 57 08 3d
       0.032628167 0.015308449 0.03443657 0.03328668
000260 fa 44 1e 3d d9 0e c2 3c f1 37 1d 3d 86 e0 1c 3d
       0.03864 0.02368872 0.038383428 0.03830006
000270 20 49 9b 3c c2 e2 00 3d b6 89 12 3d d8 f6 13 3d
       0.018955767 0.031466253 0.035775863 0.03612408
000280 02 c2 ef 3c 49 ca cf 3c 5e 67 ea 3c 65 e9 f4 3c
       0.029267315 0.025365012 0.028613742 0.029896447
000290 2e 3a 12 3d ec e7 04 3d c1 26 13 3d 91 57 02 3d
       0.035700016 0.03244774 0.03592563 0.03182179
0002a0 e6 10 0e 3d 5c c3 12 3d 4e b3 b1 3c db b9 ed 3c
       0.034684084 0.03583084 0.021691944 0.029019287
0002b0 ca 15 4d 3c 10 2c f3 3c 07 8d c3 3c 8b 3f 23 3c
       0.012517402 0.029684097 0.023870958 0.00996388
0002c0 ef d5 1c 3d 74 68 ef 3c 63 a5 07 3d de cf d5 3c
       0.03828996 0.029224612 0.03311671 0.026100095
0002d0 a5 6e 09 3d 62 99 8c 3c 28 3c 01 3d bd 8c 02 3d
       0.033552784 0.017162982 0.03155151 0.0318725
0002e0 08 98 0c 3d 70 fa 09 3d f5 87 17 3d 76 d2 07 3d
       0.034324676 0.0336861 0.036994893 0.033159696
0002f0 a9 61 ec 3c f7 af 1d 3d 54 5e 01 3d 22 a7 1c 3d
       0.028855162 0.03849789 0.0315841 0.038245328
000300 0a f4 bc 3c ac bf dd 3c 35 18 ae 3c c2 41 d5 3c
       0.023065586 0.027068935 0.021251777 0.026032332
000310 a7 08 09 3d 70 f6 19 3d d1 10 c2 3c a4 5d 10 3d
       0.033455517 0.037588537 0.02368966 0.035245553
000320 8d df 18 3d be c9 1d 3d 03 f7 10 3d ee c5 ef 3c
       0.03732257 0.038522474 0.03539182 0.029269185
000330 a5 7e a5 3c 48 eb 0b 3d e1 b2 15 3d 84 b3 0a 3d
       0.02020199 0.03415993 0.036547545 0.033862606
000340 3e e1 13 3d f9 54 1c 3d 22 cf 03 3d 4b 2e cf 3c
       0.03610348 0.038166974 0.03217996 0.025290629
000350 70 d3 02 3d 28 8a f8 3c 10 47 16 3d 12 2d 14 3d
       0.031939924 0.030339316 0.036688864 0.036175795
000360 62 d1 06 3d d8 83 15 3d e8 c7 cd 3b 6e 45 ce 3c
       0.032914527 0.03650269 0.006279934 0.025179591
000370 93 ec 08 3d a7 10 0e 3d 74 2a 1b 3d 6d 18 0a 3d
       0.03342874 0.03468385 0.037882283 0.0337147
000380 bf f3 d7 3c a6 3d 00 3d 98 06 cd 3c b6 c5 e7 3c
       0.026361344 0.031308793 0.025027558 0.028292518
000390 0c e8 f6 3c 8b d0 16 3d f1 32 1e 3d c3 b5 0d 3d
       0.030139945 0.036819976 0.0386228 0.03459717
0003a0 b3 8c c3 3c 28 4a 92 3c ed a6 ee 3c 6f 99 b9 3c
       0.023870802 0.017857626 0.02913233 0.02265617
0003b0 e1 57 cd 3c 8f 4b a2 3c c6 98 0c 3d f3 10 0b 3d
       0.025066318 0.01981142 0.034325384 0.03395171
0003c0 30 ef 03 3d 8a b2 09 3d 7f ea 0b 3d 64 21 0f 3d
       0.03221053 0.033617534 0.03415918 0.034943953
0003d0 89 87 0a 3d 1d 3e 00 3d 10 c7 05 3d f9 0c 94 3c
       0.033820663 0.031309236 0.032660544 0.018072592
0003e0 36 b6 c5 3c 24 07 dc 3c 3a 87 19 3d a8 c9 1a 3d
       0.024134737 0.026858874 0.037482478 0.03778997
0003f0 75 a4 c4 3c 57 2c 13 3d de e8 04 3d 83 fb 0e 3d
       0.0240042 0.035930958 0.032448642 0.03490783

model.feature_nns.1.model.1.weight f4 [1, 1000]
000000 05 f3 f9 b9 34 31 5f b9 2b de c0 b9 6a e2 82 b9
       -0.00047674045 -0.00021285267 -0.00036786622 -0.00024964224
000010 64 f4 85 b9 c6 84 ff b8 45 85 92 b9 a1 91 98 b9
       -0.00025549822 -0.000121840785 -0.00027946584 -0.000291002
000020 c7 51 bc b8 7e ab ca b9 22 6d e1 b9 ef 8c 58 b9
       -8.979771e-05 -0.00038656214 -0.00042996655 -0.00020651867
000030 5c 9e 83 b9 05 ff 87 b9 67 87 94 b9 1f 32 27 b9
       -0.00025104254 -0.0002593921 -0.00028329642 -0.00015945033
000040 14 a1 b9 b9 cd 8f 68 b9 4f 96 fa b9 78 1b 87 b9
       -0.00035405962 -0.00022178814 -0.00047795704 -0.00025769672
000050 28 99 17 b9 11 c6 87 b8 e3 4d 4e b9 fd 20 8f b9
       -0.00014457537 -6.4741944e-05 -0.00019674706 -0.00027299664
000060 44 fe 61 b9 36 7c 1a b9 60 ec 8b b9 31 55 b2 b9
       -0.00021552393 -0.00014732857 -0.0002668826 -0.00034014278
000070 ba 97 c7 b9 59 5c cd b9 ef a9 98 b9 74 37 d2 b9
       -0.00038069283 -0.0003916945 -0.0002911831 -0.00040095637
000080 bd ce 61 b8 3c aa b0 b9 3b da f5 b9 bc 0c ac b9
       -5.383672e-05 -0.0003369617 -0.00046892636 -0.00032815884
000090 e9 0d d1 b9 0a 7f 37 b9 ba b1 b5 b9 de 65 f7 b9
       -0.0003987395 -0.00017499566 -0.00034655427 -0.00047187408
0000a0 da 9d a3 b9 5e b1 8e b9 79 8f 9d b9 7a 4d 8b b9
       -0.0003120739 -0.000272165 -0.0003005227 -0.0002656987
0000b0 21 eb b9 b9 73 ed ea b9 78 19 b7 b9 5b af a2 b9
       -0.00035461134 -0.00044808871 -0.00034923456 -0.00031029698
0000c0 9e 2c 97 b9 fa cd b6 b9 1c 68 d0 b9 9d 0b 67 b9
       -0.00028834207 -0.0003486721 -0.0003975042 -0.00022034203
0000d0 f0 ed a5 b9 93 9b da b9 77 1e e3 b9 ed 7b ab b9
       -0.0003164853 -0.00041696112 -0.00043319512 -0.00032707994
0000e0 90 74 c3 b9 07 06 b7 b9 7a e0 f3 b9 86 75 46 b9
       -0.00037280144 -0.0003490897 -0.0004651582 -0.00018926532
0000f0 e9 3a b6 b9 4a de bb b9 c1 f1 04 b9 13 d6 e9 b9
       -0.00034757637 -0.00035833038 -0.00012678561 -0.0004460072
000100 64 71 90 b9 ac 54 f9 b9 cd 31 ca b9 74 3c 13 ba
       -0.00027550303 -0.00047556066 -0.00038565547 -0.0005616613
000110 b2 a7 96 b9 20 7b 90 b9 28 d5 5a b9 d6 23 e6 b9
       -0.00028735172 -0.00027557556 -0.00020869507 -0.00043895718
000120 a0 61 c3 b9 11 73 ea b9 35 e6 93 b9 32 fc 87 b9
       -0.00037266035 -0.0004471769 -0.00028209543 -0.00025937107
000130 c2 a9 b5 b9 d8 98 31 b9 31 73 f7 b8 d2 9f f0 b8
       -0.0003464949 -0.00016936974 -0.00011799334 -0.00011473861
000140 56 d9 bc b9 1e 61 99 b9 e7 34 d6 b9 1b 23 f8 b9
       -0.00036020082 -0.00029254792 -0.00040856676 -0.00047328402
000150 ea 9f ba b9 6b 03 b1 b9 a9 97 c6 b9 ae 20 0c b9
       -0.0003559583 -0.00033762617 -0.000378785 -0.00013363615
000160 ab 1b 9c b9 1a 8c 81 b9 ac 14 b1 b9 3c 9a a1 b9
       -0.00029775253 -0.0002470918 -0.00033775473 -0.00030823227
000170 ae c6 9f b9 f6 f6 b2 b9 4e 4d 6f b9 ae 3c 85 b9
       -0.0003047487 -0.00034134806 -0.00022821614 -0.00025412947
000180 96 5d c8 b9 96 1b 68 b9 d4 3f c7 b9 62 c5 97 b9
       -0.000382167 -0.0002213552 -0.00038003793 -0.00028948026
000190 cc d0 cb b9 b5 3f dd b9 0f 95 d0 b9 7a d1 64 b9
       -0.00038874743 -0.0004219987 -0.0003978391 -0.0002182181
0001a0 08 30 d1 b8 dc 22 a4 b9 c4 73 9f b9 47 1e 2c ba
       -9.974843e-05 -0.0003130649 -0.00030413095 -0.0006565791
0001b0 4c 62 99 b9 0e 65 ad b9 a4 3a a8 b9 d9 7d b8 b9
       -0.0002925567 -0.00033072423 -0.00032087148 -0.0003518898
0001c0 8b 49 a7 b9 41 21 89 b9 6e 96 d6 b9 28 7c 96 b9
       -0.00031907516 -0.00026155452 -0.0004092934 -0.00028702733
0001d0 17 2c fd b9 cc 38 a9 b9 21 8d b0 b9 be e3 84 b9
       -0.0004828877 -0.0003227651 -0.00033674485 -0.00025346683
0001e0 d9 b6 51 b9 dc b5 9b b9 cd 78 bc b9 b0 7b d8 b9
       -0.0001999991 -0.000296994 -0.00035948158 -0.00041290885
0001f0 b5 c0 4a b9 14 e8 da b9 24 d9 6e b9 5f bf a7 b9
       -0.0001933601 -0.00041753112 -0.0002277834 -0.00031995305
000200 66 58 ac b9 41 ed 91 b9 63 10 8a b9 49 82 c7 b9
       -0.00032872258 -0.00027833323 -0.0002633362 -0.00038053308
000210 f4 cb 8f b9 7d f0 b6 b9 7d e3 95 b9 fd 28 cc b9
       -0.00027427042 -0.00034892923 -0.00028588987 -0.0003894045
000220 e7 fa 9d b9 7a aa 89 b9 19 08 c9 b9 77 5b 1f b9
       -0.0003013231 -0.0002625769 -0.0003834374 -0.00015197495
000230 02 2f 6f b9 ac 6a 1e ba 19 f3 cc b9 3f 62 7c b9
       -0.00022810328 -0.0006043117 -0.00039091034 -0.00024069192
000240 bf 8b d2 b9 9c d6 44 b9 86 13 a6 b9 73 47 52 b9
       -0.0004015844 -0.00018771965 -0.00031676533 -0.00020053778
000250 b3 72 bc b9 11 bb d1 b9 1f f9 54 b9 12 f6 a4 b9
       -0.00035943612 -0.00040002962 -0.000203107 -0.00031463854
000260 6f da 12 b9 ff 72 cc b9 80 8b ce b9 fb 24 1b b9
       -0.00014005018 -0.0003899559 -0.00039395317 -0.00014795728
000270 30 5e de b9 16 7d 97 b9 94 40 d4 b9 29 ba 66 b9
       -0.00042413315 -0.0002889416 -0.00040483905 -0.0002200386
000280 de f3 c9 b9 e0 4e 82 b9 73 d4 85 b9 1a 6b 94 b9
       -0.00038519403 -0.000248543 -0.00025526024 -0.00028308557
000290 7e e7 b4 b9 5b f9 f8 b9 f0 c2 60 b9 3a c1 cc b9
       -0.0003450475 -0.0004748803 -0.00021434925 -0.00039053877
0002a0 67 97 90 b9 75 6e 74 b9 ac cd 5d b9 55 e9 d9 b8
       -0.00027578624 -0.00023310802 -0.00021152821 -0.00010390828
0002b0 c0 12 6d b9 41 79 c7 b9 c2 bb d5 b9 fe 52 6d b9
       -0.00022609066 -0.0003804658 -0.00040766416 -0.00022632998
0002c0 ab 26 58 b9 86 5d 7a b9 82 cb 61 b9 28 27 dd b9
       -0.0002061377 -0.00023876698 -0.00021533485 -0.00042181578
0002d0 93 e0 81 b9 3a f2 9a b9 2c 0c e8 b9 10 d1 c5 b9
       -0.00024772118 -0.00029553642 -0.00044259557 -0.00037730532
0002e0 1e dd 9f b9 8c c2 bb b9 90 64 28 b8 73 fb 20 b9
       -0.00030491588 -0.00035812368 -4.0147977e-05 -0.00015352461
0002f0 01 1e b1 b9 b9 a0 df b9 03 9b 0a ba 91 2d 4a b9
       -0.00033782425 -0.00042653622 -0.0005287381 -0.00019281196
000300 be 70 78 b9 b8 99 38 b9 03 03 87 b9 25 c5 b9 b9
       -0.00023693123 -0.00017604872 -0.0002575145 -0.00035432834
000310 8d 6e b1 b9 05 0a d1 b9 1c f6 cb b9 6d 8c c4 b9
       -0.00033842438 -0.00039871052 -0.00038902543 -0.0003748866
000320 c0 18 ea b9 f9 17 b3 b9 92 69 ba b9 47 1e d3 b9
       -0.00044650398 -0.00034159402 -0.0003555534 -0.00040267615
000330 86 bd 81 b9 78 be de b9 03 d8 92 b9 7c 7b cd b9
       -0.00024746003 -0.0004248505 -0.0002800823 -0.0003919265
000340 32 27 31 b9 94 db 0d ba 8f 3a 99 b9 c8 3a b4 b9
       -0.00016894637 -0.0005411443 -0.00029226064 -0.0003437607
000350 1e 4d b7 b9 b8 27 09 ba 24 6f d6 b9 45 3e b1 b9
       -0.00034961937 -0.0005232054 -0.00040900067 -0.00033806465
000360 0d 55 0c ba 0f a1 8e b9 c1 d8 6c b9 7d 17 c9 b9
       -0.000535325 -0.0002720435 -0.00022587461 -0.00038355208
000370 9c 7b e3 b9 c4 88 00 b9 4a 71 ac b9 34 50 12 b9
       -0.0004338891 -0.0001225798 -0.00032890803 -0.00013953523
000380 c0 1c 66 b9 8b 6b df b9 11 9a a4 b9 b1 50 ed b8
       -0.0002194522 -0.00042614 -0.00031395306 -0.000113160706
000390 1d 35 e1 b8 98 ed 6b b9 25 3e a2 b9 8f cf c6 b9
       -0.00010738729 -0.00022499857 -0.0003094535 -0.00037920146
0003a0 e5 cd de b9 ad 46 01 ba 0a 7a 70 b9 e7 0a a2 b9
       -0.00042496543 -0.0004931491 -0.00022933647 -0.0003090717
0003b0 8f 1d 17 ba bc f7 72 b9 49 b1 ea b9 7d b3 f3 b9
       -0.00057645974 -0.00023171207 -0.00044764046 -0.000464823
0003c0 cc 87 e0 b9 47 55 c2 b9 17 41 28 b9 6b 27 d6 b9
       -0.00042825786 -0.000370661 -0.00016045976 -0.0004084663
0003d0 6a 44 c0 b9 60 20 c1 b9 42 39 d9 b9 dd 5b 8b b9
       -0.00036672066 -0.0003683595 -0.00041432126 -0.0002658059
0003e0 e5 95 a2 b8 81 91 d7 b9 15 89 bf b9 c1 f7 b4 b9
       -7.752682e-05 -0.00041116404 -0.00036532493 -0.00034516866
0003f0 45 2f 95 b9 f1 25 b8 b9 72 69 ae b9 d6 c7 dd b9
       -0.00028454713 -0.00035123483 -0.0003326643 -0.00042301294

model.feature_nns.2.model.0.weights f4 [1, 104]
000000 2f 25 13 3d f7 f2 d6 3c cf 36 1b 3d c5 30 9a 3b
       0.035924133 0.026238902 0.037894066 0.004705521
000010 bc e2 0a 3d fc a7 c1 3c 4a bc 14 3d 28 ac ed 3c
       0.033907637 0.023639672 0.03631238 0.029012755
000020 8b 5e 16 3d 57 a5 06 3d f2 3b 06 3d 29 d4 c2 3c
       0.036711257 0.032872524 0.032772012 0.023782806
000030 df d0 fd 3c 13 88 f1 3c 0d cc 17 3d a6 61 91 3c
       0.030983387 0.02948383 0.037059832 0.017746758
000040 08 b8 cc 3c 17 56 1d 3d 85 c6 c7 3c 80 be 16 3d
       0.024990097 0.03841218 0.024386654 0.03680277
000050 8e d4 db 3c 16 60 08 3d e1 ef 13 3d 4b 64 f5 3c
       0.026834752 0.03329476 0.03611744 0.02995505
000060 ac 02 1b 3d 97 dd 16 3d de ac 15 3d 27 f0 17 3d
       0.037844345 0.03683242 0.036541812 0.03709426
000070 11 02 1a 3d 6d 4e 23 3c 3e 5f c2 3c e3 8e ce 3c
       0.037599627 0.009967429 0.023727056 0.025214618
000080 0c f1 19 3d 0b 2a 0c 3d 5d 75 1d 3d 84 57 01 3d
       0.037583396 0.034219783 0.038442004 0.031577602
000090 22 b3 16 3d 96 39 05 3d f2 f3 04 3d 01 8c d5 3c
       0.036791928 0.03252562 0.032459207 0.026067736
0000a0 83 76 02 3d db 3e 0e 3d b1 c9 01 3d 96 f1 0c 3d
       0.031851303 0.034727912 0.03168649 0.03441008
0000b0 e9 0c 0e 3d 97 ad 13 3d d1 df f5 3c 39 62 0c 3d
       0.03468028 0.03605422 0.03001395 0.03427336
0000c0 9f 82 cf 3c 87 6f 1e 3d a1 f3 d2 3c 19 69 09 3d
       0.02533084 0.03868058 0.025750937 0.033547495
0000d0 6c 56 13 3d 21 18 05 3d 22 47 1d 3d 70 9f 0c 3d
       0.03597109 0.032493714 0.038397916 0.03433174
0000e0 32 85 f8 3c 2e 60 d6 3c 1f 39 ef 3c db 0f e6 3c
       0.03033695 0.026168909 0.029202042 0.028083732
0000f0 11 42 65 3c 1e 4a 92 3c 4f cb eb 3c 57 ec 55 3c
       0.013992802 0.017857607 0.028783469 0.013056836
000100 01 5e 04 3d 8c c4 9c 3c fa c3 dc 3c 09 38 65 3c
       0.03231621 0.01913669 0.026948918 0.013990411
000110 4f 72 14 3d 5b 83 0b 3d 21 b1 11 3d f5 64 17 3d
       0.036241826 0.034060817 0.035569314 0.036961515
000120 fc 06 17 3d bd cf 14 3d 8c c1 dd 3c 47 9a f6 3c
       0.036871895 0.036330927 0.02706983 0.030102862
000130 79 f1 d7 3c 2a ea 0a 3d cc da f6 3c 52 60 1b 3d
       0.02636026 0.033914723 0.030133627 0.037933655
000140 99 50 c4 3c 78 14 fc 3c ab 37 1d 3d 1f 9c 1a 3d
       0.023964213 0.030771479 0.038383167 0.037746545
000150 99 f2 dd 3c 1a d6 3d 3c c0 4a 09 3d 7b 04 1a 3d
       0.027093219 0.01158669 0.033518553 0.03760193
000160 da 8b 0a 3d 65 c1 bb 3c ae b2 02 3d b8 ef 07 3d
       0.03382478 0.022919366 0.031908683 0.033187598
000170 95 0a 19 3d fd e6 1a 3d 2d 8d fb 3c 37 6c 17 3d
       0.037363607 0.037817944 0.030706966 0.036968436
000180 be 6f 19 3d a6 fa 14 3d 15 7e 0f 3d 87 8a 1a 3d
       0.03746008 0.03637185 0.03503235 0.037729766
000190 61 ef 16 3d 52 9d f4 3c da a7 51 3c 24 f8 1a 3d
       0.036849383 0.029860172 0.012796367 0.0378343

model.feature_nns.2.model.1.weight f4 [1, 104]
000000 8c 0d 0d bb 44 15 0f bb bc 92 0e bb 6a 83 01 bb
       -0.0021522967 -0.0021832744 -0.002175494 -0.0019762167
000010 7f 5c 0d bb ba 43 17 bb 33 35 15 bb f5 28 13 bb
       -0.0021570025 -0.002308114 -0.0022767305 -0.0022454832
000020 45 ed 19 bb 40 60 08 bb 5e 42 08 bb 85 cb 13 bb
       -0.002348737 -0.0020809323 -0.002079151 -0.0022551727
000030 ff b6 0b bb b1 cf 0e bb f3 9c 05 bb 53 2a f1 ba
       -0.002131879 -0.0021791274 -0.0020387738 -0.0018399454
000040 7e a9 11 bb 08 66 07 bb 6d ee 10 bb 40 f8 15 bb
       -0.002222627 -0.002066018 -0.002211477 -0.0022883564
000050 89 b7 0c bb 8d d2 15 bb 72 5f 12 bb 49 5f 0e bb
       -0.00214717 -0.0022861094 -0.0022334722 -0.0021724275
000060 66 6c 10 bb e3 45 13 bb 2a c2 0c bb 8c 50 12 bb
       -0.0022037267 -0.0022472076 -0.0021478035 -0.0022325842
000070 de 7b 1b bb 23 89 0c bb e9 09 0c bb b4 2e 0a bb
       -0.0023724954 -0.0021444045 -0.0021368212 -0.0021084966
000080 fc 5a 09 bb ec c2 05 bb 81 9b 12 bb 31 d1 15 bb
       -0.0020958772 -0.0020410372 -0.002237052 -0.0022860283
000090 ea 46 12 bb 9f 80 01 bb 47 c5 11 bb f5 02 0e bb
       -0.00223201 -0.0019760502 -0.002224283 -0.0021669243
0000a0 b3 fd 0d bb a8 2a 0e bb 01 e5 08 bb 05 cf 0f bb
       -0.002166611 -0.0021692906 -0.002088845 -0.0021943462
0000b0 f7 b3 12 bb b0 b0 12 bb 2f 05 13 bb ff 48 19 bb
       -0.00223851 -0.0022383146 -0.002243351 -0.0023389456
0000c0 21 c5 16 bb b9 ee 09 bb 8b 4b 11 bb 5b e8 12 bb
       -0.0023005682 -0.002104683 -0.0022170271 -0.0022416327
0000d0 86 94 08 bb 2d 38 10 bb 63 92 17 bb 80 a2 13 bb
       -0.002084048 -0.002200614 -0.0023128025 -0.0022527277
0000e0 dd df 16 bb 76 76 0d bb 93 7a 10 bb c3 46 13 bb
       -0.0023021617 -0.00215855 -0.0022045716 -0.0022472597
0000f0 7f 21 16 bb 33 93 10 bb ab 06 11 bb 6d 20 0a bb
       -0.0022908149 -0.0022060394 -0.0022129219 -0.0021076456
000100 4d 6a 0f bb c6 04 0c bb 7c 29 16 bb e7 22 19 bb
       -0.0021883429 -0.002136515 -0.002291291 -0.002336675
000110 4a 5d 0d bb 54 aa 06 bb 50 b1 0c bb de 51 16 bb
       -0.0021570497 -0.00205483 -0.0021467991 -0.002293698
000120 91 db 11 bb 3a 3f 0f bb b8 69 15 bb 45 82 0b bb
       -0.0022256116 -0.0021857754 -0.002279861 -0.0021287363
000130 d6 fc 1b bb 59 6a 10 bb 0a 4e 0e bb b3 b4 11 bb
       -0.0023801825 -0.0022036044 -0.0021713995 -0.002223295
000140 db 71 15 bb f1 f1 0b bb 23 07 1c bb ef 27 0e bb
       -0.002280346 -0.0021353925 -0.0023807965 -0.0021691283
000150 9e a5 0d bb 04 7b 06 bb 8f e5 12 bb 7f 48 07 bb
       -0.0021613608 -0.00205201 -0.002241466 -0.0020642576
000160 93 ab 11 bb 93 42 0a bb 30 41 19 bb 86 18 0e bb
       -0.002222751 -0.002109681 -0.0023384802 -0.0021682098
000170 0f cc 0a bb 16 8b 10 bb 81 cd 14 bb 3f 17 12 bb
       -0.0021178757 -0.0022055558 -0.0022705498 -0.0022291688
000180 2c a1 0b bb 8b 07 03 bb 24 fb 0c bb fd 56 13 bb
       -0.0021305783 -0.001999351 -0.0021511996 -0.002248227
000190 f0 d6 0e bb 85 42 17 bb 04 9a 0b bb 07 2c 13 bb
       -0.0021795593 -0.002308042 -0.0021301517 -0.0022456662

model.feature_nns.3.model.0.weights f4 [1, 78]
000000 b5 55 1d 3d 05 49 1e 3d 99 5c 0b 3d 09 89 14 3d
       0.038411815 0.038643856 0.034023855 0.0362635
000010 9e 7e 1e 3d e6 9f 14 3d d0 12 1b 3d d7 6a 08 3d
       0.03869497 0.036285304 0.037859738 0.033305015
000020 9f d2 12 3d 13 95 08 3d bd cb fa 3c 0f aa 13 3d
       0.035845395 0.033345293 0.030614728 0.036050852
000030 25 08 d1 3c 97 9a e8 3c 3b 4f a4 3c 54 1e f6 3c
       0.025516579 0.028394027 0.020057311 0.030043758
000040 88 b5 17 3d 7c 1b e3 3c d3 8b 19 3d e7 f6 02 3d
       0.037038356 0.027723067 0.037486862 0.031973746
000050 d0 c9 02 3d 8b 06 94 3c 04 6e f7 3c af a8 cd 3c
       0.031930745 0.018069526 0.030203827 0.025104849
000060 84 bc 18 3d d7 9a 9f 3c 6b 0e d3 3c 18 01 0f 3d
       0.037289158 0.019483013 0.025763711 0.034913152
000070 aa a5 12 3d 44 11 1a 3d ed 80 1a 3d 11 e1 17 3d
       0.03580252 0.037614122 0.03772061 0.037079874
000080 a1 8f 13 3d 88 e1 1a 3c 55 75 f1 3c 33 51 05 3d
       0.036025647 0.009453185 0.029474894 0.03254814
000090 58 d2 14 3d ff 97 13 3d 35 6a 1c 3d f0 44 12 3d
       0.036333412 0.036033627 0.038187224 0.035710275
0000a0 e3 c9 12 3d e5 10 11 3d 44 30 6f 3c df fb 05 3d
       0.035837065 0.035416503 0.01459891 0.032710906
0000b0 b1 f5 0e 3d a4 5e 14 3d 32 8b 8f 3c 52 7b 0b 3d
       0.03490228 0.03622307 0.017522428 0.034053154
0000c0 55 0f 05 3d 9e 6b 97 3c a3 6d df 3c 65 52 18 3d
       0.032485325 0.018483933 0.027273959 0.037187953
0000d0 bb 57 c4 3c 07 a1 8e 3c 26 e7 1b 3d e6 ed 0a 3d
       0.023967614 0.017410768 0.038062237 0.033918284
0000e0 b6 38 1b 3d 23 b4 a9 3c 14 97 b5 3c 72 0a ff 3c
       0.03789588 0.020715779 0.022166766 0.03113291
0000f0 d3 e3 07 3d 3e f1 1c 3d 11 e0 d6 3c f9 7f 02 3d
       0.033176254 0.038316004 0.02622989 0.031860325
000100 f8 b9 16 3d 6a e8 16 3d 32 93 a8 3c a6 50 0c 3d
       0.036798447 0.03684274 0.020578 0.0342566
000110 32 51 19 3d 78 3a 1a 3d 36 14 e1 3c c6 1b 11 3d
       0.03743095 0.037653416 0.027475458 0.035426877
000120 3a d6 b7 3c b2 a1 13 3d 80 5d 15 3d 8f cf e7 3c
       0.022441018 0.036042877 0.03646612 0.028297214
000130 60 35 e8 3c fc 56 a2 3c
       0.028345764 0.019816868

model.feature_nns.3.model.1.weight f4 [1, 78]
000000 1e 54 48 bb 94 f6 4a bb 13 b0 48 bb 51 01 51 bb
       -0.0030567716 -0.0030969726 -0.0030622527 -0.0031891654
000010 8f b5 52 bb c9 9b 49 bb 39 35 49 bb 80 83 4e bb
       -0.0032151674 -0.0030763021 -0.003070189 -0.0031511486
000020 9c ca 50 bb 19 84 41 bb 9b ec 41 bb 11 73 5e bb
       -0.0031859046 -0.00295282 -0.002959049 -0.0033943097
000030 00 ae 4b bb 8a e0 5d bb b5 80 36 bb 40 72 3f bb
       -0.0031079054 -0.003385576 -0.0027847711 -0.0029212385
000040 dc f5 4d bb d0 98 5a bb 7f 44 5c bb fb de 4e bb
       -0.0031427061 -0.0033355244 -0.0033610163 -0.0031566012
000050 5f 6e 3a bb 9c b2 44 bb ea bd 39 bb 14 d6 39 bb
       -0.0028447134 -0.0030013686 -0.0028341957 -0.002835636
000060 22 1f 3b bb df 46 3f bb 72 f9 3d bb aa f9 4a bb
       -0.0028552492 -0.002918653 -0.0028987792 -0.0030971565
000070 2f dc 51 bb d2 e1 47 bb b9 2f 55 bb f6 2f 63 bb
       -0.0032022109 -0.003049959 -0.0032529666 -0.0034666038
000080 d6 7d 4e bb ef 88 37 bb 65 6f 4b bb d7 03 41 bb
       -0.003150811 -0.0028005203 -0.0031041738 -0.0029451752
000090 ae cc 46 bb 36 f5 56 bb ca b7 35 bb 90 a5 4b bb
       -0.00303344 -0.0032799966 -0.0027727955 -0.0031074025
0000a0 b9 bc 4d bb 7c 81 4e bb 5f a2 42 bb 32 f6 4b bb
       -0.0031393005 -0.0031510284 -0.0029698831 -0.0031122086
0000b0 c8 8f 57 bb d0 79 38 bb 44 d3 4d bb 63 3a 42 bb
       -0.0032892097 -0.0028148778 -0.0031406442 -0.0029636852
0000c0 f2 38 3d bb 9a d1 4f bb 0e 55 4a bb 78 74 49 bb
       -0.0028873053 -0.0031710626 -0.003087345 -0.0030739587
0000d0 66 84 50 bb 9a 06 5a bb f9 a7 66 bb e3 59 51 bb
       -0.0031817197 -0.0033268095 -0.0035195334 -0.0031944446
0000e0 d6 10 3f bb df 75 41 bb ca 7c 51 bb 8d 60 4b bb
       -0.0029154322 -0.002951972 -0.003196525 -0.003103289
0000f0 6c 50 47 bb 3a d6 62 bb 1b 1c 58 bb e7 d6 36 bb
       -0.0030412925 -0.0034612552 -0.0032975737 -0.0027899088
000100 ee ba 55 bb 45 f4 45 bb 82 b3 4b bb 7d df 4b bb
       -0.003261264 -0.003020541 -0.0031082337 -0.0031108551
000110 68 f4 4f bb 89 22 5a bb 06 cf 41 bb 10 b3 58 bb
       -0.003173137 -0.0033284745 -0.0029572858 -0.0033065714
000120 72 42 51 bb 5f 56 4f bb 5c 12 49 bb 9c dc 40 bb
       -0.0031930474 -0.0031637175 -0.003068111 -0.0029428368
000130 fc 99 45 bb d6 75 38 bb
       -0.0030151596 -0.0028146408

model.feature_nns.4.model.0.weights f4 [1, 182]
000000 25 aa 16 3d 1e e7 16 3d c5 be 0c 3d 70 4c 0e 3d
       0.036783356 0.036841504 0.03436162 0.034740865
000010 dd ae 1d 3d 93 84 c0 3c 19 21 0f 3d 74 6e 1b 3d
       0.03849684 0.023500716 0.034943674 0.037947133
000020 e3 74 d8 3c 0d af d4 3c a1 44 06 3d 6b 8a 1c 3d
       0.026422923 0.025962377 0.032780293 0.038217943
000030 52 4d 01 3d 0d 64 f7 3c 2a 95 1a 3d 35 98 68 3c
       0.03156788 0.030199075 0.03773991 0.014196445
000040 e9 f0 16 3d 67 3a 08 3d a8 41 c4 3c e7 1a 16 3d
       0.036850844 0.03325882 0.023957089 0.03664675
000050 80 bf ef 3c 21 14 ae 3c c0 81 1e 3d 01 52 0f 3d
       0.029266119 0.021249833 0.038697958 0.034990314
000060 e3 fd b5 3c 1b 84 08 3d a6 10 18 3d 09 f7 dd 3c
       0.02221579 0.03332911 0.037125252 0.027095335
000070 d7 71 fa 3c e0 c7 11 3d 97 a6 01 3d 3d a6 af 3c
       0.030571861 0.035591006 0.031653013 0.021441573
000080 6c 95 b4 3c b9 d5 17 3d a0 c6 da 3c 54 3b 01 3d
       0.022043906 0.037069056 0.02670604 0.03155072
000090 5a 8a 02 3d a8 35 06 3d 21 8c 0e 3d cf 93 12 3d
       0.031870224 0.032766014 0.034801606 0.035785493
0000a0 16 9f 12 3d 4d 26 b3 3c d2 06 16 3d 68 dc df 3c
       0.035796247 0.02186885 0.036627598 0.027326778
0000b0 1f b0 c5 3c 7d a7 1a 3d 4e ea 10 3d 0c c8 1b 3d
       0.024131833 0.037757386 0.0353797 0.038032576
0000c0 20 4c f0 3c b5 d5 17 3d 4a c3 1a 3c ac 28 b0 3c
       0.029333174 0.03706904 0.009445975 0.021503769
0000d0 27 2e 12 3d 6f 4e 19 3d a7 42 da 3c e9 70 e5 3c
       0.035688546 0.037428316 0.02664311 0.028007941
0000e0 b8 f6 10 3d bc f3 00 3d 0c 23 b9 3c 8b 13 1a 3d
       0.03539154 0.031482443 0.02259972 0.037616294
0000f0 6a 04 f4 3c ca 3b aa 3c 03 15 1b 3d 39 58 19 3d
       0.029787261 0.020780463 0.037861835 0.03743765
000100 f8 fc 17 3d 17 66 ea 3c 77 53 11 3d 24 04 e1 3c
       0.037106484 0.028613133 0.03547999 0.027467795
000110 a7 ef 03 3d 29 92 b9 3c c2 05 78 3c 60 ca e8 3c
       0.032210972 0.022652702 0.0151380915 0.028416812
000120 37 7d 89 3c 3d 0b f8 3c 44 58 1e 3d 2e 30 d8 3c
       0.01678334 0.030278796 0.038658395 0.026390161
000130 28 95 01 3d 32 a2 06 3d 48 f2 a2 3c f1 f4 11 3d
       0.031636387 0.032869525 0.01989092 0.035633985
000140 9f e9 11 3d 31 4b 48 3c 98 e9 11 3d 12 80 10 3d
       0.03562319 0.012224958 0.035623163 0.035278387
000150 81 a9 15 3d 71 c5 04 3d 31 b6 1c 3d f8 f1 02 3d
       0.036538605 0.032414857 0.03825969 0.03196904
000160 75 26 05 3d a5 2c 07 3d 82 bf 19 3d fb f0 16 3d
       0.03250738 0.03300156 0.03753615 0.03685091
000170 ef 27 be 3c 28 19 17 3d 5a e1 00 3d 08 c4 fc 3c
       0.023212401 0.036889225 0.031464912 0.030855194
000180 4e 56 02 3d 1c 62 ef 3c a1 5c 1b 3d 6c c2 09 3d
       0.031820588 0.029221587 0.037930135 0.03363268
000190 58 d2 19 3d 35 03 03 3d ac ea fa 3c bb 29 ec 3c
       0.037554115 0.03198548 0.030629478 0.028828492
0001a0 cf 87 bc 3c 29 5c 10 3d dc 2c cf 3c 11 d8 f3 3c
       0.023013977 0.03524414 0.025289945 0.029766114
0001b0 cd 7a 09 3d fb fc 17 3d e0 f7 eb 3c 28 5c ec 3c
       0.033564378 0.037106495 0.02880472 0.028852537
0001c0 53 98 68 3c e1 89 ad 3c 1e 62 fb 3c fb 9c 82 3c
       0.014196473 0.02118391 0.030686434 0.015943995
0001d0 98 af d4 3c 76 14 1b 3d 5a c6 c7 3c 40 21 15 3d
       0.025962636 0.03786131 0.024386574 0.036408663
0001e0 96 34 0d 3d 4a dc df 3c 51 87 0a 3d c6 53 f3 3c
       0.034473978 0.027326722 0.033820454 0.029703032
0001f0 11 d5 13 3d a9 37 18 3d df 32 ef 3c 6c 67 d7 3c
       0.036091868 0.037162457 0.029199062 0.026294433
000200 45 4c a2 3c 2d 88 13 3d e3 81 1e 3d 15 d3 fd 3c
       0.019811759 0.03601854 0.03869809 0.03098444
000210 61 56 02 3d 26 99 11 3d 11 83 d5 3c 87 b0 c5 3c
       0.03182066 0.035546444 0.026063474 0.024132026
000220 4a 97 05 3d 51 c2 14 3d f3 1f 0c 3d 68 44 da 3c
       0.032614984 0.036318127 0.034210157 0.026643947
000230 c6 48 1d 3d ae b3 15 3d d8 63 f7 3c 2e 12 4d 3c
       0.03839948 0.03654831 0.030198976 0.012516541
000240 15 eb 13 3d bb 05 78 3c 1d d9 0c 3d ef 5d f4 3c
       0.036112864 0.015138085 0.034386743 0.029829947
000250 e6 ea fa 3c 7c 8e e7 3c 76 a5 04 3d a9 c7 1c 3d
       0.030629586 0.028266184 0.03238436 0.03827635
000260 bd c2 e7 3c d0 22 d7 3c 4b 20 10 3d 9e 2f 1d 3d
       0.0282911 0.026261717 0.035187047 0.03837549
000270 a0 1e 19 3d 02 d3 e2 3c 7b 79 02 3d 03 a7 01 3d
       0.037382722 0.027688507 0.031854134 0.031653415
000280 7a 26 93 3c 22 52 1d 3d f3 a6 05 3d 44 c2 bd 3c
       0.017962683 0.038408406 0.03262992 0.023163922
000290 ac 94 eb 3c e6 90 ef 3c e1 95 e4 3c 39 ef 03 3d
       0.028757416 0.029243898 0.0279035 0.032210562
0002a0 75 c3 07 3d 11 b1 0e 3d 8d 06 f1 3c 21 86 fd 3c
       0.033145387 0.034836832 0.029422069 0.030947747
0002b0 41 98 ea 3c 3c 55 0b 3d cf 94 1a 3d 44 cd f2 3c
       0.028637053 0.034016833 0.03773957 0.029638894
0002c0 6d ba e6 3c 20 22 12 3d 67 80 1b 3d 55 50 10 3d
       0.028165067 0.035677075 0.03796425 0.03523286
0002d0 42 bf 1b 3d ac 55 0b 3d
       0.038024195 0.03401725

model.feature_nns.4.model.1.weight f4 [1, 182]
000000 fc ed d4 ba df 8a c6 ba 67 31 be ba 72 2b c3 ba
       -0.0016245241 -0.0015147588 -0.0014510573 -0.0014890267
000010 41 6e ad ba 03 50 ce ba 05 fe d8 ba b8 a9 f6 ba
       -0.0013231711 -0.0015740398 -0.0016555196 -0.0018818891
000020 f5 34 a7 ba 0e 2d c4 ba e9 11 a8 ba a6 fa cc ba
       -0.0012756871 -0.0014967041 -0.001282272 -0.0015638664
000030 a6 42 ca ba cd 77 bd ba b8 65 ad ba 90 da cf ba
       -0.001543124 -0.0014455259 -0.0013229167 -0.0015857983
000040 fb 65 d6 ba 9a c9 ce ba ef 61 cc ba ba ba be ba
       -0.0016357297 -0.0015776635 -0.0015593151 -0.0014551498
000050 49 c6 92 ba 88 e1 d3 ba 92 1a ee ba 3f db d3 ba
       -0.001119801 -0.0016165236 -0.0018165878 -0.0016163363
000060 ce 02 e6 ba 0b f9 f0 ba 59 2a ce ba 7f b7 d7 ba
       -0.0017548443 -0.0018384767 -0.0015729173 -0.0016457884
000070 80 ba c8 ba bd 0e af ba f2 18 d5 ba 6b 70 c2 ba
       -0.001531437 -0.0013355833 -0.0016258045 -0.0014834529
000080 6a 69 f8 ba 12 74 94 ba 5d 37 ca ba d2 b2 d6 ba
       -0.0018952314 -0.0011326096 -0.0015427876 -0.0016380197
000090 75 2d db ba 3b a5 b7 ba 6c dc d0 ba 74 d7 8b ba
       -0.0016721921 -0.0014011035 -0.0015934831 -0.0010669068
0000a0 22 c6 c8 ba f4 ff db ba 0e 77 d9 ba d5 36 e5 ba
       -0.0015317837 -0.0016784654 -0.0016591267 -0.0017487655
0000b0 56 8a c5 ba df cf 01 bb c8 00 f7 ba 55 31 df ba
       -0.0015071135 -0.0019807739 -0.0018844837 -0.0017028252
0000c0 ab 6b e4 ba 80 04 c6 ba 57 97 c5 ba 05 54 dc ba
       -0.0017427107 -0.0015107542 -0.001507501 -0.0016809708
0000d0 4f ae ad ba 2f 8d d3 ba e4 f6 eb ba 56 13 dd ba
       -0.00132508 -0.0016140098 -0.0018002656 -0.0016866724
0000e0 43 d5 bb ba ff 73 d2 ba f1 d5 ce ba b2 19 ca ba
       -0.0014330525 -0.0016056298 -0.0015780312 -0.0015419035
0000f0 ab 5c d1 ba 56 6c b9 ba 48 ed ad ba 3c ee de ba
       -0.0015973052 -0.0014146667 -0.0013269568 -0.0017008255
000100 a0 62 d4 ba 3d 97 d9 ba 3e 89 c2 ba de 26 d3 ba
       -0.0016203709 -0.0016600859 -0.0014841927 -0.0016109606
000110 31 26 d6 ba 3f 9d d9 ba c1 16 ec ba 37 34 df ba
       -0.0016338286 -0.0016602649 -0.0018012152 -0.0017029111
000120 23 9d da ba 7b ef cd ba 43 a6 d1 ba 4c 1f e4 ba
       -0.001667891 -0.001571163 -0.0015994984 -0.0017404347
000130 64 a8 ac ba c1 2c ca ba 17 60 c7 ba 8c ab ea ba
       -0.0013172743 -0.0015424715 -0.0015211132 -0.0017903908
000140 62 de c7 ba 11 d6 cf ba 72 0c ba ba f6 b6 d9 ba
       -0.001524877 -0.0015856643 -0.0014194383 -0.0016610313
000150 53 90 a9 ba 0f e0 05 bb 32 65 d8 ba 57 89 ad ba
       -0.0012936689 -0.0020427739 -0.0016509651 -0.0013239783
000160 c5 69 d5 ba ad ca af ba b9 db ad ba ca 4b c9 ba
       -0.0016282132 -0.0013411843 -0.0013264335 -0.001535767
000170 1d ec e0 ba dc 05 bb ba de 14 c6 ba c6 69 a6 ba
       -0.0017160211 -0.0014268714 -0.001511242 -0.0012696318
000180 5b 32 c3 ba 52 88 d6 ba c5 e1 ad ba a8 bf ae ba
       -0.0014892326 -0.0016367531 -0.0013266137 -0.0013332264
000190 cb e5 bf ba 4c d5 bb ba 86 19 c7 ba 29 0d e7 ba
       -0.0014640627 -0.0014330535 -0.0015190102 -0.0017627823
0001a0 40 cc d4 ba c2 b5 c4 ba 2e ba cf ba 26 2f b7 ba
       -0.0016235188 -0.0015007781 -0.0015848333 -0.0013975843
0001b0 7c 74 c4 ba d2 4b cc ba af 2c f0 ba e0 be c7 ba
       -0.0014988328 -0.0015586561 -0.0018323864 -0.001523938
0001c0 a8 a0 de ba 9b c1 e5 ba ae 0e d6 ba c3 a9 b9 ba
       -0.0016985135 -0.0017529012 -0.0016331279 -0.0014164973
0001d0 13 a9 c3 ba 2b 6a d4 ba 3d e4 b4 ba 59 c3 e2 ba
       -0.0014927707 -0.0016205957 -0.001380093 -0.001730065
0001e0 e3 17 cd ba 4c d8 f5 ba 6f 06 cf ba 95 76 05 bb
       -0.0015647378 -0.0018756478 -0.0015794764 -0.002036487
0001f0 35 d6 d6 ba 53 2b c0 ba 45 87 a8 ba 20 da aa ba
       -0.0016390743 -0.0014661349 -0.0012857696 -0.0013034977
000200 ba b6 b6 ba b0 bb df ba b9 32 ec ba 7e bf e3 ba
       -0.0013939955 -0.0017069485 -0.0018020488 -0.0017375795
000210 19 53 c7 ba 28 06 ba ba 9c 46 e7 ba 00 bc b1 ba
       -0.001520726 -0.0014192509 -0.0017644945 -0.0013560057
000220 52 4e a7 ba 04 c1 bb ba ab 15 b3 ba 9e fb 08 bb
       -0.001276443 -0.0014324491 -0.0013663074 -0.0020901929
000230 4c 0d c5 ba 28 d5 f9 ba d2 b5 cb ba 6d 3e d9 ba
       -0.001503387 -0.0019060718 -0.0015541858 -0.001657439
000240 83 cf f3 ba ac 68 ba ba b9 d3 be ba f5 37 ca ba
       -0.0018601272 -0.0014221868 -0.0014558948 -0.0015428053
000250 89 a4 af ba 7e 94 b2 ba 7e 58 bc ba b3 19 d4 ba
       -0.0013400476 -0.0013624576 -0.0014369634 -0.0016181975
000260 15 b5 f7 ba 01 c5 c1 ba 20 ff c7 ba c6 f3 d8 ba
       -0.0018898571 -0.0014783443 -0.0015258528 -0.0016552142
000270 6e c0 c7 ba df 12 e1 ba 8f 3f b8 ba 1f 25 c0 ba
       -0.0015239844 -0.0017171762 -0.0014057028 -0.00146595
000280 66 e4 dd ba 9e e9 db ba 19 a2 e2 ba 88 6c d8 ba
       -0.001692903 -0.0016777997 -0.001729074 -0.0016511837
000290 26 e1 db ba ca 85 c1 ba 8c 58 ed ba 2e 09 e2 ba
       -0.0016775473 -0.0014764604 -0.0018108054 -0.0017245167
0002a0 16 a1 e1 ba 1b a3 e6 ba 74 6c bf ba cb e1 ef ba
       -0.0017214145 -0.0017596217 -0.0014604465 -0.0018301544
0002b0 d8 95 d0 ba a2 b7 d5 ba 2f 88 ef ba 6c 99 d8 ba
       -0.0015913798 -0.0016305337 -0.0018274839 -0.0016525215
0002c0 b0 50 dc ba e6 ee ad ba e6 52 be ba 44 4a d7 ba
       -0.0016808715 -0.001327005 -0.0014520555 -0.0016425331
0002d0 4b 3b c8 ba 07 da fb ba
       -0.001527646 -0.0019214757

model.feature_nns.5.model.0.weights f4 [1, 1000]
000000 8f a9 d0 3c ab ad 17 3d 82 bd d9 3c 80 d4 f3 3c
       0.025471477 0.037030857 0.026579622 0.029764414
000010 29 1f 75 3c bd 3c e1 3c 12 db 15 3d b3 72 04 3d
       0.014961042 0.027494783 0.036585875 0.03233595
000020 3b a4 17 3d c9 bd 18 3d 35 23 72 3c f0 1a 08 3d
       0.037021857 0.03729037 0.014778902 0.033228815
000030 5b 11 d0 3c 30 81 da 3c 9f be 13 3d e0 31 02 3d
       0.0253989 0.02667293 0.036070462 0.031785846
000040 e8 34 03 3d f0 e5 c0 3c 0a 65 08 3d 03 6b 1d 3d
       0.032032877 0.023547143 0.033299483 0.038432132
000050 9b 3f 1d 3d 05 ed d7 3c 64 0c 07 3d 7f 67 c2 3c
       0.038390737 0.026358137 0.0329708 0.023730991
000060 24 68 fe 3c 81 7a e3 3c 69 9a 03 3d 88 69 0f 3d
       0.031055517 0.027768375 0.03212968 0.03501275
000070 dc 75 1b 3d 20 dd 03 3d b9 a7 f0 3c 7b 8a 14 3d
       0.037954196 0.032193303 0.029376851 0.036264878
000080 f9 10 d0 3c 3d c1 fc 3c 80 23 18 3d d0 81 9a 3c
       0.025398718 0.030853862 0.03714323 0.018860728
000090 6a dd 09 3d 36 be 1b 3d f4 16 11 3d 80 af 11 3d
       0.033658423 0.038023196 0.03542228 0.03556776
0000a0 94 77 0a 3d 8a 14 05 3d 88 3a 0c 3d e6 da 08 3d
       0.033805445 0.03249029 0.034235507 0.033411883
0000b0 00 a7 f9 3c 33 09 0a 3d 2c 7d 17 3d 47 49 e6 3c
       0.03047514 0.03370018 0.036984608 0.028111113
0000c0 29 a2 10 3d d5 80 1a 3d aa 7f d5 3c 01 62 04 3d
       0.035310898 0.03772052 0.026061852 0.032320026
0000d0 67 76 14 3d 3f fa 0e 3d af 71 01 3d d8 01 1d 3d
       0.03624573 0.034906622 0.031602558 0.038331836
0000e0 18 59 b7 3c 33 32 04 3d dd a2 18 3d 24 b7 95 3c
       0.02238135 0.032274436 0.037264694 0.018275805
0000f0 77 c7 19 3d 26 88 8a 3c 1e c8 01 3d 26 89 02 3d
       0.03754374 0.016910624 0.031684987 0.031869076
000100 e7 97 fa 3c b5 15 e0 3c c9 84 17 3d 7f 76 0a 3d
       0.03059001 0.0273541 0.03699187 0.033804413
000110 0c de 03 3d ac 86 05 3d 85 13 10 3d ab a8 16 3d
       0.032194182 0.032599136 0.035174865 0.036781948
000120 e4 eb ec 3c 4b af 0e 3d 08 0a f8 3c e7 78 a5 3c
       0.028921075 0.03483514 0.03027822 0.020199252
000130 53 3d e1 3c 08 5b ec 3c 80 3d dd 3c 00 79 89 3c
       0.027495062 0.028852 0.027006865 0.01678133
000140 66 e1 ed 3c 18 c8 e0 3c 25 46 03 3d 20 f1 17 3d
       0.029038142 0.027439162 0.032049317 0.03709519
000150 a1 b6 17 3d 3a 32 fd 3c a8 ab 03 3d b6 e0 00 3d
       0.037039403 0.030907739 0.032146126 0.0314643
000160 26 84 19 3d ad 46 c1 3c a7 67 03 3d b9 5a e4 3c
       0.037479542 0.023593271 0.032081272 0.027875291
000170 9e bb c6 3c f3 9d 15 3d 43 74 c9 3c e7 31 43 3c
       0.024259385 0.036527585 0.02459157 0.011913753
000180 2c ce 09 3d ca ff 18 3d 93 d2 83 3c 34 b3 0b 3d
       0.033643886 0.037353314 0.01609162 0.03410645
000190 e1 ac de 3c 16 00 1a 3d 6e 5c 1c 3d 2e 48 08 3d
       0.027182044 0.03759774 0.038174085 0.03327196
0001a0 12 8e be 3c b1 8a 8e 3c 31 0b 1b 3d 44 e9 de 3c
       0.023261104 0.017400118 0.03785247 0.02721084
0001b0 77 7b 17 3d d5 42 10 3d f6 3a 1c 3d ad e7 ab 3c
       0.03698298 0.035219986 0.038142167 0.020984495
0001c0 0f 60 00 3d 09 cc 03 3d 87 7f f9 3c fb 47 03 3d
       0.03134161 0.032177005 0.030456318 0.032051068
0001d0 37 eb e6 3c 5b 3b e1 3c b6 32 0d 3d 65 fa 0e 3d
       0.028188331 0.027494123 0.03447219 0.034906764
0001e0 23 13 a9 3c 1b 12 ae 3c b6 be 06 3d 3d b2 d2 3c
       0.020639008 0.021248868 0.03289672 0.025719756
0001f0 c0 e0 1c 3d d6 25 19 3d 9f 9a 02 3d 98 f0 d4 3c
       0.038300276 0.0373896 0.03188574 0.02599363
000200 eb 93 68 3c 1a 2e d8 3c e1 16 13 3d bb 9c a1 3c
       0.014195423 0.02638917 0.03591049 0.019728055
000210 70 98 19 3d f9 c5 e0 3c f5 69 09 3d 12 a1 ee 3c
       0.03749889 0.02743815 0.033548314 0.029129539
000220 3c 00 da 3c 84 61 1d 3d 97 e1 1b 3d 07 62 0b 3d
       0.02661144 0.038423076 0.038056936 0.034029033
000230 2f 9a 82 3c cb 5a ec 3c f8 24 93 3c 8d 42 db 3c
       0.015942661 0.028851887 0.017961964 0.026765132
000240 19 7c d9 3c e7 aa f3 3c 91 2c 16 3d 4e c5 3d 3c
       0.026548432 0.029744579 0.036663596 0.011582686
000250 ed 39 19 3d 00 5f ef 3c 5b de 06 3d 50 80 0e 3d
       0.037408758 0.029220104 0.0329269 0.034790337
000260 14 ec e6 3c 1e e4 f6 3c 6b 9e 13 3d 72 8b 96 3c
       0.028188743 0.030138072 0.03603975 0.01837704
000270 50 69 1d 3d 1e 98 d6 3c ef 25 1b 3d 1e f7 fd 3c
       0.038430512 0.026195582 0.037877973 0.031001624
000280 79 d0 fd 3c a3 dd f7 3c cb e3 9e 3c ad 0a 11 3d
       0.030983197 0.030257052 0.01939573 0.03541057
000290 c0 a9 f3 3c fc 68 03 3d 0c 93 15 3d 64 cf 19 3d
       0.029744029 0.032082543 0.036517188 0.0375513
0002a0 05 2d 17 3d 1a ef 06 3d 4d 70 e5 3c a8 0c 19 3d
       0.03690817 0.03294287 0.02800765 0.037365586
0002b0 07 a3 17 3d b6 c9 f2 3c 05 ff 11 3d dd 8e 0f 3d
       0.03702071 0.029637199 0.035643596 0.035048354
0002c0 e5 d4 04 3d 5a 2b 17 3d 5f 17 01 3d a3 73 08 3d
       0.032429595 0.036906578 0.03151643 0.033313405
0002d0 cc 80 c0 3c 57 bc 9c 3c 70 1c 08 3d f6 c9 aa 3c
       0.023498915 0.019132776 0.033230245 0.020848256
0002e0 ad 3f 0a 3d c3 a2 1b 3d fa 76 cf 3c 0c e1 12 3d
       0.033752132 0.03799702 0.025325287 0.035859153
0002f0 34 81 01 3d 75 d9 5d 3c c1 69 15 3d 84 7d 13 3d
       0.03161736 0.013540615 0.036477808 0.036008373
000300 11 37 a4 3c 76 2c 1e 3d 69 82 08 3d a7 88 8a 3c
       0.020045789 0.03861662 0.033327494 0.016910864
000310 b0 81 1c 3d a2 98 11 3d c6 e6 ab 3c 06 b5 f7 3c
       0.038209617 0.035545953 0.020984065 0.030237686
000320 00 3c 13 3d 6d 37 fd 3c cb 88 fb 3c ed 49 15 3d
       0.035945892 0.030910218 0.030704876 0.036447454
000330 6f 46 48 3c 8b 5f cc 3c a7 6e fa 3c ac bc 0c 3d
       0.012223824 0.024947902 0.030570341 0.03435962
000340 dd f5 0b 3d 6e ba c6 3c e3 d9 1d 3d 02 ea 10 3d
       0.03417002 0.024258818 0.03853787 0.035379417
000350 9f 7d f3 3c 35 e9 11 3d 14 cc 12 3d b7 cb 0f 3d
       0.029722987 0.035622794 0.035839155 0.035106387
000360 c1 16 a6 3c 98 2c 17 3d 2a 25 03 3d b3 0f fd 3c
       0.020274522 0.036907762 0.032017864 0.030891275
000370 f2 8b e0 3c ea 8a 96 3c 8b 8b 0e 3d d4 55 14 3d
       0.027410481 0.018376786 0.034801047 0.036214665
000380 1c 58 bf 3c 85 92 12 3d 6b c3 db 3c c0 29 cf 3c
       0.023357444 0.035784263 0.026826581 0.025288463
000390 53 25 df 3c d7 5b 17 3d 12 be 15 3d 37 40 14 3d
       0.027239477 0.03695282 0.03655822 0.036194053
0003a0 9a e6 1a 3d a1 a0 18 3d 72 0b f5 3c 97 41 17 3d
       0.037817575 0.037262563 0.029912684 0.036927786
0003b0 16 52 1b 3d 1c f4 a0 3c 14 d9 1b 3d 97 88 16 3d
       0.03792008 0.01964765 0.03804882 0.036751356
0003c0 bd 38 0c 3d 23 d5 d3 3c 4b 96 09 3d 02 89 ad 3c
       0.034233797 0.025858467 0.033590596 0.021183494
0003d0 1b 2a 14 3d 7c ab 1c 3d ad c7 15 3d 04 1d fe 3c
       0.036172967 0.038249478 0.03656738 0.031019695
0003e0 31 ab b1 3c 0a 77 9d 3c 8f 61 04 3d 9f fc 1b 3d
       0.021688076 0.019221801 0.0323196 0.038082715
0003f0 aa 82 04 3d 0c 69 0f 3d 73 0e 18 3d f2 d9 fe 3c
       0.032351173 0.03501229 0.037123155 0.031109784
