GolfFeedback-poc/src/s3_NAM_model/output/dtl_DA/0/checkpoints/epoch=498-val_loss=9.3955.ckpt (torch, 588817 bytes, 198 tensors)

model.feature_nns.0.model.0.weights f4 [1, 46]
0.035806768 0.029487438 0.028102152 0.03010653 0.032248817 0.033712566 0.023857206 0.033679258
0.024870636 0.038731523 0.037882864 0.03309576 0.027126148 0.037958402 0.02830189 0.02499085
0.021195363 0.037843414 0.0312765 0.030874625 0.030391717 0.033719584 0.03194885 0.038667202
0.022676457 0.037958495 0.03024714 0.035753664 0.022114685 0.029198362 0.037127767 0.021760229
0.014836421 0.029706966 0.0379673 0.023529423 0.024675533 0.03813801 0.03703525 0.03679587
0.03611041 0.03294557 0.019882603 0.034217723 0.034220878 0.037553195
00000000: 1eaa 123d a48f f13c 7c36 e63c f8a1 f63c
00000010: 5617 043d 3016 0a3d 3070 c33c 43f3 093d
00000020: 81bd cb3c f2a4 1e3d 102b 1b3d 6b8f 073d
00000030: a837 de3c 457a 1b3d 5dd9 e73c 9cb9 cc3c
00000040: e6a1 ad3c b201 1b3d ca1b 003d c8ec fc3c
00000050: 0df8 f83c 8c1d 0a3d ccdc 023d 8061 1e3d
00000060: fac3 b93c 5e7a 1b3d dac8 f73c 6f72 123d
00000070: db29 b53c 6731 ef3c 4913 183d 8242 b23c
00000080: 7614 733c 065c f33c 9983 1b3d c7c0 c03c
00000090: 5824 ca3c 9a36 1c3d 46b2 173d 44b7 163d
000000a0: 82e8 133d eff1 063d d7e0 a23c e227 0c3d
000000b0: 312b 0c3d 61d1 193d

model.feature_nns.0.model.1.weight f4 [1, 46]
-0.003977761 -0.0042590136 -0.003813825 -0.004425024 -0.003961509 -0.0039790217 -0.004099879 -0.0037613166
-0.0042195846 -0.004113899 -0.004361619 -0.004104106 -0.004220666 -0.0039758147 -0.0039928122 -0.003934253
-0.004136486 -0.0041645435 -0.0037766364 -0.00455105 -0.0044979127 -0.003978729 -0.004315627 -0.0041117263
-0.004132493 -0.004506402 -0.003850979 -0.003942842 -0.0038754977 -0.004097177 -0.0043121884 -0.003875379
-0.0039746524 -0.0040479293 -0.004575689 -0.0039196108 -0.004148277 -0.004220869 -0.0039112805 -0.0042281253
-0.0042420654 -0.004226272 -0.0039223507 -0.0042663803 -0.003959909 -0.00426823
00000000: e157 82bb 328f 8bbb 5ef1 79bb cbff 90bb
00000010: 8ccf 81bb 7462 82bb 4758 86bb 6c80 76bb
00000020: 7144 8abb e3cd 86bb e9eb 8ebb bd7b 86bb
00000030: 834d 8abb 8d47 82bb 23d6 82bb e8ea 80bb
00000040: 5c8b 87bb b976 88bb 7281 77bb f920 95bb
00000050: 3a63 93bb ff5f 82bb 1a6a 8dbb a9bb 86bb
00000060: dd69 87bb 71aa 93bb b560 7cbb f532 81bb
00000070: 10fc 7dbb 9d41 86bb 424d 8dbb 12fa 7dbb
00000080: cd3d 82bb 7ea4 84bb a9ef 95bb 1470 80bb
00000090: 45ee 87bb 374f 8abb 332a 80bb 168c 8abb
000000a0: 0601 8bbb 8a7c 8abb 1087 80bb fecc 8bbb
000000b0: 20c2 81bb 82dc 8bbb

model.feature_nns.1.model.0.weights f4 [1, 1000]
0.03688137 0.03858261 0.030582257 0.037687276 0.038512733 0.034915835 0.014829764 0.013099632
0.02914369 0.03599678 0.03720562 0.03557677 0.01812467 0.03175777 0.036654837 0.035617683
0.03443992 0.03812861 0.022505837 0.03324851 0.025138391 0.0135865165 0.029348614 0.02909741
0.037158556 0.021568792 0.03467737 0.02711517 0.027901582 0.020109816 0.036061645 0.03492998
0.031991757 0.016569834 0.038351245 0.03223681 0.02010837 0.037570093 0.013349007 0.03579319
0.03695626 0.036625255 0.038165815 0.025618635 0.015524948 0.037974253 0.03500154 0.03603963
0.035976715 0.02740493 0.036899753 0.035058852 0.035405856 0.027202295 0.024906028 0.03170583
0.020557964 0.03215299 0.033682056 0.025935354 0.03156872 0.0367657 0.02062903 0.03522299
0.037819292 0.036920223 0.025024435 0.03483469 0.03362786 0.030616827 0.03562983 0.034187544
0.026204562 0.03786408 0.029003587 0.03598771 0.036124185 0.03696625 0.03114308 0.028595973
0.036554236 0.038432557 0.02466537 0.031160414 0.038029805 0.034714468 0.036391694 0.031464353
0.036651146 0.034613997 0.023940492 0.038276393 0.018125502 0.03727765 0.025761237 0.038457822
0.03590222 0.038629707 0.038251776 0.03422494 0.038263526 0.025582174 0.0252495 0.020703616
0.026874023 0.03669363 0.036516596 0.018125925 0.022168677 0.03730698 0.03862021 0.036897924
0.03454119 0.030058946 0.034199033 0.03731652 0.021505225 0.02934945 0.033951372 0.013349639
0.033076484 0.034352496 0.035245825 0.028294604 0.03698484 0.016967675 0.012559565 0.03457799
0.03678304 0.033277266 0.037591577 0.036446925 0.037062313 0.031890698 0.03738731 0.02318237
0.027432995 0.028571678 0.036984965 0.038198955 0.027318116 0.036823273 0.027488839 0.03508388
0.03767974 0.034989454 0.032793812 0.033191375 0.03271563 0.015357001 0.03452771 0.03337549
0.038739484 0.023757072 0.038482413 0.03839888 0.019013215 0.031551324 0.03586969 0.036218602
0.029347787 0.02543708 0.02869283 0.029978244 0.035793692 0.032534834 0.03601976 0.031907596
0.034775723 0.03592478 0.021755772 0.029099235 0.01255878 0.029765448 0.023939718 0.009998346
0.038388763 0.029304992 0.033205174 0.026173772 0.033642136 0.017216116 0.031636756 0.031958412
0.03441559 0.033775724 0.037091143 0.033248246 0.028934762 0.038597096 0.03166941 0.03834404
0.023132537 0.027144713 0.021314593 0.02610586 0.03354467 0.03768596 0.023758011 0.035338324
0.037419464 0.03862173 0.03548488 0.029349662 0.020262372 0.03425051 0.03664291 0.033952586
0.036197964 0.038265534 0.0322665 0.025362534 0.03202597 0.030422041 0.036784507 0.03627042
0.033002578 0.036597963 0.006303626 0.02525125 0.033517838 0.034775488 0.03798028 0.033804383
0.026435591 0.031393535 0.025098883 0.028370922 0.030222254 0.036915883 0.038722254 0.034688633
0.02393956 0.017912446 0.02921252 0.022722198 0.025137728 0.019870887 0.034416303 0.034041874
0.032297138 0.033707015 0.03424976 0.035036117 0.033910558 0.031393982 0.032748077 0.01812793
0.024204083 0.026934199 0.03757969 0.03788779 0.024073256 0.0360251 0.032535736 0.034999922
00000000: eb10 173d cd08 1e3d a487 fa3c f95d 1a3d
00000010: 87bf 1d3d e803 0f3d 8af8 723c d79f 563c
00000020: bfbe ee3c 5c71 133d ec64 183d f2b8 113d
00000030: 307a 943c 6f14 023d 6223 163d d9e3 113d
00000040: e010 0d3d bf2c 1c3d 295e b83c 972f 083d
00000050: 07ef cd3c fb99 5e3c 816c f03c b15d ee3c
00000060: 9233 183d 09b1 b03c dc09 0e3d a220 de3c
00000070: dc91 e43c 57bd a43c 60b5 133d bd12 0f3d
00000080: ca09 033d 76bd 873c 3216 1d3d bf0a 043d
00000090: 4fba a43c 19e3 193d cbb5 5a3c e19b 123d
000000a0: 735f 173d 5d04 163d c253 1c3d 2cde d13c
000000b0: 5a5c 7e3c e48a 1b3d c65d 0f3d 4b9e 133d
000000c0: 525c 133d 4e80 e03c 3224 173d df99 0f3d
000000d0: bb05 113d 59d7 de3c ba07 cc3c f9dd 013d
000000e0: 2d69 a83c dbb2 033d 32f6 093d 6176 d43c
000000f0: 344e 013d a197 163d 36fe a83c fb45 103d
00000100: 67e8 1a3d a939 173d 0b00 cd3c d2ae 0e3d
00000110: 5ebd 093d 24d0 fa3c 96f0 113d 3d08 0c3d
00000120: f3aa d63c 5e17 1b3d ee98 ed3c d967 133d
00000130: f4f6 133d ec69 173d c61f ff3c 1a42 ea3c
00000140: e5b9 153d 756b 1d3d 080f ca3c 2044 ff3c
00000150: 24c5 1b3d c230 0e3d 750f 153d c4e0 003d
00000160: 831f 163d 68c7 0d3d da1e c43c b5c7 1c3d
00000170: ef7b 943c 73b0 183d 3b09 d33c f385 1d3d
00000180: 350e 133d 2f3a 1e3d e5ad 1c3d 732f 0c3d
00000190: 37ba 1c3d b591 d13c 0ad8 ce3c a19a a93c
000001a0: e926 dc3c 0f4c 163d 6d92 153d d27c 943c
000001b0: 169b b53c 34cf 183d 3a30 1e3d 4722 173d
000001c0: 107b 0d3d 2e3e f63c 4914 0c3d 35d9 183d
000001d0: ba2b b03c 426e f03c 9810 0b3d 72b8 5a3c
000001e0: 357b 073d 34b5 0c3d ed5d 103d 16ca e73c
000001f0: 6a7d 173d cbff 8a3c a2c6 4d3c a7a1 0d3d
00000200: d0a9 163d be4d 083d a0f9 193d 5f49 153d
00000210: a7ce 173d d29f 023d 7023 193d f4e8 bd3c
00000220: 29bb e03c 270f ea3c 8c7d 173d 8276 1c3d
00000230: 3eca df3c 00d4 163d 4630 e13c 1db4 0f3d
00000240: 1256 1a3d 1a51 0f3d ce52 063d aef3 073d
00000250: d300 063d ee9b 7b3c ee6c 0d3d bdb4 083d
00000260: 4bad 1e3d 319e c23c bc9f 1d3d 2548 1d3d
00000270: 9ac1 9b3c f63b 013d 19ec 123d f559 143d
00000280: c56a f03c 6c61 d03c 3a0d eb3c ef94 f53c
00000290: 689c 123d 3f43 053d 7589 133d 8ab1 023d
000002a0: fd70 0e3d dd25 133d 2939 b23c 8561 ee3c
000002b0: 57c3 4d3c abd6 f33c 3a1d c43c 1ad0 233c
000002c0: 893d 1d3d 0611 f03c 2602 083d 616a d63c
000002d0: 56cc 093d d008 8d3c 8b95 013d d3e6 023d
000002e0: 5df7 0c3d 6a58 0a3d e2ec 173d 502f 083d
000002f0: 9808 ed3c fd17 1e3d c9b7 013d a40e 1d3d
00000300: 7280 bd3c 975e de3c f19b ae3c f5db d53c
00000310: 2366 093d 985c 1a3d 29a0 c23c ebbe 103d
00000320: 2745 193d d231 1e3d 9858 113d b46e f03c
00000330: 46fd a53c 434a 0c3d e016 163d de11 0b3d
00000340: 5144 143d 52bc 1c3d e129 043d 17c5 cf3c
00000350: aa2d 033d a537 f93c 5aab 163d 4b90 143d
00000360: b62d 073d bfe7 153d a68e ce3b b6db ce3c
00000370: 004a 093d be70 0e3d 3691 1b3d 7776 0a3d
00000380: 748f d83c 8296 003d 2c9c cd3c 236a e83c
00000390: a994 f73c 1c35 173d 3a9b 1e3d ab15 0e3d
000003a0: e51c c43c 1fbd 923c 184f ef3c e723 ba3c
000003b0: a3ed cd3c 45c8 a23c 1cf8 0c3d 7e6f 0b3d
000003c0: 014a 043d 5e10 0a3d 7a49 0c3d 0882 0f3d
000003d0: cce5 0a3d fa96 003d d922 063d 0681 943c
000003e0: a447 c63c 1ca5 dc3c 29ed 193d 3a30 1b3d
000003f0: 4735 c53c 0e8f 133d 3144 053d 145c 0f3d

model.feature_nns.1.model.1.weight f4 [1, 1000]
-0.00047452826 -0.00021057103 -0.0003631764 -0.0002497677 -0.0002504428 -0.000116233015 -0.00028344264 -0.00029055023
-8.042994e-05 -0.00038359084 -0.0004312717 -0.00020163707 -0.0002443904 -0.0002513468 -0.0002858193 -0.00015490262
-0.00035489103 -0.00021736365 -0.000475523 -0.00025849495 -0.00014488018 -6.375628e-05 -0.0001982119 -0.00027046842
-0.000216133 -0.0001423054 -0.00026946608 -0.0003419887 -0.00037269376 -0.0003921529 -0.00028607884 -0.00039599658
-5.568848e-05 -0.0003307417 -0.00046706092 -0.00032397793 -0.00040121342 -0.00017688527 -0.0003437595 -0.00046857266
-0.00031308612 -0.00026940941 -0.00029482332 -0.00025997695 -0.0003499587 -0.00044715678 -0.00034535825 -0.00031026095
-0.00029201974 -0.0003488387 -0.0003996338 -0.0002236029 -0.0003173237 -0.00041926053 -0.0004272578 -0.00031794526
-0.0003723874 -0.00034432494 -0.0004570109 -0.00018936371 -0.000344874 -0.00035405357 -0.000120824974 -0.00044223107
-0.00027590626 -0.00048428783 -0.00038311514 -0.0005605427 -0.0002867051 -0.00027251258 -0.00020787952 -0.00043595326
-0.00036695204 -0.00044449954 -0.00028360894 -0.0002589125 -0.0003544431 -0.0001680296 -0.00011405485 -0.00011898366
-0.00036236094 -0.0002936171 -0.00041157063 -0.00047417908 -0.00035962893 -0.00033179024 -0.00037932073 -0.0001350861
-0.00029728448 -0.00024537687 -0.0003404254 -0.00030877383 -0.00030606423 -0.0003439936 -0.00022800895 -0.00025209077
-0.0003771685 -0.00022157523 -0.00037993665 -0.00029130856 -0.0003873483 -0.0004227831 -0.0003939251 -0.00021745767
-9.996944e-05 -0.00030760822 -0.00030859315 -0.0006525364 -0.0002913028 -0.0003308885 -0.0003243012 -0.0003519108
-0.00032002304 -0.0002614727 -0.00040564506 -0.00028399238 -0.0004807763 -0.0003220771 -0.00034258567 -0.00025246706
-0.0002055466 -0.00029505062 -0.00035409984 -0.0004116424 -0.00019530341 -0.00042334836 -0.00022532015 -0.00031974286
-0.000327577 -0.00026777745 -0.00025820496 -0.00037986605 -0.00026795006 -0.00034623808 -0.00028289785 -0.00037834828
-0.00029821237 -0.00025694855 -0.00038079446 -0.00015310921 -0.00022585932 -0.0005981637 -0.0003923913 -0.0002443506
-0.0004021962 -0.00018872699 -0.00031757928 -0.00020090787 -0.00035615245 -0.0004007005 -0.00019980028 -0.00031306397
-0.00013959235 -0.00038856364 -0.0003984694 -0.00014475737 -0.00043298875 -0.0002890322 -0.00039811805 -0.0002163664
-0.000377207 -0.0002533027 -0.00025178294 -0.0002804052 -0.00034697974 -0.00047837585 -0.0002178058 -0.00039163342
-0.00027501007 -0.00022760397 -0.00021100025 -0.00010239214 -0.00022203824 -0.0003781535 -0.0004125757 -0.00022325436
-0.00020044128 -0.00023029828 -0.00020829946 -0.00042236986 -0.00024670016 -0.00029031877 -0.00044379573 -0.00037649446
-0.00030752667 -0.00035381765 -4.3243497e-05 -0.00015090742 -0.00033033534 -0.00042618442 -0.0005254363 -0.0001943691
-0.00023415925 -0.0001744551 -0.00025652084 -0.00034654496 -0.00033871952 -0.00040039548 -0.00038452004 -0.00036810743
-0.00044608698 -0.00034343495 -0.0003541078 -0.00040265586 -0.00024350858 -0.00042085064 -0.000276256 -0.0003894959
-0.0001644883 -0.0005437238 -0.00028885555 -0.00033805828 -0.00034276486 -0.00052386674 -0.00040665077 -0.00033429769
-0.00053548306 -0.00027166182 -0.00022354348 -0.00037959532 -0.0004269661 -0.000119374825 -0.00032314524 -0.00013945893
-0.000218109 -0.00041766177 -0.0003199114 -0.00010922001 -0.000101229 -0.00022336828 -0.00030709247 -0.000380309
-0.00042557679 -0.00049887464 -0.00022251758 -0.00030697498 -0.0005747973 -0.00023040142 -0.00044636484 -0.00046262296
-0.00042561707 -0.00037028053 -0.0001559706 -0.0004113244 -0.00036153317 -0.00036449195 -0.0004102708 -0.00026650573
-8.5036816e-05 -0.0004079416 -0.0003671761 -0.00034650255 -0.0002837764 -0.0003477921 -0.00032997798 -0.00041755894
00000000: 1bca f8b9 bbcc 5cb9 b668 beb9 41f3 82b9
00000010: dd4d 83b9 20c2 f3b8 079b 94b9 fe54 98b9
00000020: 7fac a8b8 b11c c9b9 4f1c e2b9 8a6e 53b9
00000030: 8621 80b9 32c7 83b9 04da 95b9 5b6d 22b9
00000040: ab10 bab9 1cec 63b9 9e4f f9b9 9b86 87b9
00000050: faea 17b9 e4b4 85b8 1ad7 4fb9 a8cd 8db9
00000060: c3a1 62b9 d137 15b9 2047 8db9 f24c b3b9
00000070: 1c66 c3b9 df99 cdb9 dafc 95b9 c39d cfb9
00000080: 0d93 69b8 6667 adb9 dbdf f4b9 95db a9b9
00000090: f459 d2b9 477a 39b9 9e3a b4b9 c2aa f5b9
000000a0: b525 a4b9 853f 8db9 8492 9ab9 844d 88b9
000000b0: a97a b7b9 5e70 eab9 3311 b5b9 85aa a2b9
000000c0: 3a1a 99b9 56e4 b6b9 f185 d1b9 f276 6ab9
000000d0: 775e a6b9 32d0 dbb9 9201 e0b9 e4b1 a6b9
000000e0: fe3c c3b9 8386 b4b9 f79a efb9 ef8f 46b9
000000f0: 34d0 b4b9 44a0 b9b9 6a63 fdb8 40db e7b9
00000100: 83a7 90b9 03e8 fdb9 d8dc c8b9 62f1 12ba
00000110: e850 96b9 05e0 8eb9 3cfa 59b9 a890 e4b9
00000120: 7863 c0b9 b80b e9b9 59b1 94b9 a6be 87b9
00000130: 8cd4 b9b9 1a31 30b9 bb30 efb8 de86 f9b8
00000140: 43fb bdb9 9ff0 99b9 13c8 d7b9 3d9b f8b9
00000150: 948c bcb9 22f4 adb9 91df c6b9 e6a5 0db9
00000160: d9dc 9bb9 eda5 80b9 207b b2b9 ece2 a1b9
00000170: 3f77 a0b9 0a5a b4b9 b015 6fb9 0d2b 84b9
00000180: b3be c5b9 a656 68b9 3c32 c7b9 c6ba 98b9
00000190: 0215 cbb9 fda8 ddb9 bb87 ceb9 5905 64b9
000001a0: afa6 d1b8 7a46 a1b9 acca a1b9 fa0e 2bba
000001b0: 00ba 98b9 1a7b adb9 f806 aab9 ab80 b8b9
000001c0: c4c8 a7b9 4616 89b9 c2ac d4b9 d0e4 94b9
000001d0: b410 fcb9 75dc a8b9 129d b3b9 8e5d 84b9
000001e0: ff87 57b9 06b1 9ab9 7aa6 b9b9 b5d1 d7b9
000001f0: 5cca 4cb9 dbf4 ddb9 eb43 6cb9 29a3 a7b9
00000200: a4be abb9 7b64 8cb9 af5f 87b9 c228 c7b9
00000210: a67b 8cb9 4a87 b5b9 e851 94b9 0c5d c6b9
00000220: 6359 9cb9 0db7 86b9 5ea5 c7b9 f18b 20b9
00000230: a6d4 6cb9 16ce 1cba deb9 cdb9 2f1c 80b9
00000240: dcdd d2b9 04e5 45b9 c580 a6b9 ccaa 52b9
00000250: f9b9 bab9 1c15 d2b9 7b81 51b9 bc22 a4b9
00000260: 895f 12b9 21b8 cbb9 a8e9 d0b9 03ca 17b9
00000270: c402 e3b9 3f89 97b9 80ba d0b9 6ae0 62b9
00000280: dec3 c5b9 b6cd 84b9 bc01 84b9 5903 93b9
00000290: d5ea b5b9 85ce fab9 cd62 64b9 2654 cdb9
000002a0: 3a2f 90b9 faa8 6eb9 f33f 5db9 5dbb d6b8
000002b0: f0d2 68b9 e742 c6b9 f94e d8b9 6319 6ab9
000002c0: 8c2d 52b9 397c 71b9 f66a 5ab9 8671 ddb9
000002d0: 8957 81b9 ed35 98b9 41ad e8b9 3b64 c5b9
000002e0: 883b a1b9 9a80 b9b9 5a60 35b8 e73c 1eb9
000002f0: dc30 adb9 8171 dfb9 6fbd 09ba 8fcf 4bb9
00000300: a588 75b9 efed 36b9 a57d 86b9 7ab0 b5b9
00000310: 2a96 b1b9 2cec d1b9 6899 c9b9 8bfe c0b9
00000320: c8e0 e9b9 0f0f b4b9 8ba7 b9b9 8e1b d3b9
00000330: 5656 7fb9 9ea5 dcb9 74d6 90b9 4135 ccb9
00000340: 7e7a 2cb9 b088 0eba 8971 97b9 6a3d b1b9
00000350: 1fb5 b3b9 1a54 09ba be33 d5b9 ad44 afb9
00000360: a95f 0cba d56d 8eb9 ff66 6ab9 6c04 c7b9
00000370: 6bda dfb9 df58 fab8 d26b a9b9 b93b 12b9
00000380: 30b4 64b9 9df9 dab9 c8b9 a7b9 0c0d e5b8
00000390: e84a d4b8 f737 6ab9 4101 a1b9 3664 c7b9
000003a0: f31f dfb9 e9c6 02ba 9c53 69b9 7cf1 a0b9
000003b0: fead 16ba e997 71b9 1306 eab9 348c f2b9
000003c0: 5b25 dfb9 3622 c2b9 0a8c 23b9 07a7 d7b9
000003d0: 298c bdb9 4819 bfb9 9d19 d7b9 cbb9 8bb9
000003e0: cb55 b2b8 ffe0 d5b9 8b81 c0b9 c9aa b5b9
000003f0: d3c7 94b9 de57 b6b9 e500 adb9 d0eb dab9

model.feature_nns.2.model.0.weights f4 [1, 104]
0.036018252 0.02631287 0.037992083 0.0047241924 0.0339977 0.023707904 0.036407273 0.029092683
0.036806937 0.032960482 0.032859765 0.02385136 0.03106745 0.029564755 0.037156206 0.017801303
0.025061332 0.038511213 0.024456553 0.03689863 0.026910016 0.033383578 0.03621194 0.030036964
0.037942268 0.03692834 0.03663716 0.0371907 0.037697062 0.010001893 0.023795487 0.025286349
0.037680805 0.034310482 0.038541097 0.031662896 0.036887772 0.03261287 0.03254632 0.026141334
0.031937163 0.034819636 0.03177201 0.03450116 0.034771908 0.0361486 0.030095989 0.03436416
0.025402822 0.038780134 0.025823845 0.033636827 0.036065307 0.032580897 0.038496923 0.03442266
0.030419663 0.026242727 0.029282369 0.028161684 0.014038006 0.017912418 0.02886291 0.013099621
0.032403026 0.019194558 0.02702443 0.014035608 0.03633658 0.034151193 0.035662726 0.037057694
0.036967896 0.036425855 0.027145602 0.030185087 0.026434494 0.034004804 0.030215917 0.03803175
0.02403317 0.030855099 0.03848214 0.03784427 0.027169043 0.011625584 0.033607826 0.037699375
0.033914674 0.022985978 0.03199466 0.0332762 0.03746058 0.03791581 0.030790454 0.03706463
0.037557248 0.036466863 0.035124686 0.037827462 0.036945343 0.029941885 0.012838469 0.0379322
00000000: e087 133d 178e d73c 969d 1b3d 66cd 9a3b
00000010: 2c41 0b3d 1437 c23c cb1f 153d c753 ee3c
00000020: dfc2 163d 9201 073d f697 063d ed63 c33c
00000030: 2a81 fe3c c931 f23c 1b31 183d 0ad4 913c
00000040: 6c4d cd3c efbd 1d3d 1c59 c83c 0523 173d
00000050: 6572 dc3c 38bd 083d f952 143d 1410 f63c
00000060: 5a69 1b3d 2c42 173d d910 163d 4755 183d
00000070: 3c68 1a3d fbde 233c c1ee c23c 5125 cf3c
00000080: 3057 1a3d 2689 0c3d 45dd 1d3d f4b0 013d
00000090: a217 173d 1395 053d 4a4f 053d 5a26 d63c
000000a0: 8bd0 023d 099f 0e3d 5e23 023d 1751 0d3d
000000b0: fd6c 0e3d 8e10 143d dd8b f63c 6fc1 0c3d
000000c0: 9419 d03c ebd7 1e3d 878c d33c c5c6 093d
000000d0: 37b9 133d 8c73 053d f3ae 1d3d c6fe 0c3d
000000e0: a832 f93c fdfa d63c 94e1 ef3c 55b3 e63c
000000f0: aaff 653c 10bd 923c e971 ec3c cb9f 563c
00000100: 09b9 043d e83d 9d3c 5662 dd3c 9bf5 653c
00000110: aad5 143d 1fe2 0b3d 1413 123d cfc9 173d
00000120: a66b 173d 4733 153d 7460 de3c b746 f73c
00000130: 278d d83c 9f48 0b3d 5f87 f73c 2ec7 1b3d
00000140: 36e1 c43c d5c3 fc3c 739f 1d3d 9802 1b3d
00000150: 9d91 de3c 3c79 3e3c 5ca8 093d a96a 1a3d
00000160: 1dea 0a3d 174d bc3c d50c 033d a04c 083d
00000170: 4470 193d 9c4d 1b3d 433c fc3c 15d1 173d
00000180: a1d5 193d 475e 153d e7de 0f3d f8f0 1a3d
00000190: 0054 173d af48 f53c 7158 523c cb5e 1b3d

model.feature_nns.2.model.1.weight f4 [1, 104]
-0.002149019 -0.002180427 -0.0021784822 -0.001968344 -0.0021490597 -0.0023063258 -0.0022704804 -0.0022437184
-0.00234966 -0.0020665773 -0.0020838736 -0.0022582952 -0.002133121 -0.0021766706 -0.0020297628 -0.0018349276
-0.0022165924 -0.0020637813 -0.0022095207 -0.0022826046 -0.0021497023 -0.0022847848 -0.0022320917 -0.002164477
-0.002201588 -0.002241195 -0.002145205 -0.0022331562 -0.0023663538 -0.0021413171 -0.0021315992 -0.0021055446
-0.002090026 -0.0020387622 -0.002238497 -0.002288674 -0.0022247776 -0.0019762872 -0.0022317767 -0.0021649357
-0.0021681185 -0.002166806 -0.0020876036 -0.002189963 -0.0022374154 -0.0022341425 -0.002238551 -0.0023352047
-0.0022949835 -0.0020965394 -0.0022148574 -0.002237973 -0.0020859877 -0.0021927431 -0.0023177678 -0.0022438115
-0.0022964424 -0.0021572558 -0.0022006363 -0.0022450127 -0.0022896766 -0.002201543 -0.0022151375 -0.002106051
-0.0021851375 -0.0021310956 -0.0022893683 -0.0023305032 -0.0021552101 -0.002057999 -0.0021467179 -0.0022879923
-0.0022268326 -0.0021820585 -0.0022752373 -0.0021274074 -0.002378988 -0.0022079528 -0.0021672277 -0.0022205624
-0.0022804665 -0.002133937 -0.0023751187 -0.0021639375 -0.0021556779 -0.0020581898 -0.0022394645 -0.0020668795
-0.002216044 -0.0021004425 -0.0023277127 -0.002160973 -0.0021183942 -0.0022020498 -0.0022679493 -0.002228195
-0.0021256234 -0.0019906186 -0.002149932 -0.0022431759 -0.0021697269 -0.0023036457 -0.0021314542 -0.0022384364
00000000: 8ed6 0cbb 7fe5 0ebb dec4 0ebb 55ff 00bb
00000010: 3dd7 0cbb ba25 17bb 57cc 14bb 590b 13bb
00000020: c1fc 19bb 6a6f 07bb 9991 08bb e8ff 13bb
00000030: d5cb 0bbb 79a6 0ebb c505 05bb f481 f0ba
00000040: 4044 11bb 8140 07bb 9bcd 10bb c097 15bb
00000050: 05e2 0cbb 54bc 15bb 4948 12bb e6d9 0dbb
00000060: 8448 10bb 03e1 12bb 9196 0cbb 255a 12bb
00000070: d414 1bbb 5755 0cbb 4db2 0bbb 2dfd 09bb
00000080: d1f8 08bb c19c 05bb bfb3 12bb 94fd 15bb
00000090: 93cd 11bb 9984 01bb 0043 12bb 98e1 0dbb
000000a0: fe16 0ebb f900 0ebb 2dd0 08bb 7b85 0fbb
000000b0: 9aa1 12bb b16a 12bb a7b4 12bb 3c0a 19bb
000000c0: 6f67 16bb 1866 09bb 2427 11bb f5aa 12bb
000000d0: 11b5 08bb 20b4 0fbb b1e5 17bb e90c 13bb
000000e0: e97f 16bb bf60 0dbb 8d38 10bb 1021 13bb
000000f0: 660e 16bb c347 10bb d72b 11bb ac05 0abb
00000100: 8634 0fbb daa9 0bbb 3a09 16bb 5bbb 18bb
00000110: 6d3e 0dbb 7edf 06bb f3af 0cbb 24f2 15bb
00000120: 0df0 11bb de00 0fbb 261c 15bb f96b 0bbb
00000130: cce8 1bbb 4db3 10bb 0c08 0ebb db86 11bb
00000140: e173 15bb 86d9 0bbb e1a7 1bbb d9d0 0dbb
00000150: 4646 0dbb b2e2 06bb fbc3 12bb 7c74 07bb
00000160: 0d3b 11bb 94a7 09bb 8a8c 18bb 1c9f 0dbb
00000170: c2d4 0abb 4450 10bb e0a1 14bb e906 12bb
00000180: 0b4e 0bbb 0a75 02bb e0e5 0cbb 3f02 13bb
00000190: fa31 0ebb c3f8 16bb deaf 0bbb bbb2 12bb

model.feature_nns.3.model.0.weights f4 [1, 78]
0.038510833 0.03874333 0.034114145 0.036358282 0.038794544 0.03638013 0.037957676 0.033393845
0.035939343 0.03343421 0.03069801 0.036145207 0.025588961 0.028472627 0.020117335 0.030125847
0.037134677 0.02780023 0.037584063 0.03205985 0.032016754 0.018124836 0.030286254 0.02517633
0.037385974 0.019541686 0.025836634 0.035005234 0.035896383 0.037711576 0.037818275 0.037176274
0.036119953 0.009486194 0.029555785 0.032635424 0.036428336 0.03612795 0.038285807 0.03580396
0.035930995 0.035509598 0.014645645 0.03279852 0.034994338 0.036317773 0.017576411 0.034143504
0.032572478 0.018540233 0.02735016 0.03728457 0.02403657 0.017464481 0.03816057 0.034008358
0.037993893 0.020777337 0.022231657 0.031217275 0.03326482 0.038414832 0.026303828 0.031946193
0.036894288 0.03693867 0.020639233 0.03434736 0.037528045 0.037750944 0.027552092 0.035519987
0.022506535 0.036137216 0.036561303 0.028375607 0.028424263 0.019876327
00000000: 89bd 1d3d 53b1 1e3d 46bb 0b3d 6cec 143d
00000010: 07e7 1e3d 5503 153d 8279 1b3d fcc7 083d
00000020: 2235 133d 4ff2 083d 657a fb3c ff0c 143d
00000030: f19f d13c 6d3f e93c 1ccd a43c 7bca f63c
00000040: 881a 183d 4fbd e33c bff1 193d 3051 033d
00000050: 0024 033d 897a 943c e11a f83c 973e ce3c
00000060: 0922 193d e315 a03c 59a7 d33c a661 0f3d
00000070: 1608 133d 7477 1a3d 56e7 1a3d 2646 183d
00000080: 84f2 133d fb6b 1b3c f91e f23c b9ac 053d
00000090: e135 153d e7fa 133d 94d1 1c3d 2ca7 123d
000000a0: 612c 133d 8372 113d 4af4 6f3c be57 063d
000000b0: 3956 0f3d f2c1 143d 68fc 8f3c 0fda 0b3d
000000c0: b86a 053d b0e1 973c 710d e03c b5b7 183d
000000d0: 57e8 c43c ac11 8f3c 424e 1c3d 594c 0b3d
000000e0: 7c9f 1b3d 3c35 aa3c 2a1f b63c 5fbb ff3c
000000f0: b140 083d df58 1d3d 207b d73c 03da 023d
00000100: 771e 173d 014d 173d 9c13 a93c d1af 0c3d
00000110: 02b7 193d bca0 1a3d edb4 e13c 687d 113d
00000120: a05f b83c 9e04 143d 4ec1 153d f673 e83c
00000130: 00da e83c aed3 a23c

model.feature_nns.3.model.1.weight f4 [1, 78]
-0.0030694506 -0.0030998378 -0.0030639165 -0.0031810848 -0.003212124 -0.0030785967 -0.0030769864 -0.0031609319
-0.0031903367 -0.0029659895 -0.0029759796 -0.003392807 -0.0031039997 -0.003388686 -0.0027773886 -0.0029065127
-0.0031522086 -0.0033320393 -0.003357025 -0.003161477 -0.0028438314 -0.0029923527 -0.0028487782 -0.0028531372
-0.0028619848 -0.002917548 -0.0029020295 -0.0031103836 -0.0032106598 -0.0030609397 -0.0032482613 -0.0034604722
-0.0031378728 -0.0027886084 -0.0031046746 -0.002936347 -0.003039652 -0.0032834471 -0.0027718034 -0.0031025477
-0.0031295968 -0.003144732 -0.002966227 -0.0031049058 -0.0032838176 -0.0028019503 -0.0031557316 -0.00297035
-0.0028973466 -0.0031725233 -0.0030994385 -0.003075432 -0.0031865716 -0.0033321138 -0.0035321396 -0.003204637
-0.0029215366 -0.0029471149 -0.0031928625 -0.0031081226 -0.0030395298 -0.0034417086 -0.00329622 -0.0027793173
-0.003261124 -0.003021056 -0.003123303 -0.0031056176 -0.003162163 -0.0033370475 -0.0029620945 -0.0033198425
-0.0031852054 -0.0031542513 -0.0030650976 -0.0029450606 -0.0030105212 -0.0028180408
00000000: d628 49bb a626 4bbb fdcb 48bb bf79 50bb
00000010: 8082 52bb 48c2 49bb 44a7 49bb a327 4fbb
00000020: f814 51bb 0c61 42bb a708 43bb db59 5ebb
00000030: 796c 4bbb b814 5ebb d904 36bb 317b 3ebb
00000040: 4995 4ebb 585e 5abb 8901 5cbb c830 4fbb
00000050: 935f 3abb 591b 44bb 91b2 3abb b3fb 3abb
00000060: 2390 3bbb 5534 3fbb fa2f 3ebb 94d7 4bbb
00000070: ef69 52bb 0c9a 48bb c8e0 54bb 17c9 62bb
00000080: c5a4 4dbb 16c1 36bb cc77 4bbb ba6f 40bb
00000090: e634 47bb 1a2f 57bb 25a7 35bb 1d54 4bbb
000000a0: ec19 4dbb d917 4ebb 0865 42bb ad7b 4bbb
000000b0: 5135 57bb eda0 37bb 64d0 4ebb 34aa 42bb
000000c0: 69e1 3dbb 1cea 4fbb f31f 4bbb 308d 49bb
000000d0: cdd5 50bb 985f 5abb 787b 67bb e304 52bb
000000e0: 4077 3fbb 6224 41bb 583f 51bb a5b1 4bbb
000000f0: d932 47bb 4a8e 61bb 6505 58bb 3525 36bb
00000100: 95b8 55bb e9fc 45bb 54b0 4cbb 9e87 4bbb
00000110: 4b3c 4fbb 5eb2 5abb b31f 42bb b791 59bb
00000120: e1be 50bb 8eb7 4ebb cedf 48bb eb01 41bb
00000130: 2a4c 45bb e1ae 38bb

model.feature_nns.4.model.0.weights f4 [1, 182]
0.036879186 0.03693745 0.03445261 0.03483262 0.03859604 0.023568641 0.035035834 0.038045254
0.0264973 0.02603575 0.03286807 0.0383166 0.03165316 0.030281505 0.03783763 0.014242177
0.036946807 0.033347573 0.024026034 0.036742307 0.029346587 0.021312641 0.03879755 0.035082567
0.022280809 0.033418003 0.03722176 0.027171167 0.03065507 0.035684463 0.031738464 0.021504823
0.022108536 0.037165456 0.02678103 0.031635962 0.031956125 0.03285376 0.03489348 0.03587934
0.035890114 0.021933079 0.03672312 0.027403107 0.02420117 0.037855137 0.035472732 0.03813087
0.029413782 0.037165437 0.009478985 0.021567162 0.0357822 0.037525423 0.026717963 0.028085733
0.0354846 0.031567544 0.022665612 0.03771377 0.029868826 0.020842187 0.037959795 0.037534777
0.037202954 0.028692218 0.035573225 0.02754443 0.032297578 0.022718715 0.01518621 0.028495478
0.016835544 0.030361392 0.03875791 0.026464466 0.031721808 0.03295748 0.019950569 0.035727527
0.035716712 0.012265559 0.035716686 0.035371218 0.03663395 0.03250188 0.038358428 0.032055147
0.03259459 0.033089783 0.037633467 0.036946878 0.02327968 0.036985263 0.031549975 0.030938994
0.03190639 0.02930196 0.03802823 0.033722192 0.037651468 0.03207162 0.030712808 0.028908031
0.023080807 0.035336904 0.025361845 0.029847637 0.03365375 0.037202965 0.028884208 0.02893213
0.014242206 0.021246566 0.030769883 0.015994128 0.02603601 0.037959266 0.024456477 0.03650375
0.03456519 0.027403051 0.033910345 0.029784419 0.036186323 0.037259035 0.029279387 0.02636853
0.019871224 0.03611285 0.03879768 0.03106851 0.03190646 0.035639815 0.026137067 0.024201365
0.03270242 0.036413036 0.03430084 0.0267188 0.038498495 0.03664367 0.030281406 0.012557914
0.036207363 0.015186205 0.034477778 0.029911602 0.030712917 0.028344529 0.03247132 0.03837512
0.028369498 0.026335744 0.035279695 0.03847445 0.03747974 0.027765615 0.031940006 0.031738874
0.01801775 0.038507435 0.032717384 0.023231091 0.028836805 0.02932432 0.027981067 0.032297164
0.033233907 0.034928776 0.029502867 0.031031737 0.028716186 0.034107123 0.03783729 0.029720146
0.028243193 0.035770703 0.03806241 0.0353256 0.03812247 0.03410754
00000000: a10e 173d b94b 173d 2e1e 0d3d a6ac 0e3d
00000010: e216 1e3d 0613 c13c bc81 0f3d 57d5 1b3d
00000020: de10 d93c ed48 d53c aba0 063d def1 1c3d
00000030: bea6 013d eb10 f83c a1fb 1a3d 0558 693c
00000040: 8955 173d 7797 083d 3fd2 c43c 1a7f 163d
00000050: 4168 f03c d997 ae3c 2eea 1e3d bdb2 0f3d
00000060: 3e86 b63c 51e1 083d d875 183d 1196 de3c
00000070: 5720 fb3c df29 123d 3100 023d e22a b03c
00000080: f61c b53c ce3a 183d e463 db3c b694 013d
00000090: 6de4 023d aa91 063d 77ec 0e3d 37f6 123d
000000a0: 8301 133d 00ad b33c fb6a 163d 7b7c e03c
000000b0: 8841 c63c fd0d 1b3d db4b 113d 1d2f 1c3d
000000c0: 2cf5 f03c c93a 183d bf4d 1b3c 9ead b03c
000000d0: 5b90 123d 42b4 193d a1df da3c 0d14 e63c
000000e0: 4d58 113d f84c 013d 3cad b93c c179 1a3d
000000f0: 78af f43c 3cbd aa3c bb7b 1b3d 11be 193d
00000100: 2062 183d f10b eb3c 3bb5 113d dba4 e13c
00000110: 774a 043d 991c ba3c 95cf 783c 596f e93c
00000120: b2ea 893c 74b8 f83c 9dc0 1e3d 02cc d83c
00000130: baee 013d 6cfe 063d 606f a33c 0757 123d
00000140: b04b 123d 7cf5 483c a94b 123d 69e1 103d
00000150: 7b0d 163d b120 053d ba1d 1d3d 424c 033d
00000160: e881 053d 2789 073d 8d25 1a3d 9c55 173d
00000170: 07b5 be3c dc7d 173d 8c3a 013d c673 fd3c
00000180: 46b0 023d aa0a f03c 7dc3 1b3d 4820 0a3d
00000190: 6d38 1a3d 885d 033d 6d99 fb3c 89d0 ec3c
000001a0: f613 bd3c 6ebd 103d a5c3 cf3c 0883 f43c
000001b0: 84d8 093d 2362 183d 939e ec3c 1303 ed3c
000001c0: 2458 693c 470d ae3c 1f11 fc3c 1e06 833c
000001d0: 7849 d53c 2d7b 1b3d f358 c83c f584 153d
000001e0: 3b94 0d3d 5d7c e03c 93e5 0a3d 74fe f33c
000001f0: 1c38 143d ee9c 183d 53db ef3c d102 d83c
00000200: fac8 a23c 11eb 133d 51ea 1e3d 6383 fe3c
00000210: 59b0 023d 0efb 113d 671d d63c f141 c63c
00000220: f9f2 053d d625 153d 0a7f 0c3d 63e1 da3c
00000230: 99b0 1d3d ac17 163d b610 f83c b5bf 4d3c
00000240: 2c4e 143d 8fcf 783c 9238 0d3d 2d09 f53c
00000250: a899 fb3c c932 e83c a600 053d 3b2f 1d3d
00000260: 2667 e83c 0fbe d73c 7181 103d 6397 1d3d
00000270: 5b84 193d b774 e33c 86d3 023d 9f00 023d
00000280: f699 933c f9b9 1d3d aa02 063d 214f be3c
00000290: 2a3b ec3c 8e39 f03c 8d38 e53c 084a 043d
000002a0: 4720 083d 7a11 0f3d ffaf f13c 4536 fe3c
000002b0: 353e eb3c e9b3 0b3d 46fb 1a3d aa77 f33c
000002c0: 455e e73c 4d84 123d 54e7 1b3d 94b1 103d
000002d0: 4f26 1c3d 59b4 0b3d

model.feature_nns.4.model.1.weight f4 [1, 182]
-0.0015963537 -0.0014815076 -0.0014056625 -0.001365747 -0.0012937571 -0.0015918206 -0.001613546 -0.0018646062
-0.0011702575 -0.0014638158 -0.0012080361 -0.0015433884 -0.0014909279 -0.0013942227 -0.0013088521 -0.00159305
-0.0015662493 -0.0015563007 -0.001566261 -0.0014039149 -0.001093569 -0.0015565382 -0.001802922 -0.0015905596
-0.0016978579 -0.0018300412 -0.0015549578 -0.0016202301 -0.0014417128 -0.001316028 -0.0015944871 -0.0014876171
-0.0018877488 -0.001116892 -0.0015163169 -0.0015871122 -0.001605091 -0.0013975628 -0.0015418798 -0.0010514298
-0.0014306488 -0.0016322118 -0.0016592963 -0.0017082627 -0.001465309 -0.001930762 -0.0018832443 -0.0016761371
-0.0016867889 -0.0014451436 -0.0014015055 -0.0017289151 -0.0012988532 -0.001653186 -0.0017812733 -0.0016674638
-0.0014468491 -0.0015732786 -0.001634568 -0.0014986653 -0.0015677422 -0.0013929468 -0.0012653841 -0.0016043622
-0.0016531408 -0.0016276593 -0.0014484322 -0.0015514154 -0.0016382633 -0.0015590098 -0.0017989776 -0.0016737276
-0.0016577864 -0.0015696784 -0.0015692468 -0.0017011432 -0.0012206397 -0.0015071585 -0.0014698524 -0.001723429
-0.0014265181 -0.0015797953 -0.0013872222 -0.0016664155 -0.0012396335 -0.001981805 -0.0016026861 -0.0012646818
-0.0016261662 -0.0013185379 -0.0012971843 -0.0015327393 -0.0017262204 -0.0014332153 -0.0014672246 -0.0012621016
-0.0014710613 -0.0015503948 -0.0013181485 -0.0013105106 -0.0014018724 -0.0014143343 -0.0015047297 -0.0017624594
-0.0015991764 -0.0014994857 -0.0015246707 -0.0013010984 -0.0014791469 -0.001484175 -0.0017510871 -0.0014579991
-0.0016846893 -0.0017441718 -0.0015963041 -0.0013589336 -0.001471848 -0.0015766794 -0.0014233451 -0.0016852955
-0.00155671 -0.0018683113 -0.001541651 -0.001969791 -0.001643441 -0.0014695576 -0.001311203 -0.0012843811
-0.0013583008 -0.0016505335 -0.001785456 -0.0016928702 -0.0014808475 -0.0013569678 -0.0017663724 -0.0013186813
-0.0012355557 -0.0013802155 -0.0013290106 -0.0020729867 -0.0014637563 -0.0018820639 -0.0015201377 -0.0016396177
-0.0017968857 -0.0013491643 -0.0014013923 -0.0014610891 -0.0012788685 -0.0013315044 -0.001404141 -0.0015909497
-0.0018442642 -0.0014655819 -0.0014650647 -0.0016724269 -0.0014915568 -0.0016878957 -0.0013789628 -0.0014703283
-0.0016093254 -0.0016583832 -0.0017341144 -0.0016131905 -0.0016348918 -0.0014280216 -0.0017487612 -0.0016576457
-0.0017400706 -0.0017396444 -0.0014040082 -0.0017808627 -0.0015365286 -0.0016507248 -0.0017923485 -0.0016169767
-0.0016576576 -0.0012859395 -0.0014327306 -0.0016173196 -0.0014626775 -0.0019376206
00000000: be3c d1ba 252f c2ba 353e b8ba dd02 b3ba
00000010: 4993 a9ba a3a4 d0ba 9f7d d3ba cd65 f4ba
00000020: 5363 99ba 82dd bfba f756 9eba 854b caba
00000030: 3d6b c3ba 5abe b6ba ca8d abba e3cd d0ba
00000040: 9b4a cdba c9fc cbba 004b cdba 9103 b8ba
00000050: 1656 8fba c104 ccba 0650 ecba 537a d0ba
00000060: a88a deba fedd efba bacf cbba e75d d4ba
00000070: dbf7 bcba 927e acba 1cfe d0ba 26fc c2ba
00000080: 576e f7ba ad64 92ba 27bf c6ba a606 d0ba
00000090: eb61 d2ba 6d2e b7ba e718 caba 21d0 89ba
000000a0: 9c84 bbba f1ef d5ba bf7c d9ba c9e7 dfba
000000b0: 9c0f c0ba 9f11 fdba 31d7 f6ba d4b1 dbba
000000c0: 3e17 ddba f96a bdba b9b2 b7ba c49c e2ba
000000d0: 483e aaba b8af d8ba 9d79 e9ba cd8e daba
000000e0: 33a4 bdba 7836 ceba 003f d6ba dd6e c4ba
000000f0: b37c cdba 8a93 b6ba 3fdb a5ba 7649 d2ba
00000100: 33ae d8ba 2f57 d5ba 52d9 bdba dd58 cbba
00000110: ffba d6ba b057 ccba accb ebba fb60 dbba
00000120: 154a d9ba abbd cdba 2faf cdba e5f8 deba
00000130: dffd 9fba d98b c5ba 10a8 c0ba aee4 e1ba
00000140: 01fa baba 2211 cfba 74d3 b5ba a06b daba
00000150: 337b a2ba 2ce1 01bb 3911 d2ba aec3 a5ba
00000160: 1525 d5ba cad2 acba 4806 aaba 32e6 c8ba
00000170: 5842 e2ba bada bbba e34f c0ba 1a6d a5ba
00000180: a0d0 c0ba 9e36 cbba b9c5 acba 70c5 abba
00000190: 08bf b7ba 2f61 b9ba 5a3a c5ba 5302 e7ba
000001a0: 759b d1ba 648a c4ba 76d7 c7ba 9e89 aaba
000001b0: efdf c1ba a688 c2ba bc84 e5ba 551a bfba
000001c0: cbd0 dcba b29c e4ba 143b d1ba 3f1e b2ba
000001d0: 06eb c0ba 95a8 ceba 898f baba 22e5 dcba
000001e0: 850a ccba 20e2 f4ba 3911 caba 9c17 01bb
000001f0: bb68 d7ba 2c9e c0ba acdc abba ae58 a8ba
00000200: 0309 b2ba b756 d8ba f605 eaba 4ce3 ddba
00000210: ff18 c2ba 49dc b1ba 9f85 e7ba 9ad7 acba
00000220: 5ff2 a1ba 59e8 b4ba 3232 aeba f2da 07bb
00000230: 83db bfba 96af f6ba 5b3f c7ba 71e8 d6ba
00000240: 7b85 ebba 71d6 b0ba ecae b7ba 0482 bfba
00000250: b59f a7ba e085 aeba 270b b8ba 6a87 d0ba
00000260: 3dbb f1ba c518 c0ba 6a07 c0ba 5635 dbba
00000270: 5780 c3ba 623c ddba 50be b4ba 08b8 c0ba
00000280: 00f0 d2ba 1b5e d9ba 394b e3ba b171 d3ba
00000290: de49 d6ba 742c bbba b036 e5ba 5c45 d9ba
000002a0: 1513 e4ba c804 e4ba b306 b8ba d66b e9ba
000002b0: 5865 c9ba 225d d8ba 3ced eaba bcf0 d3ba
000002c0: c245 d9ba f88c a8ba 76ca bbba 3efc d3ba
000002d0: 50b7 bfba c2f7 fdba

model.feature_nns.5.model.0.weights f4 [1, 1000]
0.02554378 0.03712718 0.026654342 0.029845934 0.01500872 0.027571479 0.036681317 0.03242281
0.03711816 0.037387203 0.014826119 0.033317506 0.025471043 0.02674785 0.03616488 0.03187158
0.032119118 0.023615178 0.03338832 0.03853121 0.038489737 0.026432374 0.033058967 0.023799436
0.031139737 0.027845658 0.03221612 0.035105057 0.03805234 0.032279875 0.029457556 0.036359683
0.02547086 0.030937662 0.037239775 0.01891795 0.033747986 0.038121473 0.0355154 0.035661172
0.03389531 0.03257747 0.034326244 0.033500947 0.03055815 0.033789832 0.03708084 0.028189132
0.0354038 0.037818205 0.026135445 0.03240686 0.036340494 0.03499871 0.031687908 0.03843072
0.022446752 0.032361176 0.03736148 0.01833163 0.037641075 0.016963145 0.03177051 0.03195498
0.03067326 0.027430493 0.037088115 0.033894274 0.032280754 0.03268654 0.03526749 0.036877777
0.029000815 0.03492709 0.03036082 0.020259628 0.027571758 0.028931595 0.027082508 0.016833533
0.02911813 0.02751574 0.03213559 0.037191637 0.037135743 0.030991651 0.0322326 0.031549368
0.037576754 0.023661409 0.032167614 0.027952803 0.024329009 0.03662291 0.024661932 0.01195353
0.033733424 0.037450273 0.016142124 0.034196924 0.027258068 0.03769518 0.038272657 0.033360742
0.023328494 0.017453829 0.03795041 0.027286923 0.037079208 0.035312705 0.038240675 0.021046696
0.031426422 0.032263543 0.03053929 0.032137346 0.028266512 0.027570818 0.034563404 0.034998853
0.020700406 0.021311678 0.032984734 0.025792602 0.038399097 0.03748663 0.03197168 0.026067074
0.014241156 0.026463477 0.03600459 0.019787326 0.037596136 0.027514724 0.033637654 0.029209722
0.026686229 0.03852214 0.038155276 0.034119353 0.015992796 0.028931482 0.018017035 0.026840255
0.026623085 0.029826056 0.036759194 0.011621578 0.037505828 0.029300477 0.033014975 0.03488219
0.028266925 0.030220376 0.03613411 0.018433107 0.038529586 0.026269468 0.037975963 0.031085731
0.031067265 0.030339606 0.019454217 0.03550367 0.029825507 0.032168888 0.036612496 0.03764865
0.037004247 0.033030976 0.028085446 0.03746257 0.03711701 0.029718451 0.03573716 0.035140727
0.03251665 0.037002653 0.0316016 0.03340227 0.02356684 0.019190643 0.03331894 0.02091014
0.03384189 0.038095243 0.025397267 0.03595315 0.031702742 0.013584666 0.036573034 0.036102667
0.020105807 0.03871606 0.033416387 0.016963385 0.03830826 0.035639323 0.021046264 0.0303202
0.03604006 0.030994136 0.030788366 0.03654262 0.012264427 0.025019052 0.030653551 0.034450606
0.034260627 0.02432844 0.038637158 0.035472453 0.02980442 0.035716318 0.03593311 0.035198875
0.020335073 0.03700384 0.032104075 0.030975154 0.027486997 0.018432852 0.034892924 0.03630937
0.02342505 0.03587811 0.026901837 0.025360363 0.027315624 0.037048988 0.036653604 0.036288716
0.03791545 0.037359342 0.029994516 0.037023906 0.038018152 0.019706732 0.038147148 0.036847126
0.03432453 0.025931617 0.033680025 0.021246154 0.03626759 0.0383482 0.036662783 0.03110384
0.021751896 0.019279879 0.032406434 0.038181107 0.03243807 0.03510459 0.037219662 0.031194117
00000000: 3041 d13c ab12 183d 355a da3c 767f f43c
00000010: 22e7 753c 95dd e13c 263f 163d c8cd 043d
00000020: 3609 183d 5323 193d 40e9 723c f077 083d
00000030: a6a8 d03c 4f1e db3c a021 143d c68b 023d
00000040: 568f 033d 9e74 c13c 31c2 083d e7d2 1d3d
00000050: 6aa7 1d3d b588 d83c d768 073d 09f7 c23c
00000060: c318 ff3c 941c e43c 0df5 033d 52ca 0f3d
00000070: c5dc 1b3d e737 043d f950 f13c e4ed 143d
00000080: 44a8 d03c fb70 fd3c bc88 183d d1f9 9a3c
00000090: 543b 0a3d 4325 1c3d 9978 113d 7311 123d
000000a0: cfd5 0a3d f46f 053d ad99 0c3d 4a38 093d
000000b0: 1655 fa3c 3567 0a3d 14e2 173d e5ec e63c
000000c0: 9303 113d 43e7 1a3d 001a d63c 0ebd 043d
000000d0: c5d9 143d cf5a 0f3d 2ecb 013d 8869 1d3d
000000e0: 40e2 b73c 278d 043d 5a08 193d 372c 963c
000000f0: 872d 1a3d 4bf6 8a3c cb21 023d 3ae3 023d
00000100: 7d46 fb3c eab5 e03c b5e9 173d b9d4 0a3d
00000110: d338 043d 52e2 053d a574 103d 270d 173d
00000120: 1e93 ed3c b50f 0f3d 41b7 f83c 85f7 a53c
00000130: 2bde e13c f401 ed3c 23dc dd3c 7ae6 893c
00000140: 2589 ee3c b068 e13c 9ca0 033d 4256 183d
00000150: a61b 183d 34e2 fd3c 5506 043d e939 013d
00000160: 15ea 193d 92d5 c13c 30c2 033d 47fd e43c
00000170: a14d c73c e801 163d d207 ca3c bdd8 433c
00000180: 0f2c 0a3d 7565 193d 7d3c 843c 1312 0c3d
00000190: 504c df3c 4366 1a3d cac3 1c3d 46a5 083d
000001a0: 661b bf3c 55fb 8e3c e471 1b3d d388 df3c
000001b0: 5ee0 173d 0ea4 103d 41a2 1c3d 1f6a ac3c
000001c0: feb8 003d c726 043d 882d fa3c 73a2 033d
000001d0: 2c8f e73c 32dc e13c 5b92 0d3d f55a 0f3d
000001e0: e693 a93c d495 ae3c 001b 073d 024b d33c
000001f0: 5f48 1d3d 958b 193d bcf4 023d 9e8a d53c
00000200: bd53 693c efc9 d83c 8d79 133d 0819 a23c
00000210: 68fe 193d 8f66 e13c a3c7 093d 3a49 ef3c
00000220: 149d da3c 64c9 1d3d b548 1c3d bcc0 0b3d
00000230: 5303 833c b701 ed3c 7698 933c 18e0 db3c
00000240: a818 da3c c655 f43c cf90 163d 6e68 3e3c
00000250: b69f 193d 8e07 f03c b63a 073d a1e0 0e3d
00000260: 0a90 e73c b990 f73c 5c01 143d 0701 973c
00000270: 33d1 1d3d 1133 d73c af8c 1b3d 81a7 fe3c
00000280: c780 fe3c c48a f83c 735e 9f3c 4c6c 113d
00000290: 9f54 f43c 86c3 033d fcf6 153d 7935 1a3d
000002a0: c491 173d 7d4b 073d 7313 e63c 5a72 193d
000002b0: 0208 183d 1c74 f33c 2161 123d b9ef 0f3d
000002c0: 2e30 053d 1890 173d ae70 013d d2d0 083d
000002d0: 3f0f c13c b235 9d3c 7179 083d be4b ab3c
000002e0: cb9d 0a3d c209 1c3d ee0d d03c 9c43 133d
000002f0: bcda 013d 3892 5e3c 9bcd 153d 64e0 133d
00000300: efb4 a43c bb94 1e3d 9fdf 083d ccf6 8a3c
00000310: 1fe9 1c3d 8afa 113d 3769 ac3c 1162 f83c
00000320: be9e 133d 6ae7 fd3c e237 fc3c b7ad 153d
00000330: bcf0 483c c1f4 cc3c 281d fb3c 141c 0d3d
00000340: df54 0c3d 704c c73c ff41 1e3d 904b 113d
00000350: 6628 f43c 464b 123d 992e 133d b22c 103d
00000360: bd95 a63c 5791 173d 907f 033d 9bbf fd3c
00000370: 692c e13c 7e00 973c e2eb 0e3d 22b9 143d
00000380: e4e5 bf3c edf4 123d 3e61 dc3c 89c0 cf3c
00000390: 04c5 df3c aec0 173d 1722 163d 7aa3 143d
000003a0: 3b4d 1b3d 1c06 193d 0fb7 f53c 61a6 173d
000003b0: ecb8 1b3d 0370 a13c 2f40 1c3d 03ed 163d
000003c0: e197 0c3d 8b6e d43c 11f4 093d 6a0c ae3c
000003d0: 538d 143d 0113 1d3d b72b 163d 7bcd fe3c
000003e0: 0831 b23c d6f0 9d3c 9cbc 043d cb63 1c3d
000003f0: c8dd 043d d5c9 0f3d a573 183d ce8a ff3c

model.feature_nns.5.model.1.weight f4 [1, 1000]
-0.00046097004 -0.00043054597 -0.00037714996 -0.00040861574 -0.0004109258 -0.00035774297 -0.00052762975 -0.00041905255
-0.00047061668 -0.00050577335 -0.00048565885 -0.0005414181 -0.00041902208 -0.00044703565 -0.00033421046 -0.0004584506
-0.00039947894 -0.00040766125 -0.00039707066 -0.00037776126 -0.00043865686 -0.00042027884 -0.00045161071 -0.00045851953
-0.00045204532 -0.00047209923 -0.0004579856 -0.00050149 -0.0005009821 -0.00045121714 -0.00048241206 -0.00044415033
-0.00052117585 -0.00041996574 -0.00051122817 -0.00044275806 -0.0005039512 -0.0005015078 -0.0005102624 -0.00043821527
-0.00051308743 -0.00046942665 -0.00049340754 -0.00035644125 -0.0004241588 -0.00050194585 -0.00040005642 -0.00040872124
-0.00038590087 -0.0003532379 -0.0004572244 -0.0004954367 -0.0005043743 -0.00045056187 -0.000442852 -0.00046187054
-0.00048489042 -0.00043673834 -0.00028686487 -0.00044310527 -0.00053062197 -0.0003246807 -0.00043812266 -0.00051635364
-0.0003460953 -0.00043388415 -0.00041893867 -0.0004982711 -0.0005260812 -0.0003932027 -0.00037304743 -0.0005184615
-0.0004955416 -0.000497798 -0.00049422646 -0.0004348032 -0.00044958363 -0.00039655218 -0.0005792396 -0.00047975325
-0.00042193374 -0.000530448 -0.00054513046 -0.00046141082 -0.00045448088 -0.0005045797 -0.00043348264 -0.0003786596
-0.00038755022 -0.00045510795 -0.00048147663 -0.00046904635 -0.000406136 -0.00047989268 -0.0004580587 -0.0004777246
-0.0004244662 -0.0004833365 -0.00048462127 -0.0005415377 -0.00040294742 -0.0005163906 -0.00049751846 -0.0005174792
-0.00043914033 -0.00035813238 -0.0004381278 -0.000501537 -0.00052246393 -0.00046501454 -0.00039501197 -0.000423955
-0.0003895734 -0.00044407 -0.0003999588 -0.00050080835 -0.0003584622 -0.00043807583 -0.00042801094 -0.00034807017
-0.00050622463 -0.0004963418 -0.00040390002 -0.00052056584 -0.00049002684 -0.00053132564 -0.0005685167 -0.0005259376
-0.00040349746 -0.0003628143 -0.0004964525 -0.0004345975 -0.00049609866 -0.0003650731 -0.00047687252 -0.00056317553
-0.00039435024 -0.000441072 -0.00046051166 -0.0004755287 -0.000369512 -0.00038795202 -0.00041251516 -0.00043694727
-0.00037438227 -0.0004242847 -0.00057202246 -0.0003758665 -0.00052962237 -0.0004016869 -0.0004071055 -0.00047323186
-0.00038172133 -0.00041682538 -0.00032960108 -0.0003586828 -0.00040246264 -0.0003776187 -0.00040287577 -0.00049552874
-0.00048548152 -0.00041115514 -0.00046940552 -0.0004317047 -0.00044769814 -0.00041372408 -0.0004048036 -0.00042025745
-0.0004573643 -0.00045656832 -0.0004979458 -0.000500289 -0.0005039718 -0.00041041354 -0.00046857577 -0.00047703233
-0.00045118082 -0.0005213498 -0.0004289623 -0.00050044694 -0.00045351835 -0.00032965798 -0.00046594322 -0.00042992327
-0.0005128822 -0.00044252994 -0.00049553165 -0.00042619745 -0.00045542463 -0.00033090665 -0.000603756 -0.0003859424
-0.0003912491 -0.00039675448 -0.0004107865 -0.0003314761 -0.00035891496 -0.00037327423 -0.00043690926 -0.0005168569
-0.00042452544 -0.00048365907 -0.00044331784 -0.0005718408 -0.0003780501 -0.00041955008 -0.00040403003 -0.000510657
-0.00042001394 -0.00050352176 -0.00045316244 -0.00037316832 -0.0005067738 -0.00041257852 -0.00044934772 -0.000481471
-0.00048177794 -0.0004351628 -0.0004122056 -0.00048478297 -0.00039014063 -0.00039182507 -0.00048027534 -0.00038236228
-0.00044309063 -0.000397492 -0.00041147126 -0.00052424805 -0.00048703962 -0.0003554555 -0.0003777469 -0.00040044542
-0.0004086116 -0.00052406115 -0.00039542254 -0.00049783086 -0.00046470753 -0.0004495975 -0.00043888454 -0.00036486023
-0.0004819899 -0.0005195321 -0.00047541165 -0.0004149144 -0.00043796303 -0.00044751342 -0.00038072176 -0.00043132628
-0.00050888123 -0.00049601705 -0.00045463484 -0.00048338587 -0.000446097 -0.0004222358 -0.00036234272 -0.00051865145
00000000: 5aae f1b9 e7ba e1b9 36bc c5b9 7a3b d6b9
00000010: 8771 d7b9 738f bbb9 a250 0aba 48b4 dbb9
00000020: 1abd f6b9 e095 04ba 07a0 feb9 f4ed 0dba
00000030: 31b0 dbb9 1c60 eab9 f838 afb9 335c f0b9
00000040: 2871 d1b9 5ebb d5b9 ec2d d0b9 420e c6b9
00000050: 87fb e5b9 df58 dcb9 2ac6 ecb9 7365 f0b9
00000060: 7f00 edb9 1684 f7b9 c91d f0b9 6d76 03ba
00000070: 5754 03ba 5791 ecb9 40ec fcb9 d9dc e8b9
00000080: 859f 08ba d92e dcb9 f103 06ba fb21 e8b9
00000090: 981b 04ba 9e77 03ba 21c3 05ba 42c0 e5b9
000000a0: b780 06ba 611d f6b9 0558 01ba bce0 bab9
000000b0: a161 deb9 0495 03ba aabe d1b9 a349 d6b9
000000c0: bd52 cab9 ca32 b9b9 9fb7 efb9 32e0 01ba
000000d0: fc37 04ba 6439 ecb9 972e e8b9 3727 f2b9
000000e0: e438 feb9 07fa e4b9 5a66 96b9 9550 e8b9
000000f0: 7019 0bba e839 aab9 d4b3 e5b9 e85b 07ba
00000100: 2074 b5b9 f27a e3b9 ffa4 dbb9 689e 02ba
00000110: b6e8 09ba c626 ceb9 9495 c3b9 5de9 07ba
00000120: 3ce7 01ba a97e 02ba fa8e 01ba 4cf6 e3b9
00000130: 18b6 ebb9 55e8 cfb9 1dd8 17ba 6487 fbb9
00000140: fd36 ddb9 c30d 0bba 16e7 0eba 83e9 f1b9
00000150: 6447 eeb9 c545 04ba 0e45 e3b9 d586 c6b9
00000160: 1c30 cbb9 8e9b eeb9 b36e fcb9 56ea f5b9
00000170: a7ee d4b9 1b9a fbb9 9927 f0b9 1c77 fab9
00000180: e48a deb9 5468 fdb9 c414 feb9 fbf5 0dba
00000190: b042 d3b9 635e 07ba e66b 02ba 71a7 07ba
000001a0: 6b3c e6b9 b7c3 bbb9 85b4 e5b9 9479 03ba
000001b0: f6f5 08ba 32cd f3b9 9c19 cfb9 4746 deb9
000001c0: a83f ccb9 11d2 e8b9 90b1 d1b9 ae48 03ba
000001d0: fbef bbb9 8bad e5b9 a866 e0b9 307d b6b9
000001e0: 29b4 04ba ef1c 02ba 8bc2 d3b9 9576 08ba
000001f0: 2575 00ba a948 0bba 8308 15ba 13df 09ba
00000200: 838c d3b9 1c38 beb9 5d24 02ba b0da e3b9
00000210: 9e0c 02ba 4867 bfb9 bf04 fab9 12a2 13ba
00000220: cbc0 ceb9 af3f e7b9 d470 f1b9 6250 f9b9
00000230: 10bb c1b9 0a66 cbb9 d946 d8b9 1216 e5b9
00000240: bd48 c4b9 8772 deb9 c7f3 15ba f30f c5b9
00000250: 5bd6 0aba 8199 d2b9 c670 d5b9 1b1c f8b9
00000260: c521 c8b9 5b89 dab9 4fce acb9 970d bcb9
00000270: 9f01 d3b9 20fb c5b9 1239 d3b9 5fe6 01ba
00000280: 3a88 feb9 4f90 d7b9 8b1a f6b9 6d56 e2b9
00000290: 07b9 eab9 1be9 d8b9 d23b d4b9 0056 dcb9
000002a0: 66ca efb9 905f efb9 9488 02ba d425 03ba
000002b0: fa1c 04ba c62c d7b9 2dab f5b9 321a fab9
000002c0: 778c ecb9 31ab 08ba 58e6 e0b9 6d30 03ba
000002d0: 34c6 edb9 f2d5 acb9 d749 f4b9 5367 e1b9
000002e0: f172 06ba 5d03 e8b9 91e6 01ba 4173 dfb9
000002f0: 0fc6 eeb9 8a7d adb9 6145 1eba 5058 cab9
00000300: 9120 cdb9 7c03 d0b9 d55e d7b9 f8c9 adb9
00000310: c02c bcb9 05b4 c3b9 f810 e5b9 ae7d 07ba
00000320: d792 deb9 9f93 fdb9 1d6d e8b9 96e7 15ba
00000330: 0735 c6b9 0ff7 dbb9 fed3 d3b9 9cdd 05ba
00000340: 5135 dcb9 c6fe 03ba 6f96 edb9 cea5 c3b9
00000350: 04d9 04ba 5a4f d8b9 6e96 ebb9 f26d fcb9
00000360: 2497 fcb9 9026 e4b9 4d1d d8b9 782a feb9
00000370: ca8b ccb9 df6d cdb9 77cd fbb9 cc77 c8b9
00000380: 9e4e e8b9 7966 d0b9 bdba d7b9 b16d 09ba
00000390: 5a59 ffb9 6e5c bab9 550c c6b9 e0f2 d1b9
000003a0: ec3a d6b9 2661 09ba b750 cfb9 dd80 02ba
000003b0: fda3 f3b9 f4b7 ebb9 161a e6b9 b64a bfb9
000003c0: 97b3 fcb9 3631 08ba ac40 f9b9 de88 d9b9
000003d0: 679e e5b9 3ca0 eab9 9c9b c7b9 a223 e2b9
000003e0: 7166 05ba 2407 02ba 0e5c eeb9 f46e fdb9
000003f0: 20e2 e9b9 885f ddb9 d1f8 bdb9 1cf6 07ba
