GolfFeedback-poc/src/s3_NAM_model/output/BS/0/checkpoints/epoch=09-val_loss=1270.3485-v1.ckpt (torch, 48078 bytes, 24 tensors)

model.feature_nns.0.model.0.weights f4 [1, 244]
00000000: eb3d c83f 13af db3f 5beb d83f f60d d93f
00000010: 68dc db3f 401c ce3f 1062 da3f 6dbd db3f
00000020: 32c8 d53f 4cad ac3f 20ef a73f 2388 cb3f
00000030: 3295 d73f 809b d93f 68d9 d63f e0ba b43f
00000040: 723c d03f 57b3 d83f e0f4 d63f e4ef d43f
00000050: 531e db3f 1c71 be3f 6bde d23f 49d6 c33f
00000060: 6751 a93f c7de cb3f dd6f cb3f d683 d93f
00000070: 2379 bc3f 105c d53f fdba c73f c338 c93f
00000080: 0e3f b93f 1db3 d73f 11c6 d53f 58a5 d03f
00000090: 74fd b03f da83 db3f bd13 d13f ec53 b93f
000000a0: 5638 da3f 15a1 a83f 8a3a d73f 8535 d93f
000000b0: 96a6 d83f 412e db3f c0c2 c43f 2263 ae3f
000000c0: eedf da3f 9cdf d53f 12a6 d73f 5788 d73f
000000d0: 3237 c83f e819 d93f 5dfb d53f e593 d63f
000000e0: 80dd c73f 9e62 c33f b228 d03f 353d ba3f
000000f0: 85f5 d03f 4b9d d33f 8d5f c53f eeef cf3f
00000100: 1ce9 d83f 5578 ba3f 2841 d63f c89a da3f
00000110: fa1b d93f 01a4 c33f 8aa9 d53f 8584 d33f
00000120: 8a2f ce3f f204 d73f a685 d43f f5eb c53f
00000130: bdb5 da3f d247 cb3f f28b d73f 76c7 d73f
00000140: 5036 d93f e52d cf3f 617d ca3f ba84 d83f
00000150: a9a6 db3f a3da c23f 092a cf3f 7af8 da3f
00000160: ab65 d53f 4c39 d83f 6ab4 cf3f 83ad d83f
00000170: 653d d53f 4168 c13f 9358 db3f 99d1 b43f
00000180: 35be d93f 7f1a c53f c4a4 db3f 0379 d73f
00000190: 88f2 db3f d14e db3f e792 d43f 4660 db3f
000001a0: 82af c43f de15 c43f f48f ba3f db31 c73f
000001b0: 59cb d83f 4072 d83f f4b8 b43f 50c5 bd3f
000001c0: 77c9 d93f bbeb db3f 9420 d93f 6618 d53f
000001d0: bf38 cd3f 8887 d43f 59ce d93f e24b bc3f
000001e0: bee0 cb3f 8612 d43f 459f a83f 7794 d23f
000001f0: b0d3 d43f 6156 d63f 0ae7 c93f b83c d93f
00000200: 68f6 b13f 1f71 a63f 4829 d53f b3e3 d83f
00000210: 64f3 d23f f942 da3f 4c55 d83f 3e60 d93f
00000220: 7d84 d03f d7e3 d93f 46d7 bf3f 004c c83f
00000230: c26c ca3f 5437 d93f 7b3d db3f 2a14 c83f
00000240: c6fc d83f 2160 c83f 7807 d63f c264 da3f
00000250: 43e8 d53f e30f d23f a4cc d23f ceff d13f
00000260: 32fe ad3f 1a1a d53f 151e d33f ef1d dc3f
00000270: d60d c13f 27b6 db3f e291 db3f 6dc8 b63f
00000280: 8ded cf3f 1e65 d73f 1eef d73f b9e1 cb3f
00000290: 5a64 c43f 6ba9 ca3f 1f0c cd3f 713c d73f
000002a0: d8af d13f 6aa6 d73f a283 d03f a18f d53f
000002b0: 3573 d73f a7d9 bc3f 4067 cb3f 7476 a63f
000002c0: 63a0 cc3f 5663 c13f 74a6 9e3f a892 db3f
000002d0: bccd cb3f b0c9 d23f fce5 c53f ea98 d33f
000002e0: a5a8 b23f aa0b d03f fa9a d03f 4fe0 d43f
000002f0: 47ce d33f 2275 d93f 6fde d23f a716 cb3f
00000300: 41e0 db3f 941e d03f 1d75 db3f 17cc bf3f
00000310: c9c1 c73f ceef bb3f b2b6 c53f 2b62 d33f
00000320: d060 da3f 990a c13f 0a80 d63f 73fa d93f
00000330: d6f2 db3f f5b1 d63f fdeb cb3f f9a2 b93f
00000340: 09a7 d43f 1fa6 d83f de23 d43f f0ea d73f
00000350: f65a db3f f722 d13f b347 c43f 9cbe d03f
00000360: 4cd9 cd3f 93e1 d83f 8708 d83f bb74 d23f
00000370: 7695 d83f 211e 913f 4d08 c43f b562 d33f
00000380: 8c84 d53f 02dc da3f aad4 d33f 8b59 c63f
00000390: aba1 cf3f 05b8 c33f 3c1c ca3f 0582 cd3f
000003a0: 9c22 d93f 0d1b dc3f a357 d53f b76e c13f
000003b0: 5b37 b43f 99ad cb3f 81df be3f 21db c33f
000003c0: 7ed1 b83f cfec d43f f13b d43f 0044 d13f
1.5643896 1.7162803 1.6946825 1.6957386 1.7176638 1.6102371 1.7061176 1.7167183
1.670172 1.3490386 1.311985 1.5900921 1.6842406 1.700058 1.6785097 1.411953
1.6268446 1.692973 1.679348 1.6635709 1.7118629 1.4878268 1.6474127 1.529977
1.3227967 1.5927361 1.5893513 1.6993358 1.4724468 1.666872 1.5603939 1.5720447
1.4472368 1.6851536 1.670107 1.6300459 1.3827348 1.7149613 1.6334149 1.4478736
1.7048442 1.3174158 1.681474 1.6969458 1.6925838 1.712349 1.5371933 1.3624003
1.7099588 1.6708865 1.6847556 1.6838483 1.5641844 1.6961031 1.6717335 1.6763884
1.5614471 1.526447 1.6262419 1.4549929 1.6324927 1.6532377 1.5419785 1.6245096
1.6946139 1.4567972 1.6738634 1.7078485 1.6961663 1.5284425 1.6692364 1.6524817
1.6108258 1.6798384 1.6603286 1.5462633 1.7086712 1.5881293 1.6839583 1.6857746
1.69697 1.6185881 1.5819513 1.6915505 1.7160236 1.5222973 1.6184703 1.7107079
1.6671652 1.6892486 1.6226933 1.6927952 1.6659361 1.5109941 1.7136406 1.4126464
1.7011172 1.5398711 1.7159657 1.6833805 1.718339 1.7133428 1.6607331 1.7138755
1.5366061 1.5319173 1.4575181 1.556209 1.6937057 1.6909866 1.4118943 1.482584
1.7014607 1.7181314 1.6963067 1.6648071 1.6032943 1.6603861 1.7016097 1.4710658
1.5927961 1.6568153 1.3173605 1.6451558 1.6627102 1.6745111 1.5773633 1.6971655
1.3903322 1.3003272 1.6653223 1.6944488 1.6480527 1.7051688 1.690103 1.6982496
1.6290432 1.7022656 1.4987571 1.5648193 1.581444 1.697001 1.7128137 1.5631154
1.695214 1.5654336 1.6721029 1.7061999 1.6711506 1.6411098 1.6468701 1.640619
1.3593199 1.664859 1.6493555 1.7196635 1.5082347 1.7164963 1.7153895 1.4279915
1.624437 1.6827734 1.6869848 1.592826 1.5343125 1.5832952 1.6019324 1.681532
1.6381788 1.684766 1.6290171 1.6684457 1.6832033 1.4753922 1.5890884 1.3004899
1.5986446 1.510844 1.2394547 1.7154131 1.592216 1.64678 1.5460811 1.6531041
1.3957716 1.625356 1.6297295 1.6630954 1.6547326 1.6988871 1.6474131 1.5866288
1.7177812 1.6259332 1.7145115 1.4984158 1.5606014 1.4682558 1.5446379 1.6514333
1.7060795 1.5081359 1.6757824 1.7029556 1.7183483 1.6773058 1.5931393 1.450286
1.6613475 1.6925696 1.6573446 1.6868572 1.7137134 1.6338795 1.5334381 1.6308169
1.6081939 1.694384 1.6877602 1.6441873 1.6920612 1.133732 1.5315033 1.6514498
1.6681075 1.7098391 1.6549275 1.5496076 1.6221212 1.5290533 1.5789866 1.6055304
1.6963687 1.7195755 1.666737 1.5111912 1.4079393 1.5912353 1.4911958 1.5301248
1.4438932 1.6634768 1.6580793 1.6348877

model.feature_nns.0.model.1.weight f4 [1, 244]
00000000: 4b7d 1f3c 7608 9f3c 0534 083c b4e9 a5bb
00000010: aa17 ed3a 7dde 36bd 6bbe 0dbd be12 cbbc
00000020: 96d4 3e3d 5ce6 3b3d fac0 01bd 5e2c e43c
00000030: 01db 9e3a 14d0 aa3c 05a9 18bd 0920 2cbd
00000040: e800 c6bc 0bd5 cc3c 5e8c 8b3c 64b0 2cba
00000050: 839f 5dbc 6088 803b 2c02 90bc b732 c33c
00000060: c886 ae3c f9b7 7abc c6b9 ae3c b6da e0bb
00000070: 4c43 bc3c 3ca9 003d cb75 443d dab7 123d
00000080: 4d29 2abd 4b7d 813c 28b1 6d3b 15d8 03bd
00000090: 422e 44bd 1974 553d cbd5 20bd 3969 183d
000000a0: 0e23 f73c 14f5 8fbc 7c57 9dbc 2612 033d
000000b0: bde7 f93c f086 6fbb fa98 22bc 80c6 82bc
000000c0: 3216 e7ba 21c2 36bd 015d f0bb 99c4 d0bc
000000d0: b7ae 13bd da0f fb3c e01d 08bd a763 23bc
000000e0: 1275 c53c 02ed 0a3d 492a 7b3a 0d75 45bd
000000f0: 906f 303c ac0e eebc c054 09bd 2213 e33c
00000100: f313 353d acf0 3f3d 163b 36bd e935 cebc
00000110: 9d83 f4bc de88 2a3d 07c9 633d ba07 15bd
00000120: fbe2 f0bc 236f 7a3d 3bd2 1f3d f11d 0f3a
00000130: 74c9 413d 695b 383d 6ce8 2fbd 7321 08bd
00000140: 0219 b63c 7205 4c3d 40ea 723c 2ed6 8139
00000150: d7b3 2a3d 7639 00bd 6ea5 36bd 2f11 f83c
00000160: a222 4ebc 8ecd 3fbd 26e0 f7bc 78a0 5abc
00000170: 67c9 8a3b cb7a 273b a2af 1fbd 8cd5 573d
00000180: c7df df3c 16d1 373d 8121 0abd c80a 6d3d
00000190: 4c06 b93c 74cf 06bd 9e94 803c b0ee 3e3d
000001a0: 75c3 acbc 9878 2e3d ec9d cabc a431 29bd
000001b0: 9618 493d 4066 77b8 d963 00bd b878 0e3d
000001c0: ee7c 173d 4d12 58bc 803c 603d a437 28bd
000001d0: 9f16 333d f263 033c 2a87 6a3d 368b f0bc
000001e0: 8e2c 05bb 4e1c 44bd 7cd2 42bd 6d00 4c3c
000001f0: a1b6 2e3d fb88 123d 30a1 d4bc 1e34 023c
00000200: d095 a5bc 0c46 e93a 7ac4 efbc 8612 34bc
00000210: 43a1 ec3c 0f84 113d 1f28 af3a 3185 c83c
00000220: bc74 213d cf7f 2fbd 008d 98bc 8da8 5d3c
00000230: 899e b5bc 82e4 f5bc 6a87 7d3b d61d 643c
00000240: 47a5 243d 7802 2bbd 8c26 2ebc ab3d 913c
00000250: ff85 123d 15c8 30bd 6222 ee3c 7dad 573d
00000260: a5a5 863c 20b1 893c 9ef2 e03c bb68 7abc
00000270: 9f57 b93c b724 d43c 4783 f03b c1f0 35bc
00000280: af86 323d bc68 083d 5087 27bd 8187 063a
00000290: f66f 08bd 6f5c 25bc 2a66 973c 5366 e2bb
000002a0: 4f2a 643d 5bf3 4d3d 33e9 5dbb a2a3 5d3d
000002b0: f48a 28bc b5a2 20ba d2d6 88bc f93d 013d
000002c0: e6a7 3fbd 2f0e 1cbd ddee dfbc 0150 0c3d
000002d0: c62c 293c 7891 25bd 403c 183d 1af6 493d
000002e0: 27a5 403d 2c91 7a3c 871e 3e3b 271f 29bd
000002f0: 85df 993c cb23 7a3d 7fbc 80bc e9e5 43bd
00000300: 1dee c7bc 0172 dc3c 00ab 08bd 9802 2e3d
00000310: 1fe7 e73c 771c d93c e95a 99bc 0d1f a1bc
00000320: c282 05bd 1a27 8f3c fa9c 3e3d ddd5 273d
00000330: 6262 2b3d 2210 46bd 874c 353d a770 043d
00000340: c4bc 3f3d bc5f 1bbd a3b4 503d e4be a4b9
00000350: 621f b83c ef27 ffbc 2121 0d3c 953e 0a3d
00000360: dd95 dc3a da3b b7bc f31c 49bc db61 873c
00000370: 8350 943b fb2c 2e3c d7e5 5bbc 09aa 5f3d
00000380: 530a 593c 6e59 e1bc 6d73 aebc 5a46 f2bc
00000390: d687 563d e809 09bd f3d4 3f3d ce4d 063d
000003a0: ef30 9b3c d41b 723c b063 2fbd 83cb f63c
000003b0: 835a 02bd 91c2 393d ab25 43bd 2961 573d
000003c0: c97d 813d e5ac 0b3d 1b6b 27bd 7f70 6f3d
0.009734462 0.019413214 0.008313184 -0.00506326 0.0018088717 -0.044645775 -0.034605425 -0.02478921
0.046589456 0.045873985 -0.031678177 0.027853187 0.0012119712 0.020851173 -0.037270565 -0.04202274
-0.024170354 0.02500393 0.017034706 -0.00065875635 -0.0135268 0.003922507 -0.01757916 0.023827894
0.021304503 -0.015302652 0.021328818 -0.00686201 0.022981308 0.031411394 0.0479639 0.035819866
-0.041543294 0.015806815 0.0036268923 -0.032188494 -0.047895677 0.052112672 -0.03926639 0.037209723
0.030168083 -0.017572917 -0.019206755 0.03199973 0.03050601 -0.0036548935 -0.009924168 -0.015963793
-0.0017630516 -0.04461873 -0.0073353057 -0.02548437 -0.036055293 0.030647207 -0.033231616 -0.009972489
0.024103675 0.033917435 0.0009581191 -0.04820733 0.010768786 -0.02905973 -0.03352809 0.027719084
0.04420848 0.046860382 -0.044489942 -0.02517219 -0.029847914 0.041634433 0.055611636 -0.03638432
-0.029405108 0.061141144 0.03901885 0.00054594787 0.04731126 0.04500905 -0.042946264 -0.033235025
0.022228722 0.04980988 0.014826357 0.00024764374 0.041675415 -0.0313048 -0.04459136 0.030281631
-0.012581499 -0.04682689 -0.03025825 -0.013343923 0.004235435 0.0025555368 -0.038985856 0.05269389
0.027328385 0.044877134 -0.033723358 0.05787161 0.02258601 -0.032912686 0.015695866 0.04661435
-0.021089295 0.042595476 -0.024733506 -0.041307107 0.049095713 -5.8984617e-05 -0.031345222 0.034783095
0.036984377 -0.013187957 0.054745197 -0.041068688 0.043722745 0.008019434 0.05725781 -0.029363256
-0.0020320746 -0.047878556 -0.047564015 0.012451273 0.042654637 0.035775166 -0.025955766 0.007946996
-0.020213038 0.0017797365 -0.029268492 -0.010990744 0.02888549 0.03552633 0.0013363397 0.024477573
0.039417967 -0.042846497 -0.018621922 0.013528955 -0.022170322 -0.030016188 0.003868545 0.013923129
0.040196683 -0.0417504 -0.0106293075 0.0177296 0.03577232 -0.043159563 0.02906913 0.052655686
0.016436407 0.016808093 0.027459439 -0.015283759 0.022624789 0.025896413 0.007339868 -0.0111047635
0.043585476 0.033303007 -0.04090053 0.0005131886 -0.0333099 -0.010092839 0.018481333 -0.0069091707
0.05570441 0.05028091 -0.0033860921 0.05411113 -0.010287035 -0.0006127761 -0.016703997 0.031553242
-0.04679098 -0.038099464 -0.027335579 0.034255985 0.010325616 -0.040421933 0.037166834 0.049306966
0.0470325 0.015293401 0.0029009895 -0.041289475 0.01878334 0.06106929 -0.015714882 -0.04782668
-0.024405533 0.02690983 -0.033366203 0.042482942 0.02830845 0.02650283 -0.018720107 -0.019668126
-0.032595403 0.0174747 0.046536423 0.04097544 0.041841872 -0.04835523 0.044262435 0.032333996
0.04681088 -0.037933096 0.05095352 -0.00031422742 0.022475902 -0.031146972 0.008613856 0.03375109
0.0016829331 -0.022367407 -0.012274968 0.016526153 0.0045261993 0.010630841 -0.013421497 0.054605518
0.01324709 -0.027508464 -0.021295274 -0.029574562 0.052375637 -0.033456713 0.046833944 0.032789044
0.018944232 0.014777143 -0.04281968 0.030126339 -0.0318246 0.04535157 -0.047643345 0.052582894
0.0632282 0.034100432 -0.040873628 0.058456894

model.feature_nns.1.model.0.weights f4 [1, 112]
00000000: ad1e d43f b45c db3f 870d cf3f 63cb d63f
00000010: 3af6 d43f d72c da3f 89f5 c73f 3713 d73f
00000020: ba54 d93f 9595 ce3f f090 d93f e85e d23f
00000030: aba8 da3f 2ac4 cc3f f888 d93f 48e3 db3f
00000040: 0ad1 da3f 9f1b d93f f7b6 db3f 0f1a d33f
00000050: aeac db3f 9e4e db3f 577b ce3f a8b0 d93f
00000060: 9595 ce3f 1c7f c13f 2b77 b53f a8ea b83f
00000070: 62fa d53f 8f0e db3f b8fb d43f dd9c d93f
00000080: c89b bd3f 1f33 d33f d623 d93f e854 cb3f
00000090: 66f4 d73f 561c ca3f 52d8 da3f cf86 c53f
000000a0: d05d d83f 7fc9 ce3f 9595 d73f 7b40 db3f
000000b0: 6319 ce3f 13eb a93f 4bb5 d13f f2b0 a43f
000000c0: e968 d93f 0768 d53f a1da d23f 6637 cf3f
000000d0: 8975 d03f dce6 da3f 1bd2 cf3f 7c06 da3f
000000e0: 43b8 bc3f 7ef5 af3f 4730 c53f 7534 da3f
000000f0: a2af ce3f 934a cc3f 4d7d d53f 3b67 db3f
00000100: db49 c83f e880 cb3f 613c d63f 4780 d83f
00000110: 0ad5 d43f 4095 b63f b61b bd3f ed36 d23f
00000120: bb09 d73f 0ad5 d43f 3d9f bb3f 3300 d73f
00000130: dcd7 d13f b6c1 d63f b469 c43f b196 cb3f
00000140: d9fb d03f 0f1a d33f cf95 d63f 7228 ca3f
00000150: 62fa d53f cce5 d83f e9bf d33f 1a6f d13f
00000160: bac9 da3f aba8 da3f 7cea da3f f8d8 ca3f
00000170: 0a2c d93f b69a d63f fcb9 d73f 3e78 d63f
00000180: 19b2 cf3f d8d7 d33f e698 d93f e05b c03f
00000190: 6866 ae3f bb5f c23f bede d13f 1121 cc3f
000001a0: 7ce3 d63f fc7b d83f bc43 d83f 7c42 d53f
000001b0: e9bf d33f bd03 c83f abe5 d43f 1725 d83f
1.6571862 1.7137666 1.6176003 1.6780819 1.6637642 1.7044934 1.5621806 1.6802739
1.6978981 1.6139399 1.6997356 1.6435213 1.7082723 1.5997365 1.6994925 1.7178736
1.7095044 1.6961554 1.7165211 1.6492327 1.7162073 1.7133367 1.613139 1.7007036
1.6139399 1.5116916 1.4176992 1.4446611 1.6717036 1.7113818 1.6639318 1.7000996
1.4813166 1.6499976 1.6964061 1.5885286 1.687146 1.5789897 1.7097266 1.5431765
1.6903629 1.6155242 1.6842524 1.7129053 1.6101497 1.3274864 1.6383451 1.28665
1.6985141 1.6672372 1.647297 1.6188781 1.6285869 1.7101703 1.6235994 1.7033229
1.4743732 1.3746793 1.5405358 1.7047259 1.6147349 1.5960258 1.6678864 1.7140878
1.5647539 1.5898714 1.6737176 1.6914147 1.6627514 1.4264297 1.4774082 1.6423012
1.6799845 1.6627514 1.4657971 1.6796936 1.6394 1.6777866 1.5344758 1.5905362
1.6326858 1.6492327 1.6764468 1.5793593 1.6717036 1.6945128 1.6542941 1.636203
1.7092812 1.7082723 1.7102809 1.5847464 1.6966565 1.6765964 1.6853633 1.6755445
1.6226226 1.6550245 1.6999786 1.5028038 1.3625002 1.5185465 1.63961 1.5947591
1.6788173 1.6912837 1.6895671 1.6660914 1.6542941 1.5626141 1.6632589 1.6886319

model.feature_nns.1.model.1.weight f4 [1, 112]
00000000: 05da a53c 2409 c2bc 4088 ff3a 51f6 7ebc
00000010: 80e7 a2bc 46e7 baba 98d2 a53c 871d 3dbc
00000020: 568a 943b a9c4 5cbc 1242 1ebb 757a 93bc
00000030: a895 523c 90f6 d13b a7e4 083c 4e41 13bc
00000040: 2dd9 8a3c 8d73 103c 97ea e4ba 1bb4 573c
00000050: b838 5d3c 8bf0 053c b86b 563c fac5 d5bc
00000060: e6e2 613b 95b6 adbc 8793 b3bc 633a 90bb
00000070: 0d1b 733c 62f6 8a3b 47fd 6ebb ea0f 81ba
00000080: 161a 41bb d222 06bb 092e 983b cfcf 893b
00000090: 729c b33c 9e6b 7ebc fa3b 723c bb42 a1ba
000000a0: 0c81 78bc 3afb 4c3c f258 abbc 0749 a23c
000000b0: 6244 00bb 2744 2cbc e264 e2ba 11be 6d3b
000000c0: 4e58 0bbc 2476 bd3b 55b2 07bc 0b36 a4bc
000000d0: 799a f83b 1625 1abc ace4 03bb 1dc6 423c
000000e0: 085f faba 8c44 2a3c 7eb6 ec3b fcb4 ca3b
000000f0: 304c b1bc 534a f5bb 32c5 9cbc aa26 3d3b
00000100: f852 5abc 0518 5fbc 6e56 373c b968 143b
00000110: 9f57 c5bb b07e c9bc 016e 5bbb 1877 7bba
00000120: d80e 35bc e42e de3b 4043 dfba d49b 5c3b
00000130: b062 02ba b4d2 8c3c ea93 baba 100a a6bc
00000140: fd0f c33b 1605 bebb f70a 9bbc 2042 933c
00000150: a1c9 50bb 4ccc 503c 37fe 55bb 8be0 203c
00000160: 62c9 84bb 2bc0 423c c232 f3bb 2f85 d63b
00000170: 0e16 04bc 2313 94bc d0fb ef39 1fef bdbc
00000180: 6f8f 813c 7301 0d3c 5250 063c 7ecb 9a3b
00000190: da8f bfb9 4878 003c 7893 fc3a d861 d83b
000001a0: 8f86 a33b 2d7c 68bc d343 67bc a7d4 313b
000001b0: cc5d 833c 3457 a5bc 6136 a63c c1fa 3fbb
0.020245561 -0.023686 0.0019495562 -0.015561656 -0.019885778 -0.0014259599 0.02024202 -0.011542684
0.0045330925 -0.013474622 -0.0024148268 -0.018002728 0.012853064 0.0064075664 0.008355296 -0.008987738
0.01694926 0.008816612 -0.0017464933 0.013165499 0.013502292 0.008175026 0.013087206 -0.02609538
0.0034467517 -0.021205226 -0.021920932 -0.0044014915 0.014837992 0.004240797 -0.0036466883 -0.0009846662
-0.0029465011 -0.0020467532 0.0046441597 0.004205681 0.021925185 -0.015528588 0.014784807 -0.0012303212
-0.015167486 0.012511069 -0.020916436 0.019810213 -0.001957201 -0.010514296 -0.0017272497 0.0036276618
-0.00850494 0.0057819057 -0.008282264 -0.020045301 0.007586774 -0.009408256 -0.0020125313 0.011888054
-0.0019101808 0.010392319 0.007223903 0.006186126 -0.021642774 -0.007485667 -0.019136999 0.0028862157
-0.013325445 -0.013616567 0.01119004 0.0022645427 -0.006022408 -0.024596542 -0.0033482315 -0.00095926365
-0.011050902 0.006780492 -0.0017033592 0.0033662217 -0.0004973812 0.017190315 -0.0014234756 -0.02026847
0.0059528337 -0.005798946 -0.018926127 0.017975867 -0.0031858461 0.012744021 -0.0032652745 0.00981916
-0.004052327 0.011886637 -0.0074218223 0.0065466384 -0.008061899 -0.018075531 0.00045773247 -0.02318531
0.015815465 0.008606303 0.008197861 0.004723965 -0.00036537537 0.007841177 0.0019270023 0.0066034608
0.004990406 -0.014189762 -0.014115292 0.0027134807 0.016035937 -0.020183183 0.020289602 -0.0029293748

model.feature_nns.2.model.0.weights f4 [1, 274]
00000000: ded1 d33f 0344 db3f 2255 d83f 54f0 b93f
00000010: a511 d53f a395 d33f d7e5 d53f 6413 d93f
00000020: c0a8 d93f 8065 c83f ae50 d93f e1f1 d63f
00000030: a1da d23f 2362 d83f 01d4 d93f d882 c33f
00000040: 8065 c83f 208d d83f f90a db3f 9f16 cc3f
00000050: e37d c63f 1209 bb3f c9e2 cd3f ea00 d23f
00000060: e011 c83f e43f d03f 5b79 cf3f 4ea8 d43f
00000070: bd1f d93f 2e0e da3f b69e d73f 7a0b bc3f
00000080: 10cc d73f 5501 d43f 08b0 da3f 1afa d13f
00000090: b8fb d43f 323c bd3f fa6a cb3f 199f c73f
000000a0: e64d c63f b506 d53f 12d2 ce3f e161 da3f
000000b0: 2d0c d53f b6c3 bb3f 7aba d23f 99df c23f
000000c0: 6375 c23f 4b50 cf3f bd2e d13f c322 d23f
000000d0: 19c4 c13f 99df c23f b8ac d53f e011 c83f
000000e0: b9f9 c83f 9fca c23f 3e8a 983f 0268 d13f
000000f0: 97fa d83f cf8b cb3f 2838 d03f 934a cc3f
00000100: 2ac3 d13f 53be b43f 6866 ae3f 0f57 c43f
00000110: dcd7 d13f db97 c53f d7e5 d53f 5b79 cf3f
00000120: 9adf da3f 4083 d73f 59d6 d53f 0130 cd3f
00000130: 13ff b73f b3c7 be3f 81cb b63f fb78 d93f
00000140: e880 cb3f 7492 d53f 60cd da3f 9adf da3f
00000150: 3e78 d63f a04c d93f 0d43 ba3f 46b8 ce3f
00000160: bfd9 bc3f ae50 d93f 8527 d13f b6b3 da3f
00000170: 38d0 d63f 10d5 d73f bfab 9e3f fee6 d73f
00000180: bc43 d83f a676 a13f 4e50 c13f 672b ce3f
00000190: 4af3 d13f 4538 da3f f7e4 c33f 1eb6 a33f
000001a0: dd54 cc3f 7569 cd3f b307 c23f 8c58 cf3f
000001b0: fd46 d73f 133c da3f 8065 c83f fc56 d03f
000001c0: 3fdf c83f 99df c23f 56a2 db3f fba1 cd3f
000001d0: 5734 af3f 09c3 d73f 5b79 cf3f c5aa ca3f
000001e0: 3cdf c93f 442f bb3f cf86 c53f 486f a63f
000001f0: 7e29 d83f bcfe d83f 40f8 c33f 6b5f d63f
00000200: f7b6 db3f c887 c93f 3b7e b43f caa9 b13f
00000210: 9595 ce3f 0d91 db3f fd68 cf3f c81f dc3f
00000220: f6db da3f 3300 d73f 424d d53f 051c d23f
00000230: 2e7d d63f 6f96 bc3f 6de2 ba3f 27b9 d43f
00000240: bd7d cc3f 4f44 c43f 8c58 cf3f d623 d93f
00000250: 7fe7 d93f 10cc d73f 6ffb d33f b9f9 c83f
00000260: a901 dc3f a9cc d83f b73f cf3f 9b26 d33f
00000270: 8865 d23f 6a30 d03f 8594 db3f cce5 d83f
00000280: 603a dc3f 10da cf3f 9cef d33f 3300 d73f
00000290: 5efc c53f e7ce db3f ddd2 c93f 3f46 ce3f
000002a0: a55e d03f 6a30 d03f 22ca cf3f 5910 ce3f
000002b0: ef27 d93f 42ae d63f fb7c d93f a7f6 d63f
000002c0: 9070 be3f 581e cf3f 424d d53f c141 c53f
000002d0: 7e1e c43f b3d5 db3f a374 da3f 8aa1 cb3f
000002e0: d2db d93f 5efc c53f b072 d53f ada6 d83f
000002f0: 6573 d83f c011 d13f f9a4 da3f e106 c93f
00000300: 439c ac3f d0f0 db3f 3325 da3f 3c6e db3f
00000310: a436 d83f 9b9f d63f 475e d73f e5bd cd3f
00000320: fa53 bf3f d693 d03f f519 ba3f 99f5 cc3f
00000330: 6f55 d63f 4c9e ce3f 3fdf c83f f272 cd3f
00000340: da4c cd3f 08b0 da3f d3eb c53f 5e83 d33f
00000350: 417d d33f 12d2 ce3f dc2c d53f 6b30 dc3f
00000360: b18e c43f b18e c43f 1e95 b23f df6a d33f
00000370: c82e bc3f ac43 da3f 9595 d73f ee47 c93f
00000380: fc7b d83f 323c bd3f 7e29 d83f bdf1 da3f
00000390: aef0 c03f 44ef d93f 51f1 c13f 0171 d33f
000003a0: 40c1 db3f 3ce4 be3f 7547 da3f 4e4f d03f
000003b0: e70e c03f d888 d83f 929d da3f 4afd d73f
000003c0: 3c6e db3f 4cab cd3f d05c d93f b893 ba3f
000003d0: e98a c23f 7a89 d33f 4083 d73f 1e30 d93f
000003e0: d5bb d83f 371d c63f 9e52 d53f c3a1 d33f
000003f0: f23b c83f 9fca c23f e8c9 d43f 84be d73f
1.6548421 1.713013 1.690098 1.4526467 1.664601 1.653004 1.6710767 1.6959043
1.7004623 1.5655975 1.6977746 1.6792566 1.647297 1.6904949 1.7017823 1.5274305
1.5655975 1.6918068 1.7112724 1.5944403 1.5507168 1.4612143 1.6084834 1.6406529
1.5630455 1.6269498 1.620891 1.6613863 1.6962811 1.7035577 1.684531 1.4691002
1.685915 1.6562907 1.708497 1.640445 1.6639318 1.4783995 1.5892022 1.5595428
1.5492523 1.6642672 1.6157858 1.706112 1.6644341 1.4669101 1.6463158 1.5224487
1.5192074 1.6196378 1.6342388 1.6416858 1.5137969 1.5224487 1.6693335 1.5630455
1.5701209 1.5218085 1.1917188 1.6359866 1.6951474 1.5902041 1.6267138 1.5960258
1.6387684 1.4120582 1.3625002 1.5339068 1.6394 1.5436968 1.6710767 1.620891
1.7099488 1.6836929 1.6706039 1.6030275 1.4374717 1.4904693 1.4280854 1.6990045
1.5898714 1.6685319 1.7093925 1.7099488 1.6755445 1.6976509 1.4551712 1.6149986
1.4753951 1.6977746 1.6340185 1.7086093 1.6782293 1.6861897 1.2396163 1.6867368
1.6895671 1.2614334 1.5102632 1.6106995 1.6402371 1.7048422 1.530425 1.2789953
1.5963398 1.6047808 1.51586 1.6198897 1.6818539 1.7049583 1.5655975 1.6276546
1.5693129 1.5224487 1.7158916 1.6065058 1.3687848 1.6856395 1.620891 1.5833365
1.5771251 1.4623799 1.5431765 1.300271 1.6887662 1.6952739 1.5310135 1.6747869
1.7165211 1.5744562 1.4101022 1.387994 1.6139399 1.7153641 1.6203915 1.7197199
1.7098377 1.6796936 1.6664202 1.6414801 1.6756952 1.4733409 1.460035 1.6619004
1.5975872 1.5333346 1.6198897 1.6964061 1.7023772 1.685915 1.6561106 1.5701209
1.7188007 1.6937457 1.6191319 1.6496156 1.6437235 1.6264775 1.71547 1.6945128
1.7205315 1.6238422 1.6557498 1.6796936 1.5467641 1.7172517 1.5767475 1.6115187
1.6278883 1.6264775 1.6233561 1.6098739 1.6965312 1.6771929 1.6991266 1.6794022
1.4878101 1.6181135 1.6664202 1.5410691 1.5321805 1.7174591 1.7066845 1.5908673
1.7020209 1.5467641 1.6675625 1.6925865 1.6910216 1.6333542 1.7081596 1.5705224
1.3485187 1.7182865 1.7042602 1.7143016 1.6891675 1.6767458 1.6825646 1.6073576
1.4947503 1.6295116 1.4539171 1.601245 1.6744822 1.6142058 1.5693129 1.6050704
1.6039078 1.708497 1.5462593 1.6524465 1.65226 1.6157858 1.6654315 1.7202276
1.5356046 1.5356046 1.3951757 1.651699 1.4701777 1.7051902 1.6842524 1.5725076
1.6912837 1.4783995 1.6887662 1.7105023 1.507345 1.7026143 1.5151769 1.6518861
1.716835 1.4913402 1.7053057 1.6274202 1.5004548 1.6916761 1.7079337 1.6874173
1.7143016 1.6067901 1.6981449 1.457633 1.5198642 1.652633 1.6836929 1.6967809
1.6932322 1.5477666 1.6665838 1.6533741 1.5643294 1.5218085 1.6624117 1.6855016

model.feature_nns.2.model.1.weight f4 [1, 274]
00000000: 7f09 d8bb bc98 2f3c 080d 55bc f11c bdbc
00000010: a87c 173b 1a1b 6d3c ae26 e63b 72e9 9d3c
00000020: cfa4 9ebc 47c2 983c 7ae2 03bc ae3d 743c
00000030: 84e4 b3bb 8822 52bc adf0 32bc 03aa b7bc
00000040: 7f42 72bc a69f 723c 408d 8a3c 6a7c 8b3b
00000050: 66e8 c43b 202a f2bb 285f 763c bfda 7cbb
00000060: 1004 9fbc 0e4c 6d3c e3f2 08bc e84f 81bb
00000070: ae29 633c 52c1 523c 9e35 713c 19f0 c6bb
00000080: 41f2 ad3b 1693 753c 6a10 92bb d5b7 b5bb
00000090: 2a75 0abc e62b b2bc 78ca b1bc d401 cabb
000000a0: 8748 743c da9b 5e3c 18ce 543b 3137 8ebc
000000b0: b796 773c 456b c1bc ac37 a0bb a231 033c
000000c0: 3991 bdbc 3e81 a6bc c0b2 c8bb 0476 983a
000000d0: a5f1 093c 7090 07bc 298b 53bb 868d e63a
000000e0: 6442 e5bb f83d 47bc 4876 bf3b 6f0d 34bb
000000f0: 617e 9a3c 3eb7 79bb ecd7 6c3c acfc 95ba
00000100: 9c1b ccbb 7245 4dbb ac70 b7bc 5e84 963c
00000110: 2677 2abc 23a3 98bc fd2e 783c f6be f63a
00000120: f914 d23b c7af 9b3c 42c2 98bc b240 b6bc
00000130: d825 153b 02cd 713c d057 6abc b325 693c
00000140: 3068 993c 4e43 e6bb 7346 9e3b 9cdf 47bc
00000150: ca81 bbbc 4644 bcbc fa99 623b a5d3 c13a
00000160: c75d 9d3c 40d3 54bb 2601 7f3c f3e3 743b
00000170: c687 9b3c da84 f43a 452c d73b 7f26 833c
00000180: 1d73 713c 9b4c 37bc 23cc 9bbc aa54 913c
00000190: 09e5 ca3b 2994 673c d494 773c 3702 633c
000001a0: 2ff1 97bc 9444 953c a843 19b9 4251 9ebc
000001b0: 8ce1 4bbc 522f 313c 3e26 85bb e666 f7ba
000001c0: 8d22 b23b 9a6e 003c 3c2d 94bc 2b52 323c
000001d0: a2fe 18bc 43c0 a83b 902f ed39 cb78 59bc
000001e0: da42 f3bb 2087 953b 84ce bfbc f402 47bc
000001f0: 3085 2c3c acf5 f6bb e010 453c e425 3abc
00000200: 58f3 233a 6cfc 45bc 3507 bfbc 6078 8abb
00000210: 8cf8 bbbb 7a17 01bb 2a91 55bc c69d 14bc
00000220: 0964 c43b 8746 973c 698b 893b 7169 83bb
00000230: ca9a 8ebc aeac b3ba 1b4b 47bb ec94 4cbc
00000240: 0ad5 8abc f0a2 d53b fbca 46bc 02e5 eabb
00000250: 18ec 3cbc f8b6 a43a aa42 dcbb 292f 8a3c
00000260: 9ef6 f039 4eff f2bb 5082 a0bc beb5 0ebc
00000270: 5e71 54bc 907d 14bb 5968 9bbc 720d 9c3c
00000280: 513b 4bbc 1921 993c aa27 793c 569f 193c
00000290: 0b33 743c 8dcd 6f3c c075 783c f34e f6ba
000002a0: dc9b ca3a e4fe 09bc 7a51 743c e596 bebc
000002b0: 72e6 7cbb 98a1 c8ba f8ac 8439 7cb9 5bbc
000002c0: 9950 b3bc 201d 673b 4b92 723c 7aa1 943c
000002d0: afbe 64bc 13fb 9cbc 98ed 73bc 2347 41bc
000002e0: 7b59 98bc 00c1 bdbc ec05 eabb b7d6 a2bc
000002f0: 4ad0 e7ba 2f6c 163c bd19 9dbc c095 22ba
00000300: 97df 3c3c 5b85 7abc 38ce 0c3a 3ccb c1bc
00000310: 5210 c93b 46dc f33a 0667 753c ae0d bbbb
00000320: 2736 1abc be42 6e3c 96f5 f23a c64e 94bc
00000330: 8c1e 86bc 6e33 baba 2dcb 8c3b a4a6 c4bb
00000340: 8ab2 bbbc f8ac 37bc 85dd b73b cc34 a6bb
00000350: 2b0b 9b3b 69b9 a1bc 5e1a c1bb 1c20 c9bb
00000360: 27f9 94bc b595 bdbc e63f caba 7acd 9e3c
00000370: 8a1c 98bc 02b3 eeba 6891 363a e2db dd3a
00000380: acae 9bbc 5600 a2bc 1e32 7cbb a1c3 c1bc
00000390: 57ee a0bb 65c4 9fbb 637a 79bc 26a6 20bc
000003a0: a543 05bc 041a c2ba c70e 1fbc fc01 9fbc
000003b0: d8ee b73a f09a 8cbb 1485 94bb d3ff a9bb
000003c0: a22f 0abc efab 2bbb 0069 323c 9ef9 993c
000003d0: a1b2 2ebc 49f6 993c 9d99 083c 6c51 51bb
000003e0: ef6d 6f3c 6df8 8cbb da6c bbbc 9cbe 4fbc
000003f0: 20bc 9b3c d0bd b03b f83f 0e3c ad43 34bc
-0.006592929 0.010717567 -0.013003595 -0.02308509 0.0023115072 0.014471794 0.007023654 0.019276354
-0.019365696 0.018647326 -0.008049602 0.014907284 -0.0054898877 -0.012825616 -0.010921639 -0.022419935
-0.014786362 0.014808571 0.016913056 0.0042567747 0.0060091494 -0.0073902756 0.015037335 -0.0038582531
-0.019411117 0.014483465 -0.00835869 -0.003946293 0.013864918 0.012863474 0.014722256 -0.0060711023
0.00530842 0.014988681 -0.004457523 -0.005545596 -0.008450786 -0.021749448 -0.02170299 -0.0061647687
0.01490987 0.013586963 0.0032471474 -0.017360302 0.015111617 -0.02361072 -0.004889449 0.008007439
-0.023140537 -0.0203253 -0.0061248243 0.0011631851 0.008419429 -0.008274183 -0.003227899 0.0017589785
-0.00699644 -0.012160771 0.0058429576 -0.0027473827 0.01885909 -0.0038103606 0.014455777 -0.00114431
-0.006228877 -0.003132191 -0.022392593 0.018373664 -0.010404384 -0.018632477 0.015147922 0.0018825221
0.0064111915 0.019004716 -0.018647317 -0.022247646 0.0022758152 0.01475835 -0.014303163 0.01423018
0.018726438 -0.0070270663 0.0048301755 -0.012199309 -0.022889037 -0.022981774 0.003457664 0.0014787806
0.019209756 -0.0032474548 0.015564239 0.0037367314 0.01898564 0.0018655316 0.0065665566 0.016009567
0.014736918 -0.011187698 -0.019018238 0.017740566 0.006191854 0.014134445 0.015111167 0.0138555085
-0.018547622 0.018221177 -0.00014616421 -0.019325856 -0.012443911 0.010814505 -0.0040633967 -0.0018875271
0.0054362477 0.0078388695 -0.018087976 0.010883848 -0.009338053 0.0051498725 0.000452396 -0.013273428
-0.007423741 0.0045632273 -0.023413904 -0.0121467 0.010529801 -0.0075366106 0.012027949 -0.011361573
0.00062542176 -0.012084108 -0.023318866 -0.0042257756 -0.005736416 -0.001969783 -0.013035098 -0.009070819
0.0059933704 0.018466247 0.004197527 -0.0040103723 -0.017407794 -0.0013708079 -0.0030409757 -0.012486678
-0.016947288 0.006519668 -0.012133355 -0.007168413 -0.0115308985 0.0012566736 -0.006721814 0.01686819
0.0004596011 -0.0074156886 -0.019593388 -0.008710323 -0.012966482 -0.002265785 -0.018970655 0.01904938
-0.012404279 0.01869254 0.015207211 0.009376368 0.014904748 0.0146364095 0.015164793 -0.0018791839
0.0015457827 -0.008422587 0.014912004 -0.023265311 -0.0038589505 -0.0015306948 0.00025305874 -0.013410922
-0.021889018 0.0035265163 0.014805387 0.018143404 -0.013961478 -0.01916269 -0.01488819 -0.0117967455
-0.018597355 -0.023163319 -0.007141819 -0.019877775 -0.0017685976 0.009181066 -0.019177312 -0.0006202124
0.011527917 -0.0152905835 0.0005371305 -0.02365648 0.0061359787 0.0018605075 0.014978176 -0.005708418
-0.009412325 0.01454228 0.0018536325 -0.018103968 -0.016371988 -0.0014206001 0.0042966814 -0.0060013104
-0.022912282 -0.011210673 0.005611124 -0.005072212 0.004731556 -0.01974173 -0.005893036 -0.006137861
-0.018185211 -0.023142675 -0.001543042 0.019385088 -0.018568296 -0.0018211307 0.0006964416 0.0016926492
-0.019004188 -0.01977555 -0.003848202 -0.023652853 -0.004911225 -0.004875707 -0.015226933 -0.009805238
-0.0081338035 -0.0014808779 -0.009708113 -0.019410126 0.0014032973 -0.004290931 -0.0045324657 -0.0051879673
-0.008434208 -0.002619501 0.010889292 0.018795785 -0.010662706 0.018794196 0.0083374055 -0.00319394
0.014613613 -0.0043020756 -0.022879053 -0.012679722 0.019010603 0.005393721 0.0086822435 -0.011002463

model.feature_nns.3.model.0.weights f4 [1, 338]
00000000: ad1e d43f b826 cf3f 0ad5 d43f f96d c63f
00000010: 6eed db3f 6ae9 c43f d2bf c03f 5af5 da3f
00000020: 8240 ca3f bebe d43f 7534 da3f d05c d93f
00000030: 08b0 da3f f85d c63f 8ab3 d43f 4658 d23f
00000040: f609 c73f 3300 d73f 1121 cc3f 5042 d73f
00000050: 8865 d23f 8ab3 d43f 4443 cd3f e5df db3f
00000060: 199f c73f fb35 d43f cb9b b73f e70e c03f
00000070: 043b c93f 3a8e c03f c9c6 d53f 657c cd3f
00000080: cb9b b73f a0e1 d83f e98a c23f e161 da3f
00000090: 6ac5 c43f 70f6 d83f e968 d93f f94a d23f
000000a0: caa4 d93f 5544 d13f 15ed d63f 12f5 cd3f
000000b0: b69e d73f 67c0 d93f d049 cb3f c9e2 cd3f
000000c0: 486f a63f ee47 c93f 72ec d13f 3d40 cc3f
000000d0: 6daa c33f 798a bf3f 47a1 da3f de00 b73f
000000e0: 4596 c13f 06d8 cc3f 9483 da3f 78d7 c43f
000000f0: 4443 cd3f 28bc c73f 46b8 ce3f 8dd9 d73f
00000100: 62a0 d13f fa6a cb3f 13ca d13f fb7c d93f
00000110: 20ee d83f 8527 d13f e5fa d93f c141 c53f
00000120: 78d7 c43f 41d9 d83f 5fa9 d63f efeb cd3f
00000130: bd2e d13f 8e5e d33f 01da bd3f 2170 ca3f
00000140: 41ad c13f fd46 d73f fe18 d63f 0291 d73f
00000150: 1cb0 db3f 4457 b13f da11 cb3f 5a28 cb3f
00000160: d7f8 d73f 0592 cc3f 85db d53f 347c db3f
00000170: 61c7 d23f e05b c03f 2f6c d73f e968 d93f
00000180: a1da ce3f caa9 b13f 52d8 da3f 1f33 d33f
00000190: 57d8 c03f bb69 ce3f 26f3 d93f b7f9 cf3f
000001a0: 2575 c03f fd46 d73f aaad c73f 8e5e d33f
000001b0: 98da d43f e70e c03f b687 ca3f 87b5 c23f
000001c0: e570 da3f 8865 d23f bd2e d13f aede d63f
000001d0: 9fca c23f 39ad c63f 9070 be3f 199f c73f
000001e0: 263d d13f b93c dcbf cb9b b73f 7366 d83f
000001f0: 2953 c53f d23c b43f eec0 d23f cdb5 b33f
00000200: 13ff b73f 2c09 cd3f c9e2 cd3f 1c7f c13f
00000210: 5a28 cb3f 140f dc3f 40c1 db3f 42c4 d83f
00000220: 581e cf3f 9e04 d63f 603f d83f 6375 c23f
00000230: bc43 d83f cdb5 b33f d049 cb3f caa4 d93f
00000240: b9f9 c83f 28bc c73f a630 da3f d860 d93f
00000250: 38d4 d23f a386 db3f 3b7e b43f dfd0 d83f
00000260: 72ec d13f a8b0 d93f dd9c d93f 587a bb3f
00000270: f470 d93f d82a d73f 7cb2 b53f e85e d23f
00000280: aede d63f a374 da3f 06ba c93f cb9b b73f
00000290: e106 c93f e499 cf3f 8493 d23f 7228 ca3f
000002a0: 8493 d23f 3434 d93f b893 ba3f fc57 d53f
000002b0: 6339 db3f 800e d23f 5f34 ce3f 8f47 db3f
000002c0: 85db d53f 6f4b d63f da4c cd3f fee1 cf3f
000002d0: 9e52 d53f b61b bd3f 10da cf3f 9c82 d53f
000002e0: 0134 c23f 183d d53f 1a84 ce3f 4732 db3f
000002f0: 42c4 d83f e698 d93f ab89 cf3f aee9 d33f
00000300: f1c1 ca3f 347c db3f 024c d33f 0a73 c73f
00000310: 1cb0 db3f 12d2 ce3f 08b0 da3f b469 c43f
00000320: 52d8 da3f 79c6 c93f 9070 be3f 04e1 d23f
00000330: d6ef ca3f 6c12 dc3f c5aa ca3f 237d d03f
00000340: e02d d83f bd1f d93f 3f46 ce3f 32ba cc3f
00000350: cc50 d83f af77 d83f 3ac8 d03f 7086 d23f
00000360: 7050 d63f 6237 c73f f27b ca3f 4658 d23f
00000370: fa53 bf3f 140f dc3f 486f a63f 4707 ce3f
00000380: 30ed d03f f249 c23f 3af6 d43f 7127 d53f
00000390: d2bf c03f f470 d93f c75a c33f ded1 d33f
000003a0: 64eb d93f 3352 d33f f038 d73f 5501 d43f
000003b0: 0da7 d23f 53be b43f d8d7 d33f d8d7 d33f
000003c0: e487 d53f e1f1 d63f d2bf c03f 4af3 d13f
000003d0: dbad d33f 96c1 d53f ba54 d93f 0ad1 da3f
000003e0: f85d c63f 4e4f d03f 5f92 d13f e487 cc3f
000003f0: 06ba c93f edef d73f 6413 d93f 6438 bf3f
1.6571862 1.6183691 1.6627514 1.5502311 1.7181833 1.5383732 1.5058539 1.7106125
1.5800936 1.662071 1.7047259 1.6981449 1.708497 1.5497427 1.6617291 1.6433189
1.5549915 1.6796936 1.5947591 1.6817112 1.6437235 1.6617291 1.6036153 1.7177702
1.5595428 1.6578974 1.4344419 1.5004548 1.5721135 1.5043404 1.670129 1.6053587
1.4344419 1.6943855 1.5198642 1.706112 1.5372746 1.6950207 1.6985141 1.642913
1.7003415 1.6348978 1.6791102 1.6090415 1.684531 1.7011842 1.5881901 1.6084834
1.300271 1.5725076 1.6400282 1.5957104 1.5286385 1.4964134 1.7080468 1.429714
1.5123984 1.6003425 1.7071404 1.5378256 1.6036153 1.5604296 1.6149986 1.6863266
1.637707 1.5892022 1.6389793 1.6991266 1.694767 1.6340185 1.7029692 1.5410691
1.5378256 1.6941301 1.6770438 1.6087626 1.6342388 1.6513231 1.4832155 1.5815469
1.5130998 1.6818539 1.6726377 1.6841128 1.7163119 1.3854756 1.5864823 1.5871689
1.6872815 1.5982062 1.6707617 1.7147279 1.6467096 1.5028038 1.682989 1.6985141
1.616047 1.387994 1.7097266 1.6499976 1.5066022 1.6126016 1.7027328 1.6248082
1.503575 1.6818539 1.5599873 1.6513231 1.662921 1.5004548 1.5822666 1.5211648
1.7065703 1.6437235 1.6342388 1.6786706 1.5218085 1.5521613 1.4878101 1.5595428
1.6346786 -1.7206031 1.4344419 1.6906265 1.5416003 1.4081061 1.6465127 1.4039856
1.4374717 1.6018424 1.6084834 1.5116916 1.5871689 1.7192101 1.716835 1.6934893
1.6181135 1.6720159 1.689434 1.5192074 1.6895671 1.4039856 1.5881901 1.7003415
1.5701209 1.5604296 1.7046096 1.6982679 1.6471014 1.7150463 1.4101022 1.6938742
1.6400282 1.7007036 1.7000996 1.4646711 1.6987596 1.680995 1.4195094 1.6435213
1.6786706 1.7066845 1.5759895 1.4344419 1.5705224 1.6218839 1.6451268 1.5793593
1.6451268 1.6969056 1.457633 1.6667476 1.7126888 1.6410675 1.6109732 1.7131213
1.6707617 1.674177 1.6039078 1.6240842 1.6665838 1.4774082 1.6238422 1.6680484
1.517212 1.6659269 1.6134064 1.7124718 1.6934893 1.6999786 1.6213888 1.6555688
1.5840436 1.7147279 1.6507571 1.5581982 1.7163119 1.6157858 1.708497 1.5344758
1.7097266 1.5763694 1.4878101 1.6474919 1.5854442 1.7193122 1.5833365 1.6288189
1.6889 1.6962811 1.6115187 1.5994322 1.6899657 1.6911525 1.6311104 1.6447277
1.6743298 1.5563776 1.5819075 1.6433189 1.4947503 1.7192101 1.300271 1.6095971
1.6322384 1.5178816 1.6637642 1.6652662 1.5058539 1.6987596 1.5262078 1.6548421
1.702496 1.650946 1.6814251 1.6562907 1.645723 1.4120582 1.6550245 1.6550245
1.6682096 1.6792566 1.5058539 1.6402371 1.6537431 1.6699703 1.6978981 1.7095044
1.5497427 1.6274202 1.6372794 1.597897 1.5759895 1.6870095 1.6959043 1.4939084

model.feature_nns.3.model.1.weight f4 [1, 338]
00000000: 3ef2 9f3c f6b8 1d3c adcb 913b 1c7a 69bc
00000010: 1f40 bf3b 3426 7dbc 30d8 b73c 99c3 94bc
00000020: 44d3 8abc a01c 3fbc 6608 263c 7701 983b
00000030: 914d 49bc 7e08 3abc 4727 38bb 567a 9f3c
00000040: fd01 4cbb facc 99ba 9eba b23b 2076 9ab8
00000050: 0f60 a73b 352c 70bc 5653 233b 3b71 57bc
00000060: 7416 883b b179 3b3c ffb0 983c e234 35bb
00000070: a6d7 183c 3800 a0bb 4cbb e9ba 8346 25bb
00000080: b312 b93c 517e 7fbc 5457 353c 0a6d 343c
00000090: b11a 433c c0b0 fcb8 0cda 5e3b 36e5 843a
000000a0: 7636 253c 27f6 3c3b 68c8 4a3b 4e95 a53c
000000b0: 58ea 04b9 769e 2c3c 7e5c 8c3c 1ed6 f93b
000000c0: 7d2d 61bc d4b4 263b 64b1 7cbc 3e04 423c
000000d0: 43d9 9e3c ee79 bd3b 529a 9b3b ea0a e13b
000000e0: c019 e63b c6ae 85bc b58e 443b 3820 f839
000000f0: df69 58bc f35b 63bc af80 303c 8233 9ebc
00000100: 8e6d bfbb fd19 ab3b 6548 b93c 5f8d b63b
00000110: 0928 973c 3ac0 2b3c e833 be3b 9614 7d3b
00000120: d4fd 0cbc f9a6 b93c c160 2f3c e29e b83c
00000130: dedd bd3b e482 493b 9e1e 72bc 00cb 75bb
00000140: 15d5 533b 6ff0 813c c039 8b38 cea8 923c
00000150: 704d a73b 75f7 933c 4fa9 743b 7a33 9ebc
00000160: 4486 313b bc7d 87bc 6558 b23b 1e2f 583b
00000170: fb39 c7bb 70b1 9a3c cba5 61bc f006 66bc
00000180: 17f1 283b 3e26 353c a820 a7bb dd18 9f3c
00000190: c0f0 9e3b 6626 983c 5cb3 b73c b58f 9e3c
000001a0: 7d91 85bb be8c b93b 5c58 233c 588d 863c
000001b0: 9ab3 9f3c bcce 913c a3bd ba3c 9e5a 9e3c
000001c0: 3ab6 3c3b 851c 1cbc 5d53 b63c 85c5 783c
000001d0: 1201 7fbc 6642 ab3c c12c a6bb 082d 363b
000001e0: e215 a23b 04e1 78bc de3b 81bc 84bc 44bc
000001f0: 67c5 da3b f4f8 803c 12fb 483c d283 723b
00000200: 3e9c f93b a352 13bc 1817 5f3c 06d4 9b3b
00000210: c4bd f5ba 1ac2 803b 10f3 53bc bdeb a93c
00000220: 8adb 52bc 9e92 3f3c 8f36 ba3b 92d8 5c3c
00000230: 844c 9abc a400 6ebc 0974 393b 1247 3c3c
00000240: 2909 a23c ab72 8f3c 296b 5d3b a61e d53b
00000250: 88f0 9f3c 5c24 10ba 5b3b b53c fdd0 e13b
00000260: ef32 39bc a9b7 183c 6aa5 f4bb abdd 57bc
00000270: 7146 54bc 7edf 833b aa2c 273b 08f1 80bc
00000280: c725 9f3c 2a29 053c a9f5 a93c 56f8 b43c
00000290: 0e6f 60bb 2185 bf3b d40c 803c 0ac4 fa3a
000002a0: dd07 b33b d6ba 683b 7273 87bc 6229 a5bb
000002b0: 8547 e83b a664 acba 955c 5dbc 6e42 79bc
000002c0: eeee 833c d1c2 a73c 3d70 87bb d395 593b
000002d0: afb3 9d3c f905 6abb 606f 58ba 54a1 37bb
000002e0: 142b c1bb d1bc 9e3c 65f3 0f3c 5f0e 44bb
000002f0: 7618 33bb e8cc 603a 6e88 9e3c dba7 473c
00000300: 107d 65ba 18df ce3b d46c a9bb cf0c 81bc
00000310: f870 30ba 1072 d1ba a432 b93b c385 473c
00000320: 3639 a23b 20ac 3b3c 6d06 c6bb 320b 98ba
00000330: a04a 12bc d8bd eabb 58d6 46bc 4c7f 9e3c
00000340: 2ef2 e0ba e410 1b3c 5aa9 243b 7caa 113b
00000350: 4714 9fbc d618 00bb 681e 71bc 66fc 1c3c
00000360: e58c 9dbc 89e1 9bbc ef1c d63b 473a a33b
00000370: 301a 94ba d780 ba3c 6f3d 7abc 9b80 93bc
00000380: 7943 bcbb d2bd 013c 80fd 3a3c 43a9 a6bb
00000390: e485 373c b2b1 9ebc 06af b93c 556a 62bb
000003a0: 4ff7 9ebc cea0 8cbb 7e45 943b 62ea c13b
000003b0: 7e63 473b 4bd8 a23b 1067 d63a 286c 8d3b
000003c0: 026e 3fbb 51e4 56bc 290b 2b3c abda ae3c
000003d0: 7e5e 2c3c 453e 6b3b 552f 263c 90fb 19bb
000003e0: a0ad 953a c5fe 903b e9a7 103c b8ca 9a3c
000003f0: fde6 bc3b 1049 b93c 1c5a b63c b466 1ebb
0.01952469 0.009626618 0.004449329 -0.014250305 0.0058365013 -0.015451003 0.022441953 -0.018159674
-0.016946442 -0.01166454 0.010133838 0.0046388465 -0.01228656 -0.011354564 -0.0028099583 0.019467514
-0.0031129115 -0.0011734061 0.0054543754 -7.365295e-05 0.0051078866 -0.014658977 0.0024921498 -0.013149555
0.0041530672 0.011442588 0.018639086 -0.0027649929 0.009328758 -0.0048828386 -0.0017832308 -0.002521903
0.022591924 -0.015594081 0.011068184 0.011012325 0.011908219 -0.00012049219 0.0034004478 0.0010139111
0.010083785 0.0028833242 0.0030942205 0.020212796 -0.00012675801 0.010535827 0.017133947 0.0076244017
-0.013743755 0.0025437372 -0.015423153 0.011841832 0.019390708 0.0057823574 0.004748621 0.006867756
0.0070221126 -0.01631869 0.0029992287 0.0004732625 -0.013208835 -0.013876903 0.010772868 -0.01931167
-0.0058419174 0.005221604 0.022617528 0.005571052 0.018451707 0.010482842 0.0058045276 0.0038617007
-0.008605439 0.022662627 0.01070422 0.022536699 0.005794271 0.0030748183 -0.0147778075 -0.003750503
0.0032323052 0.015861718 6.638793e-05 0.017902758 0.005105667 0.018062333 0.003733236 -0.019311655
0.0027088085 -0.016539447 0.0054426664 0.0032987068 -0.00607991 0.018883437 -0.013772438 -0.01403974
0.0025778466 0.011056481 -0.0051003285 0.019421035 0.004850477 0.018572997 0.022424392 0.019355634
-0.0040761814 0.0056625297 0.009969797 0.01642482 0.01949482 0.017798774 0.022795504 0.019330319
0.002879514 -0.009528284 0.022256548 0.015183811 -0.01556422 0.020905685 -0.005071253 0.0027797837
0.0049464563 -0.015190367 -0.015775617 -0.012007836 0.006676364 0.01574371 0.012266891 0.003700484
0.0076175025 -0.00899187 0.013616346 0.0047555 -0.0018748571 0.0039293887 -0.012936369 0.020742292
-0.012869725 0.011692671 0.0056827734 0.013479369 -0.018835314 -0.01452652 0.0028297922 0.011491554
0.019779759 0.017510733 0.0033785796 0.0065038977 0.019523874 -0.0005498582 0.02212303 0.0068913684
-0.011303647 0.009321132 -0.007466008 -0.013175408 -0.012956248 0.004024445 0.00255088 -0.015739933
0.019427193 0.00812749 0.020747023 0.022091072 -0.0034245881 0.0058447276 0.015631117 0.001913191
0.005463584 0.0035511754 -0.01653454 -0.0050403336 0.007088604 -0.0013152554 -0.013510843 -0.015213592
0.016105141 0.020478638 -0.004133253 0.0033200874 0.019250719 -0.0035709126 -0.0008256342 -0.0028019743
-0.005895028 0.019377144 0.008786057 -0.0029915792 -0.0027327812 0.0008575455 0.019352164 0.012186016
-0.00087542925 0.006313216 -0.005170444 -0.015753178 -0.0006730701 -0.0015979428 0.005651789 0.012177887
0.0049506677 0.011454612 -0.0060432465 -0.0011600016 -0.008928925 -0.0071637444 -0.0121360645 0.01934781
-0.0017162019 0.009464476 0.0025125355 0.002222686 -0.019418849 -0.0019546053 -0.014716722 0.009581661
-0.019232223 -0.019028442 0.006534211 0.0049813124 -0.0011299308 0.022766514 -0.015273436 -0.01800566
-0.005745348 0.007918792 0.011412978 -0.0050860955 0.011201356 -0.019371841 0.022666465 -0.0034548242
-0.019405035 -0.0042916304 0.0045248857 0.005917833 0.0030424292 0.004969632 0.0016357619 0.0043158717
-0.0029209857 -0.013115958 0.0104396725 0.021344503 0.010520576 0.003589527 0.010143121 -0.002349589
0.0011419542 0.004424902 0.008829095 0.018895492 0.0057648406 0.022617847 0.022259764 -0.0024170103

exp_avg f4 [1, 244]
00000000: 0fd3 8c3f cb16 9a3f 8e19 983f df2e 983f
00000010: 7703 9a3f 48b2 913f 4036 993f 0e74 9a3f
00000020: 678a 953f bade 723f 1e05 703f 3df3 8e3f
00000030: 7c39 973f 8ba3 983f a410 973f 1d97 803f
00000040: f896 923f 0d22 983f 7eb5 963f 5c6e 953f
00000050: b4ef 993f 1324 863f 426a 943f 1acc 893f
00000060: 3e5e 6f3f b5bb 8f3f 31de 8e3f dd74 983f
00000070: b684 843f 0a76 953f 9b48 8c3f d025 8d3f
00000080: 2466 833f 6567 973f 0c0a 963f eada 923f
00000090: 7ffc 7b3f cc25 9a3f a1c7 933f a602 823f
000000a0: e5e7 983f ddaa 6f3f 7cf0 963f 4764 983f
000000b0: 79ee 973f 0791 993f 22a6 8a3f 5310 773f
000000c0: 9a55 993f 9d9c 963f 2765 973f 763a 973f
000000d0: dc19 8d3f 7b0d 983f d338 963f 0695 963f
000000e0: 6d5d 8c3f 5316 893f 5528 923f 1740 843f
000000f0: 9fa9 923f 6fb0 943f 60ad 8b3f ebe6 913f
00000100: 1435 983f 83c9 823f da10 973f 8260 993f
00000110: bc6d 983f c57d 893f e809 963f 9ae8 943f
00000120: 1b63 913f 51fd 963f 95c4 943f bf40 8b3f
00000130: 790a 993f 5eb8 8e3f f153 973f eaa9 973f
00000140: 2f07 983f c6f9 903f 0c50 8e3f 2fca 973f
00000150: 250d 9a3f 85e7 893f b6c8 913f 0773 993f
00000160: 48c4 953f 18c7 973f 4092 923f cfd0 973f
00000170: f38f 953f d328 883f a929 9a3f 5abc 7e3f
00000180: 0f8f 983f 8e8c 8a3f c01a 9a3f 6234 973f
00000190: 1e0e 9a3f 14e0 993f 9ffa 943f 1ab2 993f
000001a0: b09b 8a3f f4e7 893f c042 843f 8256 8d3f
000001b0: e9fc 973f 3de5 973f 7b8f 803f 0238 853f
000001c0: 90c2 983f 180d 9a3f f16f 983f 22d4 953f
000001d0: 4730 903f 2d21 953f 1812 993f 6724 853f
000001e0: 8d62 8f3f 9393 953f deb0 703f a5c3 933f
000001f0: 236d 953f e13b 963f f165 8e3f 0034 983f
00000200: 8a41 7c3f 9e98 6b3f 42eb 953f 462c 983f
00000210: fbf3 933f 2727 993f 83b1 973f de45 983f
00000220: 794b 923f 5604 993f ac33 873f e6d0 8c3f
00000230: 2954 8e3f d66e 983f d09e 993f 9ea7 8c3f
00000240: 6fd3 973f 6dd4 8d3f 3d55 963f 8f46 993f
00000250: b04e 963f a7ca 933f 16fd 933f e319 933f
00000260: a57d 753f 836a 953f 640e 943f 643c 9a3f
00000270: b509 883f d635 9a3f cfe2 993f 317c 813f
00000280: 2c11 923f af3a 973f 930c 973f db52 8f3f
00000290: e1be 8a3f a97a 8e3f 5ceb 8f3f f517 973f
000002a0: 4fb9 933f 3526 973f 458e 923f 8bfe 953f
000002b0: af51 973f 4126 853f e363 8f3f 1f41 6a3f
000002c0: d37b 903f 1f1d 883f 8d65 623f e81b 9a3f
000002d0: 3226 8f3f ae11 943f 1321 8b3f 0877 943f
000002e0: 927c 7b3f 6001 923f d27c 923f 6e44 953f
000002f0: 047b 943f 6a63 983f c302 943f f6a5 8f3f
00000300: cf13 9a3f 32e3 913f 3bac 993f ec65 863f
00000310: df46 8c3f 1b7b 843f b147 8b3f 5049 943f
00000320: e368 993f b5cc 873f 9847 963f 28f4 983f
00000330: 9b64 9a3f d3bb 963f 1a6d 8f3f 1878 823f
00000340: bfb4 943f 883d 983f d0cc 943f db7a 973f
00000350: dad8 993f e64b 933f 670f 8a3f 7362 923f
00000360: a2ac 903f 1b88 983f 52ad 973f 328e 933f
00000370: ebd8 973f c4a6 4e3f 3c47 8a3f 8dbe 943f
00000380: e5ca 953f 889f 993f ebdc 943f d1ac 8b3f
00000390: 9fb2 913f f1e0 8a3f d6f6 8d3f b850 903f
000003a0: 104c 983f 251d 9a3f eab5 953f da37 883f
000003b0: 82ce 7f3f 6729 8f3f 7f24 863f b150 893f
000003c0: 65fb 813f dc77 953f 099f 953f ce36 923f
1.100191 1.2038206 1.1882799 1.1889304 1.2032307 1.1382532 1.1969681 1.2066667
1.1682862 0.94871104 0.9375781 1.116798 1.1814418 1.1924909 1.1801953 1.0046116
1.1452322 1.1885391 1.1774137 1.1674304 1.2026277 1.0479759 1.1594927 1.0765412
0.9350318 1.1229159 1.1161557 1.1910664 1.0353 1.1676648 1.0959657 1.1027164
1.0265546 1.1828429 1.1721816 1.1473057 0.98432153 1.2042785 1.1545297 1.0157058
1.1945769 0.9362009 1.179214 1.1905602 1.1869651 1.1997384 1.083195 0.96509284
1.1979249 1.1766545 1.1827744 1.1814716 1.1023517 1.1879114 1.1736091 1.1764228
1.0966011 1.0709938 1.1418558 1.0332059 1.1458014 1.1616343 1.0912285 1.1398596
1.1891198 1.0217746 1.1802018 1.1982577 1.1908488 1.0741507 1.1721773 1.1633484
1.135837 1.1796056 1.1622492 1.0879134 1.1956321 1.1150014 1.1822492 1.1848729
1.1877192 1.1326225 1.1118178 1.1858577 1.2035261 1.0773779 1.1389377 1.1988229
1.1700525 1.1857634 1.1450882 1.1860598 1.1684555 1.0637459 1.2043964 0.9950615
1.1918658 1.0824144 1.2039413 1.1812861 1.2035558 1.2021508 1.1638983 1.2007477
1.0828762 1.0773911 1.033287 1.1042025 1.1874057 1.1866833 1.0043787 1.0407717
1.1934376 1.2035246 1.1909162 1.1705363 1.1264733 1.165075 1.1958647 1.0401734
1.120195 1.1685661 0.9401988 1.1544081 1.1673931 1.1737024 1.112486 1.1890869
0.98537505 0.9202975 1.171242 1.1888511 1.1558832 1.1965073 1.1851047 1.1896322
1.1429282 1.1954448 1.0562644 1.1001251 1.1119434 1.1908824 1.2001591 1.0988653
1.18614 1.1080452 1.1744763 1.1974658 1.1742764 1.154622 1.1561611 1.1492275
0.95894843 1.167313 1.1566892 1.204968 1.0627962 1.204768 1.2022341 1.0116025
1.141149 1.1814784 1.1800712 1.119716 1.0839502 1.1131183 1.1243701 1.1804186
1.1540927 1.1808535 1.1449667 1.1718305 1.1821803 1.0402299 1.1202358 0.91505617
1.1287788 1.0633887 0.88436204 1.2039766 1.1183531 1.1567895 1.0869468 1.1598825
0.98236954 1.140667 1.1444342 1.1661508 1.1600041 1.1905339 1.1563343 1.1222522
1.2037295 1.139746 1.2005686 1.0499854 1.0959128 1.0350069 1.0881253 1.1584873
1.1985134 1.0609347 1.1740599 1.194951 1.2061952 1.1776069 1.120517 1.01929
1.1617659 1.1893778 1.1625004 1.1834368 1.2019303 1.1507537 1.078595 1.1436294
1.1302683 1.1916536 1.1849768 1.152777 1.1863073 0.80723214 1.0802989 1.1620651
1.1702543 1.200181 1.1629919 1.0912114 1.1382636 1.0849897 1.1090953 1.1274633
1.1898212 1.2040144 1.1696141 1.0642045 0.9992448 1.118451 1.0479888 1.072775
1.0154845 1.1677203 1.1689159 1.1422975
