GolfFeedback-poc/src/s3_NAM_model/output/BS/0/checkpoints/epoch=08-val_loss=3039.5957.ckpt (torch, 48078 bytes, 24 tensors)

model.feature_nns.0.model.0.weights f4 [1, 244]
000000 36 6e cb 3f 8b 16 df 3f fd 4d dc 3f fd 7a dc 3f
       1.5893009 1.7428755 1.72113 1.7225033
000010 38 49 df 3f 83 bb d1 3f d3 ee dd 3f 41 3f df 3f
       1.744422 1.6385349 1.7338508 1.7441179
000020 9c 05 d9 3f 81 fa af 3f be 44 ab 3f 50 98 ce 3f
       1.6954837 1.3748323 1.3380353 1.6140232
000030 f5 f8 da 3f ed ec dc 3f 83 58 da 3f 1a 39 b8 3f
       1.7107226 1.7259804 1.7058262 1.4392426
000040 f9 a8 d3 3f 6e 09 dc 3f 0e 52 da 3f 49 4f d8 3f
       1.6535941 1.7190378 1.7056291 1.6899196
000050 f3 96 de 3f 5d 98 c1 3f e3 59 d6 3f ac f6 c6 3f
       1.7389816 1.5124623 1.6746181 1.5544028
000060 b4 24 ac 3f 02 4a cf 3f 88 93 ce 3f 87 f5 dc 3f
       1.3448701 1.619446 1.6138773 1.7262429
000070 5c 73 bf 3f 77 b0 d8 3f 36 1d cb 3f 6c 71 cc 3f
       1.495708 1.6928853 1.586829 1.5972114
000080 5a d4 bc 3f e7 0c db 3f b4 24 d9 3f 66 1b d4 3f
       1.4752305 1.7113312 1.6964326 1.6570861
000090 4c 9e b4 3f 8a fd de 3f d9 82 d4 3f ff 87 bc 3f
       1.4110808 1.7421124 1.6602432 1.4729003
0000a0 0f 81 dd 3f 7f cc ab 3f 73 ae da 3f 30 7f dc 3f
       1.730501 1.3421782 1.7084488 1.7226315
0000b0 5a e4 db 3f 3c 9e de 3f 9d 12 c8 3f d4 a0 b1 3f
       1.7179062 1.7392039 1.563068 1.3877206
0000c0 0d 44 de 3f 79 6a d9 3f da 13 db 3f 07 04 db 3f
       1.7364517 1.6985618 1.7115433 1.7110604
0000d0 2a a5 cb 3f 2b 6a dc 3f d8 7c d9 3f a2 ff d9 3f
       1.5909779 1.72199 1.6991224 1.7031138
0000e0 7d fa ca 3f 99 68 c6 3f 71 7a d3 3f c4 b5 bd 3f
       1.5857693 1.5500671 1.6521741 1.4821095
0000f0 ab 46 d4 3f 57 11 d7 3f ac cf c8 3f 9f 1e d3 3f
       1.6584066 1.6802167 1.5688376 1.649372
000100 e6 53 dc 3f 49 70 bd 3f 29 c0 d9 3f 93 1e de 3f
       1.7213104 1.4799892 1.7011768 1.735308
000110 00 9e dc 3f 9a d3 c6 3f ab 48 d9 3f 86 17 d7 3f
       1.7235718 1.5533326 1.6975302 1.6804054
000120 17 a5 d1 3f 4b 8e da 3f c4 cd d7 3f 1a 25 c9 3f
       1.6378506 1.7074674 1.685967 1.5714447
000130 fe 0e de 3f 26 45 ce 3f 1f 1a db 3f d7 42 db 3f
       1.7348325 1.6114852 1.7117347 1.7129773
000140 28 96 dc 3f 16 4d d2 3f e8 b2 cd 3f 2e ed db 3f
       1.7233324 1.6429775 1.6070223 1.7181756
000150 4e fe de 3f ef 4a c6 3f 94 a4 d2 3f 99 50 de 3f
       1.7421358 1.5491618 1.6456475 1.7368346
000160 dc cd d8 3f bd d1 db 3f 26 3a d3 3f a4 1d dc 3f
       1.6937823 1.7173382 1.650212 1.7196546
000170 52 98 d8 3f a1 90 c4 3f 46 de de 3f ac 7b b8 3f
       1.6921484 1.5356637 1.7411582 1.4412742
000180 97 10 dd 3f 87 03 c8 3f de 20 df 3f 37 d5 da 3f
       1.7270688 1.5626076 1.7431905 1.7096318
000190 ab 56 df 3f 87 c3 de 3f 83 ec d7 3f e4 d5 de 3f
       1.7448324 1.740342 1.6869053 1.7409024
0001a0 2b 0a c8 3f 72 12 c7 3f 05 09 be 3f 7a bc ca 3f
       1.5628103 1.5552504 1.4846503 1.5838768
0001b0 da 4b dc 3f 33 de db 3f d3 40 b8 3f 7c d5 c0 3f
       1.7210648 1.7177185 1.4394783 1.506515
0001c0 16 29 dd 3f 7a 5d df 3f fa 54 dc 3f 19 87 d8 3f
       1.7278163 1.7450402 1.7213433 1.6916229
0001d0 b2 57 d0 3f 3f db d7 3f ce 0f dd 3f 98 ad bf 3f
       1.6276762 1.6863784 1.7270448 1.4974852
0001e0 06 32 cf 3f d6 a9 d7 3f 4a 0b ac 3f 3d e3 d5 3f
       1.6187141 1.6848705 1.3440945 1.6709973
0001f0 12 37 d8 3f 12 ac d9 3f fb 71 cd 3f e0 a1 dc 3f
       1.6891806 1.7005637 1.6050409 1.72369
000200 d8 3f b5 3f e1 56 a9 3f 08 a5 d8 3f 32 50 dc 3f
       1.4160109 1.3229638 1.6925364 1.7211974
000210 34 0f d6 3f ae 98 dd 3f dd b6 db 3f 15 ae dc 3f
       1.672339 1.7312219 1.716518 1.7240626
000220 b1 b0 d3 3f 5b 6e dd 3f 62 25 c3 3f 60 72 cb 3f
       1.6538297 1.7299303 1.5245783 1.589428
000230 b4 cf cd 3f 3f c3 dc 3f 92 a3 de 3f b5 41 cb 3f
       1.6079011 1.7247084 1.7393668 1.5879427
000240 ef 49 dc 3f 3f e1 cb 3f ea 74 d9 3f a5 bf dd 3f
       1.7210063 1.5928115 1.6988804 1.732411
000250 d8 3d d9 3f c9 bb d5 3f d5 07 d6 3f d3 0f d5 3f
       1.6971998 1.6697932 1.672114 1.6645454
000260 4e d6 b0 3f 51 72 d8 3f c3 68 d6 3f 96 97 df 3f
       1.3815401 1.6909887 1.6750721 1.7468135
000270 fd 08 c4 3f 9b 18 df 3f ee ff de 3f 44 19 ba 3f
       1.5315243 1.7429384 1.7421854 1.453896
000280 c6 30 d3 3f ed b3 da 3f b0 7d db 3f 77 2d cf 3f
       1.649926 1.7086159 1.7147732 1.618575
000290 8c d9 c7 3f 06 f5 cd 3f 83 3d d0 3f be a1 da 3f
       1.5613265 1.60904 1.6268772 1.708061
0002a0 16 36 d5 3f e2 fd da 3f 9e df d3 3f 11 43 d9 3f
       1.6657131 1.7108729 1.6552618 1.6973592
0002b0 ca e0 da 3f de 03 c0 3f 5b cf ce 3f 92 31 a9 3f
       1.709985 1.500118 1.615703 1.3218253
0002c0 f7 21 d0 3f 24 f8 c4 3f d2 f4 a1 3f e9 f7 de 3f
       1.6260365 1.5388227 1.2652838 1.7419406
0002d0 6a 0c cf 3f d6 5f d6 3f 17 01 c9 3f 1c c5 d6 3f
       1.6175663 1.6747997 1.5703458 1.6778903
0002e0 27 08 b6 3f 39 4e d3 3f e7 ec d3 3f 47 74 d8 3f
       1.4221238 1.6508247 1.6556672 1.6910485
0002f0 d9 1c d7 3f a2 c9 dc 3f 51 53 d6 3f 1c ae ce 3f
       1.6805679 1.7249033 1.6744176 1.6146884
000300 16 5a df 3f 32 47 d3 3f 49 ec de 3f ba b2 c2 3f
       1.7449367 1.6506102 1.7415859 1.5210793
000310 bf db ca 3f c8 cd be 3f 30 0e c9 3f 21 d5 d6 3f
       1.5848311 1.490655 1.5707455 1.6783792
000320 cf e2 dd 3f 5c 27 c4 3f b2 ad d9 3f f5 44 dd 3f
       1.7334841 1.5324512 1.7006133 1.7286669
000330 d4 74 df 3f 53 4a da 3f 3c fa ce 3f 9f 92 bc 3f
       1.7457528 1.7053932 1.6170115 1.4732245
000340 91 1b d8 3f 45 2c dc 3f cc 43 d7 3f e8 52 db 3f
       1.6883413 1.720101 1.6817565 1.7134676
000350 e5 c1 de 3f ba 97 d4 3f f3 63 c7 3f d4 fe d3 3f
       1.7402922 1.6608803 1.5577377 1.6562142
000360 ed 28 d1 3f 80 58 dc 3f 61 77 db 3f 26 bc d5 3f
       1.6340615 1.7214508 1.7145807 1.6698043
000370 fd fc db 3f 1b bb 93 3f dd 57 c7 3f 3c 8f d6 3f
       1.7186581 1.1541475 1.5573689 1.6762462
000380 b8 df d8 3f eb 63 de 3f 49 54 d7 3f 9a a9 c9 3f
       1.6943274 1.7374243 1.6822597 1.5754883
000390 09 b0 d2 3f c1 20 c7 3f 8b 0e cd 3f 67 a3 d0 3f
       1.6459972 1.5556871 1.6020063 1.6299866
0003a0 74 76 dc 3f 2f 84 df 3f 9f da d8 3f 4e 63 c4 3f
       1.7223649 1.7462214 1.6941718 1.5342805
0003b0 ac 8f b7 3f 4c b8 ce 3f b0 5d c2 3f e7 da c6 3f
       1.434072 1.6149993 1.5184841 1.5535554
0003c0 57 5e bf 3f dd 4c d8 3f a4 c2 d7 3f ac 70 d4 3f
       1.4950665 1.6898457 1.6856275 1.6596885

model.feature_nns.0.model.1.weight f4 [1, 244]
000000 54 87 a1 3d 9e ea ad 3d db 61 95 3d e0 b0 5e 3d
       0.0788714 0.08492015 0.07294055 0.0543679
000010 fa 6e 85 3d 08 9a 79 3c c1 a3 e1 3c 1b d6 16 3d
       0.06515308 0.015234478 0.027543904 0.03682528
000020 04 78 e8 3d 1b 58 ed 3d 4b 4c d5 3c 77 d3 bd 3d
       0.11351016 0.115890704 0.026037356 0.09268849
000030 c4 5d 84 3d 1b ee ad 3d da 6e ad 3c 94 3a 4b 3c
       0.06463197 0.08492681 0.021171022 0.012404103
000040 fb a8 21 3d 5c d8 b5 3d bc 41 ab 3d 3c 65 75 3d
       0.039467793 0.08879158 0.08362147 0.059910998
000050 e0 42 55 3d 0a bd 8b 3d a0 d0 26 3d e5 90 ba 3d
       0.05206573 0.06823166 0.040726304 0.09109668
000060 ba 3f aa 3d da 6e 3d 3d ab 2e b8 3d 22 8d 67 3d
       0.08312936 0.046248294 0.08993276 0.05653108
000070 d2 e6 b1 3d ca 9c be 3d f3 48 f5 3d 45 7e d3 3d
       0.086866036 0.09307249 0.119768046 0.103268184
000080 fc 72 7d 3c e0 7a 9d 3d 4f b3 7b 3d 96 6f 04 3d
       0.015469309 0.07689452 0.0614503 0.03233298
000090 bc 59 7d 3c af 77 f3 3d 72 3b b6 3c 11 66 de 3d
       0.015463289 0.11888062 0.022245143 0.10859311
0000a0 ab 06 c7 3d b0 0a 37 3d 4d 97 35 3d fd 6c cf 3d
       0.09718069 0.044687927 0.044333745 0.1012821
0000b0 43 64 c5 3d 18 a2 80 3d ae 0a 4c 3d 79 ad 46 3d
       0.09638264 0.06280917 0.049814872 0.04850528
0000c0 54 ff 8c 3d 07 10 7c 3c fa f0 50 3d d8 3e 13 3d
       0.068846375 0.015384681 0.051011063 0.035948604
0000d0 dc 7f e0 3c 8e fb b3 3d 7a ab f7 3c ea 71 4c 3d
       0.027404718 0.087882146 0.030233134 0.049913324
0000e0 66 f4 b7 3d 62 27 c8 3d b8 5a 89 3d d9 f2 57 3c
       0.08982162 0.09773137 0.06706756 0.013180458
0000f0 5d 1f 94 3d 40 95 f4 3c f4 e5 da 3c ef 88 c5 3d
       0.072325446 0.029856324 0.026720978 0.09645259
000100 46 ad f3 3d 6e c4 e4 3d ae 62 77 3c c0 3a 25 3d
       0.11898284 0.111702785 0.015099211 0.04033923
000110 ff 6b 05 3d 4f c0 dd 3d 21 f9 fa 3d cc 14 db 3c
       0.032573696 0.108276956 0.12254549 0.026743315
000120 be 01 05 3d 4e 4c 01 3e 75 03 cd 3d f1 19 88 3d
       0.032472365 0.12626764 0.10010425 0.06645573
000130 a0 ff eb 3d be 9c dc 3d 8e df b2 3c 7b 98 dc 3c
       0.11523366 0.10772084 0.021835115 0.026928177
000140 45 59 aa 3d 15 50 e9 3d ae 6b 9a 3d aa 02 87 3d
       0.08317808 0.113922276 0.075400695 0.06592305
000150 9d 4d dc 3d 03 11 eb 3c 14 16 90 3c 14 0a b9 3d
       0.10756991 0.028694635 0.017588653 0.090351254
000160 5a 5f 3f 3d c6 5d 88 3c c8 34 e6 3c fb de 4e 3d
       0.046721794 0.016646277 0.02810134 0.05050562
000170 64 4c 8e 3d d8 2e 8f 3d e0 e7 b8 3c 4c 52 f6 3d
       0.06948164 0.069913566 0.022571504 0.12027416
000180 92 97 c5 3d a5 4f e9 3d 9d 50 03 3d d3 d9 fc 3d
       0.0964805 0.11392144 0.0320593 0.12346234
000190 09 8b a6 3d 28 5b 03 3d 6d 1f 9d 3d 7e 92 e3 3d
       0.081319876 0.032069355 0.076720096 0.111119255
0001a0 2a 01 33 3d 72 4f dd 3d 8a e4 04 3d 24 c9 38 3c
       0.043702282 0.108061686 0.032444514 0.011278424
0001b0 9a 38 f2 3d aa 77 70 3d 83 f8 c8 3c 29 c2 c9 3d
       0.11827202 0.05870787 0.024532562 0.09851486
0001c0 6a 00 d2 3d 48 2b 55 3d a2 bc fe 3d 15 d7 9e 3c
       0.10253985 0.05204323 0.124383226 0.019389668
0001d0 54 8b db 3d f9 b4 96 3d bd 5e f7 3d 6b ed 0e 3d
       0.10719934 0.073587365 0.12078617 0.03489439
0001e0 1d 66 7b 3d 6a 6d 49 3c c2 d0 4d 3c 82 29 97 3d
       0.06137668 0.012294153 0.012561979 0.07380964
0001f0 21 0f dc 3d a5 9e ce 3d 14 89 05 3d 36 15 93 3d
       0.10745073 0.10088853 0.03260143 0.0718178
000200 42 b1 37 3d be 36 92 3d ca f7 08 3d 3d 22 59 3d
       0.04484678 0.071393475 0.033439435 0.053011168
000210 de 55 bf 3d 4c b0 d2 3d bf 20 8d 3d ea fa bd 3d
       0.0934255 0.10287532 0.068910114 0.09276374
000220 88 d5 df 3d 1c 67 c2 3c e5 7e 32 3d af e6 a3 3d
       0.109294 0.023730807 0.043578047 0.08002984
000230 ed 2c 22 3d c6 4d ef 3c a2 68 90 3d 89 df a1 3d
       0.039593626 0.02921189 0.07051207 0.07903964
000240 00 e4 e5 3d 88 05 95 3c 6c e2 3e 3d fc 2f ac 3d
       0.11225128 0.018191114 0.04660265 0.0840759
000250 aa 94 d6 3d b2 2c 34 3c 8b 64 c2 3d 9b 70 f9 3d
       0.10477574 0.010996984 0.09491833 0.12179681
000260 43 e2 ab 3d 42 1f a9 3d 2a 07 b8 3d d4 46 4b 3d
       0.083927654 0.08257915 0.089857414 0.049628094
000270 6f 24 bb 3d 2d cf be 3d 04 c0 93 3d 0e 75 38 3d
       0.091378085 0.093168594 0.072143584 0.045033507
000280 a8 f1 e5 3d 5e 0a cd 3d 0a e3 50 3c 12 e6 85 3d
       0.11227733 0.10011743 0.012749443 0.06538023
000290 a8 fc e4 3c e5 c5 69 3d 17 04 aa 3d d6 51 78 3d
       0.027952507 0.057073493 0.08301561 0.06062492
0002a0 ca 15 00 3e 89 7e e9 3d bc d4 78 3d 8a 2f fb 3d
       0.12508312 0.11401088 0.060749754 0.12264927
0002b0 0c 99 50 3d 21 f5 82 3d 94 c1 2c 3d 4c 2a bf 3d
       0.050927207 0.06394411 0.042176798 0.09334239
0002c0 44 39 2a 3c dc 3b ba 3c 9a 43 0b 3d d8 87 c3 3d
       0.01038963 0.022733621 0.034000017 0.095473945
0002d0 4c 73 9b 3d b1 56 98 3c 01 5c d7 3d e3 ea f2 3d
       0.075903505 0.018596025 0.10515595 0.11861207
0002e0 7d ee eb 3d 9a 86 a1 3d 8d d2 84 3d dc 5a 9a 3c
       0.115200974 0.07887001 0.06485472 0.018842153
0002f0 72 47 ac 3d 80 69 01 3e 0b 5c 37 3d 03 3c 54 3c
       0.084120646 0.12637901 0.044765513 0.012953761
000300 38 19 2d 3d a4 ee ba 3d 3d ca 09 3d 8c 7a ea 3d
       0.04226038 0.09127548 0.033640135 0.11449155
000310 d7 e3 bf 3d a6 f9 c6 3d 99 2a 49 3d 8f f1 34 3d
       0.09369629 0.097155854 0.04911289 0.04417568
000320 74 4a d1 3c 3d 04 9d 3d b5 8b e6 3d cf a9 e0 3d
       0.025548197 0.07666824 0.11257116 0.109698884
000330 6d 29 d8 3d e6 f7 58 3c 35 18 e1 3d 35 e0 c8 3d
       0.10554776 0.013242697 0.10990945 0.09808389
000340 7c de eb 3d 29 a4 d4 3c da a0 f1 3d ff 13 86 3d
       0.11517045 0.025957184 0.11798258 0.06546783
000350 da e9 b2 3d be 89 fa 3c 98 01 a5 3d 6b c6 cc 3d
       0.0873601 0.030583259 0.080569446 0.09998783
000360 d8 8c 82 3d d9 06 14 3d 20 b9 4f 3d 72 81 a6 3d
       0.0637452 0.036139343 0.05071366 0.081301585
000370 e6 c3 84 3d 11 43 9d 3d 96 ce 3d 3d e1 9f 00 3e
       0.06482677 0.076788075 0.046339594 0.12560989
000380 eb 08 9b 3d 24 73 04 3d ba 0c 2a 3d b6 be 0f 3d
       0.0757006 0.03233637 0.041516043 0.035093985
000390 57 f8 ea 3d 81 7b ca 3c 45 27 eb 3d d2 cf c7 3d
       0.11473148 0.024717094 0.114820994 0.097564355
0003a0 ec 9b ae 3d 9a 6b a9 3d 5e 6a 8b 3c 70 e7 c3 3d
       0.085258335 0.082724765 0.017018493 0.095656276
0003b0 75 b2 d6 3c 02 54 eb 3d e0 5e 81 3c 63 86 ed 3d
       0.026208142 0.114906326 0.01579231 0.11597898
0003c0 3c b9 00 3e 85 6c ca 3d 36 1e 7e 3c b4 34 00 3e
       0.12570661 0.0988398 0.015510133 0.12520105

model.feature_nns.1.model.0.weights f4 [1, 112]
000000 fd 5f d7 3f de af de 3f 58 42 d2 3f 4b 13 da 3f
       1.6826168 1.739742 1.6426497 1.7037138
000010 9c 39 d8 3f 14 7d dd 3f db 18 cb 3f cf 5b da 3f
       1.6892581 1.7303796 1.586696 1.7059268
000020 e3 a2 dc 3f 3e c9 d1 3f ad df dc 3f e7 9b d5 3f
       1.7237209 1.6389539 1.725576 1.6688203
000030 1a fa dd 3f 57 f3 cf 3f a2 d7 dc 3f be 37 df 3f
       1.734195 1.6246136 1.7253306 1.7438886
000040 dc 22 de 3f 3b 69 dc 3f 00 0b df 3f dc 58 d6 3f
       1.7354388 1.7219614 1.7425232 1.6745868
000050 9e 00 df 3f a6 a1 de 3f bf ae d1 3f b3 ff dc 3f
       1.7422063 1.7393081 1.6381453 1.7265533
000060 3e c9 d1 3f 7c 92 c4 3f da 6c b8 3f dc e8 bb 3f
       1.6389539 1.5357203 1.4408219 1.4680438
000070 46 40 d9 3f f9 60 de 3f 29 3f d8 3f b7 eb dc 3f
       1.697274 1.7373344 1.6894275 1.7259434
000080 90 a5 c0 3f 2a 72 d6 3f 86 71 dc 3f 8b 80 ce 3f
       1.5050526 1.675359 1.7222145 1.6132978
000090 2a 3f db 3f f7 44 cd 3f 36 2a de 3f 21 a4 c8 3f
       1.7128651 1.6036671 1.7356632 1.5675088
0000a0 98 a9 db 3f a8 fd d1 3f 6f df da 3f 60 93 de 3f
       1.7161131 1.6405535 1.7099437 1.7388725
0000b0 da 4b d1 3f 3f c4 ac 3f a8 f0 d4 3f 34 7d a7 3f
       1.6351273 1.349739 1.6635942 1.3085084
0000c0 44 b7 dc 3f 82 ac d8 3f d1 18 d6 3f 9e 6c d2 3f
       1.7243428 1.6927645 1.6726323 1.6439397
0000d0 d2 ad d3 3f e4 38 de 3f d0 08 d3 3f 5b 56 dd 3f
       1.6537421 1.7361112 1.6487064 1.7291979
0000e0 d9 bf bf 3f 95 dd b2 3f c3 4c c8 3f c5 84 dd 3f
       1.4980422 1.3973871 1.5648426 1.7306143
0000f0 8b e3 d1 3f 94 78 cf 3f fd c1 d8 3f 7f ba de 3f
       1.6397566 1.6208673 1.69342 1.7400664
000100 fd 6d cb 3f f8 ac ce 3f e8 82 d9 3f 64 cc db 3f
       1.5892941 1.6146536 1.6993074 1.717175
000110 1b 18 d8 3f b1 8d b9 3f 42 24 c0 3f 8a 73 d5 3f
       1.6882356 1.4496366 1.5011065 1.6675885
000120 3c 52 da 3f 1b 18 d8 3f 1e a4 be 3f 9d 48 da 3f
       1.7056346 1.6882356 1.4893835 1.705341
000130 8e 13 d5 3f 86 09 da 3f 46 84 c7 3f f7 c2 ce 3f
       1.6646593 1.7034156 1.5587242 1.6153249
000140 6d 35 d4 3f dc 58 d6 3f 33 dd d9 3f 30 51 cd 3f
       1.6578804 1.6745868 1.702063 1.6040401
000150 46 40 d9 3f e3 32 dc 3f 4f 00 d7 3f ca a9 d4 3f
       1.697274 1.7203029 1.6796969 1.6614316
000160 7a 1b de 3f 1a fa dd 3f 8d 3c de 3f 69 03 ce 3f
       1.7352135 1.734195 1.7362229 1.6094791
000170 ce 79 dc 3f 26 e2 d9 3f 30 04 db 3f 58 bf d9 3f
       1.7224672 1.702214 1.7110653 1.7011518
000180 7f e8 d2 3f 78 18 d7 3f b7 e7 dc 3f 72 6c c3 3f
       1.6477202 1.6804342 1.7258214 1.526747
000190 a5 4a b1 3f 46 75 c5 3f 81 1a d5 3f ac 4e cf 3f
       1.3850905 1.5426414 1.6648713 1.6195884
0001a0 9f 2b da 3f 0e c8 db 3f 44 8f db 3f 9b 86 d8 3f
       1.7044562 1.7170427 1.7153096 1.6916078
0001b0 4f 00 d7 3f 31 27 cb 3f e5 28 d8 3f 53 70 db 3f
       1.6796969 1.5871335 1.688748 1.7143654

model.feature_nns.1.model.1.weight f4 [1, 112]
000000 c2 e9 9e 3c 5f 2a 25 3d 25 1c 9d bb ef b9 96 3d
       0.019398574 0.04032361 -0.004794615 0.07359683
000010 69 96 30 3d f1 63 2a 3d dc 1e 96 3b 38 51 9c 3d
       0.043112192 0.041599218 0.0045813154 0.07632679
000020 ee f3 2a bb c9 d8 aa 3d 20 b4 15 3d e2 97 c2 3c
       -0.0026085335 0.0834213 0.036548734 0.023754064
000030 32 b5 20 3c 06 8b 70 3c d6 c1 33 3c 08 16 fc 3c
       0.009808825 0.014681583 0.010971507 0.030772224
000040 00 e9 90 3c cd 84 9a bc 7c ee dc 3a 52 58 bb 3c
       0.017689228 -0.018862152 0.0016855742 0.022869263
000050 f8 38 83 3c da 1b ec 3c 0b 50 04 3c cd fd 55 3d
       0.016018376 0.028821874 0.008075724 0.052243996
000060 44 2f 0f 3d 4f 8b 61 3d b1 d9 81 3d f1 65 01 bc
       0.034957185 0.055064496 0.063403495 -0.00789784
000070 3f 73 5a 3b 7e 67 d8 3c c7 19 02 3d 10 dc c1 3c
       0.0033332852 0.026416536 0.031762864 0.023664504
000080 b4 b8 18 3d cf 50 b8 3d c2 a3 96 bc bc fe a5 3c
       0.03728552 0.08999788 -0.018388633 0.020263068
000090 e6 36 5d 3c 4b e3 07 3d e4 59 ab bb d5 9f de 3c
       0.013501858 0.033175748 -0.0052292217 0.027175823
0000a0 56 5d 7e 3d 02 9c 09 3c c1 db 80 3c 78 ad 68 3b
       0.06210073 0.008399012 0.015729787 0.0035503786
0000b0 08 d6 9c 3b f7 93 88 3c 24 b1 e0 3c 86 ad aa 3c
       0.0047862567 0.016672118 0.027428217 0.020834696
0000c0 05 09 8a 3c 02 7d 00 3c f1 3d 01 3d 73 d4 20 3d
       0.016850004 0.007842304 0.031553213 0.039265107
0000d0 de f6 45 bb 2c fe 2d 3d 7b 5d 69 3d 15 5f cc 3c
       -0.0030206959 0.042478725 0.056973916 0.024947682
0000e0 42 3a c9 3d 78 5b 9d 3c 7c 26 74 bc 80 39 4f 39
       0.09825565 0.019208655 -0.0149017535 0.00019762479
0000f0 69 59 69 3d 6d a8 75 3d 6e 79 2b 3d 24 1d d6 3a
       0.056970034 0.059975076 0.04186385 0.0016335589
000100 34 40 25 3d d1 9e 9a 3c cc ee 8f 3b 30 1e 28 3c
       0.040344432 0.018874558 0.0043924805 0.0102611035
000110 24 a8 02 3d c4 a3 0a 3c bd ac b3 3d 69 61 e9 3c
       0.031898633 0.008461896 0.087731816 0.028488832
000120 35 de 9e 3c b0 52 12 3a 41 23 12 3d 93 33 5f 3c
       0.019393066 0.00055817794 0.035678152 0.013623136
000130 8c c7 19 3d 48 cb c1 ba c4 ba a4 bb ca f9 88 3c
       0.03754382 -0.0014785314 -0.005027147 0.016720671
000140 b3 52 bc bb 70 c6 bf 3d a8 aa 23 3d b8 93 94 3c
       -0.005747163 0.09364021 0.039957672 0.018136844
000150 56 ec e9 3c 97 d4 18 3c 34 59 17 3d 48 3a a1 3a
       0.028555077 0.009328029 0.036950305 0.0012300694
000160 54 30 83 3d 10 41 c8 3c 1c f8 2d bc 1a bd 97 3b
       0.06405702 0.024445087 -0.010618236 0.004630697
000170 e5 5b 0f 3d 5c 7e c3 3c 6b e9 c5 3c 20 0e 80 b9
       0.034999747 0.023863964 0.024159154 -0.00024424586
000180 ed af 8b 3c ea 1f 73 3c e4 76 5d bc 79 91 d7 bb
       0.017051661 0.014839152 -0.013517115 -0.006578621
000190 83 ef 09 3d dc 91 7d 3c 2d 0e a1 3c 1a fd 04 3d
       0.03367568 0.01547667 0.01966008 0.03246794
0001a0 af 87 c5 bb 60 5f 0e 3c f5 9b 82 3d 40 b8 ed 3c
       -0.0060281376 0.008689731 0.06377403 0.029018521
0001b0 82 e4 3e 3c 10 12 10 3d 9b 0c 9a 3b d0 f3 a4 39
       0.01165116 0.035173476 0.0047012097 0.00031462172

model.feature_nns.2.model.0.weights f4 [1, 274]
000000 70 12 d7 3f f1 96 de 3f d5 a0 db 3f 0d f1 bc 3f
       1.6802502 1.7389814 1.7158457 1.4761063
000010 4c 55 d8 3f a1 d5 d6 3f 88 2b d9 3f eb 60 dc 3f
       1.690103 1.6783944 1.696641 1.7217077
000020 b8 f7 dc 3f e6 89 cb 3f cd 9e dc 3f 27 3a da 3f
       1.7263098 1.5901458 1.7235962 1.7048997
000030 d1 18 d6 3f f6 ad db 3f 64 23 dd 3f 30 9b c6 3f
       1.6726323 1.7162464 1.7276425 1.551611
000040 e6 89 cb 3f 5c d9 db 3f 5a 5d de 3f 20 44 cf 3f
       1.5901458 1.7175708 1.7372239 1.6192665
000050 96 9d c9 3f 80 0c be 3f b9 14 d1 3f 02 3d d5 3f
       1.5751216 1.4847565 1.6334449 1.6659243
000060 77 35 cb 3f a8 77 d3 3f 36 af d2 3f f1 ea d7 3f
       1.5875691 1.6520891 1.645972 1.6868573
000070 63 6d dc 3f 20 5e dd 3f a6 e8 da 3f 67 11 bf 3f
       1.7220882 1.729435 1.7102249 1.4927186
000080 71 16 db 3f 5c 42 d7 3f 89 01 de 3f 21 36 d5 3f
       1.7116224 1.6817126 1.7344218 1.6657144
000090 29 3f d8 3f 0f 45 c0 3f d3 96 ce 3f 95 c1 ca 3f
       1.6894275 1.5021075 1.6139778 1.5840327
0000a0 22 6d c9 3f 41 4a d8 3f 50 06 d2 3f a2 b2 dd 3f
       1.573643 1.689766 1.6408176 1.732014
0000b0 c6 4f d8 3f f1 c8 be 3f 5b f8 d5 3f 5f f6 c5 3f
       1.6899345 1.4905072 1.6716417 1.5465811
0000c0 23 8b c5 3f c0 85 d2 3f ce 68 d4 3f 2e 5f d5 3f
       1.5433086 1.6447067 1.6594484 1.6669672
0000d0 23 d8 c4 3f 5f f6 c5 3f dd f1 d8 3f 77 35 cb 3f
       1.537846 1.5465811 1.6948811 1.5875691
0000e0 8c 1f cc 3f 31 e1 c5 3f 77 38 9b 3f a1 a2 d4 3f
       1.5947127 1.5459348 1.2126607 1.661213
0000f0 e1 47 dc 3f fa b7 ce 3f d9 6f d3 3f 94 78 cf 3f
       1.7209436 1.6149895 1.6518508 1.6208673
000100 a9 fe d4 3f 3a b2 b7 3f a5 4a b1 3f 73 71 c7 3f
       1.6640216 1.4351265 1.3850905 1.5581497
000110 8e 13 d5 3f 57 b5 c8 3f 88 2b d9 3f 36 af d2 3f
       1.6646593 1.568034 1.696641 1.645972
000120 90 31 de 3f ed cc da 3f e4 1b d9 3f 38 60 d0 3f
       1.7358875 1.7093788 1.6961637 1.6279364
000130 02 fb ba 3f 5f d4 c1 3f 79 c4 b9 3f 7d c7 dc 3f
       1.4607852 1.5142936 1.4513084 1.7248379
000140 f8 ac ce 3f 59 d7 d8 3f 29 1f de 3f 90 31 de 3f
       1.6146536 1.6940719 1.7353259 1.7358875
000150 58 bf d9 3f b5 9a dc 3f 93 44 bd 3f 44 ec d1 3f
       1.7011518 1.7234713 1.4786552 1.6400228
000160 a9 e1 bf 3f cd 9e dc 3f 84 61 d4 3f 40 05 de 3f
       1.4990741 1.7235962 1.659226 1.7345352
000170 2c 18 da 3f 87 1f db 3f 21 69 a1 3f a1 31 db 3f
       1.7038627 1.7118996 1.2610208 1.712452
000180 44 8f db 3f ee 3a a4 3f 3a 63 c4 3f 0a 5e d1 3f
       1.7153096 1.2830484 1.5342782 1.6356823
000190 40 2f d5 3f 9e 88 dd 3f 42 fe c6 3f f5 7f a6 3f
       1.6655045 1.7307317 1.5546343 1.3007799
0001a0 f7 82 cf 3f 3a 9a d0 3f 64 1c c5 3f 15 8e d2 3f
       1.6211842 1.6297066 1.5399289 1.644961
0001b0 16 90 da 3f 76 8c dd 3f e6 89 cb 3f f9 8e d3 3f
       1.7075222 1.730849 1.5901458 1.6528007
0001c0 d1 04 cc 3f 5f f6 c5 3f 2c f6 de 3f 4b d3 d0 3f
       1.593897 1.5465811 1.7418876 1.6314481
0001d0 91 1a b2 3f 54 0d db 3f 36 af d2 3f c5 d4 cd 3f
       1.3914357 1.7113442 1.645972 1.6080557
0001e0 45 07 cd 3f 11 33 be 3f 21 a4 c8 3f d9 3f a9 3f
       1.6017843 1.4859334 1.5675088 1.322261
0001f0 c4 74 db 3f 11 4c dc 3f ba 11 c7 3f 48 a6 d9 3f
       1.7145009 1.7210714 1.5552285 1.700387
000200 00 0b df 3f f9 ae cc 3f 84 71 b7 3f 16 96 b4 3f
       1.7425232 1.5990897 1.4331517 1.4108303
000210 3e c9 d1 3f b9 e4 de 3f b0 9e d2 3f d4 74 df 3f
       1.6389539 1.7413551 1.6454678 1.7457528
000220 e3 2d de 3f 9d 48 da 3f 7b 91 d8 3f 5f 58 d5 3f
       1.7357754 1.705341 1.6919397 1.6667594
000230 55 c4 d9 3f b2 9d bf 3f 7c e5 bd 3f f3 fb d7 3f
       1.7013041 1.497 1.4835658 1.6873764
000240 3d ac cf 3f 85 5e c7 3f 15 8e d2 3f 86 71 dc 3f
       1.6224438 1.557572 1.644961 1.7222145
000250 12 37 dd 3f 71 16 db 3f 68 3c d7 3f 8c 1f cc 3f
       1.7282431 1.7116224 1.681531 1.5947127
000260 6a 56 df 3f 83 19 dc 3f 03 75 d2 3f 87 65 d6 3f
       1.7448246 1.7195286 1.6441959 1.6749734
000270 98 a2 d5 3f 08 68 d3 3f 3a e8 de 3f e3 32 dc 3f
       1.6690245 1.6516123 1.741462 1.7203029
000280 ad 8f df 3f d9 10 d3 3f 77 30 d7 3f 9d 48 da 3f
       1.7465721 1.6489516 1.6811665 1.705341
000290 d2 1a c9 3f 2b 23 df 3f c8 fa cc 3f 24 79 d1 3f
       1.571131 1.7432607 1.6014032 1.6365094
0002a0 b5 96 d3 3f 08 68 d3 3f c3 00 d3 3f b9 42 d1 3f
       1.6530367 1.6516123 1.6484607 1.6348487
0002b0 a9 75 dc 3f e2 f5 d9 3f 87 cb dc 3f f9 3e da 3f
       1.7223407 1.7028162 1.7249612 1.7050468
0002c0 65 7c c1 3f 52 53 d2 3f 7b 91 d8 3f 68 5e c8 3f
       1.5116087 1.6431677 1.6919397 1.565381
0002d0 57 38 c7 3f 08 2a df 3f 92 c5 dd 3f ea cd ce 3f
       1.5564069 1.7434702 1.7325919 1.615659
0002e0 48 2b dd 3f d2 1a c9 3f 45 b7 d8 3f 28 f3 db 3f
       1.7278833 1.571131 1.693093 1.718358
0002f0 62 bf db 3f 8a 4b d4 3f 5f f6 dd 3f d4 2c cc 3f
       1.716778 1.6585553 1.7340811 1.595118
000300 15 7c af 3f 67 45 df 3f 5e 75 dd 3f 91 c1 de 3f
       1.3709742 1.7443055 1.7301443 1.7402822
000310 0c 82 db 3f 17 e7 d9 3f 99 a7 da 3f 7a ef d0 3f
       1.7149062 1.7023648 1.7082397 1.6323082
000320 01 62 c2 3f 69 cc d3 3f 15 1b bd 3f 40 25 d0 3f
       1.5186158 1.6546756 1.477389 1.6261368
000330 34 9c d9 3f 0a d2 d1 3f d1 04 cc 3f ce a3 d0 3f
       1.7000794 1.6392224 1.593897 1.6299989
000340 58 7d d0 3f 89 01 de 3f 1e 0a c9 3f 2f c3 d6 3f
       1.6288252 1.7344218 1.5706213 1.6778315
000350 03 bd d6 3f 50 06 d2 3f c6 70 d8 3f a0 85 df 3f
       1.6776432 1.6408176 1.6909416 1.7462654
000360 9f a9 c7 3f 9f a9 c7 3f af 83 b5 3f 73 aa d6 3f
       1.5598639 1.5598639 1.4180812 1.6770767
000370 0b 35 bf 3f 21 94 dd 3f 6f df da 3f 82 6e cc 3f
       1.4938062 1.731083 1.7099437 1.5971224
000380 0e c8 db 3f 0f 45 c0 3f c4 74 db 3f e0 43 de 3f
       1.7170427 1.5021075 1.7145009 1.7364464
000390 ae 02 c4 3f ea 3e dd 3f cb 05 c5 3f a5 b0 d6 3f
       1.5313318 1.7284825 1.5392393 1.6772658
0003a0 63 15 df 3f 2f f1 c1 3f f4 97 dd 3f 38 87 d3 3f
       1.7428402 1.5151728 1.7311997 1.652564
0003b0 ba 1e c3 3f 0a d5 db 3f e5 ee dd 3f 24 48 db 3f
       1.5243752 1.7174389 1.733853 1.713139
0003c0 91 c1 de 3f b3 dc d0 3f 0d ab dc 3f 05 96 bd 3f
       1.7402822 1.6317352 1.72397 1.4811407
0003d0 de a0 c5 3f 5a c9 d6 3f ed cc da 3f ec 7d dc 3f
       1.5439718 1.6780198 1.7093788 1.7225928
0003e0 85 08 dc 3f fb 3b c9 3f e5 96 d8 3f df e1 d6 3f
       1.71901 1.572143 1.6921049 1.678768
0003f0 f2 5f cb 3f 31 e1 c5 3f de 0c d8 3f c3 08 db 3f
       1.5888655 1.5459348 1.6878927 1.7112049

model.feature_nns.2.model.1.weight f4 [1, 274]
000000 8c 5b 1a bc 56 2b 17 3c 70 30 d8 b9 cd cb 15 bc
       -0.009421241 0.009226641 -0.0004123482 -0.009142828
000010 97 cc 16 3d 20 5d af 3c bc ce 9e 3c 25 ed c2 bb
       0.036816206 0.02140671 0.019385688 -0.00594868
000020 3b bf 95 bc d0 4c 15 bc f4 35 b7 3b 00 54 ab 3c
       -0.018279662 -0.009112552 0.0055911485 0.020914078
000030 c1 6c 12 3d 70 97 38 3d 2e d4 31 3d 04 47 4c bc
       0.035748247 0.045066297 0.04341524 -0.012468103
000040 18 b0 4d 3d 77 72 dc bb 77 29 94 3b 59 cc ba 3b
       0.050216764 -0.0067275125 0.0045215446 0.0057006297
000050 d0 a6 71 3c 45 af 0a 3d 33 bd e9 3b 4c ac df bb
       0.014749244 0.033858556 0.00713315 -0.0068259593
000060 3e e8 6f 3d 5d c6 e7 bb c4 e5 26 3d 48 36 8a 3b
       0.058571093 -0.0070732073 0.040746465 0.0042178966
000070 be 4c 83 3c 20 17 15 3c 66 ff 87 3c 09 c7 ab bb
       0.016027804 0.009099752 0.016601276 -0.0052422327
000080 8f aa 95 3c 58 b4 9c 3c c0 45 03 3c ec 6d f6 3b
       0.018269805 0.019128963 0.008012235 0.007520428
000090 95 7b 3c bc f6 0d 60 3d 89 b4 5f 3d 7f ed 20 3d
       -0.011504074 0.054700814 0.05461553 0.039288994
0000a0 ef 4d 96 3c 2f 67 89 3b 47 99 89 3c 51 59 4a 3d
       0.018347709 0.0041932086 0.016796721 0.049401585
0000b0 97 86 91 bb 51 4d 81 3d 00 b6 15 bb 14 f4 49 3c
       -0.004441093 0.06313575 -0.0022844076 0.012326259
0000c0 02 03 6e 3d 76 c7 56 3d 06 13 0f 3c 95 99 93 3c
       0.058108337 0.052436315 0.008732563 0.01801757
0000d0 51 e4 59 3c 2a 3d e8 3b 69 85 12 3d 95 60 e7 3c
       0.013299064 0.0070873694 0.03577176 0.028244296
0000e0 34 89 0e 3d a7 49 d3 3c c2 9c 98 3c bd 60 d6 3b
       0.034798816 0.025791956 0.018629435 0.006542294
0000f0 9c 65 d8 bb 73 cd e2 3c 64 41 87 3c 1e cf 5e 3c
       -0.0066039097 0.027685856 0.016510673 0.013599185
000100 f4 ee da 3c a3 88 af 3c f2 b2 69 3d 5d e8 12 bc
       0.02672527 0.021427458 0.05705542 -0.008966533
000110 f5 03 30 3d 30 f0 69 3d 74 0d 95 3c dc a0 99 3b
       0.042972524 0.057113826 0.018194892 0.0046883654
000120 ce 0e 08 3d 64 38 85 3c b5 83 89 3d 1e d0 8c 3d
       0.033217244 0.01626224 0.06714574 0.06875633
000130 ba d9 d0 3b d4 3f a4 3a e2 11 09 bc 7e 15 fa 3b
       0.0063736113 0.0012531229 -0.00836608 0.0076319566
000140 26 8b 95 3c 29 10 22 3d 64 0c 89 3b 6a 81 b2 3a
       0.018254828 0.039566193 0.0041823853 0.0013618891
000150 44 14 48 bc 18 22 72 3d 1f ce 15 3d f3 7a 19 3d
       -0.012211863 0.059114546 0.036573526 0.03747077
000160 90 2b 89 3c ec 16 79 bb 9d 6b 8a 3c d4 7e 04 3b
       0.016744405 -0.0038008047 0.016897017 0.0020217197
000170 44 dc 93 3c 2d 13 09 3d 74 5f 60 3c 60 6a 8e 3c
       0.018049367 0.033465553 0.013694633 0.017384708
000180 69 e4 87 3c 74 f7 40 3d 30 52 3d bc 38 ed 94 3c
       0.016588407 0.04711099 -0.01155524 0.018179521
000190 00 dd fe 3c 5e 03 b1 3c f2 72 93 3c 98 da b1 3c
       0.03111124 0.02160805 0.017999146 0.021710679
0001a0 6e 11 65 3d 30 6f 7b 3c bc 29 06 3d b9 43 76 3d
       0.055924825 0.015346333 0.032754645 0.06012318
0001b0 90 ba 0f ba fc 9a 61 3c dc a2 07 3c 6b 49 9e bb
       -0.0005482817 0.013769861 0.008278575 -0.0048305294
0001c0 fd ff 10 3c f8 b3 4c 3c df e0 94 bc 09 ab af 3c
       0.008850095 0.01249408 -0.018173633 0.02144386
0001d0 9c 3f 2c 3b 60 0f 19 3d 2b 20 5a 3b a7 ea 48 3d
       0.0026283031 0.03736818 0.0033283334 0.049051907
0001e0 68 17 8e ba 64 0e 81 3c f3 d7 72 3d 65 d3 f3 3c
       -0.0010840716 0.015753932 0.059287976 0.029763887
0001f0 2c 1b 21 3c 63 2e 00 3c c3 a4 b1 3c d4 ef d7 3c
       0.009833138 0.007823559 0.02168501 0.026359476
000200 d7 df 07 bb d2 b8 6c bc ff cb 47 bc 39 96 51 bb
       -0.0020732784 -0.0144483615 -0.012194633 -0.0031980409
000210 77 fe 07 3c f0 28 21 3c c0 24 a1 b9 41 e1 0b 3b
       0.008300415 0.00983642 -0.00030735694 0.0021343979
000220 28 42 91 3b 60 b9 3b 39 b0 85 80 3c ec ec b0 3c
       0.0044329353 0.00017902767 0.015688747 0.021597348
000230 4a 50 2e bc 4e 50 fe 3c 8e 45 c2 3b 6a 72 dd bb
       -0.01063926 0.031044152 0.0059287017 -0.006758024
000240 f3 6f 29 bc 5a d7 02 3d e4 18 f4 3c b8 77 98 bb
       -0.010341632 0.031943657 0.029797025 -0.0046529435
000250 b0 ef cd 3c bb d6 0e 3d 22 b0 0f 3d 83 13 92 3c
       0.025138706 0.03487275 0.035080083 0.01783157
000260 f8 66 38 3a 39 7d 23 3d 2a ae 83 3d d2 b1 38 3d
       0.00070343865 0.039914344 0.064297035 0.045091458
000270 7a c0 e9 3c a2 2c 0d 3d b7 a0 84 bc 29 a9 92 3c
       0.028534163 0.034466393 -0.016189916 0.017902927
000280 cf 4e ca bb 52 98 12 bc 02 ed e2 3b b4 2c 48 3c
       -0.0061739455 -0.008947449 0.006925226 0.012217689
000290 bd f5 ee 3b cd 47 cb bb 5e 38 01 bb 53 bb 12 3c
       0.007292478 -0.0062036277 -0.0019717435 0.008955794
0002a0 66 17 81 3c fb 4e e3 3b 1b ad ee 3b 0e b3 80 3d
       0.015758228 0.0069369054 0.0072838194 0.06284152
0002b0 83 25 20 3d 5f 3d a8 bb fe b9 58 bb 00 06 19 ba
       0.039098274 -0.005134269 -0.0033069844 -0.0005837381
0002c0 25 9a 8e 3d 96 64 17 3d 60 50 46 ba f8 40 20 bc
       0.069629945 0.03696116 -0.00075650774 -0.009781115
0002d0 bb bf 3c 3d fa ab 82 bc 3a 12 50 3d 86 07 e2 3c
       0.046081286 -0.015951145 0.050798632 0.027591478
0002e0 f8 7c 7d bc dd 85 76 3d 72 8b 22 bc e2 ca 43 bc
       -0.015471689 0.060186256 -0.009920942 -0.0119502265
0002f0 90 2e 09 3d 12 c3 a8 3c 27 e7 84 3d b0 ee 9e 3c
       0.03349167 0.02060083 0.06489401 0.019400924
000300 e6 32 0b 3c 3d eb 3f 3d ed 9f 3b 3b 8e 5a 32 bc
       0.008496022 0.0468552 0.0028629259 -0.010885848
000310 a7 7c 75 3c f1 f8 08 3d 2a 44 aa 3c c5 3d 96 bb
       0.014983333 0.033440534 0.020784456 -0.004585
000320 e7 f0 3a 3d d8 13 7f 3a 88 31 06 3d e2 95 4b 3d
       0.0456399 0.0009730435 0.03276208 0.049703486
000330 5d ad 55 3d 1c 51 69 bb 26 e0 8f 3c 8c 0d 9b bb
       0.052167285 -0.0035601323 0.017562937 -0.0047318395
000340 6d d7 70 3d 17 d0 d7 3c 58 01 99 3c 0c 53 b8 3c
       0.058799196 0.026344342 0.018677399 0.022500537
000350 e2 1c 80 3c 09 91 53 3d d3 b7 2e 3d 17 f1 c1 3c
       0.015638772 0.05165199 0.042655777 0.02367453
000360 e7 d5 61 3d df 69 83 3d 07 6d 03 3d fc de 91 bb
       0.055135634 0.06416678 0.0320864 -0.0044516306
000370 5c a3 7c bc 51 9c c0 3c 2b ad 72 3c 64 14 50 ba
       -0.015419807 0.023512037 0.014811794 -0.0007937609
000380 36 1e 6f 3d f4 5d 7e 3d 26 24 aa bb 36 07 7c 3d
       0.05837842 0.06210132 -0.0051922975 0.061530314
000390 5a 59 e9 3c 69 62 15 3d 62 ac 3f 3d bf e1 9e 3b
       0.028484989 0.036470804 0.046795256 0.0048486884
0003a0 88 e4 83 3b 8e 41 0b 3d 3c 94 2d 3d d5 1c 92 bc
       0.004025046 0.033998065 0.042377695 -0.017836014
0003b0 c4 f4 7b 3c 50 5b b9 3c 99 da dd 3c 88 d8 ce 3c
       0.015378181 0.022626549 0.027081775 0.025249735
0003c0 cf f7 c5 3c a5 be 05 3c 76 90 62 3c 62 4b 95 3c
       0.024166016 0.008163129 0.0138283875 0.018224422
0003d0 a2 eb 30 3d c6 0b e6 bb f0 65 a6 3c 15 58 dd 3b
       0.043193467 -0.0070204465 0.02031228 0.006754885
0003e0 15 e4 84 3c 34 bf d1 3c 72 5e 4b bc 57 5c e4 3c
       0.01622204 0.025603868 -0.012412654 0.027876062
0003f0 2a 38 a9 bb d0 14 7e 3c 62 8d 3e 3c 25 22 88 3b
       -0.005164166 0.015507892 0.011630388 0.004154461

model.feature_nns.3.model.0.weights f4 [1, 338]
000000 fd 5f d7 3f c7 5b d2 3f 1b 18 d8 3f 85 8d c9 3f
       1.6826168 1.6434258 1.6882356 1.5746313
000010 fd 41 df 3f 37 05 c8 3f 5a d1 c3 3f 86 47 de 3f
       1.7442013 1.5626591 1.5298264 1.7365577
000020 7c 69 cd 3f 98 01 d8 3f c5 84 dd 3f 0d ab dc 3f
       1.6047816 1.6875486 1.7306143 1.72397
000030 89 01 de 3f 5d 7d c9 3f 49 f6 d7 3f 35 95 d5 3f
       1.7344218 1.5741383 1.6872035 1.6686159
000040 02 2b ca 3f 9d 48 da 3f ac 4e cf 3f 5d 8b da 3f
       1.5794375 1.705341 1.6195884 1.707378
000050 98 a2 d5 3f 49 f6 d7 3f aa 73 d0 3f 53 34 df 3f
       1.6690245 1.6872035 1.6285298 1.7437843
000060 95 c1 ca 3f 84 77 d7 3f c5 96 ba 3f ba 1e c3 3f
       1.5840327 1.6833348 1.4577261 1.5243752
000070 79 61 cc 3f 47 9f c3 3f 2e 0c d9 3f 59 ad d0 3f
       1.5967246 1.5282983 1.6956842 1.6302902
000080 c5 96 ba 3f ad 2e dc 3f de a0 c5 3f a2 b2 dd 3f
       1.4577261 1.7201744 1.5439718 1.732014
000090 de e0 c7 3f b0 43 dc 3f 44 b7 dc 3f c7 87 d5 3f
       1.5615499 1.7208157 1.7243428 1.6682061
0000a0 b8 f3 dc 3f 9b 7e d4 3f 50 35 da 3f 2f 27 d1 3f
       1.7261877 1.6601137 1.704752 1.6340083
0000b0 a6 e8 da 3f 99 0f dd 3f 58 75 ce 3f b9 14 d1 3f
       1.7102249 1.7270385 1.612956 1.6334449
0000c0 d9 3f a9 3f 82 6e cc 3f 57 28 d5 3f 24 6e cf 3f
       1.322261 1.5971224 1.6652936 1.6205487
0000d0 28 c3 c6 3f 06 99 c2 3f a4 f2 dd 3f 59 fa b9 3f
       1.5528307 1.5202949 1.7339673 1.4529525
0000e0 de a9 c4 3f 64 07 d0 3f a8 d4 dd 3f 19 f3 c7 3f
       1.5364339 1.6252255 1.7330523 1.5621063
0000f0 aa 73 d0 3f ec de ca 3f 44 ec d1 3f 0f 24 db 3f
       1.6285298 1.584928 1.6400228 1.7120379
000100 8b db d4 3f d3 96 ce 3f a3 05 d5 3f 87 cb dc 3f
       1.6629499 1.6139778 1.6642345 1.7249612
000110 4c 3b dc 3f 84 61 d4 3f a8 4a dd 3f 68 5e c8 3f
       1.7205596 1.659226 1.7288408 1.565381
000120 19 f3 c7 3f 3a 26 dc 3f f3 f0 d9 3f f6 1d d1 3f
       1.5621063 1.7199166 1.7026657 1.6337268
000130 ce 68 d4 3f 03 9e d6 3f 63 e4 c0 3f 90 99 cd 3f
       1.6594484 1.6766971 1.5069698 1.6062489
000140 13 c1 c4 3f 16 90 da 3f 2e 5f d9 3f d1 da da 3f
       1.5371422 1.7075222 1.6982172 1.7098027
000150 14 04 df 3f c4 42 b4 3f d8 3c ce 3f 8f 53 ce 3f
       1.742312 1.4082875 1.6112318 1.611925
000160 a6 43 db 3f b7 c0 cf 3f 1d 21 d9 3f ad cf de 3f
       1.713002 1.6230687 1.696323 1.7407128
000170 62 05 d6 3f 72 6c c3 3f a3 b5 da 3f 44 b7 dc 3f
       1.6720393 1.526747 1.7086681 1.7243428
000180 f4 0e d2 3f 16 96 b4 3f 36 2a de 3f 2a 72 d6 3f
       1.6410813 1.4108303 1.7356632 1.675359
000190 1b ea c3 3f f8 9c d1 3f d6 42 dd 3f ce 30 d3 3f
       1.5305818 1.6376028 1.7286022 1.6499269
0001a0 f5 85 c3 3f 16 90 da 3f 4a d0 ca 3f 03 9e d6 3f
       1.5275255 1.7075222 1.5844815 1.6766971
0001b0 b7 1d d8 3f ba 1e c3 3f 60 b1 cd 3f e5 cb c5 3f
       1.6884068 1.5243752 1.6069756 1.5452849
0001c0 cb c1 dd 3f 98 a2 d5 3f ce 68 d4 3f c5 26 da 3f
       1.7324766 1.6690245 1.6594484 1.7043082
0001d0 31 e1 c5 3f 60 cd c9 3f 65 7c c1 3f 95 c1 ca 3f
       1.5459348 1.57658 1.5116087 1.5840327
0001e0 5b 77 d4 3f 13 92 df bf c5 96 ba 3f 50 b2 db 3f
       1.6598924 -1.7466453 1.4577261 1.7163792
0001f0 fb 6f c8 3f 79 2f b7 3f df fe d5 3f 26 a7 b6 3f
       1.5659174 1.4311363 1.6718405 1.426976
000200 02 fb ba 3f 03 39 d0 3f b9 14 d1 3f 7c 92 c4 3f
       1.4607852 1.6267399 1.6334449 1.5357203
000210 8f 53 ce 3f f7 63 df 3f 63 15 df 3f 07 11 dc 3f
       1.611925 1.7452382 1.7428402 1.7192696
000220 52 53 d2 3f 9b 4a d9 3f dd 8a db 3f 23 8b c5 3f
       1.6431677 1.6975893 1.7151753 1.5433086
000230 44 8f db 3f 26 a7 b6 3f 58 75 ce 3f b8 f3 dc 3f
       1.7153096 1.426976 1.612956 1.7261877
000240 8c 1f cc 3f ec de ca 3f ed 80 dd 3f 1f af dc 3f
       1.5947127 1.584928 1.730497 1.7240943
000250 58 12 d6 3f 35 da de 3f 84 71 b7 3f c3 1d dc 3f
       1.6724348 1.7410342 1.4331517 1.7196583
000260 57 28 d5 3f b3 ff dc 3f b7 eb dc 3f de 7e be 3f
       1.6652936 1.7265533 1.7259434 1.4882467
000270 62 bf dc 3f ab 73 da 3f be a8 b8 3f e7 9b d5 3f
       1.7245905 1.7066549 1.4426496 1.6688203
000280 c5 26 da 3f 92 c5 dd 3f b4 e1 cc 3f c5 96 ba 3f
       1.7043082 1.7325919 1.6006379 1.4577261
000290 d4 2c cc 3f 0f d0 d2 3f 05 d1 d5 3f 30 51 cd 3f
       1.595118 1.6469744 1.6704413 1.6040401
0002a0 05 d1 d5 3f 0c 82 dc 3f 05 96 bd 3f 50 9c d8 3f
       1.6704413 1.7227187 1.4811407 1.6922703
0002b0 37 8c de 3f b9 4a d5 3f 18 67 d1 3f 85 9a de 3f
       1.738654 1.6663429 1.6359587 1.7390906
0002c0 1d 21 d9 3f 1b 92 d9 3f 58 7d d0 3f db 18 d3 3f
       1.696323 1.6997713 1.6288252 1.649196
0002d0 e5 96 d8 3f 42 24 c0 3f d9 10 d3 3f 59 c7 d8 3f
       1.6921049 1.5011065 1.6489516 1.6935836
0002e0 1f 49 c5 3f 2a 81 d8 3f 98 b7 d1 3f 09 85 de 3f
       1.541294 1.6914418 1.6384153 1.7384349
0002f0 07 11 dc 3f b7 e7 dc 3f ae bf d2 3f 7a 2a d7 3f
       1.7192696 1.7258214 1.6464746 1.6809838
000300 2a ec cd 3f ad cf de 3f 4a 8b d6 3f 1a 95 ca 3f
       1.6087697 1.7407128 1.6761258 1.5826752
000310 14 04 df 3f 50 06 d2 3f 89 01 de 3f 46 84 c7 3f
       1.742312 1.6408176 1.7344218 1.5587242
000320 36 2a de 3f 45 ee cc 3f 65 7c c1 3f 44 1f d6 3f
       1.7356632 1.6010214 1.5116087 1.6728292
000330 80 1a ce 3f 57 67 df 3f c5 d4 cd 3f 7e b5 d3 3f
       1.6101837 1.7453412 1.6080557 1.6539762
000340 31 79 db 3f 63 6d dc 3f 24 79 d1 3f 46 e9 cf 3f
       1.714636 1.7220882 1.6365094 1.6243064
000350 74 9c db 3f b7 c3 db 3f 4e 01 d4 3f d1 c3 d5 3f
       1.7157121 1.7169102 1.6562898 1.6700383
000360 29 97 d9 3f de 58 ca 3f 7e a5 cd 3f 35 95 d5 3f
       1.6999255 1.580837 1.6066129 1.6686159
000370 01 62 c2 3f f7 63 df 3f d9 3f a9 3f 91 39 d1 3f
       1.5186158 1.7452382 1.322261 1.6345693
000380 a0 26 d4 3f 46 5f c5 3f 9c 39 d8 3f 4d 6b d8 3f
       1.6574287 1.54197 1.6892581 1.6907746
000390 5a d1 c3 3f 62 bf dc 3f bd 72 c6 3f 70 12 d7 3f
       1.5298264 1.7245905 1.5503765 1.6802502
0003a0 00 3b dd 3f 8a 91 d6 3f e6 81 da 3f 5c 42 d7 3f
       1.728363 1.6763165 1.7070892 1.6817126
0003b0 be e4 d5 3f 3a b2 b7 3f 78 18 d7 3f 78 18 d7 3f
       1.6710432 1.4351265 1.6804342 1.6804342
0003c0 af cc d8 3f 27 3a da 3f 5a d1 c3 3f 40 2f d5 3f
       1.6937464 1.7048997 1.5298264 1.6655045
0003d0 14 ee d6 3f ee 06 d9 3f e3 a2 dc 3f dc 22 de 3f
       1.6791406 1.695524 1.7237209 1.7354388
0003e0 5d 7d c9 3f 38 87 d3 3f 66 cd d4 3f 7d b6 cf 3f
       1.5741383 1.652564 1.6625183 1.6227566
0003f0 b4 e1 cc 3f a6 3a db 3f eb 60 dc 3f 26 46 c2 3f
       1.6006379 1.7127273 1.7217077 1.5177658

model.feature_nns.3.model.1.weight f4 [1, 338]
000000 d6 11 fe bb 6a 39 33 3d 29 44 b3 3b 46 37 98 3d
       -0.007753591 0.043755926 0.005470772 0.074324176
000010 e4 22 39 3d f5 49 a0 3d 30 ea 9b 3c 26 5e 90 3d
       0.04519929 0.07826606 0.019032568 0.070492074
000020 6b 4d 8b 3d ad 6b 67 bc d7 c4 cc 3b 21 02 05 3c
       0.06801876 -0.014124793 0.006249051 0.008118183
000030 6c b8 90 3d cd f9 8d 3d 14 06 60 3d 5b e2 d0 bb
       0.07066426 0.06932411 0.054693297 -0.00637464
000040 1e eb da bb ad 0f 86 3c 8a d1 ba 3b f9 14 65 3b
       -0.00668086 0.016364897 0.0057012485 0.0034955128
000050 c5 42 34 3d 9a 5b 9a 3d 5a 43 21 3c bb 93 c6 bb
       0.04400899 0.07537003 0.009842718 -0.0060600913
000060 ac a5 b1 3c 1e 4f 78 3c 68 de 95 3c c3 ba 80 bb
       0.021685444 0.015155582 0.018294528 -0.0039285137
000070 7c 94 14 3c 62 21 b5 bb 8f 76 d2 3c 4b 4a 91 bb
       0.009068605 -0.005527661 0.025691299 -0.0044339052
000080 f0 84 ab bb ea 1d 87 3d f6 4a 2e 3c ac f0 4d 3d
       -0.0052343532 0.065975025 0.010637989 0.05027835
000090 8c b7 56 3c 79 07 71 3d ef 50 a2 3b 18 b8 05 3d
       0.013105284 0.058845017 0.0049534957 0.03264627
0000a0 3d c8 52 3c 19 73 c2 3c 97 b3 be 3c 18 15 c7 3c
       0.012865123 0.023736523 0.023278994 0.02430205
0000b0 5b 2a f4 3c 42 8f 60 3c b2 6d 23 3c 93 da 30 3c
       0.029805353 0.01370603 0.009974884 0.0107943
0000c0 5b 6a 80 bc 82 2b 52 3a 49 a6 86 3d 72 25 19 3c
       -0.015675714 0.00080173474 0.06574685 0.009347307
0000d0 92 ce 92 3c 7c b4 f9 3c 38 89 15 3d 21 a9 5c 3d
       0.017920766 0.03048157 0.036507815 0.05387223
0000e0 af 89 9b 3c af 1d 8e bc 6f 31 e9 3c fe 42 6f 3d
       0.018986551 -0.017348139 0.028465955 0.058413498
0000f0 8f d9 93 3d 82 78 b7 bb f3 81 b3 3c ea 88 9c 3d
       0.072192304 -0.0055990824 0.02191255 0.07643302
000100 e9 5e 83 bb b0 d0 34 3d 9b f4 a5 bb e4 0f a5 3c
       -0.004009117 0.044144332 -0.0050645596 0.020149179
000110 74 77 02 bb 5e 54 50 3d 73 76 80 3b 0d b8 b4 3c
       -0.0019907625 0.05086171 0.0039203702 0.022060419
000120 f8 4f 87 3d 1d 41 ac 3c e3 b1 29 3c 46 c9 b3 3c
       0.0660705 0.021027142 0.010357353 0.02194656
000130 fa ad 38 3d 80 aa 58 ba 26 48 99 bb d3 fa 15 3d
       0.045087792 -0.00082651526 -0.00467779 0.036616158
000140 7e 0a ab 3b 64 5b 2a 3b b1 08 1c 3b ec 87 15 3c
       0.0052197566 0.0025994414 0.0023808891 0.009126645
000150 a3 d9 61 3d d2 cf 94 3c 10 bf 4b 3d eb a9 9c 3d
       0.055139195 0.018165503 0.04974276 0.07649597
000160 27 86 31 3b 14 21 8f bc d3 06 36 3d e1 5b a7 3b
       0.0027088018 -0.017471828 0.0444401 0.0051073884
000170 59 3c ac 3c 1f d7 c8 3c 7b 07 ba bb dd 3a 97 3d
       0.02102487 0.02451664 -0.0056771613 0.07384274
000180 2d 90 e3 3c 76 48 2e 3c 8b 87 80 3d c3 52 91 3c
       0.02777871 0.010637393 0.06275853 0.01773966
000190 17 36 08 3c e7 e8 c8 3c d8 4e 9b 3c da 8d 93 3c
       0.008313677 0.024525119 0.018958494 0.018011976
0001a0 9a 47 13 3d 4a fc 41 3d 7d bc 0e 3d 7f 9b 8e 3c
       0.035956956 0.047359742 0.034847725 0.01740813
0001b0 4e 65 0f bc 2f 0d 94 3c 2e b6 4b bb 91 b3 ab bb
       -0.00875218 0.018072693 -0.003108393 -0.005239912
0001c0 e0 97 ea 3c f8 bf 74 3d ea f3 b9 3c 16 2d 43 3c
       0.028636873 0.05975339 0.022699315 0.011912605
0001d0 97 a5 a1 3d b5 87 9f 3b 5a a6 66 3d a4 cb ab 3a
       0.07892912 0.0048684725 0.05631099 0.0013106954
0001e0 64 4c 36 3a 00 c5 15 bc 53 31 a7 3d 2d bc d4 bb
       0.0006954132 -0.009141207 0.08163705 -0.006492159
0001f0 95 a5 9c 3c 48 9f 34 3b 52 1c 6d 3c b4 92 a7 3b
       0.019121924 0.002756076 0.014472084 0.005113924
000200 78 f5 00 3d 9e ae d9 bb 82 8e bf 3c 8b 46 16 3d
       0.031484097 -0.0066431304 0.023383383 0.03668837
000210 c4 50 5d 3d 60 bc 20 b9 09 df 92 3d a4 79 c5 3c
       0.054032102 -0.00015328964 0.07171447 0.024105854
000220 15 f6 ca bb 4e c7 67 3c da b7 ec 3b 62 e8 af 3b
       -0.006193886 0.014146639 0.0072240653 0.0053682784
000230 82 eb 95 bc dc 9f 99 3d f0 39 44 3c f4 a5 77 3c
       -0.018300775 0.07501194 0.011976704 0.01511525
000240 b5 25 dc 3b 82 16 93 3c 32 0f 4d 3d a9 2e fd 3c
       0.006718362 0.017955068 0.05006332 0.030906038
000250 b8 57 f8 bb f0 89 e8 3a 1c a3 01 3b 2a 21 28 3d
       -0.0075788163 0.0017741304 0.0019781059 0.041047253
000260 c9 d5 8d 3d 06 1a 58 3c f4 a2 d0 bb 0c 23 c6 bb
       0.06925542 0.013189798 -0.006367082 -0.0060466584
000270 e0 f0 92 3d 76 63 8b 3a 5d 07 cc 3c 18 ec 15 bb
       0.071748495 0.00106345 0.024905855 -0.0022876319
000280 29 56 c3 bb c9 cc a3 3c 54 0d a9 3b 7f 44 bc 3c
       -0.005961199 0.01999511 0.0051590595 0.02298188
000290 56 79 19 3d 89 3b 39 3d c7 c2 8a 3c 7b ed 42 3b
       0.03746923 0.045222793 0.01693858 0.00297436
0002a0 a7 7f 43 3d 3b cb 66 3c 69 1b 8f bc cb 8e 66 3d
       0.04772916 0.01408654 -0.017469125 0.05628852
0002b0 1c fe 5b 3d 1a 3b d4 3c cd 19 7e bc a7 ce 81 bb
       0.053709134 0.025907088 -0.015509081 -0.0039614025
0002c0 86 9b 14 3b 09 5c c6 3c f7 b6 99 bb 83 a2 5d 3c
       0.0022675707 0.024213808 -0.0046910006 0.013527515
0002d0 3c b8 94 3c cc d7 7b 3d 03 1d 84 3c fb 02 96 bb
       0.018154256 0.061485097 0.016127115 -0.004577992
0002e0 b6 c4 87 bb 2d 24 93 3c f6 3b 30 3d ec f7 1c 3d
       -0.004143323 0.017961586 0.043025933 0.038322374
0002f0 67 48 1e 3d 33 2c dc 3c 9e c7 8c 3c 98 3e d9 3b
       0.038643267 0.026876545 0.017185029 0.006629776
000300 7e 53 66 bb 8b e6 24 3d ce 8b a0 3c ee 82 a5 3d
       -0.003514498 0.040258925 0.019597914 0.080816135
000310 ce 38 40 bb ee 16 22 3d 14 43 60 3d 17 c7 4d 3c
       -0.0029330733 0.03957265 0.05475147 0.012559674
000320 b4 37 aa 3c b6 b4 3a 3d 62 7e 97 bb d7 51 01 3d
       0.020778514 0.045582496 -0.0046232203 0.03157219
000330 4d 6f d9 bb 7d 26 ce bb cc 97 d3 bb 81 25 f0 3b
       -0.0066355825 -0.0062912093 -0.0064573046 0.0073286896
000340 28 c3 21 3d f3 64 89 3c 26 b2 ce 3c b4 00 51 3d
       0.039492756 0.01677177 0.025231432 0.05102606
000350 dd 8e 91 bc 13 de 41 bb 15 b1 9a 3d 60 6f 04 3c
       -0.017768318 -0.002958183 0.07553307 0.0080831945
000360 a6 f6 9f 3d d8 af 95 bc c0 2c 21 3c b9 d3 1a 3d
       0.07810716 -0.018272325 0.009837329 0.03779957
000370 b3 23 1b 3b 66 09 71 bb 7e 95 9e 3d 69 9a 8f 3d
       0.0023672401 -0.0036779284 0.07743357 0.07011873
000380 d6 b2 a6 3c b2 6c 59 3d ac 13 17 3c 59 b6 0a 3d
       0.020348947 0.053082176 0.009220999 0.033865307
000390 3c 46 f6 3b cb 71 8d bc 0c de a9 3c 96 e5 61 3d
       0.007515697 -0.017266175 0.020735763 0.05515059
0003a0 db 55 92 bc 69 1a b1 bb 4d c2 4d 3c 9e c7 89 3b
       -0.017863205 -0.0054047597 0.012558532 0.0042047044
0003b0 3c 47 2d 3d 70 eb f7 3b 27 c3 29 3d b4 fe be 3a
       0.042304263 0.007565908 0.041445877 0.0014571757
0003c0 51 c1 e9 ba a8 82 93 3d ca 83 57 3c 8c a1 c2 3c
       -0.0017834102 0.07202655 0.01315398 0.023758672
0003d0 9c ad 04 3c 73 93 9a 3b d4 9f 16 3c 04 78 f2 b9
       0.008098032 0.0047172843 0.009193379 -0.00046247256
0003e0 f2 3d dd 3c 77 d3 d2 3a d9 63 30 3d 6c e2 95 3c
       0.027007077 0.001608475 0.043063972 0.018296443
0003f0 78 18 ed 3b a4 5c b0 3c ce e6 b9 3c ba f9 cf 3c
       0.007235583 0.02152855 0.022693064 0.025387634
