GolfFeedback-poc/src/s3_NAM_model/output/BS/0/checkpoints/epoch=09-val_loss=2954.8877.ckpt (torch, 48078 bytes, 24 tensors)

model.feature_nns.0.model.0.weights f4 [1, 244]
1.5646255 1.7168303 1.6953698 1.6968226 1.7184626 1.6142263 1.7083201 1.718406
1.6696459 1.3521414 1.316653 1.5888809 1.6851019 1.7000287 1.6805745 1.4171196
1.628739 1.693062 1.679856 1.6645551 1.7132246 1.4885494 1.6496001 1.5298582
1.3222479 1.5949296 1.5888643 1.7005019 1.4716538 1.6672944 1.5619438 1.5722219
1.4527218 1.6855872 1.6709597 1.6323049 1.3893706 1.7158926 1.635414 1.4490988
1.7044166 1.3202851 1.6830603 1.6965352 1.6919261 1.7133533 1.5389616 1.3653742
1.7104723 1.6734838 1.686026 1.6856798 1.5668675 1.6960548 1.6739228 1.677644
1.5609847 1.5254655 1.62706 1.4594238 1.6332003 1.6551653 1.5449938 1.6239345
1.695179 1.4560988 1.6760079 1.70967 1.6981051 1.5286826 1.6716602 1.6555493
1.6132632 1.6814681 1.660248 1.5470278 1.7086443 1.5862443 1.6864799 1.6875988
1.6974878 1.6175224 1.5821623 1.6924766 1.7158407 1.525558 1.6210796 1.7108091
1.6684409 1.6921184 1.6255811 1.6940567 1.6666211 1.5115706 1.7155195 1.4180282
1.7009895 1.5378088 1.7174706 1.6835779 1.7187654 1.7146178 1.6614273 1.7146511
1.5387827 1.530535 1.461752 1.5600556 1.6949713 1.6920787 1.417207 1.4823039
1.7018081 1.7191801 1.6951793 1.6664622 1.6023856 1.6608757 1.7008425 1.4742877
1.5940102 1.6600305 1.3229189 1.6456108 1.6633942 1.6746835 1.5809109 1.6978226
1.3934846 1.3006805 1.6673553 1.6955848 1.6466825 1.7050395 1.6908047 1.6980764
1.6283338 1.7044387 1.500922 1.5647144 1.5834903 1.6992857 1.713444 1.5632122
1.6948913 1.5688386 1.6735302 1.7064447 1.6713165 1.6451986 1.6465291 1.6388137
1.358562 1.6654007 1.64959 1.7209686 1.5070982 1.7168899 1.7162226 1.4309736
1.6244502 1.6826869 1.6895621 1.5937693 1.5375805 1.5844285 1.6018276 1.6825137
1.6400673 1.684952 1.6302211 1.6714952 1.684485 1.476357 1.591227 1.299373
1.6017481 1.5155275 1.2444773 1.715836 1.5926555 1.650007 1.5455364 1.652067
1.3989105 1.6255925 1.630572 1.6660585 1.6550497 1.6986543 1.6493534 1.5906043
1.7191597 1.6252322 1.7158427 1.4966913 1.5600226 1.4665791 1.5466086 1.653241
1.7079473 1.5082682 1.6746359 1.7024895 1.7195919 1.6803399 1.5917796 1.4493445
1.6625673 1.6947126 1.65589 1.6878607 1.7142535 1.6360656 1.5332481 1.6307817
1.6091282 1.6959312 1.6890084 1.6443752 1.6929599 1.1333414 1.5333321 1.6504205
1.6687235 1.711826 1.6571727 1.5513979 1.6204445 1.5319861 1.5768287 1.6047798
1.696471 1.7201915 1.6690943 1.5098138 1.4115629 1.5897331 1.4953325 1.5288644
1.4712449 1.6640952 1.6606791 1.6340815
00000000: a645 c83f 18c1 db3f e101 d93f 7c31 d93f
00000010: 95f6 db3f f89e ce3f 3caa da3f baf4 db3f
00000020: f5b6 d53f f812 ad3f 1688 a83f 7360 cb3f
00000030: 6bb1 d73f 8a9a d93f 111d d73f 2d64 b53f
00000040: 857a d03f 41b6 d83f 8505 d73f 2410 d53f
00000050: f24a db3f c988 be3f 1926 d33f 65d2 c33f
00000060: 6b3f a93f a726 cc3f e85f cb3f 0caa d93f
00000070: 275f bc3f e769 d53f c6ed c73f 913e c93f
00000080: caf2 b93f 52c1 d73f 02e2 d53f 5eef d03f
00000090: e5d6 b13f 5ea2 db3f 3f55 d13f 127c b93f
000000a0: 532a da3f 1aff a83f 856e d73f 1128 d93f
000000b0: 0991 d83f 294f db3f b2fc c43f 95c4 ae3f
000000c0: c2f0 da3f b834 d63f b3cf d73f 5bc4 d73f
000000d0: 1d8f c83f 5318 d93f 1a43 d63f 0abd d63f
000000e0: 59ce c73f 7442 c33f 8143 d03f 66ce ba3f
000000f0: b50c d13f 75dc d33f 5bc2 c53f 16dd cf3f
00000100: a0fb d83f 7261 ba3f 6d87 d63f 77d6 da3f
00000110: 825b d93f dfab c33f f6f8 d53f 0ae9 d33f
00000120: 697f ce3f 593a d73f 0283 d43f 0205 c63f
00000130: dbb4 da3f 0e0a cb3f 93de d73f 3d03 d83f
00000140: 4847 d93f f90a cf3f 4b84 ca3f 13a3 d83f
00000150: aba0 db3f 7c45 c33f 897f cf3f cbfb da3f
00000160: 798f d53f 5697 d83f 0b13 d03f dad6 d83f
00000170: d753 d53f 257b c13f 2596 db3f f381 b53f
00000180: 06ba d93f ebd6 c43f 14d6 db3f 7b7f d73f
00000190: 8100 dc3f 9978 db3f a6a9 d43f b079 db3f
000001a0: d5f6 c43f 92e8 c33f b11a bb3f e7af c73f
000001b0: d2f4 d83f 0996 d83f 0a67 b53f 22bc bd3f
000001c0: d9d4 d93f 180e dc3f a3fb d83f a24e d53f
000001d0: f91a cd3f 9397 d43f 35b5 d93f 76b5 bc3f
000001e0: 8708 cc3f e17b d43f 6855 a93f 60a3 d23f
000001f0: 1aea d43f 075c d63f 4a5b ca3f 4052 d93f
00000200: b45d b23f b37c a63f e66b d53f ec08 d93f
00000210: 7ec6 d23f bc3e da3f 4a6c d83f 915a d93f
00000220: 3e6d d03f 0c2b da3f 361e c03f 9048 c83f
00000230: cfaf ca3f 3282 d93f 2252 db3f 5617 c83f
00000240: 33f2 d83f b4cf c83f 3d36 d63f c86c da3f
00000250: b3ed d53f de95 d23f 77c1 d23f a6c4 d13f
00000260: 5ce5 ad3f da2b d53f c425 d33f b348 dc3f
00000270: 98e8 c03f 0cc3 db3f 2fad db3f 252a b73f
00000280: fced cf3f 4962 d73f 9243 d83f a200 cc3f
00000290: 70cf c43f 8ece ca3f b008 cd3f 9c5c d73f
000002a0: baed d13f 82ac d73f 16ab d03f 8ef3 d53f
000002b0: 349d d73f 44f9 bc3f 54ad cb3f db51 a63f
000002c0: 1506 cd3f cefc c13f 084b 9f3f 84a0 db3f
000002d0: 23dc cb3f 6e33 d33f 23d4 c53f ee76 d33f
000002e0: 800f b33f 6a13 d03f 95b6 d03f 6841 d53f
000002f0: abd8 d33f 816d d93f 031e d33f ec98 cb3f
00000300: 6d0d dc3f 9c07 d03f bca0 db3f 9593 bf3f
00000310: d2ae c73f ddb8 bb3f 45f7 c53f 679d d33f
00000320: 049e da3f ef0e c13f 785a d63f 2deb d93f
00000330: 961b dc3f 6115 d73f 6fbf cb3f 1f84 b93f
00000340: 01cf d43f 58ec d83f 34f4 d33f d20b d83f
00000350: a96c db3f 996a d13f 7941 c43f 74bd d03f
00000360: eaf7 cd3f 4614 d93f 6d31 d83f e37a d23f
00000370: e9b2 d83f 5511 913f 3a44 c43f fb40 d33f
00000380: bb98 d53f 1d1d db3f 3c1e d43f 3594 c63f
00000390: ba6a cf3f 1f18 c43f 86d5 c93f 6d69 cd3f
000003a0: f625 d93f 3c2f dc3f e2a4 d53f 9441 c13f
000003b0: 18ae b43f 607c cb3f 0e67 bf3f d4b1 c33f
000003c0: c151 bc3f 1201 d53f 2291 d43f 9529 d13f

model.feature_nns.0.model.1.weight f4 [1, 244]
0.08111801 0.08744518 0.0754724 0.0569104 0.067961186 0.018235344 0.030702684 0.039937317
0.11578261 0.11789154 0.029018622 0.09475026 0.066772245 0.0872997 0.024119727 0.015518826
0.042138565 0.09102535 0.08617116 0.06285371 0.0551087 0.07078452 0.043560777 0.09289241
0.08516516 0.049036745 0.09250138 0.059115704 0.08902077 0.09546927 0.121660985 0.10543381
0.018072437 0.079317234 0.06399626 0.03537947 0.018608145 0.120962195 0.025639497 0.110406555
0.09922396 0.04709646 0.04750965 0.10381828 0.09843255 0.06527176 0.052483015 0.051002745
0.07106007 0.01869579 0.053694222 0.038826164 0.030348737 0.09014 0.033289757 0.052352495
0.09213588 0.100105524 0.06961326 0.016244033 0.074827574 0.032869585 0.02963382 0.098618045
0.120955095 0.113864355 0.018370228 0.043512385 0.035632692 0.11031679 0.12418084 0.029958252
0.03534397 0.12824039 0.102805145 0.06896608 0.11760759 0.10993795 0.02493444 0.029914849
0.085664324 0.11548702 0.07763222 0.068802945 0.10974776 0.03177916 0.020549256 0.092546605
0.049357276 0.019957563 0.030892992 0.053250007 0.07201304 0.07243551 0.025596509 0.121971324
0.09886866 0.115788385 0.034851465 0.12545492 0.08410252 0.035167415 0.079557866 0.11335379
0.04614392 0.110002175 0.035304226 0.014552024 0.120638065 0.061626364 0.027180465 0.10089602
0.1046793 0.054756753 0.12654322 0.02244798 0.109402984 0.075712204 0.12264976 0.037668552
0.064053886 0.01572171 0.015556625 0.07604693 0.1096368 0.1031384 0.035809956 0.074307635
0.0474134 0.073925994 0.036426116 0.055826023 0.095789336 0.10494693 0.07136463 0.095026545
0.11148046 0.02668738 0.046174504 0.08209647 0.042156704 0.0318969 0.0729029 0.0812987
0.11479413 0.020898739 0.049106605 0.08603001 0.107076675 0.014201749 0.09718994 0.12373632
0.08632465 0.084779926 0.09211208 0.052350074 0.09297652 0.095570885 0.07485363 0.047489163
0.11427574 0.102149375 0.015926056 0.068033785 0.030897316 0.059661098 0.085335925 0.06362321
0.12728852 0.11590123 0.06362894 0.12457103 0.053903602 0.066239 0.044814475 0.09567922
0.013723639 0.02528824 0.036480155 0.0978566 0.07818871 0.021579374 0.107192524 0.12059374
0.117208384 0.0813134 0.06750262 0.02177184 0.086625054 0.1284072 0.04730421 0.015846513
0.045089357 0.09373658 0.036434487 0.116525434 0.09595658 0.09910653 0.05215568 0.046794426
0.0288796 0.079225205 0.114374526 0.111870356 0.10801085 0.01636996 0.111918055 0.10015838
0.11765964 0.028847001 0.11963967 0.06834574 0.08970164 0.033724383 0.082922876 0.1020469
0.06614486 0.039173555 0.053382102 0.08357341 0.0672474 0.07844555 0.048864692 0.12730391
0.07811305 0.035607778 0.044193905 0.037812833 0.11642694 0.027559152 0.116945505 0.09973117
0.08779281 0.0854602 0.02014728 0.09767375 0.028856916 0.1166718 0.01857217 0.117452316
0.12718739 0.10082364 0.018658573 0.12698554
00000000: 3321 a63d 7516 b33d 4691 9a3d e11a 693d
00000010: 3c2f 8b3d 4a62 953c 3284 fb3c 5095 233d
00000020: 6f1f ed3d 1f71 f13d 76b8 ed3c 6d0c c23d
00000030: e3bf 883d 2fca b23d bc96 c53c ad42 7e3c
00000040: 7d99 2c3d 806b ba3d 817a b03d 72b9 803d
00000050: a9b9 613d 79f7 903d c96c 323d 603e be3d
00000060: 126b ae3d c1da 483d 5d71 bd3d 4f23 723d
00000070: 8550 b63d 6585 c33d 6529 f93d aeed d73d
00000080: a60c 943c 1371 a23d 7910 833d 10ea 103d
00000090: 1c70 983c 07bb f73d ec09 d23c d51c e23d
000000a0: ee35 cb3d 38e8 403d 7b99 423d ae9e d43d
000000b0: 0197 c93d 33ad 853d 6ef8 563d 41e8 503d
000000c0: f187 913d ea27 993c 79ee 5b3d 2f08 1f3d
000000d0: ea9d f83c 529b b83d d75a 083d 926f 563d
000000e0: bcb1 bc3d 2004 cd3d 6691 8e3d 3512 853c
000000f0: 333f 993d 42a2 063d a0c2 f23c 42f8 c93d
00000100: 4eb7 f73d b731 e93d 297d 963c 0b3a 323d
00000110: 96f3 113d c5ed e13d 8652 fe3d 026b f53c
00000120: d7c4 103d 7351 033e 818b d23d 173e 8d3d
00000130: 40dc f03d 2627 e13d 5043 cc3c fc0f f53c
00000140: c770 af3d 7584 ec3d a4fd 9e3d 8fe8 8c3d
00000150: 6fc3 e03d dd2a 023d ea56 a83c 1389 bd3d
00000160: db2a 4a3d 0b7e a33c 4d13 fd3c ae1c 5a3d
00000170: 937b 933d 1259 943d c5af d13c 1acc f93d
00000180: a77b ca3d 7622 ed3d 69c0 0e3d 4177 003e
00000190: f13d ac3d b50b 103d 3cef a23d 0826 e83d
000001a0: 6801 3d3d d248 e13d 2a9b 103d 9d6b 6e3c
000001b0: 1711 f73d ed6b 7c3d 91a9 de3c 93a2 ce3d
000001c0: 1a62 d63d 9e48 603d 8c94 013e d3e4 b73c
000001d0: ac0e e03d 000f 9b3d cc2f fb3d 574a 1a3d
000001e0: af2e 833d d1ca 803c 37e1 7e3c 7ebe 9b3d
000001f0: 4289 e03d 3a3a d33d 76ad 123d 9a2e 983d
00000200: 8e34 423d 8366 973d 8d33 153d d4a9 643d
00000210: 332d c43d 6bee d63d 9e27 923d 479d c23d
00000220: de4f e43d 7e9f da3c 7a21 3d3d 3222 a83d
00000230: 82ac 2c3d 53a6 023d 1e4e 953d ef7f a63d
00000240: 2f19 eb3d d533 ab3c 0224 493d 8030 b03d
00000250: 044b db3d 74ae 683c 850b c73d 7869 fd3d
00000260: faca b03d 19a1 ad3d 42a5 bc3d 086d 563d
00000270: 796a be3d abba c33d dc4c 993d ff83 423d
00000280: 6609 ea3d b133 d13d 5c77 823c 4c55 8b3d
00000290: 5e1c fd3c 325f 743d 9ac4 ae3d e34c 823d
000002a0: ec57 023e a05d ed3d e44f 823d 191f ff3d
000002b0: 06ca 5c3d 50a8 873d 628f 373d 78f3 c33d
000002c0: 1dd9 603c 4829 cf3c 376c 153d 0b69 c83d
000002d0: 6721 a03d 3ac7 b03c c187 db3d daf9 f63d
000002e0: f30a f03d a487 a63d d03e 8a3d dc5a b23c
000002f0: 7a68 b13d 2d7d 033e 0fc2 413d 8cd0 813c
00000300: 9eaf 383d f7f8 bf3d 543c 153d e3a4 ee3d
00000310: e284 c43d 5df8 ca3d 32a1 553d 83ab 3f3d
00000320: e994 ec3c d340 a23d 313d ea3d 491c e53d
00000330: cb34 dd3d 4b1a 863c 4b35 e53d d61f cd3d
00000340: 8af7 f03d 8c50 ec3c a505 f53d daf8 8b3d
00000350: 7eb5 b73d 9422 0a3d 78d3 a93d f7fd d03d
00000360: f576 873d 7374 203d 31a7 5a3d 8928 ab3d
00000370: 01b9 893d 0fa8 a03d 5826 483d f55b 023e
00000380: bcf9 9f3d 76d9 113d ab04 353d a1e1 1a3d
00000390: 3f71 ee3d bbc3 e13c 2081 ef3d db3f cc3d
000003a0: b7cc b33d c205 af3d e90b a53c 2d09 c83d
000003b0: 5765 ec3c a0f1 ee3d aa24 983c d78a f03d
000003c0: 693d 023e a07c ce3d ddd9 983c 7f08 023e

model.feature_nns.1.model.0.weights f4 [1, 112]
1.6571862 1.7137666 1.6176003 1.6780819 1.6637642 1.7044934 1.5621806 1.6802739
1.6978981 1.6139399 1.6997356 1.6435213 1.7082723 1.5997365 1.6994925 1.7178736
1.7095044 1.6961554 1.7165211 1.6492327 1.7162073 1.7133367 1.613139 1.7007036
1.6139399 1.5116916 1.4176992 1.4446611 1.6717036 1.7113818 1.6639318 1.7000996
1.4813166 1.6499976 1.6964061 1.5885286 1.687146 1.5789897 1.7097266 1.5431765
1.6903629 1.6155242 1.6842524 1.7129053 1.6101497 1.3274864 1.6383451 1.28665
1.6985141 1.6672372 1.647297 1.6188781 1.6285869 1.7101703 1.6235994 1.7033229
1.4743732 1.3746793 1.5405358 1.7047259 1.6147349 1.5960258 1.6678864 1.7140878
1.5647539 1.5898714 1.6737176 1.6914147 1.6627514 1.4264297 1.4774082 1.6423012
1.6799845 1.6627514 1.4657971 1.6796936 1.6394 1.6777866 1.5344758 1.5905362
1.6326858 1.6492327 1.6764468 1.5793593 1.6717036 1.6945128 1.6542941 1.636203
1.7092812 1.7082723 1.7102809 1.5847464 1.6966565 1.6765964 1.6853633 1.6755445
1.6226226 1.6550245 1.6999786 1.5028038 1.3625002 1.5185465 1.63961 1.5947591
1.6788173 1.6912837 1.6895671 1.6660914 1.6542941 1.5626141 1.6632589 1.6886319
00000000: ad1e d43f b45c db3f 870d cf3f 63cb d63f
00000010: 3af6 d43f d72c da3f 89f5 c73f 3713 d73f
00000020: ba54 d93f 9595 ce3f f090 d93f e85e d23f
00000030: aba8 da3f 2ac4 cc3f f888 d93f 48e3 db3f
00000040: 0ad1 da3f 9f1b d93f f7b6 db3f 0f1a d33f
00000050: aeac db3f 9e4e db3f 577b ce3f a8b0 d93f
00000060: 9595 ce3f 1c7f c13f 2b77 b53f a8ea b83f
00000070: 62fa d53f 8f0e db3f b8fb d43f dd9c d93f
00000080: c89b bd3f 1f33 d33f d623 d93f e854 cb3f
00000090: 66f4 d73f 561c ca3f 52d8 da3f cf86 c53f
000000a0: d05d d83f 7fc9 ce3f 9595 d73f 7b40 db3f
000000b0: 6319 ce3f 13eb a93f 4bb5 d13f f2b0 a43f
000000c0: e968 d93f 0768 d53f a1da d23f 6637 cf3f
000000d0: 8975 d03f dce6 da3f 1bd2 cf3f 7c06 da3f
000000e0: 43b8 bc3f 7ef5 af3f 4730 c53f 7534 da3f
000000f0: a2af ce3f 934a cc3f 4d7d d53f 3b67 db3f
00000100: db49 c83f e880 cb3f 613c d63f 4780 d83f
00000110: 0ad5 d43f 4095 b63f b61b bd3f ed36 d23f
00000120: bb09 d73f 0ad5 d43f 3d9f bb3f 3300 d73f
00000130: dcd7 d13f b6c1 d63f b469 c43f b196 cb3f
00000140: d9fb d03f 0f1a d33f cf95 d63f 7228 ca3f
00000150: 62fa d53f cce5 d83f e9bf d33f 1a6f d13f
00000160: bac9 da3f aba8 da3f 7cea da3f f8d8 ca3f
00000170: 0a2c d93f b69a d63f fcb9 d73f 3e78 d63f
00000180: 19b2 cf3f d8d7 d33f e698 d93f e05b c03f
00000190: 6866 ae3f bb5f c23f bede d13f 1121 cc3f
000001a0: 7ce3 d63f fc7b d83f bc43 d83f 7c42 d53f
000001b0: e9bf d33f bd03 c83f abe5 d43f 1725 d83f

model.feature_nns.1.model.1.weight f4 [1, 112]
0.021903425 0.04323037 0.0019495562 0.07540342 0.04383409 0.044212375 0.007677732 0.07778045
0.001676871 0.08629691 0.04070437 0.027464181 0.014241982 0.017107166 0.013509386 0.03245337
0.01694926 -0.015543496 -0.0017464933 0.026048485 0.020271368 0.030907838 0.010375829 0.054765794
0.03861621 0.058684375 0.06680883 -0.0044014915 0.0058187786 0.030816417 0.035444617 0.025812546
0.03864309 0.09100438 -0.014075387 0.022547994 0.016246885 0.034661908 -0.0017596907 0.02870193
0.06198834 0.01287256 0.01815192 0.006686629 -0.001957201 0.02061832 0.029477365 0.023101525
0.019038511 0.011829178 0.03319567 0.042480312 0.0017737008 0.04499268 0.05741126 0.02806689
0.100725025 0.022537664 -0.010680273 0.00436817 0.060541194 0.06251031 0.044995233 0.0028862157
0.04151851 0.022743406 0.008979855 0.012752413 0.033213526 0.011244908 0.08904735 0.030515619
0.021471912 0.006780492 0.039284103 0.017441098 0.04024426 0.0018498995 -0.0014234756 0.019094044
-0.00087774964 0.096237235 0.040815588 0.017975867 0.032310553 0.013774981 0.038324576 0.005906313
0.06645487 0.028446607 -0.0074218223 0.008710304 0.03912615 0.027570568 0.025754862 0.0030244254
0.015815465 0.01951149 -0.009332279 -0.0014192602 0.037901178 0.01790372 0.021927554 0.035367396
-0.00088102836 0.011891982 0.06358699 0.033356223 0.016035937 0.038243633 0.007792983 -0.0029293748
00000000: d06e b33c 5412 313d 4088 ff3a 1c6d 9a3d
00000010: 608b 333d 0918 353d 7c95 fb3b 5b4b 9f3d
00000020: 74ca db3a 6fbc b03d a0b9 263d 90fc e03c
00000030: 3457 693c 5424 8c3c 7956 5d3c d3ed 043d
00000040: 2dd9 8a3c 26aa 7ebc 97ea e4ba a263 d53c
00000050: 2410 a63c 6f32 fd3c 62ff 293c 1952 603d
00000060: 082c 1e3d 075f 703d 11d3 883d 633a 90bb
00000070: 74ab be3b b672 fc3c 602e 113d d574 d33c
00000080: 3748 1e3d 8160 ba3d 749c 66bc 92b6 b83c
00000090: 3018 853c a5f9 0d3d 6ca5 e6ba 4f20 eb3c
000000a0: 7ce7 7d3d 6ee7 523c 56b3 943c 821b db3b
000000b0: 6244 00bb c0e7 a83c 847a f13c 693f bd3c
000000c0: a7f6 9b3c 2bcf 413c 2ff8 073d d6ff 2d3d
000000d0: 867b e83a 3f4a 383d 1228 6b3d 89ec e53c
000000e0: ec48 ce3d e8a0 b83c 50fc 2ebc de22 8f3b
000000f0: 0bfa 773d 6805 803d ec4c 383d aa26 3d3b
00000100: 500f 2a3d 6150 ba3c 3e20 133c 7fef 503c
00000110: e80a 083d 903c 383c 755e b63d e4fb f93c
00000120: dde5 af3c e42e de3b 5ee8 203d a2e0 8e3c
00000130: 2ad7 243d 5478 f23a ea93 baba 1d6b 9c3c
00000140: c818 66ba 0718 c53d 3f2e 273d 2042 933c
00000150: 1258 043d 75b0 613c 3bfa 1c3d bf89 c13b
00000160: 7e19 883d dc08 e93c c232 f3bb aab5 0e3c
00000170: be42 203d acdb e13c dcfb d23c 7035 463b
00000180: 6f8f 813c 8fd6 9f3c 6ae6 18bc 7806 baba
00000190: 443e 1b3d d2aa 923c 6aa1 b33c 67dd 103d
000001a0: d0f4 66ba 96d6 423c e539 823d 89a0 083d
000001b0: cc5d 833c 5ba5 1c3d 485c ff3b c1fa 3fbb

model.feature_nns.2.model.0.weights f4 [1, 274]
1.6548421 1.713013 1.690098 1.4526467 1.664601 1.653004 1.6710767 1.6959043
1.7004623 1.5655975 1.6977746 1.6792566 1.647297 1.6904949 1.7017823 1.5274305
1.5655975 1.6918068 1.7112724 1.5944403 1.5507168 1.4612143 1.6084834 1.6406529
1.5630455 1.6269498 1.620891 1.6613863 1.6962811 1.7035577 1.684531 1.4691002
1.685915 1.6562907 1.708497 1.640445 1.6639318 1.4783995 1.5892022 1.5595428
1.5492523 1.6642672 1.6157858 1.706112 1.6644341 1.4669101 1.6463158 1.5224487
1.5192074 1.6196378 1.6342388 1.6416858 1.5137969 1.5224487 1.6693335 1.5630455
1.5701209 1.5218085 1.1917188 1.6359866 1.6951474 1.5902041 1.6267138 1.5960258
1.6387684 1.4120582 1.3625002 1.5339068 1.6394 1.5436968 1.6710767 1.620891
1.7099488 1.6836929 1.6706039 1.6030275 1.4374717 1.4904693 1.4280854 1.6990045
1.5898714 1.6685319 1.7093925 1.7099488 1.6755445 1.6976509 1.4551712 1.6149986
1.4753951 1.6977746 1.6340185 1.7086093 1.6782293 1.6861897 1.2396163 1.6867368
1.6895671 1.2614334 1.5102632 1.6106995 1.6402371 1.7048422 1.530425 1.2789953
1.5963398 1.6047808 1.51586 1.6198897 1.6818539 1.7049583 1.5655975 1.6276546
1.5693129 1.5224487 1.7158916 1.6065058 1.3687848 1.6856395 1.620891 1.5833365
1.5771251 1.4623799 1.5431765 1.300271 1.6887662 1.6952739 1.5310135 1.6747869
1.7165211 1.5744562 1.4101022 1.387994 1.6139399 1.7153641 1.6203915 1.7197199
1.7098377 1.6796936 1.6664202 1.6414801 1.6756952 1.4733409 1.460035 1.6619004
1.5975872 1.5333346 1.6198897 1.6964061 1.7023772 1.685915 1.6561106 1.5701209
1.7188007 1.6937457 1.6191319 1.6496156 1.6437235 1.6264775 1.71547 1.6945128
1.7205315 1.6238422 1.6557498 1.6796936 1.5467641 1.7172517 1.5767475 1.6115187
1.6278883 1.6264775 1.6233561 1.6098739 1.6965312 1.6771929 1.6991266 1.6794022
1.4878101 1.6181135 1.6664202 1.5410691 1.5321805 1.7174591 1.7066845 1.5908673
1.7020209 1.5467641 1.6675625 1.6925865 1.6910216 1.6333542 1.7081596 1.5705224
1.3485187 1.7182865 1.7042602 1.7143016 1.6891675 1.6767458 1.6825646 1.6073576
1.4947503 1.6295116 1.4539171 1.601245 1.6744822 1.6142058 1.5693129 1.6050704
1.6039078 1.708497 1.5462593 1.6524465 1.65226 1.6157858 1.6654315 1.7202276
1.5356046 1.5356046 1.3951757 1.651699 1.4701777 1.7051902 1.6842524 1.5725076
1.6912837 1.4783995 1.6887662 1.7105023 1.507345 1.7026143 1.5151769 1.6518861
1.716835 1.4913402 1.7053057 1.6274202 1.5004548 1.6916761 1.7079337 1.6874173
1.7143016 1.6067901 1.6981449 1.457633 1.5198642 1.652633 1.6836929 1.6967809
1.6932322 1.5477666 1.6665838 1.6533741 1.5643294 1.5218085 1.6624117 1.6855016
00000000: ded1 d33f 0344 db3f 2255 d83f 54f0 b93f
00000010: a511 d53f a395 d33f d7e5 d53f 6413 d93f
00000020: c0a8 d93f 8065 c83f ae50 d93f e1f1 d63f
00000030: a1da d23f 2362 d83f 01d4 d93f d882 c33f
00000040: 8065 c83f 208d d83f f90a db3f 9f16 cc3f
00000050: e37d c63f 1209 bb3f c9e2 cd3f ea00 d23f
00000060: e011 c83f e43f d03f 5b79 cf3f 4ea8 d43f
00000070: bd1f d93f 2e0e da3f b69e d73f 7a0b bc3f
00000080: 10cc d73f 5501 d43f 08b0 da3f 1afa d13f
00000090: b8fb d43f 323c bd3f fa6a cb3f 199f c73f
000000a0: e64d c63f b506 d53f 12d2 ce3f e161 da3f
000000b0: 2d0c d53f b6c3 bb3f 7aba d23f 99df c23f
000000c0: 6375 c23f 4b50 cf3f bd2e d13f c322 d23f
000000d0: 19c4 c13f 99df c23f b8ac d53f e011 c83f
000000e0: b9f9 c83f 9fca c23f 3e8a 983f 0268 d13f
000000f0: 97fa d83f cf8b cb3f 2838 d03f 934a cc3f
00000100: 2ac3 d13f 53be b43f 6866 ae3f 0f57 c43f
00000110: dcd7 d13f db97 c53f d7e5 d53f 5b79 cf3f
00000120: 9adf da3f 4083 d73f 59d6 d53f 0130 cd3f
00000130: 13ff b73f b3c7 be3f 81cb b63f fb78 d93f
00000140: e880 cb3f 7492 d53f 60cd da3f 9adf da3f
00000150: 3e78 d63f a04c d93f 0d43 ba3f 46b8 ce3f
00000160: bfd9 bc3f ae50 d93f 8527 d13f b6b3 da3f
00000170: 38d0 d63f 10d5 d73f bfab 9e3f fee6 d73f
00000180: bc43 d83f a676 a13f 4e50 c13f 672b ce3f
00000190: 4af3 d13f 4538 da3f f7e4 c33f 1eb6 a33f
000001a0: dd54 cc3f 7569 cd3f b307 c23f 8c58 cf3f
000001b0: fd46 d73f 133c da3f 8065 c83f fc56 d03f
000001c0: 3fdf c83f 99df c23f 56a2 db3f fba1 cd3f
000001d0: 5734 af3f 09c3 d73f 5b79 cf3f c5aa ca3f
000001e0: 3cdf c93f 442f bb3f cf86 c53f 486f a63f
000001f0: 7e29 d83f bcfe d83f 40f8 c33f 6b5f d63f
00000200: f7b6 db3f c887 c93f 3b7e b43f caa9 b13f
00000210: 9595 ce3f 0d91 db3f fd68 cf3f c81f dc3f
00000220: f6db da3f 3300 d73f 424d d53f 051c d23f
00000230: 2e7d d63f 6f96 bc3f 6de2 ba3f 27b9 d43f
00000240: bd7d cc3f 4f44 c43f 8c58 cf3f d623 d93f
00000250: 7fe7 d93f 10cc d73f 6ffb d33f b9f9 c83f
00000260: a901 dc3f a9cc d83f b73f cf3f 9b26 d33f
00000270: 8865 d23f 6a30 d03f 8594 db3f cce5 d83f
00000280: 603a dc3f 10da cf3f 9cef d33f 3300 d73f
00000290: 5efc c53f e7ce db3f ddd2 c93f 3f46 ce3f
000002a0: a55e d03f 6a30 d03f 22ca cf3f 5910 ce3f
000002b0: ef27 d93f 42ae d63f fb7c d93f a7f6 d63f
000002c0: 9070 be3f 581e cf3f 424d d53f c141 c53f
000002d0: 7e1e c43f b3d5 db3f a374 da3f 8aa1 cb3f
000002e0: d2db d93f 5efc c53f b072 d53f ada6 d83f
000002f0: 6573 d83f c011 d13f f9a4 da3f e106 c93f
00000300: 439c ac3f d0f0 db3f 3325 da3f 3c6e db3f
00000310: a436 d83f 9b9f d63f 475e d73f e5bd cd3f
00000320: fa53 bf3f d693 d03f f519 ba3f 99f5 cc3f
00000330: 6f55 d63f 4c9e ce3f 3fdf c83f f272 cd3f
00000340: da4c cd3f 08b0 da3f d3eb c53f 5e83 d33f
00000350: 417d d33f 12d2 ce3f dc2c d53f 6b30 dc3f
00000360: b18e c43f b18e c43f 1e95 b23f df6a d33f
00000370: c82e bc3f ac43 da3f 9595 d73f ee47 c93f
00000380: fc7b d83f 323c bd3f 7e29 d83f bdf1 da3f
00000390: aef0 c03f 44ef d93f 51f1 c13f 0171 d33f
000003a0: 40c1 db3f 3ce4 be3f 7547 da3f 4e4f d03f
000003b0: e70e c03f d888 d83f 929d da3f 4afd d73f
000003c0: 3c6e db3f 4cab cd3f d05c d93f b893 ba3f
000003d0: e98a c23f 7a89 d33f 4083 d73f 1e30 d93f
000003e0: d5bb d83f 371d c63f 9e52 d53f c3a1 d33f
000003f0: f23b c83f 9fca c23f e8c9 d43f 84be d73f

model.feature_nns.2.model.1.weight f4 [1, 274]
-0.004496014 0.01424579 0.0037058457 -0.003423098 0.03940895 0.025512995 0.023145592 -0.0033975441
-0.013855565 -0.0064444104 0.0096164765 0.02510098 0.038462773 0.047408614 0.04581761 -0.0063656466
0.05230818 -0.0025963276 0.006678078 0.01031884 0.018163411 0.036639854 0.009189509 -0.0019026152
0.060341336 -0.0016003232 0.04478269 0.008453933 0.020417135 0.012706391 0.021021921 -0.0060711023
0.022013396 0.025564615 0.012059946 0.013646792 -0.008450786 0.058284175 0.05820172 0.041840304
0.024835557 0.00935504 0.020533664 0.05158502 -0.00038168998 0.06643603 -0.004889449 0.017256377
0.061578188 0.05609448 0.012565801 0.021318883 0.0151162 0.013069566 0.03996478 0.031148428
0.03905617 0.030292235 0.022376945 0.010715164 -0.0024795379 0.028930463 0.023108438 0.019525511
0.02972054 0.0228837 0.058954123 -0.004766451 0.04539095 0.057088103 0.022675045 0.009251927
0.034195393 0.019004716 0.06668709 0.0718641 0.010669431 0.0051315674 -0.003983521 0.011288062
0.023016375 0.04363984 0.008910373 0.0075053545 -0.008183548 0.06093574 0.037413355 0.04003943
0.019209756 0.00090039545 0.015564239 0.006817746 0.022894414 0.034474768 0.018585164 0.021866731
0.021205373 0.047510646 -0.0072573214 0.022792954 0.032175694 0.0256699 0.022496799 0.025742121
0.057797495 0.02060896 0.03553345 0.059968196 0.003603977 0.018087128 0.012326909 7.97729e-05
0.0054362477 0.017419353 -0.018087976 0.02748901 0.0088072345 0.0382168 0.007927415 0.049369566
0.0032569938 0.019133525 0.062718265 0.03268868 0.013432967 0.013796512 0.025585797 0.03087518
0.0028043739 -0.012084108 -0.006179723 0.001459996 0.014381697 0.013874227 0.0038030213 0.006294647
0.0059933704 0.0040828795 0.020521272 0.024773791 -0.0062987194 0.033888206 0.010119505 -0.0023692613
-0.00599193 0.032974042 0.032720666 -0.00011031376 0.028188407 0.03757464 0.039328706 0.022368733
0.0053838077 0.043976966 0.065843515 0.045576137 0.03298396 0.038700156 -0.018970655 0.02278761
0.00014349399 -0.006285388 0.0089895865 0.01571851 0.009342703 -0.00075434893 0.0020095706 0.013043318
0.021682441 0.012921076 0.009334378 0.064521484 0.041693576 -0.0015306948 0.00025305874 0.005574444
0.07270751 0.039586768 0.00454338 -0.0055550616 0.048386563 -0.01201793 0.051042266 0.030591741
-0.018597355 0.061966963 -0.004997632 -0.0076837786 0.03775575 0.0243997 0.064533025 0.022681564
0.012139742 0.050695546 0.007484995 -0.0050240345 0.016734468 0.034450773 0.02498945 6.080605e-05
0.046101518 0.006224943 0.033800103 0.053451244 0.05418429 -0.0014206001 0.021301681 -9.242026e-05
0.06063229 0.030827867 0.024622886 0.025645265 0.019022334 0.05533594 0.0450322 0.026777908
0.057038724 0.065796226 0.036394015 -0.001956222 -0.018568296 0.024884658 0.018556226 0.0040630195
0.058298446 0.06373395 -0.003848202 0.06488502 0.03290331 0.039159708 0.050637543 0.008773861
0.01019414 0.03673799 0.044817667 -0.019410126 0.01911898 0.024074724 0.028350811 0.028260902
0.028747737 0.014340753 0.018146858 0.02300343 0.045603883 -0.0028826864 0.026295032 0.012961631
0.020868398 0.028602425 -0.0063468753 0.032345854 -0.001086209 0.017238414 0.016580574 0.010180515
00000000: 4d53 93bb 2d67 693c c6dd 723b 0e56 60bb
00000010: 476b 213d a100 d13c d39b bd3c 55a9 5ebb
00000020: 7402 63bc a22b d3bb 6d8e 1d3c 92a0 cd3c
00000030: 248b 1d3d 892f 423d 3fab 3b3d ea96 d0bb
00000040: 1a41 563d 2627 2abb c7d3 da3b 5a10 293c
00000050: 6fcb 943c ac13 163d 988f 163c 2c61 f9ba
00000060: 7a28 773d f0c1 d1ba 0e6e 373d 5d82 0a3c
00000070: d641 a73c 772e 503c 2a36 ac3c 19f0 c6bb
00000080: 7055 b43c e26c d13c 1497 453c cb96 5f3c
00000090: 2a75 0abc 63bb 6e3d ed64 6e3d bd60 2b3d
000000a0: f073 cb3c e245 193c 3736 a83c d04a 533d
000000b0: 901d c8b9 9d0f 883d ac37 a0bb 3f5d 8d3c
000000c0: 6939 7c3d 53c3 653d cae0 4d3c f0a4 ae3c
000000d0: f0a9 773c bc21 563c 1cb2 233d fd2a ff3c
000000e0: 5df9 1f3d 6c27 f83c db4f b73c a88e 2f3c
000000f0: be7f 22bb 94ff ec3c e84d bd3c f7f3 9f3c
00000100: 7d78 f33c 9976 bb3c e179 713d e42f 9cbb
00000110: dceb 393d 37d5 693d 04c1 b93c 6595 173c
00000120: 7810 0c3d c7af 9b3c 3e93 883d 7c2d 933d
00000130: d6ce 2e3c b526 a83b 3288 82bb 90f1 383c
00000140: d68c bc3c b0bf 323d d0fc 113c 7aef f53b
00000150: 4a14 06bc c197 793d bf3e 193d 6300 243d
00000160: c75d 9d3c 8408 6c3a 2601 7f3c 6667 df3b
00000170: 118d bb3c 6a35 0d3d ea3f 983c dc21 b33c
00000180: e4b6 ad3c 869a 423d d3ce edbb 4ab8 ba3c
00000190: a9ca 033d af49 d23c 354b b83c 24e1 d23c
000001a0: 11bd 6c3d 1fd4 a83c 868b 113d 36a1 753d
000001b0: b330 6c3b 752b 943c cef6 493c c04b a738
000001c0: 8d22 b23b 08b3 8e3c 3c2d 94bc a230 e13c
000001d0: 384c 103c 3889 1c3d fde1 013c be37 4a3d
000001e0: 4a73 553b e9bd 9c3c 6f72 803d 91e4 053d
000001f0: f215 5c3c c40a 623c 4e99 d13c f2ed fc3c
00000200: 96c9 373b 6cfc 45bc 467f cabb 565d bf3a
00000210: 36a1 6b3c ba50 633c 1c3c 793b 5443 ce3b
00000220: 0964 c43b adc9 853b 3a1c a83c 68f2 ca3c
00000230: 7d65 cebb 5cce 0a3d 48cc 253c 9c45 1bbb
00000240: f457 c4bb ca0f 073d 1b06 063d 4058 e7b8
00000250: 60eb e63c dee7 193d 2317 213d a23e b73c
00000260: a76a b03b 3121 343d f7d8 863d 0bae 3a3d
00000270: 301a 073d 0e84 1e3d 5968 9bbc 15ad ba3c
00000280: e076 1639 a8f5 cdbb 0f49 133c 1bc4 803c
00000290: 2312 193c 80bf 45ba 00b3 033b a4b3 553c
000002a0: 609f b13c ecb2 533c 38ef 183c d723 843d
000002b0: e2c6 2a3d 98a1 c8ba f8ac 8439 d3a9 b63b
000002c0: ade7 943d bc25 223d a2e0 943b 3c07 b6bb
000002d0: fd30 463d dae6 44bc b211 513d 889b fa3c
000002e0: 7b59 98bc 12d1 7d3d 2dc3 a3bb 35c8 fbbb
000002f0: c6a5 1a3d e1e1 c73c e429 843d b0ce b93c
00000300: c5e5 463c 22a6 4f3d b044 f53b a8a0 a4bb
00000310: b916 893c 411c 0d3d adb6 cc3c 000a 7f38
00000320: f2d4 3c3d 9bfa cb3b fa71 0a3d b1ef 5a3d
00000330: 59f0 5d3d 6e33 baba dd80 ae3c c0d1 c1b8
00000340: 9059 783d b98a fc3c efb5 c93c 0516 d23c
00000350: bad4 9b3c f0a7 623d af73 383d 585d db3c
00000360: 70a1 693d 2cc0 863d e411 153d f633 00bb
00000370: 8a1c 98bc e9da cb3c 3a03 983c 1423 853b
00000380: 5aca 6e3d f286 823d 1e32 7cbb 70e2 843d
00000390: 9fc5 063d ee65 203d 5069 4f3d 3ec0 0f3c
000003a0: 5205 273c 937a 163d bb92 373d fc01 9fbc
000003b0: 689f 9c3c 5b38 c53c f63f e83c 6883 e73c
000003c0: 6080 eb3c 7af5 6a3c b8a8 943c b071 bc3c
000003d0: 23cb 3a3d 74eb 3cbb ae68 d73c 055d 543c
000003e0: 34f4 aa3c a24f ea3c 73f9 cfbb 167d 043d
000003f0: 205f 8eba 9337 8d3c fcd3 873c 2dcc 263c

model.feature_nns.3.model.0.weights f4 [1, 338]
1.6571862 1.6183691 1.6627514 1.5502311 1.7181833 1.5383732 1.5058539 1.7106125
1.5800936 1.662071 1.7047259 1.6981449 1.708497 1.5497427 1.6617291 1.6433189
1.5549915 1.6796936 1.5947591 1.6817112 1.6437235 1.6617291 1.6036153 1.7177702
1.5595428 1.6578974 1.4344419 1.5004548 1.5721135 1.5043404 1.670129 1.6053587
1.4344419 1.6943855 1.5198642 1.706112 1.5372746 1.6950207 1.6985141 1.642913
1.7003415 1.6348978 1.6791102 1.6090415 1.684531 1.7011842 1.5881901 1.6084834
1.300271 1.5725076 1.6400282 1.5957104 1.5286385 1.4964134 1.7080468 1.429714
1.5123984 1.6003425 1.7071404 1.5378256 1.6036153 1.5604296 1.6149986 1.6863266
1.637707 1.5892022 1.6389793 1.6991266 1.694767 1.6340185 1.7029692 1.5410691
1.5378256 1.6941301 1.6770438 1.6087626 1.6342388 1.6513231 1.4832155 1.5815469
1.5130998 1.6818539 1.6726377 1.6841128 1.7163119 1.3854756 1.5864823 1.5871689
1.6872815 1.5982062 1.6707617 1.7147279 1.6467096 1.5028038 1.682989 1.6985141
1.616047 1.387994 1.7097266 1.6499976 1.5066022 1.6126016 1.7027328 1.6248082
1.503575 1.6818539 1.5599873 1.6513231 1.662921 1.5004548 1.5822666 1.5211648
1.7065703 1.6437235 1.6342388 1.6786706 1.5218085 1.5521613 1.4878101 1.5595428
1.6346786 -1.7206042 1.4344419 1.6906265 1.5416003 1.4081061 1.6465127 1.4039856
1.4374717 1.6018424 1.6084834 1.5116916 1.5871689 1.7192101 1.716835 1.6934893
1.6181135 1.6720159 1.689434 1.5192074 1.6895671 1.4039856 1.5881901 1.7003415
1.5701209 1.5604296 1.7046096 1.6982679 1.6471014 1.7150463 1.4101022 1.6938742
1.6400282 1.7007036 1.7000996 1.4646711 1.6987596 1.680995 1.4195094 1.6435213
1.6786706 1.7066845 1.5759895 1.4344419 1.5705224 1.6218839 1.6451268 1.5793593
1.6451268 1.6969056 1.457633 1.6667476 1.7126888 1.6410675 1.6109732 1.7131213
1.6707617 1.674177 1.6039078 1.6240842 1.6665838 1.4774082 1.6238422 1.6680484
1.517212 1.6659269 1.6134064 1.7124718 1.6934893 1.6999786 1.6213888 1.6555688
1.5840436 1.7147279 1.6507571 1.5581982 1.7163119 1.6157858 1.708497 1.5344758
1.7097266 1.5763694 1.4878101 1.6474919 1.5854442 1.7193122 1.5833365 1.6288189
1.6889 1.6962811 1.6115187 1.5994322 1.6899657 1.6911525 1.6311104 1.6447277
1.6743298 1.5563776 1.5819075 1.6433189 1.4947503 1.7192101 1.300271 1.6095971
1.6322384 1.5178816 1.6637642 1.6652662 1.5058539 1.6987596 1.5262078 1.6548421
1.702496 1.650946 1.6814251 1.6562907 1.645723 1.4120582 1.6550245 1.6550245
1.6682096 1.6792566 1.5058539 1.6402371 1.6537431 1.6699703 1.6978981 1.7095044
1.5497427 1.6274202 1.6372794 1.597897 1.5759895 1.6870095 1.6959043 1.4939084
00000000: ad1e d43f b826 cf3f 0ad5 d43f f96d c63f
00000010: 6eed db3f 6ae9 c43f d2bf c03f 5af5 da3f
00000020: 8240 ca3f bebe d43f 7534 da3f d05c d93f
00000030: 08b0 da3f f85d c63f 8ab3 d43f 4658 d23f
00000040: f609 c73f 3300 d73f 1121 cc3f 5042 d73f
00000050: 8865 d23f 8ab3 d43f 4443 cd3f e5df db3f
00000060: 199f c73f fb35 d43f cb9b b73f e70e c03f
00000070: 043b c93f 3a8e c03f c9c6 d53f 657c cd3f
00000080: cb9b b73f a0e1 d83f e98a c23f e161 da3f
00000090: 6ac5 c43f 70f6 d83f e968 d93f f94a d23f
000000a0: caa4 d93f 5544 d13f 15ed d63f 12f5 cd3f
000000b0: b69e d73f 67c0 d93f d049 cb3f c9e2 cd3f
000000c0: 486f a63f ee47 c93f 72ec d13f 3d40 cc3f
000000d0: 6daa c33f 798a bf3f 47a1 da3f de00 b73f
000000e0: 4596 c13f 06d8 cc3f 9483 da3f 78d7 c43f
000000f0: 4443 cd3f 28bc c73f 46b8 ce3f 8dd9 d73f
00000100: 62a0 d13f fa6a cb3f 13ca d13f fb7c d93f
00000110: 20ee d83f 8527 d13f e5fa d93f c141 c53f
00000120: 78d7 c43f 41d9 d83f 5fa9 d63f efeb cd3f
00000130: bd2e d13f 8e5e d33f 01da bd3f 2170 ca3f
00000140: 41ad c13f fd46 d73f fe18 d63f 0291 d73f
00000150: 1cb0 db3f 4457 b13f da11 cb3f 5a28 cb3f
00000160: d7f8 d73f 0592 cc3f 85db d53f 347c db3f
00000170: 61c7 d23f e05b c03f 2f6c d73f e968 d93f
00000180: a1da ce3f caa9 b13f 52d8 da3f 1f33 d33f
00000190: 57d8 c03f bb69 ce3f 26f3 d93f b7f9 cf3f
000001a0: 2575 c03f fd46 d73f aaad c73f 8e5e d33f
000001b0: 98da d43f e70e c03f b687 ca3f 87b5 c23f
000001c0: e570 da3f 8865 d23f bd2e d13f aede d63f
000001d0: 9fca c23f 39ad c63f 9070 be3f 199f c73f
000001e0: 263d d13f c23c dcbf cb9b b73f 7366 d83f
000001f0: 2953 c53f d23c b43f eec0 d23f cdb5 b33f
00000200: 13ff b73f 2c09 cd3f c9e2 cd3f 1c7f c13f
00000210: 5a28 cb3f 140f dc3f 40c1 db3f 42c4 d83f
00000220: 581e cf3f 9e04 d63f 603f d83f 6375 c23f
00000230: bc43 d83f cdb5 b33f d049 cb3f caa4 d93f
00000240: b9f9 c83f 28bc c73f a630 da3f d860 d93f
00000250: 38d4 d23f a386 db3f 3b7e b43f dfd0 d83f
00000260: 72ec d13f a8b0 d93f dd9c d93f 587a bb3f
00000270: f470 d93f d82a d73f 7cb2 b53f e85e d23f
00000280: aede d63f a374 da3f 06ba c93f cb9b b73f
00000290: e106 c93f e499 cf3f 8493 d23f 7228 ca3f
000002a0: 8493 d23f 3434 d93f b893 ba3f fc57 d53f
000002b0: 6339 db3f 800e d23f 5f34 ce3f 8f47 db3f
000002c0: 85db d53f 6f4b d63f da4c cd3f fee1 cf3f
000002d0: 9e52 d53f b61b bd3f 10da cf3f 9c82 d53f
000002e0: 0134 c23f 183d d53f 1a84 ce3f 4732 db3f
000002f0: 42c4 d83f e698 d93f ab89 cf3f aee9 d33f
00000300: f1c1 ca3f 347c db3f 024c d33f 0a73 c73f
00000310: 1cb0 db3f 12d2 ce3f 08b0 da3f b469 c43f
00000320: 52d8 da3f 79c6 c93f 9070 be3f 04e1 d23f
00000330: d6ef ca3f 6c12 dc3f c5aa ca3f 237d d03f
00000340: e02d d83f bd1f d93f 3f46 ce3f 32ba cc3f
00000350: cc50 d83f af77 d83f 3ac8 d03f 7086 d23f
00000360: 7050 d63f 6237 c73f f27b ca3f 4658 d23f
00000370: fa53 bf3f 140f dc3f 486f a63f 4707 ce3f
00000380: 30ed d03f f249 c23f 3af6 d43f 7127 d53f
00000390: d2bf c03f f470 d93f c75a c33f ded1 d33f
000003a0: 64eb d93f 3352 d33f f038 d73f 5501 d43f
000003b0: 0da7 d23f 53be b43f d8d7 d33f d8d7 d33f
000003c0: e487 d53f e1f1 d63f d2bf c03f 4af3 d13f
000003d0: dbad d33f 96c1 d53f ba54 d93f 0ad1 da3f
000003e0: f85d c63f 4e4f d03f 5f92 d13f e487 cc3f
000003f0: 06ba c93f edef d73f 6413 d93f 6438 bf3f

model.feature_nns.3.model.1.weight f4 [1, 338]
-0.00546052 0.04592252 0.004449329 0.07550132 0.04566476 0.079311654 0.022910174 0.07003004
0.06764863 -0.01166454 0.009979675 0.0046388465 0.071962774 0.07066688 0.05481403 -0.0041268757
-0.0031129115 0.017847193 0.0054543754 -7.365295e-05 0.04451736 0.07651236 0.013287844 -0.0024332756
0.024530519 0.01819542 0.018639086 -0.0027649929 0.010800212 -0.0016564594 0.026850045 -0.00054772035
-0.0016040285 0.06568067 0.014201358 0.052238557 0.016620303 0.06053019 0.008561537 0.03356032
0.010083785 0.026519857 0.026076123 0.027711038 0.0308197 0.01717658 0.013167291 0.0076244017
-0.013743755 0.0025437372 0.06546094 0.01299336 0.019390708 0.033059955 0.03890064 0.055717602
0.022229342 -0.01631869 0.029527422 0.06011263 0.07344024 -0.002026129 0.02513323 0.0757493
-0.0058419174 0.044647828 -0.0014390422 0.023040323 0.0001121033 0.05280333 0.0058045276 0.024894226
0.06752026 0.02475998 0.01392096 0.025606168 0.04555728 0.0030414283 -0.0011958638 0.037389286
0.008816674 0.004549202 6.638793e-05 0.012343867 0.05694389 0.018062333 0.050043806 0.07580989
0.0027088085 -0.016539447 0.044932943 0.008708917 0.022346174 0.027864791 -0.0020956618 0.07503589
0.028864315 0.014200499 0.06431658 0.019421035 0.004850477 0.027861904 0.022841217 0.019355634
0.036753546 0.047747158 0.0372919 0.01642482 -0.006426381 0.017798774 0.00046161213 -0.0030295285
0.029692333 0.05968863 0.026293684 0.01504815 0.07995249 0.008209567 0.05637255 0.0027797837
0.00454171 -0.006087033 0.08256945 -0.0028002793 0.022043789 0.004700587 0.01753215 0.003700484
0.034031775 -0.0028421876 0.026618369 0.039075598 0.05417699 0.0037057723 0.072978236 0.027546838
-0.002549287 0.011692671 0.010795049 0.0072250054 -0.018835314 0.0761662 0.015363688 0.018156283
0.010005785 0.017510733 0.050352726 0.033471428 -0.0052914806 -0.0005498582 0.005402617 0.043298777
0.07060045 0.016653571 -0.002532139 -0.002421557 0.07301114 0.004024445 0.027653866 0.000995137
-0.0037270447 0.023225978 0.008491737 0.026549906 0.03821196 0.045687415 0.015631117 0.001913191
0.048103206 0.017421784 -0.01653454 0.056350905 0.055559732 0.027058285 -0.013510843 -0.0005428421
0.0042284485 0.027638126 -0.004133253 0.016875891 0.019250719 0.06308461 0.01761759 -0.00069280365
-0.005895028 0.019377144 0.045215465 0.039034657 0.03934409 0.027993793 0.019352164 0.008443949
0.00037366338 0.04253508 0.02096866 0.08177616 -0.0006730701 0.04024025 0.056568623 0.016097916
0.023650805 0.047691558 -0.0060432465 0.032524213 -0.002833013 -0.0024507577 -0.0027718404 0.010598357
0.040163215 0.019763658 0.027969593 0.05128048 -0.019418849 -0.0019546053 0.07666997 0.011695669
0.07736076 -0.019028442 0.006534211 0.04015232 -0.0011299308 -9.173504e-05 0.07850701 0.06967058
0.021693686 0.05495286 0.012842979 0.03473618 0.009299922 -0.019371841 0.024490764 0.05525461
-0.019405035 -0.0042916304 0.014171316 0.005917833 0.04287394 0.011116464 0.04204637 0.0043158717
-0.0029209857 0.073279984 0.0104396725 0.027244993 0.009862544 0.008335922 0.012781332 -0.002349589
0.028119748 0.004424902 0.04525231 0.018895492 0.010807434 0.02522215 0.026288003 0.026557
00000000: 29ee b2bb 4119 3c3d adcb 913b 70a0 9a3d
00000010: f90a 3b3d 266e a23d 1eae bb3c e96b 8f3d
00000020: 5d8b 8a3d a01c 3fbc ca81 233c 7701 983b
00000030: 3861 933d ccb9 903d ad84 603d be3a 87bb
00000040: fd01 4cbb 4734 923c 9eba b23b 2076 9ab8
00000050: d657 363d 83b2 9c3d 42b5 593c 9777 1fbb
00000060: 3af4 c83c 900e 953c ffb0 983c e234 35bb
00000070: 5ff3 303c 8e1d d9ba a0f4 db3c e494 0fba
00000080: 443e d2ba 9683 863d d0ac 683c 19f8 553d
00000090: 4d27 883c 81ee 773d b045 0c3c 8c76 093d
000000a0: 7636 253c 2c40 d93c 989d d53c 4202 e33c
000000b0: 9879 fc3c e6b5 8c3c 9fbb 573c 1ed6 f93b
000000c0: 7d2d 61bc d4b4 263b 6310 863d 1ae2 543c
000000d0: 43d9 9e3c e069 073d 4756 1f3d 2438 643d
000000e0: 4f1a b63c c6ae 85bc 7ee3 f13c a938 763d
000000f0: d667 963d cec8 04bb 34e4 cd3c 7322 9b3d
00000100: 8e6d bfbb a4e0 363d 3e9e bcba 0fbf bc3c
00000110: 0019 eb38 4e48 583d e833 be3b faee cb3c
00000120: 1048 8a3d 71d5 ca3c bd14 643c 07c4 d13c
00000130: 459a 3a3d b352 473b 88be 9cba 8225 193d
00000140: d073 103c 7911 953b c039 8b38 ee3d 4a3c
00000150: ff3d 693d 75f7 933c bcfa 4c3d 3742 9b3d
00000160: 4486 313b bc7d 87bc 9b0b 383d d8af 0e3c
00000170: 530f b73c b444 e43c 5f57 09bb 6bac 993d
00000180: db74 ec3c 36a9 683c 69b8 833d dd18 9f3c
00000190: c0f0 9e3b a63e e43c 811d bb3c b58f 9e3c
000001a0: e38a 163d 8692 433d 64bf 183d 588d 863c
000001b0: 6494 d2bb bcce 913c 8804 f239 0e8b 46bb
000001c0: 563d f33c 117c 743d da65 d73c 848c 763c
000001d0: 22be a33d 6b81 063c e7e6 663d 082d 363b
000001e0: a0d2 943b bc75 c7bb 2c1a a93d e484 37bb
000001f0: 2d95 b43c 6207 9a3b 959f 8f3c d283 723b
00000200: e764 0b3d ff43 3abb c40e da3c bc0d 203d
00000210: b1e8 5d3d 8bdc 723b 9d75 953d e8a9 e13c
00000220: f011 27bb 9e92 3f3c b8dd 303c bdbf ec3b
00000230: 844c 9abc 06fd 9b3d fab7 7b3c 7cbc 943c
00000240: 4eef 233c ab72 8f3c a93e 4e3d 5619 093d
00000250: 2864 adbb 5c24 10ba 7008 b13b 0f5a 313d
00000260: f896 903d 126d 883c 3ef2 25bb fcb2 1ebb
00000270: dd86 953d 7edf 833b 5c8a e23c 426f 823a
00000280: 6f41 74bb 6844 be3c ed20 0b3c 307f d93c
00000290: 2584 1c3d ba22 3b3d d40c 803c 0ac4 fa3a
000002a0: de07 453d 21b8 8e3c 7273 87bc 35d0 663d
000002b0: 9a92 633d 56a9 dd3c 955c 5dbc 844d 0eba
000002c0: cc8e 8a3b 5a69 e23c 3d70 87bb 4f3f 8a3c
000002d0: afb3 9d3c 8132 813d c452 903c 449d 35ba
000002e0: 142b c1bb d1bc 9e3c da33 393d cee2 1f3d
000002f0: 4527 213d 3d53 e53c 6e88 9e3c 7d58 0a3c
00000300: 40e8 c339 4439 2e3d 78c6 ab3c 427a a73d
00000310: f870 30ba f6d2 243d 80b4 673d c7df 833c
00000320: 55bf c13c 3958 433d 6d06 c6bb 1c38 053d
00000330: 12aa 39bb e49c 20bb c4a7 35bb bba4 2d3c
00000340: 2f82 243d 65e7 a13c 7d20 e53c 7b0b 523d
00000350: 4714 9fbc d618 00bb 2505 9d3d 319f 3f3c
00000360: 516f 9e3d 89e1 9bbc ef1c d63b c276 243d
00000370: 301a 94ba e061 c0b8 49c8 a03d 73af 8e3d
00000380: f5b6 b13c 4016 613d 5c6b 523c 8647 0e3d
00000390: b35e 183c b2b1 9ebc dba0 c83c a852 623d
000003a0: 4ff7 9ebc cea0 8cbb cf2e 683c 62ea c13b
000003b0: 969c 2f3d d421 363c d138 2c3d 286c 8d3b
000003c0: 026e 3fbb d113 963d 290b 2b3c e430 df3c
000003d0: 8296 213c 6493 083c cb68 513c 90fb 19bb
000003e0: 635b e63c c5fe 903b 7c5a 393d b8ca 9a3c
000003f0: aa11 313c af9e ce3c f059 d73c 118e d93c

exp_avg f4 [1, 244]
0.9411063 1.0126553 1.0142896 1.1236243 1.0957264 1.2625653 1.2548342 1.2187634
0.83789533 0.65620357 1.0448653 0.8724393 1.0793122 1.0392841 1.2535473 1.1919743
1.1521573 0.99053234 0.9683082 1.0662915 1.139932 0.9511992 1.1517675 0.89296997
0.7947055 1.1033701 0.9115003 1.1327661 0.85890657 0.9356933 0.7693453 0.86375
1.1969945 1.0134487 1.0752475 1.19038 1.1777127 0.8755165 1.2146319 0.7433879
0.95690775 0.97701234 1.1476879 0.8993041 0.9604176 1.0893624 1.0624007 0.978388
1.0972238 1.2836554 1.1221235 1.1941524 1.1684525 0.99596715 1.2128358 1.1496937
0.88905287 0.8563913 1.0308822 1.1970296 0.9962569 1.2060345 1.189077 0.89329815
0.8140924 0.76082045 1.271102 1.1926637 1.2166872 0.78961086 0.82781476 1.2310361
1.1773057 0.7740543 0.89806587 1.0038667 0.87973094 0.77727103 1.2526182 1.2297347
0.9817656 0.8576688 0.9882827 1.0666473 0.90968883 1.1530275 1.245519 0.9850002
1.142796 1.2958208 1.2055676 1.1424891 1.0490696 0.95805883 1.2617751 0.66254133
0.9400846 0.7585127 1.2208184 0.8014131 1.0413814 1.21764 0.99266136 0.90188104
1.0997748 0.8219823 1.1122476 1.2279131 0.84761155 1.1040332 1.1295829 0.81532466
0.94469315 1.147043 0.8285963 1.2357498 0.82804495 1.029601 0.8568086 1.1023139
1.0384439 1.3006939 1.1240739 1.0197191 0.8735043 0.92505205 1.1687952 1.058982
1.0011809 0.85022074 1.1995374 1.123239 0.9122803 0.9298433 1.0618554 0.9594654
0.81798923 1.2618682 1.0713595 0.9501902 1.1304501 1.2447631 1.0606323 0.9410694
0.8875511 1.215163 1.1315662 1.0286412 0.8597081 1.2972314 0.90713054 0.7823242
0.81350756 0.9642518 0.92860866 1.1590413 0.8996795 0.9696418 1.0464977 1.0342278
0.82070667 0.888563 1.304621 1.0069182 1.173407 1.0497372 0.95031226 1.0790697
0.7450281 0.8631728 1.0477682 0.7915757 1.1276971 0.9740651 1.1149032 0.7199833
1.2645212 1.194867 0.9883163 0.9441322 0.976194 1.2534597 0.82984585 0.79054743
0.6526243 0.96218204 1.0486555 1.2648407 0.9453194 0.8155629 1.1403584 1.2544127
1.1849825 0.89720225 1.2112132 0.7662291 0.87922484 0.8311344 1.0733963 1.1550286
1.2536467 0.93271744 0.8775695 0.88160855 0.9128025 1.3094512 0.79087096 0.81422126
0.8345887 1.253483 0.8312276 1.0641909 1.0024786 1.1910189 0.940222 0.89787775
1.0290632 1.2040032 1.1386818 0.9857386 1.0799435 0.75810635 1.082033 0.7798853
1.0082343 1.236954 1.1541393 1.1180154 0.80674034 1.1704373 0.7836891 0.87494045
0.9809255 1.0198772 1.2641559 0.8096963 1.1001197 0.8041615 1.1825658 0.81486404
0.68541586 0.9069701 1.2735682 0.783277
00000000: 58ec 703f b09e 813f 3ed4 813f ecd2 8f3f
00000010: c340 8c3f bd9b a13f 689e a03f 7000 9c3f
00000020: 4f80 563f f5fc 273f 25be 853f 2f58 5f3f
00000030: e726 8a3f 4307 853f 3d74 a03f 9d92 983f
00000040: e479 933f 8793 7d3f 0ce3 773f 3d7c 883f
00000050: 4be9 913f ca81 733f 1e6d 933f ae99 643f
00000060: d271 4b3f 3b3b 8d3f 1558 693f 7bfe 903f
00000070: 4de1 5b3f 9989 6f3f d0f3 443f b81e 5d3f
00000080: 1e37 993f b0b8 813f b6a1 893f 5f5e 983f
00000090: 4abf 963f d921 603f 0f79 9b3f ab4e 3e3f
000000a0: e8f7 743f 7b1d 7a3f 70e7 923f cb38 663f
000000b0: eedd 753f 3a70 8b3f bffc 873f a377 7a3f
000000c0: d471 8c3f d24e a43f bea1 8f3f fcd9 983f
000000d0: da8f 953f b4f7 7e3f 343e 9b3f 2a29 933f
000000e0: f898 633f 763c 5b3f f3f3 833f 4438 993f
000000f0: b10a 7f3f 575f 9a3f ad33 983f 30af 643f
00000100: 5c68 503f 21c5 423f 78b3 a23f 34a9 983f
00000110: 68bc 9b3f f023 4a3f abeb 533f 9792 9d3f
00000120: f4b1 963f 6c28 463f a5e7 653f b47e 803f
00000130: 0c36 613f 3cfb 463f cb55 a03f f267 9d3f
00000140: fe54 7b3f 2f90 5b3f 1800 7d3f e687 883f
00000150: 5ee1 683f 6896 933f 2b6d 9f3f f928 7c3f
00000160: 2447 923f 75dd a53f 0a50 9a3f 153d 923f
00000170: ea47 863f 5843 753f d981 a13f 4f9c 293f
00000180: 62a9 703f e32d 423f c743 9c3f 6929 4d3f
00000190: fc4b 853f a1db 9b3f 0e1f 7e3f ade1 663f
000001a0: 6cc5 8c3f 6f6d 523f 215e 8e3f 422c 9d3f
000001b0: 12fd 583f f650 8d3f 2c96 903f 1eb9 503f
000001c0: 69d7 713f 4ed2 923f e31e 543f 0d2d 9e3f
000001d0: c1fa 533f f7c9 833f cf57 5b3f 9f18 8d3f
000001e0: bbeb 843f 237d a63f a7e1 8f3f 2886 823f
000001f0: fa9d 5f3f 36d0 6c3f 159b 953f b98c 873f
00000200: b226 803f 11a8 593f 718a 993f 4cc6 8f3f
00000210: 348b 693f 360a 6e3f e1ea 873f 869f 753f
00000220: be67 513f e684 a13f 4f22 893f aa3f 733f
00000230: 97b2 903f 6654 9f3f cdc2 873f ede9 703f
00000240: 8d36 633f 768a 9b3f 29d7 903f 84aa 833f
00000250: d415 5c3f ae0b a63f b539 683f 6646 483f
00000260: 0842 503f 35d9 763f 4cb9 6d3f 775b 943f
00000270: 6551 663f 723a 783f a3f3 853f 9461 843f
00000280: d519 523f dd78 633f d2fd a63f b2e2 803f
00000290: 3332 963f ca5d 863f aa47 733f f51e 8a3f
000002a0: 29ba 3e3f e5f8 5c3f 451d 863f b4a4 4a3f
000002b0: 6158 903f 555c 793f 26b5 8e3f d350 383f
000002c0: d5db a13f 67f1 983f 4c02 7d3f a6b2 713f
000002d0: dae7 793f 5e71 a03f c770 543f 5161 4a3f
000002e0: 6312 273f 9051 763f 583a 863f 4de6 a13f
000002f0: 7400 723f bbc8 503f 44f7 913f 9890 a03f
00000300: 82ad 973f 0caf 653f 0909 9b3f 9727 443f
00000310: e114 613f 39c5 543f 0d65 893f fad7 933f
00000320: 7f77 a03f 92c6 6e3f 65a8 603f 19b1 613f
00000330: 6dad 693f 199c a73f 8576 4a3f ce70 503f
00000340: 9ba7 553f 2272 a03f 55cb 543f 6837 883f
00000350: 3851 803f 4f73 983f 64b2 703f 51db 653f
00000360: 58b8 833f c71c 9a3f 53c0 913f 5d59 7c3f
00000370: 973b 8a3f 4213 423f 0f80 8a3f 90a6 473f
00000380: d20d 813f 8254 9e3f d6ba 933f 211b 8f3f
00000390: 8986 4e3f e4d0 953f d99f 483f 19fc 5f3f
000003a0: ef1d 7b3f 568b 823f dccf a13f 4248 4f3f
000003b0: b9d0 8c3f 87dd 4d3f 515e 973f ee9a 503f
000003c0: 6a77 2f3f 312f 683f 4804 a33f d784 483f
