GolfFeedback-poc/src/s3_NAM_model/output/BS/0/checkpoints/epoch=07-val_loss=3143.8672.ckpt (torch, 48078 bytes, 24 tensors)

model.feature_nns.0.model.0.weights f4 [1, 244]
0	0x3fcea0bf	1.6142806
1	0x3fe276df	1.7692527
2	0x3fdfa65c	1.7472644
3	0x3fdfd035	1.7485415
4	0x3fe2a79c	1.77074
5	0x3fd4e5c8	1.6632624
6	0x3fe1406a	1.7597783
7	0x3fe29714	1.7702355
8	0x3fdc601d	1.7216831
9	0x3fb2e7b2	1.3976958
10	0x3fae0c5e	1.3597524
11	0x3fd1daca	1.6394894
12	0x3fde4c0a	1.7366955
13	0x3fe04af8	1.7522879
14	0x3fdda1bb	1.7314981
15	0x3fbb1b2d	1.4617668
16	0x3fd6e43e	1.6788404
17	0x3fdf66f7	1.7453297
18	0x3fdda98d	1.7317368
19	0x3fdb9bec	1.7156959
20	0x3fe1f0cf	1.7651614
21	0x3fc4b147	1.5366601
22	0x3fd99aa7	1.7000321
23	0x3fca2353	1.579203
24	0x3faf1142	1.3677142
25	0x3fd2792e	1.6443231
26	0x3fd1d173	1.6392044
27	0x3fe04cf4	1.7523484
28	0x3fc28f90	1.5200062
29	0x3fdc01fe	1.7188108
30	0x3fce5502	1.6119692
31	0x3fcfad5c	1.622478
32	0x3fbfc226	1.4981124
33	0x3fde63fa	1.737426
34	0x3fdc73ad	1.7222801
35	0x3fd754c3	1.6822742
36	0x3fb771a2	1.4331553
37	0x3fe26352	1.768656
38	0x3fd7bdf4	1.6854844
39	0x3fbf9c11	1.4969503
40	0x3fe0e353	1.7569374
41	0x3faea1b9	1.3643104
42	0x3fddfc16	1.7342556
43	0x3fdfe146	1.7490623
44	0x3fdf4363	1.744244
45	0x3fe1f91b	1.7654146
46	0x3fcb3299	1.5874816
47	0x3fb485e1	1.4103357
48	0x3fe1a294	1.762774
49	0x3fdcae39	1.7240669
50	0x3fde650d	1.7374588
51	0x3fde518e	1.7368639
52	0x3fcec810	1.6154804
53	0x3fdfc672	1.7482436
54	0x3fdcc3f7	1.7247304
55	0x3fdd4e4c	1.7289519
56	0x3fce3140	1.610878
57	0x3fc997e0	1.5749474
58	0x3fd6bcc9	1.6776363
59	0x3fc0a9f9	1.5051872
60	0x3fd78bb4	1.6839509
61	0x3fda5330	1.7056637
62	0x3fcbe871	1.593031
63	0x3fd669d8	1.6751051
64	0x3fdfb728	1.747777
65	0x3fc08983	1.5041965
66	0x3fdd06e7	1.7267731
67	0x3fe17450	1.7613621
68	0x3fdfee6b	1.7494634
69	0x3fca03e0	1.5782433
70	0x3fdca151	1.723673
71	0x3fda5419	1.7056915
72	0x3fd4d7cb	1.6628355
73	0x3fddec71	1.7337781
74	0x3fdb2371	1.7120191
75	0x3fcc4ee9	1.5961581
76	0x3fe173db	1.7613481
77	0x3fd18a32	1.6370299
78	0x3fde6381	1.7374116
79	0x3fde8ff7	1.7387685
80	0x3fdff0a3	1.7495311
81	0x3fd59838	1.6687078
82	0x3fd0ec08	1.6322031
83	0x3fdf432a	1.7442372
84	0x3fe26735	1.7687746
85	0x3fc95c55	1.5731302
86	0x3fd5d767	1.670636
87	0x3fe1b1d2	1.7632391
88	0x3fdc1975	1.7195269
89	0x3fdf1a3b	1.742988
90	0x3fd66e4a	1.6752408
91	0x3fdf7154	1.745646
92	0x3fdbe832	1.7180235
93	0x3fc7b0ca	1.5600827
94	0x3fe23432	1.7672179
95	0x3fbb7b41	1.4646989
96	0x3fe07340	1.7535172
97	0x3fcb394d	1.5876862
98	0x3fe2797e	1.7693326
99	0x3fde34c7	1.7359856
100	0x3fe2b8d2	1.7712653
101	0x3fe21c32	1.7664855
102	0x3fdb39d2	1.712702
103	0x3fe23b71	1.767439
104	0x3fcb2824	1.5871625
105	0x3fca4581	1.5802461
106	0x3fc1028e	1.5078905
107	0x3fcdd69a	1.6081116
108	0x3fdfad59	1.7474777
109	0x3fdf3214	1.7437158
110	0x3fbb2638	1.4621038
111	0x3fc3f7a2	1.5309947
112	0x3fe08859	1.754161
113	0x3fe2ba88	1.7713175
114	0x3fdfba42	1.7478716
115	0x3fdbcdcb	1.7172178
116	0x3fd39e8a	1.6532757
117	0x3fdb2a7b	1.7122339
118	0x3fe07611	1.7536031
119	0x3fc2afee	1.520994
120	0x3fd2676f	1.6437815
121	0x3fdae5d8	1.7101393
122	0x3faecda0	1.3656502
123	0x3fd92e63	1.6967281
124	0x3fdb8eb2	1.7152922
125	0x3fdd063f	1.7267531
126	0x3fd0955e	1.6295583
127	0x3fdffcfb	1.7499079
128	0x3fb82b2a	1.4388173
129	0x3fac3768	1.3454409
130	0x3fdbeb4e	1.7181184
131	0x3fdfa4e0	1.7472191
132	0x3fd963a7	1.6983536
133	0x3fe0fc41	1.7576982
134	0x3fdf0e74	1.7426286
135	0x3fe00c9e	1.750385
136	0x3fd6fe2b	1.6796316
137	0x3fe0bef7	1.7558278
138	0x3fc636e8	1.5485506
139	0x3fcea6bb	1.6144632
140	0x3fd0fc46	1.6326988
141	0x3fe011df	1.7505454
142	0x3fe20258	1.7656965
143	0x3fce7644	1.6129842
144	0x3fdfab15	1.7474085
145	0x3fcf003f	1.617195
146	0x3fdcc0a3	1.7246288
147	0x3fe11f87	1.7587746
148	0x3fdc9810	1.7233906
149	0x3fd8ef98	1.6948118
150	0x3fd958f7	1.6980275
151	0x3fd864c0	1.6905746
152	0x3fb3ceac	1.4047446
153	0x3fdbc439	1.7169257
154	0x3fd9b6dd	1.700893
155	0x3fe2f357	1.7730511
156	0x3fc731ce	1.5562074
157	0x3fe27ab6	1.7693698
158	0x3fe25e2c	1.7684989
159	0x3fbd121d	1.4771153
160	0x3fd67e51	1.6757299
161	0x3fde0ff4	1.7348619
162	0x3fdec63d	1.7404248
163	0x3fd2653f	1.6437148
164	0x3fcaef67	1.585431
165	0x3fd127a0	1.6340218
166	0x3fd37d03	1.6522526
167	0x3fddf410	1.7340107
168	0x3fd8873e	1.6916273
169	0x3fde5a99	1.7371398
170	0x3fd72065	1.6806761
171	0x3fdc9bc6	1.7235038
172	0x3fde30db	1.735866
173	0x3fc31671	1.5241224
174	0x3fd1fdf5	1.6405627
175	0x3fac18d1	1.3445073
176	0x3fd34bd7	1.650752
177	0x3fc7ffbd	1.562492
178	0x3fa4a67c	1.2863307
179	0x3fe25bfb	1.768432
180	0x3fd24764	1.6428037
181	0x3fd999d3	1.7000068
182	0x3fcc36c6	1.5954216
183	0x3fda1d5d	1.7040211
184	0x3fb906f1	1.4455243
185	0x3fd69394	1.6763787
186	0x3fd72f1e	1.6811254
187	0x3fdbb4b9	1.7164527
188	0x3fda6bfe	1.7064207
189	0x3fe03024	1.7514691
190	0x3fd99573	1.6998733
191	0x3fd1d0de	1.6391866
192	0x3fe2b44a	1.771127
193	0x3fd69255	1.6763407
194	0x3fe24503	1.7677311
195	0x3fc5db05	1.5457464
196	0x3fce12d4	1.6099496
197	0x3fc1eb37	1.5149907
198	0x3fcc2f86	1.5952003
199	0x3fda1981	1.7039033
200	0x3fe1359b	1.7594484
201	0x3fc748b9	1.5569068
202	0x3fdd0aca	1.7268918
203	0x3fe0aa00	1.755188
204	0x3fe2da17	1.7722806
205	0x3fdd8d7a	1.73088
206	0x3fd23fcf	1.6425723
207	0x3fbfa941	1.4973527
208	0x3fdb71a0	1.7144051
209	0x3fdf79dc	1.7459064
210	0x3fda9e51	1.7079564
211	0x3fdea61f	1.7394446
212	0x3fe22235	1.7666689
213	0x3fd7d243	1.6861042
214	0x3fca8f8d	1.5825058
215	0x3fd74b37	1.6819829
216	0x3fd464d3	1.6593269
217	0x3fdfaa07	1.7473763
218	0x3fdec9b9	1.7405311
219	0x3fd908d0	1.6955814
220	0x3fdf52b7	1.7447118
221	0x3f966bf7	1.1751698
222	0x3fca75fd	1.5817257
223	0x3fd9e80d	1.7023941
224	0x3fdc31c6	1.720269
225	0x3fe1b867	1.76344
226	0x3fda9678	1.707717
227	0x3fcccba0	1.5999641
228	0x3fd5ffec	1.6718726
229	0x3fca35ff	1.5797728
230	0x3fd05120	1.6274757
231	0x3fd3e888	1.6555338
232	0x3fdfd2c3	1.7486194
233	0x3fe2e5fa	1.7726433
234	0x3fdc1e28	1.7196703
235	0x3fc78e65	1.559033
236	0x3fba7b4b	1.4568876
237	0x3fd1fe4f	1.6405734
238	0x3fc560ab	1.5420126
239	0x3fca0cea	1.5785191
240	0x3fc27147	1.519082
241	0x3fdba32f	1.7159175
242	0x3fdb0220	1.7110023
243	0x3fd7c19f	1.6855963

model.feature_nns.0.model.1.weight f4 [1, 244]
0	0x3d9913be	0.07474469
1	0x3da598d7	0.080857925
2	0x3d8cd75a	0.068770126
3	0x3d4e0e5d	0.050306667
4	0x3d79ddd4	0.061002567
5	0x3c3011c4	0.010746423
6	0x3cbaab5e	0.022786792
7	0x3d03feff	0.032225605
8	0x3de0bc29	0.10973389
9	0x3de641a0	0.11242986
10	0x3cb2a1ca	0.021805663
11	0x3db635de	0.08896993
12	0x3d782265	0.060579676
13	0x3da6162b	0.08109697
14	0x3c890e58	0.016730472
15	0x3bff3d90	0.0077893212
16	0x3d10366b	0.035208147
17	0x3dae12fa	0.08499713
18	0x3da31103	0.07962229
19	0x3d644d06	0.055737518
20	0x3d435fc2	0.047698744
21	0x3d83b168	0.06430322
22	0x3d15044c	0.03638105
23	0x3db31f49	0.087462015
24	0x3da2b408	0.079444945
25	0x3d2b139b	0.041766744
26	0x3db017e9	0.085983105
27	0x3d56d15f	0.052445766
28	0x3daa411c	0.083132
29	0x3db63eb7	0.08898681
30	0x3dee7058	0.116425216
31	0x3dcc21f4	0.099674135
32	0x3c36c6a3	0.011155757
33	0x3d9561a5	0.07294015
34	0x3d6b3856	0.057426773
35	0x3ce3338c	0.02773454
36	0x3c35c950	0.01109536
37	0x3dec33bd	0.11533306
38	0x3c8e15fa	0.017344464
39	0x3dd78b21	0.105245836
40	0x3dc003cb	0.093757235
41	0x3d25b278	0.040453404
42	0x3d2386f8	0.039923638
43	0x3dc79410	0.097450376
44	0x3dbe55b1	0.09293688
45	0x3d70994b	0.05873994
46	0x3d3ab729	0.04558483
47	0x3d363d6f	0.04449218
48	0x3d84fa1c	0.06493017
49	0x3c30ce44	0.010791365
50	0x3d40076a	0.04688207
51	0x3d00f762	0.031485923
52	0x3cbcbf4c	0.023040436
53	0x3dac3f16	0.0841047
54	0x3cd0f216	0.02550606
55	0x3d3b3259	0.045702312
56	0x3db01eb9	0.0859961
57	0x3dc09881	0.09404088
58	0x3d80bf6b	0.0628651
59	0x3c0d4cb1	0.008624242
60	0x3d8bbcbe	0.06823109
61	0x3ccf757c	0.025324576
62	0x3cb5709e	0.022148427
63	0x3dbdc6a9	0.09266407
64	0x3deca96c	0.11555752
65	0x3ddc9f81	0.107726105
66	0x3c2b5258	0.010456644
67	0x3d12d976	0.03585192
68	0x3ce680d1	0.028137596
69	0x3dd6a560	0.104807615
70	0x3df4637e	0.11933039
71	0x3cb61c10	0.022230178
72	0x3ce5dbb0	0.028058857
73	0x3dfb72c0	0.12277746
74	0x3dc4fb25	0.096182145
75	0x3d802b51	0.06258262
76	0x3de45cb7	0.111504965
77	0x3dd50eee	0.10403238
78	0x3c8de53d	0.017321223
79	0x3cb74246	0.022370469
80	0x3da25f2c	0.07928309
81	0x3de289f7	0.11061471
82	0x3d928ddd	0.071559645
83	0x3d7cb190	0.061692774
84	0x3dd504f7	0.104013376
85	0x3cc72b5e	0.024312671
86	0x3c572588	0.013131507
87	0x3db1d8ba	0.086839154
88	0x3d2e9fdc	0.042632923
89	0x3c44adaa	0.012004295
90	0x3cc17c4b	0.023618838
91	0x3d3df734	0.04637833
92	0x3d85e45c	0.06537697
93	0x3d871156	0.065951034
94	0x3c93e7da	0.018054891
95	0x3defc8df	0.11708235
96	0x3dbe3557	0.092875175
97	0x3de25d10	0.110529065
98	0x3ce45c3d	0.027876014
99	0x3df5914c	0.11990604
100	0x3d9e40f7	0.07727235
101	0x3ce1fc83	0.027586227
102	0x3d94932e	0.07254635
103	0x3ddbcfdf	0.10733008
104	0x3d21dd30	0.03951758
105	0x3dd5ee34	0.10445824
106	0x3ce5e253	0.028062021
107	0x3bd9d994	0.006648252
108	0x3deaca8b	0.11464413
109	0x3d5e5c16	0.05428704
110	0x3ca72ad4	0.020406164
111	0x3dc25de4	0.094905645
112	0x3dca87de	0.09889196
113	0x3d43e653	0.047827076
114	0x3df79ea7	0.120908074
115	0x3c7246f0	0.014787421
116	0x3dd3bd06	0.10338788
117	0x3d8ea76d	0.06965528
118	0x3df02bbe	0.11727093
119	0x3cfb43cb	0.030671975
120	0x3d6a5e90	0.057219088
121	0x3bf5b8de	0.0074988445
122	0x3c046685	0.008081083
123	0x3d8f4806	0.06996159
124	0x3dd4736b	0.10373577
125	0x3dc6e6d1	0.097119935
126	0x3ce54364	0.027986236
127	0x3d8aec29	0.06783325
128	0x3d268cd7	0.04066166
129	0x3d8a5841	0.06755114
130	0x3cee93c9	0.029123204
131	0x3d47f862	0.04882086
132	0x3db84834	0.08998147
133	0x3dcb0f58	0.09915036
134	0x3d84e809	0.0648957
135	0x3db65ec1	0.089047916
136	0x3dd83e8f	0.10558807
137	0x3c9d79be	0.01922309
138	0x3d21ebdf	0.039531585
139	0x3d9bad2c	0.07601389
140	0x3d10e3a1	0.035373334
141	0x3ccc8a23	0.024968212
142	0x3d88303b	0.06649824
143	0x3d99f8a0	0.075181246
144	0x3dde0a12	0.108417645
145	0x3c61ca9a	0.013781214
146	0x3d2ea670	0.042639196
147	0x3da4aa12	0.08040251
148	0x3dceb197	0.10092466
149	0x3bd041fe	0.006355523
150	0x3dba71a5	0.09103707
151	0x3df21dc5	0.11822084
152	0x3da3b4c2	0.07993461
153	0x3da0e413	0.07856002
154	0x3dafc0c0	0.08581686
155	0x3d3a1bfa	0.045436837
156	0x3db411d6	0.087924644
157	0x3db6b3b0	0.089209914
158	0x3d8b0b18	0.06789225
159	0x3d28775e	0.041129462
160	0x3dde501f	0.10855126
161	0x3dc58ad6	0.096456215
162	0x3c03b06a	0.008037666
163	0x3d7baefa	0.061446168
164	0x3cc0e7a0	0.023547947
165	0x3d5967fc	0.053077683
166	0x3da20a2f	0.079120986
167	0x3d67226c	0.05642931
168	0x3df8cdc9	0.121486254
169	0x3de20544	0.110361606
170	0x3d6762f2	0.056490846
171	0x3df4205a	0.11920233
172	0x3d3e945e	0.046528213
173	0x3d755a24	0.059900418
174	0x3d1c36b1	0.038138095
175	0x3db71eab	0.08941396
176	0x3bbb05d2	0.005707481
177	0x3c97681f	0.018482266
178	0x3cf3b7dc	0.029750757
179	0x3dbbef20	0.09176469
180	0x3d93bcac	0.07213721
181	0x3c63ecd1	0.013911442
182	0x3dcff61c	0.101543635
183	0x3debc7b8	0.11512703
184	0x3de506fe	0.11182974
185	0x3d9984b2	0.07496013
186	0x3d78eb40	0.060771227
187	0x3c6ef6d6	0.014585217
188	0x3da45d3f	0.08025598
189	0x3dfbc91b	0.12294217
190	0x3d264075	0.040588815
191	0x3c0d3aae	0.008619947
192	0x3d1b0c5e	0.03785359
193	0x3db3069d	0.08741496
194	0x3cef74ff	0.029230593
195	0x3de3779a	0.111067966
196	0x3db811fc	0.08987805
197	0x3dbf88e1	0.093522795
198	0x3d370d69	0.044690523
199	0x3d247af4	0.04015632
200	0x3ca9f674	0.0207474
201	0x3d950155	0.07275645
202	0x3ddfa7f4	0.109207064
203	0x3dd93121	0.10605074
204	0x3dcfdc19	0.10149402
205	0x3c0f29ce	0.008737994
206	0x3dd9af68	0.10629159
207	0x3dc153cd	0.09439812
208	0x3de41b60	0.11138034
209	0x3cafac46	0.021444451
210	0x3deaf2fd	0.114721276
211	0x3d7a6da9	0.061139736
212	0x3daa67e5	0.083205976
213	0x3cd4335b	0.025903394
214	0x3d9cf9e0	0.076648474
215	0x3dc521fd	0.096256234
216	0x3d751224	0.059831753
217	0x3d010d16	0.03150662
218	0x3d3e8287	0.0465112
219	0x3d9eedb0	0.07760179
220	0x3d78eba0	0.060771585
221	0x3d964363	0.07337072
222	0x3d2d47f7	0.04230496
223	0x3dfa3f07	0.12219053
224	0x3d92d6b0	0.07169855
225	0x3ce28141	0.027649524
226	0x3d1876c7	0.03722265
227	0x3cfd50e6	0.030922364
228	0x3de4672d	0.11152492
229	0x3ca603c3	0.020265466
230	0x3de39eb3	0.11114254
231	0x3dc0cd0c	0.094141096
232	0x3da66db4	0.08126393
233	0x3da16eff	0.07882499
234	0x3c4d9286	0.012547141
235	0x3dbc71ed	0.09201417
236	0x3cb379ac	0.021908604
237	0x3de459cb	0.11149939
238	0x3c3c5840	0.01149565
239	0x3de72030	0.11285436
240	0x3dfb75c0	0.122783184
241	0x3dc324b9	0.09528489
242	0x3c325b1a	0.010885978
243	0x3df9b22d	0.121921875

model.feature_nns.1.model.0.weights f4 [1, 112]
0	0x3fdaae66	1.7084472
1	0x3fe21062	1.766125
2	0x3fd58415	1.6680933
3	0x3fdd6864	1.7297482
4	0x3fdb8a1f	1.7151526
5	0x3fe0daa1	1.756672
6	0x3fce48da	1.6115983
7	0x3fddb19c	1.7319827
8	0x3fdffe53	1.7499489
9	0x3fd509cf	1.6643618
10	0x3fe03bb4	1.751822
11	0x3fd8e5f0	1.6945171
12	0x3fe158dc	1.7605243
13	0x3fd32f5c	1.6498828
14	0x3fe03395	1.7515742
15	0x3fe29993	1.7703117
16	0x3fe18203	1.7617801
17	0x3fdfc41d	1.7481724
18	0x3fe26c66	1.768933
19	0x3fd9a4b8	1.7003393
20	0x3fe261ea	1.7686131
21	0x3fe20207	1.7656869
22	0x3fd4ef0e	1.6635454
23	0x3fe05c09	1.7528087
24	0x3fd509cf	1.6643618
25	0x3fc7b250	1.5601292
26	0x3fbb6e92	1.4643118
27	0x3fbef337	1.4917973
28	0x3fdc9354	1.7232461
29	0x3fe1c0ba	1.763694
30	0x3fdb8fba	1.7153237
31	0x3fe047db	1.7521929
32	0x3fc3bbaa	1.5291646
33	0x3fd9be46	1.7011192
34	0x3fdfcc7c	1.7484279
35	0x3fd1b8f9	1.6384574
36	0x3fde9729	1.738988
37	0x3fd07a58	1.6287336
38	0x3fe1896f	1.7620066
39	0x3fcbce0a	1.5922253
40	0x3fdf029e	1.7422674
41	0x3fd53eba	1.6659768
42	0x3fde3681	1.7360383
43	0x3fe1f39e	1.7652471
44	0x3fd48b34	1.6604981
45	0x3fafa90f	1.3723468
46	0x3fd83908	1.6892405
47	0x3faa54ed	1.3307167
48	0x3fe012e7	1.7505769
49	0x3fdbfe22	1.718693
50	0x3fd9640f	1.698366
51	0x3fd5aec3	1.6693958
52	0x3fd6f313	1.679293
53	0x3fe19842	1.762459
54	0x3fd64c78	1.6742086
55	0x3fe0b388	1.7554789
56	0x3fc2d3b9	1.5220863
57	0x3fb5d185	1.4204565
58	0x3fcb75d3	1.5895332
59	0x3fe0e264	1.7569089
60	0x3fd5245c	1.6651721
61	0x3fd2b368	1.6461
62	0x3fdc13d2	1.7193549
63	0x3fe21b1e	1.7664526
64	0x3fce9ece	1.6142213
65	0x3fd1e5d4	1.6398263
66	0x3fdcd69b	1.7252992
67	0x3fdf25c1	1.7433397
68	0x3fdb684b	1.7141203
69	0x3fbc9236	1.473212
70	0x3fc3391b	1.5251802
71	0x3fd8bd2f	1.6932734
72	0x3fdda7f0	1.7316875
73	0x3fdb684b	1.7141203
74	0x3fc1b53f	1.5133437
75	0x3fdd9e39	1.7313911
76	0x3fd85c45	1.6903158
77	0x3fdd5e86	1.7294471
78	0x3fcaab66	1.5833557
79	0x3fd1fc09	1.640504
80	0x3fd77bfe	1.6834714
81	0x3fd9a4b8	1.7003393
82	0x3fdd31c6	1.7280815
83	0x3fd086af	1.6291102
84	0x3fdc9354	1.7232461
85	0x3fdf8d3e	1.7464979
86	0x3fda4dca	1.7054989
87	0x3fd7f17b	1.6870569
88	0x3fe17a8f	1.7615527
89	0x3fe158dc	1.7605243
90	0x3fe19bf4	1.7625718
91	0x3fd13aa1	1.6346017
92	0x3fdfd4d9	1.7486831
93	0x3fdd36c5	1.7282339
94	0x3fde5b9e	1.7371709
95	0x3fdd13a1	1.7271615
96	0x3fd62bd7	1.6732129
97	0x3fda6630	1.7062435
98	0x3fe043d1	1.7520696
99	0x3fc6896d	1.5510689
100	0x3fb43aae	1.4080408
101	0x3fc8974c	1.5671172
102	0x3fd86349	1.69053
103	0x3fd28919	1.6448089
104	0x3fdd80f4	1.7304978
105	0x3fdf2161	1.7432061
106	0x3fdee809	1.7414562
107	0x3fdbd7dd	1.7175251
108	0x3fda4dca	1.7054989
109	0x3fce5753	1.6120399
110	0x3fdb793f	1.7146376
111	0x3fdec8cc	1.7405028

model.feature_nns.1.model.1.weight f4 [1, 112]
0	0x3c868bab	0.01642402
1	0x3d16c0e5	0.036805052
2	0xbc49aa36	-0.012308648
3	0x3d91b20f	0.0711404
4	0x3d2c12c9	0.042010102
5	0x3d1d5ef4	0.038420632
6	0x3a8731b4	0.0010314495
7	0x3d982103	0.074281715
8	0xbbf4855f	-0.007462188
9	0x3da35b9c	0.079764575
10	0x3d01affc	0.031661972
11	0x3c9f02dd	0.019410545
12	0x3b9a970d	0.0047177137
13	0x3c41cb22	0.011828216
14	0x3c0350f2	0.008014904
15	0x3cea87c4	0.028629191
16	0x3c8baaec	0.017049275
17	0xbcb87df2	-0.022520993
18	0x3bae74a4	0.0053239632
19	0x3c9cd117	0.01914267
20	0x3c35d9fc	0.011099335
21	0x3cd71f16	0.02625994
22	0x3bb14425	0.005409735
23	0x3d491987	0.04909661
24	0x3cfac2bc	0.030610435
25	0x3d4faae1	0.050700072
26	0x3d72a8c2	0.05924297
27	0xbc332da0	-0.010936171
28	0x39ff0f50	0.000486488
29	0x3cae7999	0.021298217
30	0x3ce08679	0.027407872
31	0x3cac9432	0.021066759
32	0x3d113ed9	0.035460327
33	0x3db503f1	0.088386424
34	0xbcbe1c23	-0.023206776
35	0x3c8fa05f	0.017532526
36	0x3c28a590	0.010293379
37	0x3d00113a	0.03126643
38	0xbc15c42a	-0.009141007
39	0x3ccefa5c	0.025265865
40	0x3d7d35c7	0.061818864
41	0x3b56427f	0.0032693443
42	0x3c52ae2a	0.012858907
43	0xb8200100	-3.8147904e-05
44	0x3c4984c1	0.012299717
45	0x3c46378e	0.012098206
46	0x3ccc1fcb	0.024917504
47	0x3c947249	0.018120902
48	0x3c698080	0.014251828
49	0x3b56425c	0.0032693362
50	0x3cf13d49	0.029448168
51	0x3d10fea3	0.03539909
52	0xbc0a8cec	-0.00845645
53	0x3d216a9e	0.03940832
54	0x3d65c30d	0.056094218
55	0x3cae510f	0.021278886
56	0x3dc287f0	0.09498584
57	0x3c7a58fc	0.015280005
58	0xbca0d262	-0.019631568
59	0xbb94f35c	-0.0045456123
60	0x3d57a987	0.05265191
61	0x3d68823c	0.056764826
62	0x3d1bf857	0.038078632
63	0xba0f2698	-0.0005460768
64	0x3d1eaefe	0.038741104
65	0x3c6b8cca	0.014376828
66	0xba5db920	-0.0008458067
67	0x3bf13dba	0.0073620947
68	0x3cf760a2	0.030197445
69	0x3bab8c3f	0.0052352245
70	0x3daf9e56	0.08575122
71	0x3cd4f64f	0.025996355
72	0x3c8a7774	0.016902663
73	0xbbd6335b	-0.006536884
74	0x3d009064	0.0313877
75	0x3c16eef6	0.009212246
76	0x3d0c7072	0.034286924
77	0xbbac2589	-0.005253498
78	0xbc0a8083	-0.008453491
79	0x3c63b35e	0.013897745
80	0xbc38649a	-0.011254454
81	0x3db8d457	0.090248756
82	0x3d1e9b1a	0.038722135
83	0x3c8a1a6c	0.016858302
84	0x3cc5b463	0.024133867
85	0x3b8a6760	0.004223749
86	0x3d0fce23	0.035108697
87	0xbb861e8b	-0.0040929965
88	0x3d79c594	0.06097944
89	0x3ca1edbf	0.019766686
90	0xbc56cd2f	-0.013110443
91	0xb8030400	-3.123656e-05
92	0x3cf703f6	0.030153256
93	0x3c9ff079	0.019523846
94	0x3cb5c77e	0.022189852
95	0xbb81b958	-0.0039588623
96	0x3c8b1a86	0.01698042
97	0x3c1b0905	0.0094626
98	0xbc9530a0	-0.018211663
99	0xbc4b702d	-0.0124168815
100	0x3ceb4bcf	0.028722672
101	0x3c4eb4fa	0.01261639
102	0x3c8ae1d4	0.016953386
103	0x3ceda836	0.029010873
104	0xbc423a8e	-0.011854781
105	0x3ba35557	0.0049845385
106	0x3d822ebd	0.06356571
107	0x3cc445f3	0.023959136
108	0x3bc6aceb	0.006063094
109	0x3d010377	0.031497445
110	0x3a977fe4	0.00115585
111	0x3b816f04	0.0039500017

model.feature_nns.2.model.0.weights f4 [1, 274]
0	0x3fda6019	1.7060577
1	0x3fe1f738	1.765357
2	0x3fdef9c6	1.7419975
3	0x3fbffdf8	1.499938
4	0x3fdba614	1.7160058
5	0x3fda22b3	1.7041839
6	0x3fdc7e63	1.722607
7	0x3fdfbbb8	1.7479162
8	0x3fe053fa	1.7525628
9	0x3fcebafd	1.6150814
10	0x3fdffa33	1.749823
11	0x3fdd8fa0	1.7309456
12	0x3fd9640f	1.698366
13	0x3fdf0707	1.742402
14	0x3fe08013	1.7539085
15	0x3fc9c00e	1.5761735
16	0x3fcebafd	1.6150814
17	0x3fdf32d9	1.7437392
18	0x3fe1bd12	1.7635825
19	0x3fd27e73	1.6444839
20	0x3fccc9e9	1.5999118
21	0x3fc11c29	1.5086719
22	0x3fd4538a	1.6587994
23	0x3fd88620	1.6915932
24	0x3fce65bc	1.6124797
25	0x3fd6bc63	1.6776241
26	0x3fd5f201	1.6714479
27	0x3fdb3ab2	1.7127287
28	0x3fdfc84f	1.7483004
29	0x3fe0bb60	1.7557182
30	0x3fde3fcf	1.7363223
31	0x3fc22397	1.5167111
32	0x3fde6e0c	1.7377334
33	0x3fda907b	1.7075342
34	0x3fe1605e	1.7607534
35	0x3fd87f2e	1.6913812
36	0x3fdb8fba	1.7153237
37	0x3fc35a39	1.5261909
38	0x3fd1cf78	1.639144
39	0x3fcdf0bb	1.608909
40	0x3fcc98fd	1.5984188
41	0x3fdb9aed	1.7156655
42	0x3fd54778	1.6662436
43	0x3fe110b3	1.7583221
44	0x3fdba080	1.7158356
45	0x3fc1da6d	1.5144783
46	0x3fd94349	1.6973659
47	0x3fc919a5	1.5710951
48	0x3fc8ad5f	1.5677909
49	0x3fd5c823	1.6701702
50	0x3fd7afde	1.6850545
51	0x3fd8a8a1	1.6926461
52	0x3fc7f8a4	1.5622754
53	0x3fc919a5	1.5710951
54	0x3fdc4428	1.72083
55	0x3fce65bc	1.6124797
56	0x3fcf5216	1.6196926
57	0x3fc90443	1.5704426
58	0x3f9df1bf	1.23394
59	0x3fd7ea41	1.6868364
60	0x3fdfa270	1.7471447
61	0x3fd1f0f1	1.6401654
62	0x3fd6b481	1.6773835
63	0x3fd2b368	1.6461
64	0x3fd8472c	1.689672
65	0x3fbab224	1.4585614
66	0x3fb43aae	1.4080408
67	0x3fca9863	1.5827755
68	0x3fd85c45	1.6903158
69	0x3fcbdf6b	1.5927557
70	0x3fdc7e63	1.722607
71	0x3fd5f201	1.6714479
72	0x3fe190db	1.7622331
73	0x3fde23d1	1.735468
74	0x3fdc6e98	1.722125
75	0x3fd39d4b	1.6532377
76	0x3fbe0311	1.4844686
77	0x3fc4ed67	1.538495
78	0x3fbcc985	1.4748999
79	0x3fe02348	1.7510767
80	0x3fd1e5d4	1.6398263
81	0x3fdc2963	1.720013
82	0x3fe17e47	1.7616662
83	0x3fe190db	1.7622331
84	0x3fdd13a1	1.7271615
85	0x3fdff611	1.7496969
86	0x3fc0524c	1.5025115
87	0x3fd52d2b	1.6654409
88	0x3fc2f5dd	1.5231282
89	0x3fdffa33	1.749823
90	0x3fd7a882	1.68483
91	0x3fe1641e	1.7608678
92	0x3fdd6d51	1.7298986
93	0x3fde7738	1.7380133
94	0x3fa431c5	1.2827688
95	0x3fde897f	1.738571
96	0x3fdee809	1.7414562
97	0x3fa70a92	1.3050101
98	0x3fc78299	1.558673
99	0x3fd49d91	1.6610585
100	0x3fd8783c	1.6911693
101	0x3fe0e647	1.7570275
102	0x3fca2416	1.5792263
103	0x3fa9553a	1.3229134
104	0x3fd2bde5	1.6464201
105	0x3fd3d7dc	1.655025
106	0x3fc83d8d	1.5643784
107	0x3fd5d08d	1.670427
108	0x3fdde664	1.7335935
109	0x3fe0ea29	1.757146
110	0x3fcebafd	1.6150814
111	0x3fd6d3ee	1.6783426
112	0x3fcf3718	1.6188688
113	0x3fc919a5	1.5710951
114	0x3fe2575e	1.7682912
115	0x3fd4117b	1.6567835
116	0x3fb50c9e	1.4144475
117	0x3fde64d8	1.7374525
118	0x3fd5f201	1.6714479
119	0x3fd10b8a	1.6331646
120	0x3fd03c0c	1.6268325
121	0x3fc1431a	1.5098603
122	0x3fcbce0a	1.5922253
123	0x3fac1bf0	1.3446026
124	0x3fdecd48	1.7406397
125	0x3fdfa6aa	1.7472737
126	0x3fca37be	1.5798261
127	0x3fdcfa52	1.7263892
128	0x3fe26c66	1.768933
129	0x3fcfe2e6	1.6241119
130	0x3fba70cd	1.4565674
131	0x3fb78e4a	1.4340298
132	0x3fd509cf	1.6643618
133	0x3fe245c0	1.7677536
134	0x3fd5e151	1.6709386
135	0x3fe2d740	1.7721939
136	0x3fe18d25	1.7621199
137	0x3fdd9e39	1.7313911
138	0x3fdbe2d8	1.7178602
139	0x3fd8a1c1	1.6924363
140	0x3fdd18aa	1.7273152
141	0x3fc2b13e	1.521034
142	0x3fc0f4c4	1.5074697
143	0x3fdb4bde	1.7132528
144	0x3fd2e792	1.647692
145	0x3fca8547	1.5821923
146	0x3fd5d08d	1.670427
147	0x3fdfcc7c	1.7484279
148	0x3fe093f2	1.7545149
149	0x3fde6e0c	1.7377334
150	0x3fda8a79	1.7073509
151	0x3fcf5216	1.6196926
152	0x3fe2b88b	1.7712568
153	0x3fdf739f	1.745716
154	0x3fd5b73d	1.6696545
155	0x3fd9b183	1.7007297
156	0x3fd8ecb1	1.6947232
157	0x3fd6ac9c	1.6771426
158	0x3fe2494a	1.7678616
159	0x3fdf8d3e	1.7464979
160	0x3fe2f25b	1.7730211
161	0x3fd65495	1.6744562
162	0x3fda7e6a	1.7069829
163	0x3fdd9e39	1.7313911
164	0x3fcc45e0	1.5958824
165	0x3fe284cd	1.7696778
166	0x3fd02f70	1.6264477
167	0x3fd4b8ef	1.6618937
168	0x3fd6dbbd	1.6785809
169	0x3fd6ac9c	1.6771426
170	0x3fd64457	1.6739606
171	0x3fd481fc	1.6602168
172	0x3fdfd0aa	1.7485554
173	0x3fdd4ab2	1.728842
174	0x3fe0275c	1.7512012
175	0x3fdd947e	1.7310941
176	0x3fc49492	1.535784
177	0x3fd59539	1.6686164
178	0x3fdbe2d8	1.7178602
179	0x3fcb87a4	1.5900769
180	0x3fca5eba	1.5810158
181	0x3fe28bbb	1.7698892
182	0x3fe123d3	1.7589058
183	0x3fd20718	1.6408415
184	0x3fe0880a	1.7541516
185	0x3fcc45e0	1.5958824
186	0x3fdc0900	1.7190247
187	0x3fdf4ce5	1.7445341
188	0x3fdf189f	1.7429389
189	0x3fd79251	1.6841527
190	0x3fe15518	1.7604094
191	0x3fcf5f7e	1.6201017
192	0x3fb267a3	1.3937877
193	0x3fe2a75e	1.7707326
194	0x3fe0d2d7	1.7564343
195	0x3fe22241	1.7666703
196	0x3fdedab1	1.7410489
197	0x3fdd3bc2	1.7283862
198	0x3fddfe21	1.7343179
199	0x3fd42def	1.6576518
200	0x3fc57c68	1.5428591
201	0x3fd711f5	1.6802355
202	0x3fc02868	1.5012331
203	0x3fd361c0	1.6514206
204	0x3fdcf025	1.7260786
205	0x3fd512b0	1.6646328
206	0x3fcf3718	1.6188688
207	0x3fd3e187	1.65532
208	0x3fd3bab2	1.654135
209	0x3fe1605e	1.7607534
210	0x3fcc3503	1.5953678
211	0x3fda1013	1.7036155
212	0x3fda09d8	1.7034254
213	0x3fd54778	1.6662436
214	0x3fdbc1d3	1.7168525
215	0x3fe2e836	1.7727115
216	0x3fcad11b	1.5845064
217	0x3fcad11b	1.5845064
218	0x3fb87e30	1.4413509
219	0x3fd9f71a	1.7028534
220	0x3fc24793	1.5178093
221	0x3fe0f1e6	1.7573822
222	0x3fde3681	1.7360383
223	0x3fcfa1cf	1.6221255
224	0x3fdf2161	1.7432061
225	0x3fc35a39	1.5261909
226	0x3fdecd48	1.7406397
227	0x3fe1a359	1.7627975
228	0x3fc7211d	1.555698
229	0x3fe09bdd	1.7547566
230	0x3fc826bc	1.5636821
231	0x3fd9fd5b	1.7030443
232	0x3fe276e2	1.769253
233	0x3fc50a7e	1.5393827
234	0x3fe0f5c3	1.7575
235	0x3fd6cc19	1.6781036
236	0x3fc63af4	1.5486741
237	0x3fdf2e7d	1.7436062
238	0x3fe14d8c	1.760179
239	0x3fdea03a	1.7392647
240	0x3fe22241	1.7666703
241	0x3fd41afa	1.6570733
242	0x3fe00692	1.7502005
243	0x3fc0a489	1.5050212
244	0x3fc8c350	1.5684605
245	0x3fda164d	1.7038056
246	0x3fde23d1	1.735468
247	0x3fdfd901	1.7488099
248	0x3fdf6277	1.7451924
249	0x3fcc675c	1.5969043
250	0x3fdbe850	1.7180271
251	0x3fda2f0f	1.7045611
252	0x3fce90a0	1.6137886
253	0x3fc90443	1.5704426
254	0x3fdb5cf3	1.7137741
255	0x3fde603c	1.7373118

model.feature_nns.2.model.1.weight f4 [1, 274]
0	0xbc47825a	-0.012177074
1	0x3ba5c73e	0.005059152
2	0xbba6c9ab	-0.0050899587
3	0xbc57a5a5	-0.013162051
4	0x3d11fcf4	0.035641626
5	0x3c870767	0.016483022
6	0x3c73cc6e	0.014880283
7	0xbc1066ea	-0.008813599
8	0xbc83b15e	-0.016075786
9	0xbc461c84	-0.01209176
10	0x3a790ba0	0.00095003285
11	0x3c824b78	0.015905127
12	0x3d04ee5c	0.03245388
13	0x3d2c98fe	0.042138092
14	0x3d2598cf	0.040428933
15	0xbc8b94c0	-0.017038703
16	0x3d4b2272	0.049593396
17	0xbc3a92df	-0.011387556
18	0x3b05d5bf	0.0020421592
19	0x3b96802a	0.004592915
20	0x3c4f6009	0.012657174
21	0x3cf9da85	0.030499706
22	0x3b9bb3de	0.0047516664
23	0xbc245757	-0.010030589
24	0x3d6eca55	0.058298428
25	0xbc406879	-0.011743658
26	0x3d1a487d	0.037666786
27	0xba2989e4	-0.00064673857
28	0x3c880e4b	0.016608378
29	0x3bde9326	0.006792444
30	0x3c89f9c6	0.016842734
31	0xbb4666b1	-0.0030273611
32	0x3c620bcc	0.013796758
33	0x3c63e40e	0.013909353
34	0x3b596576	0.0033172048
35	0x3b38f9b8	0.0028225016
36	0xbc61adee	-0.013774378
37	0x3d557885	0.05211689
38	0x3d551bdc	0.052028522
39	0x3d141b0e	0.036158614
40	0x3c55df92	0.013053792
41	0xb90ab690	-0.00013228715
42	0x3c4a550c	0.012349378
43	0x3d3efc2b	0.046627205
44	0xbc13fb0c	-0.009032022
45	0x3d7948c5	0.060860414
46	0x3a937f6e	0.0011253187
47	0x3c074990	0.008257285
48	0x3d63ef73	0.05564828
49	0x3d4bdc57	0.04977068
50	0x3b8c047a	0.0042729946
51	0x3c837e5a	0.01605146
52	0x3c36b489	0.011151441
53	0x3b2acfc2	0.0026063775
54	0x3d05338f	0.032519873
55	0x3cdaeeb6	0.026725154
56	0x3d00e8ca	0.031472005
57	0x3cb5e0aa	0.022201855
58	0x3c67cade	0.014147488
59	0x3ae1c083	0.0017223511
60	0xbc1b86c7	-0.009492583
61	0x3cd5cc50	0.0260984
62	0x3c353a63	0.011061284
63	0x3c163cc7	0.009169764
64	0x3ccd9e17	0.025099797
65	0x3ca0e226	0.019639086
66	0x3d5f7722	0.054556973
67	0xbc43a20b	-0.0119404895
68	0x3d23b84b	0.039970677
69	0x3d6891c1	0.056779627
70	0x3c532494	0.012887139
71	0x3bacb86c	0.0052710082
72	0x3d02a6a4	0.031897202
73	0x3c466a37	0.0121102845
74	0x3d89b414	0.067238
75	0x3d8894e4	0.06669024
76	0x3c1df41a	0.009640718
77	0xbb4f5386	-0.0031635477
78	0xbc593086	-0.013256198
79	0x3baca9ac	0.00526925
80	0x3c82952b	0.01594027
81	0x3d1547d0	0.03644544
82	0x3aa8c274	0.0012875334
83	0xbb5a6160	-0.00333222
84	0xbc8876ad	-0.016658152
85	0x3d68351b	0.05669127
86	0x3d10f42a	0.035389103
87	0x3d14c72e	0.036322765
88	0x3c527988	0.012846358
89	0xbba3ca44	-0.004998477
90	0x3c8ac3a4	0.016938992
91	0xbabb4546	-0.0014287613
92	0x3c7a4a39	0.015276485
93	0x3d03845d	0.032108653
94	0x3c1e6c96	0.009669444
95	0x3c8b9b70	0.017041892
96	0x3c369a57	0.011145196
97	0x3d3de27e	0.046358578
98	0xbc85a6c2	-0.016314868
99	0x3c89ac20	0.016805708
100	0x3cf35b46	0.029706609
101	0x3c89120b	0.016732236
102	0x3c4fa66e	0.012673957
103	0x3c8a2ee7	0.016868068
104	0x3d637e77	0.05554053
105	0x3c30f49c	0.010800507
106	0x3d007d03	0.03136922
107	0x3d756ab4	0.059916213
108	0xbbac75ee	-0.0052630818
109	0x3c7b5c51	0.015341834
110	0x3b6a9926	0.003579685
111	0xbc079b3c	-0.008276757
112	0x3c3ffebc	0.011718448
113	0x3c0a1ff0	0.008430466
114	0xbc89bd32	-0.016813848
115	0x3c899b55	0.0167977
116	0xbb0b4472	-0.0021250513
117	0x3d142599	0.03616867
118	0x3b576621	0.003286727
119	0x3d462a2a	0.048380055
120	0xbbc4da98	-0.0060075037
121	0x3c6077f2	0.013700472
122	0x3d68f19e	0.05687105
123	0x3cd72cdc	0.026266508
124	0x3bba4804	0.0056848545
125	0x3b5bba8b	0.0033527936
126	0x3c8b309e	0.016990956
127	0x3cba5a5f	0.02274817
128	0xbbbad6ae	-0.0057018613
129	0xbc8121df	-0.015763221
130	0xbc884910	-0.016636401
131	0xbb4eba99	-0.0031544326
132	0x3b704380	0.0036661327
133	0x3ba8220b	0.0051310114
134	0xbba3185c	-0.004977269
135	0xbb2bb59b	-0.0026200775
136	0x3ad8b974	0.0016534762
137	0xbb215312	-0.0024616164
138	0x3c40257e	0.011727689
139	0x3ca1f586	0.019770395
140	0xbc7d3fdd	-0.015457121
141	0x3ce25a12	0.02763084
142	0x3a8f98fc	0.0010955627
143	0xbc3f3ed9	-0.011672699
144	0xbc789894	-0.015173096
145	0x3cfa72ff	0.030572413
146	0x3cd774b1	0.02630076
147	0xbb028460	-0.0019915327
148	0x3cb058f9	0.0215268
149	0x3d098343	0.033572447
150	0x3d0219ca	0.031762876
151	0x3c8b7c03	0.017026907
152	0xbad55730	-0.0016276594
153	0x3d16c191	0.036805693
154	0x3d839eb3	0.06426754
155	0x3d35454d	0.044255544
156	0x3cccc35e	0.024995502
157	0x3cff57a3	0.031169718
158	0xbc44a90a	-0.012003193
159	0x3c749194	0.014927287
160	0xbc35c4ed	-0.011094314
161	0xbc434f1f	-0.011920719
162	0x3b94a215	0.0045359232
163	0x3c244fbe	0.010028778
164	0x3ba11eb2	0.0049169892
165	0xbc31bb4d	-0.010847879
166	0xbbd494eb	-0.006487479
167	0x3b89c4c2	0.0042043636
168	0x3c397cf1	0.011321292
169	0x3b20ce37	0.0024536976
170	0x3ba0d355	0.0049080052
171	0x3d7808d7	0.060555305
172	0x3d131fe3	0.03591908
173	0xbc0c12d9	-0.0085494155
174	0xbbe15980	-0.0068771243
175	0xbbad5e3c	-0.0052907746
176	0x3d8a701b	0.06759664
177	0x3d126987	0.03574517
178	0xbbab8a98	-0.0052350275
179	0xbc51756b	-0.012784342
180	0x3d30e6e2	0.043188937
181	0xbc3ef334	-0.011654664
182	0x3d4d9e05	0.050199527
183	0x3cc4c842	0.024021272
184	0xbc33cede	-0.010974614
185	0x3d6cc211	0.057802264
186	0xbc4df88c	-0.012571465
187	0xbc888f47	-0.016669882
188	0x3cf71595	0.030161658
189	0x3c835e00	0.016036034
190	0x3d84e50b	0.06488999
191	0x3c7ef08f	0.015560283
192	0x3b8d14b7	0.004305448
193	0x3d342f20	0.043990254
194	0x3afa0027	0.0019073532
195	0xbc778282	-0.015106799
196	0x3c535b91	0.012900249
197	0x3d036913	0.03208263
198	0x3c811400	0.015756607
199	0xbb70d780	-0.0036749542
200	0x3d379c21	0.04482663
201	0xbb623f7c	-0.0034522703
202	0x3d008520	0.031376958
203	0x3d404409	0.046939883
204	0x3d537518	0.05162534
205	0xbba037ef	-0.0048894803
206	0x3c56b2ab	0.013104121
207	0xbb6b39f9	-0.0035892709
208	0x3d66de57	0.056364384
209	0x3cba8dd3	0.022772705
210	0x3c688ea6	0.014194166
211	0x3ca9a5b0	0.020708889
212	0x3c5e8257	0.01358088
213	0x3d48885b	0.048958164
214	0x3d2ae229	0.04171959
215	0x3cb3a438	0.021928892
216	0x3d602021	0.05471814
217	0x3d7da9e7	0.06192961
218	0x3ceb2e0e	0.028708484
219	0xbbedf704	-0.0072621126
220	0xbc329fec	-0.010902386
221	0x3cb2a186	0.021805536
222	0x3c2a11bc	0.010380205
223	0xbb916729	-0.0044373465
224	0x3d6df7c3	0.058097612
225	0x3d7ddcfa	0.061978318
226	0xbbac897d	-0.0052654133
227	0x3d72773a	0.059195735
228	0x3cccadc3	0.0249852
229	0x3d07fdf8	0.033201188
230	0x3d33ee0b	0.043928187
231	0x39ad1870	0.0003301534
232	0xba3cccd8	-0.0007202155
233	0x3cfb5fdb	0.030685356
234	0x3d2132b6	0.039355002
235	0xbc722d18	-0.014781259
236	0x3c334db5	0.01094382
237	0x3caab84c	0.020839833
238	0x3cd0a74e	0.025470402
239	0x3cc16d83	0.02361179
240	0x3ca7c9ad	0.020481909
241	0x3b5dd72c	0.0033850176
242	0x3c7bf92e	0.015379233
243	0x3c818490	0.015810281
244	0x3d24a819	0.040199373
245	0xbc229918	-0.009924196
246	0x3c8125ef	0.015765158
247	0x3afe40c3	0.0019397963
248	0x3c302096	0.010749957
249	0x3cc4718f	0.02397993
250	0xbc8aaea3	-0.016928976
251	0x3cc73106	0.024315368
252	0xbc0314e4	-0.008000586
253	0x3c5c4847	0.013444967
254	0x3bf70b87	0.007539216
255	0xb9c61780	-0.00037783012

model.feature_nns.3.model.0.weights f4 [1, 338]
0	0x3fdaae66	1.7084472
1	0x3fd59dc3	1.668877
2	0x3fdb684b	1.7141203
3	0x3fccb9b0	1.5994167
4	0x3fe2a3ec	1.7706275
5	0x3fcb2d96	1.5873287
6	0x3fc6ef4f	1.5541781
7	0x3fe1a708	1.7629099
8	0x3fd09f37	1.6298589
9	0x3fdb5191	1.7134267
10	0x3fe0e264	1.7569089
11	0x3fe00692	1.7502005
12	0x3fe1605e	1.7607534
13	0x3fcca960	1.5989189
14	0x3fdb4626	1.7130783
15	0x3fd8df2d	1.6943108
16	0x3fcd58b3	1.6042694
17	0x3fdd9e39	1.7313911
18	0x3fd28919	1.6448089
19	0x3fdde19f	1.7334479
20	0x3fd8ecb1	1.6947232
21	0x3fdb4626	1.7130783
22	0x3fd3b0ed	1.6538368
23	0x3fe29620	1.7702065
24	0x3fcdf0bb	1.608909
25	0x3fdac627	1.7091721
26	0x3fbd9ddb	1.4813799
27	0x3fc63af4	1.5486741
28	0x3fcf94a6	1.6217239
29	0x3fc6bcc0	1.5526352
30	0x3fdc5ebc	1.7216411
31	0x3fd3eb2a	1.6556141
32	0x3fbd9ddb	1.4813799
33	0x3fdf88fd	1.746368
34	0x3fc8c350	1.5684605
35	0x3fe110b3	1.7583221
36	0x3fcb08e3	1.5862087
37	0x3fdf9e34	1.7470155
38	0x3fe012e7	1.7505769
39	0x3fd8d19e	1.693897
40	0x3fe04ff0	1.7524395
41	0x3fd7c5e1	1.6857263
42	0x3fdd8abd	1.7307965
43	0x3fd4662e	1.6593683
44	0x3fde3fcf	1.7363223
45	0x3fe06c17	1.7532986
46	0x3fd1adab	1.6381124
47	0x3fd4538a	1.6587994
48	0x3fac1bf0	1.3446026
49	0x3fcfa1cf	1.6221255
50	0x3fd87142	1.6909564
51	0x3fd2a8de	1.6457784
52	0x3fc9e869	1.5774051
53	0x3fc5b3f6	1.5445545
54	0x3fe15154	1.7602944
55	0x3fbcffeb	1.47656
56	0x3fc7c9eb	1.5608495
57	0x3fd3439a	1.6505005
58	0x3fe1330e	1.7593706
59	0x3fcb1b4b	1.5867704
60	0x3fd3b0ed	1.6538368
61	0x3fce0e5a	1.609813
62	0x3fd52d2b	1.6654409
63	0x3fde7bcc	1.738153
64	0x3fd823b7	1.6885899
65	0x3fd1cf78	1.639144
66	0x3fd84e37	1.6898869
67	0x3fe0275c	1.7512012
68	0x3fdf95bb	1.7467569
69	0x3fd7a882	1.68483
70	0x3fe0a7b8	1.7551184
71	0x3fcb87a4	1.5900769
72	0x3fcb1b4b	1.5867704
73	0x3fdf8075	1.7461077
74	0x3fdd45b7	1.72869
75	0x3fd45cde	1.6590841
76	0x3fd7afde	1.6850545
77	0x3fd9ea8b	1.7024702
78	0x3fc3fb18	1.5311003
79	0x3fd0cfc2	1.6313403
80	0x3fc7e15b	1.5615648
81	0x3fdde664	1.7335935
82	0x3fdcb289	1.7241985
83	0x3fde31d8	1.7358961
84	0x3fe26569	1.7687198
85	0x3fb73a29	1.4314624
86	0x3fd1749e	1.6363714
87	0x3fd18b8d	1.6370713
88	0x3fde9bb1	1.7391263
89	0x3fd2fc3e	1.6483228
90	0x3fdc73de	1.722286
91	0x3fe23080	1.7671051
92	0x3fd95070	1.6977673
93	0x3fc6896d	1.5510689
94	0x3fde0c4e	1.7347505
95	0x3fe012e7	1.7505769
96	0x3fd55032	1.6665099
97	0x3fb78e4a	1.4340298
98	0x3fe1896f	1.7620066
99	0x3fd9be46	1.7011192
100	0x3fc7084d	1.5549408
101	0x3fd4dd1b	1.6629976
102	0x3fe09fd3	1.7548774
103	0x3fd674d9	1.6754409
104	0x3fc6a32f	1.551855
105	0x3fdde664	1.7335935
106	0x3fcdff94	1.6093621
107	0x3fd9ea8b	1.7024702
108	0x3fdb6df5	1.7142931
109	0x3fc63af4	1.5486741
110	0x3fd0e7cc	1.6320739
111	0x3fc8eec1	1.5697862
112	0x3fe12002	1.7587893
113	0x3fd8ecb1	1.6947232
114	0x3fd7afde	1.6850545
115	0x3fdd7c0e	1.7303483
116	0x3fc90443	1.5704426
117	0x3fccfa2a	1.6013844
118	0x3fc49492	1.535784
119	0x3fcdf0bb	1.608909
120	0x3fd7be8f	1.6855029
121	0xbfe2f4c4	-1.7730947
122	0x3fbd9ddb	1.4813799
123	0x3fdf0b6d	1.7425362
124	0x3fcb9962	1.5906184
125	0x3fba2e1f	1.4545325
126	0x3fd949dd	1.6975666
127	0x3fb9a47a	1.4503319
128	0x3fbe0311	1.4844686
129	0x3fd375b5	1.6520296
130	0x3fd4538a	1.6587994
131	0x3fc7b250	1.5601292
132	0x3fd18b8d	1.6370713
133	0x3fe2c639	1.7716743
134	0x3fe276e2	1.769253
135	0x3fdf6b0e	1.7454545
136	0x3fd59539	1.6686164
137	0x3fdc9dc3	1.7235645
138	0x3fdee398	1.7413206
139	0x3fc8ad5f	1.5677909
140	0x3fdee809	1.7414562
141	0x3fb9a47a	1.4503319
142	0x3fd1adab	1.6381124
143	0x3fe04ff0	1.7524395
144	0x3fcf5216	1.6196926
145	0x3fce0e5a	1.609813
146	0x3fe0de83	1.7567905
147	0x3fe00aae	1.7503259
148	0x3fd95d86	1.6981666
149	0x3fe23b22	1.7674296
150	0x3fba70cd	1.4565674
151	0x3fdf77e9	1.7458469
152	0x3fd87142	1.6909564
153	0x3fe05c09	1.7528087
154	0x3fe047db	1.7521929
155	0x3fc18fa3	1.512196
156	0x3fe01b19	1.750827
157	0x3fddc9b3	1.7327179
158	0x3fbbab0b	1.4661573
159	0x3fd8e5f0	1.6945171
160	0x3fdd7c0e	1.7303483
161	0x3fe123d3	1.7589058
162	0x3fd0161e	1.625675
163	0x3fbd9ddb	1.4813799
164	0x3fcf5f7e	1.6201017
165	0x3fd6132b	1.67246
166	0x3fd91b92	1.6961539
167	0x3fd086af	1.6291102
168	0x3fd91b92	1.6961539
169	0x3fdfdd2b	1.748937
170	0x3fc0a489	1.5050212
171	0x3fdbedc8	1.718194
172	0x3fe1ec63	1.7650265
173	0x3fd893f9	1.6920158
174	0x3fd4a6b5	1.6613375
175	0x3fe1fad5	1.7654673
176	0x3fdc73de	1.722286
177	0x3fdce5f3	1.7257675
178	0x3fd3bab2	1.654135
179	0x3fd65cab	1.674703
180	0x3fdbe850	1.7180271
181	0x3fc3391b	1.5251802
182	0x3fd65495	1.6744562
183	0x3fdc193b	1.71952
184	0x3fc86ab8	1.5657568
185	0x3fdbd25f	1.7173575
186	0x3fd4f7fd	1.663818
187	0x3fe1e524	1.7648053
188	0x3fdf6b0e	1.7454545
189	0x3fe043d1	1.7520696
190	0x3fd602a1	1.6719552
191	0x3fda785e	1.7067983
192	0x3fd12329	1.6338855
193	0x3fe23080	1.7671051
194	0x3fd9d7a4	1.7018933
195	0x3fcdc3d2	1.6075385
196	0x3fe26569	1.7687198
197	0x3fd54778	1.6662436
198	0x3fe1605e	1.7607534
199	0x3fcaab66	1.5833557
200	0x3fe1896f	1.7620066
201	0x3fd022ce	1.6260622
202	0x3fc49492	1.535784
203	0x3fd96a92	1.6985648
204	0x3fd151f1	1.6353132
205	0x3fe2c9a2	1.7717783
206	0x3fd10b8a	1.6331646
207	0x3fd6fad2	1.6795294
208	0x3fded1c0	1.7407761
209	0x3fdfc84f	1.7483004
210	0x3fd4b8ef	1.6618937
211	0x3fd32532	1.6495726
212	0x3fdef55a	1.7418625
213	0x3fdf1cff	1.7430724
214	0x3fd7475e	1.6818655
215	0x3fd90e3c	1.6957469
216	0x3fdceb0e	1.7259233
217	0x3fcd8701	1.6056825
218	0x3fd0dbcd	1.6317078
219	0x3fd8df2d	1.6943108
220	0x3fc57c68	1.5428591
221	0x3fe2c639	1.7716743
222	0x3fac1bf0	1.3446026
223	0x3fd478be	1.6599348
224	0x3fd76d0c	1.6830153
225	0x3fc88115	1.5664393
226	0x3fdb8a1f	1.7151526
227	0x3fdbbc4c	1.7166839
228	0x3fc6ef4f	1.5541781
229	0x3fe01b19	1.750827
230	0x3fc99737	1.5749272
231	0x3fda6019	1.7060577
232	0x3fe097e9	1.7546359
233	0x3fd9ddf3	1.7020859
234	0x3fddd811	1.7331563
235	0x3fda907b	1.7075342
236	0x3fd92f7c	1.6967616
237	0x3fbab224	1.4585614
238	0x3fda6630	1.7062435
239	0x3fda6630	1.7062435
240	0x3fdc1e9f	1.7196845
241	0x3fdd8fa0	1.7309456
242	0x3fc6ef4f	1.5541781
243	0x3fd8783c	1.6911693
244	0x3fda3b62	1.7049372
245	0x3fdc596f	1.7214793
246	0x3fdffe53	1.7499489
247	0x3fe18203	1.7617801
248	0x3fcca960	1.5989189
249	0x3fd6cc19	1.6781036
250	0x3fd8156f	1.6881541
251	0x3fd2f1eb	1.6480078
252	0x3fd0161e	1.625675
253	0x3fde929a	1.7388489
254	0x3fdfbbb8	1.7479162
255	0x3fc56048	1.5420008

model.feature_nns.3.model.1.weight f4 [1, 338]
0	0xbc29169a	-0.01032033
1	0x3d283a29	0.04107109
2	0x3ba835de	0.0051333746
3	0x3d94af7b	0.07260033
4	0x3d35f60c	0.0444241
5	0x3d9d054c	0.07667026
6	0x3c6c761e	0.014432458
7	0x3d90a5f8	0.07062906
8	0x3d8b65c8	0.068065226
9	0xbc7f0741	-0.015565694
10	0x3aff0890	0.0019457508
11	0x3c362cd2	0.011119084
12	0x3d8cf2bb	0.06882235
13	0x3d8a1d8d	0.067439176
14	0x3d5e3c65	0.054256815
15	0xbc11c4c4	-0.00889701
16	0xbc224ce0	-0.009906024
17	0x3c6f14b3	0.014592337
18	0x3b9331b8	0.004492011
19	0x3be71f60	0.0070533007
20	0x3d30e9c1	0.043191675
21	0x3d96e593	0.073680066
22	0x3bbef6ff	0.005827784
23	0xbc25e560	-0.010125488
24	0x3c964469	0.018343167
25	0x3c3e75a4	0.011624727
26	0x3c86fd88	0.016478315
27	0xbb6e2e64	-0.003634357
28	0x3be71294	0.007051775
29	0xbc21ceaa	-0.009875933
30	0x3cc68a52	0.024235878
31	0xbc10564a	-0.008809635
32	0xbc18f90d	-0.009336722
33	0x3d870f29	0.065946884
34	0x3bd45a72	0.0064805085
35	0x3d43c356	0.04779371
36	0x3c131694	0.008977551
37	0x3d67f216	0.056627356
38	0x3a525b20	0.0008024443
39	0x3d00bd9a	0.03143082
40	0x3c7187d1	0.014741854
41	0x3ca78f3b	0.02045404
42	0x3ca3b3b4	0.01998315
43	0x3ca54c6c	0.020178042
44	0x3ce96712	0.02849153
45	0x3c1da858	0.009622656
46	0x3bce5182	0.0062963376
47	0x3c58feb9	0.013244324
48	0xbc86af9d	-0.01644116
49	0xbac7a7b6	-0.0015232477
50	0x3d86932c	0.065710396
51	0x3ba7692a	0.005108972
52	0x3c7539de	0.01496741
53	0x3ce070f1	0.027397605
54	0x3d09a3fe	0.03360366
55	0x3d52f0a8	0.05149904
56	0x3c7784d4	0.015107352
57	0xbc8b91fc	-0.017037384
58	0x3cde0d3c	0.02710592
59	0x3d661f64	0.05618228
60	0x3d902da9	0.07039959
61	0xbc1d6950	-0.009607628
62	0x3c93aec1	0.018027665
63	0x3d9d4349	0.07678849
64	0xba88d46a	-0.0010439281
65	0x3d317cb0	0.043331802
66	0xbc161d60	-0.009162277
67	0x3c895113	0.016762292
68	0xbb8f3c8e	-0.0043712324
69	0x3d4639f2	0.048395105
70	0x3a719f28	0.00092171365
71	0x3c996dac	0.018729053
72	0x3d833d2f	0.06408154
73	0x3c87be9f	0.016570387
74	0x3bcb3df3	0.0062024533
75	0x3c8fe0b1	0.017563196
76	0x3d357cfe	0.044308655
77	0xbbaaecfe	-0.00521624
78	0xbc0cc3e8	-0.00859163
79	0x3d11914f	0.035538968
80	0x3a8d6338	0.0010787016
81	0x39c16be8	0.00036892225
82	0x3b8a255e	0.0042158803
83	0x3bb1bc77	0.005424078
84	0x3d584a90	0.052805483
85	0x3c89d3b0	0.016824573
86	0x3d493b91	0.049129073
87	0x3d9d6582	0.07685377
88	0x3aae4e47	0.0013298475
89	0xbc8bac40	-0.017049909
90	0x3d32bdcc	0.043638036
91	0x3a7c3cdc	0.0009622106
92	0x3c9f01ea	0.019410092
93	0x3ca79a6d	0.020459378
94	0xbc1ed66e	-0.009694679
95	0x3d93aae8	0.07210332
96	0x3cd83a57	0.026395006
97	0x3bd457ff	0.0064802165
98	0x3d787b2c	0.06066434
99	0x3c6ee5b6	0.014581135
100	0x3c38d184	0.011280421
101	0x3ca7c712	0.020480666
102	0x3c6b2a54	0.0143533535
103	0x3c78bf8a	0.015182385
104	0x3d0ec5f2	0.034856744
105	0x3d3f1fd4	0.046661213
106	0x3d02a315	0.03189381
107	0x3c8ba0c7	0.017044438
108	0xbc39f96a	-0.011350969
109	0x3c8a94f9	0.016916739
110	0xbbea5e96	-0.007152389
111	0xbbfd27ab	-0.007725676
112	0x3cdf8008	0.02728273
113	0x3d73b58c	0.05949931
114	0x3c9695dc	0.018382005
115	0x3c07cf02	0.008289101
116	0x3d9e6c45	0.077354945
117	0x3a891a52	0.0010460115
118	0x3d6519ac	0.055932686
119	0xba78a160	-0.0009484496
120	0xbb7177ea	-0.0036845156
121	0xbc486ac9	-0.012232491
122	0x3da42673	0.08015146
123	0xbc2e1ea3	-0.010627422
124	0x3c80a863	0.015705293
125	0x3a0b1e90	0.00053069834
126	0x3c32f0b6	0.010921648
127	0x3bad03b6	0.0052799834
128	0x3ce8e5cb	0.028429886
129	0xbc3299e0	-0.0109009445
130	0x3c9f7888	0.019466653
131	0x3d0a6701	0.03378964
132	0x3d5b6e31	0.053571884
133	0xbb94bfbb	-0.0045394576
134	0x3d8f2b10	0.069906354
135	0x3ca36936	0.01994763
136	0xbc286605	-0.01027823
137	0x3c7f400c	0.015579235
138	0x3b4aaa84	0.003092439
139	0x3b539bae	0.0032288837
140	0xbc856c4c	-0.016286992
141	0x3d9623bf	0.07331037
142	0x3c032c39	0.008006149
143	0x3c3dc7a0	0.011583239
144	0x3b4130ad	0.0029478476
145	0x3c8b25f6	0.016985875
146	0x3d4a97b1	0.04946107
147	0x3ce40585	0.027834663
148	0xbc2621fc	-0.010139938
149	0x3b78d63a	0.0037969486
150	0xbafc5338	-0.0019250875
151	0x3d1ccb90	0.03828007
152	0x3d89f861	0.06736828
153	0x3c1569af	0.009119435
154	0xbc2ec121	-0.010666163
155	0xbc25a564	-0.010110233
156	0x3d8f3d7a	0.069941476
157	0xbb23a06c	-0.0024967445
158	0x3cb16b3d	0.02165758
159	0xbbc48a8a	-0.0059979605
160	0xbc0ac6c5	-0.008470242
161	0x3c840bb9	0.016118871
162	0x3ab04222	0.0013447443
163	0x3c991ed6	0.018691462
164	0x3d152f1a	0.036421873
165	0x3d360f91	0.04444844
166	0x3c8adc65	0.016950795
167	0x3b309d4c	0.0026949225
168	0x3d40b0f6	0.047043763
169	0x3c26596e	0.010153158
170	0xbc8babda	-0.017049719
171	0x3d650144	0.05590941
172	0x3d524051	0.05133087
173	0x3cc85e63	0.02445907
174	0xbc85ff41	-0.016357066
175	0xbbffeb73	-0.00781005
176	0x37db7900	2.616318e-05
177	0x3ca470d9	0.020073341
178	0xbb6d4a53	-0.003620763
179	0x3c1d0a3a	0.009584958
180	0x3c7f17d2	0.015569644
181	0x3d7319a6	0.059350632
182	0x3c6b0dc2	0.014346542
183	0xbc12a81e	-0.008951215
184	0xbaa17b02	-0.0012319984
185	0x3c76c428	0.015061416
186	0x3d252563	0.040318858
187	0x3d18cd03	0.03730489
188	0x3d1a2949	0.03763703
189	0x3cd0954b	0.025461813
190	0x3c5e3d8c	0.013564479
191	0x3b9481ba	0.004532066
192	0xbc01745c	-0.007901277
193	0x3d1977e6	0.03746786
194	0x3c92ebbe	0.017934676
195	0x3da269f4	0.07930365
196	0xbb955211	-0.004556902
197	0x3d1e1a00	0.038599014
198	0x3d56a753	0.052405667
199	0x3c09cee9	0.008411148
200	0x3c8e9f2d	0.017409885
201	0x3d2feff7	0.042953458
202	0xbafee801	-0.0019447805
203	0x3cf86095	0.030319491
204	0xbc328246	-0.010895317
205	0xbc2da02e	-0.010597272
206	0xbc2d6f3f	-0.010585605
207	0x3b6a5098	0.0035753604
208	0x3d1dc34a	0.03851632
209	0x3c59b320	0.013287336
210	0x3cb42a07	0.021992696
211	0x3d4ead3f	0.05045819
212	0xbc6fdacd	-0.0146395685
213	0xbb2b1c4f	-0.0026109403
214	0x3d973dd4	0.0738484
215	0x3b7f4ffe	0.0038957591
216	0x3da0d16f	0.07852446
217	0xbc83539c	-0.016031079
218	0x3c4ce5b1	0.012505935
219	0x3d0f173a	0.03493426
220	0x3bc4227f	0.0059855576
221	0xbbfd8b9c	-0.00773759
222	0x3d9b429d	0.07581065
223	0x3d8fdb10	0.07024205
224	0x3c99483b	0.0187112
225	0x3d4f9a76	0.050684415
226	0x3ba435b2	0.005011284
227	0x3d05e846	0.032692216
228	0x3bb27f73	0.005447322
229	0xbc608435	-0.013703396
230	0x3c852d3e	0.016256925
231	0x3d602d23	0.054730546
232	0xbc7322a7	-0.014839805
233	0xbba9c28a	-0.0051806616
234	0x3c2e9f5f	0.010658114
235	0x3aacf0dc	0.001319434
236	0x3d29af19	0.04142675
237	0x3b625dbe	0.0034540738
238	0x3d260b4c	0.040538117
239	0xbb074f3d	-0.0020646595
240	0x39b557f0	0.0003458853
241	0x3d8fd3f5	0.070228495
242	0x3c74bce9	0.014937618
243	0x3ca02cfe	0.019552704
244	0x3bc6366e	0.006048969
245	0x3a11e468	0.0005565346
246	0x3ba494b2	0.0050226087
247	0x3af5e549	0.0018760349
248	0x3cd1b072	0.025596831
249	0xbaf88b3c	-0.0018962394
250	0x3d254e7d	0.040358055
251	0x3c84d7a6	0.01621611
252	0x3b4b5946	0.0031028553
253	0x3c8c2c6e	0.01711103
254	0x3c968788	0.018375173
255	0x3cc3f7a7	0.0239218
