GolfFeedback-poc/src/s3_NAM_model/output/BS/0/checkpoints/epoch=498-val_loss=0.7557.ckpt (torch, 48078 bytes, 24 tensors)

model.feature_nns.0.model.0.weights f4 [1, 244]
000000 4a 68 e1 3c 11 18 1e 3d 19 22 17 3d a1 62 17 3d
       0.02751555 0.03859717 0.036897752 0.036959294
000010 e7 55 1e 3d c5 8c fc 3c f3 d7 1a 3d 10 58 1e 3d
       0.03865614 0.030828843 0.0378036 0.0386582
000020 55 4f 0f 3d b5 c0 75 3c e1 85 59 3c f7 f5 ef 3c
       0.034987766 0.014999558 0.013276548 0.02929209
000030 10 d1 13 3d 12 e3 18 3d fa 44 12 3d a9 47 96 3c
       0.03608805 0.037325926 0.035710312 0.018344717
000040 70 b1 02 3d 0b d8 16 3d bf 59 12 3d d0 69 0d 3d
       0.0319075 0.03682713 0.03573012 0.03452474
000050 7e b7 1c 3d 22 34 b9 3c db cc 08 3d 7b e1 ce 3c
       0.03826093 0.022607867 0.03339849 0.025254002
000060 4b 41 60 3c 9d c3 f1 3c 11 57 ef 3c 5a 7b 18 3d
       0.013687442 0.029512221 0.029216321 0.037227012
000070 74 55 b1 3c 73 6f 0e 3d f8 f7 df 3c 71 b3 e5 3c
       0.021647193 0.034774255 0.02733992 0.028039666
000080 34 74 a6 3c d0 3f 14 3d f2 78 0f 3d 32 b5 03 3d
       0.020319082 0.03619367 0.03502745 0.032155223
000090 7b 2c 89 3c 84 1e 1e 3d 7f 2f 05 3d 94 c4 a5 3c
       0.016744843 0.03860332 0.032516 0.020235337
0000a0 e1 48 1a 3d 95 f2 5c 3c c9 e1 12 3d a3 16 18 3d
       0.03766716 0.01348557 0.035859857 0.037130963
0000b0 31 92 16 3d 66 a6 1c 3d df d6 d2 3c e6 2e 80 3c
       0.036760513 0.038244627 0.025737224 0.015647363
0000c0 57 e8 1b 3d d6 1f 10 3d c0 09 14 3d 6d ad 13 3d
       0.038063373 0.03518661 0.03614211 0.036054064
0000d0 7e 8d e1 3c 99 72 17 3d 78 0a 10 3d d2 63 11 3d
       0.027533289 0.036974523 0.035166234 0.035495587
0000e0 e8 b5 df 3c 6c f4 cc 3c cb 41 02 3d 63 3e aa 3c
       0.02730842 0.025018893 0.031801026 0.020781701
0000f0 6b 13 04 3d 0d 76 0a 3d 0b 55 d6 3c ed ca 01 3d
       0.03224508 0.03380399 0.026163599 0.031687666
000100 ae a3 17 3d bc cd a9 3c a3 33 11 3d ed 60 1b 3d
       0.03702133 0.020727985 0.035449635 0.037934233
000110 f5 af 17 3d 49 99 ce 3c 6f ad 0f 3d 29 71 0a 3d
       0.03703304 0.025219576 0.03507751 0.033799324
000120 e4 4b fc 3c 6e 1f 13 3d 1f 59 0c 3d 42 88 d7 3c
       0.030797906 0.035918646 0.03426468 0.02631009
000130 64 b2 1b 3d 02 e7 ee 3c 6c ec 13 3d 4a 85 14 3d
       0.038011923 0.029162887 0.03611414 0.036259927
000140 96 af 17 3d fd 72 ff 3c b5 02 eb 3c 38 16 16 3d
       0.037032686 0.03118276 0.028687814 0.036642283
000150 60 4d 1e 3d a4 a2 cb 3c 31 10 00 3d 6e 42 1c 3d
       0.03864801 0.024857827 0.03126544 0.03814929
000160 b9 85 0e 3d ab 46 15 3d 3c b7 01 3d 66 5c 16 3d
       0.034795497 0.036444347 0.031668887 0.03670921
000170 20 1f 0e 3d b8 f7 c4 3c 40 51 1d 3d fd 36 96 3c
       0.034697652 0.024043903 0.038407564 0.018336767
000180 ec 43 19 3d 6e 86 d4 3c 2b f0 1d 3d a0 31 14 3d
       0.03741829 0.025943007 0.03855912 0.03618014
000190 ab 92 1e 3d 52 1e 1d 3d b3 89 0c 3d 78 52 1d 3d
       0.038714092 0.038358994 0.034311008 0.038408726
0001a0 7f ce d2 3c c6 f9 cf 3c 29 41 ab 3c b1 9c de 3c
       0.02573323 0.025387656 0.020905094 0.027174326
0001b0 33 3e 17 3d bc f5 15 3d 1a 6b 96 3c 33 98 b6 3c
       0.036924552 0.036611304 0.018361617 0.022289371
0001c0 8e 62 19 3d 2c 6a 1e 3d 44 17 18 3d af 32 0e 3d
       0.037447505 0.038675472 0.037131563 0.034716304
0001d0 ce 51 f7 3c 07 8e 0c 3d e3 b3 19 3d 24 4a b1 3c
       0.030190375 0.034315135 0.03752507 0.021641798
0001e0 06 47 f1 3c 6c e7 0b 3d 87 8b 5d 3c 3e cc 07 3d
       0.029452812 0.034156248 0.013522035 0.033153765
0001f0 91 a5 0d 3d a1 ef 10 3d 94 12 e9 3c c8 cb 17 3d
       0.034581725 0.035384778 0.028451242 0.037059575
000200 67 0f 8c 3c 4e 5a 4f 3c 70 39 0e 3d f0 08 17 3d
       0.017097188 0.012655808 0.034722745 0.036873758
000210 39 f4 08 3d a6 db 1a 3d 00 aa 15 3d 78 2b 18 3d
       0.033436034 0.03780713 0.036539078 0.03715083
000220 8b 27 03 3d 29 c2 19 3d 72 9e be 3c c8 86 e1 3c
       0.032020133 0.03753868 0.023268912 0.027530089
000230 bf d3 ea 3c 37 d4 17 3d 8b d3 1c 3d f4 af e0 3c
       0.028665422 0.03706762 0.03828768 0.027427651
000240 0d 3f 17 3d 0d 42 e3 3c d9 26 10 3d c2 f5 1a 3d
       0.036925364 0.027741456 0.035193298 0.03783203
000250 41 24 10 3d 33 ed 06 3d 62 82 08 3d dd d3 06 3d
       0.035190824 0.032941055 0.033327468 0.032916892
000260 d0 14 7d 3c b0 e5 0d 3d 97 25 09 3d ba f3 1e 3d
       0.015446857 0.034642875 0.033483114 0.038806655
000270 c4 c3 c3 3c 27 41 1e 3d eb ac 1d 3d a7 fe 9c 3c
       0.02389706 0.038636353 0.038494986 0.019164396
000280 49 05 02 3d e3 b7 13 3d 7d 38 14 3d 29 41 f1 3c
       0.03174332 0.03606404 0.036186684 0.029450016
000290 2a e0 d1 3c f9 cc eb 3c 52 4c f6 3c f9 0f 13 3d
       0.025619585 0.028784262 0.03006569 0.035903905
0002a0 2a aa 06 3d 0f 1a 14 3d 14 24 03 3d 13 a0 0f 3d
       0.032877125 0.036157664 0.03201683 0.035064768
0002b0 ac 8d 13 3d 2f 17 b3 3c c6 91 ef 3c f6 b1 4e 3c
       0.03602378 0.02186164 0.029244315 0.012615671
0002c0 c6 72 f5 3c d9 b9 c4 3c 5f 1d 26 3c dc fb 1d 3d
       0.029961955 0.0240144 0.010138839 0.03857027
0002d0 4d c4 f0 3c 93 81 08 3d 65 f8 d7 3c c1 8e 0a 3d
       0.029390479 0.033326697 0.02636356 0.033827547
0002e0 d8 7e 8e 3c 8e fa 01 3d 2e 48 03 3d 1b 3f 0d 3d
       0.017394468 0.03173309 0.032051258 0.03448401
0002f0 7b b4 0a 3d d1 ec 18 3d 34 8d 08 3d 1e c7 ee 3c
       0.033863526 0.03733522 0.033337787 0.02914768
000300 43 6c 1e 3d 63 20 02 3d 46 36 1d 3d 18 7a be 3c
       0.038677465 0.031769168 0.038381837 0.023251578
000310 d9 40 df 3c 8c e2 af 3c 01 c0 d6 3c 9f bb 09 3d
       0.027252601 0.02147033 0.026214601 0.033626195
000320 ce c9 1a 3d fa 52 c3 3c db 64 11 3d 5e 1c 1a 3d
       0.037790112 0.023843277 0.035496574 0.03762471
000330 e4 e1 1e 3d e4 a1 11 3d 34 08 f2 3c 19 b0 a6 3c
       0.038789645 0.03555478 0.029544927 0.020347642
000340 af ef 0c 3d a4 8e 16 3d 69 fd 0b 3d 6d ab 14 3d
       0.034408268 0.036757126 0.034177218 0.036296297
000350 43 3d 1d 3d 70 d7 04 3d 02 c7 d0 3c e5 90 03 3d
       0.0383885 0.03243202 0.02548552 0.032120604
000360 5f 12 fa 3c 93 3a 17 3d 97 04 15 3d 77 7c 07 3d
       0.030526338 0.036921095 0.03638133 0.033077683
000370 f3 36 16 3d ad db d0 3b 17 f6 cf 3c 91 64 0a 3d
       0.036673497 0.0063738436 0.0253859 0.033787314
000380 c8 e5 0e 3d f9 04 1c 3d e1 ed 0a 3d e2 9c d9 3c
       0.034887105 0.03809068 0.033918265 0.026564065
000390 65 4d 01 3d d4 ba cf 3c 86 bc e9 3c ce be f8 3c
       0.03156795 0.025357641 0.028532278 0.03036442
0003a0 0e cd 17 3d 9d 01 1f 3d 77 6d 0e 3d 29 49 c5 3c
       0.03706079 0.038819898 0.034772363 0.024082737
0003b0 f1 59 94 3c 2d e6 f0 3c b1 a5 ba 3c bc aa ce 3c
       0.018109294 0.029406631 0.022784086 0.025227897
0003c0 77 4b a4 3c 7b ad 0d 3d 7b 15 0c 3d 9a b9 04 3d
       0.020055516 0.034589272 0.034200173 0.032403566

model.feature_nns.0.model.1.weight f4 [1, 244]
000000 16 e5 00 b8 ee 92 68 39 26 4a fd 39 86 51 5a 3a
       -3.073093e-05 0.0002217998 0.00048311165 0.0008328188
000010 ff 60 48 3a 77 ae d1 b9 63 1e 7d b9 08 77 f0 b8
       0.0007643848 -0.00039993573 -0.0002413928 -0.00011466263
000020 fd a0 99 3a 07 88 7d 3a 2d 10 9d 39 e4 0c 8f 3a
       0.0011720952 0.0009671454 0.00029957425 0.0010913876
000030 5b a5 65 39 d6 35 00 3a 33 50 33 ba 8c 6d a8 38
       0.00021900742 0.00048908347 -0.0006840259 8.031269e-05
000040 16 bb cc 38 55 86 74 3a 30 62 cf 39 8d ea d2 39
       9.7623255e-05 0.00093278784 0.00039555272 0.00040229075
000050 ca c0 3a 3a 52 dc 14 3a 01 82 0e b9 cc 24 80 39
       0.0007124065 0.0005678582 -0.00013590606 0.00024441478
000060 ab 2a 4d 3a 4c 98 c6 39 cb bf 85 39 9d 5e 3c 39
       0.00078264874 0.00037878973 0.00025510634 0.00017964323
000070 75 8a c3 39 36 14 94 3a f3 dc 5c 3a 98 8b 0d 3a
       0.00037296457 0.0011297527 0.0008425258 0.0005399524
000080 9d bd 61 ba 24 8f a5 3a ee 0b 9a 39 e4 d0 00 3a
       -0.00086113234 0.001263116 0.00029382057 0.00049139396
000090 6d 52 2e b9 80 d6 78 3a 9d bb 57 39 78 0a 4b 3a
       -0.00016624639 0.0009492412 0.00020573889 0.00077453954
0000a0 f4 71 27 3a 4d 65 b3 b9 43 9f 84 39 33 ad 11 39
       0.0006387525 -0.00034217015 0.0002529566 0.000138928
0000b0 bf a6 1e 3a 10 01 07 3a 6d a2 da 37 f8 af 1d 3a
       0.0006052069 0.00051499996 2.606326e-05 0.0006015296
0000c0 91 d8 db 39 aa 4e b8 39 0e 04 f7 39 86 94 86 39
       0.0004193229 0.00035153824 0.00047114532 0.0002566913
0000d0 44 91 3a b6 58 94 7f 3a a8 cb 0f 39 fd 94 5a 3a
       -2.7800716e-06 0.0009749583 0.0001371341 0.0008338241
0000e0 b7 68 67 3a 70 7e 8b 3a 3a e8 8b 3a a9 85 bd b9
       0.00088275544 0.001064254 0.0010674067 -0.00036148474
0000f0 a9 7c b8 39 57 49 64 38 cb 71 8e 39 30 32 3d 3a
       0.00035188094 5.442774e-05 0.00027169133 0.00072172564
000100 7a 5f 96 3a 42 2d aa 3a d9 af 99 b9 1a 3d f9 39
       0.0011472546 0.0012983459 -0.0002931345 0.00047538505
000110 0a 76 dc 39 f3 34 c2 3a 24 e1 8a 3a fe 44 c5 b9
       0.00042049616 0.0014816805 0.0010595662 -0.0003762617
000120 eb 51 45 b9 7c 14 98 3a 8e 23 61 3a 11 c7 d4 39
       -0.00018817901 0.0011602785 0.0008588367 0.00040584107
000130 f4 53 3d 3a 45 e1 6b 3a dc ad 31 39 b2 86 b0 38
       0.0007222288 0.00089981064 0.00016944803 8.417423e-05
000140 47 da 91 3a 28 96 2b 3a 64 ac 43 3a 57 9b f5 39
       0.0011127674 0.00065455073 0.0007464348 0.0004684578
000150 7f bf 7c 3a 0b 71 fb 38 23 f8 d7 38 be 92 24 3a
       0.0009641572 0.000119896686 0.00010298218 0.000627797
000160 1c 1f 3a b8 21 97 cb b9 44 41 0c ba a1 ad 53 3a
       -4.437483e-05 -0.00038831777 -0.00053503015 0.0008074884
000170 52 e6 4c 3a fb 41 47 b8 9a b4 f3 38 1b 8e ba 3a
       0.0007816303 -4.7506746e-05 0.000116207826 0.0014233025
000180 32 35 ff 39 fd 7c 9f 39 82 64 d3 39 8a 43 7b 3a
       0.00048677024 0.00030419967 0.0004031994 0.0009584954
000190 8c 69 b0 3a bb fd 9d 39 ef 8d 83 3a b0 66 93 3a
       0.001345919 0.00030134417 0.0010036806 0.0011245813
0001a0 a2 ab 8e b8 d3 52 97 3a 7a 38 5c 3a c2 1e 6e b7
       -6.803057e-05 0.0011545069 0.00084007496 -1.4193067e-05
0001b0 3c a8 b6 3a 30 b1 29 39 11 7d bb b9 00 d3 96 3a
       0.0013935636 0.00016183103 -0.000357606 0.0011506975
0001c0 c8 ff 90 3a aa b3 85 39 fb b9 e0 3a 68 56 1d 39
       0.0011062557 0.00025501597 0.001714527 0.00015004876
0001d0 26 c1 12 39 4a 4d d5 39 17 7a a3 3a 3a 24 e7 b8
       0.00013995598 0.0004068411 0.0012472299 -0.00011021686
0001e0 c9 17 83 3a 58 28 29 39 85 76 e7 b9 24 ba ee 37
       0.0010001595 0.00016132125 -0.00044148057 2.845849e-05
0001f0 60 98 a4 3a a5 34 18 3a 9c f1 47 39 24 b5 49 3a
       0.0012557618 0.00058061845 0.00019068125 0.00076945336
000200 fd 71 e9 39 d9 c5 06 3a 8e 95 a5 39 f3 9d 2a 39
       0.0004452615 0.0005141176 0.0003158268 0.00016271304
000210 a2 b6 a1 39 42 9e b8 3a dd 97 ae 39 3e c4 4b 3a
       0.00030844385 0.001408525 0.00033301013 0.0007773078
000220 04 b1 cb 3a 6f db fe b9 a3 cc 0a 39 a5 8e 45 39
       0.0015540426 -0.00048610146 0.00013236939 0.00018840523
000230 b3 03 70 39 62 00 d5 b7 6b 14 19 b9 aa 1f 58 3a
       0.00022889562 -2.5391757e-05 -0.00014598823 0.00082444644
000240 b4 8b 7d 39 f9 36 99 39 02 6e 6e 3a eb 35 e6 39
       0.00024180004 0.00029223392 0.0009095372 0.0004390919
000250 47 e0 73 3a cb 72 99 38 6c c1 31 3a d1 33 30 3a
       0.0009303134 7.3169904e-05 0.0006780836 0.00067215884
000260 c9 86 b3 39 5e 6e 94 39 a6 09 96 3a 86 d4 f8 38
       0.00034241963 0.0002831099 0.0011446967 0.00011865147
000270 ca 79 2a 3a a7 1d 1a 3a 6d 1d ad 39 46 97 d6 39
       0.00065031333 0.00058790523 0.00033019055 0.00040929968
000280 42 5e 95 3a 85 9f 2a 3a f3 60 95 b5 50 7f 2b b9
       0.0011395889 0.00065087556 -1.1129581e-06 -0.00016355258
000290 3a 36 fb b8 86 ac 14 3a 2a 6d b3 3a ab 7b 59 39
       -0.00011978713 0.000567146 0.001368915 0.00020740803
0002a0 22 55 c6 3a f6 ad 6a 3a b9 46 59 38 0e b1 5e 3a
       0.0015131573 0.0008952314 5.1802697e-05 0.0008495011
0002b0 89 85 3f 39 87 a8 de b8 12 69 d8 39 22 3a 8f 3a
       0.00018264925 -0.000106171756 0.00041277014 0.0010927359
0002c0 b5 1d 57 ba af 8c 58 39 57 2a ef 38 91 dd 2d 3a
       -0.0008206026 0.00020651774 0.000114042945 0.0006632442
0002d0 2f c7 f1 39 f4 83 42 38 54 44 ac 3a 6d c7 72 3a
       0.00046115505 4.6376095e-05 0.0013142922 0.0009261284
0002e0 24 22 0a 3a 45 0c 43 3a e5 86 7f 3a a7 de 26 b9
       0.00052693696 0.0007440488 0.0009747579 -0.00015913938
0002f0 1b be 06 3a 93 c4 67 3a f1 22 bf 39 ad b2 fa b9
       0.0005140022 0.00088412425 0.00036456392 -0.0004781684
000300 7f af 11 39 cf c6 90 3a 6a c5 65 b9 a2 c0 55 3a
       0.00013893655 0.0011045578 -0.00021912684 0.00081540097
000310 25 d8 10 3a 8a ae 76 3a dc f0 2c 39 88 99 86 b9
       0.0005525372 0.00094101636 0.00016492925 -0.0002567286
000320 9f 2a ca 38 62 ef 1f 3a fc ea 67 3a c6 01 8e 39
       9.6400494e-05 0.00061010395 0.0008846966 0.00027085672
000330 f1 09 91 3a 96 5e 4c b8 2d a1 8f 3a 52 6f 3d 3a
       0.0011065585 -4.872548e-05 0.0010958068 0.0007226366
000340 d3 5c 94 3a ca 11 e9 39 58 e3 74 3a 63 f6 14 3a
       0.0011319168 0.00044454477 0.0009341738 0.00056824664
000350 47 d0 1f 3a 9e bd 73 b8 66 4f 2e 3a 2d 23 b8 3a
       0.00060964044 -5.811231e-05 0.00066494045 0.0014048569
000360 66 e5 5c 39 0d 3a 2b 3a 7b e8 09 ba 5e fe 69 3a
       0.00021066293 0.00065317826 -0.00052607775 0.00089261483
000370 2c 05 71 39 4d 4f 16 3a 2b 4b a3 39 e3 e1 39 3a
       0.00022985478 0.00057338626 0.00031145787 0.00070908497
000380 d1 d7 9a 39 c4 c5 d2 39 44 14 1a 3a 17 46 0d 3a
       0.00029533965 0.00040201668 0.00058776536 0.00053891673
000390 68 fa 83 3a 80 4d 0e ba bf ca 5e 3a 6c c0 a1 3a
       0.0010069134 -0.00054284185 0.00084988395 0.0012340671
0003a0 d2 d6 13 3a 2b 11 95 3a dd 74 b2 b9 44 57 7a 3a
       0.00056396157 0.0011372914 -0.00034037876 0.0009549747
0003b0 e3 d1 88 b8 e6 9b 4f 3a d7 cb 3a 39 02 20 ec 39
       -6.52408e-05 0.0007919654 0.00017814279 0.00045037275
0003c0 21 4e b2 3a 93 e1 23 39 41 9c 06 3a fc 0c 8d 3a
       0.0013603606 0.00015628924 0.0005134978 0.0010761316

model.feature_nns.1.model.0.weights f4 [1, 112]
000000 8f 1b 0b 3d 57 c4 1c 3d fa a5 fe 3c ea 84 11 3d
       0.03396183 0.03827318 0.031085003 0.035527147
000010 9e 1c 0d 3d f7 ce 19 3d 1d 4b df 3c f5 32 12 3d
       0.03445112 0.037550893 0.027257496 0.035693128
000020 09 b8 17 3d 93 84 fc 3c c1 4c 18 3d 4f fc 06 3d
       0.037040744 0.030824935 0.037182573 0.032955464
000030 c0 02 1b 3d 66 54 f4 3c 09 39 18 3d d0 15 1e 3d
       0.03784442 0.0298254 0.037163768 0.03859502
000040 68 67 1b 3d 56 2b 17 3d b3 a6 1d 3d bb b3 08 3d
       0.037940413 0.036906563 0.038489055 0.03337453
000050 cc 8c 1d 3d 17 a1 1c 3d 94 0d fc 3c 20 9b 18 3d
       0.038464352 0.038239565 0.030768193 0.037257314
000060 93 84 fc 3c c5 71 c4 3c 72 ff 96 3c f4 6a a3 3c
       0.030824935 0.02398003 0.018432353 0.01994846
000070 50 8c 0f 3d f1 00 1c 3d be 29 0d 3d 3a 6a 18 3d
       0.03504592 0.038086835 0.034463637 0.03721068
000080 4c 1a b5 3c aa ee 08 3d 8a 3f 17 3d 3a f5 ed 3c
       0.022107266 0.033430733 0.03692583 0.029047597
000090 3e 57 14 3d 35 99 e8 3c 91 79 1b 3d 09 fe d4 3c
       0.036216013 0.028393367 0.03795773 0.02600004
0000a0 03 59 15 3d 53 70 fd 3c e8 6f 13 3d b0 7d 1c 3d
       0.03646184 0.03093735 0.035995394 0.038205802
0000b0 2b 52 fa 3c e8 49 62 3c 7c 70 05 3d 41 d6 43 3c
       0.030556759 0.013811566 0.032577977 0.011952938
0000c0 de e9 17 3d de 2c 0e 3d 84 1e 08 3d 01 65 ff 3c
       0.037088268 0.034710757 0.033232227 0.031176092
0000d0 e2 8b 02 3d da 9d 1b 3d 36 14 01 3d bf 6f 19 3d
       0.031871684 0.037992336 0.031513415 0.037460085
0000e0 bf ae b1 3c 87 3a 84 3c 4d 94 d3 3c c4 e1 19 3d
       0.02168977 0.01614119 0.025827551 0.037568823
0000f0 c6 fa fc 3c 27 36 f2 3c e0 5f 0e 3d a9 de 1c 3d
       0.030881297 0.029566837 0.034759402 0.038298283
000100 a8 b4 e0 3c a1 b7 ee 3c 52 2b 10 3d 87 ad 15 3d
       0.027429894 0.029140295 0.035197563 0.03654244
000110 58 cd 0c 3d e5 f6 9a 3c 85 2c b3 3c e8 9e 06 3d
       0.03437552 0.018916557 0.021871815 0.03286639
000120 f6 1b 12 3d 58 cd 0c 3d ec 80 ad 3c ed 04 12 3d
       0.035671197 0.03437552 0.021179639 0.03564923
000130 09 c1 05 3d 60 6d 11 3d c3 5a d0 3c fb 17 ef 3c
       0.032654796 0.0355047 0.025433904 0.02918624
000140 0e c2 03 3d bb b3 08 3d 3c 03 11 3d da cd e8 3c
       0.032167487 0.03337453 0.035403475 0.02841847
000150 50 8c 0f 3d d7 a6 16 3d fc 3a 0a 3d 59 cd 04 3d
       0.03504592 0.036780205 0.033747658 0.032422397
000160 25 55 1b 3d c0 02 1b 3d eb a6 1b 3d 6d d3 eb 3c
       0.037922997 0.03784442 0.038000982 0.02878734
000170 ad 53 17 3d 20 0f 11 3d a0 c8 13 3d c0 bb 10 3d
       0.036945034 0.035414815 0.036080003 0.035335302
000180 e2 ca 00 3d bc 73 0a 3d 71 60 18 3d 4b e4 bf 3c
       0.031443484 0.03380178 0.03720135 0.023424288
000190 c1 4d 7e 3c fa fd c7 3c 24 d1 05 3d 88 7d f1 3c
       0.015521468 0.024413098 0.032670155 0.029478803
0001a0 44 bf 11 3d f5 a2 15 3d 29 19 15 3d fe d2 0d 3d
       0.035582796 0.03653236 0.036400948 0.034625046
0001b0 fc 3a 0a 3d c5 87 df 3c 29 f5 0c 3d 2a ce 14 3d
       0.033747658 0.02728642 0.03441349 0.036329426

model.feature_nns.1.model.1.weight f4 [1, 112]
000000 fe bb 09 ba e2 f8 17 ba e2 10 1e ba be 92 7f ba
       -0.0005254148 -0.00057972793 -0.00060297374 -0.00097493443
000010 41 ac 2e ba d8 88 b0 ba f2 1c ca b7 32 1b ba b9
       -0.0006663241 -0.0013468517 -2.4093755e-05 -0.00035496947
000020 87 02 a8 ba 8c 03 86 ba d1 a0 ae b9 86 50 17 ba
       -0.0012818136 -0.0010224446 -0.00033307684 -0.0005772192
000030 e5 8c 1f ba db 43 30 b9 29 a8 9e ba b1 82 51 b9
       -0.00060863636 -0.00016809946 -0.0012104559 -0.0001998048
000040 32 54 0d ba a1 47 45 ba d0 47 0c ba 8e 8b 43 ba
       -0.0005391269 -0.0007525627 -0.0005351277 -0.0007459455
000050 46 64 24 b8 b5 41 b6 ba a5 f3 50 ba 59 54 ea b9
       -3.9194034e-05 -0.001390508 -0.0007970876 -0.00044694802
000060 ef 1a 99 b9 00 2d 93 ba b9 6f b8 ba 02 91 41 b9
       -0.000292025 -0.0011228621 -0.0014071382 -0.00018459934
000070 8b bb 24 38 a2 78 2d ba b4 80 16 ba 0e c7 d0 b9
       3.927531e-05 -0.0006617402 -0.0005741224 -0.0003982116
000080 32 ee 79 b8 3f fe dd b8 a5 36 18 ba e2 1c dd b9
       -5.9588063e-05 -0.00010585458 -0.00058064825 -0.00042173924
000090 6d db 66 ba c7 c6 d3 b9 8e 08 3a ba 57 8c 08 ba
       -0.00088065007 -0.00040393157 -0.00070966117 -0.00052089005
0000a0 49 65 18 ba ba 43 4b ba 8d 63 a9 ba 31 83 6d b9
       -0.00058134325 -0.00077539275 -0.0012923345 -0.00022650954
0000b0 d1 1a 09 ba ec 4b 3c b9 14 a0 2c b9 5c d3 0a ba
       -0.0005230131 -0.0001795736 -0.00016462832 -0.0005295777
0000c0 c2 7d 3a ba f5 6c 6c b9 cd 7e 21 ba ec 7c 9c b9
       -0.0007114076 -0.00022547304 -0.00061605574 -0.00029847713
0000d0 70 32 35 ba a6 97 7c ba db a7 85 ba fc 29 21 b8
       -0.0006912118 -0.00096356345 -0.001019712 -3.8424492e-05
0000e0 ab 42 3d ba 8f a1 8c ba 94 3c c2 ba ec 61 10 ba
       -0.0007219712 -0.00107293 -0.0014819079 -0.00055077556
0000f0 14 df 04 ba d4 eb 5d b7 86 36 30 ba ed 7f 2f ba
       -0.00050686416 -1.32275345e-05 -0.0006721992 -0.00066947826
000100 fe 78 07 ba 87 1e a6 ba 6f d5 72 ba fd 1f 70 ba
       -0.00051678705 -0.0012673893 -0.00092633715 -0.000916004
000110 20 39 11 ba d1 d7 8e ba 88 a9 6e ba 41 2b 84 ba
       -0.00055398233 -0.0010898059 -0.00091042416 -0.0010083691
000120 13 50 22 ba f2 8b 2b ba ad 43 a4 ba 1e 20 da b9
       -0.00061917416 -0.0006543986 -0.0012532376 -0.0004160413
000130 7b 40 47 ba d3 8b 60 ba 6a 28 36 ba 57 22 1c b9
       -0.0007600856 -0.00085657573 -0.0006948771 -0.00014890112
000140 dc 4c 2c ba a7 6c 6b ba c2 29 28 ba e0 cc 72 ba
       -0.0006572732 -0.0008980729 -0.0006414914 -0.0009262096
000150 de 3e 13 ba 12 a2 88 ba 3e 7f 68 ba f0 db e0 b9
       -0.0005616973 -0.0010424277 -0.0008869058 -0.00042888476
000160 fc 89 44 ba d7 1b 0b ba 2d 04 9b ba 47 cf 63 ba
       -0.0007497368 -0.00053065777 -0.0011826806 -0.00086902495
000170 03 18 82 ba 6b 3d bd b9 78 98 83 ba a9 07 37 b9
       -0.0009925369 -0.0003609465 -0.0010039946 -0.00017455094
000180 aa ae 33 ba 7a 0f ce b8 84 89 84 ba bb f4 0c ba
       -0.0006854335 -9.825728e-05 -0.0010111784 -0.0005377044
000190 73 81 a2 ba 2a f4 62 b9 6f 9f 49 ba e1 d0 5f ba
       -0.0012398198 -0.00021643998 -0.0007691299 -0.00085379
0001a0 5b 4e 49 ba 00 48 2f ba d2 82 b2 ba cb ee 66 ba
       -0.00076792174 -0.0006686449 -0.001361931 -0.00088093866
0001b0 56 d7 77 ba be 56 b7 b9 e6 35 8b ba 17 67 57 ba
       -0.000945439 -0.00034969108 -0.0010620921 -0.00082169607

model.feature_nns.2.model.0.weights f4 [1, 274]
000000 85 65 0a 3d 96 86 1c 3d cd 43 15 3d 47 31 a7 3c
       0.033788223 0.03821429 0.036441613 0.02040924
000010 0e 5e 0d 3d 20 d7 09 3d f5 5a 0f 3d 0e 17 17 3d
       0.034513526 0.033652425 0.034998853 0.03688722
000020 95 87 18 3d 8a 2b e1 3c 1a ae 17 3d 1b e2 11 3d
       0.037238676 0.027486581 0.03703127 0.03561602
000030 84 1e 08 3d a6 63 15 3d 9d f2 18 3d b9 a2 cc 3c
       0.033232227 0.036471985 0.03734075 0.024979936
000040 8a 2b e1 3c 00 cd 15 3d ef f7 1b 3d 2a 4f f1 3c
       0.027486581 0.036572456 0.038078245 0.029456694
000050 2b 0d d9 3c 8b 4a ab 3c 9f 5b f9 3c bf 20 06 3d
       0.026495537 0.020909568 0.030439196 0.032746073
000060 6f c4 df 3c 66 10 02 3d 13 49 00 3d c9 62 0c 3d
       0.027315347 0.03175392 0.03131969 0.034273896
000070 78 35 17 3d d8 82 19 3d 1f 86 13 3d 95 1b af 3c
       0.036916226 0.037478298 0.03601658 0.021375457
000080 bd f4 13 3d f4 d5 0a 3d 25 15 1b 3d dc 10 06 3d
       0.036122072 0.033895448 0.037861962 0.032730922
000090 be 29 0d 3d 91 a9 b3 3c cb 56 ee 3c 74 d9 dd 3c
       0.034463637 0.021931442 0.02909412 0.027081229
0000a0 99 42 d8 3c f0 43 0d 3d 4a 97 fd 3c 9e 52 1a 3d
       0.026398944 0.03448862 0.03095593 0.037676446
0000b0 0c 51 0d 3d 14 0b ae 3c 03 d3 07 3d 6f 06 ca 3c
       0.03450112 0.021245517 0.03316022 0.02466127
0000c0 e5 55 c8 3c 84 d6 ff 3c ea 37 04 3d d0 6f 06 3d
       0.02445502 0.031230219 0.032279886 0.032821476
0000d0 e8 87 c5 3c 6f 06 ca 3c 8a d1 0e 3d 6f c4 df 3c
       0.024112657 0.02466127 0.0348678 0.027315347
0000e0 78 aa e3 3c df b0 c9 3c 15 61 06 3c c9 bc 04 3d
       0.027791247 0.024620472 0.008201857 0.032406602
0000f0 07 da 16 3d e1 e7 ee 3c 91 fe 01 3d 27 36 f2 3c
       0.03682902 0.029163303 0.031736914 0.029566837
000100 be 90 05 3d 6c 76 94 3c c1 4d 7e 3c 73 0d d0 3c
       0.03260874 0.018122874 0.015521468 0.025397038
000110 09 c1 05 3d 66 45 d5 3c f5 5a 0f 3d 13 49 00 3d
       0.032654796 0.026034068 0.034998853 0.03131969
000120 be 8b 1b 3d 45 43 13 3d b3 35 0f 3d 4c 37 f6 3c
       0.037975065 0.035952825 0.03496332 0.030055664
000130 9e 0e a0 3c 18 a9 b9 3c f9 b8 9b 3c 95 11 18 3d
       0.01953822 0.022663638 0.0190091 0.037126143
000140 a1 b7 ee 3c 8e 92 0e 3d 4b 5e 1b 3d be 8b 1b 3d
       0.029140295 0.034807734 0.03793172 0.037975065
000150 c0 bb 10 3d 2c a4 17 3d 1d 65 a8 3c 1b 22 fd 3c
       0.035335302 0.0370218 0.020556027 0.030900052
000160 2f 2f b2 3c 1a ae 17 3d 36 27 04 3d 52 1e 1b 3d
       0.021751015 0.03703127 0.032263957 0.037870713
000170 94 90 11 3d b0 0a 14 3d ca c0 23 3c 7c 36 14 3d
       0.03553827 0.036143005 0.009994695 0.036184773
000180 29 19 15 3d a7 3c 32 3c 90 b5 c3 3c 7f a3 fa 3c
       0.036400948 0.010878718 0.023890287 0.03059554
000190 f4 00 06 3d 2a eb 19 3d 4f 36 ce 3c b5 65 3e 3c
       0.032715753 0.037577786 0.02517238 0.0116209285
0001a0 0e 64 f2 3c 40 39 f7 3c 10 99 c6 3c 2b fc ff 3c
       0.029588725 0.030178666 0.024242908 0.031248173
0001b0 c2 b0 12 3d c2 f4 19 3d 8a 2b e1 3c 88 45 02 3d
       0.0358131 0.037586935 0.027486581 0.03180459
0001c0 2b 38 e3 3c 6f 06 ca 3c d8 72 1d 3d 78 37 f8 3c
       0.027736744 0.02466127 0.0384396 0.030299887
0001d0 24 c2 81 3c b2 de 13 3d 13 49 00 3d 8d 08 eb 3c
       0.015839644 0.03610105 0.03131969 0.0286906
0001e0 7e 8e e7 3c 25 da ab 3c 09 fe d4 3c 21 ba 4d 3c
       0.028266188 0.020978043 0.02600004 0.012556584
0001f0 0b d9 14 3d 30 e4 16 3d db 85 ce 3c d7 7f 10 3d
       0.0363398 0.03683871 0.025210312 0.035278168
000200 b3 a6 1d 3d 12 12 e6 3c b3 96 93 3c 0c e6 89 3c
       0.038489055 0.028084788 0.018016195 0.016833328
000210 93 84 fc 3c 77 47 1d 3d a6 23 00 3d f6 ad 1e 3d
       0.030824935 0.038398232 0.031283997 0.03874012
000220 9d 82 1b 3d ed 04 12 3d c0 ec 0d 3d 04 60 06 3d
       0.03796636 0.03564923 0.03464961 0.03280641
000230 b1 c7 10 3d 67 2d b1 3c 45 b9 aa 3c e5 8a 0c 3d
       0.03534669 0.021628095 0.020840297 0.034312148
000240 35 1a f3 3c f2 bf cf 3c 2b fc ff 3c 8a 3f 17 3d
       0.029675582 0.025360081 0.031248173 0.03692583
000250 e2 22 19 3d bd f4 13 3d f5 c7 0a 3d 78 aa e3 3c
       0.037386782 0.036122072 0.0338821 0.027791247
000260 2f 62 1e 3d 11 69 16 3d ce 8a ff 3c 30 d1 08 3d
       0.038667854 0.036721293 0.031194117 0.03340262
000270 ea 0b 07 3d c1 ec 01 3d 26 50 1d 3d d7 a6 16 3d
       0.032970347 0.031719927 0.038406514 0.036780205
000280 df f0 1e 3d 74 26 01 3d 01 ac 0a 3d ed 04 12 3d
       0.03880393 0.031530812 0.033855442 0.03564923
000290 29 eb d6 3c a8 e2 1d 3d a2 58 e7 3c d8 1c fb 3c
       0.02623518 0.038546234 0.028240506 0.030653402
0002a0 2a 57 02 3d c1 ec 01 3d fd 01 01 3d 35 29 fa 3c
       0.031821407 0.031719927 0.031496037 0.030537227
0002b0 a0 49 17 3d 5e 3e 11 3d 6d 1b 18 3d ac ed 11 3d
       0.03693545 0.03545987 0.03713553 0.035627052
0002c0 aa 54 b8 3c 83 f2 fe 3c c0 ec 0d 3d 64 dd d3 3c
       0.022501308 0.031121498 0.03464961 0.025862403
0002d0 8a 23 cf 3c c7 f3 1d 3d 44 81 1a 3d 00 48 ef 3c
       0.025285501 0.038562562 0.037720934 0.029209137
0002e0 13 06 19 3d 29 eb d6 3c 6b 46 0e 3d a9 0b 16 3d
       0.03735931 0.02623518 0.034735125 0.036632214
0002f0 eb 8d 15 3d ca f4 03 3d 97 f9 1a 3d 54 e3 e3 3c
       0.036512297 0.03221587 0.037835684 0.02781836
000300 44 e8 72 3c dc 37 1e 3d f2 bb 19 3d 40 f0 1c 3d
       0.014825884 0.03862749 0.037532754 0.038315058
000310 25 f9 14 3d e8 1a 11 3d 55 e9 12 3d 3d b5 f8 3c
       0.036370415 0.03542605 0.035867054 0.030359859
000320 e9 cf bb 3c c0 d1 02 3d 19 cc a7 3c 87 31 f5 3c
       0.022926288 0.031938314 0.020483064 0.029930843
000330 b4 67 10 3d 2c ac fc 3c 2b 38 e3 3c f5 63 f7 3c
       0.03525515 0.030843817 0.027736744 0.03019903
000340 bb b8 f6 3c 25 15 1b 3d b4 a5 d6 3c f7 ab 09 3d
       0.030117383 0.037861962 0.02620206 0.033611264
000350 7a 9d 09 3d 4a 97 fd 3c 2f 9f 0d 3d d3 d7 1e 3d
       0.033597447 0.03095593 0.034575637 0.038780045
000360 16 f4 d0 3c 16 f4 d0 3c 5a 02 8d 3c 26 72 09 3d
       0.025507014 0.025507014 0.017213035 0.033556126
000370 d0 a1 af 3c 93 07 1a 3d e8 6f 13 3d 0a fd e4 3c
       0.021439463 0.03760488 0.035995394 0.02795269
000380 f5 a2 15 3d 91 a9 b3 3c 0b d9 14 3d fb b8 1b 3d
       0.03653236 0.021931442 0.0363398 0.038018208
000390 2c 36 c2 3c 34 36 19 3d 8b 3e c6 3c 87 80 09 3d
       0.023707472 0.037405208 0.024199745 0.03356984
0003a0 67 c0 1d 3d e0 18 ba 3c fe 10 1a 3d d8 33 02 3d
       0.038513567 0.02271694 0.03761386 0.031787723
0003b0 80 b2 be 3c 93 c2 15 3d 2b e7 1a 3d f5 6c 14 3d
       0.023278475 0.036562514 0.037818115 0.036236722
0003c0 40 f0 1c 3d 66 61 f8 3c 15 cc 17 3d 73 92 a9 3c
       0.038315058 0.03031988 0.037059862 0.020699715
0003d0 5f ad c8 3c 5d ba 09 3d 45 43 13 3d c8 5d 17 3d
       0.024496732 0.033624995 0.035952825 0.03695467
0003e0 a4 3f 16 3d 8a 75 d7 3c 96 f9 0d 3d af f3 09 3d
       0.036681786 0.026301164 0.03466185 0.03367966
0003f0 e8 78 e0 3c df b0 c9 3c d6 b2 0c 3d b7 d3 13 3d
       0.027401403 0.024620472 0.03435024 0.03609058

model.feature_nns.2.model.1.weight f4 [1, 274]
000000 c5 79 58 b9 81 a4 b8 b9 ff 56 8d ba c6 1f 86 b9
       -0.00020644728 -0.0003521778 -0.0010783373 -0.00025582145
000010 86 f6 86 b9 59 57 dd b9 5e b3 bb b9 bd 90 e1 b9
       -0.00025742146 -0.00042217484 -0.00035801058 -0.00043023183
000020 28 b3 25 ba a8 03 a1 b9 8a b0 69 ba 68 8d b6 b9
       -0.0006320947 -0.00030711037 -0.0008914551 -0.000348191
000030 fd 8a 52 ba 77 7c c1 b9 d1 58 e1 b7 8b e8 2b 38
       -0.0008031575 -0.00036904562 -2.6863449e-05 4.098615e-05
000040 05 d0 94 b9 10 c6 ca 37 a3 86 9d 38 7c 57 f7 b8
       -0.00028383746 2.4172507e-05 7.5114214e-05 -0.00011794173
000050 0d a1 02 ba e6 44 e8 b9 3a 00 2d ba c3 04 ff b9
       -0.0004983105 -0.00044301822 -0.000659946 -0.00048640938
000060 5c f5 1e ba 20 d8 19 b9 72 f6 09 ba de 4c 25 ba
       -0.0006063783 -0.0001467173 -0.00052628585 -0.00063057046
000070 5c a1 9c b9 ef 4d 70 b9 97 d2 fa b9 6a cb 0f b9
       -0.0002987486 -0.00022917216 -0.00047840617 -0.0001371332
000080 3a 13 06 ba db 51 6e ba db 19 2a ba 51 5a ee b9
       -0.00051145593 -0.0009091177 -0.0006488838 -0.00045462188
000090 f9 24 d8 b9 7d 1f 03 ba db a7 bd b9 50 6d 59 b9
       -0.00041226277 -0.00050019455 -0.0003617395 -0.00020735455
0000a0 7d aa c9 b9 51 36 ac b9 22 fb f1 b9 e0 52 b0 b9
       -0.0003846473 -0.00032846865 -0.0004615421 -0.00033631083
0000b0 f6 2f ea b9 ea bf 6f ba 5b f5 b4 b9 75 34 be b9
       -0.00044667692 -0.0009145724 -0.0003451508 -0.00036278708
0000c0 7a c5 84 ba 40 4b f1 b9 1c 6c c9 b9 05 98 3e ba
       -0.0010129653 -0.00046023168 -0.00038418255 -0.00072705775
0000d0 ea b0 04 ba e4 92 21 ba 82 b8 45 b9 c0 3b 47 ba
       -0.00050617626 -0.0006163551 -0.00018856119 -0.0007600151
0000e0 3c 53 87 ba 7f 76 73 ba da 1f a0 b9 fa 64 f9 b9
       -0.0010324488 -0.00092873716 -0.0003054131 -0.00047568214
0000f0 c0 6e 0e ba 93 45 ae b9 33 b5 2d ba 63 86 47 ba
       -0.0005433373 -0.00033239703 -0.0006626427 -0.0007611273
000100 55 73 17 ba 04 82 d9 b9 c7 f2 b2 b9 85 0b ff b9
       -0.00057773787 -0.00041486335 -0.0003413169 -0.00048645973
000110 c2 67 a3 b8 e8 d6 0d ba d8 3f 14 38 d0 71 90 b9
       -7.791772e-05 -0.00054107467 3.534541e-05 -0.00027550617
000120 ef 7c 04 ba 73 19 26 ba 90 3f 11 ba e1 54 08 ba
       -0.0005054017 -0.00063361897 -0.00055407826 -0.0005200636
000130 71 4d d6 b9 5f dc 8e b7 b1 ad fc b8 32 47 39 ba
       -0.0004087496 -1.7030337e-05 -0.00012048649 -0.0007067799
000140 79 1a b1 b9 48 1a 4f ba d7 b7 cc b9 48 7b df b8
       -0.00033779794 -0.00079003396 -0.00039046883 -0.000106564316
000150 8c d6 b5 b9 a8 d8 09 39 d9 8a 32 ba 38 88 16 ba
       -0.0003468286 0.00013146049 -0.0006810851 -0.0005742344
000160 31 e0 1c ba 89 3b e1 b9 3f 7f 3c b9 42 cf 19 38
       -0.0005984335 -0.000429597 -0.0001797648 3.6671066e-05
000170 19 c3 bf b8 d7 dc d2 b9 ed b5 02 ba c5 33 a8 b9
       -9.1439295e-05 -0.0004021886 -0.00049862155 -0.00032082028
000180 f3 8e 9a b9 92 7e 5a b9 f2 e0 07 36 ba 2c 0a ba
       -0.00029479674 -0.00020837251 2.0247503e-06 -0.0005270947
000190 c3 d2 fa b9 b3 4e 85 b9 83 f1 86 ba 7c ca 1e ba
       -0.00047840746 -0.00025426372 -0.0010295365 -0.0006057394
0001a0 3e cf 03 ba 2d 98 1c ba 38 16 73 b9 28 f6 58 ba
       -0.0005028135 -0.00059736037 -0.00023182563 -0.0008276426
0001b0 ef dd 85 ba d0 fd 66 b9 97 e5 41 39 04 54 00 ba
       -0.0010213236 -0.00022029062 0.00018491443 -0.0004895332
0001c0 12 03 cc b9 f1 f6 82 b9 19 ec 3a ba 21 9d e6 b9
       -0.000389122 -0.00024979518 -0.0007130518 -0.0004398609
0001d0 61 20 3b b9 3f d5 33 38 d0 e3 b7 b4 b4 45 4a b8
       -0.00017845772 4.2875527e-05 -3.4252162e-07 -4.822547e-05
0001e0 ae 90 e7 b9 a8 19 81 ba 4b a5 17 ba 0f da 21 b9
       -0.00044167548 -0.0009849565 -0.00057848234 -0.0001543539
0001f0 c6 e7 7f b9 45 b5 24 ba b0 22 05 ba b7 18 4d ba
       -0.00024405037 -0.0006283115 -0.0005078716 -0.0007823812
000200 55 82 2c b8 c9 be a4 b9 72 67 10 ba a9 2c 92 ba
       -4.1129377e-05 -0.00031422664 -0.00055085786 -0.0011152226
000210 31 ef ea b8 1c 4a 25 b9 4e 7f b3 b9 c6 f7 13 ba
       -0.000112025424 -0.00015763234 -0.0003423639 -0.0005644526
000220 ac cd 11 b9 e0 dc 17 ba 8a bf 92 b9 8a 86 c7 b9
       -0.00013904896 -0.0005793106 -0.00027989998 -0.00038056477
000230 b2 99 3d ba 43 fb 5d ba a3 b8 71 ba b6 75 38 ba
       -0.000723268 -0.0008467922 -0.00092209334 -0.0007036583
000240 fc 39 99 b9 8a 3c 08 ba 8c c9 83 ba 84 d1 3f 39
       -0.00029225636 -0.00051970093 -0.0010054572 0.0001829323
000250 c6 3a ca b9 b2 82 91 b9 45 f0 c9 b9 b5 bc df b9
       -0.00038572232 -0.0002775393 -0.00038516722 -0.00042674472
000260 41 9c 06 ba 8b 06 f5 b9 a6 44 95 ba 8c 06 5d b9
       -0.0005134978 -0.00046734916 -0.0011388257 -0.00021078641
000270 5e e9 20 ba 51 f9 05 ba 26 fb 26 ba c1 c2 54 ba
       -0.000613829 -0.00051106984 -0.00063698215 -0.0008116179
000280 5e 2f 0f ba 64 f1 37 ba 8d b6 b6 b9 7d d1 4e ba
       -0.00054620754 -0.0007016866 -0.00034849756 -0.00078894926
000290 fb 1a b4 b9 b1 02 4f b9 6e c6 7f ba 41 e9 68 b9
       -0.00034352377 -0.00019742061 -0.00097570464 -0.00022212138
0002a0 7e fd c1 b9 ff 69 09 b9 99 cd fb b9 aa 04 ff b9
       -0.00037000695 -0.00013104825 -0.00048027633 -0.00048640865
0002b0 93 ad 5c b9 fc 8c 29 ba 92 df 01 38 4e 5d 8a 38
       -0.00021045496 -0.00064678467 3.0964213e-05 6.597732e-05
0002c0 40 fd 14 ba e3 1a 03 ba cf 1e 57 ba 2c 57 88 b8
       -0.0005683489 -0.000500126 -0.000820619 -6.5012224e-05
0002d0 1f 97 c0 b9 2e 19 a3 b9 38 37 72 ba ae 0e 31 ba
       -0.00036733688 -0.00031108543 -0.00092397956 -0.00067542016
0002e0 bb aa ff b9 72 35 ea b9 58 5c 5f ba b6 d5 4b ba
       -0.00048764594 -0.00044671778 -0.0008520535 -0.0007775681
0002f0 4e ea 86 b9 f7 35 6c b9 2f 5f dc b9 dc f0 0b ba
       -0.00025733042 -0.00022526817 -0.00042032587 -0.000533832
000300 ca 2c 67 ba 9f d7 af b9 7b 73 47 ba c2 72 83 38
       -0.0008818625 -0.0003353925 -0.00076084555 6.267942e-05
000310 37 1e ee b9 a4 88 45 b9 cc 70 e2 b9 a4 6f 04 ba
       -0.0004541741 -0.00018838287 -0.0004319012 -0.0005052036
000320 31 c6 c0 b9 0a 35 35 ba 5a 6a 12 ba 7f 2a f1 b8
       -0.00036768758 -0.00069125055 -0.00055853056 -0.00011499691
000330 d2 c1 56 b9 fe d4 05 ba bc f3 84 38 0f d6 db b9
       -0.00020480834 -0.00051052857 6.3396496e-05 -0.0004193042
000340 18 95 19 b8 ca fa 18 b9 83 2e 25 ba 0e c2 27 ba
       -3.6616897e-05 -0.00014589276 -0.0006301181 -0.0006399461
000350 91 27 68 ba ee 5d bf b9 63 f8 17 ba 26 a8 2a b8
       -0.00088559935 -0.00036500342 -0.00057972054 -4.068776e-05
000360 ba b4 4a ba b6 4e 8e b9 80 04 b9 b8 bb 30 87 ba
       -0.0007732619 -0.00027142995 -8.8223256e-05 -0.0010314205
000370 bb 5f de b9 ae fe a9 b8 60 0e 11 b9 09 28 a4 b9
       -0.00042414464 -8.105986e-05 -0.00013833633 -0.00031310346
000380 53 90 9a 37 0b a9 41 ba 1e 1a da b9 81 92 0d b9
       1.8425437e-05 -0.0007387555 -0.0004159966 -0.00013501385
000390 98 b6 c4 38 4b c4 c0 b9 7c b8 79 b9 c0 fe e3 35
       9.380019e-05 -0.00036767343 -0.00023815216 1.698696e-06
0003a0 84 25 69 ba d7 4c 0f ba 25 fe bd b9 5c 3c 1e ba
       -0.0008893835 -0.0005466467 -0.00036238242 -0.0006036216
0003b0 65 5f 5f ba 44 b0 bf b9 a5 43 15 ba 30 c7 a4 b9
       -0.000852099 -0.00036561687 -0.0005693979 -0.00031428924
0003c0 87 fe 2e ba 9a 2c 1d 39 db ee 00 ba bc b1 09 ba
       -0.0006675501 0.00014989302 -0.0004918405 -0.000525262
0003d0 57 5f 38 ba 2b 54 c4 b9 b2 a6 39 ba 97 20 ca b7
       -0.000703325 -0.00037446743 -0.00070820295 -2.4095452e-05
0003e0 f3 f2 b9 b9 6d 17 28 ba 22 c4 ca b9 6a 95 50 b9
       -0.0003546696 -0.0006412182 -0.00038674573 -0.00019892087
0003f0 c6 68 44 ba e0 fc ca b9 5d 85 f7 b9 c8 d1 25 b8
       -0.0007492419 -0.0003871685 -0.00047210875 -3.953444e-05

model.feature_nns.3.model.0.weights f4 [1, 338]
000000 8f 1b 0b 3d cb 18 ff 3c 58 cd 0c 3d f8 c9 d8 3c
       0.03396183 0.031139752 0.03437552 0.026463494
000010 60 2f 1e 3d 10 6d d2 3c b9 72 c1 3c f8 c1 1b 3d
       0.0386194 0.02568677 0.023614274 0.03802678
000020 21 37 e9 3c 35 98 0c 3d c4 e1 19 3d 15 cc 17 3d
       0.02846867 0.034324843 0.037568823 0.037059862
000030 25 15 1b 3d 5b 86 d8 3c 90 7d 0c 3d e7 ec 06 3d
       0.037861962 0.026431253 0.034299433 0.03294077
000040 83 5e db 3c ed 04 12 3d 88 7d f1 3c 59 a5 12 3d
       0.026778465 0.03564923 0.029478803 0.03580222
000050 ea 0b 07 3d 90 7d 0c 3d c4 8d f6 3c 56 0d 1e 3d
       0.032970347 0.034299433 0.030096896 0.038586937
000060 74 d9 dd 3c d6 52 0b 3d b0 a6 9e 3c 80 b2 be 3c
       0.027081229 0.034014545 0.019366592 0.023278475
000070 ef c4 e4 3c e2 ac c0 3c 47 10 0f 3d 70 8e f7 3c
       0.027925937 0.023519937 0.034927633 0.030219287
000080 b0 a6 9e 3c 99 9c 16 3d 5f ad c8 3c 9e 52 1a 3d
       0.019366592 0.036770437 0.024496732 0.037676446
000090 3e d7 d1 3c b7 cf 16 3d de e9 17 3d c0 cd 06 3d
       0.02561533 0.036819186 0.037088268 0.032911062
0000a0 d4 7d 18 3d 0c 6a 04 3d 78 d6 11 3d 08 ae f9 3c
       0.037229374 0.032327697 0.035604924 0.030478492
0000b0 1f 86 13 3d 23 c2 18 3d 62 c4 ed 3c 9f 5b f9 3c
       0.03601658 0.03729452 0.029024307 0.030439196
0000c0 21 ba 4d 3c 0a fd e4 3c 05 f1 05 3d 38 08 f2 3c
       0.012556584 0.02795269 0.032700557 0.029544935
0000d0 39 45 cd 3c 93 a6 bc 3c 5a f0 1a 3d 64 78 9c 3c
       0.025057422 0.023028648 0.037826873 0.019100375
0000e0 0e cf c4 3c 41 ad f4 3c 80 a6 1a 3d 61 22 d2 3c
       0.024024513 0.02986777 0.037756443 0.025651159
0000f0 c4 8d f6 3c b3 55 de 3c 1b 22 fd 3c b9 15 14 3d
       0.030096896 0.027140474 0.030900052 0.03615353
000100 de 3f 05 3d cb 56 ee 3c e6 a0 05 3d 6d 1b 18 3d
       0.03253161 0.02909412 0.032624148 0.03713553
000110 63 bb 16 3d 36 27 04 3d f8 52 19 3d 64 dd d3 3c
       0.0367998 0.032263957 0.03743264 0.025862403
000120 61 22 d2 3c eb 87 16 3d 7b 32 11 3d bf 84 f9 3c
       0.025651159 0.036750715 0.035448533 0.030458806
000130 ea 37 04 3d 0b 55 09 3d 44 0b b6 3c 72 07 ea 3c
       0.032279886 0.03352837 0.022222169 0.028568003
000140 b8 2b c5 3c c2 b0 12 3d f5 d5 0f 3d c8 64 13 3d
       0.024068698 0.0358131 0.035116155 0.035984784
000150 4e 95 1d 3d 19 d1 88 3c 9a cd ec 3c df 30 ed 3c
       0.038472466 0.016701268 0.028906632 0.028953968
000160 0e 62 14 3d 94 74 f3 3c 16 42 0f 3d 3d 13 1d 3d
       0.036226325 0.029718675 0.034975134 0.038348425
000170 53 f1 07 3d 4b e4 bf 3c 2b 0b 13 3d de e9 17 3d
       0.03318913 0.023424288 0.035899322 0.037088268
000180 22 be fd 3c 0c e6 89 3c 91 79 1b 3d aa ee 08 3d
       0.030974451 0.016833328 0.03795773 0.033430733
000190 ad d4 c1 3c af bd fb 3c d8 3f 19 3d 0e 6f 01 3d
       0.023660982 0.030730097 0.0374144 0.03160005
0001a0 ea 48 c0 3c c2 b0 12 3d c4 17 de 3c 0b 55 09 3d
       0.023472268 0.0358131 0.027110942 0.03352837
0001b0 98 da 0c 3d 80 b2 be 3c c2 6e ea 3c eb 5a c9 3c
       0.034388155 0.023278475 0.028617267 0.024579486
0001c0 f9 77 1a 3d ea 0b 07 3d ea 37 04 3d 94 b3 11 3d
       0.03771207 0.032970347 0.032279886 0.03557165
0001d0 df b0 c9 3c 4b d5 d9 3c aa 54 b8 3c 74 d9 dd 3c
       0.024620472 0.026590964 0.022501308 0.027081229
0001e0 5e 59 04 3d 6d f6 1e bd b0 a6 9e 3c 2a 6e 15 3d
       0.03231179 -0.03880923 0.019366592 0.036482014
0001f0 02 26 d4 3c 3d b3 92 3c 28 e2 07 3d b0 df 90 3c
       0.02589703 0.017907733 0.033174664 0.017684788
000200 9e 0e a0 3c 27 89 f5 3c 9f 5b f9 3c c5 71 c4 3c
       0.01953822 0.029972626 0.030439196 0.02398003
000210 df 30 ed 3c f7 83 1e 3d 67 c0 1d 3d 68 54 16 3d
       0.028953968 0.03870007 0.038513567 0.03670159
000220 83 f2 fe 3c fe a4 0f 3d 93 0e 15 3d e5 55 c8 3c
       0.031121498 0.03506946 0.036390852 0.02445502
000230 29 19 15 3d b0 df 90 3c 62 c4 ed 3c d4 7d 18 3d
       0.036400948 0.017684788 0.029024307 0.037229374
000240 78 aa e3 3c b3 55 de 3c 68 d8 19 3d f3 d5 17 3d
       0.027791247 0.027140474 0.037559897 0.037069272
000250 5f 0f 08 3d 64 2d 1d 3d b3 96 93 3c 6f 73 16 3d
       0.033217784 0.038373366 0.018016195 0.03673118
000260 05 f1 05 3d 20 9b 18 3d 3a 6a 18 3d 5c f5 ac 3c
       0.032700557 0.037257314 0.03721068 0.02111309
000270 b7 fd 17 3d 52 6c 12 3d c9 d0 97 3c 4f fc 06 3d
       0.037107196 0.035747834 0.018532174 0.032955464
000280 94 b3 11 3d 44 81 1a 3d 8d ec e6 3c b0 a6 9e 3c
       0.03557165 0.037720934 0.028188968 0.019366592
000290 54 e3 e3 3c 67 93 00 3d 9b 77 07 3d da cd e8 3c
       0.02781836 0.031390574 0.03307305 0.02841847
0002a0 9b 77 07 3d e1 67 17 3d 73 92 a9 3c 6a 06 0e 3d
       0.03307305 0.0369643 0.020699715 0.034674086
0002b0 e4 6b 1c 3d 82 40 06 3d 0b cc fa 3c 84 8f 1c 3d
       0.03818883 0.032776363 0.030614873 0.038222805
0002c0 16 42 0f 3d a3 4f 10 3d bb b8 f6 3c a7 38 01 3d
       0.034975134 0.035232197 0.030117383 0.03154817
0002d0 96 f9 0d 3d 85 2c b3 3c 74 26 01 3d 86 6c 0e 3d
       0.03466185 0.021871815 0.031530812 0.034771465
0002e0 80 4c c7 3c 02 c6 0d 3d 54 35 fc 3c 42 5a 1c 3d
       0.02432847 0.034612663 0.030787148 0.038172014
0002f0 68 54 16 3d 71 60 18 3d 5d 6e 00 3d ed 9d 0a 3d
       0.03670159 0.03720135 0.03135525 0.033842016
000300 32 6e eb 3c 3d 13 1d 3d 55 29 09 3d 62 1d dd 3c
       0.028739069 0.038348425 0.033486683 0.02699155
000310 4e 95 1d 3d 4a 97 fd 3c 25 15 1b 3d c3 5a d0 3c
       0.038472466 0.03095593 0.037861962 0.025433904
000320 91 79 1b 3d ac 22 e7 3c aa 54 b8 3c 84 2d 08 3d
       0.03795773 0.028214775 0.022501308 0.033246532
000330 f7 37 ec 3c 59 8c 1e 3d 8d 08 eb 3c 5a 9d 02 3d
       0.02883528 0.038708065 0.0286906 0.031888343
000340 ac e3 14 3d 78 35 17 3d d8 1c fb 3c 0e 28 f4 3c
       0.036349937 0.036916226 0.030653402 0.029804256
000350 13 39 15 3d 6a 98 15 3d ac 4a 03 3d f4 58 07 3d
       0.036431383 0.036522307 0.032053635 0.033043817
000360 c1 5b 10 3d 6c 1f dc 3c 51 3b ea 3c e7 ec 06 3d
       0.035243753 0.026870452 0.028592737 0.03294077
000370 e9 cf bb 3c f7 83 1e 3d 21 ba 4d 3c 64 00 fa 3c
       0.022926288 0.03870007 0.012556584 0.030517764
000380 23 a0 03 3d 79 a5 c7 3c 9e 1c 0d 3d 30 92 0d 3d
       0.03213514 0.024370896 0.03445112 0.034563243
000390 b9 72 c1 3c b7 fd 17 3d 46 fe cb 3c 85 65 0a 3d
       0.023614274 0.037107196 0.02490152 0.033788223
0003a0 9a 2c 19 3d e5 37 09 3d a1 8e 12 3d f4 d5 0a 3d
       0.03739605 0.03350057 0.035780553 0.033895448
0003b0 60 a5 07 3d 6c 76 94 3c bc 73 0a 3d bc 73 0a 3d
       0.0331167 0.018122874 0.03380178 0.03380178
0003c0 44 79 0e 3d 1b e2 11 3d b9 72 c1 3c f4 00 06 3d
       0.034783617 0.03561602 0.023614274 0.032715753
0003d0 55 10 0a 3d c9 03 0f 3d 09 b8 17 3d 68 67 1b 3d
       0.03370698 0.03491572 0.037040744 0.037940413
0003e0 5b 86 d8 3c d8 33 02 3d 43 1f 05 3d 71 47 f3 3c
       0.026431253 0.031787723 0.032500517 0.029697152
0003f0 8d ec e6 3c 40 4c 14 3d 0e 17 17 3d 4b 63 bb 3c
       0.028188968 0.03620553 0.03688722 0.022874495

model.feature_nns.3.model.1.weight f4 [1, 338]
000000 7d ad 57 b8 a1 23 90 38 4a 3e 33 b8 57 46 3a 38
       -5.1421568e-05 6.8730915e-05 -4.2734937e-05 4.4411365e-05
000010 ca 65 21 b8 99 fe ab b8 2c 69 73 38 30 24 19 b8
       -3.848019e-05 -8.201338e-05 5.8033664e-05 -3.6511745e-05
000020 08 ed 27 b8 0c 55 10 b9 6c ef 8d 37 4e 3b 90 b8
       -4.0036655e-05 -0.00013764593 1.692e-05 -6.8775014e-05
000030 85 8c 14 b8 f9 6c 5d 38 8b 4b a7 b8 34 78 cd b8
       -3.541682e-05 5.2791995e-05 -7.9772515e-05 -9.797551e-05
000040 cc ea 64 b8 a2 39 ae b7 c0 18 37 b9 10 61 23 b8
       -5.4578108e-05 -2.0769254e-05 -0.0001746146 -3.8952625e-05
000050 b2 05 89 38 73 3d c1 37 2c 98 86 b6 5e 68 8b b8
       6.53373e-05 2.3036007e-05 -4.0112263e-06 -6.6474764e-05
000060 53 78 c6 b8 80 b8 82 b8 43 6c 23 b7 02 3c 79 37
       -9.463788e-05 -6.233249e-05 -9.740764e-06 1.4855528e-05
000070 20 90 0c b4 a9 8c e4 b8 f1 c5 16 b8 5e dc 72 38
       -1.3090948e-07 -0.00010898087 -3.5947134e-05 5.790253e-05
000080 25 5a ec b8 8d b8 10 b9 0f cd bc b8 ce f0 3e b8
       -0.00011270148 -0.0001380166 -9.002734e-05 -4.5523797e-05
000090 ea 93 67 36 c5 df bf b8 96 38 59 b8 12 2b 1a b9
       3.450778e-06 -9.14927e-05 -5.178953e-05 -0.0001470263
0000a0 cb d9 de b7 0a 24 3e b8 cd 83 8c b8 54 e9 4d b9
       -2.656588e-05 -4.5333094e-05 -6.70027e-05 -0.00019637245
0000b0 5b d4 80 b8 68 0f d7 b8 ff 2e fe b6 e5 a6 6c 38
       -6.14307e-05 -0.000102548685 -7.575261e-06 5.6422217e-05
0000c0 cc 5e 5b b7 ed c7 e1 b8 1f 2e e1 b8 00 f2 0a 32
       -1.3075489e-05 -0.00010766075 -0.00010737427 8.087682e-09
0000d0 19 8f bb 36 3b 4d 00 b7 00 8d f3 b7 1f b2 b4 b7
       5.589693e-06 -7.647376e-06 -2.9033516e-05 -2.1540616e-05
0000e0 52 d3 c4 b7 58 cf 30 b7 76 e3 ba b8 30 f3 32 b8
       -2.3463424e-05 -1.05386935e-05 -8.911539e-05 -4.2664993e-05
0000f0 88 8e 92 b7 ec f3 09 b9 cf f1 97 37 38 9b 80 b8
       -1.7470928e-05 -0.00013156206 1.8113204e-05 -6.1324274e-05
000100 4e e0 c3 b7 9e fb 9b 37 ca b7 57 b7 42 6e 7d b6
       -2.3350261e-05 1.8594608e-05 -1.285779e-05 -3.7764116e-06
000110 f0 8b 22 b8 e6 5b 0d 38 7b 0e 62 b8 28 d2 23 b9
       -3.8754137e-05 3.3702607e-05 -5.3896085e-05 -0.0001562318
000120 97 e8 ac b7 b9 7e a3 b8 1f a6 b7 b8 a1 24 da b8
       -2.0612306e-05 -7.7960496e-05 -8.7570625e-05 -0.00010401873
000130 f9 66 85 b8 68 ec 46 38 54 97 24 b9 68 03 56 38
       -6.361114e-05 4.742705e-05 -0.00015696633 5.102475e-05
000140 e5 98 51 38 fe 6c 23 38 04 93 8b 38 bb cb 1a b9
       4.9971877e-05 3.8963735e-05 6.65542e-05 -0.0001476248
000150 47 0f 9c b8 ae e4 95 b7 d4 cb 0c b7 2b da 90 b8
       -7.441505e-05 -1.7868671e-05 -8.392108e-06 -6.907092e-05
000160 0e 54 8f b8 4c 77 15 b9 21 75 11 b8 9f 66 87 38
       -6.834428e-05 -0.00014254189 -3.467978e-05 6.456416e-05
000170 c1 df c4 b8 cf 1d ac b8 a3 33 86 b8 c5 33 d8 b8
       -9.387686e-05 -8.2071514e-05 -6.399236e-05 -0.000103093254
000180 a6 21 0a b9 7b 06 c9 b8 d9 7e fe b8 2e 94 e4 38
       -0.0001317324 -9.585634e-05 -0.00012135291 0.00010899488
000190 10 a8 a5 b8 26 15 58 b8 69 00 51 38 32 69 41 b9
       -7.899117e-05 -5.151811e-05 4.9829865e-05 -0.00018445103
0001a0 e0 cb 37 b8 4a f7 97 b7 12 9c ea b7 30 b1 10 b8
       -4.3820473e-05 -1.8115756e-05 -2.796765e-05 -3.4497294e-05
0001b0 de bc 43 37 91 f7 4b b8 a4 3e dc 38 58 7b f1 b5
       1.166688e-05 -4.8629536e-05 0.00010502085 -1.7991797e-06
0001c0 f0 19 08 b8 82 f8 05 b9 2f 4a 26 b9 ea 72 39 b8
       -3.2449083e-05 -0.00012776445 -0.00015858629 -4.421446e-05
0001d0 e8 f3 bd b7 bf a8 4b b8 7e 25 0e b9 09 b8 99 38
       -2.2644133e-05 -4.855613e-05 -0.00013556142 7.329888e-05
0001e0 01 36 25 b7 38 75 7e b6 19 07 69 b8 90 bd a3 b8
       -9.84734e-06 -3.791718e-06 -5.555814e-05 -7.8077544e-05
0001f0 63 11 34 b8 34 29 e6 b8 68 ae 1f b9 03 cd 4c 38
       -4.2931537e-05 -0.00010974929 -0.00015228393 4.8828322e-05
000200 0f 70 42 38 cd 15 c6 37 2c 26 0d b9 f3 f8 6e b8
       4.6357567e-05 2.3613591e-05 -0.00013461028 -5.6975474e-05
000210 2a c9 5a b8 8f 37 0a b9 e8 4c d3 b8 d6 4a de b8
       -5.21626e-05 -0.00013181403 -0.00010075589 -0.00010599724
000220 ea eb 20 b9 03 7e 94 b8 c2 3e 94 37 a1 e7 6b b6
       -0.00015346674 -7.0806615e-05 1.7672199e-05 -3.5152555e-06
000230 2c d3 3c 37 b1 bd 93 b8 c1 5d 77 b8 bb 75 c3 b8
       1.12548405e-05 -7.044839e-05 -5.8976704e-05 -9.3202536e-05
000240 d5 c5 81 b8 5a 2d b2 37 f3 2b 48 b8 2b df 24 b9
       -6.1880484e-05 2.1240372e-05 -4.7724647e-05 -0.00015723395
000250 6f 9b 9a b8 8d 58 06 b7 21 a3 51 b8 57 d4 99 38
       -7.372244e-05 -8.00764e-06 -4.998141e-05 7.33516e-05
000260 c2 41 a7 b6 ec f9 8c 38 00 73 74 33 bf 04 92 b8
       -4.984643e-06 6.722272e-05 5.691527e-08 -6.9627065e-05
000270 b6 e4 16 b9 b5 ec 00 b8 fa f9 36 b9 82 ed 96 b8
       -0.00014390316 -3.073803e-05 -0.00017449996 -7.196797e-05
000280 b8 12 0a 37 bf 82 8d 38 2b df 32 b7 c5 6f 75 b6
       8.229799e-06 6.747757e-05 -1.0661587e-05 -3.6572903e-06
000290 a1 3c 9d 37 e9 5d ba b8 8b d7 67 38 7c 01 e3 b8
       1.8744091e-05 -8.886663e-05 5.527543e-05 -0.0001082448
0002a0 fc d4 86 37 e6 36 a3 36 95 dd 92 b8 d0 cd a0 37
       1.6073223e-05 4.8641696e-06 -7.0030954e-05 1.9169325e-05
0002b0 88 be 96 37 3f 6b 17 b8 a7 92 23 37 81 69 d4 b8
       1.7970116e-05 -3.6101086e-05 9.749702e-06 -0.000101285994
0002c0 fc 46 15 b9 90 e5 9e 37 ff 3b 42 b8 a8 62 ab 37
       -0.00014236191 1.8941966e-05 -4.630908e-05 2.0430729e-05
0002d0 d8 91 a3 b8 c3 12 09 38 15 b3 31 b8 b8 4c 8e b7
       -7.799611e-05 3.268082e-05 -4.236687e-05 -1.6963444e-05
0002e0 77 48 29 b8 d6 0e 1b b8 f5 cf 12 38 c2 ea af 37
       -4.0360228e-05 -3.6968697e-05 3.5002788e-05 2.0970943e-05
0002f0 82 ff e0 b8 07 7d 7c b8 6e e7 1a b8 5e ee bd 36
       -0.000107287444 -6.0197923e-05 -3.6931997e-05 5.6603885e-06
000300 92 7e cd b8 27 1d 8b b8 57 e2 22 b9 38 af bf b8
       -9.798737e-05 -6.6334665e-05 -0.00015533842 -9.140227e-05
000310 16 56 d1 b7 68 b7 2b b8 22 4a 34 b8 5e b1 10 b9
       -2.4954828e-05 -4.0940387e-05 -4.2984386e-05 -0.00013798985
000320 84 8b 15 b8 22 aa ca 37 da 92 4c 38 9f 93 72 b7
       -3.5654302e-05 2.41595e-05 4.8774156e-05 -1.4458695e-05
000330 cb 7b 67 b8 8a 2d ee b8 84 0d 8c 37 1e 6a 26 37
       -5.5189983e-05 -0.00011357207 1.6695594e-05 9.919078e-06
000340 84 19 24 38 40 ae 8e 34 75 3f 92 b8 d4 84 fa 37
       3.912441e-05 2.6576345e-07 -6.973642e-05 2.9864175e-05
000350 24 c0 a4 38 2e 17 07 b8 92 d8 8d b8 13 ce c3 b8
       7.8559184e-05 -3.2208096e-05 -6.763743e-05 -9.336709e-05
000360 f0 d7 e8 b8 ed 47 07 b8 02 c4 47 38 3f b5 42 38
       -0.000111028436 -3.2253494e-05 4.7627844e-05 4.6422003e-05
000370 e6 19 aa b8 a3 0c b8 36 4c 1f 21 38 3b b5 29 37
       -8.111056e-05 5.4850984e-06 3.841454e-05 1.0115381e-05
000380 15 3c 37 38 7c 0f fd b8 b6 00 8f 37 10 bf a2 34
       4.3686556e-05 -0.00012066864 1.704726e-05 3.0313868e-07
000390 2c 75 8e 36 6e c5 68 b8 02 4f d0 b8 7c 30 f8 37
       4.2455704e-06 -5.549698e-05 -9.932929e-05 2.9586481e-05
0003a0 a0 3f bb b7 48 4a bc b7 05 c9 eb b7 b5 5a 8d b8
       -2.2321765e-05 -2.2445936e-05 -2.810779e-05 -6.7402994e-05
0003b0 74 b5 6a b8 5d dc 3f 38 5d 45 91 b8 1f e0 64 38
       -5.595894e-05 4.5743178e-05 -6.927059e-05 5.4568165e-05
0003c0 a2 5f 0c 38 b1 e3 c4 b8 42 7a db b7 3a 4a 6c b8
       3.3467666e-05 -9.388419e-05 -2.6163765e-05 -5.6335914e-05
0003d0 81 14 c1 36 f1 db 08 38 af 6e 30 b9 38 bb 70 38
       5.754235e-06 3.2629763e-05 -0.00016825901 5.739482e-05
0003e0 88 37 a6 36 ff e2 b8 b8 f2 8e 07 b9 31 ae 0c b9
       4.95365e-06 -8.816085e-05 -0.00012927855 -0.00013416332
0003f0 94 86 11 37 82 97 fd 37 df e7 0d b9 23 97 2c b9
       8.674007e-06 3.0230502e-05 -0.00013533187 -0.00016459501
