GolfFeedback-poc/src/s3_NAM_model/output/BS/0/checkpoints/epoch=08-val_loss=1309.9021.ckpt (torch, 48078 bytes, 24 tensors)

model.feature_nns.0.model.0.weights f4 [1, 244]
000000 bd 61 cb 3f e3 02 df 3f 4a 38 dc 3f 62 5b dc 3f
       1.5889202 1.7422756 1.7204678 1.7215388
000010 b7 30 df 3f 80 4e d1 3f 9a b2 dd 3f 71 11 df 3f
       1.7436742 1.6352081 1.732013 1.7427198
000020 6a 0d d9 3f 46 8c af 3f 24 c3 aa 3f 9c b3 ce 3f
       1.6957219 1.3714683 1.3340802 1.6148562
000030 f5 de da 3f 33 ea dc 3f 57 21 da 3f 16 ae b7 3f
       1.7099291 1.7258972 1.7041425 1.4350002
000040 dc 73 d3 3f 90 ff db 3f e6 3c da 3f 24 33 d8 3f
       1.6519732 1.7187366 1.7049835 1.6890607
000050 cf 70 de 3f bc 7c c1 3f 5e 1c d6 3f 5c ef c6 3f
       1.7378176 1.5116191 1.6727407 1.5541797
000060 cb 28 ac 3f 7c 0b cf 3f 5a 9b ce 3f 5e d2 dc 3f
       1.3449949 1.617538 1.614116 1.7251699
000070 d3 7f bf 3f 3e a0 d8 3f fc dc ca 3f 50 5e cc 3f
       1.4960884 1.6923902 1.5848689 1.5966282
000080 a0 3d bc 3f 09 fd da 3f 6d 0b d9 3f 01 de d3 3f
       1.4706306 1.710847 1.6956612 1.6552125
000090 ae e7 b3 3f 26 d7 de 3f 34 4d d4 3f 12 52 bc 3f
       1.4055078 1.7409408 1.658606 1.4712546
0000a0 8a 88 dd 3f aa 76 ab 3f 7e 83 da 3f f7 82 dc 3f
       1.7307293 1.3395588 1.7071378 1.7227467
0000b0 d7 f2 db 3f d9 80 de 3f 03 de c7 3f fa 46 b1 3f
       1.7183484 1.7383071 1.5614628 1.3849785
0000c0 b7 31 de 3f 38 25 d9 3f 06 f0 da 3f f4 d1 da 3f
       1.7358922 1.6964483 1.7104499 1.7095323
0000d0 c5 5a cb 3f 9c 67 dc 3f 19 41 d9 3f 2f db d9 3f
       1.5887076 1.7219119 1.6972991 1.7020015
0000e0 4d 00 cb 3f 2d 7a c6 3f 16 60 d3 3f 81 3e bd 3f
       1.5859467 1.5506035 1.6513698 1.47847
0000f0 ed 2e d4 3f 43 dd d6 3f fa 7b c8 3f 7f 26 d3 3f
       1.6576821 1.6786274 1.5662835 1.6496123
000100 41 35 dc 3f 1a 7a bd 3f 82 87 d9 3f f4 eb dd 3f
       1.7203752 1.4802887 1.6994479 1.7337632
000110 70 69 dc 3f b7 bb c6 3f aa ed d8 3f 30 c4 d6 3f
       1.7219677 1.5526036 1.6947529 1.6778622
000120 05 62 d1 3f 94 4c da 3f a5 c7 d7 3f 04 0a c9 3f
       1.6358038 1.705462 1.6857802 1.5706182
000130 f7 06 de 3f fc 72 ce 3f 93 d5 da 3f 97 11 db 3f
       1.7345876 1.612884 1.7096428 1.7114743
000140 06 84 dc 3f 34 63 d2 3f d8 a6 cd 3f ba d0 db 3f
       1.722779 1.6436524 1.6066542 1.7173073
000150 e3 f9 de 3f fc f0 c5 3f f4 5e d2 3f 9a 4a de 3f
       1.7420009 1.5464168 1.6435227 1.7366517
000160 10 aa d8 3f ee 84 db 3f 7e ea d2 3f fa f9 db 3f
       1.6926899 1.7149942 1.6477811 1.7185662
000170 5c 81 d8 3f 2f 7b c4 3f 84 ab de 3f 89 c4 b7 3f
       1.6914477 1.5350093 1.7396092 1.4356853
000180 dd 0c dd 3f 09 36 c8 3f bb f8 de 3f d9 c1 da 3f
       1.726955 1.564149 1.7419657 1.7090408
000190 13 47 df 3f a6 a1 de 3f 37 d5 d7 3f 37 b3 de 3f
       1.7443565 1.7393081 1.6861943 1.7398442
0001a0 7c ca c7 3f 67 2f c7 3f c9 91 bd 3f ab 52 ca 3f
       1.5608668 1.5561341 1.4810115 1.5806478
0001b0 3f 17 dc 3f 2c be db 3f 46 ac b7 3f d7 ce c0 3f
       1.7194594 1.7167411 1.4349449 1.5063123
0001c0 77 18 dd 3f 35 40 df 3f ce 6d dc 3f 56 5b d8 3f
       1.7273091 1.744147 1.722101 1.6902874
0001d0 d9 68 d0 3f ab c9 d7 3f c1 1d dd 3f 40 52 bf 3f
       1.6281997 1.6858419 1.7274705 1.4946976
0001e0 99 0d cf 3f a5 53 d7 3f 94 74 ab 3f f8 d1 d5 3f
       1.6176025 1.6822401 1.3394952 1.6704702
0001f0 0c 16 d8 3f cb 9c d9 3f db 0e cd 3f 99 8a dc 3f
       1.6881728 1.7000974 1.6020159 1.7229797
000200 18 e3 b4 3f 40 41 a9 3f f8 6c d8 3f bd 30 dc 3f
       1.4131804 1.3223038 1.6908255 1.7202374
000210 28 31 d6 3f e9 92 dd 3f dc a0 db 3f 63 ae dc 3f
       1.6733751 1.7310458 1.7158465 1.7240719
000220 9c bc d3 3f 07 33 dd 3f 7f e6 c2 3f 17 70 cb 3f
       1.6541934 1.7281197 1.5226592 1.5893582
000230 fe 95 cd 3f 35 85 dc 3f 39 90 de 3f 98 37 cb 3f
       1.6061399 1.7228152 1.7387763 1.5876341
000240 cf 49 dc 3f f6 83 cb 3f 6a 4d d9 3f 4d b5 dd 3f
       1.7210025 1.5899646 1.697675 1.7320954
000250 76 2d d9 3f da 4b d5 3f 7b 0a d6 3f f1 3a d5 3f
       1.6966999 1.6663773 1.6721948 1.6658612
000260 27 e1 b0 3f 8f 5d d8 3f be 5c d6 3f e0 72 df 3f
       1.3818711 1.6903552 1.6747053 1.7456932
000270 ea 1f c4 3f 1d 0a df 3f 6e e5 de 3f 30 c1 b9 3f
       1.5322239 1.7424961 1.7413766 1.4512081
000280 0d 24 d3 3f 0f ae da 3f e3 39 db 3f 8c 0e cf 3f
       1.6495377 1.7084368 1.7127041 1.6176314
000290 4b 7e c7 3f 45 d3 cd 3f d3 3b d0 3f 41 85 da 3f
       1.5585417 1.6080099 1.6268257 1.7071916
0002a0 05 ea d4 3f 59 f0 da 3f ec bb d3 3f 8c d3 d8 3f
       1.6633917 1.7104598 1.6541724 1.6939559
0002b0 9f bc da 3f 55 e1 bf 3f eb 92 ce 3f dc 46 a9 3f
       1.7088813 1.4990641 1.6138586 1.322475
0002c0 dc ce cf 3f 36 76 c4 3f 3e 63 a1 3f f7 e5 de 3f
       1.6235003 1.5348575 1.2608411 1.741393
0002d0 77 fa ce 3f 79 07 d6 3f 61 03 c9 3f 61 d8 d6 3f
       1.6170186 1.672103 1.5704156 1.6784784
0002e0 06 96 b5 3f b9 42 d3 3f 88 d3 d3 3f 9c 23 d8 3f
       1.4186409 1.6504737 1.6548929 1.6885867
0002f0 a7 0e d7 3f da c2 dc 3f 85 1c d6 3f 5d 41 ce 3f
       1.6801347 1.7246964 1.6727453 1.6113697
000300 88 34 df 3f ae 55 d3 3f 6f c8 de 3f 87 da c2 3f
       1.7437906 1.6510522 1.7404917 1.5222939
000310 4c e4 ca 3f ec f4 be 3f 4d d4 c8 3f 94 a1 d6 3f
       1.5850921 1.4918494 1.5689789 1.676806
000320 7e b1 dd 3f cb 1c c4 3f 0f c7 d9 3f ae 49 dd 3f
       1.7319791 1.5321287 1.7013873 1.728811
000330 40 47 df 3f 9a f9 d9 3f 92 18 cf 3f ca a2 bc 3f
       1.7443619 1.7029297 1.6179373 1.4737179
000340 f8 e8 d7 3f 82 f2 db 3f 8f 64 d7 3f 80 35 db 3f
       1.6867971 1.7183383 1.6827563 1.7125702
000350 24 ae de 3f aa 5c d4 3f 7c 61 c7 3f 84 f7 d3 3f
       1.7396894 1.6590779 1.5576625 1.6559911
000360 01 0b d1 3f 94 2e dc 3f 66 53 db 3f bf b1 d5 3f
       1.6331483 1.7201715 1.7134826 1.6694869
000370 bd e1 db 3f d0 b9 93 3f b3 21 c7 3f c6 a1 d6 3f
       1.7178265 1.154108 1.5557159 1.6768119
000380 22 c9 d8 3f de 2d de 3f 1b 15 d7 3f 76 78 c9 3f
       1.6936381 1.7357748 1.6803316 1.5739887
000390 b9 d7 d2 3f 7f d0 c6 3f 74 44 cd 3f b2 b2 d0 3f
       1.6472083 1.5532378 1.6036515 1.6304533
0003a0 08 70 dc 3f de 6f df 3f 15 9c d8 3f b4 81 c4 3f
       1.7221689 1.7456014 1.6922632 1.5352082
0003b0 4a 29 b7 3f 91 d9 ce 3f 0a ec c1 3f 5a f4 c6 3f
       1.4309475 1.6160146 1.5150158 1.554332
0003c0 51 ce bb 3f a8 2f d8 3f 8a 7d d7 3f 8a 7d d4 3f
       1.4672338 1.6889544 1.6835186 1.6600811

model.feature_nns.0.model.1.weight f4 [1, 244]
000000 ac 24 24 3c 5d e6 9f 3c f9 0d 0d 3c 95 e4 b5 bb
       0.010018509 0.019519025 0.008609288 -0.0055509307
000010 82 e4 ab 3a 4a 3d 3b bd a7 14 12 bd 85 b2 d4 bc
       0.0013114365 -0.045712747 -0.035664227 -0.025964031
000020 21 6c 40 3d 56 f2 3d 3d 00 7d 08 bd e8 7b e6 3c
       0.04697812 0.046373688 -0.033322334 0.028135255
000030 ff f3 79 3a ac 84 a7 3c 01 65 1d bd 82 96 32 bd
       0.00095349544 0.020449005 -0.038426403 -0.043600567
000040 78 1f cb bc fa bb ce 3c e8 00 8c 3c 3e 49 de ba
       -0.024795279 0.025236119 0.017090276 -0.0016959084
000050 2b b7 64 bc 80 d7 83 3b f9 19 96 bc 7b af c9 3c
       -0.013959686 0.0040234923 -0.018322932 0.024619808
000060 9b 92 ac 3c b3 5e 83 bc d7 38 af 3c 8c 08 f2 bb
       0.021066 -0.016036367 0.021389408 -0.007386273
000070 e0 84 bd 3c e9 fb fd 3c 58 06 49 3d d0 7b 12 3d
       0.023134649 0.03100391 0.049078315 0.035762608
000080 f8 31 2e bd ca b3 7f 3c e2 bb 48 3b 83 04 07 bd
       -0.042528123 0.01560683 0.0030629565 -0.032963287
000090 eb 60 49 bd c3 b3 57 3d 44 30 26 bd 91 89 1c 3d
       -0.049164694 0.05266167 -0.040573373 0.03821713
0000a0 36 f6 fc 3c c3 6d 96 bc 4f e9 a2 bc 23 4d 04 3d
       0.030879121 -0.018362885 -0.01988664 0.032300126
0000b0 50 aa fb 3c 36 7f 71 bb 8d fd 2f bc d6 fa 86 bc
       0.03072086 -0.0036849505 -0.010741604 -0.01647703
0000c0 b8 48 c8 ba a6 18 3c bd 68 45 06 bc e5 8f d8 bc
       -0.0015280461 -0.045921944 -0.008195259 -0.026435802
0000d0 f7 d3 17 bd b6 a1 f6 3c bd 2e 0b bd 30 fa 2c bc
       -0.03706738 0.030106407 -0.03398012 -0.010557696
0000e0 0d 39 c4 3c 95 7e 0a 3d 5a e7 80 3a a3 87 4a bd
       0.023952985 0.033812124 0.0009834573 -0.04944576
0000f0 7b 1a 2b 3c 81 65 f7 bc 4a 6e 0e bd 69 51 e7 3c
       0.010443325 -0.030199768 -0.03477315 0.028237062
000100 d2 f8 3a 3d 03 be 3f 3d b6 13 3c bd f1 3b d4 bc
       0.04564745 0.04681207 -0.045917235 -0.025907489
000110 cc d1 fa bc 59 59 2c 3d e4 ac 66 3d 85 62 19 bd
       -0.030617617 0.042077396 0.056317225 -0.03744747
000120 47 95 f7 bc f4 ae 7c 3d b9 27 1d 3d b0 38 f2 39
       -0.030222548 0.061690286 0.03836796 0.00046200072
000130 24 e7 42 3d 3d c5 38 3d 64 7e 32 bd 5e ea 0b bd
       0.047583714 0.045109976 -0.043577567 -0.034159057
000140 ec 99 b5 3c 24 11 50 3d f9 6d 69 3c c0 9c 8d b7
       0.022168122 0.050797597 0.014247411 -1.6881502e-05
000150 7e 2a 2c 3d ac a2 04 bd 7d 95 3b bd 9e 5b f8 3c
       0.04203271 -0.0323817 -0.04579686 0.030317124
000160 15 59 5b bc e0 d0 43 bd aa 37 01 bd 5b 10 63 bc
       -0.013387938 -0.04780662 -0.031547226 -0.01385888
000170 70 73 84 3b ec 31 27 3b 6c d7 23 bd df 55 5b 3d
       0.0040420815 0.0025511933 -0.040000364 0.05354869
000180 43 2c e4 3c 20 8a 3b 3d c0 de 0b bd 72 cf 6e 3d
       0.027853137 0.045786023 -0.034147978 0.058303304
000190 41 83 b1 3c a7 b5 08 bd 8c 02 79 3c f0 b3 3f 3d
       0.021669032 -0.033376362 0.015198361 0.04680246
0001a0 59 db ae bc 55 f8 2f 3d 67 8d d3 bc 4f 61 31 bd
       -0.021344827 0.042961437 -0.025824262 -0.04330569
0001b0 d9 07 4b 3d 8c 98 65 ba 11 87 05 bd 28 cc 0c 3d
       0.04956803 -0.0008758388 -0.032599512 0.034374386
0001c0 e7 3b 18 3d 71 d3 5e bc b4 f0 63 3d fe 90 2c bd
       0.037166502 -0.013600216 0.055649474 -0.042130463
0001d0 e7 b4 33 3d 65 86 06 3c 69 58 6d 3d 73 8c f6 bc
       0.043873694 0.008210753 0.057945643 -0.030096268
0001e0 f8 56 24 bb 99 79 4a bd 58 03 48 bd 55 1b 4a 3c
       -0.0025076251 -0.04943237 -0.048831314 0.012335618
0001f0 b3 d5 2e 3d 04 d6 12 3d 25 03 e1 bc 47 5a 00 3c
       0.04268427 0.035848632 -0.02746732 0.007834024
000200 64 93 a9 bc 2a 35 e7 3a c0 3d f7 bc 67 0a 3d bc
       -0.020700164 0.0017639745 -0.030180812 -0.011538125
000210 3a 52 f0 3c 1d cf 14 3d fe 3d b8 3a cd c1 cb 3c
       0.029336084 0.03633033 0.0014056561 0.024872685
000220 d8 19 24 3d 30 98 32 bd 50 4b 9d bc 6b c9 61 3c
       0.04006371 -0.04360217 -0.01920095 0.013780932
000230 0d 33 bd bc b4 b6 fc bc 2a 06 7f 3b 82 51 69 3c
       -0.023095632 -0.030848838 0.0038913586 0.014240624
000240 52 4a 27 3d 6d 7a 2e bd f5 6e 3a bc 54 ba 95 3c
       0.04084236 -0.042597223 -0.011378993 0.018277325
000250 06 0b 14 3d 0c f5 37 bd 9d eb ef 3c 5b 80 5c 3d
       0.036143325 -0.04491143 0.029287154 0.053833347
000260 65 88 86 3c cf a6 8c 3c ee 8c e1 3c ce 21 7e bc
       0.01642246 0.017169384 0.02753302 -0.015510989
000270 07 71 c1 3c a3 67 d7 3c 96 0a ed 3b d0 00 47 bc
       0.023613466 0.026294535 0.007233928 -0.01214619
000280 40 60 35 3d 42 36 0b 3d 86 c1 2d bd 88 98 93 39
       0.044281244 0.03398729 -0.042420886 0.0002815167
000290 56 60 0c bd 8d 1a 29 bc f6 89 96 3c 2e a9 f4 bb
       -0.03427156 -0.010321272 0.018376332 -0.007466457
0002a0 0a 3d 66 3d 26 21 4f 3d 50 df 7a bb 08 81 60 3d
       0.056210555 0.050568722 -0.0038280077 0.054810554
0002b0 4d 86 34 bc 8e a0 0e ba b2 02 8f bc ad f2 fe 3c
       -0.011018348 -0.00054407946 -0.01745734 0.031121576
0002c0 42 20 45 bd b9 43 1e bd 4b 8f e7 bc 11 f0 0b 3d
       -0.048126467 -0.038638804 -0.02826657 0.034164492
0002d0 8a 24 2a 3c a6 81 2a bd 28 0a 1b 3d 1d 1f 4d 3d
       0.010384688 -0.04162755 0.037851483 0.0500785
0002e0 5a 12 43 3d c4 57 76 3c 05 fa 1a 3b cc a6 2c bd
       0.047624923 0.015035573 0.0023647558 -0.042151257
0002f0 72 25 99 3c a5 54 7c 3d b1 74 86 bc c0 a5 48 bd
       0.018694613 0.06160416 -0.016413065 -0.048986197
000300 82 ab ca bc 46 ae db 3c 69 f1 09 bd 7c 9b 31 3d
       -0.024739984 0.026816498 -0.033677492 0.043361172
000310 de 2f e6 3c 22 c0 de 3c 89 f5 9c bc f8 21 a6 bc
       0.028098997 0.027191225 -0.019160049 -0.02027987
000320 0f 89 0b bd 89 58 8a 3c 6a b5 41 3d ff f9 29 3d
       -0.034066256 0.01688792 0.04729215 0.04149818
000330 15 88 2a 3d 9d 6e 4a bd d6 c1 36 3d c8 22 05 3d
       0.041633684 -0.049421895 0.04461845 0.032503873
000340 ae 6b 40 3d ce 79 1e bd b0 c2 53 3d 96 f4 64 ba
       0.04697769 -0.03869038 0.05169934 -0.0008733956
000350 0b da b7 3c dd c9 03 bd d5 6c 14 3c 0e 93 0b 3d
       0.022442838 -0.032174934 0.009059151 0.03407579
000360 e5 d3 d0 3a 16 93 c1 bc 98 43 51 bc f7 1a 86 3c
       0.001593229 -0.023629706 -0.012772463 0.01637028
000370 12 1f 85 3b af bb 37 3c ca 4c 6b bc c3 7f 65 3d
       0.0040625418 0.011214181 -0.01436157 0.056030046
000380 ef c7 58 3c f5 cb eb bc 93 6e b3 bc 69 38 f7 bc
       0.013231262 -0.028783778 -0.021903312 -0.030178266
000390 d0 10 58 3d 3e ee 0e bd c6 9c 41 3d f0 89 07 3d
       0.05275041 -0.034895174 0.04726865 0.03309053
0003a0 a7 82 99 3c d9 0d 70 3c 90 17 35 bd a0 c6 f8 3c
       0.018739058 0.014651739 -0.044211924 0.03036815
0003b0 b4 f4 05 bd 9f 02 3e 3d 7e 4e 46 bd 3d 58 5a 3d
       -0.03270407 0.04638922 -0.0484147 0.053306807
0003c0 8c 7c 82 3d fe 35 0d 3d 33 d6 2e bd 47 fe 72 3d
       0.06371412 0.03447532 -0.042684745 0.05932453

model.feature_nns.1.model.0.weights f4 [1, 112]
000000 fd 5f d7 3f de af de 3f 58 42 d2 3f 4b 13 da 3f
       1.6826168 1.739742 1.6426497 1.7037138
000010 9c 39 d8 3f 14 7d dd 3f db 18 cb 3f cf 5b da 3f
       1.6892581 1.7303796 1.586696 1.7059268
000020 e3 a2 dc 3f 3e c9 d1 3f ad df dc 3f e7 9b d5 3f
       1.7237209 1.6389539 1.725576 1.6688203
000030 1a fa dd 3f 57 f3 cf 3f a2 d7 dc 3f be 37 df 3f
       1.734195 1.6246136 1.7253306 1.7438886
000040 dc 22 de 3f 3b 69 dc 3f 00 0b df 3f dc 58 d6 3f
       1.7354388 1.7219614 1.7425232 1.6745868
000050 9e 00 df 3f a6 a1 de 3f bf ae d1 3f b3 ff dc 3f
       1.7422063 1.7393081 1.6381453 1.7265533
000060 3e c9 d1 3f 7c 92 c4 3f da 6c b8 3f dc e8 bb 3f
       1.6389539 1.5357203 1.4408219 1.4680438
000070 46 40 d9 3f f9 60 de 3f 29 3f d8 3f b7 eb dc 3f
       1.697274 1.7373344 1.6894275 1.7259434
000080 90 a5 c0 3f 2a 72 d6 3f 86 71 dc 3f 8b 80 ce 3f
       1.5050526 1.675359 1.7222145 1.6132978
000090 2a 3f db 3f f7 44 cd 3f 36 2a de 3f 21 a4 c8 3f
       1.7128651 1.6036671 1.7356632 1.5675088
0000a0 98 a9 db 3f a8 fd d1 3f 6f df da 3f 60 93 de 3f
       1.7161131 1.6405535 1.7099437 1.7388725
0000b0 da 4b d1 3f 3f c4 ac 3f a8 f0 d4 3f 34 7d a7 3f
       1.6351273 1.349739 1.6635942 1.3085084
0000c0 44 b7 dc 3f 82 ac d8 3f d1 18 d6 3f 9e 6c d2 3f
       1.7243428 1.6927645 1.6726323 1.6439397
0000d0 d2 ad d3 3f e4 38 de 3f d0 08 d3 3f 5b 56 dd 3f
       1.6537421 1.7361112 1.6487064 1.7291979
0000e0 d9 bf bf 3f 95 dd b2 3f c3 4c c8 3f c5 84 dd 3f
       1.4980422 1.3973871 1.5648426 1.7306143
0000f0 8b e3 d1 3f 94 78 cf 3f fd c1 d8 3f 7f ba de 3f
       1.6397566 1.6208673 1.69342 1.7400664
000100 fd 6d cb 3f f8 ac ce 3f e8 82 d9 3f 64 cc db 3f
       1.5892941 1.6146536 1.6993074 1.717175
000110 1b 18 d8 3f b1 8d b9 3f 42 24 c0 3f 8a 73 d5 3f
       1.6882356 1.4496366 1.5011065 1.6675885
000120 3c 52 da 3f 1b 18 d8 3f 1e a4 be 3f 9d 48 da 3f
       1.7056346 1.6882356 1.4893835 1.705341
000130 8e 13 d5 3f 86 09 da 3f 46 84 c7 3f f7 c2 ce 3f
       1.6646593 1.7034156 1.5587242 1.6153249
000140 6d 35 d4 3f dc 58 d6 3f 33 dd d9 3f 30 51 cd 3f
       1.6578804 1.6745868 1.702063 1.6040401
000150 46 40 d9 3f e3 32 dc 3f 4f 00 d7 3f ca a9 d4 3f
       1.697274 1.7203029 1.6796969 1.6614316
000160 7a 1b de 3f 1a fa dd 3f 8d 3c de 3f 69 03 ce 3f
       1.7352135 1.734195 1.7362229 1.6094791
000170 ce 79 dc 3f 26 e2 d9 3f 30 04 db 3f 58 bf d9 3f
       1.7224672 1.702214 1.7110653 1.7011518
000180 7f e8 d2 3f 78 18 d7 3f b7 e7 dc 3f 72 6c c3 3f
       1.6477202 1.6804342 1.7258214 1.526747
000190 a5 4a b1 3f 46 75 c5 3f 81 1a d5 3f ac 4e cf 3f
       1.3850905 1.5426414 1.6648713 1.6195884
0001a0 9f 2b da 3f 0e c8 db 3f 44 8f db 3f 9b 86 d8 3f
       1.7044562 1.7170427 1.7153096 1.6916078
0001b0 4f 00 d7 3f 31 27 cb 3f e5 28 d8 3f 53 70 db 3f
       1.6796969 1.5871335 1.688748 1.7143654

model.feature_nns.1.model.1.weight f4 [1, 112]
000000 b1 a5 ad 3c ed ef ca bc 25 1c 9d bb 44 43 25 bc
       0.021197172 -0.024772609 -0.004794615 -0.010086838
000010 17 a4 a0 bc 5e 31 22 bb c6 b3 8a 3c 88 e9 df bb
       -0.019609494 -0.0024748663 0.016931426 -0.006833259
000020 b8 47 00 ba cb a4 04 bc 76 5d b7 ba 0e be 91 bc
       -0.00048934994 -0.00809593 -0.0013989646 -0.01779082
000030 ea 7d 2c 3c 70 e3 f5 3b 23 11 00 3c 22 6d 21 bb
       0.010528067 0.0075039193 0.007816586 -0.0024631699
000040 00 e9 90 3c 4f 62 45 3b 7c ee dc 3a da 15 54 3c
       0.017689228 0.003011841 0.0016855742 0.012944663
000050 b6 f2 4e 3c 3a 39 4b 3c 07 be 44 3c 20 c3 c7 bc
       0.012631109 0.012403781 0.012008197 -0.024385035
000060 3d 6e f4 3b d0 33 a9 bc 25 59 a1 bc f1 65 01 bc
       0.0074594305 -0.020654589 -0.019695828 -0.00789784
000070 d1 94 52 3c 39 86 9c 3b 80 f1 55 38 c6 06 e4 3a
       0.012852863 0.004776743 5.100807e-05 0.0017397038
000080 58 d2 86 3b 9f 17 8a 3b 40 9f f2 ba 72 62 f6 3b
       0.0041144304 0.0042142416 -0.0018510595 0.00751906
000090 1f ba ab 3c 2c 64 4e bc 6c c9 1e 3c b8 b3 14 bb
       0.020962773 -0.012597125 0.009691577 -0.0022690129
0000a0 c4 7f 2f bc ab fa 21 3c 65 67 86 bc 58 54 85 3c
       -0.010711614 0.009886424 -0.016406724 0.01627557
0000b0 08 d6 9c 3b dc 1a 39 bc ce bf 01 3b 26 35 e8 3b
       0.0047862567 -0.011297908 0.0019798162 0.007086414
0000c0 9e 8d 1f bc a2 8e 97 3b 04 f8 dc ba 1e 05 87 bc
       -0.009738354 0.0046251575 -0.0016858582 -0.016481932
0000d0 11 2b 42 3b 71 f6 3b bc e2 76 94 3b e4 68 42 3c
       0.002962772 -0.01147233 0.0045307735 0.011865828
0000e0 06 ba 9e 3b ef 0b 26 3c 3c 0e 8a 3a 3a 4a ce 3a
       0.004843953 0.010134681 0.0010532807 0.0015738674
0000f0 7d a5 a9 bc f4 37 89 ba 30 31 77 bc 24 1d d6 3a
       -0.020708794 -0.0010468946 -0.015087411 0.0016335589
000100 8f 74 12 bc 97 fa 68 bc 01 e4 fe 3b c0 6f f1 38
       -0.008938923 -0.0142199015 0.007778645 0.000115125906
000110 41 4e ff bb 2a 57 b2 bc 28 b0 63 3b 2e 33 4c 3b
       -0.007791311 -0.021770079 0.0034742448 0.0031158435
000120 ab 1c 3f bc b0 52 12 3a b6 76 1a 3b df 35 53 3b
       -0.01166455 0.00055817794 0.0023569292 0.0032228155
000130 fd ae 39 bb 52 f1 4f 3c c4 ba a4 bb 7c 32 7f bc
       -0.002833306 0.012691813 -0.005027147 -0.015576001
000140 18 41 7a 3a c8 ba 1b 3a 31 b8 9f bc b8 93 94 3c
       0.0009546443 0.00059406133 -0.019497009 0.018136844
000150 80 c4 dc 38 5f 02 29 3c 10 26 77 3b 02 ce bf 3b
       0.000105270185 0.010315507 0.0037711896 0.0058534155
000160 66 5f 33 3b 1e f5 58 3c 1c f8 2d bc e2 52 9c 3b
       0.0027370094 0.013242034 -0.010618236 0.0047706226
000170 a0 e3 25 bc 98 28 92 bc 53 6d 19 bb 59 ef c2 bc
       -0.010125071 -0.017841622 -0.002341111 -0.02379577
000180 ed af 8b 3c 8a d5 ef 3b fa 0e 0e 3b 80 56 1a b9
       0.017051661 0.007319157 0.0021676407 -0.00014718808
000190 de 97 29 3a 82 07 1c 3c 99 90 83 3b 5b 0f db 3b
       0.00064694684 0.009523274 0.00401504 0.00668518
0001a0 a0 73 49 39 25 3a 6b bc 3d f2 19 bc 68 3f 65 3b
       0.00019211927 -0.014357124 -0.009396133 0.003498042
0001b0 82 e4 3e 3c 4a 59 b6 bc 80 4f 8b 3c d0 f3 a4 39
       0.01165116 -0.022259373 0.017005682 0.00031462172

model.feature_nns.2.model.0.weights f4 [1, 274]
000000 70 12 d7 3f f1 96 de 3f d5 a0 db 3f 0d f1 bc 3f
       1.6802502 1.7389814 1.7158457 1.4761063
000010 4c 55 d8 3f a1 d5 d6 3f 88 2b d9 3f eb 60 dc 3f
       1.690103 1.6783944 1.696641 1.7217077
000020 b8 f7 dc 3f e6 89 cb 3f cd 9e dc 3f 27 3a da 3f
       1.7263098 1.5901458 1.7235962 1.7048997
000030 d1 18 d6 3f f6 ad db 3f 64 23 dd 3f 30 9b c6 3f
       1.6726323 1.7162464 1.7276425 1.551611
000040 e6 89 cb 3f 5c d9 db 3f 5a 5d de 3f 20 44 cf 3f
       1.5901458 1.7175708 1.7372239 1.6192665
000050 96 9d c9 3f 80 0c be 3f b9 14 d1 3f 02 3d d5 3f
       1.5751216 1.4847565 1.6334449 1.6659243
000060 77 35 cb 3f a8 77 d3 3f 36 af d2 3f f1 ea d7 3f
       1.5875691 1.6520891 1.645972 1.6868573
000070 63 6d dc 3f 20 5e dd 3f a6 e8 da 3f 67 11 bf 3f
       1.7220882 1.729435 1.7102249 1.4927186
000080 71 16 db 3f 5c 42 d7 3f 89 01 de 3f 21 36 d5 3f
       1.7116224 1.6817126 1.7344218 1.6657144
000090 29 3f d8 3f 0f 45 c0 3f d3 96 ce 3f 95 c1 ca 3f
       1.6894275 1.5021075 1.6139778 1.5840327
0000a0 22 6d c9 3f 41 4a d8 3f 50 06 d2 3f a2 b2 dd 3f
       1.573643 1.689766 1.6408176 1.732014
0000b0 c6 4f d8 3f f1 c8 be 3f 5b f8 d5 3f 5f f6 c5 3f
       1.6899345 1.4905072 1.6716417 1.5465811
0000c0 23 8b c5 3f c0 85 d2 3f ce 68 d4 3f 2e 5f d5 3f
       1.5433086 1.6447067 1.6594484 1.6669672
0000d0 23 d8 c4 3f 5f f6 c5 3f dd f1 d8 3f 77 35 cb 3f
       1.537846 1.5465811 1.6948811 1.5875691
0000e0 8c 1f cc 3f 31 e1 c5 3f 77 38 9b 3f a1 a2 d4 3f
       1.5947127 1.5459348 1.2126607 1.661213
0000f0 e1 47 dc 3f fa b7 ce 3f d9 6f d3 3f 94 78 cf 3f
       1.7209436 1.6149895 1.6518508 1.6208673
000100 a9 fe d4 3f 3a b2 b7 3f a5 4a b1 3f 73 71 c7 3f
       1.6640216 1.4351265 1.3850905 1.5581497
000110 8e 13 d5 3f 57 b5 c8 3f 88 2b d9 3f 36 af d2 3f
       1.6646593 1.568034 1.696641 1.645972
000120 90 31 de 3f ed cc da 3f e4 1b d9 3f 38 60 d0 3f
       1.7358875 1.7093788 1.6961637 1.6279364
000130 02 fb ba 3f 5f d4 c1 3f 79 c4 b9 3f 7d c7 dc 3f
       1.4607852 1.5142936 1.4513084 1.7248379
000140 f8 ac ce 3f 59 d7 d8 3f 29 1f de 3f 90 31 de 3f
       1.6146536 1.6940719 1.7353259 1.7358875
000150 58 bf d9 3f b5 9a dc 3f 93 44 bd 3f 44 ec d1 3f
       1.7011518 1.7234713 1.4786552 1.6400228
000160 a9 e1 bf 3f cd 9e dc 3f 84 61 d4 3f 40 05 de 3f
       1.4990741 1.7235962 1.659226 1.7345352
000170 2c 18 da 3f 87 1f db 3f 21 69 a1 3f a1 31 db 3f
       1.7038627 1.7118996 1.2610208 1.712452
000180 44 8f db 3f ee 3a a4 3f 3a 63 c4 3f 0a 5e d1 3f
       1.7153096 1.2830484 1.5342782 1.6356823
000190 40 2f d5 3f 9e 88 dd 3f 42 fe c6 3f f5 7f a6 3f
       1.6655045 1.7307317 1.5546343 1.3007799
0001a0 f7 82 cf 3f 3a 9a d0 3f 64 1c c5 3f 15 8e d2 3f
       1.6211842 1.6297066 1.5399289 1.644961
0001b0 16 90 da 3f 76 8c dd 3f e6 89 cb 3f f9 8e d3 3f
       1.7075222 1.730849 1.5901458 1.6528007
0001c0 d1 04 cc 3f 5f f6 c5 3f 2c f6 de 3f 4b d3 d0 3f
       1.593897 1.5465811 1.7418876 1.6314481
0001d0 91 1a b2 3f 54 0d db 3f 36 af d2 3f c5 d4 cd 3f
       1.3914357 1.7113442 1.645972 1.6080557
0001e0 45 07 cd 3f 11 33 be 3f 21 a4 c8 3f d9 3f a9 3f
       1.6017843 1.4859334 1.5675088 1.322261
0001f0 c4 74 db 3f 11 4c dc 3f ba 11 c7 3f 48 a6 d9 3f
       1.7145009 1.7210714 1.5552285 1.700387
000200 00 0b df 3f f9 ae cc 3f 84 71 b7 3f 16 96 b4 3f
       1.7425232 1.5990897 1.4331517 1.4108303
000210 3e c9 d1 3f b9 e4 de 3f b0 9e d2 3f d4 74 df 3f
       1.6389539 1.7413551 1.6454678 1.7457528
000220 e3 2d de 3f 9d 48 da 3f 7b 91 d8 3f 5f 58 d5 3f
       1.7357754 1.705341 1.6919397 1.6667594
000230 55 c4 d9 3f b2 9d bf 3f 7c e5 bd 3f f3 fb d7 3f
       1.7013041 1.497 1.4835658 1.6873764
000240 3d ac cf 3f 85 5e c7 3f 15 8e d2 3f 86 71 dc 3f
       1.6224438 1.557572 1.644961 1.7222145
000250 12 37 dd 3f 71 16 db 3f 68 3c d7 3f 8c 1f cc 3f
       1.7282431 1.7116224 1.681531 1.5947127
000260 6a 56 df 3f 83 19 dc 3f 03 75 d2 3f 87 65 d6 3f
       1.7448246 1.7195286 1.6441959 1.6749734
000270 98 a2 d5 3f 08 68 d3 3f 3a e8 de 3f e3 32 dc 3f
       1.6690245 1.6516123 1.741462 1.7203029
000280 ad 8f df 3f d9 10 d3 3f 77 30 d7 3f 9d 48 da 3f
       1.7465721 1.6489516 1.6811665 1.705341
000290 d2 1a c9 3f 2b 23 df 3f c8 fa cc 3f 24 79 d1 3f
       1.571131 1.7432607 1.6014032 1.6365094
0002a0 b5 96 d3 3f 08 68 d3 3f c3 00 d3 3f b9 42 d1 3f
       1.6530367 1.6516123 1.6484607 1.6348487
0002b0 a9 75 dc 3f e2 f5 d9 3f 87 cb dc 3f f9 3e da 3f
       1.7223407 1.7028162 1.7249612 1.7050468
0002c0 65 7c c1 3f 52 53 d2 3f 7b 91 d8 3f 68 5e c8 3f
       1.5116087 1.6431677 1.6919397 1.565381
0002d0 57 38 c7 3f 08 2a df 3f 92 c5 dd 3f ea cd ce 3f
       1.5564069 1.7434702 1.7325919 1.615659
0002e0 48 2b dd 3f d2 1a c9 3f 45 b7 d8 3f 28 f3 db 3f
       1.7278833 1.571131 1.693093 1.718358
0002f0 62 bf db 3f 8a 4b d4 3f 5f f6 dd 3f d4 2c cc 3f
       1.716778 1.6585553 1.7340811 1.595118
000300 15 7c af 3f 67 45 df 3f 5e 75 dd 3f 91 c1 de 3f
       1.3709742 1.7443055 1.7301443 1.7402822
000310 0c 82 db 3f 17 e7 d9 3f 99 a7 da 3f 7a ef d0 3f
       1.7149062 1.7023648 1.7082397 1.6323082
000320 01 62 c2 3f 69 cc d3 3f 15 1b bd 3f 40 25 d0 3f
       1.5186158 1.6546756 1.477389 1.6261368
000330 34 9c d9 3f 0a d2 d1 3f d1 04 cc 3f ce a3 d0 3f
       1.7000794 1.6392224 1.593897 1.6299989
000340 58 7d d0 3f 89 01 de 3f 1e 0a c9 3f 2f c3 d6 3f
       1.6288252 1.7344218 1.5706213 1.6778315
000350 03 bd d6 3f 50 06 d2 3f c6 70 d8 3f a0 85 df 3f
       1.6776432 1.6408176 1.6909416 1.7462654
000360 9f a9 c7 3f 9f a9 c7 3f af 83 b5 3f 73 aa d6 3f
       1.5598639 1.5598639 1.4180812 1.6770767
000370 0b 35 bf 3f 21 94 dd 3f 6f df da 3f 82 6e cc 3f
       1.4938062 1.731083 1.7099437 1.5971224
000380 0e c8 db 3f 0f 45 c0 3f c4 74 db 3f e0 43 de 3f
       1.7170427 1.5021075 1.7145009 1.7364464
000390 ae 02 c4 3f ea 3e dd 3f cb 05 c5 3f a5 b0 d6 3f
       1.5313318 1.7284825 1.5392393 1.6772658
0003a0 63 15 df 3f 2f f1 c1 3f f4 97 dd 3f 38 87 d3 3f
       1.7428402 1.5151728 1.7311997 1.652564
0003b0 ba 1e c3 3f 0a d5 db 3f e5 ee dd 3f 24 48 db 3f
       1.5243752 1.7174389 1.733853 1.713139
0003c0 91 c1 de 3f b3 dc d0 3f 0d ab dc 3f 05 96 bd 3f
       1.7402822 1.6317352 1.72397 1.4811407
0003d0 de a0 c5 3f 5a c9 d6 3f ed cc da 3f ec 7d dc 3f
       1.5439718 1.6780198 1.7093788 1.7225928
0003e0 85 08 dc 3f fb 3b c9 3f e5 96 d8 3f df e1 d6 3f
       1.71901 1.572143 1.6921049 1.678768
0003f0 f2 5f cb 3f 31 e1 c5 3f de 0c d8 3f c3 08 db 3f
       1.5888655 1.5459348 1.6878927 1.7112049

model.feature_nns.2.model.1.weight f4 [1, 274]
000000 8c 5b 1a bc 32 bd 66 3c 95 3e 24 bc 10 6e 9a bc
       -0.009421241 0.014083194 -0.010024686 -0.01885131
000010 20 a6 02 b9 f3 ef 81 3c 0c 4c 35 3c 7c f1 8a 3c
       -0.00012459652 0.015861487 0.011065494 0.016960852
000020 3b bf 95 bc 7c ce 7e 3c 4d 60 86 bb 84 89 81 3c
       -0.018279662 0.015552159 -0.0041008354 0.015812643
000030 16 f5 06 bb 32 a1 57 bc 59 bf 37 bc 66 0f a8 bc
       -0.002059286 -0.013160991 -0.011215054 -0.020515155
000040 da 44 84 bc 7e 43 5f 3c 1c 61 90 3c 59 cc ba 3b
       -0.016146112 0.013626931 0.01762443 0.0057006297
000050 d7 90 1f 3c f5 bc 8b bb 8c 54 87 3c 4c ac df bb
       0.009739122 -0.004264469 0.016519807 -0.0068259593
000060 e8 09 96 bc f3 bd 5c 3c 7a e1 fd bb b6 8a 26 bb
       -0.01831527 0.013473022 -0.007747826 -0.0025412268
000070 be 4c 83 3c 60 71 7a 3c 66 ff 87 3c 09 c7 ab bb
       0.016027804 0.01528582 0.016601276 -0.0052422327
000080 aa 71 1d 3c 00 1a 76 3c 5c 44 64 ba e0 d0 b6 ba
       0.009609619 0.015020847 -0.0008707696 -0.0013947748
000090 95 7b 3c bc 50 6c a5 bc 96 33 a5 bc 55 3a bc bb
       -0.011504074 -0.020193249 -0.0201662 -0.0057442584
0000a0 3c 81 6e 3c dc 36 80 3c 1a 24 ff 3b 2b c6 8d bc
       0.014557179 0.015651159 0.007786286 -0.017306408
0000b0 d0 08 6e 3c 52 85 a4 bc 00 b6 15 bb 94 cd 45 3c
       0.014528468 -0.020083103 -0.0022844076 0.012072939
0000c0 67 3f aa bc 9c ca 9d bc 34 5f ad ba 06 1a ad 3b
       -0.020782186 -0.01926165 -0.0013227225 0.0052826433
0000d0 d6 7b 3b 3c f1 c9 48 bb fb 19 80 ba b2 0c a3 3b
       0.011443099 -0.0030637945 -0.0009773368 0.0049758786
0000e0 d7 3f 46 bb 13 c3 03 bc 33 fc 24 3c 0c bd 35 ba
       -0.0030250454 -0.008042115 0.010069895 -0.0006932772
0000f0 54 d9 88 3c 28 54 98 bb 97 6e 5a 3c 51 7d 84 3b
       0.016705193 -0.004648704 0.013332031 0.004043259
000100 78 a0 a2 bb a7 12 96 bb 02 93 a9 bc d1 02 80 3c
       -0.004962977 -0.0045798603 -0.020699982 0.015626343
000110 36 ba 2e bc 58 35 96 bc a2 f0 6c 3c dc a0 99 3b
       -0.010664513 -0.018335983 0.014461668 0.0046883654
000120 14 07 9f 3b 64 38 85 3c 8a 50 7f bc c9 00 90 bc
       0.0048531387 0.01626224 -0.015583167 -0.0175785
000130 ba d9 d0 3b 9b eb 80 3c 75 0d 6e bc 70 0a 85 3c
       0.0063736113 0.015737345 -0.014529576 0.016240329
000140 26 8b 95 3c 34 d2 c8 bb 64 0c 89 3b c1 0a 07 bc
       0.018254828 -0.006128574 0.0041823853 -0.00824231
000150 ee 30 aa bc e8 3e aa bc 80 75 84 39 c4 a9 96 ba
       -0.020775285 -0.02078195 0.00025264546 -0.0011494686
000160 90 2b 89 3c ec 16 79 bb 9d 6b 8a 3c d4 7e 04 3b
       0.016744405 -0.0038008047 0.016897017 0.0020217197
000170 44 dc 93 3c 6a 1d 1c 3b fe ae 32 3c 60 6a 8e 3c
       0.018049367 0.0023821243 0.010905979 0.017384708
000180 36 54 5b 3c e7 af 61 bc 2b 4f 98 bc 38 ed 94 3c
       0.013386777 -0.013774849 -0.018592438 0.018179521
000190 8e 50 ce 3b 15 73 81 3c 34 e7 6a 3c 98 c3 80 3c
       0.006296224 0.015801946 0.01433735 0.015718266
0001a0 6e 66 95 bc 30 6f 7b 3c 72 f9 fd 3a 67 8b 94 bc
       -0.018237319 0.015346333 0.0019376709 -0.018132878
0001b0 de 9e 20 bc fc 9a 61 3c 8c 81 07 ba 6b 49 9e bb
       -0.009803502 0.013769861 -0.00051691453 -0.0048305294
0001c0 fd ff 10 3c d6 9c 43 3c df e0 94 bc 93 34 69 3c
       0.008850095 0.011939248 -0.018173633 0.014233726
0001d0 4a 61 c4 bb 52 1c 8a 3b 2b 20 5a 3b 73 b4 7b bc
       -0.005993043 0.004214802 0.0033283334 -0.015362847
0001e0 fe 35 ea bb 78 7f 0a 3c 07 2f aa bc 7d 3b 15 bc
       -0.0071475497 0.0084532425 -0.020774378 -0.009108421
0001f0 20 64 61 3c 9d 09 16 bb 52 63 72 3c 0a e0 d7 bb
       0.013756782 -0.0022893914 0.014794188 -0.006587987
000200 d7 df 07 bb d2 b8 6c bc 2f 30 aa bc 39 96 51 bb
       -0.0020732784 -0.0144483615 -0.020774929 -0.0031980409
000210 e0 db 8f ba c4 41 bb 3a 8a 88 23 bc 8c 1c d5 bb
       -0.0010975562 0.0014286567 -0.009981284 -0.006503647
000220 28 42 91 3b db 60 95 3c 2d a1 11 3c 00 16 02 b9
       0.0044329353 0.01823466 0.008888525 -0.00012405962
000230 d8 be 8d bc 12 cc 16 3b a3 30 99 ba 3d f0 50 bc
       -0.017302915 0.002300982 -0.0011687469 -0.01275259
000240 ba 8e 8a bc 0b 6e c2 3b 84 29 15 bc b8 77 98 bb
       -0.01691376 0.0059335283 -0.009104136 -0.0046529435
000250 59 db 0a bc f2 dd 62 3b c2 00 32 bb 83 13 92 3c
       -0.008475148 0.0034617153 -0.0027161096 0.01783157
000260 f8 66 38 3a 11 95 d8 bb 26 9d 8a bc 71 73 40 bc
       0.00070343865 -0.006609567 -0.016920637 -0.011746273
000270 a1 38 10 bc 68 f0 0d 3a b7 a0 84 bc 29 a9 92 3c
       -0.008802564 0.00054145465 -0.016189916 0.017902927
000280 d5 c8 46 bc 08 17 80 3c f7 3a 88 3c 3a 47 4e 3c
       -0.012132843 0.015635982 0.01662968 0.012590224
000290 78 9e 86 3c 1b f2 62 3c 8c df 79 3c 50 f1 85 3a
       0.016432986 0.013851668 0.015251052 0.0010219011
0002a0 c9 75 d6 3b ea 18 53 bb 7b a8 86 3c 6a 39 a5 bc
       0.006544803 -0.0032210895 0.01643776 -0.020168979
0002b0 32 eb 94 ba 5f 3d a8 bb fe b9 58 bb d2 91 22 bc
       -0.0011361598 -0.005134269 -0.0033069844 -0.009922462
0002c0 c2 c6 8b bc fc 8d 8d 3b 2d f1 7d 3c 53 12 79 3c
       -0.017062549 0.0043199044 0.015499395 0.015202123
0002d0 f7 b3 69 bc fa ab 82 bc bf 16 87 bc 8f d9 03 bc
       -0.014264098 -0.015951145 -0.016490338 -0.0080474755
0002e0 f8 7c 7d bc f2 94 a9 bc 72 8b 22 bc 54 80 9d bc
       -0.015471689 -0.020700905 -0.009920942 -0.01922623
0002f0 86 c1 be 3a 96 9c 51 3c 36 92 88 bc 35 1d 88 3b
       0.0014553524 0.012793681 -0.016671281 0.0041538724
000300 49 80 6c 3c 70 a1 76 bc ed 9f 3b 3b 98 1a a5 bc
       0.014434882 -0.015053138 0.0028629259 -0.020154282
000310 6e c7 1a 3c ac 0c 1b 3b ce 40 81 3c c5 3d 96 bb
       0.009446962 0.0023658676 0.015777972 -0.004585
000320 db 17 4a bc a4 c2 80 3c 7d 9a fe 3a 03 aa 8f bc
       -0.012334789 0.015717812 0.0019424703 -0.017537123
000330 85 ba 8c bc 1c 51 69 bb 51 ee 0e 3c 8c 0d 9b bb
       -0.017178783 -0.0035601323 0.008723811 -0.0047318395
000340 fe 4f aa bc d6 b2 dd bb 0e 00 26 3c b0 c9 ba ba
       -0.020790096 -0.0067657037 0.010131849 -0.0014250781
000350 14 fb 0c 3c 11 4a 9a bc 76 49 10 bc d8 49 41 bb
       0.008604784 -0.018834146 -0.008806577 -0.0029493477
000360 93 5e 94 bc 46 bc a1 bc e6 58 13 3b 32 16 8f 3c
       -0.018111503 -0.019743096 0.0022483408 0.017466638
000370 5c a3 7c bc 7e d4 5b bb 45 26 b2 3b 64 14 50 ba
       -0.015419807 -0.0033543403 0.005436691 -0.0007937609
000380 b5 21 96 bc 69 d7 90 bc 26 24 aa bb 8c d6 a7 bc
       -0.01832662 -0.01768084 -0.0051922975 -0.020488046
000390 40 8c fb b8 ca 2b bf ba 1a a8 75 bc 0c d3 af bb
       -0.00011994736 -0.0014585194 -0.014993692 -0.005365735
0003a0 ed ed 96 bb 2e 69 84 3a 7a 54 22 bc d5 1c 92 bc
       -0.0046059997 0.0010102147 -0.009907836 -0.017836014
0003b0 f3 cc c7 3b f3 a4 d1 ba 72 eb a0 bb be 2b be ba
       0.00609743 -0.0015994593 -0.00491088 -0.0014508886
0003c0 d1 b1 57 bb 0c d2 02 3a 76 90 62 3c 62 4b 95 3c
       -0.0032912383 0.0004990406 0.0138283875 0.018224422
0003d0 7e 40 33 bc f9 6e 87 3c 0a 8a 4a 3c ca 36 0b ba
       -0.010940669 0.016532408 0.012362013 -0.00053105934
0003e0 39 12 57 3c d0 3b b7 b9 ed 8e a9 bc 68 3b 08 bc
       0.013126903 -0.00034949044 -0.020698035 -0.008314945
0003f0 bc 3a 8d 3c 13 c8 0f 3c 50 6e 4e 3c 08 95 c6 bb
       0.01723992 0.008775729 0.012599543 -0.0060602464

model.feature_nns.3.model.0.weights f4 [1, 338]
000000 fd 5f d7 3f c7 5b d2 3f 1b 18 d8 3f 85 8d c9 3f
       1.6826168 1.6434258 1.6882356 1.5746313
000010 fd 41 df 3f 37 05 c8 3f 5a d1 c3 3f 86 47 de 3f
       1.7442013 1.5626591 1.5298264 1.7365577
000020 7c 69 cd 3f 98 01 d8 3f c5 84 dd 3f 0d ab dc 3f
       1.6047816 1.6875486 1.7306143 1.72397
000030 89 01 de 3f 5d 7d c9 3f 49 f6 d7 3f 35 95 d5 3f
       1.7344218 1.5741383 1.6872035 1.6686159
000040 02 2b ca 3f 9d 48 da 3f ac 4e cf 3f 5d 8b da 3f
       1.5794375 1.705341 1.6195884 1.707378
000050 98 a2 d5 3f 49 f6 d7 3f aa 73 d0 3f 53 34 df 3f
       1.6690245 1.6872035 1.6285298 1.7437843
000060 95 c1 ca 3f 84 77 d7 3f c5 96 ba 3f ba 1e c3 3f
       1.5840327 1.6833348 1.4577261 1.5243752
000070 79 61 cc 3f 47 9f c3 3f 2e 0c d9 3f 59 ad d0 3f
       1.5967246 1.5282983 1.6956842 1.6302902
000080 c5 96 ba 3f ad 2e dc 3f de a0 c5 3f a2 b2 dd 3f
       1.4577261 1.7201744 1.5439718 1.732014
000090 de e0 c7 3f b0 43 dc 3f 44 b7 dc 3f c7 87 d5 3f
       1.5615499 1.7208157 1.7243428 1.6682061
0000a0 b8 f3 dc 3f 9b 7e d4 3f 50 35 da 3f 2f 27 d1 3f
       1.7261877 1.6601137 1.704752 1.6340083
0000b0 a6 e8 da 3f 99 0f dd 3f 58 75 ce 3f b9 14 d1 3f
       1.7102249 1.7270385 1.612956 1.6334449
0000c0 d9 3f a9 3f 82 6e cc 3f 57 28 d5 3f 24 6e cf 3f
       1.322261 1.5971224 1.6652936 1.6205487
0000d0 28 c3 c6 3f 06 99 c2 3f a4 f2 dd 3f 59 fa b9 3f
       1.5528307 1.5202949 1.7339673 1.4529525
0000e0 de a9 c4 3f 64 07 d0 3f a8 d4 dd 3f 19 f3 c7 3f
       1.5364339 1.6252255 1.7330523 1.5621063
0000f0 aa 73 d0 3f ec de ca 3f 44 ec d1 3f 0f 24 db 3f
       1.6285298 1.584928 1.6400228 1.7120379
000100 8b db d4 3f d3 96 ce 3f a3 05 d5 3f 87 cb dc 3f
       1.6629499 1.6139778 1.6642345 1.7249612
000110 4c 3b dc 3f 84 61 d4 3f a8 4a dd 3f 68 5e c8 3f
       1.7205596 1.659226 1.7288408 1.565381
000120 19 f3 c7 3f 3a 26 dc 3f f3 f0 d9 3f f6 1d d1 3f
       1.5621063 1.7199166 1.7026657 1.6337268
000130 ce 68 d4 3f 03 9e d6 3f 63 e4 c0 3f 90 99 cd 3f
       1.6594484 1.6766971 1.5069698 1.6062489
000140 13 c1 c4 3f 16 90 da 3f 2e 5f d9 3f d1 da da 3f
       1.5371422 1.7075222 1.6982172 1.7098027
000150 14 04 df 3f c4 42 b4 3f d8 3c ce 3f 8f 53 ce 3f
       1.742312 1.4082875 1.6112318 1.611925
000160 a6 43 db 3f b7 c0 cf 3f 1d 21 d9 3f ad cf de 3f
       1.713002 1.6230687 1.696323 1.7407128
000170 62 05 d6 3f 72 6c c3 3f a3 b5 da 3f 44 b7 dc 3f
       1.6720393 1.526747 1.7086681 1.7243428
000180 f4 0e d2 3f 16 96 b4 3f 36 2a de 3f 2a 72 d6 3f
       1.6410813 1.4108303 1.7356632 1.675359
000190 1b ea c3 3f f8 9c d1 3f d6 42 dd 3f ce 30 d3 3f
       1.5305818 1.6376028 1.7286022 1.6499269
0001a0 f5 85 c3 3f 16 90 da 3f 4a d0 ca 3f 03 9e d6 3f
       1.5275255 1.7075222 1.5844815 1.6766971
0001b0 b7 1d d8 3f ba 1e c3 3f 60 b1 cd 3f e5 cb c5 3f
       1.6884068 1.5243752 1.6069756 1.5452849
0001c0 cb c1 dd 3f 98 a2 d5 3f ce 68 d4 3f c5 26 da 3f
       1.7324766 1.6690245 1.6594484 1.7043082
0001d0 31 e1 c5 3f 60 cd c9 3f 65 7c c1 3f 95 c1 ca 3f
       1.5459348 1.57658 1.5116087 1.5840327
0001e0 5b 77 d4 3f 0c 92 df bf c5 96 ba 3f 50 b2 db 3f
       1.6598924 -1.7466445 1.4577261 1.7163792
0001f0 fb 6f c8 3f 79 2f b7 3f df fe d5 3f 26 a7 b6 3f
       1.5659174 1.4311363 1.6718405 1.426976
000200 02 fb ba 3f 03 39 d0 3f b9 14 d1 3f 7c 92 c4 3f
       1.4607852 1.6267399 1.6334449 1.5357203
000210 8f 53 ce 3f f7 63 df 3f 63 15 df 3f 07 11 dc 3f
       1.611925 1.7452382 1.7428402 1.7192696
000220 52 53 d2 3f 9b 4a d9 3f dd 8a db 3f 23 8b c5 3f
       1.6431677 1.6975893 1.7151753 1.5433086
000230 44 8f db 3f 26 a7 b6 3f 58 75 ce 3f b8 f3 dc 3f
       1.7153096 1.426976 1.612956 1.7261877
000240 8c 1f cc 3f ec de ca 3f ed 80 dd 3f 1f af dc 3f
       1.5947127 1.584928 1.730497 1.7240943
000250 58 12 d6 3f 35 da de 3f 84 71 b7 3f c3 1d dc 3f
       1.6724348 1.7410342 1.4331517 1.7196583
000260 57 28 d5 3f b3 ff dc 3f b7 eb dc 3f de 7e be 3f
       1.6652936 1.7265533 1.7259434 1.4882467
000270 62 bf dc 3f ab 73 da 3f be a8 b8 3f e7 9b d5 3f
       1.7245905 1.7066549 1.4426496 1.6688203
000280 c5 26 da 3f 92 c5 dd 3f b4 e1 cc 3f c5 96 ba 3f
       1.7043082 1.7325919 1.6006379 1.4577261
000290 d4 2c cc 3f 0f d0 d2 3f 05 d1 d5 3f 30 51 cd 3f
       1.595118 1.6469744 1.6704413 1.6040401
0002a0 05 d1 d5 3f 0c 82 dc 3f 05 96 bd 3f 50 9c d8 3f
       1.6704413 1.7227187 1.4811407 1.6922703
0002b0 37 8c de 3f b9 4a d5 3f 18 67 d1 3f 85 9a de 3f
       1.738654 1.6663429 1.6359587 1.7390906
0002c0 1d 21 d9 3f 1b 92 d9 3f 58 7d d0 3f db 18 d3 3f
       1.696323 1.6997713 1.6288252 1.649196
0002d0 e5 96 d8 3f 42 24 c0 3f d9 10 d3 3f 59 c7 d8 3f
       1.6921049 1.5011065 1.6489516 1.6935836
0002e0 1f 49 c5 3f 2a 81 d8 3f 98 b7 d1 3f 09 85 de 3f
       1.541294 1.6914418 1.6384153 1.7384349
0002f0 07 11 dc 3f b7 e7 dc 3f ae bf d2 3f 7a 2a d7 3f
       1.7192696 1.7258214 1.6464746 1.6809838
000300 2a ec cd 3f ad cf de 3f 4a 8b d6 3f 1a 95 ca 3f
       1.6087697 1.7407128 1.6761258 1.5826752
000310 14 04 df 3f 50 06 d2 3f 89 01 de 3f 46 84 c7 3f
       1.742312 1.6408176 1.7344218 1.5587242
000320 36 2a de 3f 45 ee cc 3f 65 7c c1 3f 44 1f d6 3f
       1.7356632 1.6010214 1.5116087 1.6728292
000330 80 1a ce 3f 57 67 df 3f c5 d4 cd 3f 7e b5 d3 3f
       1.6101837 1.7453412 1.6080557 1.6539762
000340 31 79 db 3f 63 6d dc 3f 24 79 d1 3f 46 e9 cf 3f
       1.714636 1.7220882 1.6365094 1.6243064
000350 74 9c db 3f b7 c3 db 3f 4e 01 d4 3f d1 c3 d5 3f
       1.7157121 1.7169102 1.6562898 1.6700383
000360 29 97 d9 3f de 58 ca 3f 7e a5 cd 3f 35 95 d5 3f
       1.6999255 1.580837 1.6066129 1.6686159
000370 01 62 c2 3f f7 63 df 3f d9 3f a9 3f 91 39 d1 3f
       1.5186158 1.7452382 1.322261 1.6345693
000380 a0 26 d4 3f 46 5f c5 3f 9c 39 d8 3f 4d 6b d8 3f
       1.6574287 1.54197 1.6892581 1.6907746
000390 5a d1 c3 3f 62 bf dc 3f bd 72 c6 3f 70 12 d7 3f
       1.5298264 1.7245905 1.5503765 1.6802502
0003a0 00 3b dd 3f 8a 91 d6 3f e6 81 da 3f 5c 42 d7 3f
       1.728363 1.6763165 1.7070892 1.6817126
0003b0 be e4 d5 3f 3a b2 b7 3f 78 18 d7 3f 78 18 d7 3f
       1.6710432 1.4351265 1.6804342 1.6804342
0003c0 af cc d8 3f 27 3a da 3f 5a d1 c3 3f 40 2f d5 3f
       1.6937464 1.7048997 1.5298264 1.6655045
0003d0 14 ee d6 3f ee 06 d9 3f e3 a2 dc 3f dc 22 de 3f
       1.6791406 1.695524 1.7237209 1.7354388
0003e0 5d 7d c9 3f 38 87 d3 3f 66 cd d4 3f 7d b6 cf 3f
       1.5741383 1.652564 1.6625183 1.6227566
0003f0 b4 e1 cc 3f a6 3a db 3f eb 60 dc 3f 26 46 c2 3f
       1.6006379 1.7127273 1.7217077 1.5177658

model.feature_nns.3.model.1.weight f4 [1, 338]
000000 d7 7e 91 3c e0 13 27 3c 29 44 b3 3b ec 48 76 bc
       0.017760677 0.01019761 0.005470772 -0.015032034
000010 61 34 b2 3b 17 ce 77 bc 43 82 a1 3c 1f 56 94 bc
       0.005438373 -0.015124819 0.019715434 -0.018107472
000020 a1 53 90 bc ad 6b 67 bc da ca e9 3b 21 02 05 3c
       -0.017618002 -0.014124793 0.0071347775 0.008118183
000030 f5 9d 66 bc 31 19 5d bc d2 f8 ce bb 84 28 94 3c
       -0.014075746 -0.013494776 -0.006316283 0.018085726
000040 1e eb da bb fb 46 1d 3b 8a d1 ba 3b f9 14 65 3b
       -0.00668086 0.0023998606 0.0057012485 0.0034955128
000050 a7 ab b7 3b 19 28 78 bc c9 0c 22 3b 18 37 6f bc
       0.0056051794 -0.015146279 0.0024726859 -0.014600538
000060 11 d7 be 3b 9c b6 60 3c 68 de 95 3c c3 ba 80 bb
       0.0058239778 0.0137154125 0.018294528 -0.0039285137
000070 2f 87 49 3c d9 c4 0b bc 9b 3d 80 bb 64 ec d2 bb
       0.012300297 -0.008530819 -0.003913594 -0.0064368714
000080 da d9 a2 3c fa 0d 8a bc ca 8d 28 3c 60 61 0b 3c
       0.01987927 -0.016852368 0.010287711 0.008507103
000090 7d d1 41 3c 77 bc 87 bb dc 35 b0 3a 84 c0 4c 3b
       0.011829731 -0.00414234 0.0013443786 0.0031242678
0000a0 3d c8 52 3c 06 40 70 3b ae 99 86 3b 04 e6 a7 3c
       0.012865123 0.0036659255 0.0041076755 0.020495422
0000b0 2c c6 c3 3a 4d 4b 35 3c 80 9a 97 3c 93 da 30 3c
       0.0014936379 0.011065316 0.018506289 0.0107943
0000c0 5b 6a 80 bc 82 2b 52 3a 30 2e 89 bc 40 19 22 3c
       -0.015675714 0.00080173474 -0.016745657 0.009893715
0000d0 92 ce 92 3c a2 4a 45 3b c2 cc b2 3b 89 49 4c 3b
       0.017920766 0.00301043 0.005456538 0.003117176
0000e0 bf 98 17 3c af 1d 8e bc 3a a2 12 3b 50 ff 69 bb
       0.009252726 -0.017348139 0.0022374527 -0.0035705157
0000f0 7c f1 6e bc 80 cb 74 bc ba 76 55 3c 77 f4 8f bc
       -0.014583942 -0.014941096 0.013028795 -0.017572625
000100 e9 5e 83 bb 2e 18 b8 3b 41 67 a3 3c ff f1 fa 3b
       -0.004009117 0.005618117 0.019946696 0.0076582427
000110 7b 57 96 3c cc 4d fc 3b 73 76 80 3b 2b e9 b0 3b
       0.01835226 0.007699704 0.0039203702 0.0053988895
000120 fd de 3c bc 41 d3 a9 3c 3f 05 22 3c 58 6b ac 3c
       -0.011527774 0.020730617 0.009888946 0.02104728
000130 32 8f b3 3b 5c 5a 87 ba 01 7c 79 bc 70 81 51 bb
       0.0054797167 -0.0010326612 -0.015227319 -0.003196802
000140 69 c3 ab 3a 59 64 8c 3c b1 08 1c 3b 86 3d 9c 3c
       0.0013104501 0.017137693 0.0023808891 0.019072305
000150 7a c1 97 3a d2 cf 94 3c 24 61 4e 3a e1 d0 8f bc
       0.0011578046 0.018165503 0.00078727514 -0.017555656
000160 27 86 31 3b 14 21 8f bc a7 0e b8 3b 62 28 ad 3a
       0.0027088018 -0.017471828 0.005616981 0.0013210888
000170 52 7c 90 bb d1 36 a1 3c 90 11 74 bc 30 0c 75 bc
       -0.0044093514 0.019679459 -0.014896765 -0.014956519
000180 b8 5a 36 3a e7 6a 28 3c 41 03 0e bc c3 52 91 3c
       0.0006956267 0.010279394 -0.008667768 0.01773966
000190 17 36 08 3c df 80 9f 3c 5a 26 a1 3c da 8d 93 3c
       0.008313677 0.01947063 0.019671608 0.018011976
0001a0 77 d2 68 bb 38 b5 78 3b 99 11 25 3c 7f 9b 8e 3c
       -0.0035525837 0.0037949812 0.010074996 0.01740813
0001b0 00 0d 8f 3c 2f 0d 94 3c 90 ee a8 3c 04 af 95 3c
       0.017462254 0.018072693 0.020621568 0.01827193
0001c0 08 51 23 3b 14 49 4a bc 5f 90 ad 3c c7 09 8b 3c
       0.0024920125 -0.012346525 0.021187006 0.016972436
0001d0 0b a5 76 bc ef 8d ab 3c b4 6a 0a bc a4 cb ab 3a
       -0.015053998 0.020941703 -0.008448292 0.0013106954
0001e0 00 11 74 3a 13 72 87 bc 6e 11 6e bc c8 9e 64 bc
       0.00093103945 -0.016533887 -0.014530523 -0.013953872
0001f0 f7 58 12 3c 2f cd 8b 3c b4 02 6d 3c b4 92 a7 3b
       0.008932344 0.017065613 0.0144659765 0.005113924
000200 74 40 a5 3b ae 77 42 bc 3d 70 7f 3c a9 28 b0 3b
       0.005043084 -0.011869354 0.015590725 0.005375941
000210 c1 f6 b0 bb 80 e2 1a b9 3f 9f 6c bc 05 29 aa 3c
       -0.005400509 -0.00014770962 -0.014442264 0.020771513
000220 28 cb 6c bc 4e c7 67 3c 60 dc 88 3b 19 a2 7e 3c
       -0.014452733 0.014146639 0.0041766614 0.015541577
000230 82 eb 95 bc cd a3 77 bc 92 e6 67 3b d4 73 61 3c
       -0.018300775 -0.015114737 0.0035385233 0.013760526
000240 44 82 a6 3c 82 16 93 3c 90 a0 af 39 1c e4 75 3b
       0.020325787 0.017955068 0.0003349823 0.0037519997
000250 3e e1 91 3c f0 89 e8 3a 32 d6 ae 3c b2 96 dc 3b
       0.0178076 0.0017741304 0.02134237 0.0067318315
000260 8e 8d 5c bc 61 b6 21 3c ac 03 2f bc a4 6e 6f bc
       -0.013461484 0.009870143 -0.010682028 -0.014613781
000270 b8 cb 6c bc 76 63 8b 3a 73 e4 2e 3b 80 8b 75 bc
       -0.014452867 0.00106345 0.002668646 -0.014986873
000280 40 c9 94 3c 9a cb 2a 3c 8b eb aa 3c 5d a8 ad 3c
       0.01816237 0.010424519 0.020864269 0.021198446
000290 4e c2 25 bb e8 e5 b1 3b c7 c2 8a 3c 7b ed 42 3b
       -0.0025292817 0.0054290183 0.01693858 0.00297436
0002a0 a1 fd 5d 3b 39 d0 9f 3b 69 1b 8f bc 7b f3 09 bc
       0.0033873098 0.004877117 -0.017469125 -0.008419867
0002b0 c6 f4 5c 3b 78 73 68 bb cd 19 7e bc b7 07 7a bc
       0.0033715232 -0.0035469215 -0.015509081 -0.015260628
0002c0 e9 95 8d 3c 3f 12 a9 3c f7 b6 99 bb 8d 3f 93 3b
       0.017283397 0.020638583 -0.0046910006 0.00449366
0002d0 3c b8 94 3c 7b 31 f0 bb 53 e7 35 3b f0 40 db bb
       0.018154256 -0.0073301173 0.0027756288 -0.0066910908
0002e0 b6 c4 87 bb 2d 24 93 3c 6a 0c 18 3c ae af c7 ba
       -0.004143323 0.017961586 0.0092803035 -0.0015234852
0002f0 da cb 88 ba 32 9f ca ba 9e c7 8c 3c 48 e7 6e 3c
       -0.0010436729 -0.0015458821 0.017185029 0.014581509
000300 d6 f2 a0 bb 87 e0 c3 3b ca 4b 2a bb c0 4b 71 bc
       -0.004911761 0.0059776935 -0.0025985115 -0.014727533
000310 ce 38 40 bb 1c 07 14 3a 8c c5 e5 3a d2 b5 40 3c
       -0.0029330733 0.00056468113 0.0017530187 0.011762099
000320 7a d8 e1 3b 99 2d 3e 3c 62 7e 97 bb ec 89 66 3a
       0.006892261 0.011607551 -0.0046232203 0.00087943557
000330 4c b0 41 bc a8 07 2b bc 56 e5 65 bc 18 4f a4 3c
       -0.011821818 -0.010438837 -0.014031729 0.020057246
000340 48 d0 db 39 79 e0 41 3c ba 32 1f 3b 9c 0f 8a ba
       0.00041926117 0.011833304 0.002429171 -0.0010533216
000350 dd 8e 91 bc 13 de 41 bb 84 59 78 bc 0e da 00 3c
       -0.017768318 -0.002958183 -0.015158061 0.007864488
000360 3e af 8b bc d8 af 95 bc c0 2c 21 3c d8 d3 a6 3b
       -0.017051335 -0.018272325 0.009837329 0.0050911717
000370 b3 23 1b 3b 90 7c a7 3c 15 b5 78 bc 94 f8 93 bc
       0.0023672401 0.020445138 -0.015179892 -0.018062867
000380 7c 96 6c bb 4e 84 8e 3b 52 c4 1f 3c e9 d8 6d bb
       -0.0036100438 0.004349268 0.009751396 -0.0036292619
000390 7e 64 62 3c cb 71 8d bc 2b ce a8 3c 56 44 e3 bb
       0.0138179045 -0.017266175 0.020606121 -0.0069356365
0003a0 db 55 92 bc 69 1a b1 bb c5 54 04 3c 9e c7 89 3b
       -0.017863205 -0.0054047597 0.008076851 0.0042047044
0003b0 ee 72 99 3b f2 9d 72 3b 26 83 71 3b b4 fe be 3a
       0.00468289 0.0037020412 0.0036851852 0.0014571757
0003c0 51 c1 e9 ba b8 2a 6e bc ca 83 57 3c 42 48 ac 3c
       -0.0017834102 -0.014536552 0.01315398 0.021030549
0003d0 97 81 59 3c 82 61 b8 3a de 56 11 3c 04 78 f2 b9
       0.0132755255 0.0014067146 0.008870808 -0.00046247256
0003e0 d2 2e a2 ba 77 d3 d2 3a 76 e0 18 3c 6c e2 95 3c
       -0.0012373573 0.001608475 0.009330859 0.018296443
0003f0 fc 58 8b 3b 11 5f ab 3c 34 8f ad 3c 7d 69 8f bb
       0.004252551 0.020919355 0.021186449 -0.004376589
