GolfFeedback-poc/src/s3_NAM_model/output/BS/0/checkpoints/epoch=497-val_loss=0.7584.ckpt (torch, 48078 bytes, 24 tensors)

model.feature_nns.0.model.0.weights f4 [1, 244]
00000000: f609 e23c c780 1e3d 4987 173d f4c7 173d
00000010: bcbe 1e3d 1b3d fd3c 013f 1b3d e2c0 1e3d
00000020: 89b0 0f3d ee89 763c 843c 5a3c 999f f03c
00000030: 9134 143d 2749 193d a8a7 123d 8ebd 963c
00000040: ff0b 033d 193d 173d 80bc 123d 05ca 0d3d
00000050: 811f 1d3d 00bf b93c a12a 093d cc78 cf3c
00000060: 7afc 603c 366e f23c 6100 f03c 3ce1 183d
00000070: b9db b13c 30d0 0e3d d498 e03c 7b57 e63c
00000080: e6f3 a63c 86a3 143d 36da 0f3d 4910 043d
00000090: 389a 893c 3687 1e3d 578b 053d f843 a63c
000000a0: adaf 1a3d 87ab 5d3c ce44 133d 4e7c 183d
000000b0: 19f7 163d 640e 1d3d 6970 d33c f396 803c
000000c0: f44f 1c3d 6781 103d 5b6d 143d db10 143d
000000d0: 382f e23c f8d7 173d 036c 103d 12c6 113d
000000e0: ac56 e03c a08a cd3c 239c 023d 56c0 aa3c
000000f0: bb6e 043d b2d4 0a3d 80f0 d63c 0825 023d
00000100: 1b09 183d 884f aa3c bf95 113d 45c8 1b3d
00000110: 6b15 183d 6b30 cf3c cb0e 103d c8cf 0a3d
00000120: 22fc fc3c 8c82 133d c7b8 0c3d 7224 d83c
00000130: e319 1c3d 1590 ef3c f24f 143d 1fe9 143d
00000140: 1315 183d 8512 003d a7a9 eb3c e27a 163d
00000150: 31b6 1e3d 1238 cc3c 5969 003d 3aaa 1c3d
00000160: 7fe6 0e3d e7aa 153d 4411 023d 35c1 163d
00000170: b27f 0e3d 6289 c53c 8eb9 1d3d e1ac 963c
00000180: 33aa 193d ee20 d53c c858 1e3d 4d95 143d
00000190: a4fb 1e3d 8886 1d3d 71e9 0c3d cdba 1d3d
000001a0: fc67 d33c b491 d03c c1c3 ab3c b93c df3c
000001b0: 72a3 173d 555a 163d 11e1 963c 8d21 b73c
000001c0: e7c8 193d 0ed3 1e3d f17c 183d 4193 0e3d
000001d0: 6cff f73c c8ed 0c3d 5b1a 1a3d 54d0 b13c
000001e0: 63f1 f13c cc46 0c3d ce44 5e3c 8529 083d
000001f0: de05 0e3d a551 113d 71b8 e93c 5231 183d
00000200: fd7e 8c3c 240a 503c 099a 0e3d 146e 173d
00000210: 1952 093d b842 1b3d 720e 163d 3291 183d
00000220: 5e82 033d a428 1a3d 732c bf3c 8928 e23c
00000230: 967a eb3c c139 183d 9f3b 1d3d 3851 e13c
00000240: 4ea4 173d aae4 e33c 7888 103d e25c 1b3d
00000250: db85 103d fd49 073d 07e0 083d 9a30 073d
00000260: d4e2 7d3c 2546 0e3d 9283 093d df5c 1f3d
00000270: bc54 c43c efa9 1e3d 6c15 1e3d ad78 9d3c
00000280: 7f5f 023d 531b 143d 359c 143d 84eb f13c
00000290: 1e79 d23c 5a74 ec3c 67f9 f63c 1673 133d
000002a0: c906 073d b47d 143d e47e 033d 6701 103d
000002b0: 09f1 133d 769e b33c 2e3b f03c 5861 4f3c
000002c0: 541f f63c 5e4b c53c 93b0 263c 8364 1e3d
000002d0: 676e f13c 32df 083d c994 d83c 76ed 0a3d
000002e0: f4ef 8e3c c054 023d 12a3 033d 339f 0d3d
000002f0: 4813 0b3d e452 193d deea 083d 0970 ef3c
00000300: 22d5 1e3d ae7a 023d 8a9e 1d3d 0808 bf3c
00000310: 57e1 df3c ea67 b03c bc5b d73c e619 0a3d
00000320: d830 1b3d b3e3 c33c 1bc7 113d 0e83 1a3d
00000330: fc4a 1f3d 4104 123d f6b2 f23c 0830 a73c
00000340: a44f 0d3d 85f3 163d da5c 0c3d 5c0f 153d
00000350: 8ca5 1d3d 2033 053d 625f d13c f1eb 033d
00000360: 7ac1 fa3c ca9f 173d b268 153d 95d9 073d
00000370: ae9b 163d bda5 d13b 018e d03c 2ac3 0a3d
00000380: c046 0f3d a16c 1c3d c84c 0b3d 353a da3c
00000390: 39a7 013d 8852 d03c c262 ea3c 326d f93c
000003a0: 9532 183d ca6a 1f3d 2cce 0e3d fdda c53c
000003b0: a5ce 943c 4d90 f13c 5f31 bb3c ee41 cf3c
000003c0: eac9 a43c ce0d 0e3d f774 0c3d 4015 053d
0.02759264 0.03869703 0.036994252 0.037055925 0.038756117 0.030912926 0.037901882 0.038758166
0.035080466 0.015047533 0.013320092 0.029372977 0.036182944 0.03742328 0.03580442 0.018400934
0.031993862 0.0369235 0.0358243 0.03461649 0.038360123 0.022674084 0.03348792 0.025326155
0.01373207 0.029593568 0.029297056 0.037324175 0.021711217 0.03486651 0.027416624 0.028117886
0.020379972 0.03628876 0.03512021 0.032242093 0.01679717 0.038703166 0.032603588 0.020296082
0.037765194 0.013529665 0.03595429 0.03722792 0.036856744 0.038343802 0.025810437 0.015696978
0.038162187 0.035279658 0.036237102 0.036148887 0.027610406 0.0370712 0.035259258 0.035589285
0.027385078 0.025090516 0.031887185 0.020843666 0.032332163 0.03389425 0.026237726 0.031773597
0.03711806 0.020789877 0.0355432 0.03803279 0.0371298 0.025291642 0.035170358 0.033889562
0.030881945 0.03601317 0.034355905 0.026384566 0.038110625 0.029243508 0.036209054 0.036355134
0.037129473 0.03126766 0.02876742 0.036738284 0.03874797 0.02492908 0.031350467 0.03824828
0.034887787 0.03653994 0.031754747 0.03680535 0.03478975 0.02411336 0.038507037 0.018392982
0.03751583 0.026016679 0.038658887 0.036275197 0.038814202 0.038458377 0.034402315 0.038508225
0.02580642 0.025460102 0.020967366 0.027250635 0.037021108 0.03670724 0.018417867 0.022354865
0.03754511 0.038775496 0.03722853 0.0348084 0.030273162 0.034406453 0.03762279 0.021705784
0.029534047 0.034247205 0.013566209 0.03324272 0.034673564 0.035478253 0.028530331 0.03715641
0.017150396 0.01269773 0.034814868 0.036970213 0.03352556 0.037905425 0.03663487 0.037247844
0.03210675 0.037636414 0.023336625 0.02760722 0.028744977 0.037164453 0.038386937 0.027504548
0.037021928 0.027818996 0.035286397 0.037930377 0.035283905 0.033029545 0.033416774 0.033005334
0.015495975 0.034734864 0.03357274 0.03890693 0.023966186 0.03873628 0.03859465 0.019222582
0.031829353 0.03615887 0.036281783 0.029531248 0.025692519 0.028864074 0.030148221 0.035998426
0.032965455 0.036252692 0.032103434 0.035157587 0.03611854 0.021926146 0.029325094 0.012657486
0.030044235 0.02408379 0.0101739345 0.038670074 0.02947159 0.03341598 0.026438134 0.033917867
0.017448403 0.031819105 0.032137938 0.034575652 0.033953935 0.037432566 0.03342711 0.029228227
0.038777478 0.031855278 0.038481273 0.02331926 0.02732913 0.021533925 0.02628886 0.033716105
0.037888378 0.023912286 0.035590272 0.03772264 0.03888987 0.035648588 0.02962635 0.020408645
0.03449978 0.036853332 0.034268238 0.0363916 0.038487956 0.03251946 0.025558177 0.032207433
0.030609835 0.03701762 0.0364768 0.033166487 0.03676956 0.0063979314 0.025458338 0.03387753
0.03497958 0.038189534 0.03400877 0.026639083 0.031653617 0.025429979 0.028611545 0.030447576
0.037157614 0.0389202 0.03486459 0.024152273 0.018164942 0.029487753 0.02285069 0.025299992
0.020115811 0.034681134 0.034291234 0.03249097

model.feature_nns.0.model.1.weight f4 [1, 244]
00000000: 48ad c5b7 c592 6739 a465 f939 f117 5a3a
00000010: d21b 473a dafc ceb9 c3a1 7bb9 c8de efb8
00000020: 16fb 9a3a 047b 7d3a 15bf 9d39 2f07 8f3a
00000030: 7ae9 6739 4467 fe39 ee2f 34ba e409 ad38
00000040: 01a3 dd38 811e 783a 5132 d239 40a2 d439
00000050: 7208 3b3a 56b4 153a caf7 00b9 07d3 8139
00000060: 5ab4 4d3a b5db c839 e3a9 8639 3086 3e39
00000070: beb5 c639 7cbc 943a 9203 603a d082 0d3a
00000080: 6299 60ba 074d a53a 732b 9b39 06a6 013a
00000090: 93b6 2db9 71f4 793a 6281 5e39 955f 4d3a
000000a0: 0dac 273a 673e b2b9 9744 8339 d6f2 1439
000000b0: def6 1f3a a957 083a 9c6d 0738 8034 1e3a
000000c0: 5cad dc39 4e69 bb39 f0c3 f439 43eb 8a39
000000d0: 5664 8bb6 f716 813a 3fa0 1439 8536 5a3a
000000e0: ba92 693a ae1e 8b3a ce39 8c3a 83a8 b9b9
000000f0: 1272 ba39 653b 7838 6a68 9439 8488 3f3a
00000100: e560 963a 8400 ab3a ffb6 97b9 4d25 003a
00000110: 57b8 dc39 4eab c23a 33af 8b3a e7a5 c5b9
00000120: 5c3b 3eb9 bb14 993a 94c4 633a 8712 d639
00000130: 876b 3d3a 85c6 6e3a eb15 3439 494b ae38
00000140: 683c 923a aade 2f3a c5c8 423a c443 f639
00000150: c619 803a 2ab7 0439 7e67 db38 34f6 263a
00000160: f420 21b8 2815 ccb9 57b3 0dba e46e 543a
00000170: 7596 4d3a 3944 32b8 3cc5 f938 bb4d bb3a
00000180: 6eda 003a 462e ab39 c7d7 d339 1cff 7e3a
00000190: 0b89 b13a 446e a339 c556 833a 94ae 943a
000001a0: 97ef 8ab8 aba2 973a a60f 5c3a 2d36 53b7
000001b0: 6bc7 b73a 98e7 2d39 7ea6 bab9 d994 973a
000001c0: e067 923a a00f 8839 251c e23a 7baf 1939
000001d0: 409a 1239 703a d739 8263 a33a cd86 dcb8
000001e0: 0260 833a 19f8 3139 6a5a e5b9 89c2 0f38
000001f0: 7fff a43a 394c 183a 1e39 5039 1953 4a3a
00000200: 3ce1 ec39 5b64 053a e0c5 a639 9fee 2d39
00000210: 0c6b a539 f828 b93a 8edf b039 fe95 4c3a
00000220: 4152 cc3a 8056 f8b9 fce0 0939 aaaf 4c39
00000230: d872 7439 ab75 a3b7 0722 14b9 7840 573a
00000240: cdd0 7a39 f79e 9c39 82d5 703a 04f6 e439
00000250: 637f 753a 89ea a238 1e19 333a 1b63 2f3a
00000260: 9a85 b239 d257 9b39 567f 963a 359b fe38
00000270: 0f3a 2b3a a84b 1a3a 71a0 ac39 b3f1 d039
00000280: a307 963a 3c18 2c3a 3077 73b5 ab80 23b9
00000290: d7e4 f5b8 5a0e 143a 876d b33a 8229 5f39
000002a0: 6f3a c63a ba9b 6b3a e3e1 4d38 7c38 623a
000002b0: 895e 4539 a600 d2b8 c2f8 d839 3b9f 8e3a
000002c0: 4ba7 57ba ac39 6139 2387 fd38 ddbf 2f3a
000002d0: 5a2a f639 ef3d 5138 6927 ac3a 086c 743a
000002e0: cc4c 0b3a 1b68 423a f461 803a 622c 21b9
000002f0: 0444 083a f106 683a 6d42 c139 571e fab9
00000300: 20f4 1239 72f7 913a d714 67b9 d616 573a
00000310: b3be 123a 52a8 753a 1b06 3539 3741 83b9
00000320: 2ac9 cd38 0d75 1f3a 3310 6a3a d37d 9239
00000330: 9e24 913a de24 35b8 6aa8 903a d82f 3e3a
00000340: 6af8 953a 6405 e939 7740 763a 3158 153a
00000350: f628 213a bd80 5cb8 f888 2d3a ce8a b83a
00000360: cdb9 5839 a4fc 283a 1a11 0aba fa24 6b3a
00000370: 87ae 7039 cf9b 163a cc1e a539 183f 3b3a
00000380: bc41 9d39 104e d439 238a 1c3a 0a60 0e3a
00000390: 3818 853a c7f1 0dba 1b03 5f3a ba2c a23a
000003a0: 84cb 133a be6a 953a 167a b5b9 f5f3 793a
000003b0: 239c 80b8 3158 4f3a c5f3 4039 75d2 eb39
000003c0: 0880 b23a cf75 2539 aa78 073a 9aa9 8c3a
-2.356492e-05 0.00022084553 0.0004756871 0.00083196076 0.0007595393 -0.0003947977 -0.00023997486 -0.00011437904
0.0011824097 0.0009669515 0.0003008774 0.0010912175 0.00022116854 0.00048523594 -0.0006873597 8.251125e-05
0.00010568463 0.00094649947 0.0004009181 0.00040556677 0.00071347423 0.0005710771 -0.0001229934 0.00024762025
0.0007847004 0.00038310667 0.00025685047 0.00018169801 0.0003790091 0.0011347677 0.0008545454 0.0005398216
-0.00085677777 0.0012611457 0.00029596276 0.0004945699 -0.0001656658 0.0009535021 0.00021219769 0.0007834372
0.0006396182 -0.000339973 0.0002503737 0.00014204843 0.0006102155 0.00052010507 3.228859e-05 0.0006035045
0.00042090833 0.00035745878 0.0004668529 0.00026496695 -4.1542035e-06 0.0009848763 0.00014174076 0.0008324164
0.00089101086 0.0010614002 0.001069838 -0.000354115 0.00035561674 5.9183123e-05 0.00028306554 0.0007306414
0.0011472969 0.0013046418 -0.00028937307 0.0004888371 0.00042099014 0.0014852078 0.0010657072 -0.00037698375
-0.00018141925 0.0011679152 0.0008688655 0.00040831065 0.00072258007 0.0009108561 0.00017174303 8.3109895e-05
0.0011156918 0.00067089 0.00074304297 0.00046971266 0.0009773306 0.00012656735 0.00010462011 0.00063690846
-3.841608e-05 -0.00038925675 -0.0005405447 0.0008103682 0.0007842549 -4.2502044e-05 0.00011909983 0.0014290133
0.0004915361 0.00032650138 0.00040405823 0.00097273453 0.001354487 0.00031171937 0.0010020366 0.0011343532
-6.62498e-05 0.0011568865 0.0008394666 -1.2589194e-05 0.0014021223 0.00016584841 -0.0003560073 0.0011564746
0.0011169873 0.00025951583 0.0017250819 0.00014656589 0.00013981108 0.00041051535 0.0012465569 -0.00010515526
0.0010023119 0.00016972459 -0.00043745647 3.427503e-05 0.0012588351 0.0005809698 0.00019857704 0.0007718071
0.0004518124 0.00050885015 0.00031809416 0.00016587459 0.0003155101 0.001412659 0.00033735897 0.0007804333
0.0015588478 -0.00047366694 0.00013149151 0.00019520396 0.00023312436 -1.9485908e-05 -0.00014127056 0.0008211206
0.00023919642 0.00029873077 0.00091870886 0.00043670845 0.00093649904 7.7684475e-05 0.0006832051 0.0006690488
0.00034050347 0.00029629335 0.0011482041 0.000121405734 0.0006531784 0.00058859074 0.00032925935 0.00039852932
0.0011446368 0.00065648905 -9.0697995e-07 -0.00015592824 -0.00011725135 0.00056478905 0.0013689258 0.000212824
0.0015123616 0.00089877436 4.9086182e-05 0.00086296326 0.00018822601 -0.00010013701 0.0004138407 0.0010881195
-0.0008226528 0.00021479157 0.00012089151 0.000670431 0.0004695233 4.9887163e-05 0.0013134304 0.0009323959
0.0005313873 0.00074160256 0.0009794817 -0.0001537069 0.00051981234 0.0008851132 0.0003686132 -0.0004770632
0.00014014589 0.0011136367 -0.0002203764 0.0008205002 0.00055978744 0.000937109 0.0001726378 -0.00025034856
9.8126315e-05 0.00060828106 0.00089288055 0.00027941036 0.0011073535 -4.3188098e-05 0.001103652 0.0007255054
0.0011441831 0.0004444524 0.0009393761 0.00056970405 0.0006147766 -5.2571984e-05 0.0006619836 0.0014079453
0.00020668581 0.0006446338 -0.00052668306 0.00089700485 0.000229532 0.0005745263 0.00031494198 0.00071428856
0.0002999435 0.00040493952 0.0005971512 0.0005431181 0.0010154312 -0.0005414751 0.00085072377 0.0012372949
0.0005637931 0.001139961 -0.0003461397 0.00095349486 -6.132598e-05 0.0007909565 0.00018401358 0.00044979496
0.0013618479 0.00015779513 0.00051678217 0.0010731698

model.feature_nns.1.model.0.weights f4 [1, 112]
00000000: 957a 0b3d 692c 1d3d 9757 ff3c 42e7 113d
00000010: af7c 0d3d 8a35 1a3d aaeb df3c a695 123d
00000020: 8d1d 183d 0c35 fd3c 91b2 183d 2d59 073d
00000030: ef69 1b3d 7700 f53c cf9e 183d 8b7e 1e3d
00000040: cace 1b3d 9290 173d 370f 1e3d 7f11 093d
00000050: 43f5 1d3d 1709 1d3d cdbd fc3c 1701 193d
00000060: 0c35 fd3c 2f03 c53c e175 973c f3e8 a33c
00000070: a4ed 0f3d a068 1c3d d589 0d3d 18d0 183d
00000080: cfa2 b53c 8e4c 093d d0a4 173d d69d ee3c
00000090: 09bb 143d e33e e93c fce0 1b3d d798 d53c
000000a0: 52bd 153d 4a21 fe3c 3cd3 133d 9fe5 1c3d
000000b0: 7601 fb3c 8306 633c 8acc 053d 597e 443c
000000c0: 7b4f 183d 7c8d 0e3d fa7b 083d 820b 003d
000000d0: 68e6 023d 5705 1c3d f46d 013d 22d6 193d
000000e0: 4035 b23c 38a5 843c 502e d43c 6148 1a3d
000000f0: 7eab fd3c 12e1 f23c 99c0 0e3d c846 1d3d
00000100: fe55 e13c a660 ef3c f88c 103d 0112 163d
00000110: 402d 0d3d c36f 9b3c e6b3 b33c 94fb 063d
00000120: 9c7e 123d 402d 0d3d f304 ae3c 8767 123d
00000130: 401d 063d accf 113d f4f2 d03c 35c1 ef3c
00000140: 381d 043d 7f11 093d 5265 113d a573 e93c
00000150: a4ed 0f3d d00b 173d 8c99 0a3d 1029 053d
00000160: 7ebc 1b3d ef69 1b3d 6d0e 1c3d df7a ec3c
00000170: feb8 173d 3b71 113d 222c 143d b11d 113d
00000180: 7824 013d 6ad2 0a3d 4ac6 183d 1673 c03c
00000190: a21c 7f3c 6c91 c83c 642d 063d 0f28 f23c
000001a0: ba21 123d 6a07 163d 577d 153d 6e33 0e3d
000001b0: 8c99 0a3d 7428 e03c 2555 0d3d 3232 153d
0.03405245 0.03837243 0.031169696 0.035620935 0.034542736 0.037648715 0.027334053 0.035787247
0.037137557 0.030909084 0.03727967 0.03304403 0.037942823 0.029907448 0.037260827 0.0386949
0.038039006 0.037003107 0.03858873 0.03346395 0.038563978 0.038338747 0.030852223 0.037354555
0.030909084 0.02404937 0.018488826 0.02000854 0.03513874 0.038185716 0.034555275 0.03730783
0.02217236 0.033520274 0.03702241 0.029127996 0.036311183 0.02847237 0.03805636 0.026073856
0.036557503 0.031021733 0.03609012 0.03830492 0.030640345 0.013856533 0.032665767 0.011993014
0.037185173 0.0348029 0.03332136 0.031260975 0.031958014 0.03809103 0.031599 0.03755773
0.021753907 0.016192064 0.02590099 0.037666682 0.030965563 0.029648338 0.034851644 0.03839758
0.027506825 0.02922089 0.03529069 0.036638264 0.034466982 0.01897419 0.021936368 0.032954767
0.035765275 0.034466982 0.021242594 0.035743263 0.03274274 0.035598442 0.025506474 0.029266933
0.032254428 0.03346395 0.035497017 0.028497526 0.03513874 0.0368765 0.03383784 0.032509863
0.038021557 0.037942823 0.038099695 0.028867183 0.037041657 0.035508376 0.0361749 0.035428707
0.03152892 0.033892073 0.03729848 0.023492377 0.015570791 0.024483405 0.03275813 0.029560117
0.035676695 0.036628164 0.036496487 0.034717016 0.03383784 0.02736304 0.03450503 0.036424823

model.feature_nns.1.model.1.weight f4 [1, 112]
00000000: aac4 04ba ba6d 1fba 82ad 15ba 206e 7dba
00000010: f7ab 30ba 030c aaba d31c 08b8 3b1f c6b9
00000020: d62a 9dba f7bc 7dba cea3 a6b9 9896 fcb9
00000030: 8855 12ba 4eba 46b9 22ea 99ba e17e 31b9
00000040: a78d f2b9 f795 49ba b038 14ba 8b0b 38ba
00000050: b0d3 54b6 01c1 b8ba 1ed7 4dba 700b bcb9
00000060: 4035 88b9 28a8 97ba 640e b3ba 7341 6fb9
00000070: 660f 5c37 5fba 16ba e781 1eba 5b05 dab9
00000080: 1494 98b8 aa03 89b8 412e 1fba 6530 efb9
00000090: 54d3 4fba 7642 c4b9 e8e8 1bba e4fa 08ba
000000a0: f660 22ba 290e 3bba 12ed a9ba a855 56b9
000000b0: 7aae ecb9 31e8 50b9 c50f 26b9 7cb7 e0b9
000000c0: c238 2eba f641 65b9 14c0 0dba 4a65 7fb9
000000d0: 8ad2 37ba bce3 84ba 6a7e 7cba 4095 41b8
000000e0: ac63 32ba b780 8eba abd3 bdba 9d1b 16ba
000000f0: fef6 fcb9 f80b 0e38 2d44 2fba 65b7 35ba
00000100: 1e8a 05ba f91f 9dba ee70 69ba c619 67ba
00000110: 0ec5 fab9 d0d5 87ba 4840 7bba f307 7eba
00000120: 526d 1eba 48e8 1dba 04db 9eba 372e ceb9
00000130: a2fc 39ba 9715 5aba d65c 40ba bfbe c7b8
00000140: fa4b 36ba 6c78 67ba c800 19ba cc82 65ba
00000150: 467e f6b9 96ee 87ba 9077 5eba 817a acb9
00000160: 13f4 4cba 6052 18ba d5d1 9fba da7c 54ba
00000170: edff 7bba 004a d0b9 49e5 81ba c44b 14b9
00000180: 3d15 24ba 0864 60b8 9197 76ba a0b1 f6b9
00000190: 17e1 98ba 4cc5 63b9 f4aa 3aba c8a8 57ba
000001a0: 406d 52ba fb73 23ba 2ac6 b9ba 6695 5dba
000001b0: 46e9 5cba 440b 86b9 a2fa 82ba 24fb 56ba
-0.00050647056 -0.0006081719 -0.00057097536 -0.0009667594 -0.0006739492 -0.001297355 -3.245177e-05 -0.0003778877
-0.0011990916 -0.0009679342 -0.0003178403 -0.00048177387 -0.0005582203 -0.00018952155 -0.0011742751 -0.00016927301
-0.00046263376 -0.0007689888 -0.0005654199 -0.0007020763 -3.171368e-06 -0.0014095606 -0.00078521844 -0.00035866676
-0.00025979616 -0.00115705 -0.0013660905 -0.00022817198 1.3116607e-05 -0.00057498174 -0.00060465786 -0.0004158419
-7.2755065e-05 -6.5333516e-05 -0.0006072261 -0.0004562169 -0.00079279137 -0.0003743355 -0.00059474865 -0.0005225374
-0.0006194258 -0.0007135594 -0.0012964329 -0.0002044054 -0.00045143423 -0.00019922924 -0.00015836868 -0.00042861316
-0.0006646031 -0.00021863714 -0.0005407345 -0.00024356428 -0.0007012269 -0.0010138671 -0.0009631874 -4.6153786e-05
-0.00068050134 -0.00108721 -0.0014482638 -0.00057261606 -0.0004824921 3.3866585e-05 -0.0006685879 -0.000693193
-0.00050941284 -0.0011987678 -0.00089050725 -0.0008815791 -0.00047830533 -0.0010363404 -0.0009584469 -0.00096905156
-0.00060435117 -0.00060236873 -0.0012119715 -0.00039325815 -0.0007094835 -0.0008319257 -0.00073380524 -9.524589e-05
-0.00069540704 -0.0008829895 -0.0005836603 -0.0008755147 -0.00047014857 -0.0010370787 -0.0008486444 -0.0003289767
-0.00078183523 -0.00058106147 -0.0012193272 -0.00081057625 -0.0009613026 -0.00039727986 -0.0009910251 -0.00014142605
-0.0006259268 -5.3498923e-05 -0.00094067404 -0.00047053117 -0.0011663762 -0.00021721906 -0.0007120811 -0.00082267495
-0.0008027144 -0.0006235239 -0.0014173437 -0.0008452743 -0.00084270944 -0.00025566865 -0.0009992907 -0.0008200875

model.feature_nns.2.model.0.weights f4 [1, 274]
00000000: 2cc4 0a3d 88ee 1c3d 11a8 153d 8bb1 a73c
00000010: 41be 0d3d 7c35 0a3d 2fbc 0f3d 407c 173d
00000020: 82ed 183d 22cd e13c 9913 183d a344 123d
00000030: fa7b 083d fac7 153d c158 193d d038 cd3c
00000040: 22cd e13c 8931 163d 995f 1c3d 97f9 f13c
00000050: 3faa d93c 41cd ab3c 660a fa3c 2a7d 063d
00000060: 3f65 e03c aa6a 023d 65a2 003d 7ac2 0c3d
00000070: b99a 173d 45e9 193d 7fe9 133d 90a0 af3c
00000080: 5558 143d d634 0b3d 5e7c 1b3d 3e6d 063d
00000090: d589 0d3d 3b31 b43c 9cff ee3c 3479 de3c
000000a0: 3cdf d83c 15a4 0d3d 5648 fe3c 74b9 1a3d
000000b0: 39b1 0d3d 6e8f ae3c 5130 083d 099b ca3c
000000c0: 89e9 c83c 6144 003d 5293 043d 64cc 063d
000000d0: f119 c63c 099b ca3c 7d32 0f3d 3f65 e03c
000000e0: 704d e43c 4845 ca3c 36dd 063c 7818 053d
000000f0: 1a3f 173d 0191 ef3c cb58 023d 12e1 f23c
00000100: dcec 053d 4beb 943c a21c 7f3c 79a5 d03c
00000110: 401d 063d 5ce0 d53c 2fbc 0f3d 65a2 003d
00000120: 33f3 1b3d 83a6 133d db96 0f3d 62e4 f63c
00000130: 958a a03c 4534 ba3c 4d32 9c3c 4677 183d
00000140: a660 ef3c 61f3 0e3d a8c5 1b3d 33f3 1b3d
00000150: b11d 113d a509 183d 19e6 a83c e8d2 fd3c
00000160: fbb5 b23c 9913 183d 9582 043d 8f85 1b3d
00000170: f2f2 113d 546e 143d 6952 243c 369a 143d
00000180: 577d 153d 8ad8 323c 8d46 c43c f652 fb3c
00000190: 4d5d 063d cc51 1a3d 4bcd ce3c 0f0a 3f3c
000001a0: 120f f33c e1e6 f73c b62b c73c 3f57 003d
000001b0: b413 133d 685b 1a3d 22cd e13c e89f 023d
000001c0: e4da e33c 099b ca3c 42db 1d3d a1e5 f83c
000001d0: 412b 823c 3f42 143d 65a2 003d 91af eb3c
000001e0: 9933 e83c 325d ac3c d798 d53c f768 4e3c
000001f0: 183d 153d 4849 173d 031d cf3c a9e1 103d
00000200: 370f 1e3d 5cb6 e63c 080b 943c 5454 8a3c
00000210: 0c35 fd3c cbaf 1d3d e37c 003d fe16 1f3d
00000220: 0dea 1b3d 8767 123d 3d4d 0e3d 90bc 063d
00000230: a829 113d 9ab3 b13c a53b ab3c aaea 0c3d
00000240: 9cc5 f33c cd57 d03c 3f57 003d d0a4 173d
00000250: 1e89 193d 5558 143d cf26 0b3d 704d e43c
00000260: 11cb 1e3d eacd 163d 721e 003d 032f 093d
00000270: d068 073d f246 023d 7fb8 1d3d d00b 173d
00000280: 085a 1f3d 3c80 013d cd0a 0b3d 8767 123d
00000290: 0c87 d73c 4a4b 1e3d a0fd e73c 90cc fb3c
000002a0: 94b1 023d f246 023d b15b 013d 6ad8 fa3c
000002b0: ebae 173d 92a0 113d 2481 183d 3a50 123d
000002c0: 11df b83c 49a4 ff3c 3d4d 0e3d 9077 d43c
000002d0: 0cbb cf3c 715c 1e3d 32e8 1a3d 54f1 ef3c
000002e0: 416c 193d 0c87 d73c 16a7 0e3d 5370 163d
000002f0: 54f2 153d 0f50 043d c260 1b3d 6b86 e43c
00000300: c6af 733c a9a0 1e3d 7c22 1a3d 6858 1d3d
00000310: 435d 153d 0a7d 113d 644c 133d aa63 f93c
00000320: 575c bc3c 6b2c 033d ba4c a83c 10de f53c
00000330: 79c9 103d ba5c fd3c e4da e33c ad11 f83c
00000340: 1666 f73c 5e7c 1b3d 7041 d73c 3d0a 0a3d
00000350: b8fb 093d 5648 fe3c 84ff 0d3d f040 1f3d
00000360: 9e8c d13c 9e8c d13c 9572 8d3c 4ed0 093d
00000370: 1a27 b03c 436e 1a3d 3cd3 133d bca0 e53c
00000380: 6a07 163d 3b31 b43c 183d 153d 8620 1c3d
00000390: 4dc6 c23c 7a9c 193d fdd0 c63c b6de 093d
000003a0: f728 1e3d 4fa4 ba3c b377 1a3d 2e8e 023d
000003b0: 9940 bf3c 1727 163d 4c4e 1b3d cbd0 143d
000003c0: 6858 1d3d a60f f93c a331 183d 2414 aa3c
000003d0: 3541 c93c aa18 0a3d 83a6 133d 1ec3 173d
000003e0: 68a4 163d bb11 d83c 195a 0e3d 1a52 0a3d
000003f0: 1c1a e13c 4845 ca3c b012 0d3d 3e37 143d
0.03387849 0.03831342 0.036537234 0.020470401 0.03460527 0.033742413 0.035091575 0.03698373
0.03733588 0.027563635 0.037128065 0.03570999 0.03332136 0.036567666 0.037438158 0.025051504
0.027563635 0.036668334 0.038177107 0.029537959 0.026570437 0.020971896 0.030522536 0.03283421
0.027392028 0.031840004 0.03140487 0.034365155 0.03701279 0.03757598 0.03611135 0.021438867
0.036217052 0.033985935 0.037960403 0.032819025 0.034555275 0.021996131 0.029174618 0.027157404
0.026473634 0.03458031 0.031040352 0.037774518 0.03459284 0.021308627 0.033249203 0.02473213
0.02452542 0.03131521 0.032367058 0.032909766 0.024182292 0.02473213 0.03496026 0.027392028
0.027868956 0.024691239 0.008231452 0.03249404 0.036925413 0.029243948 0.03182296 0.029648338
0.03269659 0.018178603 0.015570791 0.025469529 0.03274274 0.02610796 0.035091575 0.03140487
0.03807373 0.03604747 0.035055976 0.030138198 0.019597331 0.022730002 0.019066954 0.037223123
0.02922089 0.034900073 0.038030297 0.03807373 0.035428707 0.037118573 0.020617532 0.030984357
0.02181529 0.037128065 0.032351095 0.03796917 0.03563208 0.03623803 0.010029414 0.03627988
0.036496487 0.010915885 0.023959422 0.030679207 0.032803822 0.037675664 0.025244376 0.011660113
0.029670272 0.030261459 0.024312835 0.031333204 0.035907462 0.037684828 0.027563635 0.03189078
0.027814336 0.02473213 0.03853918 0.030382933 0.015889766 0.03619599 0.03140487 0.02877024
0.028344916 0.021040533 0.026073856 0.012598268 0.036435217 0.03693512 0.025282389 0.035371456
0.03858873 0.028163128 0.018071666 0.016885914 0.030909084 0.038497727 0.0313691 0.038840286
0.038065005 0.035743263 0.03474163 0.03289467 0.035440117 0.021692086 0.020902464 0.03440348
0.029757313 0.025432492 0.031333204 0.03702241 0.03748428 0.036217052 0.033972558 0.027868956
0.038767878 0.03681747 0.031279035 0.0334921 0.03305894 0.03180594 0.038506027 0.0368765
0.03890422 0.031616434 0.033945847 0.035743263 0.026309513 0.03864602 0.02831918 0.030737191
0.031907633 0.03180594 0.031581584 0.030620772 0.03703205 0.035553522 0.037232533 0.03572104
0.022567304 0.031206267 0.03474163 0.025935918 0.025357746 0.038662378 0.037819095 0.029289879
0.037456755 0.026309513 0.034827314 0.036728214 0.036608055 0.032302912 0.037934072 0.027896127
0.014873451 0.038727436 0.037630543 0.03841439 0.036465894 0.035519637 0.035961524 0.030443031
0.02299325 0.032024782 0.020544399 0.030013114 0.03534839 0.030928005 0.027814336 0.030281866
0.030200046 0.037960403 0.02627632 0.03370117 0.033687323 0.031040352 0.034667507 0.03888029
0.025579747 0.025579747 0.017266551 0.03364592 0.02150302 0.03770281 0.03609012 0.028030746
0.036628164 0.021996131 0.036435217 0.038116954 0.023776198 0.037502743 0.024269575 0.03365966
0.038613286 0.022783427 0.03771181 0.031873874 0.023346232 0.036658373 0.037916467 0.036331933
0.03841439 0.03040297 0.037156712 0.020761557 0.024567226 0.033714928 0.03604747 0.037051313
0.036777884 0.026375642 0.034753893 0.033769704 0.02747827 0.024691239 0.03444165 0.036185496

model.feature_nns.2.model.1.weight f4 [1, 274]
00000000: 000b 3fb9 32ad b8b9 bc2f 8cba a4ae 8db9
00000010: 094b 81b9 8e8b e8b9 25fe beb9 d9d7 d4b9
00000020: 67e7 24ba b1ff 9fb9 434f 6dba 9432 a8b9
00000030: de21 4cba eab5 c2b9 123b 01b8 3726 2638
00000040: e626 8eb9 ad1a cc37 4a42 a838 966d b3b8
00000050: 2b26 00ba 7144 f4b9 e3be 26ba 3f44 01ba
00000060: b978 1cba c0bb 0db9 20e7 0aba 7be8 26ba
00000070: f4b3 8fb9 fa30 68b9 9c08 eeb9 3d0a 03b9
00000080: 8e34 02ba d71e 72ba 4a17 28ba 4f43 e2b9
00000090: c47c cdb9 fa99 01ba b405 bcb9 cc91 2bb9
000000a0: 6031 c5b9 fbe5 aab9 bc68 f6b9 77bf a0b9
000000b0: a75a e6b9 1530 6dba 3efb b4b9 efef c2b9
000000c0: 4980 83ba b228 ecb9 2f5c d1b9 2114 3aba
000000d0: 887a 05ba f0a0 1bba ce27 3bb9 4b46 47ba
000000e0: e2d3 85ba 0205 72ba 6017 a6b9 1e1f 01ba
000000f0: 754e 07ba fcad b6b9 66c1 29ba 869e 49ba
00000100: 05a4 17ba cc51 dab9 d65f a8b9 a915 01ba
00000110: d53f b3b8 1599 0cba 84ea 7838 a27d 8cb9
00000120: b451 ffb9 a1ab 26ba c4a1 09ba e987 04ba
00000130: 77a8 e4b9 2065 ebb7 12e5 e9b8 a264 3aba
00000140: 7139 bbb9 2c3f 51ba a11a bab9 8010 f9b8
00000150: 0be4 bdb9 d186 0c39 a2f2 2eba ee16 13ba
00000160: 41cc 16ba f1a4 d2b9 fb6c 3bb9 75a8 1038
00000170: 2069 d1b8 3f63 d9b9 94d9 feb9 f8ec 8db9
00000180: d09a aab9 e6ef 4fb9 68a2 8cb4 9f3e 07ba
00000190: 108d f5b9 0527 82b9 95f7 84ba c762 1dba
000001a0: 6206 04ba 9aff 1dba c1eb 61b9 fb2d 55ba
000001b0: 9ebc 84ba 3c3b 5ab9 928f 4939 611c 07ba
000001c0: d2db d3b9 1d33 8bb9 d3d7 35ba 8556 efb9
000001d0: 21a5 2eb9 f06d 3838 fd02 aab6 8a9e 06b8
000001e0: f00c edb9 7595 7eba 196a 13ba 7ecb f9b8
000001f0: 9d09 7bb9 4de3 1fba 4248 0aba 1ebb 48ba
00000200: 8a73 b2b7 6c27 a5b9 27f5 16ba 7f98 90ba
00000210: 549e c1b8 d009 17b9 98b3 aeb9 f0ef 12ba
00000220: af1f 27b9 5c34 17ba d99c 8cb9 7b10 d3b9
00000230: 1162 3eba fcc6 60ba 1895 70ba aa61 38ba
00000240: a3fe 87b9 23a0 ffb9 f006 87ba 00fd 3e39
00000250: 33f2 d0b9 7669 8eb9 5054 c1b9 23e8 e2b9
00000260: 0879 03ba 65b7 e8b9 003e 95ba 439e 50b9
00000270: c382 1fba 0394 07ba f1a0 27ba 580c 57ba
00000280: d075 0cba e39c 2eba 93a7 bbb9 0b18 4aba
00000290: 5508 b3b9 b89b 48b9 4a82 7dba 1e75 60b9
000002a0: af8a c3b9 9e98 17b9 b49b f3b9 f77f f9b9
000002b0: 058a 6bb9 7b0d 29ba cec6 4a38 44c2 8138
000002c0: 2e23 19ba 8b95 fdb9 5030 53ba 4c84 4db8
000002d0: 69c2 beb9 4e7e 99b9 11f9 70ba 4e2e 2bba
000002e0: 7561 04ba 5b2a e1b9 cdc2 61ba ce9b 45ba
000002f0: 2094 80b9 70fd 70b9 0b68 e4b9 9525 0aba
00000300: fbdd 62ba c241 afb9 1d53 48ba 1c66 bd38
00000310: de80 fab9 ec2f 52b9 b572 deb9 ec0e 08ba
00000320: f39c c3b9 6d53 35ba 8d09 0fba 9de0 03b9
00000330: a206 5db9 30ae 03ba 9944 8038 a830 dab9
00000340: 8449 58b8 e08e 22b9 1be1 1dba 6469 26ba
00000350: d09f 63ba 0752 c2b9 95e7 17ba b055 6936
00000360: b287 4dba acc8 8fb9 2512 80b8 ba65 83ba
00000370: e3cf d9b9 2256 88b8 c3a2 23b9 53c7 95b9
00000380: 1e39 1e38 ccb6 43ba e175 d8b9 0d0a 0bb9
00000390: 49d6 c438 2966 c4b9 061f 6eb9 bc5c 9737
000003a0: 35e3 60ba 992a 0fba 956e afb9 f957 1cba
000003b0: 4592 5cba b181 c7b9 9178 11ba 1052 a8b9
000003c0: b799 28ba ae56 1d39 73b3 f0b9 1d3a 09ba
000003d0: d1f2 3aba 0416 c3b9 88c7 39ba 263f 07b8
000003e0: 0c8a beb9 fc98 26ba 6ab2 d0b9 ace6 28b9
000003f0: 15b8 45ba 0085 b8b9 2f70 f4b9 97c4 b4b7
-0.00018219277 -0.00035224255 -0.0010695378 -0.00027023733 -0.00024660703 -0.00044354465 -0.00036428976 -0.0004059661
-0.0006290585 -0.00030517348 -0.00090526434 -0.0003208114 -0.0007787029 -0.000371381 -3.081101e-05 3.9613074e-05
-0.00027113332 2.4331117e-05 8.0232116e-05 -8.555797e-05 -0.00048885 -0.000465903 -0.0006360842 -0.0004931129
-0.0005968917 -0.0001351675 -0.00052987225 -0.000636704 -0.0002740916 -0.0002214349 -0.00045401312 -0.00012496948
-0.00049669377 -0.0009236163 -0.0006412162 -0.00043156228 -0.00039193605 -0.0004943904 -0.00035862403 -0.00016362144
-0.00037611555 -0.00032596276 -0.0004699881 -0.0003066023 -0.0004393656 -0.00090479973 -0.00034519465 -0.00037181328
-0.0010032739 -0.00045043748 -0.0003993227 -0.00070983364 -0.0005091806 -0.00059367623 -0.00017848538 -0.0007601722
-0.0010210241 -0.00092323136 -0.00031679403 -0.00049255963 -0.00051615323 -0.00034843374 -0.0006475657 -0.00076911633
-0.00057846337 -0.00041641144 -0.0003211486 -0.0004924187 -8.547275e-05 -0.0005363387 5.9346217e-05 -0.00026796485
-0.00048698264 -0.0006357972 -0.000525024 -0.00050556526 -0.00043613065 -2.8061273e-05 -0.000111529735 -0.00071103324
-0.00035710217 -0.00079821306 -0.00035496525 -0.000118763186 -0.00036218794 0.00013401663 -0.00066737283 -0.0005611022
-0.0005752482 -0.00040177212 -0.00017874308 3.4489163e-05 -9.985478e-05 -0.0004146341 -0.00048608764 -0.0002707017
-0.0003254027 -0.00019830427 -2.6195198e-07 -0.00051591726 -0.0004683514 -0.00024824604 -0.0010144586 -0.00060037937
-0.00050363515 -0.00060271623 -0.00021545497 -0.0008132157 -0.0010127013 -0.00020812167 0.00019222338 -0.000515407
-0.00040408835 -0.00026550228 -0.00069367624 -0.00045650094 -0.00016655448 4.3971406e-05 -5.0667427e-06 -3.209574e-05
-0.00045213802 -0.0009711602 -0.0005623415 -0.000119111486 -0.00023940807 -0.0006099239 -0.00052750495 -0.0007657277
-2.1273056e-05 -0.00031500624 -0.00057585764 -0.0011031776 -9.232448e-05 -0.00014404138 -0.00033321674 -0.00056052115
-0.00015938164 -0.0005767995 -0.00026819741 -0.00040257335 -0.0007262538 -0.0008574573 -0.000917749 -0.0007033596
-0.00025938926 -0.000487567 -0.001030175 0.00018214062 -0.00039853304 -0.00027162925 -0.00036874646 -0.00043279034
-0.00050152885 -0.00044387128 -0.0011386275 -0.00019895383 -0.00060848537 -0.0005171897 -0.00063945266 -0.00082034385
-0.00053581316 -0.0006660951 -0.00035792272 -0.0007709271 -0.00034147748 -0.00019131496 -0.00096705987 -0.00021405934
-0.00037296626 -0.00014457337 -0.0004646458 -0.00047588322 -0.00022462763 -0.0006448847 4.8345704e-05 6.187384e-05
-0.0005841729 -0.0004836734 -0.00080562104 -4.899902e-05 -0.0003638447 -0.00029276538 -0.0009192387 -0.0006530032
-0.00050499226 -0.00042946902 -0.00086120964 -0.00075381703 -0.00024524424 -0.00022982596 -0.00043565067 -0.00052698824
-0.00086542935 -0.00033427594 -0.00076417794 9.031242e-05 -0.0004777973 -0.00020045013 -0.00042428603 -0.0005190212
-0.00037310235 -0.00069170335 -0.000545644 -0.00012576809 -0.00021078673 -0.00050232094 6.116293e-05 -0.00041616452
-5.156688e-05 -0.00015502749 -0.0006022618 -0.0006348102 -0.0008683177 -0.0003706368 -0.0005794701 3.4769582e-06
-0.00078403496 -0.00027424598 -6.106895e-05 -0.0010024824 -0.00041544353 -6.501029e-05 -0.00015605525 -0.00028568003
3.772333e-05 -0.00074658985 -0.00041286557 -0.00013259817 9.385922e-05 -0.00037460148 -0.00022709006 1.8043786e-05
-0.00085787784 -0.00054613646 -0.0003346099 -0.00059640367 -0.000841413 -0.00038052865 -0.0005549277 -0.00032104598
-0.00064315967 0.00015004977 -0.00045910067 -0.0005234795 -0.00071315194 -0.000372097 -0.00070869224 -3.224532e-05
-0.00036342477 -0.0006355194 -0.0003980578 -0.0001610766 -0.0007542384 -0.00035194308 -0.0004662289 -2.1549216e-05

model.feature_nns.3.model.0.weights f4 [1, 338]
00000000: 957a 0b3d a5ca ff3c 402d 0d3d e666 d93c
00000010: 2998 1e3d 6d06 d33c 6902 c23c 8829 1c3d
00000020: 26dd e93c 01f8 0c3d 6148 1a3d a331 183d
00000030: 5e7c 1b3d 2423 d93c 4edd 0c3d bd49 073d
00000040: e2fc db3c 8767 123d 0f28 f23c 4608 133d
00000050: d068 073d 4edd 0c3d 083b f73c 0e76 1e3d
00000060: 3479 de3c f8b1 0b3d cd21 9f3c 9940 bf3c
00000070: 8268 e53c 213c c13c 5b71 0f3d 3f3c f83c
00000080: cd21 9f3c 8d01 173d 3541 c93c 74b9 1a3d
00000090: 4670 d23c c534 173d 7b4f 183d 852a 073d
000000a0: bce3 183d 8ec5 043d fa38 123d fb5c fa3c
000000b0: 7fe9 133d 2e28 193d e36c ee3c 660a fa3c
000000c0: f768 4e3c bca0 e53c 564d 063d 0ab3 f23c
000000d0: acdb cd3c 7d33 bd3c 8057 1b3d 2df2 9c3c
000000e0: ad60 c53c 8259 f53c 800d 1b3d 94bb d23c
000000f0: 083b f73c b8f5 de3c e8d2 fd3c 6279 143d
00000100: d19b 053d 9cff ee3c 0dfd 053d 2481 183d
00000110: 6720 173d 9582 043d 4db9 193d 9077 d43c
00000120: 94bb d23c d4ec 163d a994 113d 9b33 fa3c
00000130: 5293 043d 24b3 093d 5494 b63c e9ad ea3c
00000140: 8cbd c53c b413 133d 6f37 103d 17c8 133d
00000150: c9fd 1d3d b23e 893c 9575 ed3c 10d9 ed3c
00000160: dec5 143d 2c20 f43c 43a3 0f3d 777b 1d3d
00000170: b14e 083d 1673 c03c 4c6e 133d 7b4f 183d
00000180: 436f fe3c 5454 8a3c fce0 1b3d 8e4c 093d
00000190: 9664 c23c bd6d fc3c 23a6 193d fcc8 013d
000001a0: efd7 c03c b413 133d a7b7 de3c 24b3 093d
000001b0: 873a 0d3d 9940 bf3c 7115 eb3c 24ef c93c
000001c0: e2de 1a3d d068 073d 5293 043d 0416 123d
000001d0: 4845 ca3c ce72 da3c 11df b83c 3479 de3c
000001e0: d8b4 043d 9a5f 1fbd cd21 9f3c 83d2 153d
000001f0: 56c0 d43c 0527 933c 7e3f 083d 5652 913c
00000200: 958a a03c de35 f63c 660a fa3c 2f03 c53c
00000210: 10d9 ed3c ebec 1e3d f728 1e3d 37b9 163d
00000220: 49a4 ff3c 5f06 103d bb72 153d 89e9 c83c
00000230: 577d 153d 5652 913c e36c ee3c bce3 183d
00000240: 704d e43c b8f5 de3c 003f 1a3d 863b 183d
00000250: cd6c 083d aa95 1d3d 080b 943c 4dd8 163d
00000260: 564d 063d 1701 193d 18d0 183d 1079 ad3c
00000270: 5e63 183d 22cf 123d b847 983c 2d59 073d
00000280: 0416 123d 32e8 1a3d 5091 e73c cd21 9f3c
00000290: 6b86 e43c e0ec 003d bad4 073d a573 e93c
000002a0: bad4 073d 3ccd 173d 2414 aa3c f466 0e3d
000002b0: cad3 1c3d fd9c 063d 977b fb3c 7bf7 1c3d
000002c0: 43a3 0f3d 5cb1 103d 1666 f73c 7892 013d
000002d0: 195a 0e3d e6b3 b33c 3c80 013d 45cd 0e3d
000002e0: 8ddf c73c 6b26 0e3d a2e5 fc3c 1ec2 1c3d
000002f0: 37b9 163d 4ac6 183d c3c7 003d b1fc 0a3d
00000300: 6d15 ec3c 777b 1d3d 5787 093d babc dd3c
00000310: c9fd 1d3d 5648 fe3c 5e7c 1b3d f4f2 d03c
00000320: fce0 1b3d 8dc7 e73c 11df b83c 028b 083d
00000330: 9fdf ec3c 50f5 1e3d 91af eb3c e8f7 023d
00000340: be47 153d b99a 173d 90cc fb3c 07d4 f43c
00000350: 519d 153d d9fc 153d 97a5 033d 02b6 073d
00000360: 80bd 103d 37be dc3c e4e1 ea3c bd49 073d
00000370: 575c bc3c ebec 1e3d f768 4e3c 83af fa3c
00000380: 3bfb 033d b838 c83c af7c 0d3d 7ef2 0d3d
00000390: 6902 c23c 5e63 183d ff93 cc3c 2cc4 0a3d
000003a0: db92 193d ee95 093d 82f1 123d d634 0b3d
000003b0: 9602 083d 4beb 943c 6ad2 0a3d 6ad2 0a3d
000003c0: 0ada 0e3d a344 123d 6902 c23c 4d5d 063d
000003d0: d06e 0a3d d664 0f3d 8d1d 183d cace 1b3d
000003e0: 2423 d93c 2e8e 023d 257b 053d f1f2 f33c
000003f0: 5091 e73c 05b0 143d 407c 173d 79ef bb3c
0.03405245 0.031224558 0.034466982 0.026538324 0.03871933 0.0257599 0.02368279 0.038125545
0.028547835 0.034416202 0.037666682 0.037156712 0.037960403 0.026506014 0.03439074 0.033029307
0.026853982 0.035743263 0.029560117 0.035896562 0.03305894 0.03439074 0.030179515 0.038686804
0.027157404 0.03410527 0.019425297 0.023346232 0.028003935 0.023588242 0.035020214 0.030302165
0.019425297 0.036866713 0.024567226 0.037774518 0.025688302 0.03691556 0.037185173 0.032999534
0.03732656 0.032414965 0.03569887 0.030561915 0.03611135 0.037391834 0.029104656 0.030522536
0.012598268 0.028030746 0.032788597 0.029626388 0.025129162 0.02309584 0.037925243 0.019158447
0.02409395 0.029949907 0.03785467 0.02572421 0.030179515 0.027216777 0.030984357 0.036248572
0.0326193 0.029174618 0.03271203 0.037232533 0.036896136 0.032351095 0.037530232 0.025935918
0.02572421 0.03684695 0.035542164 0.030542186 0.032367058 0.033618107 0.022287525 0.02864738
0.024138235 0.035907462 0.035209116 0.036079492 0.038572107 0.016753528 0.028986732 0.029034168
0.036321513 0.029800497 0.035067808 0.038447823 0.03327817 0.023492377 0.03599386 0.037185173
0.031058913 0.016885914 0.03805636 0.033520274 0.023729604 0.030814046 0.037511956 0.031685814
0.023540465 0.035907462 0.027187182 0.033618107 0.034479644 0.023346232 0.028696747 0.024650164
0.037810214 0.03305894 0.032367058 0.035665527 0.024691239 0.026666071 0.022567304 0.027157404
0.03239903 -0.038909532 0.019425297 0.036577713 0.02597062 0.017962942 0.033263676 0.017739456
0.019597331 0.030054983 0.030522536 0.02404937 0.029034168 0.03880016 0.038613286 0.03679773
0.031206267 0.035162326 0.03648637 0.02452542 0.036496487 0.017739456 0.029104656 0.03732656
0.027868956 0.027216777 0.037657738 0.03716614 0.033306886 0.03847281 0.018071666 0.036827374
0.032788597 0.037354555 0.03730783 0.021175891 0.03720414 0.03584207 0.018588886 0.03304403
0.035665527 0.037819095 0.028267533 0.019425297 0.027896127 0.0314759 0.033161856 0.028497526
0.033161856 0.03706096 0.020761557 0.034766153 0.038287915 0.03286456 0.03069858 0.038321953
0.035067808 0.035325393 0.030200046 0.031633824 0.034753893 0.021936368 0.031616434 0.03486373
0.02439859 0.034704607 0.030871216 0.038271062 0.03679773 0.03729848 0.031440508 0.03393239
0.02881881 0.038447823 0.033576336 0.02706753 0.038572107 0.031040352 0.037960403 0.025506474
0.03805636 0.028293395 0.022567304 0.033335693 0.028915225 0.038808167 0.02877024 0.031974703
0.03644537 0.03701279 0.030737191 0.029886259 0.03652698 0.036618087 0.03214034 0.03313256
0.03533697 0.02694617 0.028672166 0.033029307 0.02299325 0.03880016 0.012598268 0.030601269
0.032222014 0.024441108 0.034542736 0.034655087 0.02368279 0.03720414 0.024972914 0.03387849
0.037493568 0.03359025 0.03587485 0.033985935 0.03320559 0.018178603 0.033892073 0.033892073
0.034875907 0.03570999 0.02368279 0.032803822 0.033797085 0.035008274 0.037137557 0.038039006
0.026506014 0.031873874 0.032588143 0.02977893 0.028267533 0.036300678 0.03698373 0.022941338

model.feature_nns.3.model.1.weight f4 [1, 338]
00000000: 2a11 46b8 ff50 9138 3e6e 2ab8 ae6c 3938
00000010: da18 09b8 44bd acb8 fdd9 8138 e4d0 03b8
00000020: 6835 1ab8 408d 14b9 72cc ba37 7608 9ab8
00000030: a5b8 05b8 74e2 6238 93d1 a5b8 d396 dab8
00000040: 4a81 58b8 3a52 84b7 5823 38b9 0be1 0fb8
00000050: 1183 9438 55c4 0038 4799 10b6 534c 8bb8
00000060: 37a3 d6b8 5803 77b8 eed9 4ab7 96de a237
00000070: d0fc 6f35 6912 eeb8 5e43 0cb8 e294 8538
00000080: ec61 00b9 097b 17b9 1533 dab8 75a9 2db8
00000090: cdd4 0a37 b70c c1b8 04d9 4bb8 131c 1cb9
000000a0: c398 b8b7 e09c 51b8 b03c 88b8 5f84 55b9
000000b0: 09e3 85b8 2cce dbb8 039a 3cb7 2623 8338
000000c0: 0610 03b7 8c76 edb8 cba2 ddb8 eb5f 56b6
000000d0: 8016 1937 880a edb6 f0be cab7 7aec c0b7
000000e0: 5e1c 87b7 13be e5b6 e7f4 b1b8 f0c7 27b8
000000f0: 6d45 a2b7 6523 08b9 18ec 9e37 33b8 89b8
00000100: 5022 68b7 a153 9c37 2f1c 37b7 6402 adb6
00000110: 27de 0ab8 1021 1f38 ddf2 59b8 cd2e 29b9
00000120: 508a a1b7 fac4 b8b8 070f bfb8 d917 dcb8
00000130: a6d0 98b8 0f6b 5d38 9b89 2bb9 e60c 5f38
00000140: a8a5 5f38 9e98 2938 ff5d 9638 0214 21b9
00000150: df47 9eb8 4de0 90b7 f80b da35 bc5b 9ab8
00000160: 8e75 98b8 49b5 18b9 f673 18b8 a6a7 9738
00000170: 11cc cdb8 4c80 acb8 5163 89b8 6ae2 d7b8
00000180: ece2 0fb9 6fc7 cfb8 c44f 04b9 36d9 ed38
00000190: 3711 b0b8 1879 60b8 90ac 6138 2b32 47b9
000001a0: 9db7 2db8 cb39 a5b7 7943 f7b7 7aff 0fb8
000001b0: 5995 6737 0548 53b8 2b43 e938 28f7 d236
000001c0: e5cd e7b7 25c0 0fb9 8cbc 29b9 7501 3ab8
000001d0: 84aa c7b7 32e3 51b8 1bb3 15b9 1f6a a238
000001e0: c643 4ab6 ce0f 96b6 76a2 77b8 e2e5 aeb8
000001f0: b6e5 37b8 d57f e0b8 0bc5 1eb9 abbd 6738
00000200: 467c 5338 46f5 df37 4fcb 15b9 8ba2 7fb8
00000210: 558e 61b8 5586 10b9 5172 e0b8 7027 dcb8
00000220: 8c27 28b9 fa17 8db8 6590 aa37 25d2 e2b6
00000230: ff2a 2e37 5cbb 6eb8 1c97 74b8 9c75 cbb8
00000240: 902e 7cb8 6c39 d737 afae 47b8 04ad 2cb9
00000250: d046 90b8 fcee bcb6 b55c 57b8 086e 9a38
00000260: 9bdb 52b6 47f1 9338 1915 be36 7998 93b8
00000270: 51de 18b9 f391 ffb7 7ce4 3eb9 9d0f 92b8
00000280: e2d7 8536 e45d 9f38 88b7 0236 a0f5 5d34
00000290: 7426 eb37 c673 c4b8 8879 7138 d98f f7b8
000002a0: 5e66 9f37 2e52 ef36 8c39 92b8 cc79 c437
000002b0: d607 af37 0b96 0fb8 74d0 6a37 6a6a ccb8
000002c0: 73ab 1ab9 8cb4 c537 d086 2fb8 16d0 b837
000002d0: c9d8 a3b8 5198 1f38 61f3 38b8 b4b6 35b7
000002e0: 16a3 16b8 ca5e 26b8 309e 1c38 60d5 d137
000002f0: 4869 eab8 6c51 79b8 c0d0 0bb8 9aad 6937
00000300: aa3b d6b8 f83f 8fb8 116c 26b9 f459 ccb8
00000310: d1a4 93b7 d04d 34b8 cb0f 25b8 7ff6 15b9
00000320: 140a 1cb8 9a8c d837 8e52 6638 22bd 5bb7
00000330: fb64 6eb8 d0c3 f7b8 91e3 9e37 e892 8e37
00000340: f3eb 3038 fd8c 5836 3cf5 90b8 1cff e437
00000350: d7ea a938 15d1 bfb7 1808 8ab8 2195 c1b8
00000360: ae0c 00b9 4ee6 ffb7 420e 5a38 ed39 4b38
00000370: 9e5d b2b8 d5b0 3736 71dd 3438 72c2 3737
00000380: 0b60 5038 6c6c 06b9 0036 b437 3536 32b6
00000390: 0b03 3a37 9517 5ab8 4dfc cbb8 1a1c 0e38
000003a0: 3f66 d7b7 0283 d8b7 96ef 07b8 4aa4 8cb8
000003b0: 609e 70b8 5a67 4838 ffbe 91b8 8051 7e38
000003c0: 5678 0a38 e3cb c1b8 056c ccb7 265d 63b8
000003d0: 532e 5d37 625e 0638 6632 37b9 4d5d 8f38
000003e0: 380c 4db6 8bc9 bcb8 f87f 09b9 b761 14b9
000003f0: 3c1c df36 de4a 0a38 e3d5 12b9 8b48 2fb9
-4.7222864e-05 6.9292255e-05 -4.063383e-05 4.4208653e-05 -3.268649e-05 -8.2368526e-05 6.191803e-05 -3.142738e-05
-3.67662e-05 -0.00014167 2.226813e-05 -7.344868e-05 -3.1881635e-05 5.40935e-05 -7.906849e-05 -0.00010423143
-5.1618823e-05 -1.5773916e-05 -0.00017560774 -3.4303444e-05 7.081603e-05 3.0700427e-05 -2.1546891e-06 -6.642253e-05
-0.00010234716 -5.8892503e-05 -1.2090879e-05 1.9415555e-05 8.940233e-07 -0.000113521535 -3.344134e-05 6.369666e-05
-0.0001224351 -0.00014446316 -0.00010404565 -4.1404233e-05 8.2749875e-06 -9.2053255e-05 -4.8601083e-05 -0.00014887778
-2.2005644e-05 -4.9975584e-05 -6.496289e-05 -0.00020362575 -6.384223e-05 -0.00010481136 -1.1241532e-05 6.253114e-05
-7.811939e-06 -0.00011323122 -0.00010568424 -3.1944317e-06 9.124749e-06 -7.0643764e-06 -2.4169189e-05 -2.2998302e-05
-1.6106464e-05 -6.8468594e-06 -8.485634e-05 -4.000211e-05 -1.9344234e-05 -0.00012983156 1.8945007e-05 -6.566979e-05
-1.3836267e-05 1.8635592e-05 -1.0914212e-05 -5.15608e-06 -3.310866e-05 3.7939346e-05 -5.1963016e-05 -0.0001613453
-1.9257102e-05 -8.8104935e-05 -9.110389e-05 -0.000104948595 -7.2867886e-05 5.2790212e-05 -0.00016359093 5.3179356e-05
5.3321623e-05 4.0434876e-05 7.1700655e-05 -0.0001536161 -7.547414e-05 -1.7270586e-05 1.6245749e-06 -7.360379e-05
-7.269821e-05 -0.00014563384 -3.634762e-05 7.231468e-05 -9.813172e-05 -8.225496e-05 -6.551168e-05 -0.00010294172
-0.00013722078 -9.9076766e-05 -0.00012618216 0.00011341499 -8.3955405e-05 -5.351854e-05 5.380489e-05 -0.00018996808
-4.1417417e-05 -1.9696445e-05 -2.9476114e-05 -3.4331788e-05 1.3803446e-05 -5.0373394e-05 0.00011122817 6.2872605e-06
-2.7633223e-05 -0.00013709122 -0.00016187335 -4.4347213e-05 -2.3802051e-05 -5.0041075e-05 -0.0001427647 7.7445286e-05
-3.0139795e-06 -4.4721883e-06 -5.9040693e-05 -8.3397856e-05 -4.3844535e-05 -0.00010704963 -0.00015141458 5.5251334e-05
5.042206e-05 2.6697886e-05 -0.00014285486 -6.0948118e-05 -5.3776737e-05 -0.00013782953 -0.000107024454 -0.00010497763
-0.00016036461 -6.72787e-05 2.0332818e-05 -6.759789e-06 1.0381219e-05 -5.6918114e-05 -5.8314865e-05 -9.701701e-05
-6.0124847e-05 2.5656736e-05 -4.7607984e-05 -0.00016467652 -6.879645e-05 -5.630658e-06 -5.1346335e-05 7.363787e-05
-3.1420266e-06 7.0544476e-05 5.6648973e-06 -7.0379065e-05 -0.00014578669 -3.0466332e-05 -0.00018204929 -6.964731e-05
3.988841e-06 7.599199e-05 1.9478339e-06 2.0671587e-07 2.803209e-05 -9.367573e-05 5.7572062e-05 -0.000118046715
1.9001945e-05 7.132322e-06 -6.9725415e-05 2.3421737e-05 2.0865275e-05 -3.4233595e-05 1.3996021e-05 -9.747299e-05
-0.00014750454 2.3568304e-05 -4.1848805e-05 2.2031407e-05 -7.812825e-05 3.805041e-05 -4.4095683e-05 -1.083098e-05
-3.5914672e-05 -3.9665763e-05 3.7340622e-05 2.5014102e-05 -0.000111776 -5.9442056e-05 -3.3334596e-05 1.3928302e-05
-0.000102154285 -6.8306865e-05 -0.00015871252 -9.744233e-05 -1.7600514e-05 -4.2987813e-05 -3.9353774e-05 -0.00014301574
-3.7202684e-05 2.581468e-05 5.491316e-05 -1.3097453e-05 -5.6837667e-05 -0.00011814351 1.8941037e-05 1.6996128e-05
4.2181415e-05 3.2268574e-06 -6.9121335e-05 2.7298513e-05 8.10229e-05 -2.2866336e-05 -6.58186e-05 -9.2307346e-05
-0.00012211755 -3.0505613e-05 5.198853e-05 4.845292e-05 -8.505139e-05 2.7372055e-06 4.3121578e-05 1.0952923e-05
4.968051e-05 -0.00012819626 2.1482818e-05 -2.655562e-06 1.1087172e-05 -5.1997213e-05 -9.726789e-05 3.388161e-05
-2.567761e-05 -2.5810212e-05 -3.240964e-05 -6.7063214e-05 -5.7367957e-05 4.777997e-05 -6.9497146e-05 6.0634222e-05
3.3013835e-05 -9.240934e-05 -2.4368996e-05 -5.420777e-05 1.3183412e-05 3.203599e-05 -0.00017471015 6.83615e-05
-3.0554493e-06 -9.002079e-05 -0.0001311301 -0.00014150781 6.649205e-06 3.297149e-05 -0.00014003324 -0.00016716325
