GolfFeedback-poc/src/s3_NAM_model/output/BS/0/checkpoints/epoch=07-val_loss=1350.4778.ckpt (torch, 48078 bytes, 24 tensors)

model.feature_nns.0.model.0.weights f4 [1, 244]
0	0x3fce9212	1.6138327
1	0x3fe263dc	1.7686725
2	0x3fdf926c	1.746656
3	0x3fdfb635	1.747748
4	0x3fe2926a	1.7700932
5	0x3fd48e7a	1.660598
6	0x3fe110f8	1.7583303
7	0x3fe2733a	1.7691414
8	0x3fdc5f49	1.7216579
9	0x3fb275fe	1.3942258
10	0x3fada362	1.3565485
11	0x3fd1eb74	1.639998
12	0x3fde35fa	1.7360222
13	0x3fe045f7	1.7521352
14	0x3fdd771a	1.7301972
15	0x3fbaae1f	1.4584388
16	0x3fd6b8b6	1.6775119
17	0x3fdf58c2	1.7448962
18	0x3fdd91ef	1.731016
19	0x3fdb8399	1.7149535
20	0x3fe1d0db	1.7641863
21	0x3fc494b6	1.5357883
22	0x3fd967b6	1.6984775
23	0x3fca1475	1.5787493
24	0x3faf0b75	1.3675371
25	0x3fd24564	1.6427426
26	0x3fd1d35c	1.6392627
27	0x3fe02e56	1.7514141
28	0x3fc2927c	1.5200953
29	0x3fdbf140	1.7182999
30	0x3fce0af5	1.6097094
31	0x3fcf9008	1.621583
32	0x3fbf4961	1.4944268
33	0x3fde5405	1.7369391
34	0x3fdc5dfb	1.721618
35	0x3fd7243a	1.680793
36	0x3fb6dedf	1.4286765
37	0x3fe23725	1.7673079
38	0x3fd7945a	1.6842148
39	0x3fbf5b7b	1.4949793
40	0x3fe0e5a9	1.7570087
41	0x3fae588a	1.362077
42	0x3fddd9f8	1.7332144
43	0x3fdfdd56	1.7489421
44	0x3fdf4c0a	1.744508
45	0x3fe1e0df	1.764675
46	0x3fcb061a	1.5861237
47	0x3fb43725	1.4079329
48	0x3fe190e2	1.762234
49	0x3fdc78ad	1.7224327
50	0x3fde4761	1.7365533
51	0x3fde2941	1.735634
52	0x3fce8bcb	1.6136411
53	0x3fdfc23c	1.7481151
54	0x3fdc949a	1.723285
55	0x3fdd2fe1	1.7280236
56	0x3fce2f7a	1.6108239
57	0x3fc99dc2	1.5751269
58	0x3fd6a478	1.6768942
59	0x3fc04cd6	1.5023448
60	0x3fd77537	1.6832646
61	0x3fda2ace	1.7044313
62	0x3fcba5cc	1.5909972
63	0x3fd66998	1.6750975
64	0x3fdf8e09	1.7465221
65	0x3fc08729	1.5041248
66	0x3fdcdbaf	1.7254542
67	0x3fe14ace	1.7600954
68	0x3fdfc4a4	1.7481885
69	0x3fc9df36	1.5771244
70	0x3fdc3e7a	1.7206566
71	0x3fda1197	1.7036618
72	0x3fd4a201	1.661194
73	0x3fdda064	1.7314572
74	0x3fdb1668	1.7116213
75	0x3fcc34ba	1.5953591
76	0x3fe1652f	1.7609004
77	0x3fd1aa24	1.6380048
78	0x3fde2d00	1.7357483
79	0x3fde698c	1.737596
80	0x3fdfded6	1.7489879
81	0x3fd5a49c	1.669086
82	0x3fd0dcee	1.6317422
83	0x3fdf2a04	1.7434697
84	0x3fe25a25	1.768376
85	0x3fc9147b	1.5709375
86	0x3fd5a177	1.66899
87	0x3fe1a9be	1.7629926
88	0x3fdbfbd4	1.7186227
89	0x3fdede77	1.7411641
90	0x3fd62e54	1.6732888
91	0x3fdf53e4	1.7447476
92	0x3fdbd272	1.7173598
93	0x3fc79a93	1.5594047
94	0x3fe20c45	1.7659994
95	0x3fbac274	1.4590592
96	0x3fe06881	1.7531892
97	0x3fcb5d82	1.5887911
98	0x3fe25a78	1.7683859
99	0x3fde1718	1.7350798
100	0x3fe2a8d1	1.7707769
101	0x3fe2024b	1.765695
102	0x3fdb248f	1.7120532
103	0x3fe212d0	1.7661991
104	0x3fcaf282	1.5855258
105	0x3fca549d	1.5807072
106	0x3fc0a06f	1.504896
107	0x3fcd80f0	1.6054974
108	0x3fdf6fd9	1.7456008
109	0x3fdf176d	1.7429024
110	0x3fbaac88	1.4583902
111	0x3fc3e415	1.530398
112	0x3fe07467	1.7535523
113	0x3fe2a23a	1.7705758
114	0x3fdfc79c	1.7482791
115	0x3fdbac47	1.716195
116	0x3fd3a4e9	1.6534702
117	0x3fdb18da	1.7116959
118	0x3fe079b8	1.7537146
119	0x3fc26599	1.5187255
120	0x3fd24764	1.6428037
121	0x3fdaa285	1.7080847
122	0x3fae56a5	1.3620192
123	0x3fd91c5f	1.6961783
124	0x3fdb6504	1.7140203
125	0x3fdceff8	1.7260733
126	0x3fd0440f	1.627077
127	0x3fdfe5b8	1.749198
128	0x3fb7dc47	1.4364098
129	0x3fac1cec	1.3446326
130	0x3fdbbe39	1.7167426
131	0x3fdf8b3d	1.7464367
132	0x3fd97bd1	1.6990911
133	0x3fe0efb5	1.7573153
134	0x3fdef9b1	1.741995
135	0x3fe00985	1.7502905
136	0x3fd70118	1.6797209
137	0x3fe09014	1.7543969
138	0x3fc60283	1.5469517
139	0x3fcea09a	1.6142762
140	0x3fd0cc78	1.6312399
141	0x3fdfe0f6	1.7490528
142	0x3fe1f049	1.7651454
143	0x3fce677d	1.6125332
144	0x3fdfa394	1.7471795
145	0x3fceb562	1.6149104
146	0x3fdca0bf	1.7236556
147	0x3fe112ea	1.7583897
148	0x3fdc7f58	1.7226362
149	0x3fd895b0	1.6920681
150	0x3fd954e5	1.6979033
151	0x3fd8825f	1.6914786
152	0x3fb3cf8f	1.4047717
153	0x3fdbadf7	1.7162465
154	0x3fd9a80f	1.7004412
155	0x3fe2d56e	1.7721384
156	0x3fc73df3	1.556578
157	0x3fe26b2a	1.7688954
158	0x3fe24646	1.7677696
159	0x3fbcc660	1.4748039
160	0x3fd6668b	1.6750044
161	0x3fde03a7	1.7344865
162	0x3fde9282	1.7388461
163	0x3fd2483d	1.6428295
164	0x3fcaa594	1.583178
165	0x3fd10a15	1.6331202
166	0x3fd37822	1.6521037
167	0x3fdddb6e	1.733259
168	0x3fd83054	1.6889749
169	0x3fde46b6	1.7365329
170	0x3fd70152	1.6797278
171	0x3fdc23d9	1.719844
172	0x3fde1378	1.7349691
173	0x3fc2f563	1.5231136
174	0x3fd1cbba	1.6390297
175	0x3fac2228	1.3447924
176	0x3fd30aed	1.6487709
177	0x3fc79658	1.5592756
178	0x3fa42c14	1.2825952
179	0x3fe24642	1.7677691
180	0x3fd233e1	1.6422082
181	0x3fd952fa	1.6978447
182	0x3fcc2cd8	1.5951185
183	0x3fda243d	1.7042309
184	0x3fb88e5b	1.4418443
185	0x3fd68692	1.6759818
186	0x3fd7191b	1.6804537
187	0x3fdb748b	1.7144941
188	0x3fda5bec	1.7059302
189	0x3fe01d1f	1.7508887
190	0x3fd96803	1.6984867
191	0x3fd179c1	1.6365281
192	0x3fe29696	1.7702205
193	0x3fd69951	1.6765538
194	0x3fe22998	1.7668943
195	0x3fc5f4cd	1.5465332
196	0x3fce12ff	1.6099547
197	0x3fc205c7	1.5158013
198	0x3fcbfed7	1.5937146
199	0x3fd9ee5e	1.7025869
200	0x3fe1100f	1.7583026
201	0x3fc73b3b	1.5564951
202	0x3fdd1a80	1.7273712
203	0x3fe0a5c0	1.7550583
204	0x3fe2a875	1.7707659
205	0x3fdd4f20	1.7289772
206	0x3fd2510c	1.6430984
207	0x3fbfae27	1.4975022
208	0x3fdb378b	1.7126325
209	0x3fdf4cc9	1.7445308
210	0x3fdab191	1.7085439
211	0x3fde8d5d	1.7386891
212	0x3fe20e68	1.7660646
213	0x3fd7a3f9	1.6846915
214	0x3fca87b1	1.582266
215	0x3fd73cda	1.6815445
216	0x3fd449a3	1.6584972
217	0x3fdf894f	1.7463778
218	0x3fdeabba	1.7396157
219	0x3fd8fbb5	1.6951815
220	0x3fdf3b43	1.743996
221	0x3f965ff0	1.1748028
222	0x3fca4803	1.5803226
223	0x3fd9ed08	1.7025461
224	0x3fdc1ab3	1.7195648
225	0x3fe18d6d	1.7621285
226	0x3fda630a	1.7061474
227	0x3fcca48f	1.5987719
228	0x3fd61a15	1.672671
229	0x3fc9f646	1.5778282
230	0x3fd07869	1.6286746
231	0x3fd3efec	1.6557593
232	0x3fdfca8f	1.7483691
233	0x3fe2d1f1	1.7720319
234	0x3fdbee52	1.7182105
235	0x3fc7a091	1.5595876
236	0x3fba2845	1.4543539
237	0x3fd2115e	1.641155
238	0x3fc505d8	1.5392408
239	0x3fca1949	1.5788966
240	0x3fbed65c	1.4909167
241	0x3fdb7f28	1.714818
242	0x3fdaccca	1.7093747
243	0x3fd7c31f	1.6856421

model.feature_nns.0.model.1.weight f4 [1, 244]
0	0x3c0d0e81	0.008609415
1	0x3c94ee07	0.018179907
2	0x3bebcf64	0.0071963537
3	0xbbf41b93	-0.007449576
4	0xb9c96740	-0.00038414635
5	0xbd45fb8d	-0.0483356
6	0xbd1b7432	-0.03795261
7	0xbce8eed4	-0.028434195
8	0x3d3bfd28	0.045895725
9	0x3d3b37ea	0.04570762
10	0xbd1384f0	-0.03601545
11	0x3cdbcb30	0.026830286
12	0xba756988	-0.00093617337
13	0x3c99ad2c	0.018759333
14	0xbd27edc6	-0.040998243
15	0xbd3fedaf	-0.046857532
16	0xbcdc469c	-0.026889138
17	0x3cc39198	0.023873135
18	0x3c82388c	0.015896104
19	0xbb78ef86	-0.0037984564
20	0xbc806496	-0.015672963
21	0x3b309dd4	0.0026949542
22	0xbca8e432	-0.020616625
23	0x3cc3035e	0.023805317
24	0x3c9e398c	0.01931455
25	0xbc96411c	-0.018341593
26	0x3ca67edc	0.020324163
27	0xbc1465ff	-0.009057521
28	0x3cb1e80f	0.0217171
29	0x3cecde01	0.028914453
30	0x3d4884b9	0.0489547
31	0x3d0e3f8d	0.034728575
32	0xbd39b674	-0.045340016
33	0x3c606690	0.013696328
34	0x3a697fec	0.00089073065
35	0xbd0fd15e	-0.035111777
36	0xbd51d817	-0.05123147
37	0x3d548be4	0.051891223
38	0xbd31999b	-0.04335938
39	0x3d1b59be	0.03792738
40	0x3cf846a2	0.030307118
41	0xbca91de1	-0.02064413
42	0xbcb1dd51	-0.021711977
43	0x3d014858	0.031563133
44	0x3cf344a9	0.029695826
45	0xbba3d258	-0.00499944
46	0xbc551595	-0.013005634
47	0xbc973b17	-0.018460793
48	0xbb1c7ba2	-0.0023877402
49	0xbd45f585	-0.04832985
50	0xbc2c63e0	-0.010521859
51	0xbceb281a	-0.028705645
52	0xbd20ad85	-0.03922798
53	0x3ce78bf1	0.028264971
54	0xbd141c94	-0.036160067
55	0xbc542032	-0.012947129
56	0x3cb87b6d	0.022519791
57	0x3d054877	0.03253981
58	0xba0f8648	-0.00054750266
59	0xbd54c014	-0.051940992
60	0x3c0cc620	0.008592159
61	0xbd061530	-0.03273505
62	0xbd18b977	-0.037286248
63	0x3cdf7c65	0.027280996
64	0x3d3c1555	0.04591878
65	0x3d3a1fd3	0.045440506
66	0xbd46af3a	-0.048506953
67	0xbce47661	-0.027888479
68	0xbd05c94e	-0.032662682
69	0x3d28fb4d	0.041255284
70	0x3d638f3b	0.055556517
71	0xbd22ba3d	-0.039728392
72	0xbd04d6cc	-0.03243141
73	0x3d78a80a	0.06070713
74	0x3d15d52d	0.036580253
75	0xba43724c	-0.0007455691
76	0x3d3f5955	0.046716053
77	0x3d33acac	0.043865845
78	0xbd3a9807	-0.04555514
79	0xbd15bd31	-0.03655738
80	0x3caa0671	0.020755025
81	0x3d4cf3db	0.050037246
82	0x3c47dcb2	0.012198614
83	0xbac22dd8	-0.0014814688
84	0x3d28064e	0.041021638
85	0xbd0e2feb	-0.034713667
86	0xbd45e112	-0.048310347
87	0x3cee5f69	0.02909823
88	0xbc7fc9b7	-0.015612057
89	0xbd4cd41e	-0.05000698
90	0xbd0c440c	-0.034244582
91	0xbc80519d	-0.015663916
92	0x3b229f06	0.0024814024
93	0x3ab8e4a4	0.0014106226
94	0xbd2d47d7	-0.04230484
95	0x3d59806b	0.053100985
96	0x3cdf0d7a	0.027228106
97	0x3d3a05b0	0.04541558
98	0xbd127ccd	-0.03576355
99	0x3d6a78bc	0.057244048
100	0x3ca08bba	0.019597877
101	0xbd0fd613	-0.035116266
102	0x3c5a505b	0.013324822
103	0x3d3a1a58	0.04543528
104	0xbcbe3dc5	-0.023222813
105	0x3d2b5042	0.041824587
106	0xbcea0f31	-0.028571697
107	0xbd3e7b22	-0.046504147
108	0x3d48bf00	0.049010277
109	0xbb4d4e3c	-0.003132715
110	0xbd101330	-0.03517455
111	0x3d071228	0.0329763
112	0x3d14362a	0.036184467
113	0xbc7b0f5a	-0.015323484
114	0x3d62ac6d	0.05534022
115	0xbd36731d	-0.044543374
116	0x3d2e610a	0.042573012
117	0x3bdae09a	0.0066796066
118	0x3d6957dc	0.056968555
119	0xbd02b49f	-0.031910535
120	0xbb91e18a	-0.004451935
121	0xbd55b97c	-0.052178845
122	0xbd52de8c	-0.05148177
123	0x3c2f2319	0.01068952
124	0x3d29a3fc	0.041416153
125	0x3d0d44a0	0.034489274
126	0xbcf74dae	-0.030188408
127	0x3bcd57a0	0.006266549
128	0xbcb8426f	-0.022492616
129	0x3a68046d	0.0008850757
130	0xbd03fb88	-0.0322223
131	0xbc5b1fa2	-0.013374241
132	0x3cea4f17	0.028602166
133	0x3d11d930	0.035607517
134	0xb6581400	-3.219815e-06
135	0x3cc4245f	0.023943124
136	0x3d219971	0.039452974
137	0xbd3a1f72	-0.045440145
138	0xbcac9a17	-0.02106957
139	0x3c4c3924	0.012464795
140	0xbcd02c72	-0.025411818
141	0xbd087e44	-0.03332354
142	0x3b299ba8	0.0025880132
143	0x3c565199	0.013080978
144	0x3d255961	0.04036844
145	0xbd388d02	-0.04505635
146	0xbc5ea7c8	-0.013589807
147	0x3c8c827c	0.017152064
148	0x3d10ba0d	0.03533368
149	0xbd44c5b0	-0.048040092
150	0x3ce53968	0.027981475
151	0x3d5a8645	0.053350706
152	0x3c755862	0.014974685
153	0x3c820dc1	0.015875699
154	0x3cd2d023	0.025734013
155	0xbc8c8068	-0.017151073
156	0x3cbb8c62	0.022894088
157	0x3ccf7b77	0.025327427
158	0x3bbbcc40	0.0057311356
159	0xbc7018e0	-0.014654368
160	0x3d31fc51	0.04345352
161	0x3d0789fa	0.03309057
162	0xbd3a858c	-0.045537516
163	0xba937166	-0.0011249005
164	0xbd1506ed	-0.036383558
165	0xbc3de5ad	-0.0115904035
166	0x3c888bb4	0.016668178
167	0xbc1465b1	-0.009057448
168	0x3d63d5da	0.055623867
169	0x3d496133	0.049164962
170	0xbbb4ff84	-0.005523624
171	0x3d5dfbac	0.05419509
172	0xbc5830a7	-0.013195193
173	0xbb072bf6	-0.0020625568
174	0xbca15138	-0.019692048
175	0x3cefef8f	0.029289035
176	0xbd4fcb31	-0.050730888
177	0xbd277fe8	-0.040893465
178	0xbcfa9937	-0.030590637
179	0x3d06081e	0.032722585
180	0x3c147d3c	0.009063061
181	0xbd35c8c1	-0.044380907
182	0x3d17f2c9	0.037096772
183	0x3d4ac4ec	0.049504206
184	0x3d405ee6	0.046965502
185	0x3c5d64c0	0.01351279
186	0x39d5c380	0.00040772185
187	0xbd350412	-0.044193335
188	0x3c8dee7e	0.017325636
189	0x3d78e8a6	0.060768746
190	0xbc98d006	-0.01865388
191	0xbd52e0da	-0.051483966
192	0xbcd77464	-0.026300617
193	0x3cd09693	0.025462424
194	0xbd10a6fd	-0.035315502
195	0x3d30821c	0.043092832
196	0x3cdb42b3	0.026765203
197	0x3cd9dc46	0.026594292
198	0xbca93d16	-0.02065901
199	0xbcb640b5	-0.022247652
200	0xbd1739a8	-0.03692022
201	0x3c749d6a	0.014930109
202	0x3d3e6395	0.046481688
203	0x3d26f878	0.040764302
204	0x3d23b211	0.03996474
205	0xbd539115	-0.051652033
206	0x3d322272	0.04348988
207	0x3cff87e2	0.031192724
208	0x3d3c9a6d	0.04604571
209	0xbd278682	-0.04089976
210	0x3d513e9c	0.0510851
211	0xbb2870f6	-0.0025702096
212	0x3ca9ff1d	0.02075153
213	0xbd0d9c7c	-0.034573063
214	0x3c086b70	0.008326396
215	0x3d0650d3	0.032791924
216	0xb7a05300	-1.9112136e-05
217	0xbcd897ef	-0.026439635
218	0xbc6f1132	-0.014591502
219	0x3c7183b0	0.014740869
220	0x3af7be8e	0.0018901394
221	0x3c267a3b	0.010160978
222	0xbc87bdbc	-0.016569965
223	0x3d6518c2	0.055931814
224	0x3c3f3ccd	0.011672211
225	0xbd005077	-0.031326737
226	0xbcc3d74f	-0.023906378
227	0xbd032c64	-0.032024756
228	0x3d535a08	0.051599532
229	0xbd1b3c17	-0.037899103
230	0x3d3e8b7c	0.04651974
231	0x3d03ddb6	0.032193862
232	0x3c8d3cdc	0.017240934
233	0x3c5ed05c	0.013599481
234	0xbd3ec76d	-0.046576906
235	0x3ceeee37	0.029166324
236	0xbd0f48c9	-0.034981523
237	0x3d3c0bd3	0.045909714
238	0xbd4e0264	-0.05029525
239	0x3d56af3c	0.05241321
240	0x3d80b614	0.06284729
241	0x3d08c74c	0.03339319
242	0xbd3aac01	-0.045574192
243	0x3d70bb2f	0.058772262

model.feature_nns.1.model.0.weights f4 [1, 112]
0	0x3fdaae66	1.7084472
1	0x3fe21062	1.766125
2	0x3fd58415	1.6680933
3	0x3fdd6864	1.7297482
4	0x3fdb8a1f	1.7151526
5	0x3fe0daa1	1.756672
6	0x3fce48da	1.6115983
7	0x3fddb19c	1.7319827
8	0x3fdffe53	1.7499489
9	0x3fd509cf	1.6643618
10	0x3fe03bb4	1.751822
11	0x3fd8e5f0	1.6945171
12	0x3fe158dc	1.7605243
13	0x3fd32f5c	1.6498828
14	0x3fe03395	1.7515742
15	0x3fe29993	1.7703117
16	0x3fe18203	1.7617801
17	0x3fdfc41d	1.7481724
18	0x3fe26c66	1.768933
19	0x3fd9a4b8	1.7003393
20	0x3fe261ea	1.7686131
21	0x3fe20207	1.7656869
22	0x3fd4ef0e	1.6635454
23	0x3fe05c09	1.7528087
24	0x3fd509cf	1.6643618
25	0x3fc7b250	1.5601292
26	0x3fbb6e92	1.4643118
27	0x3fbef337	1.4917973
28	0x3fdc9354	1.7232461
29	0x3fe1c0ba	1.763694
30	0x3fdb8fba	1.7153237
31	0x3fe047db	1.7521929
32	0x3fc3bbaa	1.5291646
33	0x3fd9be46	1.7011192
34	0x3fdfcc7c	1.7484279
35	0x3fd1b8f9	1.6384574
36	0x3fde9729	1.738988
37	0x3fd07a58	1.6287336
38	0x3fe1896f	1.7620066
39	0x3fcbce0a	1.5922253
40	0x3fdf029e	1.7422674
41	0x3fd53eba	1.6659768
42	0x3fde3681	1.7360383
43	0x3fe1f39e	1.7652471
44	0x3fd48b34	1.6604981
45	0x3fafa90f	1.3723468
46	0x3fd83908	1.6892405
47	0x3faa54ed	1.3307167
48	0x3fe012e7	1.7505769
49	0x3fdbfe22	1.718693
50	0x3fd9640f	1.698366
51	0x3fd5aec3	1.6693958
52	0x3fd6f313	1.679293
53	0x3fe19842	1.762459
54	0x3fd64c78	1.6742086
55	0x3fe0b388	1.7554789
56	0x3fc2d3b9	1.5220863
57	0x3fb5d185	1.4204565
58	0x3fcb75d3	1.5895332
59	0x3fe0e264	1.7569089
60	0x3fd5245c	1.6651721
61	0x3fd2b368	1.6461
62	0x3fdc13d2	1.7193549
63	0x3fe21b1e	1.7664526
64	0x3fce9ece	1.6142213
65	0x3fd1e5d4	1.6398263
66	0x3fdcd69b	1.7252992
67	0x3fdf25c1	1.7433397
68	0x3fdb684b	1.7141203
69	0x3fbc9236	1.473212
70	0x3fc3391b	1.5251802
71	0x3fd8bd2f	1.6932734
72	0x3fdda7f0	1.7316875
73	0x3fdb684b	1.7141203
74	0x3fc1b53f	1.5133437
75	0x3fdd9e39	1.7313911
76	0x3fd85c45	1.6903158
77	0x3fdd5e86	1.7294471
78	0x3fcaab66	1.5833557
79	0x3fd1fc09	1.640504
80	0x3fd77bfe	1.6834714
81	0x3fd9a4b8	1.7003393
82	0x3fdd31c6	1.7280815
83	0x3fd086af	1.6291102
84	0x3fdc9354	1.7232461
85	0x3fdf8d3e	1.7464979
86	0x3fda4dca	1.7054989
87	0x3fd7f17b	1.6870569
88	0x3fe17a8f	1.7615527
89	0x3fe158dc	1.7605243
90	0x3fe19bf4	1.7625718
91	0x3fd13aa1	1.6346017
92	0x3fdfd4d9	1.7486831
93	0x3fdd36c5	1.7282339
94	0x3fde5b9e	1.7371709
95	0x3fdd13a1	1.7271615
96	0x3fd62bd7	1.6732129
97	0x3fda6630	1.7062435
98	0x3fe043d1	1.7520696
99	0x3fc6896d	1.5510689
100	0x3fb43aae	1.4080408
101	0x3fc8974c	1.5671172
102	0x3fd86349	1.69053
103	0x3fd28919	1.6448089
104	0x3fdd80f4	1.7304978
105	0x3fdf2161	1.7432061
106	0x3fdee809	1.7414562
107	0x3fdbd7dd	1.7175251
108	0x3fda4dca	1.7054989
109	0x3fce5753	1.6120399
110	0x3fdb793f	1.7146376
111	0x3fdec8cc	1.7405028

model.feature_nns.1.model.1.weight f4 [1, 112]
0	0x3ca91a25	0.02064235
1	0xbcc6cc58	-0.02426736
2	0xbc49aa36	-0.012308648
3	0xbb6447d2	-0.0034832847
4	0xbc93adf2	-0.01802728
5	0xbb5f5766	-0.0034079193
6	0x3c480891	0.012209074
7	0xba9c6314	-0.0011931383
8	0xbbca8818	-0.0061807744
9	0xbadb724c	-0.0016742437
10	0xb90d2800	-0.00013461709
11	0xbc8457ed	-0.016155208
12	0x3bf0f9a1	0.007353977
13	0x3bf47cb4	0.007461155
14	0x3bc6bad2	0.006064751
15	0x3ba52174	0.0050393883
16	0x3c8baaec	0.017049275
17	0xbb73dce8	-0.0037210528
18	0x3bae74a4	0.0053239632
19	0x3c3ca752	0.011514502
20	0x3c3342b6	0.010941198
21	0x3c82b9cc	0.015957735
22	0x3c1ed38e	0.009693993
23	0xbcabfb12	-0.020993743
24	0x3c3c99db	0.011511291
25	0xbc994c78	-0.018713221
26	0xbc838c37	-0.01605807
27	0xbc332da0	-0.010936171
28	0x3c1caeaa	0.0095631275
29	0x3ba5a262	0.005054758
30	0x3b8b4aab	0.0042508445
31	0x3b92f884	0.004485192
32	0x3c44f31f	0.012020855
33	0x3c37837c	0.011200782
34	0xbc163e4a	-0.009170124
35	0x3c252f5b	0.010082091
36	0x3c96d532	0.018412206
37	0xbc0ac65b	-0.008470143
38	0x3b63a174	0.0034733685
39	0xbb4f99d2	-0.0031677377
40	0xbba9b43a	-0.0051789554
41	0x3bd23c84	0.0064159054
42	0xbc2b2e73	-0.010448086
43	0x3c3a1bdc	0.011359181
44	0x3c4984c1	0.012299717
45	0xbc374a1a	-0.011187101
46	0x3bbf8192	0.0058443034
47	0x3c21b865	0.009870623
48	0xbc279107	-0.010227448
49	0x3b454e88	0.0030106623
50	0x3bc05f4c	0.0058707353
51	0xbc3c30b0	-0.011486217
52	0xbb1e1044	-0.0024118582
53	0xbc543fb5	-0.012954642
54	0x3c4198c0	0.011816204
55	0x3c2f8f43	0.010715309
56	0x3c4af12b	0.0123866005
57	0x3c173d4d	0.009230924
58	0xbbc4b5be	-0.0060031107
59	0xbb74c6b8	-0.003734989
60	0xbc9669ac	-0.018360935
61	0x3bcec696	0.0063102944
62	0xbc1e7382	-0.009671094
63	0xba0f2698	-0.0005460768
64	0xbb647869	-0.003486181
65	0xbc6063aa	-0.013695637
66	0x3b6846a6	0.00354425
67	0xbb198782	-0.0023426716
68	0xbc1276ae	-0.008939428
69	0xbc8ce490	-0.01719883
70	0x3c366cc5	0.011134331
71	0x3bed8f94	0.007249782
72	0xbc39c0ca	-0.011337468
73	0xbbd6335b	-0.006536884
74	0x3bde873d	0.006791024
75	0x3b39991d	0.0028320022
76	0xbbaaaee9	-0.005208839
77	0x3be41d95	0.0069615343
78	0xbc0a8083	-0.008453491
79	0xbc1b363d	-0.009473381
80	0xbb9c1b0a	-0.0047639655
81	0x3c008614	0.007844467
82	0xbc9a334a	-0.018823285
83	0x3c8a1a6c	0.016858302
84	0x3b7b8723	0.0038380108
85	0x3be6a48e	0.0070386594
86	0x3c3f0601	0.011659146
87	0x3a8f3400	0.0010925531
88	0x3c29e376	0.010369172
89	0x3c65175d	0.013982621
90	0xbc56cd2f	-0.013110443
91	0x3b211ee4	0.0024585063
92	0xbc3f4503	-0.0116741685
93	0xbc848b14	-0.016179599
94	0xbbab145f	-0.0052209343
95	0xbcb8e6fd	-0.022571081
96	0x3c8b1a86	0.01698042
97	0x3bb18644	0.005417617
98	0xbb9c7562	-0.0047747353
99	0xbbba1b67	-0.005679536
100	0x3ae53c85	0.001748935
101	0x3c238121	0.009979517
102	0x3bb7860f	0.005600698
103	0x3bc699cd	0.006060815
104	0xbbacbb8c	-0.005271381
105	0xbc52b877	-0.012861363
106	0xbb6e5ddd	-0.0036371865
107	0x3b87a57c	0.0041396003
108	0x3bc6aceb	0.006063094
109	0xbcbc0783	-0.0229528
110	0x3c49a178	0.012306564
111	0x3b816f04	0.0039500017

model.feature_nns.2.model.0.weights f4 [1, 274]
0	0x3fda6019	1.7060577
1	0x3fe1f738	1.765357
2	0x3fdef9c6	1.7419975
3	0x3fbffdf8	1.499938
4	0x3fdba614	1.7160058
5	0x3fda22b3	1.7041839
6	0x3fdc7e63	1.722607
7	0x3fdfbbb8	1.7479162
8	0x3fe053fa	1.7525628
9	0x3fcebafd	1.6150814
10	0x3fdffa33	1.749823
11	0x3fdd8fa0	1.7309456
12	0x3fd9640f	1.698366
13	0x3fdf0707	1.742402
14	0x3fe08013	1.7539085
15	0x3fc9c00e	1.5761735
16	0x3fcebafd	1.6150814
17	0x3fdf32d9	1.7437392
18	0x3fe1bd12	1.7635825
19	0x3fd27e73	1.6444839
20	0x3fccc9e9	1.5999118
21	0x3fc11c29	1.5086719
22	0x3fd4538a	1.6587994
23	0x3fd88620	1.6915932
24	0x3fce65bc	1.6124797
25	0x3fd6bc63	1.6776241
26	0x3fd5f201	1.6714479
27	0x3fdb3ab2	1.7127287
28	0x3fdfc84f	1.7483004
29	0x3fe0bb60	1.7557182
30	0x3fde3fcf	1.7363223
31	0x3fc22397	1.5167111
32	0x3fde6e0c	1.7377334
33	0x3fda907b	1.7075342
34	0x3fe1605e	1.7607534
35	0x3fd87f2e	1.6913812
36	0x3fdb8fba	1.7153237
37	0x3fc35a39	1.5261909
38	0x3fd1cf78	1.639144
39	0x3fcdf0bb	1.608909
40	0x3fcc98fd	1.5984188
41	0x3fdb9aed	1.7156655
42	0x3fd54778	1.6662436
43	0x3fe110b3	1.7583221
44	0x3fdba080	1.7158356
45	0x3fc1da6d	1.5144783
46	0x3fd94349	1.6973659
47	0x3fc919a5	1.5710951
48	0x3fc8ad5f	1.5677909
49	0x3fd5c823	1.6701702
50	0x3fd7afde	1.6850545
51	0x3fd8a8a1	1.6926461
52	0x3fc7f8a4	1.5622754
53	0x3fc919a5	1.5710951
54	0x3fdc4428	1.72083
55	0x3fce65bc	1.6124797
56	0x3fcf5216	1.6196926
57	0x3fc90443	1.5704426
58	0x3f9df1bf	1.23394
59	0x3fd7ea41	1.6868364
60	0x3fdfa270	1.7471447
61	0x3fd1f0f1	1.6401654
62	0x3fd6b481	1.6773835
63	0x3fd2b368	1.6461
64	0x3fd8472c	1.689672
65	0x3fbab224	1.4585614
66	0x3fb43aae	1.4080408
67	0x3fca9863	1.5827755
68	0x3fd85c45	1.6903158
69	0x3fcbdf6b	1.5927557
70	0x3fdc7e63	1.722607
71	0x3fd5f201	1.6714479
72	0x3fe190db	1.7622331
73	0x3fde23d1	1.735468
74	0x3fdc6e98	1.722125
75	0x3fd39d4b	1.6532377
76	0x3fbe0311	1.4844686
77	0x3fc4ed67	1.538495
78	0x3fbcc985	1.4748999
79	0x3fe02348	1.7510767
80	0x3fd1e5d4	1.6398263
81	0x3fdc2963	1.720013
82	0x3fe17e47	1.7616662
83	0x3fe190db	1.7622331
84	0x3fdd13a1	1.7271615
85	0x3fdff611	1.7496969
86	0x3fc0524c	1.5025115
87	0x3fd52d2b	1.6654409
88	0x3fc2f5dd	1.5231282
89	0x3fdffa33	1.749823
90	0x3fd7a882	1.68483
91	0x3fe1641e	1.7608678
92	0x3fdd6d51	1.7298986
93	0x3fde7738	1.7380133
94	0x3fa431c5	1.2827688
95	0x3fde897f	1.738571
96	0x3fdee809	1.7414562
97	0x3fa70a92	1.3050101
98	0x3fc78299	1.558673
99	0x3fd49d91	1.6610585
100	0x3fd8783c	1.6911693
101	0x3fe0e647	1.7570275
102	0x3fca2416	1.5792263
103	0x3fa9553a	1.3229134
104	0x3fd2bde5	1.6464201
105	0x3fd3d7dc	1.655025
106	0x3fc83d8d	1.5643784
107	0x3fd5d08d	1.670427
108	0x3fdde664	1.7335935
109	0x3fe0ea29	1.757146
110	0x3fcebafd	1.6150814
111	0x3fd6d3ee	1.6783426
112	0x3fcf3718	1.6188688
113	0x3fc919a5	1.5710951
114	0x3fe2575e	1.7682912
115	0x3fd4117b	1.6567835
116	0x3fb50c9e	1.4144475
117	0x3fde64d8	1.7374525
118	0x3fd5f201	1.6714479
119	0x3fd10b8a	1.6331646
120	0x3fd03c0c	1.6268325
121	0x3fc1431a	1.5098603
122	0x3fcbce0a	1.5922253
123	0x3fac1bf0	1.3446026
124	0x3fdecd48	1.7406397
125	0x3fdfa6aa	1.7472737
126	0x3fca37be	1.5798261
127	0x3fdcfa52	1.7263892
128	0x3fe26c66	1.768933
129	0x3fcfe2e6	1.6241119
130	0x3fba70cd	1.4565674
131	0x3fb78e4a	1.4340298
132	0x3fd509cf	1.6643618
133	0x3fe245c0	1.7677536
134	0x3fd5e151	1.6709386
135	0x3fe2d740	1.7721939
136	0x3fe18d25	1.7621199
137	0x3fdd9e39	1.7313911
138	0x3fdbe2d8	1.7178602
139	0x3fd8a1c1	1.6924363
140	0x3fdd18aa	1.7273152
141	0x3fc2b13e	1.521034
142	0x3fc0f4c4	1.5074697
143	0x3fdb4bde	1.7132528
144	0x3fd2e792	1.647692
145	0x3fca8547	1.5821923
146	0x3fd5d08d	1.670427
147	0x3fdfcc7c	1.7484279
148	0x3fe093f2	1.7545149
149	0x3fde6e0c	1.7377334
150	0x3fda8a79	1.7073509
151	0x3fcf5216	1.6196926
152	0x3fe2b88b	1.7712568
153	0x3fdf739f	1.745716
154	0x3fd5b73d	1.6696545
155	0x3fd9b183	1.7007297
156	0x3fd8ecb1	1.6947232
157	0x3fd6ac9c	1.6771426
158	0x3fe2494a	1.7678616
159	0x3fdf8d3e	1.7464979
160	0x3fe2f25b	1.7730211
161	0x3fd65495	1.6744562
162	0x3fda7e6a	1.7069829
163	0x3fdd9e39	1.7313911
164	0x3fcc45e0	1.5958824
165	0x3fe284cd	1.7696778
166	0x3fd02f70	1.6264477
167	0x3fd4b8ef	1.6618937
168	0x3fd6dbbd	1.6785809
169	0x3fd6ac9c	1.6771426
170	0x3fd64457	1.6739606
171	0x3fd481fc	1.6602168
172	0x3fdfd0aa	1.7485554
173	0x3fdd4ab2	1.728842
174	0x3fe0275c	1.7512012
175	0x3fdd947e	1.7310941
176	0x3fc49492	1.535784
177	0x3fd59539	1.6686164
178	0x3fdbe2d8	1.7178602
179	0x3fcb87a4	1.5900769
180	0x3fca5eba	1.5810158
181	0x3fe28bbb	1.7698892
182	0x3fe123d3	1.7589058
183	0x3fd20718	1.6408415
184	0x3fe0880a	1.7541516
185	0x3fcc45e0	1.5958824
186	0x3fdc0900	1.7190247
187	0x3fdf4ce5	1.7445341
188	0x3fdf189f	1.7429389
189	0x3fd79251	1.6841527
190	0x3fe15518	1.7604094
191	0x3fcf5f7e	1.6201017
192	0x3fb267a3	1.3937877
193	0x3fe2a75e	1.7707326
194	0x3fe0d2d7	1.7564343
195	0x3fe22241	1.7666703
196	0x3fdedab1	1.7410489
197	0x3fdd3bc2	1.7283862
198	0x3fddfe21	1.7343179
199	0x3fd42def	1.6576518
200	0x3fc57c68	1.5428591
201	0x3fd711f5	1.6802355
202	0x3fc02868	1.5012331
203	0x3fd361c0	1.6514206
204	0x3fdcf025	1.7260786
205	0x3fd512b0	1.6646328
206	0x3fcf3718	1.6188688
207	0x3fd3e187	1.65532
208	0x3fd3bab2	1.654135
209	0x3fe1605e	1.7607534
210	0x3fcc3503	1.5953678
211	0x3fda1013	1.7036155
212	0x3fda09d8	1.7034254
213	0x3fd54778	1.6662436
214	0x3fdbc1d3	1.7168525
215	0x3fe2e836	1.7727115
216	0x3fcad11b	1.5845064
217	0x3fcad11b	1.5845064
218	0x3fb87e30	1.4413509
219	0x3fd9f71a	1.7028534
220	0x3fc24793	1.5178093
221	0x3fe0f1e6	1.7573822
222	0x3fde3681	1.7360383
223	0x3fcfa1cf	1.6221255
224	0x3fdf2161	1.7432061
225	0x3fc35a39	1.5261909
226	0x3fdecd48	1.7406397
227	0x3fe1a359	1.7627975
228	0x3fc7211d	1.555698
229	0x3fe09bdd	1.7547566
230	0x3fc826bc	1.5636821
231	0x3fd9fd5b	1.7030443
232	0x3fe276e2	1.769253
233	0x3fc50a7e	1.5393827
234	0x3fe0f5c3	1.7575
235	0x3fd6cc19	1.6781036
236	0x3fc63af4	1.5486741
237	0x3fdf2e7d	1.7436062
238	0x3fe14d8c	1.760179
239	0x3fdea03a	1.7392647
240	0x3fe22241	1.7666703
241	0x3fd41afa	1.6570733
242	0x3fe00692	1.7502005
243	0x3fc0a489	1.5050212
244	0x3fc8c350	1.5684605
245	0x3fda164d	1.7038056
246	0x3fde23d1	1.735468
247	0x3fdfd901	1.7488099
248	0x3fdf6277	1.7451924
249	0x3fcc675c	1.5969043
250	0x3fdbe850	1.7180271
251	0x3fda2f0f	1.7045611
252	0x3fce90a0	1.6137886
253	0x3fc90443	1.5704426
254	0x3fdb5cf3	1.7137741
255	0x3fde603c	1.7373118

model.feature_nns.2.model.1.weight f4 [1, 274]
0	0xbc47825a	-0.012177074
1	0x3c887ef0	0.016662091
2	0xbba6c9ab	-0.0050899587
3	0xbc57a5a5	-0.013162051
4	0xbb7a86ab	-0.003822724
5	0x3c870767	0.016483022
6	0x3c73cc6e	0.014880283
7	0x3c580b42	0.013186278
8	0xbc83b15e	-0.016075786
9	0x3c3556b2	0.011068033
10	0x3a790ba0	0.00095003285
11	0x3c824b78	0.015905127
12	0x3b0a56d7	0.002110889
13	0xbc470f9f	-0.01214972
14	0xbc293abe	-0.010328947
15	0xbc8b94c0	-0.017038703
16	0xbc89057b	-0.016726246
17	0x3c3d3bc7	0.011549897
18	0x3c8abd3d	0.016935939
19	0x3b96802a	0.004592915
20	0x3c4a90ee	0.0123636555
21	0xb8e7ae10	-0.0001104736
22	0x3c89000e	0.016723659
23	0xbc245757	-0.010030589
24	0xbc84001d	-0.016113335
25	0x3c3944e4	0.011307929
26	0xbbdee040	-0.006801635
27	0xba2989e4	-0.00064673857
28	0x3c880e4b	0.016608378
29	0x3c846534	0.016161539
30	0x3c89f9c6	0.016842734
31	0xbb4666b1	-0.0030273611
32	0x3c620bcc	0.013796758
33	0x3c63e40e	0.013909353
34	0x3b596576	0.0033172048
35	0x3b38f9b8	0.0028225016
36	0xbc61adee	-0.013774378
37	0xbc8c42c6	-0.017121684
38	0xbc8c3821	-0.017116608
39	0xbb97053e	-0.004608779
40	0x3c55df92	0.013053792
41	0x3c88ec0a	0.016714115
42	0x3c4a550c	0.012349378
43	0xbc7eb8e5	-0.015547012
44	0x3c55e768	0.01305566
45	0xbc7652ec	-0.015034419
46	0x3a937f6e	0.0011253187
47	0x3c7e60ac	0.015525978
48	0xbc8a0e9e	-0.016852673
49	0xbc896481	-0.016771557
50	0x3b8c047a	0.0042729946
51	0x3c0d2105	0.0086138295
52	0x3c5fda33	0.013662863
53	0x3b2acfc2	0.0026063775
54	0x3a8d429c	0.0010777297
55	0x3bcace09	0.006189112
56	0x3a993bdc	0.0011690813
57	0xbb435408	-0.0029804725
58	0x3c67cade	0.014147488
59	0x3ae1c083	0.0017223511
60	0x3c514e28	0.012774982
61	0xbb8a30d6	-0.0042172475
62	0x3c353a63	0.011061284
63	0x3c163cc7	0.009169764
64	0xbb71b206	-0.0036879792
65	0xbb92eb18	-0.0044835918
66	0xbc8b81d2	-0.017029677
67	0x3c370da0	0.011172682
68	0xbc206fd0	-0.009792283
69	0xbc87e409	-0.016588228
70	0x3c532494	0.012887139
71	0x3bacb86c	0.0052710082
72	0x3b04b04c	0.0020246683
73	0x3c466a37	0.0121102845
74	0xbc36c88d	-0.0111562135
75	0xbc3d2102	-0.011543514
76	0x3c1df41a	0.009640718
77	0x3c824eb1	0.015906664
78	0xbc593086	-0.013256198
79	0x3c881d06	0.016615402
80	0x3c82952b	0.01594027
81	0xbba51601	-0.0050380235
82	0x3aa8c274	0.0012875334
83	0xbb5a6160	-0.00333222
84	0xbc8876ad	-0.016658152
85	0xbc881550	-0.016611725
86	0xbb6106dd	-0.0034336366
87	0xbb9f1748	-0.0048550703
88	0x3c527988	0.012846358
89	0xbba3ca44	-0.004998477
90	0x3c8ac3a4	0.016938992
91	0xbabb4546	-0.0014287613
92	0x3c7a4a39	0.015276485
93	0x3aedef68	0.0018153014
94	0x3c712b87	0.01471985
95	0x3c8b9b70	0.017041892
96	0x3c369a57	0.011145196
97	0xbc7c4e69	-0.015399554
98	0xbc85a6c2	-0.016314868
99	0x3c89ac20	0.016805708
100	0x3ba00e04	0.0048844833
101	0x3c89120b	0.016732236
102	0x3c4fa66e	0.012673957
103	0x3c8a2ee7	0.016868068
104	0xbc8a3a9b	-0.016873648
105	0x3c30f49c	0.010800507
106	0x3a89c8e6	0.0010512143
107	0xbc7d750e	-0.015469803
108	0xbbac75ee	-0.0052630818
109	0x3c7b5c51	0.015341834
110	0x3b6a9926	0.003579685
111	0xbc079b3c	-0.008276757
112	0x3c3ffebc	0.011718448
113	0x3c7ced81	0.015437485
114	0xbc89bd32	-0.016813848
115	0x3c899b55	0.0167977
116	0xbb0b4472	-0.0021250513
117	0x3af3d5fb	0.00186032
118	0x3b576621	0.003286727
119	0xbc85de7b	-0.016341439
120	0xbbc4da98	-0.0060075037
121	0x3c39a248	0.011330195
122	0xbc87b008	-0.01656343
123	0xbb8b7109	-0.004255418
124	0x3c8743dc	0.01651185
125	0x3b5bba8b	0.0033527936
126	0x3c8b309e	0.016990956
127	0xba86e694	-0.0010292106
128	0xbbbad6ae	-0.0057018613
129	0xbc8121df	-0.015763221
130	0xbc884910	-0.016636401
131	0xbb4eba99	-0.0031544326
132	0x3b704380	0.0036661327
133	0x3ba8220b	0.0051310114
134	0xbba3185c	-0.004977269
135	0xbb2bb59b	-0.0026200775
136	0x3ad8b974	0.0016534762
137	0x3c8438da	0.01614039
138	0x3c5825aa	0.013192574
139	0x3b5e8d7a	0.0033958838
140	0xbc7d3fdd	-0.015457121
141	0x3bcbf10c	0.0062238034
142	0x3a8f98fc	0.0010955627
143	0xbc3f3ed9	-0.011672699
144	0xbc789894	-0.015173096
145	0x3b7df610	0.00387514
146	0xbb8ba1af	-0.0042612175
147	0xbb028460	-0.0019915327
148	0xbb6e0119	-0.0036316572
149	0x3b36141d	0.0027782985
150	0x3ac22dd9	0.0014814689
151	0x3c8b7c03	0.017026907
152	0xbad55730	-0.0016276594
153	0xbbb68031	-0.005569481
154	0xbc575d2e	-0.013144774
155	0xbc656759	-0.014001691
156	0xbb6c55e0	-0.0036061928
157	0x3b499ee1	0.0030764865
158	0xbc44a90a	-0.012003193
159	0x3c749194	0.014927287
160	0xbc35c4ed	-0.011094314
161	0x3c3746d0	0.011186317
162	0x3c8950b6	0.016762119
163	0x3c6d4cac	0.014483612
164	0x3c88bcb9	0.016691552
165	0x3c432132	0.01190977
166	0x3c6d1268	0.01446972
167	0x3b89c4c2	0.0042043636
168	0x3c397cf1	0.011321292
169	0x3b20ce37	0.0024536976
170	0x3c88c081	0.016693356
171	0xbc78b43a	-0.015179688
172	0x3b09a0bc	0.0021000346
173	0xbc0c12d9	-0.0085494155
174	0xbbe15980	-0.0068771243
175	0xbbad5e3c	-0.0052907746
176	0xbc328d88	-0.0108980015
177	0x3b1382e4	0.0022508437
178	0x3c76ec42	0.015070977
179	0x3c2d5ce0	0.010581225
180	0xbc570a10	-0.013124958
181	0xbc3ef334	-0.011654664
182	0xbc8a32c4	-0.01686991
183	0xbb2dc546	-0.002651529
184	0xbc33cede	-0.010974614
185	0xbc8563b6	-0.016282897
186	0xbc4df88c	-0.012571465
187	0xbc888f47	-0.016669882
188	0x3b8f7ea5	0.004379111
189	0x3c835e00	0.016036034
190	0xbc50ecf4	-0.0127518065
191	0x3c17209c	0.009224083
192	0x3c899de8	0.016798928
193	0xbc620156	-0.013794264
194	0x3afa0027	0.0019073532
195	0xbc778282	-0.015106799
196	0x3c46c7bc	0.012132581
197	0x3aead0e1	0.0017915034
198	0x3c811400	0.015756607
199	0xbb70d780	-0.0036749542
200	0xbc6c5470	-0.014424428
201	0x3c817532	0.015802953
202	0x3a8af75f	0.0010602287
203	0xbc80b21f	-0.015709935
204	0xbc8bf72a	-0.01708563
205	0xbba037ef	-0.0048894803
206	0x3c56b2ab	0.013104121
207	0xbb6b39f9	-0.0035892709
208	0xbc88c2ed	-0.01669451
209	0xbac96c44	-0.0015367349
210	0x3c688ea6	0.014194166
211	0x3b017787	0.0019755082
212	0x3c3baa30	0.01145415
213	0xbc87816d	-0.016541207
214	0xbc4031a8	-0.011730589
215	0x39181f20	0.00014507445
216	0xbc8b558b	-0.017008564
217	0xbc6d7228	-0.014492549
218	0x3bbc701e	0.00575067
219	0x3c66719c	0.0140651725
220	0xbc329fec	-0.010902386
221	0xbb62b01b	-0.003458983
222	0x3c2a11bc	0.010380205
223	0xbb916729	-0.0044373465
224	0xbc84937a	-0.016183604
225	0xbc6d05b0	-0.014466688
226	0xbbac897d	-0.0052654133
227	0xbc813662	-0.015773002
228	0x3b9b227c	0.0047343355
229	0x3b2b4564	0.002613389
230	0xbc613187	-0.013744718
231	0x39ad1870	0.0003301534
232	0xba3cccd8	-0.0007202155
233	0x3b746ceb	0.0037296365
234	0xbc141c44	-0.009039942
235	0xbc722d18	-0.014781259
236	0x3c334db5	0.01094382
237	0x3ae8eb6e	0.0017770359
238	0xbb81208d	-0.003940648
239	0x3ab7fb4e	0.0014036687
240	0x3b1806ed	0.0023197487
241	0x3b5dd72c	0.0033850176
242	0x3c7bf92e	0.015379233
243	0x3c818490	0.015810281
244	0xbc24ddb2	-0.010062622
245	0x3c4ce487	0.012505657
246	0x3c8125ef	0.015765158
247	0x3afe40c3	0.0019397963
248	0x3c302096	0.010749957
249	0x3b272d73	0.0025509268
250	0xbc8aaea3	-0.016928976
251	0xbb42cce1	-0.0029724168
252	0x3c5fc508	0.013657816
253	0x3c3df1d4	0.011593301
254	0x3c81f231	0.015862556
255	0xb9c61780	-0.00037783012

model.feature_nns.3.model.0.weights f4 [1, 338]
0	0x3fdaae66	1.7084472
1	0x3fd59dc3	1.668877
2	0x3fdb684b	1.7141203
3	0x3fccb9b0	1.5994167
4	0x3fe2a3ec	1.7706275
5	0x3fcb2d96	1.5873287
6	0x3fc6ef4f	1.5541781
7	0x3fe1a708	1.7629099
8	0x3fd09f37	1.6298589
9	0x3fdb5191	1.7134267
10	0x3fe0e264	1.7569089
11	0x3fe00692	1.7502005
12	0x3fe1605e	1.7607534
13	0x3fcca960	1.5989189
14	0x3fdb4626	1.7130783
15	0x3fd8df2d	1.6943108
16	0x3fcd58b3	1.6042694
17	0x3fdd9e39	1.7313911
18	0x3fd28919	1.6448089
19	0x3fdde19f	1.7334479
20	0x3fd8ecb1	1.6947232
21	0x3fdb4626	1.7130783
22	0x3fd3b0ed	1.6538368
23	0x3fe29620	1.7702065
24	0x3fcdf0bb	1.608909
25	0x3fdac627	1.7091721
26	0x3fbd9ddb	1.4813799
27	0x3fc63af4	1.5486741
28	0x3fcf94a6	1.6217239
29	0x3fc6bcc0	1.5526352
30	0x3fdc5ebc	1.7216411
31	0x3fd3eb2a	1.6556141
32	0x3fbd9ddb	1.4813799
33	0x3fdf88fd	1.746368
34	0x3fc8c350	1.5684605
35	0x3fe110b3	1.7583221
36	0x3fcb08e3	1.5862087
37	0x3fdf9e34	1.7470155
38	0x3fe012e7	1.7505769
39	0x3fd8d19e	1.693897
40	0x3fe04ff0	1.7524395
41	0x3fd7c5e1	1.6857263
42	0x3fdd8abd	1.7307965
43	0x3fd4662e	1.6593683
44	0x3fde3fcf	1.7363223
45	0x3fe06c17	1.7532986
46	0x3fd1adab	1.6381124
47	0x3fd4538a	1.6587994
48	0x3fac1bf0	1.3446026
49	0x3fcfa1cf	1.6221255
50	0x3fd87142	1.6909564
51	0x3fd2a8de	1.6457784
52	0x3fc9e869	1.5774051
53	0x3fc5b3f6	1.5445545
54	0x3fe15154	1.7602944
55	0x3fbcffeb	1.47656
56	0x3fc7c9eb	1.5608495
57	0x3fd3439a	1.6505005
58	0x3fe1330e	1.7593706
59	0x3fcb1b4b	1.5867704
60	0x3fd3b0ed	1.6538368
61	0x3fce0e5a	1.609813
62	0x3fd52d2b	1.6654409
63	0x3fde7bcc	1.738153
64	0x3fd823b7	1.6885899
65	0x3fd1cf78	1.639144
66	0x3fd84e37	1.6898869
67	0x3fe0275c	1.7512012
68	0x3fdf95bb	1.7467569
69	0x3fd7a882	1.68483
70	0x3fe0a7b8	1.7551184
71	0x3fcb87a4	1.5900769
72	0x3fcb1b4b	1.5867704
73	0x3fdf8075	1.7461077
74	0x3fdd45b7	1.72869
75	0x3fd45cde	1.6590841
76	0x3fd7afde	1.6850545
77	0x3fd9ea8b	1.7024702
78	0x3fc3fb18	1.5311003
79	0x3fd0cfc2	1.6313403
80	0x3fc7e15b	1.5615648
81	0x3fdde664	1.7335935
82	0x3fdcb289	1.7241985
83	0x3fde31d8	1.7358961
84	0x3fe26569	1.7687198
85	0x3fb73a29	1.4314624
86	0x3fd1749e	1.6363714
87	0x3fd18b8d	1.6370713
88	0x3fde9bb1	1.7391263
89	0x3fd2fc3e	1.6483228
90	0x3fdc73de	1.722286
91	0x3fe23080	1.7671051
92	0x3fd95070	1.6977673
93	0x3fc6896d	1.5510689
94	0x3fde0c4e	1.7347505
95	0x3fe012e7	1.7505769
96	0x3fd55032	1.6665099
97	0x3fb78e4a	1.4340298
98	0x3fe1896f	1.7620066
99	0x3fd9be46	1.7011192
100	0x3fc7084d	1.5549408
101	0x3fd4dd1b	1.6629976
102	0x3fe09fd3	1.7548774
103	0x3fd674d9	1.6754409
104	0x3fc6a32f	1.551855
105	0x3fdde664	1.7335935
106	0x3fcdff94	1.6093621
107	0x3fd9ea8b	1.7024702
108	0x3fdb6df5	1.7142931
109	0x3fc63af4	1.5486741
110	0x3fd0e7cc	1.6320739
111	0x3fc8eec1	1.5697862
112	0x3fe12002	1.7587893
113	0x3fd8ecb1	1.6947232
114	0x3fd7afde	1.6850545
115	0x3fdd7c0e	1.7303483
116	0x3fc90443	1.5704426
117	0x3fccfa2a	1.6013844
118	0x3fc49492	1.535784
119	0x3fcdf0bb	1.608909
120	0x3fd7be8f	1.6855029
121	0xbfe2f4c0	-1.7730942
122	0x3fbd9ddb	1.4813799
123	0x3fdf0b6d	1.7425362
124	0x3fcb9962	1.5906184
125	0x3fba2e1f	1.4545325
126	0x3fd949dd	1.6975666
127	0x3fb9a47a	1.4503319
128	0x3fbe0311	1.4844686
129	0x3fd375b5	1.6520296
130	0x3fd4538a	1.6587994
131	0x3fc7b250	1.5601292
132	0x3fd18b8d	1.6370713
133	0x3fe2c639	1.7716743
134	0x3fe276e2	1.769253
135	0x3fdf6b0e	1.7454545
136	0x3fd59539	1.6686164
137	0x3fdc9dc3	1.7235645
138	0x3fdee398	1.7413206
139	0x3fc8ad5f	1.5677909
140	0x3fdee809	1.7414562
141	0x3fb9a47a	1.4503319
142	0x3fd1adab	1.6381124
143	0x3fe04ff0	1.7524395
144	0x3fcf5216	1.6196926
145	0x3fce0e5a	1.609813
146	0x3fe0de83	1.7567905
147	0x3fe00aae	1.7503259
148	0x3fd95d86	1.6981666
149	0x3fe23b22	1.7674296
150	0x3fba70cd	1.4565674
151	0x3fdf77e9	1.7458469
152	0x3fd87142	1.6909564
153	0x3fe05c09	1.7528087
154	0x3fe047db	1.7521929
155	0x3fc18fa3	1.512196
156	0x3fe01b19	1.750827
157	0x3fddc9b3	1.7327179
158	0x3fbbab0b	1.4661573
159	0x3fd8e5f0	1.6945171
160	0x3fdd7c0e	1.7303483
161	0x3fe123d3	1.7589058
162	0x3fd0161e	1.625675
163	0x3fbd9ddb	1.4813799
164	0x3fcf5f7e	1.6201017
165	0x3fd6132b	1.67246
166	0x3fd91b92	1.6961539
167	0x3fd086af	1.6291102
168	0x3fd91b92	1.6961539
169	0x3fdfdd2b	1.748937
170	0x3fc0a489	1.5050212
171	0x3fdbedc8	1.718194
172	0x3fe1ec63	1.7650265
173	0x3fd893f9	1.6920158
174	0x3fd4a6b5	1.6613375
175	0x3fe1fad5	1.7654673
176	0x3fdc73de	1.722286
177	0x3fdce5f3	1.7257675
178	0x3fd3bab2	1.654135
179	0x3fd65cab	1.674703
180	0x3fdbe850	1.7180271
181	0x3fc3391b	1.5251802
182	0x3fd65495	1.6744562
183	0x3fdc193b	1.71952
184	0x3fc86ab8	1.5657568
185	0x3fdbd25f	1.7173575
186	0x3fd4f7fd	1.663818
187	0x3fe1e524	1.7648053
188	0x3fdf6b0e	1.7454545
189	0x3fe043d1	1.7520696
190	0x3fd602a1	1.6719552
191	0x3fda785e	1.7067983
192	0x3fd12329	1.6338855
193	0x3fe23080	1.7671051
194	0x3fd9d7a4	1.7018933
195	0x3fcdc3d2	1.6075385
196	0x3fe26569	1.7687198
197	0x3fd54778	1.6662436
198	0x3fe1605e	1.7607534
199	0x3fcaab66	1.5833557
200	0x3fe1896f	1.7620066
201	0x3fd022ce	1.6260622
202	0x3fc49492	1.535784
203	0x3fd96a92	1.6985648
204	0x3fd151f1	1.6353132
205	0x3fe2c9a2	1.7717783
206	0x3fd10b8a	1.6331646
207	0x3fd6fad2	1.6795294
208	0x3fded1c0	1.7407761
209	0x3fdfc84f	1.7483004
210	0x3fd4b8ef	1.6618937
211	0x3fd32532	1.6495726
212	0x3fdef55a	1.7418625
213	0x3fdf1cff	1.7430724
214	0x3fd7475e	1.6818655
215	0x3fd90e3c	1.6957469
216	0x3fdceb0e	1.7259233
217	0x3fcd8701	1.6056825
218	0x3fd0dbcd	1.6317078
219	0x3fd8df2d	1.6943108
220	0x3fc57c68	1.5428591
221	0x3fe2c639	1.7716743
222	0x3fac1bf0	1.3446026
223	0x3fd478be	1.6599348
224	0x3fd76d0c	1.6830153
225	0x3fc88115	1.5664393
226	0x3fdb8a1f	1.7151526
227	0x3fdbbc4c	1.7166839
228	0x3fc6ef4f	1.5541781
229	0x3fe01b19	1.750827
230	0x3fc99737	1.5749272
231	0x3fda6019	1.7060577
232	0x3fe097e9	1.7546359
233	0x3fd9ddf3	1.7020859
234	0x3fddd811	1.7331563
235	0x3fda907b	1.7075342
236	0x3fd92f7c	1.6967616
237	0x3fbab224	1.4585614
238	0x3fda6630	1.7062435
239	0x3fda6630	1.7062435
240	0x3fdc1e9f	1.7196845
241	0x3fdd8fa0	1.7309456
242	0x3fc6ef4f	1.5541781
243	0x3fd8783c	1.6911693
244	0x3fda3b62	1.7049372
245	0x3fdc596f	1.7214793
246	0x3fdffe53	1.7499489
247	0x3fe18203	1.7617801
248	0x3fcca960	1.5989189
249	0x3fd6cc19	1.6781036
250	0x3fd8156f	1.6881541
251	0x3fd2f1eb	1.6480078
252	0x3fd0161e	1.625675
253	0x3fde929a	1.7388489
254	0x3fdfbbb8	1.7479162
255	0x3fc56048	1.5420008

model.feature_nns.3.model.1.weight f4 [1, 338]
0	0x3c6d8c8a	0.014498839
1	0x3c0ddee1	0.0086590955
2	0x3ba835de	0.0051333746
3	0xbc73a360	-0.014870495
4	0x3b70455d	0.0036662437
5	0xbc617066	-0.013759708
6	0x3c79d0a2	0.015247496
7	0xbc88365f	-0.016627489
8	0xbc8ab082	-0.016929869
9	0xbc7f0741	-0.015565694
10	0x3b2a55fc	0.0025991192
11	0x3c362cd2	0.011119084
12	0xbc76f151	-0.015072183
13	0xbc7452eb	-0.014912347
14	0xbc1bf0a6	-0.009517824
15	0x3c78f0d6	0.0151941385
16	0xbc224ce0	-0.009906024
17	0x3bc7b1ee	0.006094209
18	0x3b9331b8	0.004492011
19	0x3be71f60	0.0070533007
20	0x3b9b050f	0.0047308276
21	0xbc70298b	-0.014658342
22	0x3b053dde	0.0020331065
23	0xbc78c7b4	-0.015184332
24	0x3bdfa78e	0.006825394
25	0x3c70d2f3	0.014698732
26	0x3c86fd88	0.016478315
27	0xbb6e2e64	-0.003634357
28	0x3c6c15c5	0.014409487
29	0xbc437ca1	-0.011931569
30	0xbba79ea4	-0.005115347
31	0xbc289149	-0.010288545
32	0x3c7c34dc	0.015393462
33	0xbc89ed1e	-0.0168367
34	0x3be8a5be	0.007099836
35	0x3b8b17a4	0.0042447615
36	0x3c18a0fc	0.009315725
37	0xbc080de1	-0.00830409
38	0xbaa0851a	-0.0012246699
39	0x3b8b3925	0.0042487555
40	0x3c7187d1	0.014741854
41	0x3b814efd	0.0039461837
42	0x3b964b0d	0.0045865835
43	0x3c9b5adb	0.018964222
44	0x3b1a5a62	0.0023552408
45	0x3c184fee	0.0092964005
46	0x3c9528d6	0.018207949
47	0x3c58feb9	0.013244324
48	0xbc86af9d	-0.01644116
49	0xbac7a7b6	-0.0015232477
50	0xbc89ab96	-0.016805451
51	0x3bc13b9a	0.0058969976
52	0x3c7539de	0.01496741
53	0xba34d478	-0.00068981154
54	0x3baad895	0.005213807
55	0xbacba524	-0.0015536887
56	0x3c2cec18	0.010554336
57	0xbc8b91fc	-0.017037384
58	0x3961c810	0.00021532201
59	0xbbffd273	-0.00780707
60	0xbc7755c7	-0.0150961345
61	0xbc771950	-0.015081719
62	0x3c667388	0.014065631
63	0xbc6ba6c8	-0.0143830255
64	0xba88d46a	-0.0010439281
65	0x3b97dd9a	0.0046345713
66	0x3c7de862	0.015497299
67	0x3c124732	0.008928107
68	0x3c895d0f	0.016768007
69	0x3b5880cc	0.0033035753
70	0x3a719f28	0.00092171365
71	0x3bce7682	0.0063007483
72	0xbc643ed0	-0.013930991
73	0x3c8b0e1f	0.016974507
74	0x3bdc303d	0.0067196176
75	0x3c910a95	0.017705241
76	0x3b780ac2	0.003784821
77	0xbbb71549	-0.005587254
78	0xbc708f0e	-0.014682544
79	0xbaa68120	-0.0012703277
80	0xba902bf4	-0.0010999427
81	0x3c8bf4ae	0.017084446
82	0x3b8a255e	0.0042158803
83	0x3c97bfe4	0.018524118
84	0xbb636c1c	-0.003470189
85	0x3c89d3b0	0.016824573
86	0xbb30f78c	-0.0027003018
87	0xbc6b1b25	-0.0143497335
88	0x3aae4e47	0.0013298475
89	0xbc8bac40	-0.017049909
90	0x3b9030a7	0.004400331
91	0xba975654	-0.0011546114
92	0xbac3964c	-0.0014922111
93	0x3c996ece	0.018729594
94	0xbc777db4	-0.015105654
95	0xbc74e1b2	-0.014946388
96	0xbae56978	-0.0017502746
97	0x3be88215	0.007095585
98	0xbc44349e	-0.011975436
99	0x3c6ee5b6	0.014581135
100	0x3c38d184	0.011280421
101	0x3c98b25a	0.018639732
102	0x3c78b8c9	0.015180775
103	0x3c78bf8a	0.015182385
104	0xbacff70e	-0.0015866475
105	0x3a63db30	0.0008692024
106	0x3bffbc74	0.007804448
107	0x3c8ba0c7	0.017044438
108	0x3c647a44	0.013945166
109	0x3c8a94f9	0.016916739
110	0x3c88174b	0.01661267
111	0x3c809de5	0.01570029
112	0x3a3bf124	0.00071694166
113	0xbc6a8a4f	-0.014315202
114	0x3c95825e	0.01825064
115	0x3c8d077a	0.01721548
116	0xbc5d1ad6	-0.013495168
117	0x3c9c7d96	0.019102853
118	0xbc397d86	-0.011321431
119	0xba78a160	-0.0009484496
120	0xbb758b60	-0.0037467107
121	0xbc887617	-0.016657872
122	0xbc481f0e	-0.012214435
123	0xbc77ba9b	-0.015120174
124	0x3c28422b	0.010269682
125	0x3c8bce5d	0.017066175
126	0x3c7af5b3	0.015317368
127	0x3bad03b6	0.0052799834
128	0x3a934b5e	0.0011237671
129	0xbc688aca	-0.014193246
130	0x3c844a21	0.016148629
131	0x3ba53d46	0.0050427048
132	0xbc0ebb7c	-0.008711692
133	0xbb9c2dae	-0.0047661876
134	0xbc777f6c	-0.015106063
135	0x3c9b5aad	0.018964136
136	0xbc78dfe8	-0.015190102
137	0x3c7f400c	0.015579235
138	0x3ad2c470	0.0016080271
139	0x3c86ab2f	0.016439049
140	0xbc856c4c	-0.016286992
141	0xbc717820	-0.014738113
142	0x3b76b312	0.0037643355
143	0x3c717160	0.014736503
144	0x3c9c0bb6	0.019048553
145	0x3c8b25f6	0.016985875
146	0xbb50965c	-0.0031827902
147	0xb8a5ec80	-7.911865e-05
148	0x3c6f1165	0.0145915495
149	0x3b78d63a	0.0037969486
150	0x3c98d587	0.018656505
151	0x3ba6ad72	0.0050865943
152	0xbc74212f	-0.01490049
153	0x3c084264	0.00831661
154	0xbc5c7cfa	-0.013457531
155	0xbc78c1fe	-0.01518297
156	0xbc777ea1	-0.015105874
157	0xbb23a06c	-0.0024967445
158	0x3b19c69e	0.0023464332
159	0xbc579ed1	-0.013160423
160	0x3c7c14a2	0.015385779
161	0x3c3fb8f1	0.011701808
162	0x3c9c92f6	0.019113045
163	0x3c970936	0.01843701
164	0xb9ed1bd0	-0.00045224885
165	0x3b6e9a95	0.0036408056
166	0x3c8adc65	0.016950795
167	0x3b309d4c	0.0026949225
168	0x39acf938	0.0003299208
169	0x3bb82cef	0.005620591
170	0xbc8babda	-0.017049719
171	0xbc391b93	-0.011298078
172	0xbaaa4910	-0.0012991745
173	0xbba251f7	-0.0049536186
174	0xbc85ff41	-0.016357066
175	0xbc69f0b6	-0.014278581
176	0x3c8c3778	0.017116293
177	0x3c9b6cf6	0.018972855
178	0xbb6d4a53	-0.003620763
179	0x3ba796b7	0.005114402
180	0x3c7f17d2	0.015569644
181	0xbc3357d4	-0.010946233
182	0x3bd36bae	0.0064520454
183	0xbc2bf128	-0.010494508
184	0xbaa17b02	-0.0012319984
185	0x3c76c428	0.015061416
186	0x3c0020fa	0.007820362
187	0x3a492f24	0.0007674566
188	0x3aa95eac	0.0012921891
189	0xbb737298	-0.003714716
190	0x3c5e3d8c	0.013564479
191	0x3c824a92	0.015904699
192	0xbc13cc92	-0.009020941
193	0x3b8d8bf0	0.0043196604
194	0x3a604ce0	0.0008556377
195	0xbc4f02b4	-0.012634922
196	0xbb955211	-0.004556902
197	0x3b38da08	0.0028206129
198	0xbb3dc92c	-0.002895902
199	0x3c122f9a	0.008922482
200	0x3c045a11	0.008078114
201	0x3c1a196e	0.009405477
202	0xbafee801	-0.0019447805
203	0x3b3260f2	0.0027218428
204	0xbc6817a0	-0.014165789
205	0xbc59d6c4	-0.013295833
206	0xbc7804f0	-0.015137896
207	0x3c9b5ed0	0.018966109
208	0x3b30a05e	0.0026951055
209	0x3c55f02d	0.013057751
210	0x3afb4499	0.0019170224
211	0xbb9717b1	-0.0046109785
212	0xbc6fdacd	-0.0146395685
213	0xbb2b1c4f	-0.0026109403
214	0xbc6f871c	-0.014619615
215	0x3b89bf23	0.0042036935
216	0xbc5c3933	-0.013441372
217	0xbc83539c	-0.016031079
218	0x3c4ce5b1	0.012505935
219	0x3b898fa4	0.0041980315
220	0x3bc4227f	0.0059855576
221	0x3c858fea	0.016303975
222	0xbc6664b2	-0.014062094
223	0xbc88ceb5	-0.016700128
224	0xb9cf2038	-0.00039506122
225	0xb9a106d0	-0.0003071339
226	0x3bc049bd	0.0058681653
227	0xba5c7100	-0.00084091723
228	0x3c7cdd22	0.015433582
229	0xbc608435	-0.013703396
230	0x3c89125f	0.016732393
231	0xbc24b2ef	-0.010052427
232	0xbc7322a7	-0.014839805
233	0xbba9c28a	-0.0051806616
234	0x3c36ad82	0.011149766
235	0x3aacf0dc	0.001319434
236	0x3babcd30	0.005242966
237	0x3ac7551f	0.0015207863
238	0x3ba174b2	0.0049272412
239	0xbb074f3d	-0.0020646595
240	0x39b557f0	0.0003458853
241	0xbc776b9a	-0.015101338
242	0x3c74bce9	0.014937618
243	0x3c9a7e97	0.01885919
244	0x3c771020	0.015079528
245	0xbaacb160	-0.001317542
246	0x3bb22fae	0.005437813
247	0x3af5e549	0.0018760349
248	0xbb641b7a	-0.0034806416
249	0xbaf88b3c	-0.0018962394
250	0x3c00f057	0.0078698015
251	0x3c84d7a6	0.01621611
252	0x3ad957d5	0.0016581962
253	0x3c8e609b	0.01738005
254	0x3c95796e	0.018246379
255	0xbbace40f	-0.00527621
