GolfFeedback-poc/src/s3_NAM_model/output/BS/0/checkpoints/epoch=499-val_loss=0.7530.ckpt (torch, 48078 bytes, 24 tensors)

model.feature_nns.0.model.0.weights f4 [1, 244]
00000000: bec7 e03c 12b0 1d3d 99bd 163d fefd 163d
00000010: c7ed 1d3d a6dd fb3c 9971 1a3d f3ef 1d3d
00000020: cbee 0e3d f9f8 743c 97d0 583c 834d ef3c
00000030: 3d6e 133d af7d 183d f9e2 113d 9ed2 953c
00000040: 8157 023d ae73 163d acf7 113d 440a 0d3d
00000050: 3050 1c3d 40aa b83c b96f 083d 3b4b ce3c
00000060: 8287 5f3c 331a f13c efae ee3c 2a16 183d
00000070: 23d0 b03c 5f0f 0e3d 3c58 df3c 8c10 e53c
00000080: 6ff5 a53c c8dc 133d 5818 0f3d bc5a 033d
00000090: 8abf 883c 88b6 1d3d 48d4 043d 1a46 a53c
000000a0: c7e2 193d ff3a 5c3c 717f 123d a9b1 173d
000000b0: f82d 163d 1d3f 1c3d 693e d23c 378f 7f3c
000000c0: 6e81 1b3d f1be 0f3d d3a6 133d ad4a 133d
000000d0: e5ec e03c ea0d 173d 98a9 0f3d 3f02 113d
000000e0: 4416 df3c 425f cc3c 11e8 013d 5dbd a93c
000000f0: bcb8 033d 0e18 0a3d adba d53c 7171 013d
00000100: f23e 173d de4c a93c 33d2 103d 4afa 1a3d
00000110: 304b 173d 3803 ce3c bd4c 0f3d 2f13 0a3d
00000120: de9c fb3c fcbc 123d 1efa 0b3d 2aed d63c
00000130: 9a4b 1b3d 1e3f ee3c 9389 133d 2322 143d
00000140: c94a 173d 2bc2 fe3c ec5c ea3c 3fb2 153d
00000150: 46e5 1d3d 430e cb3c 4c6f ff3c 56db 1b3d
00000160: 9d25 0e3d 1de3 143d d35d 013d 47f8 153d
00000170: 36bf 0d3d 1567 c43c a7e9 1c3d f5c1 953c
00000180: 57de 183d 04ed d33c 4388 1d3d a1ce 133d
00000190: 682a 1e3d d2b6 1c3d 9d2a 0c3d d9ea 1c3d
000001a0: 1536 d23c e862 cf3c 7ebf aa3c c8fd dd3c
000001b0: a5d9 163d d491 153d fcf5 953c d20f b63c
000001c0: e6fc 183d 0102 1e3d 4ab2 173d c6d2 0d3d
000001d0: 63a5 f63c ee2e 0c3d 1e4e 193d e8c4 b03c
000001e0: d69d f03c b388 0b3d a0d3 5c3c 9c6f 073d
000001f0: ed45 0d3d 478e 103d de6d e83c ee66 173d
00000200: a0a0 8b3c c9ab 4e3c 7fd9 0d3d 7da4 163d
00000210: ff96 083d 4975 1a3d 3c46 153d 6fc6 173d
00000220: 58cd 023d 605c 193d 7211 be3c 29e6 e03c
00000230: 102e ea3c 5f6f 173d 2d6c 1c3d cf0f e03c
00000240: 7dda 163d 92a0 e23c e5c5 0f3d 558f 1a3d
00000250: 53c3 0f3d 0c91 063d 6325 083d c477 063d
00000260: 4d48 7c3c e585 0d3d 41c8 083d 4c8b 1e3d
00000270: d333 c33c 14d9 1d3d 1f45 1d3d 8185 9c3c
00000280: b2ab 013d 1f55 133d 74d5 133d fd97 f03c
00000290: 4948 d13c c026 eb3c 6fa0 f53c 89ad 123d
000002a0: 2b4e 063d 19b7 133d e5c9 023d 6a3f 0f3d
000002b0: fc2a 133d de90 b23c 8ae9 ee3c de03 4e3c
000002c0: 6dc7 f43c 5b29 c43c 4a8b 253c eb93 1d3d
000002d0: 601b f03c 9924 083d 1b5d d73c b230 0a3d
000002e0: 8f0e 8e3c fba0 013d e9ed 023d abdf 0c3d
000002f0: 5556 0a3d 7087 183d 2e30 083d 5f1f ee3c
00000300: 1a04 1e3d b8c6 013d b7ce 1c3d 27ed bd3c
00000310: 78a1 de3c 215e af3c 5c25 d63c fe5d 093d
00000320: 7863 1a3d 47c3 c23c 4603 113d 61b6 193d
00000330: 8379 1e3d 3340 113d 9f5e f13c 1631 a63c
00000340: 6490 0c3d 732a 163d a09e 0b3d 2c48 143d
00000350: afd5 1c3d 627c 043d b22f d03c 7b36 033d
00000360: 7964 f93c 0cd6 163d 2aa1 143d fc1f 073d
00000370: e8d2 153d 3413 d03b 3e5f cf3c 9f06 0a3d
00000380: 7a85 0e3d 059e 1b3d a18f 0a3d a900 d93c
00000390: 2ef4 003d 2f24 cf3c 7317 e93c a311 f83c
000003a0: 3968 173d 2799 1e3d 6b0d 0e3d 5db8 c43c
000003b0: 15e6 933c 393d f03c ff1a ba3c 9814 ce3c
000003c0: ebcd a33c d04d 0d3d a6b6 0b3d 955e 043d
0.027438994 0.03849799 0.03680191 0.03686332 0.03855684 0.030745339 0.03770599 0.03855891
0.0348957 0.014951938 0.013233325 0.029211765 0.035993803 0.037229236 0.03561685 0.018288907
0.03182173 0.036731414 0.03563659 0.03443362 0.03816241 0.022542119 0.033309672 0.025182357
0.013643147 0.029431438 0.02913615 0.037130512 0.021583622 0.034682628 0.027263753 0.027961992
0.020258633 0.036099225 0.034935325 0.032068953 0.016692895 0.038504153 0.03242901 0.020175029
0.037569787 0.0134418 0.03576607 0.037034664 0.036664933 0.038146127 0.025664525 0.01559811
0.03796523 0.035094205 0.036047768 0.03595989 0.02745671 0.036878504 0.035073847 0.035402533
0.027232297 0.024947766 0.031715456 0.020720178 0.0321586 0.033714347 0.02608999 0.031602327
0.036925264 0.020666536 0.03535671 0.03783635 0.03693694 0.02514802 0.034985293 0.0337097
0.030714449 0.03582476 0.034174077 0.026236136 0.037913896 0.029082831 0.036019873 0.036165368
0.036936555 0.031098446 0.028608762 0.03654694 0.03854873 0.024787074 0.031181 0.038050972
0.03470384 0.036349405 0.03158362 0.03661373 0.03460618 0.023974935 0.038308766 0.018280962
0.037321415 0.025869854 0.038460027 0.03608573 0.03861466 0.03826029 0.034220327 0.038309906
0.025660554 0.025315717 0.020843264 0.027098551 0.036828656 0.036516026 0.018305771 0.02222434
0.037350558 0.03857613 0.037035264 0.034624837 0.03010816 0.034224443 0.037428014 0.021578267
0.029372137 0.034065913 0.01347819 0.033065423 0.034490515 0.035291936 0.028372701 0.036963396
0.017044365 0.012614199 0.03463125 0.036777962 0.033347126 0.037709508 0.036443934 0.037054475
0.031934112 0.03744161 0.023201678 0.027453499 0.028586417 0.036971446 0.038189102 0.027351288
0.03682946 0.027664457 0.035100836 0.03773435 0.035098385 0.03285317 0.03323878 0.03282906
0.015398097 0.03455152 0.033394102 0.038707063 0.023828423 0.0385371 0.038395997 0.019106628
0.031657882 0.03596985 0.036092237 0.029369349 0.025547164 0.028705 0.029983727 0.035810027
0.03278939 0.036063287 0.031930823 0.034972586 0.035929665 0.021797594 0.029164094 0.012574164
0.02988025 0.023945501 0.01010401 0.038471144 0.029309928 0.033238027 0.026289513 0.033737846
0.017340926 0.031647664 0.03196517 0.034392994 0.03377374 0.03723854 0.033249073 0.029067693
0.03857813 0.031683654 0.038283076 0.023184372 0.027176604 0.021407189 0.026140861 0.033536904
0.037692517 0.023774756 0.035403512 0.037527446 0.0386901 0.035461616 0.029464064 0.020287078
0.03431739 0.036661576 0.034086823 0.03620164 0.038289722 0.032345183 0.025413368 0.03203438
0.030443417 0.036825225 0.03628651 0.032989487 0.03657809 0.0063499454 0.02531397 0.03369772
0.034795262 0.037992496 0.03382838 0.026489573 0.031482868 0.025285808 0.028453564 0.030281847
0.03696463 0.038720276 0.034680765 0.024013693 0.018054048 0.029326068 0.02271795 0.025156304
0.01999565 0.034498036 0.034109734 0.032316763

model.feature_nns.0.model.1.weight f4 [1, 244]
00000000: 3210 17b8 11d2 6a39 ff4c 003a 941b 5a3a
00000010: 1ef5 483a a8c5 d3b9 d8f1 7db9 79fa eab8
00000020: ea5f 983a 8ad7 7d3a 1f9e 9a39 ad45 8f3a
00000030: fe04 6539 bf83 003a bac1 32ba 8d66 a438
00000040: ecb1 ba38 7b6d 713a 7afa cc39 d635 d139
00000050: 41ae 3a3a 8bea 133a be91 18b9 2b3a 7d39
00000060: cc29 4d3a 524b c439 99e2 8539 5541 3739
00000070: 572d bf39 bf1d 933a e8f9 593a 238f 0d3a
00000080: ccab 63ba 22ab a53a a606 9839 9183 003a
00000090: da2b 2db9 5035 783a dbd6 5239 60e6 483a
000000a0: 011a 273a c967 b2b9 837e 8639 d356 0b39
000000b0: 63c5 1c3a ca8a 053a 5d5b b437 4fe6 1c3a
000000c0: 9ed6 da39 e173 b639 19cd fa39 dcba 8239
000000d0: 6e11 1ab6 1411 7c3a 840a 0e39 9b1f 5b3a
000000e0: 9860 653a c025 8b3a 7d52 8b3a 5986 c1b9
000000f0: 4ab7 b639 1364 5f38 9a99 8939 6ea0 3a3a
00000100: 0276 963a a266 a93a bbe1 9cb9 75c3 f239
00000110: 3839 dd39 1eca c13a 1727 8a3a 1dc7 c3b9
00000120: 9b2f 4cb9 5bf6 963a 8576 5e3a 54a5 d239
00000130: 32b0 3d3a 8efa 693a 5e42 3039 726b b238
00000140: 732e 913a 87e5 273a dace 443a 679c f539
00000150: 4cf7 793a bb2a f038 c1b3 d438 ac7a 213a
00000160: b6e1 4fb8 f23e cab9 bc3d 0aba e835 533a
00000170: af71 4b3a 8eeb 5db8 677a e838 c417 ba3a
00000180: 23d2 fb39 8c47 9639 8db3 d339 57e2 763a
00000190: 0f36 af3a 3105 9a39 d9ec 833a fa57 923a
000001a0: 5df5 90b8 82cc 963a 7e25 5c3a 80a7 8fb7
000001b0: 3491 b53a 506a 2a39 c288 bcb9 58f7 953a
000001c0: 97a2 8f3a b647 8439 8ea6 df3a 0d39 2239
000001d0: 9ffc 1239 bce9 d239 92a4 a33a ff30 f1b8
000001e0: 3393 823a 6084 1f39 64cd e9b9 3516 c037
000001f0: bb18 a43a 2fab 173a 708f 3d39 6d57 483a
00000200: bbdf e639 96c5 083a 57e9 a239 29c5 2539
00000210: d11b 9f39 813e b83a 2656 ab39 902b 4b3a
00000220: 6918 cb3a 47cc 02ba d57f 0d39 751d 4039
00000230: b13a 6a39 b2e9 0eb8 d529 1db9 076f 583a
00000240: d816 7f39 e4e2 9639 8007 6c3a 4209 e539
00000250: ddb0 723a ef80 8e38 632e 313a 3021 313a
00000260: 69b5 b439 7adc 8e39 cc86 953a 97dc f338
00000270: 6f59 2a3a e118 1a3a a2ef ad39 ddc2 da39
00000280: b9e4 943a 3aad 283a 4180 7bb5 f7f4 33b9
00000290: 8f09 00b9 e618 143a e44e b33a a8d5 5339
000002a0: cdc7 c53a 38f8 693a a978 6538 4b03 5c3a
000002b0: fa0e 3939 3e82 efb8 5c54 d739 5481 8f3a
000002c0: cff9 57ba 5aff 4d39 9b33 e838 8098 2b3a
000002d0: 4e7f ed39 ca6c 2c38 ed87 ac3a 027b 713a
000002e0: 32f8 083a 9024 433a d3d1 7d3a 85e0 2ab9
000002f0: 5f50 053a f376 673a 2907 bb39 357f fab9
00000300: 8de2 1039 88cf 8f3a b5dc 64b9 43db 533a
00000310: 3baa 0d3a 0d8f 773a 993c 2539 0a37 8ab9
00000320: 5fc8 c838 de56 203a 8937 653a fc2a 8b39
00000330: 96e3 903a cca0 69b8 f84e 8e3a b982 3d3a
00000340: cd44 933a 709b e839 f172 733a c5f5 143a
00000350: d36d 1e3a c8e3 8bb8 7578 2e3a 09e1 b73a
00000360: cf26 5e39 5e1d 2d3a 371f 09ba 14ed 683a
00000370: c778 7539 e1d5 153a 7ee5 a139 cf6e 393a
00000380: 18f9 9a39 5ef8 d039 7854 183a 4cb9 0b3a
00000390: e072 823a 134f 0eba 5c1c 5f3a 03f5 a13a
000003a0: c83e 143a b108 953a 86a9 b1b9 26e8 7a3a
000003b0: 10a1 91b8 d25a 4f3a b55f 3139 3b84 ea39
000003c0: faef b13a 1c0a 2139 dcb0 043a 6835 8d3a
-3.601629e-05 0.00022394235 0.0004894286 0.00083201495 0.000766592 -0.00040392322 -0.00024218054 -0.00011204644
0.0011625264 0.0009683302 0.00029490978 0.0010930799 0.00021841002 0.0004902444 -0.00068190286 7.839231e-05
8.902312e-05 0.0009209734 0.00039096532 0.00039903697 0.0007121303 0.00056425546 -0.00014550143 0.0002414963
0.00078263576 0.0003744015 0.00025536565 0.00017476578 0.0003646414 0.0011224075 0.0008315132 0.0005400052
-0.00086849625 0.0012639503 0.00028996653 0.00049024174 -0.00016514902 0.00094683934 0.000201072 0.0007663723
0.00063744193 -0.00034028132 0.0002565273 0.00013288418 0.00059803406 0.00050942285 2.1500216e-05 0.00059852464
0.00041740102 0.00034800082 0.00047836525 0.00024934753 -2.2957934e-06 0.0009615582 0.00013546093 0.00083588966
0.00087500503 0.0010616109 0.0010629442 -0.00036911925 0.00034850306 5.3260545e-05 0.00026245118 0.0007119243
0.0011479261 0.0012924264 -0.0002992282 0.00046303464 0.00042195036 0.0014784967 0.0010540214 -0.0003734165
-0.0001947269 0.0011517511 0.0008486289 0.000401775 0.0007236033 0.000892558 0.00016809392 8.507715e-05
0.0011076465 0.00064047467 0.000750763 0.0004684657 0.00095354463 0.00011452051 0.000101424295 0.0006159942
-4.9562856e-05 -0.0003857534 -0.00052734814 0.0008057044 0.00077607756 -5.2909883e-05 0.00011085421 0.0014197757
0.00048031015 0.00028663536 0.00040378832 0.00094178825 0.0013367551 0.00029377037 0.0010065093 0.0011165135
-6.9121576e-05 0.001150504 0.0008397921 -1.7124927e-05 0.0013852478 0.00016252068 -0.00035960047 0.0011441512
0.001095849 0.0002523043 0.0017063187 0.00015470777 0.00014017754 0.00040228467 0.0012484959 -0.00011500902
0.0009962082 0.00015212735 -0.0004459425 2.2898525e-05 0.0012519577 0.0005785701 0.00018077879 0.0007642422
0.0004403571 0.0005217431 0.000310729 0.00015809074 0.00030347568 0.0014056714 0.00032679847 0.0007750327
0.0015494946 -0.0004989546 0.00013494429 0.0001832152 0.00022337843 -3.4073084e-05 -0.0001498827 0.00082562905
0.00024327205 0.00028779276 0.0009003803 0.0004368518 0.0009257922 6.7951034e-05 0.00067589263 0.00067569595
0.00034467436 0.00027248618 0.001140797 0.00011628231 0.0006498312 0.0005878341 0.00033175672 0.00041725385
0.0011359669 0.0006434504 -9.369142e-07 -0.00017162027 -0.00012210592 0.0005649462 0.0013680127 0.00020202121
0.0015089452 0.0008925232 5.4710228e-05 0.00083928247 0.00017648554 -0.000114206676 0.00041070848 0.0010948577
-0.00082388235 0.0001964545 0.00011072234 0.00065458566 0.00045299012 4.1109313e-05 0.0013163068 0.000921175
0.0005224972 0.0007444108 0.00096824503 -0.00016296103 0.00050855236 0.00088296755 0.00035672754 -0.00047778492
0.00013817307 0.0010971883 -0.00021825994 0.0008081684 0.00054040895 0.00094436185 0.000157582 -0.00026362418
9.574065e-05 0.000611646 0.0008743932 0.00026544172 0.0011054154 -5.5701283e-05 0.0010857275 0.0007229257
0.0011235714 0.00044366298 0.0009286842 0.00056823745 0.0006043587 -6.670464e-05 0.0006655523 0.0014028858
0.00021186027 0.00066038023 -0.00052307866 0.0008885425 0.00023410014 0.00057157694 0.00030879298 0.00070737017
0.00029558758 0.000398579 0.00058109267 0.00053300406 0.0009952448 -0.0005428653 0.0008511001 0.0012356344
0.0005655107 0.0011370388 -0.00033886376 0.0009571336 -6.944139e-05 0.00079099566 0.00016915689 0.00044730477
0.0013575547 0.00015357923 0.00050617545 0.0010773363

model.feature_nns.1.model.0.weights f4 [1, 112]
00000000: 30bd 0a3d fa5c 1c3d 97f5 fd3c 3e23 113d
00000010: 36bd 0c3d 1669 193d aeab de3c f0d0 113d
00000020: 3753 173d 53d5 fb3c a3e7 173d 15a0 063d
00000030: 459c 1a3d 87a9 f33c f5d3 173d caad 1d3d
00000040: ba00 1b3d cac6 163d e43e 1d3d 9b56 083d
00000050: 0b25 1d3d cc39 1c3d 935e fb3c da35 183d
00000060: 53d5 fb3c 62e1 c33c de89 963c dced a23c
00000070: a62b 0f3d f699 1b3d 4fca 0c3d 0d05 183d
00000080: c192 b43c 6c91 083d f4da 163d ca4d ed3c
00000090: 21f4 133d aef4 e73c da12 1b3d 5164 d43c
000000a0: 63f5 143d 95c0 fc3c 410d 133d 7616 1c3d
000000b0: 17a4 f93c b18e 613c 1115 053d 6b2f 433c
000000c0: f284 173d eacc 0d3d b2c1 073d 39b4 fe3c
000000d0: fc31 023d 1037 1b3d 17bb 003d 0e0a 193d
000000e0: 3429 b13c 9dd0 833c 5ffb d23c da7b 193d
000000f0: 464b fc3c 6b8c f13c d1ff 0d3d 3f77 1c3d
00000100: 7314 e03c c80f ee3c 57ca 0f3d bd49 153d
00000110: 186e 0c3d e67e 9a3c 1ba6 b23c df42 063d
00000120: fcb9 113d 186e 0c3d d6fd ac3c ffa2 113d
00000130: 7465 053d c00b 113d a3c3 cf3c ee6f ee3c
00000140: 8567 033d 9b56 083d d2a1 103d 3629 e83c
00000150: a62b 0f3d 8f42 163d 12dd 093d 4472 043d
00000160: 80ee 1a3d 459c 1a3d 1d40 1b3d 252d eb3c
00000170: 0def 163d b1ad 103d cc65 133d 7b5a 103d
00000180: e971 003d b415 0a3d 49fb 173d 8356 bf3c
00000190: 6380 7d3c 926b c73c 8775 053d 30d4 f03c
000001a0: 7a5d 113d 303f 153d aab5 143d 3773 0d3d
000001b0: 12dd 093d 36e8 de3c d595 0c3d d16a 143d
0.03387183 0.038174607 0.031000895 0.035434 0.034360133 0.037453733 0.027181473 0.03559965
0.036944594 0.03074137 0.03708614 0.03286751 0.037746686 0.029743923 0.037067372 0.038495816
0.03784249 0.036810674 0.038390055 0.03328572 0.038365405 0.038141057 0.030684745 0.03716073
0.03074137 0.023911182 0.018376287 0.01988881 0.034953736 0.037988625 0.034372624 0.03711419
0.022042634 0.03334181 0.036829904 0.028967757 0.03612149 0.028314915 0.037859775 0.02592674
0.03636683 0.030853549 0.03590131 0.038107358 0.030473752 0.01376693 0.032490794 0.011913161
0.03699202 0.03461925 0.033143707 0.031091796 0.03178595 0.03789431 0.031428423 0.037363105
0.021626092 0.016090686 0.025754629 0.03747163 0.030797612 0.029485902 0.034667794 0.03819966
0.027353501 0.02906026 0.035105076 0.036447275 0.03428468 0.018859338 0.02180772 0.032778617
0.03557776 0.03428468 0.021117132 0.035555836 0.032567456 0.035411596 0.025361842 0.029106107
0.032081146 0.03328572 0.035310574 0.028339963 0.034953736 0.03668457 0.033658095 0.032335535
0.037825108 0.037746686 0.03790294 0.02870805 0.03684907 0.035321895 0.035985753 0.03524254
0.031358633 0.033712104 0.03710488 0.023356682 0.015472504 0.024343286 0.032582786 0.029398054
0.035489537 0.036437213 0.03630606 0.034533706 0.033658095 0.027210336 0.03432258 0.03623468

model.feature_nns.1.model.1.weight f4 [1, 112]
00000000: 8105 0dba 6c20 10ba b092 24ba cfa5 7fba
00000010: 98d1 2bba f0d1 b4ba 8ff7 89b7 de85 adb9
00000020: f817 b0ba baa4 8bba b0c9 b4b9 24df 2bba
00000030: 9905 2aba 237d 1ab9 9df9 a1ba 41e0 6cb9
00000040: 9715 1eba 8e66 3fba a248 04ba 9dad 4cba
00000050: 9e67 95b8 ebbf b2ba 1d8c 52ba 9c06 09ba
00000060: c055 a7b9 ff6f 8dba b7f8 bbba 4be0 16b9
00000070: a676 8238 4784 40ba 5b41 0eba 53e8 c5b9
00000080: 7021 47b8 5a50 14b9 5bc9 10ba 2c56 cbb9
00000090: 54c0 79ba acf6 dfb9 c095 53ba 1709 07ba
000000a0: e478 0eba 6198 58ba da39 a7ba e078 80b9
000000b0: 088e 18ba 1db1 28b9 2875 31b9 4d56 21ba
000000c0: 06e7 43ba 496f 71b9 a225 32ba d85a b5b9
000000d0: 7463 31ba edbd 6eba 585a 8bba dc2e 03b8
000000e0: 77c8 45ba 01e8 89ba 36f2 c4ba 003f 0aba
000000f0: 15d5 09ba bf24 68b8 44e2 2fba 5879 28ba
00000100: 9db6 07ba 76ef acba 3774 79ba dfd1 76ba
00000110: 87b2 21ba e821 94ba dcde 61ba 6a82 87ba
00000120: 295b 24ba edc0 36ba a823 a8ba 3162 e3b9
00000130: 8c9b 51ba 03a2 64ba 7edd 2bba c487 4db9
00000140: acde 21ba f1ab 6dba 6604 34ba b40a 7dba
00000150: 6c25 26ba b15c 88ba 9427 70ba b30e 07ba
00000160: 6395 3bba eba2 fcb9 02ca 95ba 7c6b 6dba
00000170: 14cd 84ba 93e5 a9b9 ae1c 84ba 3fc5 54b9
00000180: b2b1 3fba 6955 10b9 17fb 8bba 5ec6 1bba
00000190: b355 a9ba c586 60b9 7778 55ba 12d1 64ba
000001a0: 7ecf 3fba 4083 38ba a4f1 a9ba 8644 6dba
000001b0: 08ec 86ba 5022 e2b9 b2a5 91ba 687b 56ba
-0.0005379543 -0.00054979953 -0.00062779617 -0.00097521854 -0.0006554364 -0.0013795476 -1.6446951e-05 -0.0003309687
-0.0013434878 -0.0010653951 -0.00034482544 -0.0006556383 -0.00064858195 -0.00014733202 -0.0012357716 -0.00022590255
-0.0006030439 -0.00073013536 -0.00050462235 -0.0007807853 -7.124174e-05 -0.0013637518 -0.0008031743 -0.000522712
-0.0003191661 -0.0010790824 -0.001434109 -0.0001438867 6.220983e-05 -0.00073439296 -0.0005426609 -0.00037747863
-4.747644e-05 -0.00014144313 -0.00055231684 -0.0003878338 -0.00095272553 -0.0004271766 -0.0008071326 -0.0005151196
-0.0005434884 -0.00082624523 -0.001275833 -0.0002450412 -0.0005819504 -0.00016087708 -0.0001692368 -0.00061545224
-0.0007473085 -0.00023025008 -0.0006795769 -0.00034590694 -0.0006766834 -0.00091072806 -0.0010631783 -3.1276475e-05
-0.0007544825 -0.0010521413 -0.0015025798 -0.000527367 -0.0005257887 -5.5347333e-05 -0.00067094364 -0.0006426773
-0.0005177053 -0.0013193924 -0.00095159136 -0.00094154285 -0.0006168265 -0.0011301609 -0.00086162775 -0.0010338549
-0.00062696874 -0.0006971497 -0.0012828009 -0.00043369972 -0.00079958956 -0.00087216514 -0.0006556137 -0.000196009
-0.00061748433 -0.0009066454 -0.00068671105 -0.0009652779 -0.0006337974 -0.0010403601 -0.0009161171 -0.00051520317
-0.0007155744 -0.0004818657 -0.0011428001 -0.0009056849 -0.0010131919 -0.00032405238 -0.0010079348 -0.00020291375
-0.00073125504 -0.00013764728 -0.0010679689 -0.000594234 -0.0012919217 -0.0002141251 -0.0008143256 -0.00087286637
-0.00073169905 -0.0007038601 -0.0012965691 -0.00090510433 -0.0010293731 -0.00043131644 -0.0011112003 -0.0008181841

model.feature_nns.2.model.0.weights f4 [1, 274]
00000000: 8407 0a3d 581f 1c3d 39e0 143d edb1 a63c
00000010: 84fe 0c3d 6979 093d 65fa 0e3d 8cb2 163d
00000020: 5922 183d 138b e03c 4c49 173d 4080 113d
00000030: b2c1 073d 0100 153d 2b8d 183d b10d cc3c
00000040: 138b e03c 2669 153d f890 1b3d eaa5 f03c
00000050: 3071 d83c c3c8 aa3c 0eae f83c f8c4 053d
00000060: be24 df3c c1b6 013d bee0 ff3c c003 0c3d
00000070: e7d0 163d 1e1d 193d 6d23 133d 8d97 ae3c
00000080: d391 133d b977 0a3d a1ae 1a3d 1db5 053d
00000090: 4fca 0c3d de22 b33c 26af ed3c d23a dd3c
000000a0: 0ea7 d73c 73e4 0c3d 78e7 fc3c 7bec 193d
000000b0: 89f1 0c3d ac87 ad3c 5876 073d e072 c93c
000000c0: 4cc3 c73c 8025 ff3c 23dd 033d df13 063d
000000d0: e7f6 c43c e072 c93c 4071 0e3d be24 df3c
000000e0: a308 e33c 811d c93c e9e5 053c bc61 043d
000000f0: a475 163d ee3f ee3c f6a4 013d 6b8c f13c
00000100: 4235 053d 6602 943c 6380 7d3c 7e76 cf3c
00000110: 7465 053d 86ab d43c 65fa 0e3d bee0 ff3c
00000120: fe24 1b3d b5e0 123d 36d5 0e3d 698b f53c
00000130: 8b93 9f3c e71e b93c 8540 9b3c 95ac 173d
00000140: c80f ee3c 6432 0e3d a1f7 1a3d fe24 1b3d
00000150: 7b5a 103d 633f 173d 0de5 a73c 8772 fc3c
00000160: 59a9 b13c 4c49 173d 77cc 033d c9b7 1a3d
00000170: e22e 113d baa7 133d 4530 233c 70d3 133d
00000180: aab5 143d f1a1 313c 9825 c33c 3ff5 f93c
00000190: 3ea5 053d 3b85 193d 64a0 cd3c 97c2 3d3c
000001a0: 3aba f13c d38c f63c 7407 c63c 134b ff3c
000001b0: 7c4e 123d ce8e 193d 138b e03c c7eb 013d
000001c0: 9596 e23c e072 c93c 230b 1d3d 838a f73c
000001d0: cc59 813c d37b 133d bee0 ff3c b362 ea3c
000001e0: 89ea e63c 0858 ab3c 5164 d43c 980c 4d3c
000001f0: ad75 143d c87f 163d c3ef cd3c b01e 103d
00000200: e43e 1d3d ec6e e53c 3523 933c 9178 893c
00000210: 53d5 fb3c d8df 1c3d 0c96 ff3c a445 1e3d
00000220: e11b 1b3d ffa2 113d ec8c 0d3d 1c04 063d
00000230: 6566 103d 28a8 b03c d337 aa3c c82b 0c3d
00000240: fe6f f23c 2929 cf3c 134b ff3c f4da 163d
00000250: 58bd 183d d391 133d c169 0a3d a308 e33c
00000260: 03fa 1d3d e804 163d f2d9 fe3c 0174 083d
00000270: a8af 063d 3093 013d 84e8 1c3d 8f42 163d
00000280: 6b88 1e3d 4bcd 003d dc4d 0a3d ffa2 113d
00000290: 5e50 d63c bc7a 1d3d cab4 e63c 576e fa3c
000002a0: 60fd 013d 3093 013d e8a8 003d 367b f93c
000002b0: 05e5 163d d6dc 103d 68b6 173d ca8b 113d
000002c0: 3ecb b73c f841 fe3c ec8c 0d3d 4c44 d33c
000002d0: 198d ce3c d28b 1d3d 0a1b 1a3d d99f ee3c
000002e0: 98a0 183d 5e50 d63c 69e6 0d3d afa7 153d
000002f0: 302a 153d 269a 033d 2093 1a3d 6041 e33c
00000300: 3822 723c c5cf 1d3d 1b56 193d ce88 1c3d
00000310: b695 143d 72b9 103d f386 123d 0508 f83c
00000320: 7a44 bb3c b677 023d 644c a73c 3186 f43c
00000330: 9a06 103d d7fc fb3c 9596 e23c 71b7 f63c
00000340: 930c f63c a1ae 1a3d 100b d63c 564e 093d
00000350: e23f 093d 78e7 fc3c 833f 0d3d 6d6f 1e3d
00000360: a05c d03c a05c d03c ef92 8c3c a414 093d
00000370: 791d af3c 96a1 193d 410d 133d 7c5a e43c
00000380: 303f 153d de22 b33c ad75 143d 2452 1b3d
00000390: 10a7 c13c a0d0 183d 21ad c53c fe22 093d
000003a0: 8c58 1d3d 6f8e b93c fcaa 193d 21da 013d
000003b0: 6825 be3c be5e 153d bd80 1a3d ce09 143d
000003c0: ce88 1c3d 5ab4 f73c 3867 173d b011 a93c
000003d0: 931a c83c b55c 093d b5e0 123d 22f9 163d
000003e0: 8fdb 153d 72da d63c bb99 0d3d ea95 093d
000003f0: d3d8 df3c 811d c93c a453 0c3d de70 133d
0.033698574 0.03811583 0.036346648 0.020348513 0.034422413 0.03356305 0.034906764 0.03679137
0.03714213 0.027410066 0.036935136 0.0355227 0.033143707 0.036376957 0.037244003 0.024908872
0.027410066 0.03647723 0.03798005 0.029375989 0.02642116 0.020847684 0.030356433 0.032658547
0.0272392 0.03166843 0.031235095 0.034183264 0.03682032 0.037381284 0.035922457 0.0213125
0.03602774 0.033805583 0.037764195 0.032643426 0.034372624 0.021867212 0.029014181 0.027005587
0.026324775 0.034397554 0.030872092 0.03757904 0.034410033 0.021182857 0.033071846 0.02459091
0.024385117 0.031145811 0.032193314 0.032733794 0.024043513 0.02459091 0.034775972 0.0272392
0.02771408 0.024550201 0.008172491 0.03231977 0.036733285 0.029083218 0.03165146 0.029485902
0.032521494 0.01806755 0.015472504 0.025325056 0.032567456 0.025960695 0.034906764 0.031235095
0.037877075 0.03585883 0.034871303 0.029973703 0.019479534 0.022597743 0.018951664 0.03702982
0.02906026 0.034716025 0.037833814 0.037877075 0.03524254 0.036925685 0.020494962 0.03081633
0.021687197 0.036935136 0.032177415 0.037772927 0.0354451 0.03604863 0.009960239 0.036090314
0.03630606 0.0108418325 0.023821637 0.03051245 0.03262829 0.037480574 0.025100894 0.011582038
0.029507745 0.030096447 0.024173476 0.031163728 0.03571938 0.037489705 0.027410066 0.031718995
0.027659694 0.02459091 0.0383407 0.030217415 0.015789889 0.03600676 0.031235095 0.028611517
0.028188007 0.020916 0.02592674 0.01251521 0.036245037 0.036742955 0.025138741 0.035185516
0.038390055 0.028006993 0.017961124 0.016781123 0.03074137 0.03829941 0.031199478 0.038640633
0.037868384 0.035555836 0.03455822 0.032718763 0.0352539 0.021564558 0.020778572 0.03422144
0.029594418 0.025288181 0.031163728 0.036829904 0.037289947 0.03602774 0.03379226 0.02771408
0.038568508 0.036625773 0.031109784 0.033313755 0.032882363 0.03163451 0.03830768 0.03668457
0.038704317 0.031445783 0.03376566 0.035555836 0.026161369 0.038447127 0.028162379 0.030570192
0.031735778 0.03163451 0.03141108 0.03045426 0.036839504 0.035366856 0.03703919 0.035533704
0.02243578 0.031037316 0.03455822 0.025789402 0.025213765 0.03846342 0.037623443 0.029128956
0.03726253 0.026161369 0.034643564 0.03653687 0.036417186 0.03212943 0.037737966 0.027741134
0.014778666 0.038528223 0.037435632 0.038216405 0.036275588 0.035333104 0.03577323 0.030277262
0.0228598 0.031852446 0.020422168 0.029849144 0.035162546 0.030760212 0.027659694 0.030116769
0.030035293 0.037764195 0.026128322 0.033521973 0.03350819 0.030872092 0.034484398 0.038680483
0.025434792 0.025434792 0.017159907 0.03346695 0.021376358 0.037507616 0.03590131 0.027875178
0.036437213 0.021867212 0.036245037 0.037920132 0.023639232 0.037308335 0.024130406 0.033480637
0.038414523 0.022650925 0.03751658 0.031702165 0.023211196 0.036467306 0.03772043 0.036142163
0.038216405 0.030237366 0.03696367 0.020638317 0.024426734 0.033535678 0.03585883 0.036858685
0.03658634 0.02622721 0.034570437 0.033590235 0.02732507 0.024550201 0.034259453 0.03599631

model.feature_nns.2.model.1.weight f4 [1, 274]
00000000: 6f56 6cb9 409c b7b9 094e 8dba 7381 7db9
00000010: 474b 8bb9 9d69 d1b9 17ad b7b9 a8e1 ebb9
00000020: 9393 25ba d52a a1b9 0c1e 65ba 1a6a c2b9
00000030: 8efc 56ba 9084 bfb9 caaf c2b7 732c 3038
00000040: eecb 99b9 3d81 c837 8545 9238 2611 19b9
00000050: fc38 04ba 9998 dbb9 efcf 31ba 547c fab9
00000060: 9530 20ba efbe 23b9 7f72 08ba ab07 23ba
00000070: 147b a7b9 bc6d 76b9 f45a 02ba 2467 1ab9
00000080: 26e1 08ba a679 69ba 92a0 2aba c2c5 f7b9
00000090: f9b0 e0b9 f3d4 03ba e838 beb9 7a8b 80b9
000000a0: a71d ccb9 3293 acb9 75d2 ecb9 821d bdb9
000000b0: bb6c ecb9 d797 70ba 8d03 b4b9 540d b9b9
000000c0: d7f8 84ba 1dd5 f4b9 f04f c1b9 44d8 41ba
000000d0: 3a34 03ba 8c28 26ba 9416 4eb9 5e00 46ba
000000e0: d8de 87ba 25b9 73ba d8cb 99b9 7cd2 efb9
000000f0: d3d6 13ba b14e a5b9 c673 30ba 33ac 44ba
00000100: b744 16ba 3318 d7b9 e69f bbb9 c5fd fab9
00000110: db74 94b8 3349 0eba 2005 6537 5207 93b9
00000120: 92e9 07ba e86f 24ba 2014 17ba 9922 0bba
00000130: acb1 c7b9 3408 edb6 352b 06b9 7d48 37ba
00000140: 0b43 a7b9 d6e8 4bba 3d22 dcb9 cb3d c7b8
00000150: eb15 adb9 e1b7 0639 9481 34ba f93d 18ba
00000160: c260 21ba e7e7 ecb9 802c 3cb9 131e 2138
00000170: fc1a afb8 19f5 cbb9 3cde 04ba 9470 beb9
00000180: 7ab2 8ab9 74ea 62b9 8a5f 8836 6621 0cba
00000190: b3fa fdb9 e16c 87b9 3e8b 87ba 5906 1fba
000001a0: 9cdf 02ba 7f7f 1aba 4137 80b9 c53a 5bba
000001b0: 8e14 86ba d4cf 70b9 31c5 3939 8b91 f2b9
000001c0: 6712 c4b9 7bf0 75b9 1472 3eba 62b1 ddb9
000001d0: f52e 45b9 88ca 2e38 d195 8236 27f5 82b8
000001e0: ad96 e1b9 19c4 81ba ef76 1aba 8aaf 41b9
000001f0: 2779 81b9 4b4e 28ba 0f77 ffb9 65dc 4fba
00000200: 8ee4 75b8 828e a3b9 e4be 09ba cc32 92ba
00000210: 2c58 07b9 052f 31b9 3ac2 b6b9 f615 14ba
00000220: f3d4 fbb8 0b9f 17ba ac68 97b9 fa96 bbb9
00000230: 4dd2 3bba fa98 59ba 1595 71ba 496f 37ba
00000240: eebd a7b9 d7d5 0eba 0682 7eba f68c 3f39
00000250: 62ef c2b9 b545 93b9 fe9a d0b9 bd28 dbb9
00000260: d291 08ba 9b84 feb9 6d2d 94ba 8609 67b9
00000270: 465e 21ba 16b4 03ba c467 25ba aa1e 51ba
00000280: c2a5 10ba 80fc 3eba 6948 b1b9 7bf4 51ba
00000290: 6118 b4b9 1589 53b9 2441 80ba da0b 6fb9
000002a0: d09e bfb9 f075 f7b8 7cff 00ba 9964 01ba
000002b0: ad57 4eb9 2e38 29ba b2e9 7f37 6438 9138
000002c0: bfa0 10ba d24e 06ba 84b1 59ba b89b a5b8
000002d0: 0b32 c1b9 c3a4 aab9 723e 72ba 9075 35ba
000002e0: 43fa f5b9 2eee f0b9 0fef 5bba 5a10 50ba
000002f0: 6eba 8bb9 f690 66b9 6ecf d3b9 90eb 0cba
00000300: acc2 69ba bc31 afb9 0bb7 45ba 205f 1d38
00000310: d384 e1b9 c744 39b9 9291 e4b9 b489 00ba
00000320: 2e31 bdb9 e532 34ba d74f 14ba 84a7 dbb8
00000330: 75c3 4fb9 5e16 07ba 385b 8838 c846 dbb9
00000340: a4d9 bfb7 4096 0fb9 dbe0 2aba eb01 28ba
00000350: 90c1 6aba 53cc bbb9 635c 17ba d49d a7b8
00000360: 8d21 47ba 9e5e 8cb9 daa0 eab8 1d58 89ba
00000370: 0386 e1b9 6d54 c7b8 b40c ffb8 7a44 b0b9
00000380: a013 8d35 f28b 3eba 9243 dab9 f9c0 0eb9
00000390: 15a9 c338 30be bbb9 b65c 81b9 4851 59b7
000003a0: 11d2 6eba 39be 0eba 6818 cab9 3f0b 1fba
000003b0: 989b 60ba c69b b7b9 82d7 17ba dfcc a0b9
000003c0: a6e4 33ba b72f 1c39 2fbf 07ba a765 09ba
000003d0: cde7 34ba a284 c4b9 1584 38ba 3669 8bb7
000003e0: b2ec b4b9 baf8 27ba ca63 c4b9 aeea 72b9
000003f0: 4a36 42ba 7c2a dab9 0b07 f9b9 6ea5 68b8
-0.00022538913 -0.00035020895 -0.0010780703 -0.00024176184 -0.00026568232 -0.00039942274 -0.00035033442 -0.0004499082
-0.0006316241 -0.00030740225 -0.0008740134 -0.00037081615 -0.0008201086 -0.00036529126 -2.320846e-05 4.2003066e-05
-0.00029334374 2.390204e-05 6.9747715e-05 -0.00014597605 -0.0005043892 -0.0004188463 -0.00067829987 -0.00047776347
-0.0006110755 -0.0001561602 -0.00052050495 -0.0006219099 -0.00031944423 -0.00023501267 -0.00049726595 -0.00014725007
-0.0005221538 -0.00089063717 -0.0006508912 -0.00047258852 -0.00042856464 -0.00050289853 -0.00036282022 -0.0002451798
-0.00038932005 -0.00032916066 -0.0004517023 -0.00036070874 -0.00045094438 -0.00091778993 -0.0003433492 -0.0003529588
-0.0010144961 -0.00046698088 -0.00036871387 -0.0007394592 -0.0005005036 -0.00063384394 -0.00019654102 -0.00075531553
-0.0010366095 -0.0009297303 -0.0002933431 -0.00045742455 -0.0005639616 -0.00031529882 -0.0006731119 -0.00075024663
-0.0005732285 -0.00041026025 -0.00035786553 -0.0004787279 -7.078956e-05 -0.00054277777 1.3650657e-05 -0.0002804348
-0.0005184646 -0.0006272779 -0.0005763192 -0.00053075847 -0.00038088614 -7.0641054e-06 -0.00012795332 -0.00069916976
-0.00031902673 -0.00077785307 -0.0004198718 -9.500569e-05 -0.00033013462 0.00012847736 -0.0006885764 -0.00058075745
-0.00061560806 -0.00045186208 -0.00017945655 3.84134e-05 -8.3496765e-05 -0.0003890179 -0.0005068516 -0.000363235
-0.00026454387 -0.0002164038 4.064238e-06 -0.0005345553 -0.00048442706 -0.00025830328 -0.001034118 -0.00060663145
-0.0004992427 -0.0005893632 -0.0002445523 -0.00083629444 -0.0010229514 -0.00022965606 0.00017716434 -0.00046266275
-0.00037397744 -0.00023454607 -0.0007264924 -0.00042284565 -0.00018804877 4.1673455e-05 3.891743e-06 -6.244546e-05
-0.00043027606 -0.0009900361 -0.0005892356 -0.00018471308 -0.00024695063 -0.0006420358 -0.00048726096 -0.00079292647
-5.862541e-05 -0.0003119596 -0.000525458 -0.0011154055 -0.0001290745 -0.00016897552 -0.00034858455 -0.00056490244
-0.000120082776 -0.0005783892 -0.0002887895 -0.00035779906 -0.0007164821 -0.00083006884 -0.00092156354 -0.0006997479
-0.0003199423 -0.0005448735 -0.0009708706 0.00018267691 -0.00037180918 -0.0002808996 -0.0003978833 -0.00041801287
-0.0005209717 -0.00048545454 -0.0011305042 -0.00022033424 -0.00061557104 -0.00050240883 -0.0006309713 -0.00079772866
-0.0005517864 -0.000728555 -0.0003381402 -0.0008009148 -0.0003435044 -0.00020173595 -0.0009785038 -0.00022797231
-0.00036548683 -0.000117998454 -0.00049208826 -0.00049359497 -0.00019678353 -0.000645521 1.5253596e-05 6.9246424e-05
-0.0005517117 -0.00051234395 -0.0008304345 -7.896818e-05 -0.00036849114 -0.00032547684 -0.00092408725 -0.000692212
-0.000469165 -0.00045953825 -0.00083898095 -0.0007937007 -0.00026651047 -0.00021988511 -0.00040399603 -0.0005375678
-0.0008917253 -0.00033415656 -0.0007542229 3.752031e-05 -0.00043014306 -0.00017668596 -0.00043596007 -0.0004903332
-0.0003608553 -0.0006874039 -0.0005657649 -0.00010473936 -0.00019813872 -0.0005153174 6.501976e-05 -0.0004182367
-2.2870321e-05 -0.00013693515 -0.00065184914 -0.0006408977 -0.00089552347 -0.00035819653 -0.00057739596 -7.992578e-05
-0.0007596247 -0.00026773376 -0.000111879504 -0.001047853 -0.0004301519 -9.504785e-05 -0.00012161714 -0.00033620355
1.051103e-06 -0.0007268778 -0.00041630544 -0.00013614063 9.3298186e-05 -0.0003580912 -0.00024673872 -1.2953133e-05
-0.0009110282 -0.00054452155 -0.00038546626 -0.00060670445 -0.0008568107 -0.0003502054 -0.0005792306 -0.0003067022
-0.00068623794 0.00014895095 -0.000517833 -0.00052412826 -0.0006900996 -0.00037482852 -0.0007038725 -1.6619084e-05
-0.00034508627 -0.00064076076 -0.00037458382 -0.00023166343 -0.00074086024 -0.00041611854 -0.00047498228 -5.546718e-05

model.feature_nns.3.model.0.weights f4 [1, 338]
00000000: 30bd 0a3d 2b68 fe3c 186e 0c3d 222e d83c
00000010: 4ec7 1d3d c6d4 d13c 0de4 c03c 1d5b 1b3d
00000020: 4492 e83c 1139 0c3d da7b 193d 3867 173d
00000030: a1ae 1a3d abea d73c 7a1e 0c3d b590 063d
00000040: 3fc1 da3c ffa2 113d 30d4 f03c 1a43 123d
00000050: a8af 063d 7a1e 0c3d b3e1 f53c 54a5 1d3d
00000060: d23a dd3c 5af4 0a3d 762c 9e3c 6825 be3c
00000070: 8022 e43c a71e c03c ddaf 0e3d d5e1 f63c
00000080: 762c 9e3c 5638 163d 931a c83c 7bec 193d
00000090: 493f d13c 5a6b 163d f284 173d 9e71 063d
000000a0: 9d18 183d 2b0f 043d a274 113d 4b00 f93c
000000b0: 6d23 133d ca5c 183d 0d1d ed3c 0eae f83c
000000c0: 980c 4d3c 7c5a e43c 5795 053d 955e f13c
000000d0: d5af cc3c a81a bc3c e789 1a3d 7cff 9b3c
000000e0: 763e c43c 3202 f43c 3340 1a3d 428a d13c
000000f0: b3e1 f53c ccb6 dd3c 8772 fc3c beb2 133d
00000100: 8de4 043d 26af ed3c 6245 053d 68b6 173d
00000110: 1057 163d 77cc 033d 56ed 183d 4c44 d33c
00000120: 428a d13c b223 163d f9d0 103d 18d7 f83c
00000130: 23dd 033d 98f7 083d 2c83 b53c 2362 e93c
00000140: eb9a c43c 7c4e 123d 2675 0f3d 2702 133d
00000150: 882d 1d3d 4c64 883c ca26 ec3c d989 ec3c
00000160: ecfe 133d 2dca f23c 93e1 0e3d b8ab 1c3d
00000170: 9994 073d 8356 bf3c b7a8 123d f284 173d
00000180: 3b0e fd3c 9178 893c da12 1b3d 6c91 083d
00000190: c845 c13c d90e fb3c 40da 183d bf15 013d
000001a0: e8ba bf3c 7c4e 123d 0079 dd3c 98f7 083d
000001b0: 517b 0c3d 6825 be3c 3cc9 e93c bdc7 c83c
000001c0: c411 1a3d a8af 063d 23dd 033d d051 113d
000001d0: 811d c93c e138 d93c 3ecb b73c d23a dd3c
000001e0: 85fe 033d f78d 1ebd 762c 9e3c 800a 153d
000001f0: c28c d33c 4c40 923c 7685 073d df6d 903c
00000200: 8b93 9f3c a1dd f43c 0eae f83c 62e1 c33c
00000210: d989 ec3c ba1b 1e3d 8c58 1d3d 49f0 153d
00000220: f841 fe3c 4844 0f3d 19ab 143d 4cc3 c73c
00000230: aab5 143d df6d 903c 0d1d ed3c 9d18 183d
00000240: a308 e33c ccb6 dd3c 8372 193d 1171 173d
00000250: 96b2 073d d3c5 1c3d 3523 933c 400f 163d
00000260: 5795 053d da35 183d 0d05 183d 9872 ac3c
00000270: c198 173d 300a 123d b45a 973c 15a0 063d
00000280: d051 113d 0a1b 1a3d ef48 e63c 762c 9e3c
00000290: 6041 e33c 8c3a 003d 201b 073d 3629 e83c
000002a0: 201b 073d 3603 173d b011 a93c 89a6 0d3d
000002b0: b304 1c3d aae4 053d b51d fa3c 4228 1c3d
000002c0: 93e1 0e3d 96ee 0f3d 930c f63c 74df 003d
000002d0: bb99 0d3d 1ba6 b23c 4bcd 003d 700c 0e3d
000002e0: 7dba c63c 4266 0d3d 3e86 fb3c 1af3 1b3d
000002f0: 49f0 153d 49fb 173d 9515 003d cf3f 0a3d
00000300: 21c8 ea3c b8ab 1c3d f9cb 083d 277f dc3c
00000310: 882d 1d3d 78e7 fc3c a1ae 1a3d a3c3 cf3c
00000320: da12 1b3d f17e e63c 3ecb b73c aad0 073d
00000330: 7891 eb3c 1824 1e3d b362 ea3c 6b43 023d
00000340: 4880 143d e7d0 163d 576e fa3c 467d f33c
00000350: 84d5 143d aa34 153d 62f0 023d 8afc 063d
00000360: adfa 0f3d be81 db3c e795 e93c b590 063d
00000370: 7a44 bb3c ba1b 1e3d 980c 4d3c 7b52 f93c
00000380: ac45 033d 4313 c73c 36bd 0c3d 8b32 0d3d
00000390: 0de4 c03c c198 173d 9a69 cb3c 8407 0a3d
000003a0: 0bc7 183d 81da 083d 6d2c 123d b977 0a3d
000003b0: ce48 073d 6602 943c b415 0a3d b415 0a3d
000003c0: 2819 0e3d 4080 113d 0de4 c03c 3ea5 053d
000003d0: 81b2 093d 66a3 0e3d 3753 173d ba00 1b3d
000003e0: abea d73c 21da 013d 03c4 043d 229d f23c
000003f0: ef48 e63c 29e9 133d 8cb2 163d 1bd8 ba3c
0.03387183 0.03105553 0.03428468 0.026389185 0.03852015 0.025614154 0.023546243 0.03792869
0.028390057 0.03423411 0.03747163 0.03696367 0.037764195 0.026357016 0.034208752 0.032852847
0.026703475 0.035555836 0.029398054 0.035708524 0.032882363 0.034208752 0.030014848 0.038487747
0.027005587 0.033924438 0.01930831 0.023211196 0.027848482 0.023452116 0.034835685 0.030136982
0.01930831 0.03667482 0.024426734 0.03757904 0.025542872 0.036723472 0.03699202 0.032823198
0.037132848 0.032241028 0.03551162 0.030395648 0.035922457 0.037197866 0.028944517 0.030356433
0.01251521 0.027875178 0.032613125 0.029464046 0.024986187 0.02296193 0.03772917 0.019042723
0.023955565 0.029786203 0.03765888 0.025578622 0.030014848 0.027064703 0.03081633 0.036059134
0.032444526 0.029014181 0.03253687 0.03703919 0.036704123 0.032177415 0.037335716 0.025789402
0.025578622 0.036655135 0.03535554 0.030376002 0.032193314 0.03343925 0.022157274 0.028489178
0.023999652 0.03571938 0.03502383 0.035890725 0.0383735 0.016649388 0.02882709 0.028874325
0.036131784 0.02963742 0.034883093 0.0382497 0.0331007 0.023356682 0.03580543 0.03699202
0.030890575 0.016781123 0.037859775 0.03334181 0.023592845 0.030646728 0.037317514 0.03151488
0.023404554 0.03571938 0.027035236 0.03343925 0.03429729 0.023211196 0.028538339 0.024509305
0.0376146 0.032882363 0.032193314 0.035478413 0.024550201 0.02651638 0.02243578 0.027005587
0.03222515 -0.038709607 0.01930831 0.036386967 0.025823954 0.017852925 0.033086263 0.017630516
0.019479534 0.029890837 0.030356433 0.023911182 0.028874325 0.03860066 0.038414523 0.036606107
0.031037316 0.034977227 0.036295984 0.024385117 0.03630606 0.017630516 0.028944517 0.037132848
0.02771408 0.027064703 0.037462723 0.036973063 0.033129297 0.038274597 0.017961124 0.036635637
0.032613125 0.03716073 0.03711419 0.021050736 0.03701091 0.035654247 0.018475868 0.03286751
0.035478413 0.037623443 0.02811095 0.01930831 0.027741134 0.031305835 0.032984853 0.028339963
0.032984853 0.036868297 0.020638317 0.03458265 0.03809042 0.032688774 0.030531744 0.03812433
0.034883093 0.035139643 0.030035293 0.0314631 0.034570437 0.02180772 0.031445783 0.03467983
0.024258846 0.03452135 0.03070366 0.038073637 0.036606107 0.03710488 0.031270582 0.03375226
0.028659882 0.0382497 0.03339765 0.0269161 0.0383735 0.030872092 0.037764195 0.025361842
0.037859775 0.028136702 0.02243578 0.033157982 0.028755888 0.03860864 0.028611517 0.031802576
0.03625515 0.03682032 0.030570192 0.029722821 0.036336437 0.036427177 0.03196753 0.032955684
0.035151172 0.026795264 0.028513862 0.032852847 0.0228598 0.03860066 0.01251521 0.030434838
0.032048866 0.024301177 0.034360133 0.03447203 0.023546243 0.03701091 0.024830628 0.033698574
0.037299197 0.033411507 0.0356869 0.033805583 0.033028416 0.01806755 0.033712104 0.033712104
0.03469196 0.0355227 0.023546243 0.03262829 0.0336175 0.034823798 0.036944594 0.03784249
0.026357016 0.031702165 0.032413494 0.029615942 0.02811095 0.03611103 0.03679137 0.022808125

model.feature_nns.3.model.1.weight f4 [1, 338]
00000000: 825f 66b8 974c 8e38 765c 3ab8 0410 3a38
00000010: 12f5 35b8 d095 aab8 7d8f 6338 2b86 2bb8
00000020: af62 33b8 42e5 0bb9 f0f4 4937 e367 86b8
00000030: 3524 21b8 9473 5638 8fd6 a7b8 a6a9 c0b8
00000040: 4ee4 6eb8 bafc d2b7 3549 35b9 96ce 33b8
00000050: 4fd1 7b38 826d 8637 b2ab bdb6 f2d1 8ab8
00000060: 361b b7b8 d696 88b8 8e7b feb6 cc7c 3337
00000070: 54bb 8cb5 0284 dab8 7262 1fb8 70ef 5b38
00000080: 6948 d8b8 a6c1 09b9 ee1b a1b8 0d7f 4db8
00000090: 3c22 6eb5 4cf3 bdb8 1db8 63b8 9a98 17b9
000000a0: 8f12 00b8 fcd6 2bb8 2180 8fb8 11f7 45b9
000000b0: 3413 77b8 d1c4 d1b8 7cb9 8eb6 a987 5438
000000c0: e48c 94b7 460c d6b8 f53f e3b8 b615 4136
000000d0: 827f 2036 0573 08b7 9274 0bb8 abec a8b7
000000e0: 462b fbb7 0656 67b7 6be2 c1b8 6b12 3cb8
000000f0: c1cc 83b7 c8dd 0ab9 5bf3 9037 882c 6fb8
00000100: 861f 05b8 f8e7 9a37 b8f0 73b7 3657 29b6
00000110: 60b8 36b8 b8ab f937 31fd 67b8 4732 1eb9
00000120: 2410 b6b7 b42c 8fb8 b927 b0b8 d5ef d6b8
00000130: a262 66b8 1cdd 3138 ec86 1db9 fd03 4d38
00000140: ef0b 4438 cb1a 1d38 2941 8138 907c 14b9
00000150: 7c67 99b8 e5b4 99b7 403b 91b7 0d8a 87b8
00000160: e970 86b8 3bb6 11b9 7088 0ab8 0a54 7038
00000170: 5058 bbb8 32b9 aab8 878e 82b8 3b6f d7b8
00000180: 802c 04b9 2c2c c2b8 481b f4b8 8042 db38
00000190: a485 9bb8 3081 4fb8 2c05 4138 392a 3bb9
000001a0: f3d3 3fb8 5641 8bb7 891a deb7 5199 10b8
000001b0: 5099 2237 5f77 44b8 2994 cf38 ce86 17b7
000001c0: ec5b 19b8 06de f8b8 5877 22b9 fedb 37b8
000001d0: ac45 b4b7 0d1a 45b8 ea91 06b9 3e34 9138
000001e0: 0677 85b7 e312 53b6 23bc 5ab8 58bd 98b8
000001f0: 9cb9 2fb8 c9a7 e9b8 5794 1fb9 6690 3338
00000200: 3c3c 3238 43cb ad37 ff82 04b9 59ea 5eb8
00000210: c68a 53b8 d0ea 03b9 ac5e c6b8 0733 dfb8
00000220: 8f9f 19b9 947e 9ab8 70ff 7e37 7486 1db5
00000230: b930 4937 0af2 abb8 2d7a 78b8 7d2f bbb8
00000240: a168 84b8 e5ff 8f37 b37b 47b8 2d31 1db9
00000250: b4fe a2b8 f483 29b7 3383 4bb8 c08b 9838
00000260: 62e8 ddb6 671b 8638 5faf a6b6 2dde 8fb8
00000270: 885e 14b9 016c 01b8 aabf 2eb9 d590 9ab8
00000280: 14fe 4837 5c86 7938 79a1 b7b7 6958 eeb6
00000290: e66a 2d37 c06c b0b8 14f9 5d38 4ce5 ceb8
000002a0: f0fb 5f37 1b6c 3c36 1d8f 92b8 3aa1 7f37
000002b0: 524a 8037 fb93 1db8 dbe2 c536 bc59 dab8
000002c0: b2b6 0fb9 87be 7637 6203 52b8 0375 9e37
000002d0: e88f a2b8 b434 e837 d25a 2ab8 aebe bbb7
000002e0: 6d41 39b8 bb15 10b8 ed36 0938 34a2 9037
000002f0: 2561 d7b8 a2c4 7db8 35b2 27b8 f46f eeb5
00000300: 11ad c4b8 18c8 86b8 86f2 1eb9 3280 b3b8
00000310: 8ac0 03b8 d803 23b8 35e6 40b8 4d56 0bb9
00000320: ae07 0fb8 e54d bd37 0c8c 3438 9beb 82b7
00000330: ac0f 60b8 d658 e4b8 1620 7537 7a3d 6d36
00000340: 0bcd 1738 fe4b 20b6 525c 92b8 3938 0638
00000350: 3317 9f38 d671 29b8 b460 90b8 10a7 c4b8
00000360: 20b8 d2b8 a018 0db8 8d4b 3638 3c3d 3a38
00000370: 8ecb a1b8 589a 0437 2b92 0e38 6356 1c37
00000380: 54c2 1f38 4695 edb8 2e0f 5a37 aa19 4636
00000390: d014 00b6 69e5 74b8 4b25 d3b8 a2e0 d637
000003a0: 8f2e a1b7 e91e a2b7 865f cab7 0a4d 8db8
000003b0: 9ae9 63b8 5256 3738 8619 90b8 5a7f 4c38
000003c0: 8274 0d38 f17d c6b8 26ed e7b7 59ef 72b8
000003d0: f8ac 7bb5 ac5c 0a38 9d8e 29b9 92e0 4538
000003e0: b8dd 4a37 f65a b4b8 4045 05b9 aef5 04b9
000003f0: a23b 2f37 bf8e e737 b08e 08b9 d76a 29b9
-5.492522e-05 6.7853536e-05 -4.4431967e-05 4.436077e-05 -4.3382002e-05 -8.1341364e-05 5.425465e-05 -4.089453e-05
-4.2768832e-05 -0.00013341478 1.2037563e-05 -6.408968e-05 -3.841911e-05 5.1129216e-05 -8.003145e-05 -9.186873e-05
-5.6956247e-05 -2.5151636e-05 -0.00017288777 -4.2869324e-05 6.0037997e-05 1.6025038e-05 -5.652627e-06 -6.619458e-05
-8.7311884e-05 -6.513081e-05 -7.5841735e-06 1.0698288e-05 -1.0485332e-06 -0.000104196384 -3.800024e-05 5.2436662e-05
-0.0001031317 -0.00013137478 -7.6822806e-05 -4.8994134e-05 -8.8711727e-07 -9.05754e-05 -5.4292486e-05 -0.0001445733
-3.0534862e-05 -4.0969797e-05 -6.842637e-05 -0.00018879423 -5.8907273e-05 -0.000100025565 -4.253523e-06 5.0671082e-05
-1.7708582e-05 -0.00010206601 -0.000108361164 2.8771879e-06 2.3916077e-06 -8.133012e-06 -3.3248747e-05 -2.0137368e-05
-2.9941682e-05 -1.3788702e-05 -9.245131e-05 -4.4839846e-05 -1.5711763e-05 -0.00013243326 1.7279459e-05 -5.7023513e-05
-3.173903e-05 1.846625e-05 -1.4539975e-05 -2.5233726e-06 -4.3563894e-05 2.9763076e-05 -5.5310495e-05 -0.00015086784
-2.1703607e-05 -6.827098e-05 -8.399733e-05 -0.000102489874 -5.4928132e-05 4.2406013e-05 -0.00015022949 4.8879523e-05
4.6741156e-05 3.745667e-05 6.1633364e-05 -0.00014160783 -7.314884e-05 -1.8323257e-05 -1.7312937e-05 -6.4630156e-05
-6.410649e-05 -0.00013896164 -3.302883e-05 5.7298726e-05 -8.933304e-05 -8.140727e-05 -6.225431e-05 -0.00010272717
-0.00012605079 -9.2588685e-05 -0.00011639908 0.0001045512 -7.4158685e-05 -4.947296e-05 4.6019602e-05 -0.00017849439
-4.573534e-05 -1.6600516e-05 -2.6476819e-05 -3.4475062e-05 9.691648e-06 -4.6841214e-05 9.898126e-05 -9.031688e-06
-3.656365e-05 -0.000118669166 -0.00015493983 -4.3835484e-05 -2.1490116e-05 -4.699272e-05 -0.00012833593 6.92387e-05
-1.591026e-05 -3.1452444e-06 -5.2150466e-05 -7.283193e-05 -4.1896114e-05 -0.00011141558 -0.00015218683 4.2811407e-05
4.2494605e-05 2.0717858e-05 -0.00012637301 -5.3147178e-05 -5.0435563e-05 -0.00012580608 -9.45901e-05 -0.00010642973
-0.00014650657 -7.366869e-05 1.5199053e-05 -5.868271e-07 1.1991878e-05 -8.198999e-05 -5.9241593e-05 -8.9257e-05
-6.313739e-05 1.7166089e-05 -4.75605e-05 -0.00014991006 -7.772204e-05 -1.0103908e-05 -4.852116e-05 7.273955e-05
-6.613366e-06 6.394722e-05 -4.9676014e-06 -6.860155e-05 -0.00014149596 -3.0856583e-05 -0.00016665334 -7.370269e-05
1.1980086e-05 5.9491358e-05 -2.1890492e-05 -7.103245e-06 1.0336493e-05 -8.41259e-05 5.2922478e-05 -9.865555e-05
1.3350495e-05 2.8077109e-06 -6.9884794e-05 1.5236723e-05 1.5293397e-05 -3.7569534e-05 5.897467e-06 -0.000104117644
-0.00013705602 1.4707103e-05 -5.0071052e-05 1.8889556e-05 -7.7515666e-05 2.7681097e-05 -4.061574e-05 -2.238093e-05
-4.416837e-05 -3.4352513e-05 3.27145e-05 1.724167e-05 -0.000102700935 -6.050303e-05 -3.998187e-05 -1.7764964e-06
-9.3782444e-05 -6.426888e-05 -0.00015158401 -8.5592634e-05 -3.141215e-05 -3.8865808e-05 -4.5990764e-05 -0.00013288223
-3.410101e-05 2.2566828e-05 4.3045773e-05 -1.560692e-05 -5.3420357e-05 -0.00010888434 1.4610609e-05 3.5351536e-06
3.6192167e-05 -2.3886091e-06 -6.9790185e-05 3.200045e-05 7.586032e-05 -4.0398758e-05 -6.8844674e-05 -9.377126e-05
-0.00010047876 -3.3639953e-05 4.3462544e-05 4.4402885e-05 -7.714993e-05 7.903749e-06 3.3991568e-05 9.318438e-06
3.8089536e-05 -0.00011328845 1.2997347e-05 2.9519238e-06 -1.90856e-06 -5.8387788e-05 -0.000100682104 2.561539e-05
-1.9214376e-05 -1.9326299e-05 -2.4124758e-05 -6.7377536e-05 -5.4338576e-05 4.3710992e-05 -6.871209e-05 4.8755996e-05
3.3725526e-05 -9.464834e-05 -2.7647777e-05 -5.7920206e-05 -9.375649e-07 3.298807e-05 -0.00016170224 4.7177607e-05
1.2091761e-05 -8.600012e-05 -0.00012709666 -0.00012680024 1.0444697e-05 2.7603817e-05 -0.00013023126 -0.00016156897
