GolfFeedback-poc/src/s3_NAM_model/output/DA/0/checkpoints/epoch=499-val_loss=1.3768.ckpt (torch, 68430 bytes, 24 tensors)

model.feature_nns.0.model.0.weights f4 [1, 244]
0.027339725 0.03838187 0.036708925 0.036786024 0.038488608 0.030493906 0.037584186 0.03842114
0.034865577 0.014804863 0.013063995 0.029091392 0.03590958 0.037124503 0.03546375 0.018068712
0.031669583 0.036581792 0.03554011 0.034352228 0.0380345 0.022448286 0.03315573 0.025090264
0.013558515 0.029258916 0.029042182 0.037066985 0.021527931 0.034605116 0.02707442 0.027858304
0.020052055 0.035979122 0.034844518 0.031897478 0.016515901 0.038287677 0.032142516 0.02008519
0.03750045 0.013309257 0.035700716 0.036887232 0.036549404 0.038076784 0.02554361 0.015483352
0.037889466 0.03490415 0.035951804 0.035885755 0.027315283 0.03682324 0.034969527 0.035313923
0.027145872 0.02485904 0.03162929 0.02050518 0.03208011 0.033588726 0.02585739 0.031513415
0.036723766 0.020610169 0.035129502 0.037718963 0.03682564 0.02499735 0.0347905 0.03353099
0.030536417 0.03557146 0.034119654 0.026140984 0.03780629 0.028962709 0.035874926 0.036025014
0.03688626 0.031095006 0.028529149 0.036466856 0.038364362 0.024580376 0.031081876 0.03795402
0.03461541 0.036289327 0.031371146 0.03656249 0.034534846 0.023879899 0.03815645 0.018104792
0.037208572 0.02571559 0.038368944 0.03583813 0.038548183 0.038147546 0.03414673 0.038202837
0.02551158 0.025213825 0.02064776 0.026795538 0.03664534 0.03642864 0.018078223 0.022126138
0.037237275 0.038522534 0.036848467 0.0344406 0.030011266 0.03412065 0.03725581 0.021435017
0.029275963 0.03385087 0.013304637 0.033000425 0.034290608 0.035175785 0.028221006 0.03689991
0.01692359 0.012529421 0.034483176 0.03669108 0.033215784 0.037518803 0.03635768 0.03698538
0.031828117 0.037284955 0.023122227 0.027373375 0.028483968 0.036880422 0.038112 0.02725649
0.036764618 0.027405985 0.034997284 0.03759735 0.03492875 0.032708615 0.03312587 0.0326833
0.015324096 0.03445251 0.03331145 0.038644254 0.023712369 0.038407728 0.038311496 0.018962558
0.03150805 0.03580176 0.03612752 0.029275792 0.02535366 0.028620478 0.029910825 0.035708494
0.032491438 0.03596279 0.031829827 0.03472325 0.035828866 0.021698868 0.029014759 0.012536918
0.029661465 0.023867413 0.009977513 0.038306113 0.029235665 0.0331024 0.026128558 0.03358253
0.017201027 0.03156747 0.03188857 0.03432254 0.033705384 0.037031192 0.033163223 0.028853519
0.038493235 0.031608563 0.038239256 0.023099767 0.027095271 0.021274459 0.026035685 0.033454675
0.037582498 0.023702007 0.03526496 0.037349146 0.03855218 0.03538785 0.029303076 0.02023062
0.034198254 0.036538646 0.033896543 0.036108755 0.038184855 0.03218306 0.025305431 0.031962205
0.030344859 0.036686134 0.03617918 0.032928992 0.036508974 0.006285607 0.025177596 0.033469286
0.03469322 0.037884075 0.03371236 0.026361406 0.0313495 0.025032172 0.028339323 0.03016569
0.03684069 0.038642522 0.034593787 0.023897829 0.017859304 0.029170899 0.022654044 0.025108201
0.019863367 0.03434663 0.03394943 0.032249004
00000000: 8ff7 df3c 4f36 1d3d 195c 163d f1ac 163d
00000010: 3ba6 1d3d 5bce f93c e0f1 193d 7c5f 1d3d
00000020: 35cf 0e3d 1990 723c 5e0a 563c 1251 ee3c
00000030: ec15 133d dd0f 183d 7042 113d d604 943c
00000040: f7b7 013d cad6 153d 8292 113d ecb4 0c3d
00000050: 10ca 1b3d 78e5 b73c 4ece 073d 198a cd3c
00000060: 8924 5e3c 65b0 ef3c dfe9 ed3c 8dd3 173d
00000070: 585b b03c 18be 0d3d 2dcb dd3c 1937 e43c
00000080: 3544 a43c d85e 133d 20b9 0e3d eea6 023d
00000090: 5b4c 873c 8ad3 1c3d dfa7 033d b289 a43c
000000a0: 129a 193d 120f 5a3c ea3a 123d 1117 173d
000000b0: d4b4 153d 67f6 1b3d d540 d13c e3ad 7d3c
000000c0: fc31 1b3d a7f7 0e3d 3342 133d f1fc 123d
000000d0: 4dc4 df3c f7d3 163d 353c 0f3d 55a5 103d
000000e0: 0561 de3c 2fa5 cb3c b78d 013d 7bfa a73c
000000f0: 6f66 033d 5594 093d e1d2 d33c 3614 013d
00000100: a96b 163d a8d6 a83c f4e3 0f3d 337f 1a3d
00000110: 7bd6 163d 3ec7 cc3c 7c80 0e3d cb57 093d
00000120: 8227 fa3c 61b3 113d 0dc1 0b3d 9e25 d63c
00000130: c5da 1a3d 3443 ed3c 96f1 123d f78e 133d
00000140: 0c16 173d f4ba fe3c f6b5 e93c 455e 153d
00000150: f323 1d3d c95c c93c 6b9f fe3c ad75 1b3d
00000160: e3c8 0d3d 1ea4 143d 087f 003d 8dc2 153d
00000170: 6974 0d3d c79f c33c f049 1c3d 8050 943c
00000180: 0468 183d 80a9 d23c c128 1d3d 01cb 123d
00000190: b3e4 1d3d 9a40 1c3d 71dd 0b3d 947a 1c3d
000001a0: a9fd d03c 398d ce3c 7e25 a93c 5182 db3c
000001b0: 6d19 163d 3336 153d c818 943c e041 b53c
000001c0: 1d86 183d cec9 1d3d 6bee 163d 9611 0d3d
000001d0: 30da f53c 18c2 0b3d 8c99 183d 7d98 af3c
000001e0: 25d4 ef3c 36a7 0a3d b1fb 593c 742b 073d
000001f0: 4f74 0c3d 7c14 103d bd2f e73c 5c24 173d
00000200: 57a3 8a3c 3348 4d3c 3b3e 0d3d 6349 163d
00000210: 460d 083d 51ad 193d caeb 143d fb7d 173d
00000220: 335e 023d 1cb8 183d d36a bd3c 213e e03c
00000230: 3657 e93c ed0f 173d 541b 1c3d 0149 df3c
00000240: 7f96 163d 8482 e03c 5059 0f3d aeff 193d
00000250: 7311 0f3d 78f9 053d feae 073d edde 053d
00000260: eb11 7b3c 131e 0d3d 9671 083d 7049 1e3d
00000270: 7140 c23c 6c51 1d3d 84ec 1c3d 5e57 9b3c
00000280: 960e 013d dea4 123d 73fa 133d c9d3 ef3c
00000290: 7bb2 cf3c 7e75 ea3c 8c07 f53c 1243 123d
000002a0: be15 053d b84d 133d fe5f 023d f739 0e3d
000002b0: 4ac1 123d d3c1 b13c 5cb0 ed3c a567 4d3c
000002c0: 9afc f23c 9885 c33c b978 233c dfe6 1c3d
000002d0: a27f ef3c 6296 073d 8f0b d63c d68d 093d
000002e0: 2be9 8c3c e44c 013d 979d 023d cb95 0c3d
000002f0: a80e 0a3d 05ae 173d 29d6 073d 375e ec3c
00000300: 15ab 1d3d fb77 013d c4a0 1c3d b93b bd3c
00000310: e7f6 dd3c c647 ae3c ca48 d53c c507 093d
00000320: 1bf0 193d b62a c23c fe71 103d 6bfb 183d
00000330: e4e8 1d3d daf2 103d 010d f03c afba a53c
00000340: 7813 0c3d 8ca9 153d 1ad7 0a3d c6e6 133d
00000350: b967 1c3d 62d2 033d 564d cf3c cdea 023d
00000360: c895 f83c 3344 163d 9f30 143d 8de0 063d
00000370: 6f8a 153d 7ef7 cd3b 3f41 ce3c 1717 093d
00000380: 7a1a 0e3d 552c 1b3d f915 0a3d e0f3 d73c
00000390: 5568 003d 4510 cd3c de27 e83c 0a1e f73c
000003a0: 43e6 163d 9f47 1e3d 37b2 0d3d 61c5 c33c
000003b0: ad4d 923c cff7 ee3c f994 b93c b7af cd3c
000003c0: 80b8 a23c 0daf 0c3d 8f0e 0b3d 8817 043d

model.feature_nns.0.model.1.weight f4 [1, 244]
-0.0012036604 -0.0012451523 -0.0012874389 -0.0010688633 -0.0011793511 -0.0011902811 -0.0014508882 -0.0011109262
-0.0013068689 -0.0012889189 -0.0010274888 -0.0012212442 -0.0011427175 -0.001136579 -0.0011048083 -0.0011150797
-0.0013625361 -0.0010268607 -0.001348697 -0.0012679072 -0.0010774279 -0.0013176828 -0.0013610926 -0.0011270484
-0.0010735713 -0.0009694706 -0.0009189421 -0.0010960557 -0.0013874827 -0.0011342211 -0.0011598947 -0.0010362504
-0.0011289727 -0.0012179447 -0.0015031191 -0.0012277527 -0.0012728275 -0.0012437586 -0.0010601798 -0.0009562651
-0.0011966397 -0.0010644117 -0.0012034484 -0.0009000367 -0.0009536799 -0.0012080591 -0.0011315764 -0.0010386745
-0.0012638259 -0.0011540047 -0.0010684907 -0.0013103448 -0.0013142481 -0.0011749023 -0.0010945708 -0.0012644987
-0.0011595589 -0.0012842609 -0.001347869 -0.00108852 -0.0011362374 -0.0014603019 -0.00094386697 -0.0011165785
-0.0013132903 -0.001448716 -0.00122316 -0.0014802617 -0.00089295604 -0.0011892607 -0.0013727039 -0.0009114954
-0.0012457351 -0.0012458924 -0.001269646 -0.001112973 -0.0012306939 -0.0010438736 -0.0012481066 -0.0015964353
-0.0011730741 -0.0011101246 -0.001064699 -0.0011575287 -0.0012178471 -0.0013654387 -0.0012145818 -0.0010324114
-0.0011095054 -0.0010325258 -0.0011263008 -0.0012646727 -0.000865943 -0.0012464315 -0.00089624786 -0.0012189299
-0.0014094898 -0.00086235895 -0.0013230111 -0.0013367744 -0.0012974154 -0.0012219442 -0.0011486049 -0.001289525
-0.0013258423 -0.0015094598 -0.0011564661 -0.0012177242 -0.0010515664 -0.0011550861 -0.0011430257 -0.0015739639
-0.0010670854 -0.0012373719 -0.0010015111 -0.0010996207 -0.0009594031 -0.001258813 -0.0011932056 -0.0011655823
-0.0013494345 -0.0010263621 -0.0011189912 -0.0010072538 -0.0012349102 -0.0015072305 -0.0012161265 -0.0013278299
-0.0011757659 -0.0014212821 -0.0015096695 -0.0011973345 -0.0010588088 -0.0012390708 -0.0009717968 -0.0012594509
-0.0012011107 -0.0014284808 -0.0013365897 -0.0011241827 -0.001018696 -0.0014370228 -0.001124367 -0.0010201155
-0.001141494 -0.001072719 -0.0012917608 -0.0012517447 -0.0015825471 -0.0010168618 -0.0010272856 -0.0010669325
-0.001254475 -0.001198403 -0.0011364832 -0.0009484483 -0.0010256812 -0.0013995313 -0.001394523 -0.0011368807
-0.0010261629 -0.000933362 -0.001248961 -0.00097050145 -0.0010672545 -0.0010793185 -0.0012493161 -0.0015210944
-0.0010373028 -0.0013805446 -0.0010454232 -0.0012207328 -0.0011795925 -0.0012138608 -0.0012204407 -0.0012596544
-0.0010816555 -0.0012452126 -0.0012779322 -0.0011187722 -0.0009158811 -0.0012587252 -0.0010969492 -0.0013677398
-0.0011716677 -0.0011558391 -0.0012361924 -0.0011075225 -0.00097409554 -0.0009503636 -0.0013351451 -0.0014380296
-0.0012661414 -0.0012418062 -0.0012214965 -0.0009709729 -0.001287782 -0.0012551494 -0.0010438489 -0.0011819314
-0.0012755853 -0.0008667414 -0.0012211478 -0.001079876 -0.0009831724 -0.0010126453 -0.0009916932 -0.0011248703
-0.0011749364 -0.001302126 -0.0013728759 -0.0014532466 -0.0010693043 -0.001181999 -0.0009360895 -0.0012254679
-0.001017351 -0.0012601201 -0.0010848762 -0.0011292241 -0.0013726776 -0.0011552413 -0.0014211157 -0.001093936
-0.0010264106 -0.0016573216 -0.0012060833 -0.0013781957 -0.0012452623 -0.001345606 -0.001250018 -0.0013291071
-0.00097481295 -0.0011063479 -0.0011736477 -0.0012628619 -0.0011826876 -0.0010400631 -0.0013792183 -0.0011415825
-0.0011983465 -0.0012616602 -0.0010141474 -0.0011246377
00000000: 24c4 9dba 6134 a3ba 48bf a8ba 1a19 8cba
00000010: 7594 9aba 3503 9cba bb2b beba 7f9c 91ba
00000020: 3e4b abba f1f0 a8ba ceac 86ba 2812 a0ba
00000030: 3dc7 95ba 43f9 94ba 37cf 90ba de27 92ba
00000040: 2097 b2ba ba97 86ba c3c6 b0ba e82f a6ba
00000050: 7b38 8dba 19b6 acba b066 b2ba 78b9 93ba
00000060: 13b7 8cba 1224 7eba 29e5 70ba 87a9 8fba
00000070: 32dc b5ba 25aa 94ba 9c07 98ba cbd2 87ba
00000080: 0afa 93ba 71a3 9fba 4f04 c5ba 8bec a0ba
00000090: 01d5 a6ba 9d05 a3ba bbf5 8aba ddad 7aba
000000a0: 91d8 9cba bb83 8bba 07bd 9dba 71f0 6bba
000000b0: 6000 7aba bd57 9eba 6751 94ba 2224 88ba
000000c0: f6a6 a5ba f941 97ba 990c 8cba e0bf abba
000000d0: d942 acba 2eff 99ba b477 8fba 89bd a5ba
000000e0: 57fc 97ba a554 a8ba fbaa b0ba acac 8eba
000000f0: cded 94ba 9a67 bfba d76d 77ba 285a 92ba
00000100: b622 acba d8e2 bdba 7052 a0ba 5705 c2ba
00000110: 4415 6aba f8e0 9bba 4dec b3ba 6cf1 6eba
00000120: ef47 a3ba 364d a3ba 406a a6ba 2de1 91ba
00000130: 3c4f a1ba 96d2 88ba 8297 a3ba 7b3f d1ba
00000140: d6c1 99ba 9a81 91ba 5f8d 8bba 38b8 97ba
00000150: 2ba0 9fba 85f8 b2ba 9a32 9fba fa51 87ba
00000160: d36c 91ba d155 87ba 62a0 93ba 60c3 a5ba
00000170: 7300 63ba 4d5f a3ba 2df2 6aba 80c4 9fba
00000180: a1be b8ba ee0f 62ba e368 adba b536 afba
00000190: 090e aaba a529 a0ba c98c 96ba 4705 a9ba
000001a0: e3c7 adba 11d9 c5ba 9094 97ba 0b9c 9fba
000001b0: b7d4 89ba 4266 97ba 94d1 95ba 774d ceba
000001c0: 72dd 8bba 502f a2ba 2345 83ba 2621 90ba
000001d0: 7480 7bba c1fe a4ba 5665 9cba 74c6 98ba
000001e0: 82df b0ba ff86 86ba 1dab 92ba d405 84ba
000001f0: b6dc a1ba 438e c5ba 6f66 9fba 940a aeba
00000200: 281c 9aba 504a baba 1ae0 c5ba e1ef 9cba
00000210: bac7 8aba 5168 a2ba 2ec0 7eba 2914 a5ba
00000220: 966e 9dba dd3b bbba 8230 afba 5059 93ba
00000230: c485 85ba 7c5a bcba 7f5f 93ba 65b5 85ba
00000240: 2f9e 95ba 7a9a 8cba 4d50 a9ba 9511 a4ba
00000250: 786d cfba 3848 85ba fca5 86ba 50d8 8bba
00000260: 326d a4ba bb13 9dba 0cf6 94ba 4aa1 78ba
00000270: 2670 86ba 7a70 b7ba 6dc8 b6ba 6303 95ba
00000280: 5080 86ba ddac 74ba 2db4 a3ba 4069 7eba
00000290: 1ee3 8bba eb77 8dba 18c0 a3ba 755f c7ba
000002a0: 1bf6 87ba 64f3 b4ba 9506 89ba ff00 a0ba
000002b0: 8e9c 9aba 691a 9fba 32f7 9fba fd1a a5ba
000002c0: 56c6 8dba 6736 a3ba 4a80 a7ba c4a3 92ba
000002d0: bd17 70ba cffb a4ba 82c7 8fba bb45 b3ba
000002e0: a592 99ba 867f 97ba bc07 a2ba 4a2a 91ba
000002f0: 725a 7fba d221 79ba 0900 afba 447c bcba
00000300: a8f4 a5ba 1ac4 a2ba 9f1a a0ba e388 7eba
00000310: cbca a8ba d383 a4ba c2d1 88ba 09eb 9aba
00000320: 8a31 a7ba 0836 63ba ec0e a0ba a08a 8dba
00000330: cbdd 80ba bdba 84ba b4fb 81ba 6270 93ba
00000340: 5300 9aba 19ac aaba 12f2 b3ba dd7a beba
00000350: e627 8cba 4eed 9aba e763 75ba e19f a0ba
00000360: a358 85ba 9d2a a5ba 6832 8eba 7902 94ba
00000370: 6beb b3ba 776b 97ba bb44 baba 6762 8fba
00000380: a088 86ba 7c3a d9ba 7115 9eba 93a4 b4ba
00000390: 1238 a3ba 0c5f b0ba a5d7 a3ba 6f35 aeba
000003a0: 978a 7fba e002 91ba 15d5 99ba 9d86 a5ba
000003b0: 6904 9bba ba52 88ba e3c6 b4ba 27a1 95ba
000003c0: d611 9dba 4b5e a5ba 24ed 84ba 9468 93ba

model.feature_nns.1.model.0.weights f4 [1, 272]
0.03387183 0.038174614 0.0310009 0.035434004 0.03436014 0.037453752 0.027181476 0.03559967
0.036944598 0.03074138 0.03708615 0.032867514 0.0377467 0.029743938 0.037067372 0.038495816
0.037842494 0.036810674 0.038390055 0.03328572 0.038365413 0.038141068 0.030684745 0.03716073
0.03074139 0.023911197 0.018376285 0.019888818 0.03495374 0.037988637 0.034372658 0.037114207
0.022042649 0.033341814 0.036829904 0.02896778 0.03612149 0.028314915 0.037859786 0.025926746
0.036366835 0.030853549 0.03590131 0.03810737 0.030473756 0.013766939 0.032490797 0.011913163
0.036992032 0.034619257 0.03314371 0.031091811 0.03178595 0.03789432 0.03142843 0.037363105
0.021626094 0.016090704 0.025754632 0.037471645 0.030797638 0.02948591 0.034667805 0.038199663
0.027353508 0.029060267 0.035105087 0.036447275 0.03428469 0.01885935 0.021807743 0.03277862
0.03557776 0.03428469 0.021117147 0.03555584 0.032567456 0.035411615 0.025361845 0.029106107
0.03208115 0.033285726 0.035310578 0.028339975 0.034953747 0.036684602 0.03365809 0.03233554
0.037825108 0.037746686 0.03790294 0.028708056 0.03684909 0.035321895 0.035985757 0.035242546
0.031358626 0.033712126 0.037104882 0.02335669 0.0154725155 0.0243433 0.032582797 0.029398058
0.03548954 0.036437213 0.03630607 0.03453371 0.0336581 0.027210347 0.034322593 0.036234673
0.0364272 0.029106122 0.03532189 0.014396225 0.037649997 0.036079947 0.032506175 0.026161384
0.037561316 0.021182865 0.03765 0.030872092 0.035762437 0.02612833 0.03297028 0.034297295
0.03819131 0.02894452 0.021926198 0.031235103 0.029658828 0.027438195 0.030945955 0.028708057
0.03622445 0.030945966 0.035784 0.036376983 0.035105083 0.02787519 0.02948591 0.033257414
0.032335524 0.03857659 0.03837352 0.01847587 0.033671636 0.028033035 0.03694461 0.023452118
0.031532004 0.037417505 0.025789402 0.0372256 0.025892654 0.038528223 0.035012197 0.032000113
0.033644564 0.035686914 0.027604898 0.03824134 0.03690664 0.022490172 0.03521978 0.03843895
0.029953085 0.038503934 0.027768137 0.020422177 0.022325652 0.03592246 0.038182978 0.037076827
0.032628294 0.037417505 0.035299234 0.024791198 0.03491845 0.03239799 0.036674835 0.038495816
0.03183587 0.03591194 0.019394457 0.031566367 0.028635744 0.0331007 0.024590917 0.034930218
0.0372992 0.021376368 0.038249705 0.035837498 0.028611517 0.033549406 0.0259945 0.038552426
0.023866562 0.038422678 0.02896776 0.03527664 0.026975876 0.03406769 0.03576244 0.03328572
0.03570853 0.029219657 0.027604902 0.021117143 0.022157291 0.030493123 0.03392444 0.032582786
0.030964367 0.022380935 0.032506175 0.037525557 0.029849159 0.024671625 0.034894895 0.026161388
0.031341117 0.034533706 0.03369857 0.038115855 0.036346644 0.020348536 0.034422416 0.03356306
0.03490677 0.036791384 0.037142143 0.027410073 0.036935136 0.035522703 0.03314371 0.03637696
0.037244007 0.02490887 0.027410073 0.03647723 0.03798005 0.02937599 0.026421156 0.020847691
0.03035646 0.032658555 0.027239209 0.031668432 0.031235095 0.034183275 0.036820326 0.03738129
00000000: 30bd 0a3d fc5c 1c3d 99f5 fd3c 3f23 113d
00000010: 38bd 0c3d 1b69 193d b0ab de3c f6d0 113d
00000020: 3853 173d 59d5 fb3c a6e7 173d 16a0 063d
00000030: 499c 1a3d 8fa9 f33c f5d3 173d caad 1d3d
00000040: bb00 1b3d cac6 163d e43e 1d3d 9b56 083d
00000050: 0d25 1d3d cf39 1c3d 935e fb3c da35 183d
00000060: 5ed5 fb3c 6ae1 c33c dd89 963c e0ed a23c
00000070: a72b 0f3d f999 1b3d 58ca 0c3d 1105 183d
00000080: c992 b43c 6d91 083d f4da 163d d64d ed3c
00000090: 21f4 133d aef4 e73c dd12 1b3d 5464 d43c
000000a0: 64f5 143d 95c0 fc3c 410d 133d 7916 1c3d
000000b0: 19a4 f93c ba8e 613c 1215 053d 6d2f 433c
000000c0: f584 173d eccc 0d3d b3c1 073d 41b4 fe3c
000000d0: fc31 023d 1337 1b3d 19bb 003d 0e0a 193d
000000e0: 3529 b13c a7d0 833c 61fb d23c de7b 193d
000000f0: 544b fc3c 6f8c f13c d4ff 0d3d 4077 1c3d
00000100: 7714 e03c cc0f ee3c 5aca 0f3d bd49 153d
00000110: 1a6e 0c3d ec7e 9a3c 27a6 b23c e042 063d
00000120: fcb9 113d 1a6e 0c3d defd ac3c 00a3 113d
00000130: 7465 053d c50b 113d a5c3 cf3c ee6f ee3c
00000140: 8667 033d 9d56 083d d3a1 103d 3c29 e83c
00000150: a92b 0f3d 9842 163d 11dd 093d 4572 043d
00000160: 80ee 1a3d 459c 1a3d 1d40 1b3d 282d eb3c
00000170: 12ef 163d b1ad 103d cd65 133d 7d5a 103d
00000180: e771 003d ba15 0a3d 4afb 173d 8756 bf3c
00000190: 6f80 7d3c 9a6b c73c 8a75 053d 32d4 f03c
000001a0: 7b5d 113d 303f 153d acb5 143d 3873 0d3d
000001b0: 13dd 093d 3ce8 de3c d995 0c3d cf6a 143d
000001c0: b034 153d f66f ee3c b0ad 103d 25de 6b3c
000001d0: e236 1a3d 91c8 133d 3225 053d 6650 d63c
000001e0: e5d9 193d b087 ad3c e336 1a3d 78e7 fc3c
000001f0: a27b 123d 140b d63c d80b 073d 527b 0c3d
00000200: 7e6e 1c3d 0f1d ed3c 929e b33c c2e0 ff3c
00000210: 12f7 f23c 11c6 e03c 5f82 fd3c 292d eb3c
00000220: 1760 143d 6582 fd3c 3e92 123d 0800 153d
00000230: 59ca 0f3d 835a e43c 6f8c f13c ed38 083d
00000240: 4172 043d 7d02 1e3d 8d2d 1d3d b55a 973c
00000250: 45eb 093d 89a5 e53c 3b53 173d a81e c03c
00000260: b427 013d 1943 193d 4c44 d33c df79 183d
00000270: d51c d43c c5cf 1d3d f368 0f3d 8d12 033d
00000280: e2ce 093d 712c 123d ab23 e23c f4a2 1c3d
00000290: 6b2b 173d 4f3d b83c 9e42 103d 2972 1d3d
000002a0: 2c60 f53c 4db6 1d3d 017a e33c 694c a73c
000002b0: 49e4 b63c 6e23 133d c165 1c3d dfdd 173d
000002c0: 3fa5 053d 1943 193d ee95 103d e916 cb3c
000002d0: a606 0f3d c1b3 043d 5a38 163d caad 1d3d
000002e0: 5466 023d 6618 133d 20e1 9e3c bc4b 013d
000002f0: 8295 ea3c 9994 073d e472 c93c fd12 0f3d
00000300: 0cc7 183d 7e1d af3c b9ab 1c3d 57ca 123d
00000310: b362 ea3c 1a6b 093d 6bf2 d43c 26e9 1d3d
00000320: cf83 c33c 1961 1d3d cc4d ed3c 3d7e 103d
00000330: 83fc dc3c 908a 0b3d a37b 123d 9b56 083d
00000340: 1c43 123d 105e ef3c ad23 e23c dcfd ac3c
00000350: 3583 b53c b7cc f93c 5bf4 0a3d 8775 053d
00000360: fca8 fd3c 3958 b73c 3225 053d 66b4 193d
00000370: 3986 f43c 261c ca3c f3ed 0e3d 6850 d63c
00000380: 8b5f 003d 3773 0d3d 8307 0a3d 5f1f 1c3d
00000390: 38e0 143d f9b1 a63c 85fe 0c3d 6b79 093d
000003a0: 67fa 0e3d 90b2 163d 5c22 183d 178b e03c
000003b0: 4c49 173d 4180 113d b3c1 073d 0200 153d
000003c0: 2c8d 183d b00d cc3c 178b e03c 2669 153d
000003d0: f890 1b3d eba5 f03c 2e71 d83c c7c8 aa3c
000003e0: 1cae f83c fac4 053d c324 df3c c2b6 013d
000003f0: bee0 ff3c c303 0c3d e9d0 163d 201d 193d

model.feature_nns.1.model.1.weight f4 [1, 272]
-0.00033892947 -0.00027612798 -1.9134095e-05 -0.00032208022 -0.0003823883 -0.00021174435 -0.00026365236 -0.0002287467
-0.0005023294 -0.00036768356 -0.00039611338 -0.00021374818 -0.0003953332 -9.689496e-05 -0.00049529126 -0.0005700037
-0.0003631693 -8.0159865e-05 -0.00023690636 -0.00034167714 -0.00023049995 -0.00023247051 -0.00019746242 -0.0003931552
-0.00048369754 -0.00027189997 -7.962765e-05 -0.00032146656 -0.00031772637 -0.00042734965 -0.00019826189 -0.00020003416
-0.00015329983 -0.00022703358 -0.00025396486 -0.00036747652 -0.00027099176 -0.00038447438 -4.0567233e-05 -0.0003134762
-0.0004860773 -0.00044090982 -0.00013026246 -0.00021681025 -0.00024385739 -3.5563142e-05 -0.00028503267 -0.00018070842
-0.0003087426 -0.00011519002 -0.00012685396 -0.00030271537 -9.2722e-06 -0.00050414284 -0.0003232456 -0.00038375045
-0.00029293503 -0.0002429408 -0.0005131536 -0.00028653195 -0.00025423977 -0.00048830203 -0.00022311384 -0.00040339105
-0.00038544595 -0.00046281004 -0.00021746219 -0.0005403301 -0.00027077866 -9.2049086e-05 5.2629264e-05 -0.00042661047
-0.00022748961 -0.0004274795 -0.00037769476 7.4753385e-05 -0.00030364742 -0.00015127401 -0.00021075399 -0.00022099935
-0.00047789948 -0.00020631753 -0.00028450447 -0.00024725916 -0.0001588847 -0.0004953733 -0.00033751468 -0.00020045547
-0.00031517076 -0.0002862233 -0.00012217017 -0.0006880548 -0.00051282806 -0.00037086874 -0.00012436249 -0.00026517673
-0.00015874983 -0.00035734512 -0.00011001285 -0.00018733504 -0.0001362641 -0.00018245434 -0.00053591735 -0.00022912968
-0.00025577925 -0.00018129077 -0.00045614937 -2.4059398e-05 -0.000498549 -0.0005462509 -7.516724e-05 -0.00016796056
-0.0004792405 -0.00031593806 -0.0004897503 -0.00045335438 -0.00038849833 -0.00034900891 -0.0001628166 7.9076824e-05
-0.00020082004 -0.00048040063 -0.00031924888 -0.00018008014 -0.00043135948 -0.0003891832 -0.00069298316 -0.00017356592
-0.00038544982 -0.0004466562 -1.8147586e-05 -0.0005112395 -6.997833e-05 -0.00049268344 -0.000117953314 -9.337698e-05
-0.00034600744 -0.0002227887 -0.00046782353 -0.00035021847 -0.00027239538 -0.00027877887 -0.00033400772 -0.0002183256
-0.0003178123 -0.00032904214 -0.00020513355 -0.00040123734 -0.000317808 -0.00025028747 -0.00059114164 -0.00034902012
-4.586272e-05 -6.16645e-05 3.093126e-05 -0.00018215149 -0.00037309036 -0.0004708333 -0.000322828 -0.00025020598
-0.00019386514 -0.0005304074 -0.00041003712 -0.00028511052 -0.00020888983 -6.5581626e-05 -0.0004056522 -0.0005013522
-4.385005e-05 -0.00020208655 -0.00045761743 -0.00021354879 -0.0004084568 -0.00027867567 7.631996e-06 -0.00033475168
-0.00024611724 -1.34423335e-05 -0.00016670523 -0.00019707686 -0.00017707949 -0.00024540166 -0.00034960042 6.3696866e-06
-0.000310402 -0.0004518117 -0.0005260692 -5.150067e-05 -0.0003792377 -0.00032819767 0.00016757555 -0.0003440277
-0.00019032779 -0.0002926614 -0.00023885153 -0.00030472936 -0.00033394046 -0.00015010247 -0.00019073288 -0.0004474093
-0.00026453126 -0.0003927813 -0.00022052474 -0.00024640007 -2.8786224e-05 -0.0001263075 -0.00030161077 -0.00046167072
-0.00046113282 -0.00026708184 -3.7760637e-05 -0.00043365124 -0.00032950472 -0.00032742711 -0.0002396737 -9.479198e-05
-0.00042182373 -0.00032678072 -0.00022268337 -0.0002811514 -9.734287e-05 -6.9618654e-05 -0.00018386285 -0.00029653817
-0.0004435457 -0.00034987388 -2.9360539e-05 -0.00021952306 -0.00017127427 -0.00034610022 -0.0002901757 -0.00021493288
-0.00020017964 -0.00032490626 -0.00036999723 -4.4279117e-05 -0.00025112717 -0.00024323953 -4.5151668e-05 -0.0003783552
-0.00010513853 -0.000248856 -0.0004423501 -0.00021251908 -0.0004638707 -0.00015977921 -0.0001411939 -2.9350025e-05
-0.0004384861 -0.00018971576 -0.00056090346 -0.00048457042 -0.00037430268 -0.0003084135 -0.00033620623 -8.638891e-05
00000000: 58b2 b1b9 45c5 90b9 2882 a0b7 e0dc a8b9
00000010: 4a7b c8b9 b107 5eb9 d23a 8ab9 badb 6fb9
00000020: c1ae 03ba a7c5 c0b9 70ad cfb9 9721 60b9
00000030: b944 cfb9 1634 cbb8 6fd6 01ba 4d6c 15ba
00000040: c267 beb9 801b a8b8 116a 78b9 2123 b3b9
00000050: 5cb2 71b9 54c3 73b9 ea0d 4fb9 6620 ceb9
00000060: c998 fdb9 cc8d 8eb9 c5fd a6b8 838a a8b9
00000070: 8394 a6b9 e60d e0b9 85e4 4fb9 43c0 51b9
00000080: 1cbf 20b9 dd0f 6eb9 9626 85b9 dda9 c0b9
00000090: e613 8eb9 4793 c9b9 bc26 2ab8 105a a4b9
000000a0: 31d8 feb9 ea29 e7b9 1097 08b9 8f57 63b9
000000b0: f8b3 7fb9 a229 15b8 7070 95b9 8c7c 3db9
000000c0: bbde a1b9 2c92 f1b8 1a04 05b9 c5b5 9eb9
000000d0: cc8f 1bb7 7428 04ba 4a79 a9b9 1d32 c9b9
000000e0: 1395 99b9 edbd 7eb9 2885 06ba ab39 96b9
000000f0: 7c4b 85b9 6501 00ba aaf3 69b9 3b7e d3b9
00000100: ae15 cab9 50a5 f2b9 9006 64b9 f0a4 0dba
00000110: 4cf7 8db9 7a0a c1b8 3ebe 5c38 b0aa dfb9
00000120: 478a 6eb9 541f e0b9 5505 c6b9 ebc4 9c38
00000130: de32 9fb9 4f9f 1eb9 d8fd 5cb9 10bc 67b9
00000140: 958e fab9 f156 58b9 8b29 95b9 90a2 81b9
00000150: 499a 26b9 f0db 01ba 74f4 b0b9 5b31 52b9
00000160: 813d a5b9 3e10 96b9 ce1a 00b9 935e 34ba
00000170: 4f6f 06ba 2971 c2b9 4d67 02b9 6b07 8bb9
00000180: 1576 26b9 0d5a bbb9 b3b6 e6b8 5e6f 44b9
00000190: 1ee2 0eb9 3751 3fb9 ce7c 0cba 8842 70b9
000001a0: 1c1a 86b9 df18 3eb9 5527 efb9 2ad3 c9b7
000001b0: 0fb1 02ba 4732 0fba 1ba3 9db8 921e 30b9
000001c0: 9242 fbb9 7da4 a5b9 9662 00ba 32b0 edb9
000001d0: 5daf cbb9 2ffb b6b9 c0b9 2ab9 0cd6 a538
000001e0: 3893 52b9 48de fbb9 dc60 a7b9 e5d3 3cb9
000001f0: 1728 e2b9 490b ccb9 50a9 35ba 3fff 35b9
00000200: 3316 cab9 2e2d eab9 a53b 98b7 b404 06ba
00000210: 54c1 92b8 6d27 01ba b45d f7b8 62d3 c3b8
00000220: 5568 b5b9 639c 69b9 3646 f5b9 879d b7b9
00000230: 4ad0 8eb9 1129 92b9 c21d afb9 55ee 64b9
00000240: 0ba0 a6b9 4a83 acb9 1e19 57b9 2a5d d2b9
00000250: 789f a6b9 0439 83b9 d8f6 1aba b0fc b6b9
00000260: b85c 40b8 e051 81b8 30bc 0138 ebff 3eb9
00000270: 579b c3b9 2dda f6b9 3e41 a9b9 142e 83b9
00000280: 4748 4bb9 0a0b 0bba 40fa d6b9 e37a 95b9
00000290: 7009 5bb9 de88 89b8 b7ad d4b9 2d6d 03ba
000002a0: a2eb 37b8 32e7 53b9 5fec efb9 11ec 5fb9
000002b0: 2526 d6b9 371b 92b9 2c0b 0037 9c81 afb9
000002c0: 4c09 81b9 6286 61b7 98cd 2eb9 6ba6 4eb9
000002d0: 6aae 39b9 41a9 80b9 934a b7b9 31bb d536
000002e0: 74bd a2b9 24e1 ecb9 e8e7 09ba 6c02 58b8
000002f0: 6cd4 c6b9 f211 acb9 38b7 2f39 9e5e b4b9
00000300: ba92 47b9 5970 99b9 3874 7ab9 15c4 9fb9
00000310: bb14 afb9 d364 1db9 78ff 47b9 4292 eab9
00000320: c9b0 8ab9 37ee cdb9 a93c 67b9 422f 81b9
00000330: f279 f1b7 6971 04b9 8321 9eb9 650c f2b9
00000340: 33c4 f1b9 1e07 8cb9 2d61 1eb8 af5b e3b9
00000350: 60c1 acb9 86aa abb9 eb50 7bb9 0fcb c6b8
00000360: 3928 ddb9 c453 abb9 1d80 69b9 8167 93b9
00000370: 8e24 ccb8 3b00 92b8 4fcb 40b9 ae78 9bb9
00000380: b28b e8b9 476f b7b9 474b f6b7 c62f 66b9
00000390: 1698 33b9 c974 b5b9 b922 98b9 9b5f 61b9
000003a0: 50e7 51b9 2e58 aab9 30fc c1b9 57b8 39b8
000003b0: b8a9 83b9 1d0e 7fb9 3c61 3db8 fa5d c6b9
000003c0: d27d dcb8 e378 82b9 3aeb e7b9 a8d7 5eb9
000003d0: ac33 f3b9 688a 27b9 730d 14b9 b334 f6b7
000003e0: 9ce4 e5b9 70ee 46b9 9809 13ba f10d feb9
000003f0: 0e3e c4b9 8fb2 a1b9 d644 b0b9 b12b b5b8

model.feature_nns.2.model.0.weights f4 [1, 316]
0.03802283 0.030512476 0.027152378 0.037525557 0.036935143 0.030076146 0.029264634 0.028006993
0.03031689 0.034965526 0.03420878 0.032351114 0.03356305 0.027954524 0.03497726 0.017036267
0.03139359 0.011913152 0.02926465 0.031199496 0.033172317 0.03741751 0.012223325 0.035869513
0.0376412 0.017281031 0.034422435 0.034883123 0.015472523 0.038600683 0.038552426 0.02917443
0.022380956 0.036306076 0.026161367 0.022380944 0.035456292 0.0350122 0.03352198 0.03760576
0.037632372 0.035321906 0.035434 0.017159924 0.03181928 0.025858361 0.035231266 0.021376383
0.03245999 0.027577346 0.025398435 0.012223341 0.0365765 0.03684909 0.024043528 0.034607075
0.023866573 0.016910085 0.024216272 0.037516586 0.010422452 0.032335553 0.03793725 0.031702194
0.027410075 0.03286751 0.035784006 0.028708063 0.027210347 0.037534513 0.026161393 0.03219334
0.03311506 0.03277863 0.03679139 0.03558872 0.028684093 0.037650015 0.031428438 0.026292423
0.03021743 0.025684673 0.030741384 0.035566762 0.036704145 0.037614606 0.03356306 0.034157693
0.034558225 0.031463116 0.03214542 0.034977235 0.02275614 0.028162394 0.03011679 0.036645412
0.034322586 0.03502385 0.03612149 0.036596265 0.034716047 0.03142843 0.03092753 0.033466976
0.032703783 0.032398004 0.024830634 0.03222517 0.035500612 0.038332503 0.036346667 0.031181663
0.03479997 0.038503956 0.020847697 0.03605914 0.012223339 0.025892653 0.027686907 0.0260282
0.014778656 0.020122683 0.034728065 0.028803451 0.030336645 0.026028203 0.03799719 0.03307187
0.035816133 0.035665177 0.031668466 0.03863271 0.03304295 0.02105075 0.0081725065 0.036234677
0.038544375 0.03698263 0.0310009 0.038632702 0.037737988 0.03622448 0.036963698 0.0346678
0.026975881 0.038390055 0.02915178 0.025823958 0.036316283 0.032521516 0.03801426 0.028464526
0.03244454 0.022100242 0.03329971 0.036407184 0.022213887 0.032335516 0.036635652 0.037123486
0.031852443 0.02831493 0.03325743 0.037596762 0.033644587 0.027928174 0.03031689 0.0286599
0.036849085 0.036069434 0.030570194 0.037435625 0.038124338 0.034472056 0.01939448 0.038640656
0.033508196 0.029014193 0.035467282 0.037764236 0.03812434 0.031600475 0.037868403 0.03396375
0.032643437 0.036316294 0.030627703 0.032304104 0.034728076 0.035794605 0.03808205 0.028897801
0.03033663 0.031270616 0.033765655 0.030277262 0.03482382 0.027410092 0.02221388 0.035890754
0.016376687 0.027152393 0.034953725 0.009960263 0.03381889 0.037462745 0.031055545 0.018765626
0.028611535 0.02691612 0.030703675 0.030116789 0.019479541 0.030909125 0.028659903 0.036982637
0.028562875 0.035643354 0.031819277 0.014396238 0.029507762 0.021747729 0.036954142 0.027741142
0.03208116 0.03134112 0.0318026 0.03555583 0.018376306 0.03261314 0.03387185 0.031055538
0.03428472 0.026389204 0.038520154 0.025614163 0.023546252 0.037928727 0.028390072 0.034234133
0.03747166 0.03696369 0.037764177 0.026357036 0.034208767 0.032852866 0.026703477 0.03555584
0.029398061 0.035708543 0.03288238 0.034208763 0.030014878 0.03848775 0.027005596 0.033924434
00000000: d4bd 1b3d 4df5 f93c aa6e de3c 66b4 193d
00000010: 4e49 173d 4062 f63c 63bc ef3c ec6e e53c
00000020: 205b f83c 0338 0f3d 811e 0c3d 9a82 043d
00000030: 6979 093d e300 e53c 5144 0f3d a48f 8b3c
00000040: 9196 003d 622f 433c 6bbc ef3c 1696 ff3c
00000050: b2df 073d 1a43 193d 5744 483c e9eb 123d
00000060: a92d 1a3d f390 8d3c 8afe 0c3d 9be1 0e3d
00000070: 7780 7d3c c01b 1e3d 26e9 1d3d 37ff ee3c
00000080: 4458 b73c aeb5 143d 5d50 d63c 3e58 b73c
00000090: 9e3a 113d f468 0f3d 584e 093d 7f08 1a3d
000000a0: 6724 1a3d b4ad 103d 3e23 113d f892 8c3c
000000b0: ef54 023d ead4 d33c a94e 103d 861d af3c
000000c0: c4f4 043d e3e9 e13c 6110 d03c 6844 483c
000000d0: 3dd1 153d 12ef 163d eff6 c43c 26c0 0d3d
000000e0: d583 c33c 0587 8a3c 3461 c63c feaa 193d
000000f0: efc2 2a3c 4972 043d 1764 1b3d 29da 013d
00000100: 188b e03c 15a0 063d 4092 123d 2c2d eb3c
00000110: 3ce8 de3c cabd 193d 6b50 d63c 2add 033d
00000120: a8a3 073d e242 063d 92b2 163d 7ac5 113d
00000130: e7fa ea3c e736 1a3d 1bbb 003d 3563 d73c
00000140: 8b8a f73c aa68 d23c 5bd5 fb3c 74ae 113d
00000150: 1657 163d c611 1a3d 6b79 093d f0e8 0b3d
00000160: ed8c 0d3d 78df 003d eaaa 033d 4a44 0f3d
00000170: 166b ba3c d2b4 e63c 7db7 f63c 8019 163d
00000180: d795 0c3d 2b75 0f3d 21f4 133d f7e5 153d
00000190: 6a32 0e3d 19bb 003d bb5b fd3c ab14 093d
000001a0: 67f4 053d c5b3 043d 9d69 cb3c 8afe 033d
000001b0: 1769 113d 8b02 1d3d 3ee0 143d b070 ff3c
000001c0: 6a8a 0e3d 53b6 1d3d cac8 aa3c c0b2 133d
000001d0: 6644 483c d41c d43c a7cf e23c 1739 d53c
000001e0: 2d22 723c 53d8 a43c 043f 0e3d 37f5 eb3c
000001f0: 8e84 f83c 1939 d53c f1a2 1b3d 5f76 073d
00000200: f0b3 123d a615 123d cbb6 013d 553d 1e3d
00000210: 0b58 073d 9f72 ac3c fae5 053c d06a 143d
00000220: b5e0 1d3d 197b 173d 99f5 fd3c 533d 1e3d
00000230: 2693 1a3d 1f60 143d 3f67 173d d3ff 0d3d
00000240: 86fc dc3c e43e 1d3d b7cf ee3c c48c d33c
00000250: 62c0 143d 4835 053d d7b4 1b3d 702e e93c
00000260: 91e4 043d 910b b53c 4765 083d b31f 153d
00000270: e6f9 b53c 3f72 043d 440f 163d cc0e 183d
00000280: b577 023d b6f4 e73c f138 083d 10ff 193d
00000290: e8ce 093d a0c9 e43c 205b f83c 2bc8 ea3c
000002a0: 11ef 163d 8bbd 133d 586e fa3c 1956 193d
000002b0: 4428 1c3d 9232 0d3d 2ce1 9e3c aa45 1e3d
000002c0: e43f 093d 2caf ed3c 2446 113d acae 1a3d
000002d0: 4528 1c3d 806f 013d e61b 1b3d 931d 0b3d
000002e0: 20b5 053d 65c0 143d f3e6 fa3c 4f51 043d
000002f0: 073f 0e3d 5d9d 123d ecfb 1b3d 15bb ec3c
00000300: 8684 f83c 9e15 003d db4d 0a3d 0508 f83c
00000310: 6ca3 0e3d 218b e03c e2f9 b53c 2f02 133d
00000320: 6728 863c b26e de3c a32b 0f3d 5f30 233c
00000330: ad85 0a3d 8972 193d 3368 fe3c 5fba 993c
00000340: bd62 ea3c 327f dc3c 4686 fb3c 7cb7 f63c
00000350: 8f93 9f3c 2235 fd3c 2cc8 ea3c 1b7b 173d
00000360: b1fc e93c c4fe 113d ee54 023d 33de 6b3c
00000370: 43ba f13c 4b28 b23c 3a5d 173d 6441 e33c
00000380: 8967 033d 8c5f 003d 7143 023d fda2 113d
00000390: e889 963c 5b95 053d 36bd 0a3d 2f68 fe3c
000003a0: 226e 0c3d 2c2e d83c 4fc7 1d3d cbd4 d13c
000003b0: 12e4 c03c 275b 1b3d 4c92 e83c 1739 0c3d
000003c0: e27b 193d 3d67 173d 9cae 1a3d b6ea d73c
000003d0: 7e1e 0c3d ba90 063d 40c1 da3c 00a3 113d
000003e0: 34d4 f03c 1f43 123d adaf 063d 7d1e 0c3d
000003f0: c3e1 f53c 55a5 1d3d d73a dd3c 59f4 0a3d

model.feature_nns.2.model.1.weight f4 [1, 316]
-0.0002493168 -0.0003301908 -0.00042653203 -0.0002686286 -0.00021317974 -0.00025091533 -0.0001493516 -0.00016713914
-0.0001882493 -0.00022515963 -0.00015468747 -0.00013656256 -0.0003175163 -0.00045252428 -0.00010922453 -0.00020175397
-0.00024482157 -0.0003076448 -0.00032142628 -0.0002965131 -0.0001989244 -0.00037241753 -0.00017704951 -0.0004974395
-0.0001748695 -0.0003891925 -0.0004145877 -0.00026759206 -0.0003152629 -0.00039797128 -0.00029265217 -0.00034848799
-0.00027981485 -0.00020888637 -0.00017165655 -0.00022300947 -0.00036413016 -0.00015188994 -0.00027044397 -0.00021449866
-1.26927835e-05 -9.342195e-05 -0.00052706175 -0.00019695389 -0.00017504375 -0.00018533182 -0.00017296983 -0.0002078466
-0.0002192903 -0.0005468882 -0.00033804323 -0.00011831631 -5.7976384e-05 -0.00018554243 -0.000312165 -0.00034233468
-0.00023202221 -0.00039348073 -0.00023501497 -0.00024562486 -0.00028005507 -0.00036091023 -0.00019443 -0.0003170882
-0.00034003466 -0.00025291438 -0.00018547771 -0.00026963445 -9.768138e-05 -0.00030285644 -0.00035732053 -2.3245853e-05
-0.00030419196 -0.00029924614 -0.00010708694 -0.00020665364 -0.00010978891 -0.00015159593 -0.0001250344 -0.000287761
-0.00023229144 -0.00033025 -0.00033288627 -0.00020366922 -0.00033077618 -0.00016120425 -0.00016872186 1.2025968e-05
-0.00012785118 -0.00020652325 -0.00022262405 -0.0003010772 -0.00016407992 -0.00022948212 -0.000337647 -0.00026630616
-0.00045011294 -0.00022027762 -0.0003140997 -8.6312575e-05 -0.00021096568 -0.0001965955 -0.00047945092 -0.00022269797
-0.00022336817 -0.00036247857 -7.57384e-05 -0.00022426069 -0.0001449617 -0.00016398593 -0.00045132023 -0.00027828902
-0.00022861274 -0.00020533214 -0.0001766146 -6.2118794e-05 -0.00016843714 -0.0002746113 -0.000106561354 -0.00019152237
-0.00023194482 -0.0002882602 -0.00016944298 -0.00021787925 -0.0002903666 -0.00016108612 -0.00027103577 -0.00034948648
-0.0002909921 -0.00020598093 -0.00015853235 -0.00022308585 -0.0003834811 -0.00024318452 -0.0002926334 -0.00014515422
-0.00023694307 -0.00029471618 -0.00036001453 -0.0003369743 -0.00022792649 -0.00022124019 -0.0002293849 -0.00025103142
-0.0004728517 -0.00040483486 -0.00013881725 -0.00036329552 -0.00016083289 -6.767349e-05 -0.00015450042 -0.00015024951
-0.000475728 -0.00040594224 -0.00031460516 -0.00033946062 -0.00020061876 -0.00023493276 -0.0001933726 -0.0002762736
-0.00022912207 -0.00011666167 -0.00020632902 1.8899551e-05 -0.00020428111 -0.0002779872 -0.00019284854 -0.00026863767
-0.00032749778 -0.00018915713 -0.00031623844 -0.00013279475 -8.017631e-05 -0.0002467236 -0.0001703167 -0.00018777548
-3.4059332e-05 -9.7725584e-05 -0.00017635079 -0.00016861479 -0.00023801465 -0.00041020176 -0.00020096074 -0.00021516992
-0.00039441473 -0.00037255496 -0.0001562596 -9.190549e-05 -0.00014457092 -0.00028752402 -0.0002436018 -0.00023017827
-0.00018197761 -0.00013095158 -0.0003187943 -0.00027138364 -0.00032542035 -0.00018546997 -0.00032125323 -0.0002499248
-0.0003120433 -0.00025345068 -0.00033592482 -7.62673e-05 -7.333743e-05 -0.000327845 -0.0003818911 -0.00017042406
-0.00011459336 -0.00037586328 -0.00035875116 -0.00041586312 -0.00027098716 -0.0001520637 -0.00039813167 -0.00019114895
-0.00039485187 -0.00023223365 -0.00015144183 -0.00027025456 -0.00041758965 -0.00010797325 -0.00034527824 -0.00035053352
-0.00023965722 -0.00017173706 -0.00024702295 -0.0001574247 -7.483802e-05 -0.0003190338 -0.0003511478 -0.0001829546
-0.00012111449 -0.00022033595 -0.00017664321 -0.00048699614 -0.0005244514 -0.0002747513 -0.0002313906 -0.00045641733
-0.00022431542 -0.00031592904 -0.00037928764 -0.0003461472 -0.00026561818 -0.00026996172 -0.0003011065 -8.9236775e-05
-0.00031806782 -0.0002670269 -0.00017385371 -0.00018668751 -0.00032873914 8.277663e-06 -0.00034916223 -0.00011495816
00000000: bcb6 82b9 751d adb9 29a0 dfb9 b8d6 8cb9
00000010: 0089 5fb9 498d 83b9 449b 1cb9 1242 2fb9
00000020: c964 45b9 d418 6cb9 9a33 22b9 3c32 0fb9
00000030: 5178 a6b9 c840 edb9 790f e5b8 eb8d 53b9
00000040: 655b 80b9 634b a1b9 1b85 a8b9 5175 9bb9
00000050: 5d96 50b9 0941 c3b9 5ea6 39b9 9a66 02ba
00000060: 2d5d 37b9 880c ccb9 055d d9b9 994b 8cb9
00000070: df49 a5b9 cda6 d0b9 1c6f 99b9 44b5 b6b9
00000080: 1db4 92b9 8208 5bb9 b4fe 33b9 a6d7 69b9
00000090: b9e8 beb9 a544 1fb9 60ca 8db9 0ceb 60b9
000000a0: 17f3 54b7 87eb c3b8 842a 0aba 6885 4eb9
000000b0: f38b 37b9 a255 42b9 3c5f 35b9 66f1 59b9
000000c0: 4bf1 65b9 0c5d 0fba 653b b1b9 9620 f8b8
000000d0: ab2b 73b8 2b8e 42b9 14aa a3b9 627b b3b9
000000e0: fd4a 73b9 174c ceb9 5a6e 76b9 36c7 80b9
000000f0: 5bd4 92b9 8d38 bdb9 e8df 4bb9 dc3e a6b9
00000100: ae46 b2b9 9899 84b9 cb7c 42b9 b95d 8db9
00000110: 4bda ccb8 b4c8 9eb9 c056 bbb9 1700 c3b7
00000120: f47b 9fb9 23e4 9cb9 dd93 e0b8 2ab1 58b9
00000130: 793e e6b8 b9f5 1eb9 ab1b 03b9 a1de 96b9
00000140: 4293 73b9 6825 adb9 3d87 aeb9 0a90 55b9
00000150: 076c adb9 f008 29b9 eeea 30b9 24c3 4937
00000160: ca0f 06b9 2a8e 58b9 3070 69b9 e6d9 9db9
00000170: de0c 2cb9 23a1 70b9 3706 b1b9 029f 8bb9
00000180: 23fd ebb9 53fa 66b9 c0ad a4b9 b602 b5b8
00000190: ab36 5db9 3425 4eb9 d05e fbb9 0884 69b9
000001a0: f037 6ab9 0d0b beb9 bed5 9eb8 8527 6bb9
000001b0: dc00 18b9 a3f3 2bb9 2d9f ecb9 52e7 91b9
000001c0: c4b7 6fb9 6d4e 57b9 9f31 39b9 c645 82b8
000001d0: 809e 30b9 b4f9 8fb9 b179 dfb8 65d3 48b9
000001e0: 3736 73b9 a121 97b9 81ac 31b9 8476 64b9
000001f0: 583c 98b9 3ae9 28b9 ce19 8eb9 483b b7b9
00000200: 4c90 98b9 96fc 57b9 b43b 26b9 27ec 69b9
00000210: f60d c9b9 59ff 7eb9 976c 99b9 8a34 18b9
00000220: ec73 78b9 2384 9ab9 55c0 bcb9 edab b0b9
00000230: 8dff 6eb9 b6fc 67b9 0a87 70b9 de9c 83b9
00000240: 15e9 f7b9 0440 d4b9 798f 11b9 b378 beb9
00000250: 40a5 28b9 eeeb 8db8 6401 22b9 4c8c 1db9
00000260: 226b f9b9 a5d4 d4b9 97f1 a4b9 a2f9 b1b9
00000270: 305d 52b9 4858 76b9 10c4 4ab9 d1d8 90b9
00000280: 7d40 70b9 42a8 f4b8 065a 58b9 7a8a 9e37
00000290: 4b34 56b9 cfbe 91b9 6337 4ab9 f0d7 8cb9
000002a0: 02b4 abb9 7b58 46b9 cecc a5b9 d23e 0bb9
000002b0: 5424 a8b8 ae5a 81b9 0b97 32b9 99e5 44b9
000002c0: eeda 0eb8 06f2 ccb8 ceea 38b9 30ce 30b9
000002d0: 9293 79b9 5910 d7b9 fdb8 52b9 3c9f 61b9
000002e0: 73c9 ceb9 7b53 c3b9 9ed9 23b9 62bd c0b8
000002f0: f697 17b9 d2be 96b9 5c6f 7fb9 025c 71b9
00000300: 3ed1 3eb9 0c50 09b9 d923 a7b9 7f48 8eb9
00000310: 2e9d aab9 b77a 42b9 e16d a8b9 5708 83b9
00000320: be99 a3b9 93e1 84b9 111f b0b9 b2f1 9fb8
00000330: bccc 99b8 9ce2 abb9 8e38 c8b9 dcb3 32b9
00000340: d751 f0b8 840f c5b9 c416 bcb9 3408 dab9
00000350: 4813 8eb9 4a73 1fb9 54bc d0b9 286f 48b9
00000360: 1f04 cfb9 bf83 73b9 5bcc 1eb9 f4b0 8db9
00000370: efef dab9 b26f e2b8 7606 b5b9 d0c7 b7b9
00000380: 7f4c 7bb9 5114 34b9 dc82 81b9 5f12 25b9
00000390: 5bf2 9cb8 fe43 a7b9 431a b8b9 80d7 3fb9
000003a0: d9fe fdb8 fb09 67b9 4d39 39b9 8453 ffb9
000003b0: 567b 09ba 7f0c 90b9 71a1 72b9 4c4b efb9
000003c0: 3636 6bb9 47a3 a5b9 20db c6b9 177b b5b9
000003d0: ab42 8bb9 a689 8db9 d5dd 9db9 a124 bbb8
000003e0: 57c2 a6b9 beff 8bb9 804c 36b9 8cc1 43b9
000003f0: 9f5a acb9 4be0 0a37 c30f b7b9 b115 f1b8

model.feature_nns.3.model.0.weights f4 [1, 1000]
0.034648523 0.010464294 0.02926598 0.021092765 0.03508825 0.035267036 0.029761355 0.037031423
0.017904757 0.032713603 0.019782327 0.03479491 0.035963748 0.03810437 0.033464767 0.031480234
0.024046566 0.034352798 0.025539441 0.035693567 0.021976693 0.03546035 0.0385588 0.03240541
0.037654445 0.03470017 0.031475853 0.030381149 0.025165599 0.037852436 0.03787431 0.031857517
0.032852832 0.036642436 0.014446502 0.028207773 0.025366107 0.01047312 0.016843932 0.033361137
0.035125434 0.032552566 0.023822967 0.0074362867 0.022390839 0.016005063 0.017792074 0.032022025
0.036739483 0.021171058 0.026696486 0.038397856 0.023463087 0.036340687 0.03220837 0.035791434
0.03753883 0.038675558 0.037542954 0.028958365 0.024130475 0.027614398 0.03465286 0.031887878
0.03713058 0.02737041 0.03284557 0.03603702 0.035883836 0.037651066 0.02371675 0.037680786
0.026278457 0.033521086 0.025426386 0.038158584 0.038000736 0.030424427 0.027750453 0.024429535
0.022737965 0.035489116 0.031776372 0.013347295 0.034312613 0.021610064 0.033600915 0.037412748
0.034254514 0.036948733 0.037740603 0.037659865 0.035561044 0.030440662 0.038526557 0.016700145
0.028847665 0.023628937 0.021595325 0.033635512 0.034819435 0.024429476 0.03263126 0.035195936
0.030074986 0.0376625 0.036316372 0.035502687 0.031468317 0.037218295 0.03823993 0.023873419
0.02399563 0.033317864 0.030194568 0.018121988 0.036486655 0.029162936 0.036479313 0.03057248
0.016436186 0.033923227 0.033753373 0.03382787 0.031652004 -0.038689796 0.025960898 0.03629844
0.033486355 0.029996755 0.038594816 0.031803776 0.033949558 0.035618585 0.034699768 0.029435886
0.034318168 0.030664444 0.032601908 0.03712157 0.036918752 0.037562747 0.024742378 0.03393128
0.028292444 0.030516911 0.035635307 0.038577113 0.033749033 0.038062934 0.032420803 0.03873653
0.038250547 0.02780065 0.033045195 0.02939892 0.015010578 0.03824837 0.037897836 0.030201545
0.035398748 0.033211432 0.03299811 0.026279557 0.038726363 0.017329978 0.036172573 0.03851113
0.031365942 0.0280829 0.03524253 0.03439211 0.0333702 0.034236826 0.035526324 0.03404581
0.037689548 0.026758203 0.02303138 0.026524397 0.03155224 0.032517668 0.034150645 0.031685475
0.03551228 0.0339208 0.020018838 0.033573616 0.019000554 0.02116353 0.031357035 0.03755742
0.036730833 0.03206361 0.0328776 0.035467304 0.03320721 0.03596899 0.030751685 0.03842625
0.034853283 0.035986032 0.029372701 0.023990829 0.0047889124 0.016303023 0.027734926 0.034604616
0.02498799 0.03471835 0.02615272 0.035103742 0.033953067 0.035457745 0.037274417 0.023383217
0.018317768 0.032117046 0.02498467 0.032495994 0.03419272 0.024863051 0.034303535 0.02950477
0.03592265 0.033873834 0.025204336 0.026548939 0.013590595 0.03586099 0.028179755 0.0286582
0.020009104 0.02850425 0.03673824 0.035185125 0.029594243 0.034516957 0.036401898 0.036432553
0.03686702 0.03570116 0.028519306 0.033557963 0.038000736 0.026351973 0.03359345 0.034265585
0.017692285 0.03835309 0.037358075 0.035940897 0.036829565 0.038528368 0.03555188 0.035818994
00000000: 9ceb 0d3d 6e72 2b3c 35bf ef3c bcca ac3c
00000010: b2b8 0f3d 2b74 103d 16ce f33c 43ae 173d
00000020: ffac 923c b3fe 053d 8c0e a23c 1c85 0e3d
00000030: b94e 133d 5413 1c3d 5a12 093d 6bf1 003d
00000040: 4efd c43c 85b5 0c3d 1738 d13c 6b33 123d
00000050: 7708 b43c df3e 113d d5ef 1d3d 89bb 043d
00000060: 8c3b 1a3d c421 0e3d d3ec 003d e3e1 f83c
00000070: 1628 ce3c 280b 1b3d 1822 1b3d 077d 023d
00000080: b190 063d 6116 163d 05b1 6c3c fd13 e73c
00000090: 95cc cf3c 7397 2b3c 49fc 893c b0a5 083d
000000a0: b0df 0f3d d755 053d 6228 c33c 18ac f33b
000000b0: fe6c b73c 0d1d 833c afc0 913c 8729 033d
000000c0: 247c 163d ed6e ad3c 97b2 da3c 1247 1d3d
000000d0: a935 c03c f9d9 143d ecec 033d 0a9a 123d
000000e0: 51c2 193d 436a 1e3d a4c6 193d 183a ed3c
000000f0: 46ad c53c 9737 e23c 28f0 0d3d dd9c 023d
00000100: 3c16 183d e937 e03c 1489 063d 8e9b 133d
00000110: eefa 123d 0138 1a3d a149 c23c 2b57 1a3d
00000120: eb45 d73c 684d 093d ff4a d03c 2d4c 1c3d
00000130: a9a6 1b3d a63c f93c eb54 e33c 7320 c83c
00000140: f844 ba3c 095d 113d f127 023d 9dae 5a3c
00000150: 628b 0c3d 9707 b13c 1da1 093d 1c3e 193d
00000160: 764e 0c3d 8e57 173d e495 1a3d 3b41 1a3d
00000170: 75a8 113d b25e f93c 06ce 1d3d bece 883c
00000180: f051 ec3c 7991 c13c aee8 b03c 64c5 093d
00000190: d39e 0e3d 5320 c83c 5ba8 053d 9d29 103d
000001a0: d15f f63c fe43 1a3d 7ac0 143d 446b 113d
000001b0: ece4 003d 3672 183d 79a1 1c3d 3092 c33c
000001c0: 7c92 c43c 5078 083d 995a f73c 9074 943c
000001d0: 0873 153d 1ce7 ee3c 556b 153d 2373 fa3c
000001e0: 2ea5 863c 15f3 0a3d fa40 0a3d 188f 0a3d
000001f0: 88a5 013d 3179 1ebd f3ab d43c acad 143d
00000200: fd28 093d c1bb f53c 9915 1e3d ad44 023d
00000210: b10e 0b3d cbe4 113d 5821 0e3d 8723 f13c
00000220: 3591 0c3d 0034 fb3c 9489 053d ca0c 183d
00000230: 1e38 173d 65db 193d 87b0 ca3c 87fb 0a3d
00000240: 8ec5 e73c 9afe f93c 54f6 113d 0903 1e3d
00000250: 6d3c 0a3d e1e7 1b3d adcb 043d 32aa 1e3d
00000260: 9bac 1c3d 30be e33c 665a 073d 01d6 f03c
00000270: edee 753c 53aa 1c3d c33a 1b3d 3b69 f73c
00000280: 47fe 103d b608 083d 0729 073d 3a48 d73c
00000290: 899f 1e3d 99f7 8d3c b129 143d d9bd 1d3d
000002a0: 9379 003d 1c0e e63c 795a 103d bede 0c3d
000002b0: 31af 083d ea3b 0c3d 0d84 113d 9f73 0b3d
000002c0: 5b60 1a3d 0534 db3c 4eac bc3c b149 d93c
000002d0: ec3c 013d 3f31 053d 8ce1 0b3d a1c8 013d
000002e0: 5375 113d 89f0 0a3d 8cfe a33c 7d84 093d
000002f0: 0da7 9b3c 245f ad3c 3c70 003d cfd5 193d
00000300: 1273 163d 2255 033d aaaa 063d 2a46 113d
00000310: 4904 083d 3854 133d f5ea fb3c d864 1d3d
00000320: 51c2 0e3d 1766 133d 059f f03c 6a88 c43c
00000330: 4fec 9c3b eb8d 853c 5b34 e33c 92bd 0d3d
00000340: 9db3 cc3c d434 0e3d 3b3e d63c f1c8 0f3d
00000350: 5f12 0b3d 243c 113d 0fad 183d 298e bf3c
00000360: 250f 963c 2a8d 033d a7ac cc3c 851a 053d
00000370: aa0d 0c3d 99ad cb3c dd81 0c3d fdb3 f13c
00000380: a123 133d 4abf 0a3d 5379 ce3c 297d d93c
00000390: 16ab 5e3c f9e2 123d 3bd9 e63c 9ac4 ea3c
000003a0: 22ea a33c bf81 e93c d67a 163d 471e 103d
000003b0: a06f f23c a761 0d3d 281a 153d 4d3a 153d
000003c0: df01 173d 613b 123d 52a1 e93c 1374 093d
000003d0: a9a6 1b3d 18e0 d73c 4999 093d 125a 0c3d
000003e0: 69ef 903c 2118 1d3d c804 193d c336 133d
000003f0: 99da 163d eccf 1d3d d99e 113d f0b6 123d
