GolfFeedback-poc/src/s3_NAM_model/output/DA/0/checkpoints/epoch=497-val_loss=1.3867.ckpt (torch, 68430 bytes, 24 tensors)

model.feature_nns.0.model.0.weights f4 [1, 244]
0.02749298 0.0385805 0.03690095 0.03697836 0.038687658 0.030660586 0.03777968 0.038619924
0.035050202 0.014899769 0.013149936 0.029252136 0.036098413 0.03731817 0.03565081 0.018179769
0.03184116 0.036773305 0.035727456 0.034534797 0.038231768 0.02257986 0.03333343 0.025233682
0.013647027 0.029420393 0.029202728 0.03726043 0.021655278 0.034788705 0.027226517 0.028013786
0.020172548 0.036168236 0.03502907 0.032070003 0.016619375 0.038485922 0.03231605 0.020205826
0.037695598 0.013396482 0.03588872 0.037079956 0.036740787 0.03827422 0.025689041 0.015581687
0.038086157 0.03508895 0.036140814 0.0360745 0.027468447 0.037015714 0.035154592 0.03550037
0.027298287 0.025001436 0.031800695 0.020627795 0.032253377 0.033768192 0.026004203 0.031684335
0.036915828 0.02073325 0.035315216 0.037914988 0.037018128 0.025140353 0.03497482 0.03371023
0.030703269 0.035758924 0.034301274 0.026289035 0.038002644 0.029122908 0.03606363 0.036214318
0.037078988 0.03126418 0.028687505 0.036657922 0.03856291 0.024721554 0.031251006 0.038150966
0.034799043 0.03647969 0.031541485 0.036753934 0.034718152 0.024017936 0.038354207 0.018216008
0.03740257 0.025861762 0.03856752 0.036026664 0.038747463 0.038345262 0.03432846 0.038400754
0.025656868 0.02535779 0.020771036 0.026946446 0.036837097 0.036619555 0.01818933 0.02225623
0.03743139 0.038721725 0.037041023 0.034623533 0.0301759 0.034302276 0.03744999 0.02156195
0.0294375 0.034031413 0.013391836 0.03317748 0.034472916 0.035361666 0.028378054 0.03709269
0.017029071 0.012612544 0.03466627 0.036883038 0.033393715 0.037714023 0.036548305 0.037178498
0.032000337 0.03747927 0.023256855 0.027526772 0.028642148 0.037073135 0.038309578 0.027409386
0.036956847 0.02755954 0.035182457 0.03779289 0.03511363 0.032884482 0.03330344 0.032859046
0.015421624 0.034635477 0.03348977 0.03884392 0.02384965 0.038606454 0.03850985 0.019077897
0.031678937 0.035990156 0.03631723 0.029437333 0.02549826 0.028779231 0.030075045 0.035896517
0.03266639 0.036151826 0.032002065 0.0349073 0.036017384 0.021827009 0.029175196 0.012620079
0.029824648 0.024005402 0.010046776 0.038504444 0.02939703 0.033279885 0.026276542 0.033761963
0.01730786 0.031738613 0.03206104 0.03450499 0.033885315 0.037224483 0.03334095 0.02901327
0.038692307 0.031779878 0.038437337 0.023234285 0.027247462 0.021400636 0.026183276 0.033633597
0.037777986 0.023839248 0.03545121 0.0375437 0.03875147 0.0355746 0.02946472 0.020351935
0.034380183 0.03673 0.034077242 0.036298387 0.03838271 0.032356758 0.02544981 0.03213498
0.030510908 0.03687807 0.0363691 0.03310575 0.036700204 0.0063332133 0.025321411 0.03364825
0.03487716 0.038080752 0.03389233 0.026510417 0.031519722 0.02517534 0.028496858 0.030330973
0.037033234 0.03884217 0.034777336 0.02403594 0.017969351 0.029331982 0.022786558 0.025251698
0.019982949 0.034529172 0.03413037 0.032422956
00000000: f538 e13c 9606 1e3d 7325 173d 9f76 173d
00000010: f376 1e3d e92b fb3c debe 1a3d ed2f 1e3d
00000020: cd90 0f3d 291e 743c d472 573c 2da2 ef3c
00000030: eedb 133d f0da 183d 9506 123d bded 943c
00000040: e06b 023d 9b9f 163d f456 123d 5c74 0d3d
00000050: ea98 1c3d 66f9 b83c a288 083d deb6 ce3c
00000060: c897 5f3c 0903 f13c 8f3a ef3c 659e 183d
00000070: 6966 b13c 9a7e 0e3d 250a df3c 2b7d e53c
00000080: e640 a53c 2525 143d a47a 0f3d d65b 033d
00000090: 5b25 883c 6aa3 1d3d d65d 043d b086 a53c
000000a0: b366 1a3d eb7c 5b3c 0d00 133d 27e1 173d
000000b0: 827d 163d 6ec5 1c3d d371 d23c 554a 7f3c
000000c0: 3b00 1c3d 6eb9 0f3d 6408 143d dbc2 133d
000000d0: 8205 e13c ca9d 173d 43fe 0f3d d668 113d
000000e0: a8a0 df3c d0cf cc3c 7241 023d 9ffb a83c
000000f0: 1e1c 043d 8450 0a3d c406 d53c 6fc7 013d
00000100: 0d35 173d c7d8 a93c b0a6 103d bf4c 1b3d
00000110: 52a0 173d 24f3 cd3c c241 0f3d bd13 0a3d
00000120: 6c85 fb3c f377 123d 7e7f 0c3d 1a5c d73c
00000130: a9a8 1b3d 2a93 ee3c 75b7 133d 7755 143d
00000140: 23e0 173d de0e 003d 0f02 eb3c 9e26 163d
00000150: 24f4 1d3d db84 ca3c 0e01 003d 3044 1c3d
00000160: 7189 0e3d ba6b 153d a531 013d 4b8b 163d
00000170: 9f34 0e3d 43c1 c43c 4d19 1d3d bd39 953c
00000180: 7033 193d 0cdc d33c faf8 1d3d b290 133d
00000190: a9b5 1e3d ec0f 1d3d 009c 0c3d 1c4a 1d3d
000001a0: 5a2e d23c 24bb cf3c 0528 aa3c cbbe dc3c
000001b0: 7fe2 163d 63fe 153d ca01 953c b252 b63c
000001c0: a851 193d ac9a 1e3d 54b8 173d 68d1 0d3d
000001d0: 7333 f73c 8b80 0c3d 2965 193d b0a2 b03c
000001e0: e926 f13c 8664 0b3d 6e69 5b3c 1ce5 073d
000001f0: 7933 0d3d 65d7 103d 1879 e83c 81ee 173d
00000200: 8d80 8b3c d8a4 4e3c 38fe 0d3d ab12 173d
00000210: d9c7 083d 057a 1a3d adb3 153d 7b48 183d
00000220: c912 033d dd83 193d 2985 be3c d37f e13c
00000230: f0a2 ea3c 00da 173d 81ea 1c3d a689 e03c
00000240: 1060 173d 8bc4 e13c 7b1b 103d b8cc 1a3d
00000250: 4fd3 0f3d e1b1 063d 3069 083d 3597 063d
00000260: fbaa 7c3c eedd 0d3d 922c 093d cd1a 1f3d
00000270: 5760 c33c cd21 1e3d 81bc 1d3d 4049 9c3c
00000280: c6c1 013d 6a6a 133d 60c1 143d 9026 f13c
00000290: bae1 d03c 6cc2 eb3c f15f f63c 3a08 133d
000002a0: 31cd 053d f013 143d 9914 033d f5fa 0e3d
000002b0: f786 133d 8ece b23c d200 ef3c 73c4 4e3c
000002c0: d252 f43c faa6 c43c 3c9b 243c d6b6 1d3d
000002d0: 0ad2 f03c 7d50 083d e741 d73c fc49 0a3d
000002e0: 37c9 8d3c 5900 023d 7052 033d 1b55 0d3d
000002f0: 54cb 0a3d b378 183d 8590 083d 3dad ed3c
00000300: d37b 1e3d 9e2b 023d 7870 1d3d d455 be3c
00000310: 1236 df3c 6350 af3c 4f7e d63c 62c3 093d
00000320: 17bd 1a3d 874a c33c 4a35 113d 6cc7 193d
00000330: ddb9 1e3d acb6 113d ff5f f13c 1ab9 a63c
00000340: 3cd2 0c3d 3272 163d 9494 0b3d 9ead 143d
00000350: 3037 1d3d 8588 043d 1f7c d03c f89f 033d
00000360: 03f2 f93c 760d 173d c4f7 143d e599 073d
00000370: f452 163d d886 cf3b d96e cf3c bfd2 093d
00000380: 5adb 0e3d 90fa 1b3d afd2 0a3d 602c d93c
00000390: d31a 013d 843c ce3c 3e72 e93c a978 f83c
000003a0: 29b0 173d f818 1f3d ae72 0e3d 05e7 c43c
000003b0: 7634 933c a049 f03c e0aa ba3c a6dc ce3c
000003c0: 48b3 a33c 766e 0d3d 49cc 0b3d efcd 043d

model.feature_nns.0.model.1.weight f4 [1, 244]
-0.0012155876 -0.0012612514 -0.0012912254 -0.0010754407 -0.0011863229 -0.0012169656 -0.0014615348 -0.00111234
-0.001322742 -0.0013049686 -0.0010438255 -0.0012145743 -0.001146494 -0.0011511714 -0.0011209262 -0.0011261351
-0.0013706225 -0.0010468639 -0.0013399957 -0.0012787274 -0.0010883906 -0.0013431114 -0.0013694168 -0.0011244117
-0.0010714192 -0.0009827835 -0.0009404238 -0.0011003116 -0.0013970379 -0.0011530187 -0.0011664837 -0.0010441738
-0.0011449618 -0.0012335307 -0.0015045453 -0.0012479817 -0.0012740497 -0.0012449641 -0.001068561 -0.0009689986
-0.0012092874 -0.0010862837 -0.0012054612 -0.00090238615 -0.0009560454 -0.0012229106 -0.0011376636 -0.0010411514
-0.0012680248 -0.0011484242 -0.0010872859 -0.0013198229 -0.001340034 -0.0011819775 -0.0011052107 -0.0012736308
-0.0011648253 -0.0012982434 -0.001358236 -0.00110837 -0.0011474077 -0.0014773236 -0.0009512604 -0.0011407731
-0.0013150345 -0.0014465839 -0.0012418865 -0.0014909344 -0.0009121044 -0.0012047465 -0.0013823216 -0.0009413062
-0.0012554985 -0.0012542328 -0.0012887764 -0.0011304691 -0.001256287 -0.0010553251 -0.0012551796 -0.0016183171
-0.0011896745 -0.0011262882 -0.0010594622 -0.0011889922 -0.0012205426 -0.0013862634 -0.0012257962 -0.0010316214
-0.0011189921 -0.0010425586 -0.0011305606 -0.0012724209 -0.0008777989 -0.0012510935 -0.00090298126 -0.0012299805
-0.001419437 -0.000860293 -0.0013284823 -0.0013417652 -0.0013129063 -0.0012482132 -0.001165826 -0.0013061638
-0.0013389221 -0.0015356469 -0.0011617856 -0.0012431502 -0.0010631956 -0.0011793753 -0.0011826586 -0.001581317
-0.0010840636 -0.0012563367 -0.0009958328 -0.0011200311 -0.0009673785 -0.001271433 -0.001208378 -0.0011680513
-0.0013521261 -0.0010392604 -0.0011283706 -0.0010270472 -0.0012513982 -0.0015147835 -0.0012306089 -0.001332262
-0.0011881476 -0.0014368483 -0.0015114603 -0.0012006704 -0.0010723132 -0.0012417393 -0.0009827255 -0.0012856906
-0.001199118 -0.0014427102 -0.0013433212 -0.001124916 -0.0010371218 -0.0014643912 -0.0011463108 -0.0010249075
-0.0011401759 -0.0010967051 -0.0013066159 -0.0012636062 -0.0015884065 -0.001031086 -0.0010386144 -0.0010865638
-0.0012528592 -0.00120689 -0.0011477856 -0.0009564723 -0.0010284228 -0.0014177792 -0.0014005103 -0.0011521869
-0.0010306194 -0.000932562 -0.0012685747 -0.0009824523 -0.0010798345 -0.0010862425 -0.001271682 -0.0015198293
-0.0010531305 -0.0013891138 -0.0010551346 -0.001232668 -0.0011864082 -0.001222732 -0.0012342012 -0.0012672144
-0.0010844494 -0.0012582244 -0.001289433 -0.0011345097 -0.0009108036 -0.001265377 -0.001097748 -0.001392286
-0.0012033092 -0.001155043 -0.0012365588 -0.0011114125 -0.00096330425 -0.000962997 -0.0013496117 -0.0014596106
-0.0012654569 -0.0012496827 -0.0012364225 -0.0009749945 -0.001294948 -0.0012687558 -0.001054164 -0.0011835655
-0.0012840803 -0.0008782731 -0.0012361247 -0.0010963328 -0.0009937042 -0.0010156075 -0.0009952995 -0.0011175452
-0.0011894389 -0.0013088274 -0.0013681961 -0.0014609679 -0.0010703681 -0.0011840746 -0.0009671173 -0.0012296264
-0.0010259743 -0.0012673138 -0.0010906288 -0.0011325595 -0.0013925023 -0.0011810629 -0.0014295506 -0.0011085051
-0.0010253657 -0.0016734445 -0.0012205 -0.001385253 -0.0012493539 -0.0013481738 -0.001251723 -0.0013264474
-0.00097455026 -0.0011064186 -0.0011844067 -0.0012765186 -0.0012019171 -0.0010510439 -0.001399369 -0.0011583368
-0.0011915492 -0.0012932934 -0.0010308706 -0.0011324546
00000000: 5a54 9fba 9350 a5ba 563e a9ba cdf5 8cba
00000010: 647e 9bba 9782 9fba f890 bfba f0cb 91ba
00000020: db5f adba 7b0b abba f9d0 88ba 5a32 9fba
00000030: f445 96ba e7e2 96ba 0bec 92ba d39a 93ba
00000040: 76a6 b3ba ec36 89ba cba2 afba f99a a7ba
00000050: 54a8 8eba 570b b0ba 017e b3ba ff60 93ba
00000060: dd6e 8cba bed0 80ba c686 76ba 5538 90ba
00000070: d01c b7ba e320 97ba b3e4 98ba a9dc 88ba
00000080: 8b12 96ba 6cae a1ba 2a34 c5ba 5193 a3ba
00000090: 04fe a6ba 102e a3ba f50e 8cba 6504 7eba
000000a0: f480 9eba a261 8eba 9100 9eba 1c8e 6cba
000000b0: 1f9f 7aba 124a a0ba a81d 95ba 3e77 88ba
000000c0: da33 a6ba b986 96ba 4383 8eba e8fd acba
000000d0: 14a4 afba 95ec 9aba b8dc 90ba f5ef a6ba
000000e0: 0dad 98ba d229 aaba d606 b2ba ba46 91ba
000000f0: 9d64 96ba c1a2 c1ba 015e 79ba fe85 95ba
00000100: 3c5d acba 4d9b bdba ccc6 a2ba 756b c3ba
00000110: 4a1a 6fba 96e8 9dba 042f b5ba fdc1 76ba
00000120: 8a8f a4ba 1265 a4ba 29ec a8ba 402c 94ba
00000130: ffa9 a4ba d652 8aba d784 a4ba b61d d4ba
00000140: daee 9bba f69f 93ba a7dd 8aba f5d7 9bba
00000150: 9dfa 9fba 48b3 b5ba e5aa a0ba 7837 87ba
00000160: 25ab 92ba 76a6 88ba 522f 94ba 5cc7 a6ba
00000170: 161c 66ba bbfb a3ba 0cb6 6cba 4c37 a1ba
00000180: 670c baba 4985 61ba 7820 aeba 2bde afba
00000190: d315 acba 169b a3ba a1ce 98ba 9633 abba
000001a0: c57e afba c247 c9ba 0e47 98ba 33f1 a2ba
000001b0: ed5a 8bba 4595 9aba 7003 9bba 3244 cfba
000001c0: 2317 8eba aaab a4ba 9b86 82ba 02ce 92ba
000001d0: ac97 7dba 36a6 a6ba 7062 9eba 4c19 99ba
000001e0: d339 b1ba cb37 88ba d6e5 93ba fc9d 86ba
000001f0: f505 a4ba b38b c6ba 624c a1ba 4b9f aeba
00000200: 9ebb 9bba a154 bcba 311c c6ba d05f 9dba
00000210: dc8c 8cba dbc1 a2ba ccce 80ba 9e84 a8ba
00000220: b92b 9dba 5219 bdba 6112 b0ba eb71 93ba
00000230: 08f0 87ba d1f0 bfba cf3f 96ba 3056 86ba
00000240: f471 95ba 51bf 8fba c142 abba 979f a5ba
00000250: 1432 d0ba 8125 87ba 1e22 88ba 086b 8eba
00000260: fb36 a4ba 8230 9eba 4b71 96ba c5bb 7aba
00000270: 25cc 86ba c7d4 b9ba 5491 b7ba fa04 97ba
00000280: d915 87ba 2d77 74ba 4e46 a6ba a1c5 80ba
00000290: 3c89 8dba 4060 8eba 91ae a6ba 0235 c7ba
000002a0: 3209 8aba ed12 b6ba 714c 8aba 7991 a1ba
000002b0: 4181 9bba 1444 a0ba ecc4 a1ba a918 a6ba
000002c0: 1524 8eba 01eb a4ba 3102 a9ba d4b3 94ba
000002d0: ffc2 6eba 02db a5ba 50e2 8fba 5e7d b6ba
000002e0: 5bb8 9dba d064 97ba 0714 a2ba d1ac 91ba
000002f0: 4186 7cba a271 7cba 74e5 b0ba 6850 bfba
00000300: b0dd a5ba 65cc a3ba 740f a2ba c696 7fba
00000310: 3fbb a9ba 614c a6ba e02b 8aba de21 9bba
00000320: 964e a8ba e93b 66ba 7605 a2ba d3b2 8fba
00000330: 2e3f 82ba 221e 85ba b674 82ba 987a 92ba
00000340: f2e6 9bba f68c abba 0b55 b3ba f37d bfba
00000350: 984b 8cba f332 9bba 2586 7dba 6a2b a1ba
00000360: fc79 86ba ff1b a6ba 6ef3 8eba 6472 94ba
00000370: a084 b6ba e5cd 9aba c25f bbba 424b 91ba
00000380: 9065 86ba 7b57 dbba 2ff9 9fba 6191 b5ba
00000390: 5cc1 a3ba 35b5 b0ba db10 a4ba 30dc adba
000003a0: f678 7fba 3f05 91ba 183e 9bba db50 a7ba
000003b0: a589 9dba 2ec3 89ba 086b b7ba 55d3 97ba
000003c0: c22d 9cba ba83 a9ba 471e 87ba df6e 94ba

model.feature_nns.1.model.0.weights f4 [1, 272]
0.03405245 0.03837244 0.0311697 0.03562094 0.034542743 0.037648734 0.027334057 0.03578727
0.03713756 0.030909095 0.03727968 0.033044033 0.037942838 0.029907463 0.037260827 0.0386949
0.03803901 0.037003107 0.03858873 0.03346395 0.038563985 0.038338758 0.030852223 0.037354555
0.030909106 0.024049385 0.018488824 0.020008547 0.035138745 0.038185727 0.03455531 0.037307844
0.022172375 0.033520278 0.03702241 0.029128019 0.036311183 0.02847237 0.03805637 0.026073862
0.036557507 0.031021733 0.03609012 0.038304932 0.030640349 0.013856541 0.03266577 0.011993016
0.037185185 0.03480291 0.033321362 0.03126099 0.031958014 0.03809104 0.031599008 0.03755773
0.021753909 0.016192082 0.025900993 0.037666697 0.030965589 0.029648345 0.034851655 0.038397584
0.027506832 0.029220898 0.0352907 0.036638264 0.03446699 0.018974202 0.02193639 0.03295477
0.035765275 0.03446699 0.02124261 0.035743266 0.03274274 0.03559846 0.025506478 0.029266933
0.03225443 0.03346396 0.03549702 0.028497538 0.035138752 0.036876533 0.033837836 0.032509867
0.038021557 0.037942823 0.038099695 0.028867189 0.037041675 0.035508376 0.036174905 0.035428714
0.031528912 0.033892095 0.037298482 0.023492385 0.015570803 0.02448342 0.032758143 0.02956012
0.0356767 0.036628164 0.036496494 0.03471702 0.033837844 0.02736305 0.034505043 0.036424816
0.03661811 0.029266948 0.035508372 0.014489061 0.03784575 0.03626947 0.03268121 0.026309527
0.037756726 0.021308634 0.037845753 0.031040352 0.035950687 0.026276328 0.03314722 0.034479648
0.038389202 0.02910466 0.02205539 0.03140488 0.029821992 0.027591884 0.031114522 0.02886719
0.036414552 0.031114534 0.03597234 0.03656769 0.035290696 0.028030759 0.029648345 0.033435527
0.032509852 0.03877599 0.038572125 0.018588888 0.03385144 0.028189281 0.03713757 0.023588244
0.031703014 0.03761234 0.025935918 0.03741968 0.02603962 0.038727436 0.035197433 0.032173064
0.03382426 0.035874866 0.027759306 0.038439427 0.037099455 0.022621943 0.03540586 0.038637813
0.030117493 0.03870305 0.027923247 0.020544408 0.02245667 0.036111355 0.03838083 0.03727032
0.032803826 0.03761234 0.035485625 0.024933308 0.03510331 0.03257258 0.03686673 0.0386949
0.032008138 0.036100786 0.019511854 0.031737514 0.02879457 0.03327817 0.024732137 0.035115127
0.03749357 0.02150303 0.038447827 0.036026053 0.02877024 0.033728715 0.026141914 0.038751733
0.02400455 0.038621478 0.029128 0.035462942 0.027127566 0.034249105 0.03595069 0.03346395
0.03589657 0.029380964 0.02775931 0.021242606 0.022287542 0.030659799 0.03410528 0.03275813
0.031133015 0.022512207 0.03268121 0.037720826 0.03001313 0.024813205 0.03507966 0.026309531
0.031511333 0.034717016 0.033878487 0.038313445 0.03653723 0.020470424 0.034605272 0.03374242
0.035091583 0.036983743 0.03733589 0.027563643 0.037128065 0.035709992 0.033321362 0.03656767
0.03743816 0.025051503 0.027563643 0.036668334 0.038177107 0.02953796 0.026570434 0.020971904
0.030522563 0.032834217 0.027392037 0.031840008 0.03140487 0.034365166 0.037012797 0.037575986
00000000: 957a 0b3d 6b2c 1d3d 9957 ff3c 43e7 113d
00000010: b17c 0d3d 8f35 1a3d aceb df3c ac95 123d
00000020: 8e1d 183d 1235 fd3c 94b2 183d 2e59 073d
00000030: f369 1b3d 7f00 f53c cf9e 183d 8b7e 1e3d
00000040: cbce 1b3d 9290 173d 370f 1e3d 7f11 093d
00000050: 45f5 1d3d 1a09 1d3d cdbd fc3c 1701 193d
00000060: 1835 fd3c 3703 c53c e075 973c f7e8 a33c
00000070: a5ed 0f3d a368 1c3d de89 0d3d 1cd0 183d
00000080: d7a2 b53c 8f4c 093d d0a4 173d e29d ee3c
00000090: 09bb 143d e33e e93c ffe0 1b3d da98 d53c
000000a0: 53bd 153d 4a21 fe3c 3cd3 133d a2e5 1c3d
000000b0: 7801 fb3c 8c06 633c 8bcc 053d 5b7e 443c
000000c0: 7e4f 183d 7f8d 0e3d fb7b 083d 860b 003d
000000d0: 68e6 023d 5a05 1c3d f66d 013d 22d6 193d
000000e0: 4135 b23c 42a5 843c 522e d43c 6548 1a3d
000000f0: 8cab fd3c 16e1 f23c 9cc0 0e3d c946 1d3d
00000100: 0256 e13c aa60 ef3c fb8c 103d 0112 163d
00000110: 422d 0d3d c96f 9b3c f2b3 b33c 95fb 063d
00000120: 9c7e 123d 422d 0d3d fb04 ae3c 8867 123d
00000130: 401d 063d b1cf 113d f6f2 d03c 35c1 ef3c
00000140: 391d 043d 8111 093d 5365 113d ab73 e93c
00000150: a7ed 0f3d d90b 173d 8b99 0a3d 1129 053d
00000160: 7ebc 1b3d ef69 1b3d 6d0e 1c3d e27a ec3c
00000170: 03b9 173d 3b71 113d 232c 143d b31d 113d
00000180: 7624 013d 70d2 0a3d 4bc6 183d 1a73 c03c
00000190: ae1c 7f3c 7491 c83c 672d 063d 1128 f23c
000001a0: bb21 123d 6a07 163d 597d 153d 6f33 0e3d
000001b0: 8d99 0a3d 7a28 e03c 2955 0d3d 3032 153d
000001c0: dffc 153d 3dc1 ef3c 3a71 113d 8763 6d3c
000001d0: 2504 1b3d 4c8f 143d bcdc 053d 1487 d73c
000001e0: cca6 1a3d 728f ae3c 2604 1b3d 5648 fe3c
000001f0: 0741 133d 7441 d73c 61c5 073d 883a 0d3d
00000200: ff3d 1d3d e56c ee3c 81ad b43c 67a2 003d
00000210: 404d f43c 6008 e23c e2e3 fe3c e37a ec3c
00000220: 6d27 153d e8e3 fe3c bb57 133d 01c8 153d
00000230: fa8c 103d c3a0 e53c 16e1 f23c b1f3 083d
00000240: 0d29 053d 93d3 1e3d cefd 1d3d b947 983c
00000250: cfa7 0a3d 35ed e63c 911d 183d 223c c13c
00000260: 05db 013d 660f 1a3d 9077 d43c 6145 193d
00000270: 0b51 d53c a9a0 1e3d 2f2b 103d e7c7 033d
00000280: 4f8b 0a3d 86f1 123d 7c67 e33c a972 1d3d
00000290: 99f5 173d a751 b93c bc05 113d af42 1e3d
000002a0: f6b8 f63c 1787 1e3d 4bbf e43c bf4c a83c
000002b0: 0df7 b73c 80e9 133d 3835 1d3d c3a8 183d
000002c0: 4e5d 063d 660f 1a3d 6059 113d f040 cc3c
000002d0: 7dc8 0f3d d36a 053d 9101 173d 8b7e 1e3d
000002e0: f71a 033d 6bde 133d 53d7 9f3c 32ff 013d
000002f0: 97e2 eb3c b14e 083d 0d9b ca3c e1d4 0f3d
00000300: dc92 193d 1f27 b03c 787b 1d3d 0e90 133d
00000310: 91af eb3c 1f27 0a3d 9127 d63c 23ba 1e3d
00000320: 31a5 c43c 8e31 1e3d d89d ee3c 9741 113d
00000330: a13a de3c ca48 0c3d 0841 133d 7f11 093d
00000340: 4808 133d 59b0 f03c 7e67 e33c f904 ae3c
00000350: 5d94 b63c 422a fb3c fab1 0b3d 642d 063d
00000360: aa0a ff3c 856b b83c bcdc 053d 2781 1a3d
00000370: 18de f53c 1045 cb3c b1af 0f3d 1687 d73c
00000380: 0712 013d 6e33 0e3d 2bc4 0a3d 8fee 1c3d
00000390: 10a8 153d 97b1 a73c 42be 0d3d 7e35 0a3d
000003a0: 31bc 0f3d 447c 173d 85ed 183d 26cd e13c
000003b0: 9913 183d a444 123d fb7b 083d fbc7 153d
000003c0: c258 193d cf38 cd3c 26cd e13c 8931 163d
000003d0: 995f 1c3d 98f9 f13c 3daa d93c 45cd ab3c
000003e0: 740a fa3c 2c7d 063d 4465 e03c ab6a 023d
000003f0: 65a2 003d 7dc2 0c3d bb9a 173d 47e9 193d

model.feature_nns.1.model.1.weight f4 [1, 272]
-0.0003909045 -0.00030731063 -0.00016146594 -0.0006283436 -0.0005085049 -0.00020883899 -0.0002762226 -0.00029667257
-0.0005186676 -0.000417412 -0.00042929596 -0.00021176755 -0.0006371337 -0.00011086941 -0.00054998836 -0.0006765703
-0.00036909786 -0.00028452746 -0.0002300162 -0.00034300698 -0.00025684436 -0.0002352374 -0.00014819033 -0.0005440235
-0.00048596034 -0.00028005798 -0.00015021488 -0.00033765743 -0.0002875261 -0.0004626348 -0.00021721712 -0.00024851447
-0.0002451539 -0.0002769694 -0.00043811393 -0.00038833858 -0.00029745852 -0.00034279353 -6.544761e-05 -0.0003349234
-0.0006972512 -0.000434554 -0.00016593705 -0.00020316357 -0.00024814668 -7.2984665e-05 -0.0003440871 -0.0001941963
-0.0003754451 -5.4955246e-05 -0.00013004064 -0.0003078162 -2.2454848e-05 -0.00070064253 -0.00033038604 -0.00037487093
-0.0003222506 -0.00026203843 -0.00050324696 -0.00035371992 -0.0003799704 -0.0006155807 -0.00028919097 -0.00044356368
-0.00045427194 -0.0005245568 -0.00023781134 -0.000549065 -0.00033983216 -0.00013946032 -2.1715703e-05 -0.0004716451
-0.00023513654 -0.00049065147 -0.0003962097 6.1354374e-05 -0.0002829653 -0.00020171705 -0.0002512989 -0.00019096976
-0.0005512843 -0.00021223139 -0.0003382682 -0.0002523534 -0.00020110799 -0.0006047186 -0.00033158035 -0.0002201464
-0.00033139763 -0.00027635408 -0.00017347542 -0.0007375983 -0.00060184876 -0.00038814946 -0.0001238988 -0.00027434868
-0.0003159524 -0.0003397213 -0.00012835582 -0.0003684132 -0.00018108718 -0.00017800843 -0.00065227423 -0.00028866873
-0.0002896183 -0.00019290499 -0.00054380816 -5.1187537e-05 -0.0006337942 -0.00085269747 -8.556764e-05 -0.00017696981
-0.0005674366 -0.00030629203 -0.00058167934 -0.0005746089 -0.00050029554 -0.00039106476 -0.00015074176 3.1031053e-05
-0.00020650524 -0.0005737633 -0.000513051 -0.00027494947 -0.00046793564 -0.00043701418 -0.00085606944 -0.00018219564
-0.0005127497 -0.00046249843 -5.4953394e-05 -0.00046466768 -5.8032238e-05 -0.0005552325 -0.000119650875 -0.00012462302
-0.00034444657 -0.0002560138 -0.00045030186 -0.00044980895 -0.00030038308 -0.00035245006 -0.00038896018 -0.00026293556
-0.00032781984 -0.00034464986 -0.00021596259 -0.00046469294 -0.00031115403 -0.00029701105 -0.00068568013 -0.00044533185
-0.00013503565 -6.440628e-05 -0.00010489523 -0.0001951602 -0.00039693937 -0.00056591234 -0.00036843275 -0.00027332376
-0.000174845 -0.0005556804 -0.00042222452 -0.00028368647 -0.00044408184 -2.0639409e-05 -0.00042298378 -0.0007125919
-5.742489e-05 -0.00020853299 -0.0004878382 -0.0002488256 -0.00048016943 -0.000305712 -7.2089006e-06 -0.00031613203
-0.00030427016 -2.9990981e-06 -0.00016407024 -0.00018208685 -0.00016209534 -0.000217591 -0.00036300538 -6.844102e-06
-0.00042005896 -0.00048194118 -0.00052458124 -5.608082e-05 -0.00046123794 -0.0003702275 0.00013109363 -0.00034932408
-0.0002779504 -0.0003266583 -0.00027163533 -0.00033473677 -0.00035200323 -0.00015568733 -0.0002725546 -0.00052218925
-0.000314318 -0.00045049295 -0.00022129997 -0.00041544647 -9.759932e-05 -0.00014067882 -0.00032917742 -0.0006282928
-0.00056895637 -0.00036762093 -2.7991333e-05 -0.0005673381 -0.00033913794 -0.00034812657 -0.00022609434 -0.00022330719
-0.0004181777 -0.000349351 -0.00024942058 -0.0003256015 -6.914883e-05 -9.046563e-05 -0.00027054182 -0.00035488856
-0.0005233945 -0.000337678 -1.265925e-05 -0.0002027702 -0.0002622087 -0.0003998106 -0.00041471003 -0.00027187797
-0.00037531642 -0.0003213434 -0.00042055515 -5.1619652e-05 -0.00025357143 -0.00024616165 -2.4717814e-05 -0.00038981173
-0.00018201688 -0.00040985574 -0.00042838266 -0.00028474262 -0.00052453676 -0.00018302805 -0.00013742209 -7.448053e-05
-0.00047512792 -0.00024784484 -0.0005918351 -0.00053207896 -0.00040675965 -0.00027722324 -0.000547454 -0.00011815714
00000000: 50f2 ccb9 891e a1b9 2f4f 29b9 6db7 24ba
00000010: 304d 05ba cafb 5ab9 f8d1 90b9 b88a 9bb9
00000020: 32f7 07ba 17d8 dab9 2113 e1b9 eb0d 5eb9
00000030: 5205 27ba 9082 e8b8 182d 10ba dd5b 31ba
00000040: 7a83 c1b9 a12c 95b9 8130 71b9 9ed5 b3b9
00000050: 11a9 86b9 0faa 76b9 8a63 1bb9 cd9c 0eba
00000060: 7ec8 feb9 bfd4 92b9 0083 1db9 9d07 b1b9
00000070: 1abf 96b9 cb8d f2b9 c7c4 63b9 0c4b 82b9
00000080: 0088 80b9 3436 91b9 a8b2 e5b9 ec99 cbb9
00000090: 35f4 9bb9 f8b8 b3b9 eb40 89b8 a898 afb9
000000a0: bcc7 36ba dad4 e3b9 63ff 2db9 4e08 55b9
000000b0: af19 82b9 580f 99b8 9766 b4b9 2ca1 4bb9
000000c0: 63d7 c4b9 bf7f 66b8 855b 08b9 6462 a1b9
000000d0: 6b5d bcb7 53ab 37ba aa37 adb9 538a c4b9
000000e0: bef3 a8b9 3462 89b9 55ec 03ba 7c73 b9b9
000000f0: c436 c7b9 ec5e 21ba 8e9e 97b9 1c8e e8b9
00000100: 592b eeb9 6982 09ba ff5c 79b9 21ef 0fba
00000110: 802b b2b9 183c 12b9 1e2a b6b7 2247 f7b9
00000120: fc8e 76b9 109f 00ba 5eba cfb9 61ab 8038
00000130: f65a 94b9 0284 53b9 c4c0 83b9 0e3f 48b9
00000140: 1084 10ba 6e8a 5eb9 9759 b1b9 4d4e 84b9
00000150: 84e0 52b9 fa85 1eba f6d7 adb9 19d7 66b9
00000160: 70bf adb9 9ee3 90b9 f4e6 35b9 625b 41ba
00000170: 63c5 1dba 8a80 cbb9 d5ea 01b9 75d6 8fb9
00000180: 6aa6 a5b9 9f1c b2b9 4197 06b9 9527 c1b9
00000190: 38e2 3db9 c6a7 3ab9 62fd 2aba 7658 97b9
000001a0: e9d7 97b9 8a46 4ab9 598e 0eba 33b2 56b8
000001b0: 3525 26ba 8f87 5fba c772 b3b8 f990 39b9
000001c0: 07c0 14ba d295 a0b9 d77b 18ba 5aa1 16ba
000001d0: 4426 03ba d307 cdb9 6f10 1eb9 5727 0238
000001e0: 5489 58b9 9a68 16ba 457e 06ba 1827 90b9
000001f0: 4255 f5b9 0d1f e5b9 d969 60ba c50b 3fb9
00000200: 0d6a 06ba 7d7b f2b9 c27d 66b8 a49e f3b9
00000210: a467 73b8 068d 11ba 13ed fab8 3dad 02b9
00000220: d696 b4b9 9739 86b9 7e16 ecb9 56d4 ebb9
00000230: bc7c 9db9 0cc9 b8b9 5aed cbb9 9dda 89b9
00000240: 3cdf abb9 1fb2 b4b9 0474 62b9 08a2 f3b9
00000250: 6322 a3b9 26b8 9bb9 37bf 33ba 6e7b e9b9
00000260: 5b98 0db9 dc11 87b8 33fb dbb8 eba3 4cb9
00000270: 4d1c d0b9 bc59 14ba 352a c1b9 e54c 8fb9
00000280: 9956 37b9 15ab 11ba 045e ddb9 c1bb 94b9
00000290: a8d3 e8b9 cb22 adb7 ecc3 ddb9 3ccd 3aba
000002a0: 82db 70b8 a6a9 5ab9 89c4 ffb9 cf74 82b9
000002b0: 40bf fbb9 f847 a0b9 fce3 f1b6 86be a5b9
000002c0: 7386 9fb9 1d44 49b6 450a 2cb9 91ee 3eb9
000002d0: 23f8 29b9 2429 64b9 c251 beb9 63a6 e5b6
000002e0: 5c3b dcb9 0dad fcb9 0d84 09ba 5238 6bb8
000002f0: 4fd2 f1b9 181b c2b9 2e76 0939 7c25 b7b9
00000300: dfb9 91b9 5643 abb9 476a 8eb9 9c7f afb9
00000310: 138d b8b9 0040 23b9 a9e5 8eb9 87e3 08ba
00000320: 0ccb a4b9 2430 ecb9 c20c 68b9 48d0 d9b9
00000330: 3cae ccb8 2f83 13b9 7295 acb9 04b4 24ba
00000340: 0426 15ba 3fbd c0b9 eece eab7 6ab9 14ba
00000350: 53ce b1b9 c284 b6b9 bd13 6db9 9127 6ab9
00000360: dc3e dbb9 1929 b7b9 aac4 82b9 7eb5 aab9
00000370: ff03 91b8 5eb8 bdb8 82d7 8db9 5610 bab9
00000380: 6934 09ba 600a b1b9 1163 54b7 b69e 54b9
00000390: 0e79 89b9 ac9d d1b9 706d d9b9 d88a 8eb9
000003a0: 1ec6 c4b9 fb79 a8b9 f57d dcb9 2e82 58b8
000003b0: c8f1 84b9 420f 81b9 1a59 cfb7 a55f ccb9
000003c0: c9db 3eb9 e8e1 d6b9 8c98 e0b9 8249 95b9
000003d0: 1181 09ba 38eb 3fb9 f618 10b9 6e32 9cb8
000003e0: 971a f9b9 2cf1 81b9 6225 1bba 377b 0bba
000003f0: 5b42 d5b9 4658 91b9 0483 0fba 22cb f7b8

model.feature_nns.2.model.0.weights f4 [1, 316]
0.03822006 0.030679233 0.027304834 0.037720826 0.037128072 0.030241072 0.029426133 0.028163128
0.030482827 0.035150576 0.034390766 0.032525513 0.033742413 0.028110435 0.03516236 0.017142309
0.031564023 0.011993006 0.029426148 0.03136912 0.033350088 0.037612345 0.012304833 0.036058195
0.037836928 0.017388267 0.034605287 0.035067838 0.01557081 0.038800184 0.038751733 0.029335544
0.022512227 0.0364965 0.02630951 0.022512216 0.035643317 0.035197437 0.033701178 0.037801344
0.03782806 0.035508387 0.035620935 0.017266568 0.031991478 0.026005179 0.035417385 0.021503044
0.032634836 0.027731633 0.02554323 0.012304849 0.036768004 0.037041675 0.024182307 0.03479068
0.024004562 0.017015507 0.024355823 0.037711818 0.010494198 0.032509882 0.03813414 0.031873904
0.027563645 0.03304403 0.035972346 0.028867196 0.02736305 0.037729815 0.026309537 0.032367084
0.033292595 0.03295478 0.03698375 0.035776276 0.028843125 0.037845768 0.031599015 0.026441136
0.030382948 0.025830727 0.030909099 0.03575423 0.036896158 0.03781022 0.03374242 0.03433948
0.034741633 0.03163384 0.03231896 0.035162333 0.022889119 0.028319195 0.030281888 0.03683719
0.034505036 0.035209134 0.036311183 0.03678785 0.034900095 0.031599008 0.031096023 0.033645947
0.032879632 0.032572594 0.02497292 0.032399047 0.035687815 0.038530946 0.036537252 0.031351212
0.034984358 0.038703073 0.02097191 0.03624858 0.012304847 0.026039619 0.027841667 0.02617576
0.01487344 0.02024351 0.034912154 0.028962988 0.030502662 0.026175763 0.038194314 0.03324923
0.0360046 0.03585304 0.03184004 0.038832333 0.033220187 0.021175904 0.008231468 0.03642482
0.03874365 0.037175745 0.0311697 0.038832325 0.037934095 0.036414582 0.03715674 0.03485165
0.027127571 0.03858873 0.0293128 0.025970623 0.036506753 0.032696612 0.03821145 0.028622622
0.032619316 0.02223023 0.033478 0.03659801 0.022344396 0.032509845 0.03682739 0.03731716
0.03202478 0.028472384 0.033435542 0.037792314 0.033824284 0.02808397 0.030482827 0.028818829
0.03704167 0.03625891 0.030737191 0.037630536 0.03832196 0.034655113 0.019511877 0.03884031
0.03368733 0.02917463 0.03565435 0.037960447 0.038321964 0.031771768 0.038065024 0.034144744
0.032819033 0.036506765 0.030794943 0.032478303 0.034912165 0.035982985 0.038279507 0.029057741
0.030502647 0.03144054 0.033945844 0.030443031 0.035008296 0.027563661 0.022344388 0.036079522
0.01647948 0.027304849 0.03513873 0.010029438 0.033999298 0.03765776 0.031224573 0.018880034
0.028770259 0.027067548 0.030871231 0.030281886 0.019597339 0.031077538 0.02881883 0.037175752
0.02872139 0.035831127 0.031991474 0.014489074 0.02967029 0.0218761 0.037147146 0.027896134
0.032254443 0.031511337 0.031974725 0.035743255 0.018488845 0.032788612 0.034052473 0.031224566
0.03446702 0.02653834 0.038719334 0.025759907 0.0236828 0.038125582 0.02854785 0.034416225
0.037666712 0.03715673 0.037960384 0.026506035 0.034390755 0.033029325 0.026853984 0.035743266
0.029560125 0.03589658 0.03305896 0.03439075 0.030179545 0.038686804 0.027157413 0.034105267
00000000: a38c 1c3d 0453 fb3c 63ae df3c 2781 1a3d
00000010: 9b13 183d 20bc f73c 130f f13c 5cb6 e63c
00000020: 1fb7 f93c 0dfa 0f3d 55dd 0c3d 7939 053d
00000030: 7c35 0a3d db47 e63c 6806 103d 076e 8c3c
00000040: 4749 013d 507e 443c 1b0f f13c e87c 003d
00000050: 1a9a 083d 670f 1a3d 369a 493c c2b1 133d
00000060: e5fa 1a3d d771 8e3c 46be 0d3d 4ba3 0f3d
00000070: b61c 7f3c f1ec 1e3d 23ba 1e3d 1851 f03c
00000080: 906b b83c 5b7d 153d 0b87 d73c 8a6b b83c
00000090: bafe 113d 302b 103d 3f0a 0a3d 95d5 1a3d
000000a0: 99f1 1a3d 3e71 113d 42e7 113d 9e72 8d3c
000000b0: 7f09 033d d008 d53c d211 113d 2727 b03c
000000c0: 1bac 053d 732d e33c 0940 d13c 479a 493c
000000d0: 0c9a 163d 03b9 173d f919 c63c ac80 0e3d
000000e0: 37a5 c43c 1b64 8b3c dd85 c73c b577 1a3d
000000f0: dbef 2b3c 1529 053d 8b32 1c3d 368e 023d
00000100: 27cd e13c 2d59 073d bd57 133d e67a ec3c
00000110: 7a28 e03c 948a 1a3d 1987 d73c 5993 043d
00000120: d15d 083d 97fb 063d 467c 173d 258a 123d
00000130: 6b48 ec3c 2a04 1b3d f86d 013d 159b d83c
00000140: a9e5 f83c f69a d33c 1435 fd3c 0773 123d
00000150: 6d20 173d e4de 1a3d 7e35 0a3d 8ea7 0c3d
00000160: 3e4d 0e3d 7c92 013d e360 043d 6106 103d
00000170: f681 bb3c a8fd e73c b911 f83c 98e2 163d
00000180: 2755 0d3d 7437 103d 09bb 143d dbae 163d
00000190: 67f3 0e3d f66d 013d 16bd fe3c 55d0 093d
000001a0: cbac 063d d76a 053d 0294 cc3c ddb4 043d
000001b0: 632d 123d a0d2 1d3d 16a8 153d 216a 003d
000001c0: c24b 0f3d 1d87 1e3d 48cd ab3c 6479 143d
000001d0: 459a 493c 0a51 d53c 3514 e43c 8c6e d63c
000001e0: bbaf 733c b8d5 a53c 0c00 0f3d ca43 ed3c
000001f0: b8e0 f93c 8e6e d63c a471 1c3d 5830 083d
00000200: 8f79 133d a3da 123d b46a 023d a70e 1f3d
00000210: e411 083d 1779 ad3c 47dd 063c 3132 153d
00000220: a9b1 1e3d 9845 183d 9957 ff3c a50e 1f3d
00000230: c860 1b3d 7527 153d aa31 183d 9bc0 0e3d
00000240: a43a de3c 370f 1e3d 6621 f03c 58c0 d43c
00000250: 1b88 153d e2ec 053d 9c83 1c3d fd79 ea3c
00000260: d59b 053d 2c1c b63c 3a20 093d cce7 153d
00000270: 980b b73c 0b29 053d 51d8 163d e1d9 183d
00000280: 6a2c 033d eb3e e93c b5f3 083d 1dcc 1a3d
00000290: 558b 0a3d 5b10 e63c 1fb7 f93c 7715 ec3c
000002a0: 02b9 173d 3984 143d 90cc fb3c 7a22 1a3d
000002b0: 7df7 1c3d 85f2 0d3d 5fd7 9f3c 0417 1f3d
000002c0: bafb 093d a2ff ee3c 4c0a 123d 6a7c 1b3d
000002d0: 7ef7 1c3d 1d23 023d 12ea 1b3d 5cdb 0b3d
000002e0: 406d 063d 1e88 153d ad45 fc3c f807 053d
000002f0: 0f00 0f3d e562 133d f9ca 1c3d 800a ee3c
00000300: b0e0 f93c ccc7 003d cc0a 0b3d aa63 f93c
00000310: dc64 0f3d 30cd e13c 940b b73c 1fc8 133d
00000320: f9ff 863c 6bae df3c a1ed 0f3d 8352 243c
00000330: d942 0b3d 063f 1a3d adca ff3c 4daa 9a3c
00000340: 9baf eb3c c3bc dd3c aae5 fc3c b811 f83c
00000350: 998a a03c 5296 fe3c 7815 ec3c 9a45 183d
00000360: 1f49 eb3c a9c3 123d 7e09 033d 9563 6d3c
00000370: 1c0f f33c 8235 b33c 9b27 183d 6f86 e43c
00000380: 3c1d 043d 0812 013d eef7 023d 8567 123d
00000390: eb75 973c 5a4d 063d 9b7a 0b3d a9ca ff3c
000003a0: 4a2d 0d3d ef66 d93c 2a98 1e3d 7106 d33c
000003b0: 6e02 c23c 9229 1c3d 2edd e93c 07f8 0c3d
000003c0: 6948 1a3d a831 183d 597c 1b3d 2f23 d93c
000003d0: 52dd 0c3d c249 073d e3fc db3c 8867 123d
000003e0: 1328 f23c 4b08 133d d568 073d 51dd 0c3d
000003f0: 183b f73c 0e76 1e3d 3979 de3c f7b1 0b3d

model.feature_nns.2.model.1.weight f4 [1, 316]
-0.00029288876 -0.00026756755 -0.00042786152 -0.0003800668 -0.00020364446 -0.0003334537 -0.00014508881 -0.00031803988
-0.00019307426 -0.00019532522 -0.00016525698 -0.00014470592 -0.00045498053 -0.0004376659 -0.0001363757 -0.0002364058
-0.00025665463 -0.00032468844 -0.00023568507 -0.00028134865 -0.00031650678 -0.0003909875 -0.00021428108 -0.0005836823
-0.00020561738 -0.00036646705 -0.00048397487 -0.00037307595 -0.00037065902 -0.00042044497 -0.00031277933 -0.0003236702
-0.0002370325 -0.00025096355 -0.00013973081 -0.00015965875 -0.00036962915 -0.00011995996 -0.0002709486 -0.00012296486
-1.5507256e-05 -8.8046894e-05 -0.0005233642 -0.00029589853 -0.00012849388 -0.00024404968 -0.00016564928 -0.00018069778
-0.0002146425 -0.00068563304 -0.00031026418 -0.00013993998 -3.103689e-05 -0.00018081191 -0.00027775636 -0.00040598522
-0.00024637402 -0.00038767065 -0.0002266755 -0.00023234807 -0.00025759666 -0.00040555402 -0.00018243825 -0.00027089167
-0.00031188905 -0.0002781948 -0.00020564893 -0.00021998996 -5.1341784e-05 -0.00031054197 -0.00031428953 -8.499488e-06
-0.00044771173 -0.00024642525 -9.4615556e-05 -0.00024143049 -9.949689e-05 -0.00014602262 -0.00015405676 -0.00032107858
-0.00023626488 -0.000392466 -0.00037055445 -0.00018520048 -0.00039132586 -0.0001314721 -0.00020816895 -8.380574e-05
-0.00011208095 -0.0002213141 -0.00025291264 -0.00033119004 -0.0003612094 -0.00042459718 -0.00036628958 -0.00035496344
-0.00044194766 -0.00016807097 -0.0003318014 -9.1051406e-05 -0.00025479615 -0.00018019059 -0.00054522237 -0.0002496328
-0.0002553366 -0.00038306403 -0.00010154377 -0.00025785813 -9.080878e-05 -0.00014202172 -0.0004023043 -0.0003034948
-0.00022608381 -0.00017745035 -0.00017229958 -4.322469e-05 -0.00017805783 -0.00030316637 -8.462761e-05 -0.00015804409
-0.00027892875 -0.00033636537 -0.00021298719 -0.00028734212 -0.00033690326 -0.00022507411 -0.0002565118 -0.000337593
-0.0003688411 -0.00023173816 -0.00013181257 -0.000279182 -0.0003686843 -0.00019836887 -0.00027245772 -0.000162128
-0.0003341573 -0.00034492518 -0.00034775215 -0.00035367894 -0.0002802244 -0.00020622715 -0.00021312694 -0.00022115353
-0.0004673291 -0.0004103572 -0.00012656252 -0.00038592122 -0.0001300178 -0.00012671406 -0.00015793325 -0.0002518953
-0.0005420078 -0.000475477 -0.00025641397 -0.00035527706 -0.00021695264 -0.00026246416 -0.00030634154 -0.000298506
-0.00020516262 -7.66022e-05 -0.0003547325 -3.6529626e-05 -0.00027160684 -0.00024560728 -0.00019665413 -0.00022789976
-0.0003269065 -0.000155861 -0.00033500328 -6.876403e-05 -7.8172605e-05 -0.00026669409 -0.00024458105 -0.00012932514
-8.387522e-06 -9.007001e-05 -0.00021817422 -0.00013545099 -0.00024860812 -0.00039879323 -0.0002480498 -0.00025442344
-0.00034344883 -0.00036732445 -0.00012368857 -6.936008e-05 -0.00033536117 -0.00030683653 -0.00032541552 -0.0001827527
-0.00033084015 -0.00013034194 -0.00032686515 -0.00023689397 -0.00036345943 -0.00014800673 -0.00034804395 -0.00039646396
-0.0002665619 -0.00026028734 -0.00036748563 -0.00010657073 -0.00018650145 -0.00040073038 -0.00043038075 -0.00014523229
-9.107793e-05 -0.0003318515 -0.00032626852 -0.0004374445 -0.00030381238 -0.00016904259 -0.00055312377 -0.000300238
-0.0003415837 -0.00017457908 -0.000113361064 -0.00033184828 -0.00046286048 -8.068174e-05 -0.00044157694 -0.00038491318
-0.00029288998 -0.00017215597 -0.00036143884 -0.0002583042 -7.174829e-05 -0.00043768602 -0.00030577954 -0.00028374814
-0.00010836742 -0.0002626523 -0.00015233642 -0.00049715163 -0.0005281194 -0.00025585396 -0.0002056669 -0.00044047963
-0.0002357436 -0.00023290546 -0.00036668516 -0.00038404315 -0.00019755849 -0.0002966161 -0.0002722666 -8.970232e-05
-0.00029028897 -0.00025614674 -0.00021217205 -0.00024764083 -0.0002860712 3.422477e-05 -0.00030479216 -0.000105294675
00000000: dd8e 99b9 4f48 8cb9 9a52 e0b9 b443 c7b9
00000010: 6589 55b9 66d3 aeb9 fb22 18b9 97be a6b9
00000020: fa73 4ab9 37d0 4cb9 d548 2db9 33bc 17b9
00000030: 748a eeb9 8676 e5b9 1300 0fb9 b3e3 77b9
00000040: 9a8f 86b9 f23a aab9 3b22 77b9 fa81 93b9
00000050: d2f0 a5b9 74fd ccb9 a4b0 60b9 4202 19ba
00000060: ff9a 57b9 6022 c0b9 02be fdb9 6899 c3b9
00000070: 0355 c2b9 2b6f dcb9 88fc a3b9 47b2 a9b9
00000080: ed8b 78b9 c293 83b9 b484 12b9 126a 27b9
00000090: c9ca c1b9 0393 fbb8 1b0e 8eb9 21f0 00b9
000000a0: 9415 82b7 d1a5 b8b8 6032 09ba d422 9bb9
000000b0: 50bc 06b9 96e7 7fb9 24b2 2db9 b179 3db9
000000c0: a811 61b9 0ebc 33ba f4aa a2b9 dabc 12b9
000000d0: 9b2d 02b8 5498 3db9 d49f 91b9 6ada d4b9
000000e0: c32b 81b9 4640 cbb9 beaf 6db9 76a2 73b9
000000f0: 0a0e 87b9 8aa0 d4b9 e54c 3fb9 7706 8eb9
00000100: 0a85 a3b9 adda 91b9 77a3 57b9 1bad 66b9
00000110: d257 57b8 3dd0 a2b9 3ac7 a4b9 0699 0eb7
00000120: daba eab9 a332 81b9 576c c6b8 8128 7db9
00000130: fca8 d0b8 a61d 19b9 4c8a 21b9 7056 a8b9
00000140: dfbd 77b9 e5c3 cdb9 fa46 c2b9 6032 42b9
00000150: de2a cdb9 c6db 09b9 ed47 5ab9 ddc0 afb8
00000160: 000d ebb8 8d10 68b9 5c99 84b9 93a3 adb9
00000170: b460 bdb9 789c deb9 8e0a c0b9 631a bab9
00000180: 36b5 e7b9 353c 30b9 a1f5 adb9 daf2 beb8
00000190: 2996 85b9 8bf1 3cb9 41ed 0eba 26e1 82b9
000001a0: b3de 85b9 fcd5 c8b9 e5f3 d4b8 2231 87b9
000001b0: 9870 beb8 aaeb 14b9 5eec d2b9 621e 9fb9
000001c0: e910 6db9 f711 3ab9 51ab 34b9 284c 35b8
000001d0: 09b5 3ab9 4df2 9eb9 1a7a b1b8 a3b8 25b9
000001e0: 2f3d 92b9 325a b0b9 5055 5fb9 68a6 96b9
000001f0: 64a2 b0b9 df01 6cb9 6e7c 86b9 f7fe b0b9
00000200: 0461 c1b9 bdfe 72b9 2b37 0ab9 2c5f 92b9
00000210: f84b c1b9 3d01 50b9 a8d8 8eb9 e700 2ab9
00000220: d531 afb9 13d7 b4b9 8152 b6b9 fc6d b9b9
00000230: 15eb 92b9 ae3e 58b9 d47a 5fb9 73e5 67b9
00000240: da03 f5b9 3625 d7b9 deb5 04b9 7855 cab9
00000250: 6355 08b9 8cde 04b9 e29a 25b9 d110 84b9
00000260: 8715 0eba 7149 f9b9 4d6f 86b9 7b44 bab9
00000270: c87d 63b9 589b 89b9 779c a0b9 cc80 9cb9
00000280: ec20 57b9 7ea5 a0b8 64fb b9b9 6337 19b8
00000290: 7466 8eb9 dac4 80b9 f134 4eb9 60f8 6eb9
000002a0: a664 abb9 9e6e 23b9 61a3 afb9 6835 90b8
000002b0: 99f0 a3b8 13d3 8bb9 1d3b 80b9 749b 07b9
000002c0: 22b8 0cb7 f8e3 bcb8 b2c5 64b9 d907 0eb9
000002d0: 9e57 82b9 1f15 d1b9 ae0c 82b9 2364 85b9
000002e0: ec10 b4b9 7495 c0b9 66b2 01b9 6975 91b8
000002f0: 6ad3 afb9 e7de a0b9 889c aab9 4ea1 3fb9
00000300: 9d74 adb9 66ac 08b9 195f abb9 be66 78b9
00000310: b38e beb9 4132 1bb9 ab79 b6b9 7edc cfb9
00000320: 55c1 8bb9 2d77 88b9 16ab c0b9 ba7e dfb8
00000330: 9a8f 43b9 1f19 d2b9 baa4 e1b9 7f49 18b9
00000340: 1701 bfb8 5bfc adb9 050f abb9 cf58 e5b9
00000350: 0249 9fb9 0641 31b9 82ff 10ba 4369 9db9
00000360: 9716 b3b9 370f 37b9 42bc edb8 ecfb adb9
00000370: 15ac f2b9 ae33 a9b8 7483 e7b9 2cce c9b9
00000380: 078f 99b9 c484 34b9 807f bdb9 016d 87b9
00000390: 9277 96b8 3979 e5b9 0951 a0b9 08c4 94b9
000003a0: 5143 e3b8 98b4 89b9 7fbc 1fb9 4853 02ba
000003b0: 7e71 0aba 2324 86b9 4aa8 57b9 2df0 e6b9
000003c0: f131 77b9 1538 74b9 a63f c0b9 6659 c9b9
000003d0: b427 4fb9 2483 9bb9 01bf 8eb9 911e bcb8
000003e0: ed31 98b9 6f4b 86b9 807a 5eb9 cad5 81b9
000003f0: d4fb 95b9 918c 0f38 83cc 9fb9 a6d1 dcb8

model.feature_nns.3.model.0.weights f4 [1, 1000]
0.034832288 0.010536252 0.029427454 0.021218099 0.035273768 0.035453275 0.029924938 0.037224706
0.018014997 0.032889467 0.019901525 0.03497926 0.036152776 0.03830189 0.03364372 0.03165097
0.024185332 0.034535352 0.02568485 0.035881512 0.022106089 0.035647374 0.038758114 0.032580018
0.037850183 0.03488414 0.031646598 0.03054733 0.025309356 0.038048968 0.038070932 0.032029852
0.033029262 0.03683417 0.014539568 0.028364738 0.025510738 0.010545118 0.016948996 0.033539653
0.03531111 0.032727752 0.023960736 0.0074908515 0.022522118 0.016105982 0.017901776 0.03219504
0.036931608 0.021296741 0.02684693 0.038596533 0.02359923 0.03653121 0.032382153 0.035979792
0.03773413 0.03887533 0.037738267 0.029118564 0.02426962 0.027768793 0.034836624 0.032060318
0.03732427 0.027523777 0.033021986 0.03622634 0.036072567 0.0378468 0.023854058 0.03787665
0.026427101 0.033700265 0.025571264 0.038356327 0.038197853 0.030590784 0.027905477 0.024570014
0.022870848 0.035676263 0.031948358 0.013434702 0.03449501 0.02173779 0.03378041 0.03760752
0.03443665 0.037141707 0.037936702 0.037855648 0.03574847 0.030607102 0.038725745 0.016804509
0.029007351 0.023765843 0.021722982 0.033815138 0.035003874 0.02456996 0.032806776 0.035381895
0.03023988 0.037858266 0.036506813 0.035689868 0.031639036 0.037412323 0.038437992 0.024011407
0.024134178 0.033496216 0.030359952 0.018233279 0.036677774 0.029323956 0.036670413 0.030739466
0.016539242 0.034104034 0.0339335 0.03400828 0.031823497 -0.038889647 0.026108121 0.036488827
0.033665378 0.030161342 0.038794268 0.03197589 0.034130476 0.035806254 0.034883715 0.029598087
0.03450058 0.030831818 0.03277731 0.037315212 0.037111603 0.037758134 0.024884263 0.03411213
0.028449796 0.030683672 0.035823036 0.038776483 0.033929147 0.0382603 0.032595463 0.03893653
0.03844864 0.027955882 0.033222422 0.029560965 0.0151065085 0.038446467 0.038094558 0.030366989
0.035585523 0.033389322 0.03317515 0.026428217 0.038926326 0.017437426 0.03636246 0.03871025
0.031536248 0.028239314 0.03542867 0.034574825 0.033548772 0.034418926 0.0357136 0.034227125
0.037885435 0.026908915 0.023165558 0.026674105 0.031723306 0.032692734 0.034332383 0.031857103
0.03569951 0.034101613 0.020139156 0.033752996 0.01911607 0.021289194 0.031527296 0.037752792
0.036922917 0.032236777 0.033054136 0.03565435 0.033385117 0.036158055 0.03091941 0.038625058
0.03503785 0.036175165 0.02953463 0.024129359 0.004826956 0.016405413 0.027889844 0.03478819
0.02513096 0.034902394 0.026300825 0.035289343 0.034133997 0.035644766 0.037468668 0.023519035
0.01843 0.03229046 0.025127616 0.032670967 0.03437463 0.025005467 0.03448588 0.029667264
0.036111515 0.034054454 0.025348233 0.02669876 0.013679264 0.036049623 0.02833663 0.028817093
0.020129384 0.028662492 0.036930352 0.035371028 0.029757096 0.034700174 0.036592703 0.03662345
0.037059654 0.035889156 0.0286776 0.03373728 0.03819786 0.02650091 0.033772927 0.034447785
0.017801497 0.038551625 0.037552655 0.036129847 0.037022054 0.03872755 0.03573927 0.03600745
00000000: 4dac 0e3d 3ea0 2c3c d811 f13c 94d1 ad3c
00000010: 3a7b 103d 7437 113d 2525 f53c ef78 183d
00000020: 3094 933c 1bb7 063d 8608 a33c 6a46 0f3d
00000030: ef14 143d 71e2 1c3d ffcd 093d 73a4 013d
00000040: 5120 c63c f174 0d3d 0969 d23c 7ef8 123d
00000050: d417 b53c fb02 123d d4c0 1e3d a072 053d
00000060: cb08 1b3d ace2 0e3d dd9f 013d 653e fa3c
00000070: 9155 cf3c 3cd9 1b3d 44f0 1b3d bc31 033d
00000080: b149 073d 6ddf 163d 5e37 6e3c 2b5d e83c
00000090: e5fb d03c 6ec5 2c3c 9fd8 8a3c e060 093d
000000a0: 62a2 103d 890d 063d 4e49 c43c d175 f53b
000000b0: 4e80 b83c b1f0 833c bfa6 923c f2de 033d
000000c0: 9945 173d 8176 ae3c 18ee db3c 6617 1e3d
000000d0: 2c53 c13c c0a1 153d 26a3 043d 8c5f 133d
000000e0: 1a8f 1a3d bd3b 1f3d 7193 1a3d 0e8a ee3c
000000f0: 15d1 c63c 617b e33c d9b0 0e3d ae51 033d
00000100: 55e1 183d 8b79 e13c 1042 073d 1262 143d
00000110: d4c0 133d 3f05 1b3d 9669 c33c 8c24 1b3d
00000120: a67d d83c 4a09 0a3d d47a d13c 861b 1d3d
00000130: 5a75 1c3d 8699 fa3c 079a e43c 0e47 c93c
00000140: a55b bb3c 4621 123d 48dc 023d 391d 5c3c
00000150: a44a 0d3d 7313 b23c 545d 0a3d 580a 1a3d
00000160: 720d 0d3d e721 183d 8463 1b3d 860e 1b3d
00000170: fd6c 123d bfbb fa3c e39e 1e3d 9ca9 893c
00000180: d3a0 ed3c 96b0 c23c 65f4 b13c be81 0a3d
00000190: 3960 0f3d f146 c93c 6660 063d 9bec 103d
000001a0: a0b9 f73c 4511 1b3d 2b88 153d 8a2f 123d
000001b0: ef97 013d aa3d 193d 2871 1d3d 92b3 c43c
000001c0: 0ab5 c53c 5433 093d 6fb5 f83c f55d 953c
000001d0: 6f3b 163d cb38 f03c b733 163d 55d1 fb3c
000001e0: 4e7d 873c acb0 0b3d dbfd 0a3d 444c 0b3d
000001f0: 5b59 023d c04a 1fbd b3e0 d53c 4f75 153d
00000200: b5e4 093d eb14 f73c bde6 1e3d 27f9 023d
00000210: 66cc 0b3d 94a9 123d 3ae2 0e3d b077 f23c
00000220: 7b50 0d3d 0293 fc3c 8041 063d d6d7 183d
00000230: 5602 183d 46a8 1a3d 15da cb3c 29b9 0b3d
00000240: 8c0f e93c 535c fb3c 2dbb 123d 17d4 1e3d
00000250: 4af9 0a3d d5b6 1c3d d282 053d e97b 1f3d
00000260: 527c 1d3d bc03 e53c 3c14 083d d629 f23c
00000270: 4a81 773c 0b7a 1d3d 0a09 1c3d 31c4 f83c
00000280: 20c2 113d 3ec3 083d abe2 073d fd7f d83c
00000290: 3671 1f3d efd8 8e3c cef0 143d a48e 1e3d
000002a0: 272c 013d 2256 e73c a71d 113d 559e 0d3d
000002b0: 706a 093d dcfa 0c3d 6d48 123d be31 0c3d
000002c0: c22d 1b3d 1670 dc3c b2c5 bd3c a783 da3c
000002d0: 4cf0 013d d1e8 053d 1da0 0c3d 987c 023d
000002e0: a639 123d 22ae 0b3d dffa a43c 9540 0a3d
000002f0: 4e99 9c3c ad66 ae3c c422 013d aca2 1a3d
00000300: 7c3c 173d b60a 043d c663 073d 4c0a 123d
00000310: d5be 083d 781a 143d b44a fd3c 4f35 1e3d
00000320: d983 0f3d 692c 143d 9cf2 f13c efaa c53c
00000330: 712b 9e3b a564 863c 3e79 e43c 107e 0e3d
00000340: 71df cd3c d0f5 0e3d d474 d73c 8f8b 103d
00000350: 17d0 0b3d 3f00 123d bf78 193d feaa c03c
00000360: 83fa 963c 0043 043d 6ed8 cd3c fed1 053d
00000370: 69cc 0c3d 44d8 cc3c 1141 0d3d c308 f33c
00000380: abe9 133d af7c 0b3d 19a7 cf3c 5cb7 da3c
00000390: fe1e 603c c5a8 133d 3822 e83c d311 ec3c
000003a0: 61e6 a43c 9acd ea3c 4844 173d 36e1 103d
000003b0: 27c5 f33c c521 0e3d 3be2 153d 7902 163d
000003c0: ddcb 173d 8200 133d 49ed ea3c 1a30 0a3d
000003d0: 5c75 1c3d 7018 d93c 7b55 0a3d 1f19 0d3d
000003e0: 72d4 913c 4fe8 1d3d d0d0 193d e4fc 133d
000003f0: 70a4 173d c8a0 1e3d 5763 123d 8c7c 133d
