GolfFeedback-poc/src/s3_NAM_model/output/DA/0/checkpoints/epoch=08-val_loss=2474.4668.ckpt (torch, 68430 bytes, 24 tensors)

model.feature_nns.0.model.0.weights f4 [1, 244]
00000000: e25f cb3f 7800 df3f 0737 dc3f e05c dc3f
00000010: f130 df3f 9055 d13f 8db6 dd3f ac15 df3f
00000020: 8b06 d93f 8e7b af3f d3c8 aa3f b0ac ce3f
00000030: 70df da3f 95e7 dc3f 3227 da3f 0ab3 b73f
00000040: 1e78 d33f 7efb db3f 093a da3f 1a34 d83f
00000050: 3a73 de3f 627c c13f 831f d63f 7dea c63f
00000060: d623 ac3f f40e cf3f a896 ce3f afd3 dc3f
00000070: 017b bf3f 209c d83f edcf ca3f 4954 cc3f
00000080: c643 bc3f f6fa da3f 400c d93f a0e3 d33f
00000090: 8ded b33f 67cf de3f ed52 d43f c642 bc3f
000000a0: 7c84 dd3f ba7b ab3f cc86 da3f 997d dc3f
000000b0: 9bee db3f 8081 de3f 1de1 c73f f24a b13f
000000c0: 8f31 de3f 1f2c d93f 0bf2 da3f 73d6 da3f
000000d0: 2f60 cb3f e764 dc3f f345 d93f 70dd d93f
000000e0: b8fb ca3f 7172 c63f 3460 d33f 2645 bd3f
000000f0: fc2d d43f 04e2 d63f ef81 c83f 9a20 d33f
00000100: 1b2a dc3f eb6c bd3f 898d d93f 27ef dd3f
00000110: cc6d dc3f d8ae c63f 5fe1 d83f 84c9 d63f
00000120: 7767 d13f 803e da3f a4c2 d73f 260a c93f
00000130: 4501 de3f ef69 ce3f 5fdb da3f f116 db3f
00000140: e481 dc3f 4f5b d23f 72a5 cd3f bed0 db3f
00000150: 46f2 de3f d0f6 c53f af64 d23f 4547 de3f
00000160: cbac d83f 6c8b db3f 05f1 d23f d9fb db3f
00000170: 2c81 d83f ee7a c43f 2eb0 de3f 88b1 b73f
00000180: 6207 dd3f da28 c83f 64fd de3f 22b5 da3f
00000190: 4d45 df3f 76a5 de3f 18d4 d73f 06ac de3f
000001a0: e3ce c73f d124 c73f 8096 bd3f 6759 ca3f
000001b0: 4b0c dc3f 89bf db3f 77b2 b73f dcc4 c03f
000001c0: 4113 dd3f 1f42 df3f af64 dc3f b060 d83f
000001d0: fa5f d03f a5c8 d73f 2317 dd3f 0c59 bf3f
000001e0: fd0e cf3f 665a d73f ba7b ab3f f2d0 d53f
000001f0: 850c d83f e496 d93f d113 cd3f 418a dc3f
00000200: a7e7 b43f ce3f a93f 3271 d83f 0933 dc3f
00000210: f92b d63f 368c dd3f d5a0 db3f d7aa dc3f
00000220: 1bb5 d33f 6337 dd3f 25ea c23f da6d cb3f
00000230: f799 cd3f 9c8a dc3f c58f de3f 6435 cb3f
00000240: 5543 dc3f 2c8a cb3f fa4f d93f 7fb2 dd3f
00000250: f825 d93f f151 d53f 2305 d63f fb2e d53f
00000260: 0cdd b03f b75a d83f a758 d63f 0675 df3f
00000270: de1a c43f 5607 df3f b3e4 de3f d2c4 b93f
00000280: 5b18 d33f 45a7 da3f c03f db3f ec0e cf3f
00000290: a684 c73f d0d4 cd3f df38 d03f b486 da3f
000002a0: 11db d43f 69e8 da3f 3cbd d33f f0c6 d83f
000002b0: 28bf da3f aee1 bf3f 0997 ce3f 963f a93f
000002c0: 5ed5 cf3f 177b c43f 476a a13f 06e1 de3f
000002d0: 4cf9 ce3f 400c d63f 01f9 c83f 1dcf d63f
000002e0: 4483 b53f 9a40 d33f c6d3 d33f 3229 d83f
000002f0: 3a0c d73f 8ab6 dc3f 631f d63f 7b48 ce3f
00000300: e637 df3f 3250 d33f 5ccc de3f edce c23f
00000310: a6de ca3f 02ed be3f bfd7 c83f 75a4 d63f
00000320: b4b6 dd3f fc1a c43f e7be d93f 9542 dd3f
00000330: b541 df3f 4f00 da3f 990e cf3f ea9a bc3f
00000340: 2adf d73f b1f7 db3f e559 d73f 3236 db3f
00000350: 2cac de3f f761 d43f 6b5e c73f 02f2 d33f
00000360: 720b d13f 3233 dc3f cd55 db3f d8af d53f
00000370: 09e2 db3f 9bb6 933f 3e25 c73f 6697 d63f
00000380: 44c7 d83f d931 de3f 9618 d73f 857d c93f
00000390: cdcf d23f 86d7 c63f 7f38 cd3f 3cad d03f
000003a0: 3c6d dc3f 026e df3f 1da2 d83f b07a c43f
000003b0: 3830 b73f 7acd ce3f f7f1 c13f 32ea c63f
000003c0: f8b9 bb3f 9928 d83f a983 d73f a46f d43f
1.5888636 1.7422018 1.7204293 1.7215843 1.7436811 1.6354237 1.7321335 1.7428489
1.6955122 1.3709581 1.3342537 1.614645 1.7099438 1.7258173 1.7043211 1.4351513
1.6521032 1.7186124 1.7048961 1.68909 1.7378914 1.5116084 1.6728367 1.554031
1.3448436 1.6176438 1.6139727 1.7252101 1.4959413 1.6922646 1.5844704 1.5963222
1.4708183 1.7107837 1.6956863 1.6553841 1.405687 1.7407044 1.6587807 1.4707878
1.7306056 1.3397133 1.7072387 1.7225829 1.7182192 1.738327 1.5615574 1.3850996
1.7358874 1.696659 1.7105116 1.7096695 1.5888728 1.7218293 1.6974472 1.7020702
1.5858068 1.5503675 1.6513734 1.4786727 1.6576533 1.6787724 1.5664653 1.6494324
1.720035 1.4798864 1.6996318 1.7338609 1.7221007 1.5522108 1.6943778 1.6780248
1.63597 1.7050323 1.6856275 1.5706222 1.7344137 1.6126078 1.7098197 1.7116376
1.722714 1.6434115 1.6066115 1.7173078 1.7417686 1.5465946 1.6436976 1.73655
1.6927732 1.7151923 1.6479803 1.7186233 1.691442 1.5350015 1.7397516 1.4351053
1.7267878 1.5637467 1.7421079 1.7086527 1.7443024 1.7394245 1.6861601 1.7396247
1.5610012 1.555811 1.4811554 1.5808533 1.7191252 1.7167827 1.4351338 1.5060077
1.7271501 1.7442054 1.7218226 1.6904507 1.627929 1.6858107 1.7272686 1.494905
1.6176449 1.6824462 1.3397133 1.670439 1.6878821 1.6999173 1.6021672 1.7229692
1.4133195 1.3222597 1.6909544 1.7203075 1.6732169 1.7308414 1.7158457 1.7239636
1.6539644 1.7282528 1.5227705 1.5892899 1.6062611 1.72298 1.7387625 1.5875669
1.7208048 1.5901542 1.6977532 1.7320098 1.6964712 1.6665632 1.6720318 1.6654962
1.3817458 1.6902684 1.6745805 1.7457588 1.5320699 1.7424114 1.7413543 1.451319
1.6491808 1.7082297 1.712883 1.6176429 1.5587356 1.608057 1.6267356 1.7072358
1.6629354 1.7102176 1.6542125 1.6935711 1.7089586 1.4990747 1.6139842 1.322253
1.623699 1.5350064 1.2610558 1.7412422 1.6169829 1.6722488 1.570099 1.6781956
1.4180684 1.650409 1.6549003 1.6887572 1.6800606 1.7243207 1.6728328 1.6115869
1.7438934 1.6508849 1.7406116 1.5219399 1.5849197 1.4916079 1.569084 1.6768938
1.7321382 1.5320735 1.7011384 1.7285944 1.7441927 1.7031344 1.617633 1.4734776
1.6864979 1.7184964 1.6824309 1.7125914 1.7396293 1.6592396 1.5575689 1.655823
1.6331618 1.7203124 1.7135559 1.6694288 1.7178355 1.1540102 1.555824 1.6764953
1.6935811 1.7358962 1.6804378 1.574143 1.6469666 1.5534523 1.6032866 1.6302867
1.7220836 1.7455447 1.6924473 1.5349941 1.431159 1.6156456 1.5151967 1.5540221
1.4666128 1.688739 1.6837054 1.659657

model.feature_nns.0.model.1.weight f4 [1, 244]
00000000: be1b 923b 8884 a4b8 9876 51bb a56e 9cbc
00000010: 3bb1 25bc f6a3 4abd c7eb 32bd d716 0fbd
00000020: 8f7b f53c 4788 193d 3e5d cabc fa6e 8a3c
00000030: a823 37bc b210 863b 9a87 38bd c782 6bbd
00000040: b7a4 08bd a39a 013c 0b83 073c c0a1 80bc
00000050: c3fd 94bc 1b06 ebbb 13c2 fbbc f341 2c3c
00000060: da72 fc3b b706 bfbc 48fa 3f3c 7906 80bc
00000070: 49e8 8c3b 8a2e f73b c0bd 2a3d fd0f bb3c
00000080: bede ecbc 2d6c aeba 10a6 39bc c251 11bd
00000090: 18aa 10bd 2e19 123d a2ed f6bc d3ab fe3c
000000a0: 03eb 8d3c d40a e3bc d493 cdbc ba8d a13c
000000b0: 0197 8e3c 4f44 1dbc aaaf b5bc 2373 adbc
000000c0: 3547 b4bb 6ecd 4ebd 5ee3 b4bc 903e 12bd
000000d0: 0521 30bd 3631 083c 450c 29bd 7312 b6bc
000000e0: 4365 463c 4cdf 863c 1f58 25bc b8c1 14bd
000000f0: 2908 45ba c1f5 2fbd 6e86 3fbd a4ca 833c
00000100: 952c 133d 8f6a f03c a5f9 53bd fd27 04bd
00000110: 84dc 14bd 53ea f33c 54fd 1a3d 0db0 37bd
00000120: 8e8d 18bd d639 313d 8711 943c eca9 0dbc
00000130: 846b 033d 1648 e83c 7ee9 46bd bd74 3ebd
00000140: 27ad ed3b e51c 083d 1c0f 3d3b b870 37bc
00000150: 25a6 cf3c bde9 1ebd a5c2 4dbd 98e0 613c
00000160: 6252 dfbc af86 47bd 63de 38bd 5e67 c0bc
00000170: 2cdc 87bb 1f7d 83bb 3fe0 3bbd 5781 263d
00000180: 4ec7 863c b3e5 0b3d 71f1 12bd 17ca 3b3d
00000190: deae 963b a17f 22bd ea6e dfba e6dc e33c
000001a0: bb14 d6bc dec6 d53c f46d 03bd c3bf 5bbd
000001b0: c362 183d 648b 47bc 124a c9bc 165b be3c
000001c0: 83e9 d73c b421 9dbc 7324 2c3d 9756 4dbd
000001d0: 9209 d43c 00cc 14b7 7c8e 1e3d 26f4 04bd
000001e0: f1e6 80bc b728 51bd e454 0fbd 6e7b 97bb
000001f0: 443d 003d f373 993c 6c85 9bbc bc7c 29bb
00000200: 4c7e cabc 699e 8cbb aaf8 18bd 9996 8dbc
00000210: 4f14 953c fcca c23c 5221 febb 9cd1 8b3c
00000220: 5fb7 d83c fe6e 2cbd 46dd b3bc 9a65 253b
00000230: 2289 0abd b828 2dbd b038 cdbb fd1a c43b
00000240: 1263 c13c 24b5 00bd 5363 ccbc 9519 2c3c
00000250: 3412 9d3c f457 59bd 7f1e 183c 1351 023d
00000260: db7d 1b3c 931e e03b c302 2f3c 1f4d dabc
00000270: 04e7 783c 7214 7b3c 2e2f a8bb 0cfb d4bc
00000280: a0f0 003d 642a ce3c 89b8 5cbd 58ce 26bc
00000290: cc6c 26bd ab1e 88bc a0a9 abba 22cc 23bc
000002a0: 5ff7 433d 5390 de3c 992d 46bc 38c3 1e3d
000002b0: 4cc0 cabc 62f2 cebb 7b9d f1bc a603 663c
000002c0: 450f 18bd 3c6c ddbc bc6f 07bd 28cc 873c
000002d0: f8c9 f2ba f295 59bd fd67 cf3c ee38 0b3d
000002e0: cf3b 0d3d e957 2dbb 39dd f43b 1410 40bd
000002f0: cc84 783b af1c 2b3d cba5 cfbc c935 10bd
00000300: 99e3 f8bc 0cb1 483c 46dd 12bd 2a7d f03c
00000310: 8a4d 693c 05f5 cf3c 8df0 ccbc 2041 e1bc
00000320: 39c8 3ebd 2bbf 003b 1e96 0e3d b660 063d
00000330: 93a6 bd3c 2634 61bd 3cd0 be3c 48bd 703c
00000340: fddd 0d3d dab8 37bd 0f4f 1e3d 3ebb 48bc
00000350: a532 1a3c 4ef7 34bd c3df 033c bbb4 a53c
00000360: 7d78 4cbc a00a 0ebd 211f b7bc f16a 923b
00000370: cfb0 55bc f9e7 6b3b 9c32 cdbc 7365 3c3d
00000380: c534 ebba 2570 1bbd de1d f9bc a457 07bd
00000390: b0ec 193d cdce 26bd 83fb 043d b2fa 913c
000003a0: dbba 063c be79 883b 2ae1 02bd 46b9 9f3c
000003b0: dd00 1ebd 6da4 013d 1e11 48bd c472 0a3d
000003c0: d7ec 2f3d e1a4 883c 1353 5dbd be45 273d
0.0044588735 -7.844815e-05 -0.0031961557 -0.019095728 -0.010113056 -0.04947277 -0.043681886 -0.03493389
0.029966144 0.03748348 -0.024702664 0.01689862 -0.011177935 0.0040913457 -0.045051195 -0.057497766
-0.03336021 0.007910403 0.008270989 -0.015702128 -0.01818741 -0.0071723587 -0.03073219 0.01051377
0.007704121 -0.023318632 0.011717387 -0.015628086 0.0043001515 0.0075433897 0.041684866 0.022834772
-0.028914806 -0.0013307385 -0.011331096 -0.03547836 -0.035318464 0.035668544 -0.030142609 0.031087792
0.017323976 -0.027715124 -0.025094904 0.0197209 0.017405989 -0.009598806 -0.02217849 -0.021173066
-0.0055016526 -0.05048888 -0.022081073 -0.035704195 -0.04300024 0.008312514 -0.041271467 -0.022225594
0.012109104 0.016463898 -0.0100918105 -0.036317557 -0.00075161696 -0.04295898 -0.04675906 0.016087838
0.03593119 0.029347686 -0.05175175 -0.0322647 -0.036343113 0.02977482 0.03783925 -0.04484563
-0.037244372 0.043268047 0.018074764 -0.00864647 0.032084957 0.028354686 -0.04856252 -0.04649805
0.0072533074 0.03323068 0.0028848117 -0.011196308 0.025347779 -0.03879713 -0.050234456 0.0137864575
-0.027260963 -0.04871243 -0.04513396 -0.02348679 -0.0041461196 -0.0040127183 -0.045868155 0.04065069
0.016452458 0.034154605 -0.035874788 0.045847025 0.0045984825 -0.039672498 -0.0017046605 0.027815294
-0.026132932 0.026095804 -0.03208728 -0.053649675 0.03720356 -0.012179229 -0.024571452 0.023236793
0.026356464 -0.01918111 0.04202695 -0.050131407 0.02588347 -8.868985e-06 0.038710102 -0.0324594
-0.015735121 -0.05106422 -0.034993067 -0.0046228683 0.031308427 0.018732047 -0.018984519 -0.00258617
-0.024718426 -0.004291345 -0.03734652 -0.017283725 0.01819816 0.023778431 -0.007755437 0.017067723
0.026454626 -0.042098038 -0.021956097 0.0025237561 -0.033822186 -0.04227516 -0.006262861 0.0059846626
0.02360681 -0.03142275 -0.024949705 0.010504146 0.019173719 -0.053062394 0.009284615 0.0318156
0.0094904555 0.006839582 0.010681811 -0.026648102 0.015191797 0.015324699 -0.0051325774 -0.025998615
0.031479478 0.025166698 -0.053886924 -0.010181032 -0.0406311 -0.016616186 -0.0013096817 -0.0099973995
0.047843333 0.027168429 -0.012095832 0.038760394 -0.024749897 -0.0063155154 -0.029494038 0.014038956
-0.037123937 -0.02702915 -0.033065543 0.016576841 -0.0018523326 -0.053121515 0.02531814 0.03398984
0.034480866 -0.0026450104 0.007472661 -0.046890333 0.003792095 0.0417754 -0.025347611 -0.035207544
-0.030381965 0.0122492425 -0.035855554 0.029356558 0.014239678 0.02538539 -0.025017047 -0.027496874
-0.046577666 0.0019645195 0.03481113 0.032807074 0.023150718 -0.054981373 0.023292653 0.014693566
0.034635533 -0.044854023 0.038649615 -0.012251673 0.009411489 -0.04418116 0.008048954 0.02022778
-0.0124798985 -0.0346781 -0.02235371 0.004468315 -0.013042643 0.003599642 -0.025048546 0.045995187
-0.0017944804 -0.037948746 -0.03040975 -0.033042565 0.03757924 -0.040724564 0.032466423 0.017819736
0.008223261 0.0041649034 -0.031953014 0.019497525 -0.038575042 0.03165095 -0.04884445 0.033800855
0.042950477 0.016680183 -0.054034304 0.040837996

model.feature_nns.1.model.0.weights f4 [1, 272]
00000000: fd5f d73f deaf de3f 5842 d23f 4b13 da3f
00000010: 9c39 d83f 147d dd3f db18 cb3f cf5b da3f
00000020: e3a2 dc3f 3ec9 d13f addf dc3f e79b d53f
00000030: 1afa dd3f 57f3 cf3f a2d7 dc3f be37 df3f
00000040: dc22 de3f 3b69 dc3f 000b df3f dc58 d63f
00000050: 9e00 df3f a6a1 de3f bfae d13f b3ff dc3f
00000060: 3ec9 d13f 7c92 c43f da6c b83f dce8 bb3f
00000070: 4640 d93f f960 de3f 293f d83f b7eb dc3f
00000080: 90a5 c03f 2a72 d63f 8671 dc3f 8b80 ce3f
00000090: 2a3f db3f f744 cd3f 362a de3f 21a4 c83f
000000a0: 98a9 db3f a8fd d13f 6fdf da3f 6093 de3f
000000b0: da4b d13f 3fc4 ac3f a8f0 d43f 347d a73f
000000c0: 44b7 dc3f 82ac d83f d118 d63f 9e6c d23f
000000d0: d2ad d33f e438 de3f d008 d33f 5b56 dd3f
000000e0: d9bf bf3f 95dd b23f c34c c83f c584 dd3f
000000f0: 8be3 d13f 9478 cf3f fdc1 d83f 7fba de3f
00000100: fd6d cb3f f8ac ce3f e882 d93f 64cc db3f
00000110: 1b18 d83f b18d b93f 4224 c03f 8a73 d53f
00000120: 3c52 da3f 1b18 d83f 1ea4 be3f 9d48 da3f
00000130: 8e13 d53f 8609 da3f 4684 c73f f7c2 ce3f
00000140: 6d35 d43f dc58 d63f 33dd d93f 3051 cd3f
00000150: 4640 d93f e332 dc3f 4f00 d73f caa9 d43f
00000160: 7a1b de3f 1afa dd3f 8d3c de3f 6903 ce3f
00000170: ce79 dc3f 26e2 d93f 3004 db3f 58bf d93f
00000180: 7fe8 d23f 7818 d73f b7e7 dc3f 726c c33f
00000190: a54a b13f 4675 c53f 811a d53f ac4e cf3f
000001a0: 9f2b da3f 0ec8 db3f 448f db3f 9b86 d83f
000001b0: 4f00 d73f 3127 cb3f e528 d83f 5370 db3f
000001c0: b7c3 db3f f7c2 ce3f 26e2 d93f 2f78 ae3f
000001d0: e2d0 dd3f 1f2d db3f aaf7 d43f d21a c93f
000001e0: 07ab dd3f f1c8 be3f e2d0 dd3f 5006 d23f
000001f0: e9a2 da3f 1e0a c93f 6eca d53f b71d d83f
00000200: f7b6 de3f 5875 ce3f 8c65 c03f 36af d23f
00000210: e3ca cf3f c997 cb3f bf28 d23f 6903 ce3f
00000220: e16b db3f bf28 d23f 49ac da3f f6ad db3f
00000230: e882 d93f 826e cc3f 9478 cf3f 234c d63f
00000240: caa9 d43f cd59 df3f 1404 df3f bea8 b83f
00000250: 5b06 d73f b9bb cc3f e3a2 dc3f 479f c33f
00000260: bc38 d33f a36d dd3f 685e c83f 7c1b dd3f
00000270: d592 c83f 6745 df3f 0b5a d93f 4610 d43f
00000280: 3efa d63f e681 da3f e2e9 cb3f 26cc de3f
00000290: 8392 dc3f f999 c13f 55b5 d93f b71f df3f
000002a0: 7656 d03f 2b3b df3f 103a cc3f 151b bd3f
000002b0: 6a40 c13f a6e8 da3f 6ab3 de3f a8db dc3f
000002c0: 402f d53f a36d dd3f 3ad8 d93f 525e c63f
000002d0: b930 d93f 4ec6 d43f ad2e dc3f be37 df3f
000002e0: c7c4 d33f 0ee4 da3f 47c9 ba3f 9148 d33f
000002f0: 7ce0 cd3f 6205 d63f 5ff6 c53f eb35 d93f
00000300: 003b dd3f 0b35 bf3f adcf de3f 9fc3 da3f
00000310: c5d4 cd3f 7ecf d63f 75c6 c83f 9e4f df3f
00000320: f27a c43f d418 df3f 8b80 ce3f 4cce d93f
00000330: d1b2 ca3f 72b7 d73f e9a2 da3f dc58 d63f
00000340: 5d8b da3f 5af9 ce3f e2e9 cb3f 1ea4 be3f
00000350: 63e4 c03f f654 d13f 8477 d73f 811a d53f
00000360: 4e31 d23f 885e c13f aaf7 d43f c89b dd3f
00000370: 4025 d03f 5520 c63f 5326 d93f d21a c93f
00000380: 5ee0 d23f 9b86 d83f 7012 d73f f196 de3f
00000390: d5a0 db3f 0df1 bc3f 4c55 d83f a1d5 d63f
000003a0: 882b d93f eb60 dc3f b8f7 dc3f e689 cb3f
000003b0: cd9e dc3f 273a da3f d118 d63f f6ad db3f
000003c0: 6423 dd3f 309b c63f e689 cb3f 5cd9 db3f
000003d0: 5a5d de3f 2044 cf3f 969d c93f 800c be3f
000003e0: b914 d13f 023d d53f 7735 cb3f a877 d33f
000003f0: 36af d23f f1ea d73f 636d dc3f 205e dd3f
1.6826168 1.739742 1.6426497 1.7037138 1.6892581 1.7303796 1.586696 1.7059268
1.7237209 1.6389539 1.725576 1.6688203 1.734195 1.6246136 1.7253306 1.7438886
1.7354388 1.7219614 1.7425232 1.6745868 1.7422063 1.7393081 1.6381453 1.7265533
1.6389539 1.5357203 1.4408219 1.4680438 1.697274 1.7373344 1.6894275 1.7259434
1.5050526 1.675359 1.7222145 1.6132978 1.7128651 1.6036671 1.7356632 1.5675088
1.7161131 1.6405535 1.7099437 1.7388725 1.6351273 1.349739 1.6635942 1.3085084
1.7243428 1.6927645 1.6726323 1.6439397 1.6537421 1.7361112 1.6487064 1.7291979
1.4980422 1.3973871 1.5648426 1.7306143 1.6397566 1.6208673 1.69342 1.7400664
1.5892941 1.6146536 1.6993074 1.717175 1.6882356 1.4496366 1.5011065 1.6675885
1.7056346 1.6882356 1.4893835 1.705341 1.6646593 1.7034156 1.5587242 1.6153249
1.6578804 1.6745868 1.702063 1.6040401 1.697274 1.7203029 1.6796969 1.6614316
1.7352135 1.734195 1.7362229 1.6094791 1.7224672 1.702214 1.7110653 1.7011518
1.6477202 1.6804342 1.7258214 1.526747 1.3850905 1.5426414 1.6648713 1.6195884
1.7044562 1.7170427 1.7153096 1.6916078 1.6796969 1.5871335 1.688748 1.7143654
1.7169102 1.6153249 1.702214 1.3630427 1.7329371 1.7123145 1.6638081 1.571131
1.7317818 1.4905072 1.7329371 1.6408176 1.7080966 1.5706213 1.6702402 1.6884068
1.7399586 1.612956 1.503099 1.645972 1.6233791 1.5905696 1.6418685 1.6094791
1.7142297 1.6418685 1.7083827 1.7162464 1.6993074 1.5971224 1.6208673 1.6741985
1.6614316 1.744928 1.742312 1.4426496 1.6798815 1.5994788 1.7237209 1.5282983
1.6501689 1.7299083 1.565381 1.7274013 1.566981 1.7443055 1.6980604 1.6567466
1.6795118 1.7070892 1.593075 1.7406051 1.7232212 1.5125114 1.7008463 1.7431554
1.6276386 1.7439932 1.5955219 1.477389 1.5097783 1.7102249 1.7398503 1.7254534
1.6655045 1.7299083 1.7019112 1.5497534 1.6967994 1.6623018 1.7201744 1.7438886
1.6544427 1.7100847 1.4592675 1.650652 1.6084132 1.6720393 1.5465811 1.696958
1.728363 1.4938062 1.7407128 1.7090949 1.6080557 1.6782072 1.5685564 1.7446172
1.535002 1.7429452 1.6132978 1.7016082 1.583582 1.6852858 1.7080966 1.6745868
1.707378 1.6169846 1.593075 1.4893835 1.5069698 1.6354053 1.6833348 1.6648713
1.6421297 1.5106974 1.6638081 1.7313166 1.6261368 1.5478617 1.6964821 1.571131
1.6474721 1.6916078 1.6802502 1.7389814 1.7158457 1.4761063 1.690103 1.6783944
1.696641 1.7217077 1.7263098 1.5901458 1.7235962 1.7048997 1.6726323 1.7162464
1.7276425 1.551611 1.5901458 1.7175708 1.7372239 1.6192665 1.5751216 1.4847565
1.6334449 1.6659243 1.5875691 1.6520891 1.645972 1.6868573 1.7220882 1.729435

model.feature_nns.1.model.1.weight f4 [1, 272]
00000000: 3a6a 933c 45ea 973c 121c b1bb 6c3a 5ebb
00000010: 8e7d 1fbc d23b 963c 5759 973c 910d b53b
00000020: 6a66 8a3c 5656 783c defe 953c 7887 6b3c
00000030: c693 d6ba 61e3 4bbc b869 303c 51f5 75bb
00000040: 0e31 143c aeba 5b3a 5770 883c d6ca 853c
00000050: 8846 943c b9ae 17bc 4fa4 893c 7741 823b
00000060: 6c2d b7bb 6098 91bc 6e4e aebb b745 27bb
00000070: a60e d33b f41a 8d3c df68 983c 6050 8d3c
00000080: 552e 6fbc 00a7 323c 1ee1 b93b 922e 8dbc
00000090: 902e 8dbc c608 beba 093e 64bc 56c3 903c
000000a0: 319e 83bb efa6 963c c9b8 64bc 9656 f2bb
000000b0: a8c4 95bc 800b 2fba dee7 04bc 7582 7b3c
000000c0: 1905 fbbb 5932 1cbc 72c0 6f3c 22f6 993c
000000d0: ecb9 4e3b abbc 413b 28f9 8fbc 1a43 953c
000000e0: 46ed 743c f056 123c c0df ec3a 0233 9a3c
000000f0: 405d f1b8 3c3c 85bb cb20 90bc ba0b 713c
00000100: 6290 9fbb f51a 573c f556 973c 5ded 87bc
00000110: b7e3 cb3b 47ae 863c 046f dcbb 1b0b c6bb
00000120: aaf9 5d3c be43 383c f53d 923c 5e26 8f3c
00000130: eb93 7e3c 927e 28bc 3fb4 71bc 6f6b 993c
00000140: 1ea7 223b 8097 88bc 30e2 7a3c d412 883c
00000150: ccad 843c 60b7 6bbb 58a6 8bbc 9838 d2b9
00000160: f0da 7abc ee08 90bc bcef a7ba d796 0fbb
00000170: 4e55 1fbc b5d1 f03a c062 963c 1a03 8f3c
00000180: 37f3 d73a 144d 813b fa68 943c 345b b8bb
00000190: c569 6fbc 5c89 87bc b2de 00bc 6a11 e6ba
000001a0: f476 543c 1ac2 7bbc 22be 55bc b8a8 adbb
000001b0: 5e8e a1bb a065 c63a e350 70bb 94d2 88bc
000001c0: 5ee2 6abc 5ae4 70bc 5459 e1bb 42d2 daba
000001d0: 7ca9 40bb 5736 873c 5e19 84bc 6432 743c
000001e0: 1792 813b dca2 e7bb 81a8 eabb 21fc b9bb
000001f0: a88d 46ba f6bd 65bc ec2d f8ba 61fc 87bc
00000200: d85d 30bb 1c29 983c e0fb 8fb9 c2b8 57bb
00000210: 8310 973c 5aa2 943c 1967 83bc 7882 8bbc
00000220: 0ee4 003c ffd3 8abc 479d 8c3c 0f61 ba3b
00000230: c996 56bc 1f05 1fbc 3c40 edbb f0e3 95bc
00000240: 8d94 613c 3a46 843c 4215 7fbc 9a93 8bbc
00000250: 292e 8bbc bb6f 2ebc 1eb2 863a 5af4 95bb
00000260: bc49 1cba b8d0 943c 7844 dbbb 97de 8d3c
00000270: 3662 ea3b 2271 aaba 08cb 363b 4d12 573c
00000280: 72a1 e03b 4092 133b cbd4 95bc e54f 953c
00000290: d543 60bb 20a1 60b9 0c55 013b 2a33 613b
000002a0: 590d 77bc 5619 933c e985 983c c879 833c
000002b0: 0048 bc36 12ba 933c f766 89bc 52fc cfbb
000002c0: 6124 803c 8701 30bc aead 943c 08a6 18bc
000002d0: 103a 91bc 68b0 993c 3d36 8cbc 866d 983c
000002e0: 0045 b8b8 07b9 83bc e376 983c 7a5d 8dbc
000002f0: b7cf 9bbb 4c75 953c 2e8c 3dbc f9eb 95bc
00000300: 8801 17bc f0a0 8bbc fa68 c63b 94df 84bc
00000310: 0f44 913c 841b 963c 1056 a339 b214 bfbb
00000320: 2380 7fbc 0cfd 44bc 3830 8f3c 9181 b53b
00000330: 92c4 8ebb 36ef 663c c778 973c 3867 473b
00000340: 2ecd f6bb ab9b 753b 19e2 88bc 9cc6 11bb
00000350: 7482 973c 626d 933c 2f03 8fbc 501d 9039
00000360: 6e28 8cbc 4c82 973c 07eb 8fbc eba8 513c
00000370: 9b0c 133b 52ee 87bc b25e 7b3b c468 1f3b
00000380: 6c4a 03bb 61b1 753c 7432 d23b ca4e 923c
00000390: dff0 06bc b58b 953c dcfa e5bb d1dd 87bc
000003a0: b455 023a 293d 993c 389c 573c 5cd3 8b3c
000003b0: d7ad 95bc 0416 753c caf7 7bba b6d8 963c
000003c0: 3db3 14bc 642b fbbb ab74 bfbb f2c9 84bc
000003d0: c4b3 82bc 9060 823c d1e1 913c 2bc1 843b
000003e0: 420b 293c e455 f2bb cf02 913c 392d c8bb
000003f0: ad17 92bc 2e76 7f3c 5a9e 51bb eda9 2b3b
0.017994989 0.018544326 -0.0054049576 -0.0033909334 -0.009734524 0.018339071 0.018475218 0.005525299
0.016894538 0.015157303 0.018310007 0.01437556 -0.0016370944 -0.012444348 0.010767393 -0.0037530253
0.009044899 0.00083820045 0.01665513 0.016332071 0.018100038 -0.009257966 0.016801981 0.003975089
-0.0055901315 -0.017772853 -0.005319408 -0.002552373 0.006440955 0.017224766 0.018604694 0.01725024
-0.014598449 0.010904074 0.005672588 -0.01723412 -0.017234117 -0.0014498464 -0.013930806 0.017671268
-0.0040166606 0.018390147 -0.013960072 -0.0073955758 -0.01828225 -0.0006677434 -0.008111922 0.015350928
-0.00766052 -0.009533488 0.014633285 0.018794123 0.0031543924 0.0029561918 -0.017574862 0.018220473
0.0149491485 0.00893186 0.0018072054 0.01882315 -0.00011509145 -0.0040660184 -0.017593762 0.0147122685
-0.0048695067 0.013128986 0.018474082 -0.016592676 0.006222214 0.016440524 -0.0067271013 -0.0060438043
0.013548294 0.01124662 0.017851809 0.01747435 0.015538196 -0.010284083 -0.014752447 0.018727986
0.0024818848 -0.016673803 0.015312716 0.01661054 0.016196154 -0.0035967454 -0.017047092 -0.00040096487
-0.015310988 -0.017582383 -0.0012812535 -0.0021909976 -0.009724928 0.0018373044 0.018357635 0.017457534
0.0016475682 0.003945956 0.018116463 -0.0056261066 -0.01461262 -0.01654499 -0.007865595 -0.0017552797
0.012967814 -0.015366102 -0.0130458195 -0.005299654 -0.0049303016 0.0015136488 -0.0036669306 -0.016701974
-0.014336197 -0.014702881 -0.006877104 -0.0016694742 -0.0029397896 0.016505403 -0.016125377 0.014904592
0.003954183 -0.007068975 -0.0071612005 -0.005675808 -0.0007574209 -0.014022341 -0.0018934584 -0.016599836
-0.0026911404 0.01857429 -0.00027462747 -0.003291652 0.01844049 0.018143822 -0.016040372 -0.017029986
0.0078668725 -0.01694679 0.01716484 0.00568784 -0.013097473 -0.009705811 -0.0072403233 -0.018297166
0.013768327 0.016146768 -0.015569033 -0.017038155 -0.016989784 -0.010646756 0.0010276472 -0.004576248
-0.0005961915 0.018165931 -0.0066915117 0.017318053 0.007152821 -0.0013003687 0.0027892012 0.013126922
0.0068551833 0.0022517592 -0.018289944 0.018226573 -0.0034220119 -0.00021422328 0.001973453 0.0034362772
-0.015078866 0.017956417 0.01861854 0.01604928 5.6112185e-06 0.018033061 -0.01677273 -0.0063472176
0.015642347 -0.010742552 0.018149223 -0.009316929 -0.017727882 0.018760875 -0.017115707 0.018606912
-8.786656e-05 -0.016079439 0.018611377 -0.017256487 -0.004754986 0.018244408 -0.011569066 -0.018300997
-0.009216674 -0.017044514 0.0060549947 -0.016219892 0.017732648 0.018323667 0.00031153904 -0.0058313245
-0.015594515 -0.012023222 0.017479047 0.005539127 -0.004356929 0.014095118 0.018490208 0.0030426513
-0.0075317835 0.0037476819 -0.016709374 -0.0022243625 0.018494822 0.017996494 -0.017457573 0.0002748766
-0.017109122 0.018494748 -0.017568124 0.012796621 0.0022437933 -0.016593132 0.0038356003 0.002432392
-0.0020033373 0.014995904 0.006414706 0.017859835 -0.008236139 0.018255094 -0.00701843 -0.016585262
0.0004971877 0.018705921 0.013159804 0.017068557 -0.01827137 0.014958862 -0.00096118136 0.018413883
-0.009075937 -0.0076650847 -0.0058427653 -0.016209576 -0.01595486 0.015915185 0.017807873 0.0040513477
0.0103176255 -0.007395493 0.017701535 -0.0061089066 -0.017833555 0.015592141 -0.0031985254 0.0026193813

model.feature_nns.2.model.0.weights f4 [1, 316]
00000000: 736f de3f 0a5e d13f 760a cb3f c89b dd3f
00000010: cd9e dc3f a290 d03f e30e cf3f f9ae cc3f
00000020: 2502 d13f 7445 d93f 49f6 d73f f2b0 d43f
00000030: a1d5 d63f 5695 cc3f 9b4a d93f 7036 b53f
00000040: aef8 d23f 347d a73f e30e cf3f b09e d23f
00000050: b825 d63f a36d dd3f e466 a83f 8ed1 da3f
00000060: 20cd dd3f 14cf b53f 4c55 d83f 1d21 d93f
00000070: a54a b13f f763 df3f 9e4f df3f b5e3 ce3f
00000080: 885e c13f 448f db3f d21a c93f 885e c13f
00000090: 0b1d da3f 0b5a d93f 2fc3 d63f 00be dd3f
000000a0: 59c9 dd3f 26e2 d93f 4b13 da3f af83 b53f
000000b0: 26bd d33f 7381 c83f 58ba d93f 0b35 bf3f
000000c0: 98e2 d43f 53dc cb3f ff96 c73f e466 a83f
000000d0: 4104 dc3f ce79 dc3f 23d8 c43f 1ea7 d83f
000000e0: f27a c43f 46e7 b43f d432 c53f f497 dd3f
000000f0: d8e7 a23f caa9 d43f 2a4b de3f 3887 d33f
00000100: e689 cb3f e79b d53f 49ac da3f 6903 ce3f
00000110: 3127 cb3f 989f dd3f d21a c93f ce68 d43f
00000120: de0b d63f 8a73 d53f eb60 dc3f 0757 da3f
00000130: cff7 cd3f e2d0 dd3f d008 d33f d45c c93f
00000140: 4bd3 d03f 2d29 c83f 3ec9 d13f 6c4d da3f
00000150: 4c3b dc3f cbc1 dd3f a1d5 d63f 90df d73f
00000160: 7b91 d83f db18 d33f e252 d43f 9b4a d93f
00000170: 122a c23f c8fa cc3f cea3 d03f 0022 dc3f
00000180: e528 d83f 2e5f d93f 2a3f db3f c60c dc3f
00000190: 59d7 d83f d008 d33f 2b20 d23f 73aa d63f
000001a0: 8e51 d53f 4ec6 d43f bd72 c63f 5b77 d43f
000001b0: 7930 da3f b1f2 de3f d5a0 db3f 6896 d23f
000001c0: 6bfc d83f 2b3b df3f 800c be3f 0f24 db3f
000001d0: e466 a83f d592 c83f 3312 cc3f 7fd7 c83f
000001e0: 157c af3f a16f bc3f abdc d83f 6c31 ce3f
000001f0: 710b d13f 7fd7 c83f 9964 de3f 5bf8 d53f
00000200: 4fba da3f 6a78 da3f a877 d33f 7771 df3f
00000210: 4aeb d53f de7e be3f 7738 9b3f 5370 db3f
00000220: 374c df3f 33b3 dc3f 5842 d23f 7771 df3f
00000230: 5ff6 dd3f e16b db3f 0dab dc3f fdc1 d83f
00000240: d1b2 ca3f 000b df3f d4d8 ce3f fb6f c83f
00000250: ac93 db3f a9fe d43f d46b de3f 9d8d cd3f
00000260: 8bdb d43f 1ec5 c03f 335f d63f 08bb db3f
00000270: 5703 c13f caa9 d43f c31d dc3f b9ef dc3f
00000280: 69cc d33f f744 cd3f 234c d63f 36ba dd3f
00000290: 3efa d63f 6f88 cc3f 2502 d13f 2aec cd3f
000002a0: ce79 dc3f 9628 db3f 2479 d13f 5e75 dd3f
000002b0: 859a de3f 4d6b d83f 47c9 ba3f d474 df3f
000002c0: 03bd d63f d396 ce3f e921 da3f 8901 de3f
000002d0: 859a de3f 5458 d33f e32d de3f 1289 d73f
000002e0: 2136 d53f ac93 db3f 0c94 d13f 749b d43f
000002f0: abdc d83f f7b0 da3f a188 de3f db5e ce3f
00000300: 710b d13f aebf d23f 7730 d73f 7aef d03f
00000310: ee06 d93f e689 cb3f 5703 c13f d1da da3f
00000320: 3a95 b33f 760a cb3f 4640 d93f 2169 a13f
00000330: 4d48 d73f ed80 dd3f c75b d23f f455 b93f
00000340: c5d4 cd3f 1a95 ca3f 98b7 d13f cea3 d03f
00000350: 02fb ba3f 9117 d23f 2aec cd3f 33b3 dc3f
00000360: 37bd cd3f e86e da3f 26bd d33f 2f78 ae3f
00000370: f782 cf3f 2203 c03f f9a6 dc3f d42c cc3f
00000380: 6d35 d43f 5ee0 d23f 7eb5 d33f 9d48 da3f
00000390: da6c b83f 5728 d53f fd5f d73f c75b d23f
000003a0: 1b18 d83f 858d c93f fd41 df3f 3705 c83f
000003b0: 5ad1 c33f 8647 de3f 7c69 cd3f 9801 d83f
000003c0: c584 dd3f 0dab dc3f 8901 de3f 5d7d c93f
000003d0: 49f6 d73f 3595 d53f 022b ca3f 9d48 da3f
000003e0: ac4e cf3f 5d8b da3f 98a2 d53f 49f6 d73f
000003f0: aa73 d03f 5334 df3f 95c1 ca3f 8477 d73f
1.7377762 1.6356823 1.5862567 1.7313166 1.7235962 1.6294138 1.6176418 1.5990897
1.632878 1.697432 1.6872035 1.66165 1.6783944 1.5983074 1.6975893 1.4157238
1.6482141 1.3085084 1.6176418 1.6454678 1.6730261 1.7299083 1.31564 1.7095201
1.7328224 1.420382 1.690103 1.696323 1.3850905 1.7452382 1.7446172 1.6163241
1.5106974 1.7153096 1.571131 1.5106974 1.7040113 1.6980604 1.6778315 1.7323608
1.7327071 1.702214 1.7037138 1.4180812 1.6542099 1.5664505 1.7009993 1.4938062
1.6631651 1.5926613 1.5592955 1.31564 1.7188798 1.7224672 1.537846 1.6926
1.535002 1.4133079 1.5406137 1.7311997 1.2727003 1.6614316 1.7366688 1.652564
1.5901458 1.6688203 1.7083827 1.6094791 1.5871335 1.7314329 1.571131 1.6594484
1.6722372 1.6675885 1.7217077 1.7057809 1.609125 1.7329371 1.6487064 1.5731454
1.6314481 1.5637566 1.6389539 1.7054877 1.7205596 1.7324766 1.6783944 1.6865101
1.6919397 1.649196 1.6587794 1.6975893 1.5169089 1.6014032 1.6299989 1.7197876
1.688748 1.6982172 1.7128651 1.7191398 1.6940719 1.6487064 1.6416067 1.6770767
1.6665514 1.6623018 1.5503765 1.6598924 1.7046043 1.7417814 1.7158457 1.645215
1.6952032 1.7439932 1.4847565 1.7120379 1.31564 1.566981 1.5943054 1.5690764
1.3709742 1.4721566 1.6942343 1.6108832 1.6331617 1.5690764 1.737445 1.6716417
1.7088107 1.7067997 1.6520891 1.7456502 1.671243 1.4882467 1.2126607 1.7143654
1.7445134 1.7242187 1.6426497 1.7456502 1.7340811 1.7142297 1.72397 1.69342
1.583582 1.7425232 1.6159921 1.5659174 1.7154441 1.6640216 1.7376657 1.6058842
1.6629499 1.5060155 1.6747802 1.7166452 1.5079144 1.6614316 1.7196583 1.7260658
1.6546756 1.6036671 1.6741985 1.7322452 1.6795118 1.5979136 1.632878 1.6087697
1.7224672 1.7121761 1.6365094 1.7301443 1.7390906 1.6907746 1.4592675 1.7457528
1.6776432 1.6139778 1.7041599 1.7344218 1.7390906 1.6511331 1.7357754 1.6838706
1.6657144 1.7154441 1.6373305 1.660994 1.6942343 1.7085255 1.7385446 1.6122698
1.6331617 1.6464746 1.6811665 1.6323082 1.695524 1.5901458 1.5079144 1.7098027
1.4029915 1.5862567 1.697274 1.2610208 1.681894 1.730497 1.6434258 1.4479356
1.6080557 1.5826752 1.6384153 1.6299989 1.4607852 1.6413442 1.6087697 1.7242187
1.6073369 1.7065096 1.6542099 1.3630427 1.6211842 1.5000956 1.7238456 1.595118
1.6578804 1.6474721 1.6539762 1.705341 1.4408219 1.6652936 1.6826168 1.6434258
1.6882356 1.5746313 1.7442013 1.5626591 1.5298264 1.7365577 1.6047816 1.6875486
1.7306143 1.72397 1.7344218 1.5741383 1.6872035 1.6686159 1.5794375 1.705341
1.6195884 1.707378 1.6690245 1.6872035 1.6285298 1.7437843 1.5840327 1.6833348

model.feature_nns.2.model.1.weight f4 [1, 316]
00000000: f94c 083c 384f c6bb 38b2 81ba 9b82 7d3a
00000010: f07d 9fbc 1963 19bb 6761 8b3c 4833 db39
00000020: 79af 78bc 5c41 c1bb 03df 983c 16a2 a6bc
00000030: 91bf 08bc 1339 873c b923 d6bb 8922 96bc
00000040: f7e2 55bb d839 923c 694d 12bc e5a1 423c
00000050: 68f3 dfba 881f e5b9 dd29 803c 3d1f f23b
00000060: d9ca 7a3c 245d 92bc c320 15bc 1aeb 1cbc
00000070: 7836 eeb9 0603 473c 0ae3 4d3c 3d00 7f3c
00000080: 8e7d 693c b97c a1bb 80a6 6b3c 2cca 8e3c
00000090: 96cc 4cbc d778 823c f6f6 943c 984c 9c39
000000a0: 8a7f 793c 2229 883c f4a2 32bb a0ca aaba
000000b0: 5960 7b3c fde8 883b bc05 9abc c852 a7bc
000000c0: b3c5 5cbc 9a3b a1ba c020 9939 b808 34bc
000000d0: a470 843c 124a 6dbc 9198 903c 7834 963b
000000e0: 3074 64bc cce5 223c 3bbd 5b3c 0a96 6ebc
000000f0: b1dd 8fbc c67f fdbb 37af 96bc 4043 813c
00000100: e394 2ebc 2696 23bc 2c04 92bc 52fd 7fbc
00000110: b09b 893c b3bf 5fbc c807 91bb 2cb7 863c
00000120: 8aa2 01bc a03a 8a39 e87d 8abc e05c 173c
00000130: 9bb4 913c cd28 303c 904a 75b9 74bb d6bb
00000140: c27d 0f3c 0414 38bc 90b5 78bc e711 893c
00000150: dfb2 213c c4d1 9fbc b8ce a53a 0008 1aba
00000160: 59a4 8cbc d0b9 463b b3f9 d83b f414 7bba
00000170: c463 38bb 5c92 c5bb 24c5 963c e4d9 6dbb
00000180: c6b0 943b 4fd3 7f3c 6ccf 8c3a 7642 53ba
00000190: 82ee 93bc 4464 8abc 7dee 87bc 60e4 2b39
000001a0: 9210 43bb f7df 023c e805 99bc ef00 073c
000001b0: 5890 4f3c 9ef9 8cbc 12ed a03a 723d 8abc
000001c0: 0f01 833c d21c a4bc 34f8 1b3c 1a04 973c
000001d0: 5713 39bc 7492 ce3b 00e6 99bc 7eeb dc3b
000001e0: d483 f1bb 7e98 bebb cbb3 7dbc e4a0 f33a
000001f0: 669b b73a 1763 3abc 1fce 30bc a10f 8dbb
00000200: 4093 fdba d4fa 23ba 1050 4e3c 31d2 483c
00000210: 5fa6 bdbb 0de0 7c3c 5075 91bc 84ed 7e3c
00000220: b6a4 98ba fe36 9abb ea45 8b3c de0a 973b
00000230: 94f4 b73b 8a37 6f3c e8ea 79bc 802f 933c
00000240: baaa cfbb 8927 99bc 2ef9 9dbb 75fe c8bb
00000250: 244c 15bc ab71 c1bb 6464 663c bd95 72bb
00000260: 82f3 42bb da7a 063c 5def a2bb 655a 9b3c
00000270: 524a b2bb 562a 1fbc 46e6 fa3b 18d5 8cbc
00000280: 9397 94bc 21fe 513c 1793 65bb a2ce 9bbb
00000290: 8e79 c3ba d0a5 073c bfb3 0fbc afe4 5cbc
000002a0: ee00 7e3c e6dc 813b 11dd 93bc 4d4a abbc
000002b0: 6221 8bbc 307c 73ba de88 64bb 5e9d 7b3c
000002c0: bc96 6a3c 9e65 893c 9e81 88ba 53e9 8bbc
000002d0: eea4 773c 2b49 67bc 02e8 92bb 08a0 3c3a
000002e0: 3847 84b9 24f7 9ebb 07b9 833c bec1 efbb
000002f0: 44fb 9cbb 0ea5 07bc b98d 633c e011 f83b
00000300: 1b34 72bb 1910 953c 1e6a 7abc 961f d5bb
00000310: 44d9 0cbc ece1 4c3c f435 e8bb 7591 b3ba
00000320: 193a d53b 3d06 92bc aa66 29bc 98b5 42ba
00000330: da20 983b 3ad6 1a3c 746f bdbb 4248 753c
00000340: bd43 763a 0c13 3dbc dc34 eb3b fd8c 0fbc
00000350: 88da d4bb 1cf2 5ebb 5eb2 a7bb f288 943b
00000360: 1220 fc3a dfec 8a3c bfb4 96bc 3253 d9bb
00000370: 9a95 5ebb e668 883c f543 d0ba 6b94 8a3c
00000380: e3d7 96bc b0d0 c03b 8f9b 9cbb 18ad 84bb
00000390: dac4 92bc 4a25 cbbb a734 7d3c 542f cfbb
000003a0: 8369 3dbc d442 35bc 923c 9c3c cc8a 1a3c
000003b0: 370f cf3b 95be 96bc adca a3bc 5743 263b
000003c0: 9124 6f3c 7425 24bc c41d a6bc 1461 4a3c
000003d0: 21d1 8bbc d43b 383c 904a 7cbc f2cf 9fbb
000003e0: 8c3f 80bc 033c 9ebc eb30 94bc b58d 9ebb
000003f0: 7df9 873c 0d18 48bc b8b1 dbba cf9b a2bc
0.008319133 -0.006051924 -0.0009895032 0.0009670646 -0.019469231 -0.0023405014 0.017014218 0.00041809143
-0.015178555 -0.005897684 0.018661028 -0.02034096 -0.008346454 0.016506707 -0.00653502 -0.018327015
-0.0032636502 0.017849848 -0.008929589 0.011879419 -0.001708609 -0.00043701776 0.015644962 0.007388978
0.015307152 -0.017866679 -0.009102049 -0.009577537 -0.0004543548 0.012146717 0.012566337 0.015564022
0.014251126 -0.004928198 0.014382958 0.017430387 -0.012499949 0.015926762 0.018184166 0.00029811705
0.015228162 0.016621176 -0.0027257772 -0.0013030358 0.015342795 0.004178165 -0.018801562 -0.020425215
-0.01347487 -0.0012301088 0.00029206835 -0.010988407 0.016166992 -0.014482992 0.017650874 0.0045838915
-0.013943717 0.009942483 0.013411815 -0.014562139 -0.017561765 -0.007736179 -0.018394096 0.015779138
-0.010655615 -0.009984529 -0.017824255 -0.015624361 0.01679787 -0.0136565445 -0.0044259764 0.016444765
-0.0079122875 0.0002636509 -0.01690574 0.009238452 0.017786315 0.010751915 -0.00023392797 -0.006553108
0.00875801 -0.011235241 -0.015180007 0.01673217 0.009869306 -0.019509204 0.0012650108 -0.0005875826
-0.01716821 0.0030323155 0.0066215633 -0.00095780124 -0.0028135637 -0.0060294103 0.01840455 -0.0036293203
0.0045376746 0.015614345 0.0010742969 -0.00080589147 -0.018058065 -0.016893514 -0.016593212 0.00016392907
-0.0029764515 0.007987968 -0.018679574 0.008239969 0.012668692 -0.01720887 0.0012277684 -0.016875003
0.015991716 -0.020033274 0.009519625 0.018434573 -0.011296115 0.0063040797 -0.01878643 0.00674194
-0.0073704515 -0.0058165183 -0.0154847605 0.0018587378 0.0014008104 -0.011376164 -0.010791331 -0.0043048416
-0.0019346252 -0.0006255333 0.012592331 0.012257145 -0.0057876552 0.015434277 -0.017756134 0.015559558
-0.0011645767 -0.0047062626 0.017001111 0.0046094498 0.005613873 0.014600644 -0.01525376 0.017966986
-0.006337491 -0.01869561 -0.0048209643 -0.0061338493 -0.009112392 -0.005903443 0.014062021 -0.003701552
-0.0029747193 0.008208001 -0.004972382 0.018964002 -0.0054409886 -0.0097146835 0.0076568453 -0.017191455
-0.018138682 0.012816937 -0.00350303 -0.004754857 -0.0014913545 0.008279279 -0.008770882 -0.013482257
0.015503151 0.0039631007 -0.018049749 -0.020909453 -0.016983692 -0.000928822 -0.0034871618 0.0153573435
0.014318164 0.016772088 -0.0010414605 -0.017079031 0.015115006 -0.014116566 -0.004483224 0.00071954774
-0.00025230064 -0.004851239 0.016079439 -0.007316797 -0.0047906954 -0.008279098 0.01388877 0.0075704902
-0.0036957327 0.018196153 -0.015284089 -0.0065040095 -0.008596722 0.012505036 -0.00708651 -0.0013699966
0.00650717 -0.01782524 -0.010339418 -0.0007427572 0.004642588 0.00945049 -0.0057811085 0.014970841
0.0009394249 -0.011540186 0.007177932 -0.008761642 -0.0064957775 -0.003401882 -0.0051176986 0.0045329267
0.0019235632 0.016958652 -0.018396733 -0.006632232 -0.0033963681 0.016651582 -0.0015889393 0.016916474
-0.01841349 0.0058842525 -0.004779286 -0.0040489547 -0.017916132 -0.0061995136 0.015454448 -0.0063227806
-0.0115608005 -0.011063296 0.01907185 0.009432506 0.0063189524 -0.018401423 -0.019994104 0.0025369728
0.01459612 -0.010018695 -0.020277865 0.012352247 -0.017067494 0.011244733 -0.015398636 -0.004877084
-0.015655302 -0.019315725 -0.018089732 -0.00483867 0.016598457 -0.012212765 -0.0016761338 -0.019849686

model.feature_nns.3.model.0.weights f4 [1, 1000]
00000000: 17b2 d83f eae5 a23f 0df9 ce3f 647f be3f
00000010: 226e d93f 7eba d93f c6e9 cf3f 0db7 dc3f
00000020: fd2e b73f d043 d53f 4d8b bb3f b8ec d83f
00000030: c8ec da3f f680 de3f 519e d63f 1af8 d23f
00000040: 70c0 c43f c528 d83f 08cf c73f 886e da3f
00000050: 5065 c03f 8c0e da3f 8745 df3f 6ebf d43f
00000060: 88bd dd3f 94c7 d83f 9c08 d33f 3d0b d13f
00000070: b412 c73f 8317 de3f dd22 de3f 16bd d33f
00000080: c580 d53f 6d0c dc3f 1877 ae3f aafa cc3f
00000090: ef71 c73f a6e6 a23f d294 b43f dd6b d63f
000000a0: eb7d d93f 2ef0 d43f 694b c43f a117 983f
000000b0: 9d3f c13f 5b7e b23f 1bec b63f ba08 d43f
000000c0: 0a3b dc3f 90a3 be3f ab0b ca3f 6800 df3f
000000d0: 9985 c33f 0786 db3f 1c62 d43f 00a3 da3f
000000e0: 0b94 dd3f 1875 df3f fb93 dd3f a475 ce3f
000000f0: f7ee c43f 36c0 cb3f 05ad d83f 48c4 d33f
00000100: dde3 dc3f 955f cb3f 3088 d53f 9508 db3f
00000110: 42cd da3f 7dc1 dd3f 7e1b c43f 1bd1 dd3f
00000120: 494d c93f 5ebd d63f c183 c73f 919a de3f
00000130: 6c59 de3f 791d d13f 912d cc3f 218b c53f
00000140: 0d0e c23f 4422 da3f cd8e d33f 497b ab3f
00000150: 2018 d83f 6e9e bf3f 9cd5 d63f 364e dd3f
00000160: 13f0 d73f dc96 dc3f 72e7 dd3f cec5 dd3f
00000170: 503a da3f e030 d13f d137 df3f 4f42 b43f
00000180: 4425 ce3f 39ea c33f fb9d bf3f b4e1 d63f
00000190: 62f7 d83f 6f8b c53f 181a d53f 8b97 d93f
000001a0: 477d d03f 92bd dd3f e381 db3f e41c da3f
000001b0: c108 d33f a60b dd3f fbbd de3f 3763 c43f
000001c0: 26aa c43f d058 d63f e5ac d03f adb2 b73f
000001d0: 43cc db3f 3bb7 ce3f aecc db3f 2a67 d13f
000001e0: 7994 b33f b665 d73f 821e d73f 2636 d73f
000001f0: 7068 d33f f191 dfbf 6692 c83f 9482 db3f
00000200: ba9d d63f e76a d03f 1153 df3f 34a6 d33f
00000210: 9b77 d73f 5557 da3f 4bbc d83f 974e cf3f
00000220: 3218 d83f 2194 d13f 6d0c d53f 6bdf dc3f
00000230: 778a dc3f a69b dd3f 4e35 c63f e771 d73f
00000240: a92c cd3f 2655 d13f 0a5c da3f 9c42 df3f
00000250: b21e d73f ce6f de3f 55bf d43f a988 df3f
00000260: c9bd de3f 3c3a cc3f 3fde d53f d839 cf3f
00000270: 1af5 af3f f7c1 de3f e32d de3f a5c0 d03f
00000280: 33f6 d93f 061f d63f 00cb d53f 914d c93f
00000290: f788 df3f 24ce b53f 7f48 db3f cf30 df3f
000002a0: d0e0 d23f 57ae cc3f e4aa d93f 9c39 d83f
000002b0: 6272 d63f 72fc d73f 442b da3f a8a0 d73f
000002c0: 97d0 dd3f c02a ca3f 6898 c23f 1ebe c93f
000002d0: 0131 d33f b0f0 d43f 8ace d73f ed6f d33f
000002e0: 1f27 da3f 116c d73f 2016 bc3f 32c9 d63f
000002f0: a6c5 b93f 27a5 be3f 29d8 d23f 1798 dd3f
00000300: 8832 dc3f d10f d43f a88e d53f ce0e da3f
00000310: ba2c d63f 29f2 da3f 53b7 d13f 530b df3f
00000320: 12fc d83f b4f6 da3f fb2e cf3f 54aa c43f
00000330: 5464 8c3f ba39 b33f 0204 cc3f e096 d83f
00000340: 4bb0 c63f d9cc d83f 450b c93f 2979 d93f
00000350: b777 d73f 6013 da3f 2d23 dd3f 706d c33f
00000360: 4d2f b83f ae35 d43f 39af c63f 7ce2 d43f
00000370: dddf d73f d872 c63f a70c d83f fb6e cf3f
00000380: bfd5 da3f 605a d73f 0a11 c73f a1cd c93f
00000390: 7924 ac3f c3c3 da3f 61fb cc3f 79d4 cd3f
000003a0: 9c16 bc3f c08d cd3f e336 dc3f b891 d93f
000003b0: cd8c cf3f d470 d83f 29ae db3f f6b1 db3f
000003c0: 5675 dc3f 9d78 da3f 628d cd3f 13c3 d63f
000003d0: c159 de3f 495c c93f aad5 d63f 8d01 d83f
000003e0: 02a8 b63f e300 df3f b946 dd3f 73e4 da3f
000003f0: e760 dc3f e333 df3f 7f3a da3f 1cac da3f
1.6929349 1.2726414 1.6169754 1.4882627 1.6986735 1.7010038 1.6243217 1.7243363
1.4311215 1.666132 1.4651886 1.6947241 1.710351 1.7383106 1.6767064 1.6481965
1.5371227 1.6887442 1.5610056 1.7064981 1.5030918 1.7035689 1.7443093 1.662092
1.7323465 1.6935906 1.6487002 1.6331555 1.5552583 1.7350925 1.735439 1.654208
1.6679922 1.7191292 1.3630095 1.6013997 1.5581645 1.2726638 1.4107916 1.6751667
1.6991552 1.6635797 1.5335513 1.1882211 1.5097538 1.3944811 1.4290804 1.6565163
1.7205517 1.4893665 1.5784811 1.7421999 1.5275146 1.7150277 1.6592441 1.7080994
1.7310804 1.7457609 1.7310785 1.6129651 1.5385426 1.5918033 1.6927801 1.6544275
1.7257038 1.5888544 1.6682186 1.7111994 1.709389 1.7324673 1.532089 1.7329439
1.572671 1.677654 1.5587083 1.739092 1.7371039 1.6337119 1.5951406 1.5433084
1.5160538 1.7041707 1.6527954 1.3396999 1.6882362 1.4970224 1.6783938 1.7289493
1.687014 1.7233539 1.7336257 1.732599 1.7049046 1.634304 1.7438909 1.4082736
1.6105123 1.5305854 1.4970087 1.6787629 1.6950495 1.5433177 1.6648588 1.6999372
1.6288232 1.7323477 1.7149013 1.7040067 1.6487046 1.726918 1.7401727 1.5342778
1.5364425 1.6745853 1.6302763 1.4351403 1.7171711 1.6149668 1.7171838 1.6359608
1.4029685 1.6827915 1.6806185 1.68134 1.6516247 -1.7466413 1.5669677 1.7149224
1.6766884 1.6282624 1.7447225 1.6535096 1.6833376 1.7057902 1.6932462 1.6195859
1.6882384 1.637333 1.6644417 1.7255682 1.7229756 1.7313125 1.5485017 1.6831635
1.6029254 1.635411 1.7059338 1.7442203 1.6806242 1.737787 1.662089 1.746358
1.7401668 1.5955272 1.6708449 1.6189528 1.3746674 1.7402943 1.7357754 1.630879
1.7028259 1.6728218 1.6702576 1.5726796 1.7463673 1.4203534 1.7131499 1.743677
1.6474857 1.5990704 1.7005277 1.6892581 1.6753657 1.6873915 1.7044454 1.6845903
1.7329282 1.5794296 1.5202761 1.5761144 1.649933 1.6635952 1.6859906 1.6518532
1.7043189 1.6829854 1.4694252 1.678015 1.4513443 1.489415 1.6472217 1.7312039
1.7202921 1.6567327 1.668416 1.7035768 1.67324 1.7105151 1.6384071 1.7425331
1.6951926 1.7106538 1.6186212 1.536448 1.0968118 1.4001992 1.5938723 1.6921043
1.552255 1.6937515 1.5706564 1.69901 1.6833409 1.7037163 1.727636 1.5267773
1.4389435 1.6578882 1.5522224 1.6631618 1.6865193 1.5503798 1.6878861 1.6205744
1.709648 1.6824455 1.5552075 1.5765878 1.344863 1.7090992 1.6014215 1.6080467
1.46944 1.6058884 1.720425 1.6997595 1.6214844 1.6909432 1.7162524 1.7163684
1.7223308 1.7068058 1.6058772 1.6778282 1.7371141 1.5731288 1.6783955 1.6875473
1.4270022 1.7422146 1.7287208 1.7100967 1.7217072 1.743771 1.7049102 1.7083774

model.feature_nns.3.model.1.weight f4 [1, 1000]
00000000: 11c2 93bc ed62 723c d07f 163c 42e1 99bc
00000010: b1ad 8f3c 2ac7 60bc 4cea b7bc 5cb8 353c
00000020: 7154 073c 644d 1cbb 12cc aa3b 4a4a 44bc
00000030: 2cf1 a63c 22b4 ad3c 2c61 bbbc 2063 a33c
00000040: 2c75 223c ffa5 ea3b f6a6 7fbc fd90 4e3c
00000050: 5a19 e0b9 0ed5 59bc 501e 23bc fe0f c8bc
00000060: b44b 993c 1a97 efbc 00f7 6c3a 42fc 3e3b
00000070: 49fe 08bd 8d31 143c 15a0 dbbb e1b3 9fba
00000080: 97d6 443c 4242 6c3c 9646 9c3c ea8c 1dbb
00000090: 2cff 8ebc e8cc 8f3b 0f38 bf3c 0f18 d7bb
000000a0: 667f 18bc efb0 553c fd4a 73bb 4e63 a7bc
000000b0: 5dc6 a53c 8b43 a8bc 7117 4abc 1f87 67bb
000000c0: 4f36 0d3c 025a e53b 2d6d f93b ea7a 403c
000000d0: 9ac4 a43b 5a53 bf3c 3c60 edbc 81dd 49bc
000000e0: 36b0 23bb d985 96bc 3a79 c23b a868 d5bc
000000f0: 31c4 f2bb 1719 a23c f26b 03bd 9915 c83c
00000100: 651a 60bc ddb3 123c 4231 cabc f633 8b3b
00000110: adc2 c2bc df42 5a3c 959a babc 873e 7cbc
00000120: db27 f8bc 6fcd bbbc b13a 4e3c b8d6 17bc
00000130: 2cd7 703c a993 4b3c 2367 01bd 422d d4bb
00000140: 5fa9 bebc 9af6 c2bc 8abd 143c 61b2 1cbc
00000150: 4e41 31bc 0097 dcbc 87e0 85bb 1cbb a33c
00000160: fa2f b93c 12c0 c0bc f2ee e6bb a1df dcbc
00000170: e511 5fbc d423 9ebc 3a44 0cbc d23f 053b
00000180: cec4 8f3c fdc5 25bc 5ae5 91bc faa0 073c
00000190: 9730 d6bc 0422 46bc a022 533c 386b e8bc
000001a0: 1690 f8ba 60b0 8e3c fad1 723b 4923 063c
000001b0: 6c78 70bb 531c e1bb 884b fa39 574b 42bb
000001c0: 0a9a 64bc ae35 73bb 2df5 563c 2373 9fbc
000001d0: 8db9 943a 948a 863c cfc0 bbbc bb27 07bc
000001e0: 13b6 2f3c c075 2a39 9f38 3bbc b550 bc3c
000001f0: 4230 d3bc 3f2e f8bb bec3 8b3c 6c8c ecbc
00000200: 6b66 763c 32d5 03bd c0a8 39bc c3a0 17bc
00000210: 9f7c 70bc 0108 b4bc f848 3f3c 5e04 baba
00000220: 85b8 efbb d220 e5bb 40b3 b43a 58f9 2c3c
00000230: 15dd 6abc 1f92 823a aec1 5fbc 5566 f2bc
00000240: ef35 a3bc b08c 90bc 6ac9 aabc a509 09bd
00000250: 3312 8dbc bd96 9fbc f3ce dbbb 22fc 793c
00000260: 5ffc 1f3c 39e7 4ebc 2af8 1fbc 10cd 15bc
00000270: cb3b 973c 7488 cbbc 1002 e9bb b1c2 98bc
00000280: 4784 bebc 5741 393c 8b8d c8bc b8b2 05bd
00000290: 1fb9 13bb 0ed5 8e3c 8e47 08bd 36e0 f3ba
000002a0: dff7 a6bc f138 9b3c 7af0 7c3c fb39 d1bb
000002b0: 1ae2 d7bc 2a4c f4bc 84af 9b3c 6ad3 b2bc
000002c0: 59ed 173c ce4d 803b 916a ba3c 1f46 e4bc
000002d0: 4a57 54bc dac0 30bc e0a4 50bc 711f 09bc
000002e0: 8fcb 84bc dc01 a2bc ccc0 ad39 ace7 513b
000002f0: 5e40 ecbc ef0d dabc ef05 18bc de34 c5bc
00000300: a451 8a3c 1c4e 613c b4e6 19bc 555d b4bc
00000310: c74f 0cbd a518 b4bc b739 db3b 83e3 01bd
00000320: 8ae6 893c 3d7e a6bc 72fa aebb de94 9bbc
00000330: c19b a3bc 5cb1 ac3c e1a7 983c 668d 97ba
00000340: a5fc f1bc 17ab 87bc edbf fcbc 9453 b1bc
00000350: 7153 d5bc 95a5 9abc 6d59 1b3c 7d09 04bd
00000360: d050 703c 7c27 89bc 0d9e ffbb 13c0 03ba
00000370: df4e 9abc 194b 68bc 2c45 0c3c f41c 00bd
00000380: ea91 a93c 88dd c3bc 8c62 723c bf13 68bc
00000390: 2f4e 56bc a0e2 61bc b3e8 07bd 793a e63b
000003a0: cd40 63bc 1d0c 20bc e5cc 1c3c 9353 603c
000003b0: e17b 643c 547e 6ebb b4de b4bc 9075 793c
000003c0: 7449 423c 16e2 55bc e967 cc3b 7608 8a3b
000003d0: a1f5 0bbc b335 643c 754e 3fbc e8a3 07bc
000003e0: 718e d7bc 05e9 05bd bcc5 16bc b003 f6bc
000003f0: 189f 63bb 671c 963c 6388 d7bc 7d48 043c
-0.018036874 0.014794094 0.009185746 -0.01878417 0.017538877 -0.013719359 -0.022450589 0.011091318
0.0082598785 -0.002384984 0.0052123154 -0.0119806025 0.020378672 0.021204058 -0.022873484 0.019944727
0.009915631 0.0071609016 -0.015603771 0.01260781 -0.00042743498 -0.013295425 -0.0099559575 -0.024421688
0.018712856 -0.029246856 0.00090394914 0.0029142057 -0.03344563 0.009045017 -0.006702433 -0.0012184345
0.012014053 0.014420094 0.019076627 -0.002404029 -0.01745566 0.0043884404 0.02334216 -0.0065641473
-0.009307718 0.013042673 -0.0037123554 -0.020433094 0.020236189 -0.02054002 -0.01233469 -0.0035328341
0.008618905 0.006999255 0.0076118917 0.011748055 0.0050283195 0.023355175 -0.028976552 -0.012320877
-0.0024976856 -0.01837437 0.0059348615 -0.02605088 -0.0074086417 0.019787354 -0.032085367 0.024424361
-0.013678168 0.008954016 -0.024681691 0.0042481376 -0.02377447 0.013321607 -0.022778789 -0.015395767
-0.030292442 -0.022925107 0.012587235 -0.0092675015 0.0146997385 0.012425342 -0.0315925 -0.0064751217
-0.023274122 -0.02379923 0.009078393 -0.009564013 -0.0108187925 -0.026927471 -0.0040856036 0.019986682
0.022605885 -0.023529086 -0.0070475275 -0.026962103 -0.013615106 -0.019304194 -0.008561188 0.002033223
0.017549898 -0.010118005 -0.017809559 0.008278126 -0.026146216 -0.012093071 0.012886673 -0.028371438
-0.0018963839 0.017418087 0.0037051425 0.008187124 -0.003669287 -0.0068698316 0.0004773999 -0.0029646957
-0.013952741 -0.0037110853 0.013119978 -0.019464081 0.0011346802 0.016423501 -0.022919087 -0.008249219
0.010724562 0.00016256329 -0.011427074 0.022987703 -0.025779847 -0.0075738723 0.01706111 -0.028875552
0.015039067 -0.03218574 -0.011331737 -0.009254637 -0.0146781495 -0.021976473 0.011675112 -0.0014191975
-0.0073156976 -0.006992438 0.0013786331 0.010557495 -0.014334937 0.000996176 -0.013657017 -0.029589811
-0.019923178 -0.01764521 -0.020847995 -0.033456463 -0.017220592 -0.019481057 -0.00670802 0.015257867
0.00976476 -0.01262837 -0.009763757 -0.009143129 0.018461129 -0.02484534 -0.0071108416 -0.018647524
-0.023256434 0.011307082 -0.024481555 -0.032641143 -0.002254076 0.017435577 -0.033271365 -0.0018606249
-0.020381866 0.01894805 0.015438193 -0.0063850856 -0.02635293 -0.029821474 0.01900459 -0.021829326
0.009272897 0.003915525 0.022755893 -0.027865468 -0.012960264 -0.010788167 -0.012734622 -0.008369313
-0.016210346 -0.019776277 0.00033140776 0.0032028956 -0.028839286 -0.026617972 -0.009278758 -0.02407306
0.016884632 0.013751533 -0.009393383 -0.02201716 -0.03425577 -0.021984408 0.0066902298 -0.031711113
0.016833562 -0.020323867 -0.005339914 -0.018991884 -0.01997173 0.021080665 0.018634738 -0.0011562526
-0.029539416 -0.016561074 -0.030853236 -0.021646298 -0.026040765 -0.018877784 0.00948177 -0.03223561
0.014667705 -0.01674246 -0.0078008235 -0.00050258747 -0.018836437 -0.014178061 0.008561414 -0.03127761
0.02069946 -0.023909345 0.014794003 -0.014164864 -0.013080164 -0.013786942 -0.033180904 0.0070260135
-0.01387043 -0.009768513 0.009570335 0.013691801 0.013945551 -0.0036391215 -0.02207885 0.015225783
0.011858333 -0.013054391 0.006237973 0.0042124344 -0.008542449 0.0139288185 -0.01167642 -0.008278824
-0.026313039 -0.032692928 -0.009202417 -0.030031055 -0.0034732278 0.01832409 -0.026310151 0.008073923
