GolfFeedback-poc/src/s3_NAM_model/output/DA/0/checkpoints/epoch=498-val_loss=1.3817.ckpt (torch, 68430 bytes, 24 tensors)

model.feature_nns.0.model.0.weights f4 [1, 244]
0	0x3ce097b2	0.027416084
1	0x3d1d9e18	0.038480848
2	0x3d16c06e	0.03680461
3	0x3d171170	0.036881864
4	0x3d1e0e3c	0.038587794
5	0x3cfa7c86	0.030576956
6	0x3d1a5806	0.037681602
7	0x3d1dc759	0.03852019
8	0x3d0f2fac	0.034957573
9	0x3c735664	0.01485214
10	0x3c56bded	0.013106805
11	0x3ceef909	0.029171484
12	0x3d137896	0.03600367
13	0x3d18750e	0.037221007
14	0x3d11a42d	0.03555696
15	0x3c9478de	0.01812404
16	0x3d02119c	0.031755075
17	0x3d163adb	0.036677223
18	0x3d11f465	0.035633463
19	0x3d0d1450	0.0344432
20	0x3d1c3123	0.038132798
21	0x3cb86ef1	0.022513838
22	0x3d082b26	0.033244275
23	0x3cce1ff4	0.02516172
24	0x3c5edd78	0.013602607
25	0x3cf05920	0.029339373
26	0x3cee91a1	0.029122176
27	0x3d1838a0	0.037163377
28	0x3cb0e066	0.021591377
29	0x3d0e1e04	0.034696594
30	0x3cde6a1a	0.027150203
31	0x3ce4d990	0.027935773
32	0x3ca4c219	0.020112084
33	0x3d13c1a8	0.036073357
34	0x3d0f198d	0.034936476
35	0x3d030112	0.031983443
36	0x3c87b875	0.016567448
37	0x3d1d3b20	0.038386464
38	0x3d04028a	0.032228984
39	0x3ca507bd	0.020145291
40	0x3d1a0009	0.03759769
41	0x3c5ac551	0.013352708
42	0x3d129d25	0.035794396
43	0x3d177bc4	0.036983266
44	0x3d1618d3	0.036644768
45	0x3d1c5d90	0.038175166
46	0x3cd1d8cb	0.02561607
47	0x3c7e7b5a	0.015532339
48	0x3d1b98c2	0.037987478
49	0x3d0f5835	0.03499623
50	0x3d13a4f5	0.036045987
51	0x3d135f8f	0.035979804
52	0x3ce06457	0.027391596
53	0x3d173888	0.036919147
54	0x3d0f9ce7	0.035061743
55	0x3d1106c0	0.035406828
56	0x3cdf0047	0.027221812
57	0x3ccc39f8	0.024929985
58	0x3d01e745	0.031714696
59	0x3ca87a97	0.020566268
60	0x3d03c0f6	0.032166444
61	0x3d09f21a	0.03367815
62	0x3cd46c48	0.025930539
63	0x3d016d83	0.03159858
64	0x3d16d003	0.03681947
65	0x3ca95741	0.020671489
66	0x3d1044fc	0.03522204
67	0x3d1ae59f	0.03781664
68	0x3d173b0e	0.036921553
69	0x3ccd5caa	0.0250686
70	0x3d0ee0ca	0.034882344
71	0x3d09b572	0.033620305
72	0x3cfad5dc	0.030619554
73	0x3d121554	0.03566487
74	0x3d0c1ff2	0.034210153
75	0x3cd6c050	0.026214749
76	0x3d1b415d	0.037904132
77	0x3cedea99	0.029042529
78	0x3d13542f	0.035968956
79	0x3d13f1e0	0.03611934
80	0x3d177abf	0.036982294
81	0x3cff6bbb	0.0311793
82	0x3cea5b6e	0.02860805
83	0x3d15c21a	0.036562063
84	0x3d1d8bb1	0.0384633
85	0x3cc9f04c	0.024650715
86	0x3cff5026	0.031166147
87	0x3d1bdc94	0.038052157
88	0x3d0e28d5	0.03470691
89	0x3d150795	0.036384184
90	0x3d00d808	0.031456023
91	0x3d162694	0.036657885
92	0x3d0dd430	0.034626186
93	0x3cc43002	0.023948673
94	0x3d1cb144	0.03825499
95	0x3c94c4b3	0.0181602
96	0x3d18cd61	0.03730524
97	0x3cd3423c	0.025788419
98	0x3d1d9083	0.038467895
99	0x3d132d83	0.035932075
100	0x3d1e4cd3	0.038647484
101	0x3d1ca7e9	0.03824607
102	0x3d0c3c65	0.034237284
103	0x3d1ce1fd	0.038301457
104	0x3cd19579	0.02558397
105	0x3ccf23a6	0.025285553
106	0x3ca9a64b	0.020709177
107	0x3cdc2000	0.026870728
108	0x3d167d9e	0.03674089
109	0x3d1599f3	0.03652377
110	0x3c948cdd	0.018133575
111	0x3cb5c9cc	0.02219095
112	0x3d18eb8a	0.037334003
113	0x3d1e31e2	0.03862179
114	0x3d175307	0.036944415
115	0x3d0d712b	0.034531754
116	0x3cf68638	0.030093297
117	0x3d0c20fe	0.03421115
118	0x3d18ff02	0.03735257
119	0x3cb01d1d	0.021498257
120	0x3cf07cf0	0.02935645
121	0x3d0b058b	0.033940833
122	0x3c5ab1e2	0.013348075
123	0x3d0787f6	0.033088647
124	0x3d0cd390	0.03438145
125	0x3d10759b	0.035268407
126	0x3ce7d3d7	0.028299255
127	0x3d178916	0.03699597
128	0x3c8b118b	0.016976139
129	0x3c4df5df	0.012570827
130	0x3d0d9de5	0.034574408
131	0x3d16adaf	0.03678673
132	0x3d086a3d	0.03330444
133	0x3d1a1352	0.03761608
134	0x3d154f64	0.036452666
135	0x3d17e2e2	0.037081607
136	0x3d02b82e	0.03191393
137	0x3d191da3	0.03738178
138	0x3cbdf77e	0.023189303
139	0x3ce0de6a	0.027449805
140	0x3ce9fc7f	0.028562782
141	0x3d17749e	0.03697645
142	0x3d1c8290	0.03821045
143	0x3cdfe8c4	0.027332671
144	0x3d16faef	0.036860403
145	0x3ce122f7	0.027482493
146	0x3d0fba10	0.035089552
147	0x3d1a65da	0.03769479
148	0x3d0f720c	0.035020873
149	0x3d06555b	0.032796245
150	0x3d080bc5	0.03321435
151	0x3d063ac0	0.032770872
152	0x3c7bddb3	0.015372681
153	0x3d0d7dac	0.03454368
154	0x3d08cec1	0.0334003
155	0x3d1eb1c3	0.038743746
156	0x3cc2cfe1	0.023780765
157	0x3d1db941	0.03850675
158	0x3d1d5427	0.038410332
159	0x3c9bcfdf	0.01902002
160	0x3d0167df	0.0315932
161	0x3d13074e	0.03589564
162	0x3d145d92	0.036222048
163	0x3cf07c96	0.029356282
164	0x3cd04992	0.025425706
165	0x3ceb1b60	0.028699577
166	0x3cf5b325	0.02999265
167	0x3d12a54f	0.03580218
168	0x3d057126	0.03257861
169	0x3d13b07d	0.036056984
170	0x3d02b9fb	0.031915646
171	0x3d0e9a21	0.034814958
172	0x3d1323ca	0.035922803
173	0x3cb247b6	0.02176271
174	0x3cee5801	0.029094698
175	0x3c4e1565	0.012578343
176	0x3cf3a71e	0.029742774
177	0x3cc415c6	0.023936164
178	0x3c24096d	0.010012013
179	0x3d1d4e80	0.03840494
180	0x3cf0283f	0.029316066
181	0x3d07f31d	0.033190835
182	0x3cd6a630	0.026202291
183	0x3d09eb96	0.033671938
184	0x3c8d58c8	0.017254248
185	0x3d01a64f	0.031652745
186	0x3d02f7b4	0.03197451
187	0x3d0cf51f	0.034413453
188	0x3d0a6cab	0.03379504
189	0x3d181303	0.037127506
190	0x3d083305	0.03325178
191	0x3ced0524	0.028933115
192	0x3d1e1319	0.03859243
193	0x3d01d17d	0.031693924
194	0x3d1d0843	0.038337957
195	0x3cbdc846	0.023166787
196	0x3cde95ee	0.027171101
197	0x3caecb9b	0.021337321
198	0x3cd5e301	0.02610922
199	0x3d096541	0.03354383
200	0x3d1a563f	0.037679907
201	0x3cc2ba1c	0.023770384
202	0x3d10d34e	0.035357766
203	0x3d196112	0.03744609
204	0x3d1e5105	0.038651485
205	0x3d11546d	0.035480905
206	0x3cf0b5e9	0.029383617
207	0x3ca63970	0.02029106
208	0x3d0c7286	0.034288906
209	0x3d160d87	0.036633994
210	0x3d0b3584	0.033986583
211	0x3d1449db	0.036203247
212	0x3d1ccf1a	0.038283445
213	0x3d042d23	0.03226961
214	0x3ccfe432	0.025377367
215	0x3d034512	0.032048292
216	0x3cf9434b	0.030427596
217	0x3d16a87c	0.036781773
218	0x3d1493da	0.036273815
219	0x3d073ce7	0.033017065
220	0x3d15ee5a	0.036604263
221	0x3bcebe62	0.0063093165
222	0x3cced784	0.02524925
223	0x3d097498	0.033558458
224	0x3d0e7a95	0.034784872
225	0x3d1b9319	0.03798208
226	0x3d0a7401	0.033802036
227	0x3cd88f94	0.02643565
228	0x3d00c145	0.031434316
229	0x3ccda5dd	0.025103504
230	0x3ce8cc7b	0.028417816
231	0x3cf7cabf	0.030248044
232	0x3d174ade	0.036936633
233	0x3d1eaff0	0.038742006
234	0x3d0e121e	0.034685247
235	0x3cc455af	0.023966638
236	0x3c92c0a6	0.017914128
237	0x3cefa021	0.02925116
238	0x3cba1f6e	0.022720065
239	0x3cce45a7	0.025179697
240	0x3ca33571	0.019922944
241	0x3d0d0e6d	0.034437586
242	0x3d0b6d18	0.034039587
243	0x3d04726b	0.03233568

model.feature_nns.0.model.1.weight f4 [1, 244]
0	0xba9e7f66	-0.0012092411
1	0xbaa47dda	-0.0012549714
2	0xbaa8e00d	-0.0012884155
3	0xba8c8d06	-0.0010723181
4	0xba9b4ad6	-0.0011847864
5	0xba9d81e6	-0.0012016862
6	0xbabf04b8	-0.001457355
7	0xba91a2b7	-0.0011111115
8	0xbaac5c36	-0.001315004
9	0xbaa9b66c	-0.0012948043
10	0xba878b3b	-0.0010341177
11	0xba9f857c	-0.0012170519
12	0xba960b77	-0.0011447509
13	0xba960ecf	-0.0011448505
14	0xba91e303	-0.0011130277
15	0xba93067c	-0.0011217142
16	0xbab30e02	-0.0013660791
17	0xba87c358	-0.00103579
18	0xbab03b59	-0.0013445421
19	0xbaa6d1fb	-0.0012727374
20	0xba8ddde0	-0.001082357
21	0xbaae837d	-0.0013314333
22	0xbab2c860	-0.0013640039
23	0xba93c99d	-0.0011275295
24	0xba8c8225	-0.0010719938
25	0xba7fea25	-0.0009762368
26	0xba73ced3	-0.00093005336
27	0xba8fdaa6	-0.0010975196
28	0xbab67833	-0.001392132
29	0xba95e29a	-0.001143533
30	0xba986836	-0.0011627737
31	0xba8827e4	-0.0010387865
32	0xba953cd5	-0.0011385927
33	0xbaa0dec4	-0.001227342
34	0xbac53bfd	-0.0015047785
35	0xbaa21812	-0.0012366793
36	0xbaa6d2d3	-0.0012727625
37	0xbaa33ee7	-0.001245466
38	0xba8b8b70	-0.0010646414
39	0xba7c68a6	-0.0009628631
40	0xba9dce11	-0.0012039562
41	0xba8d1b96	-0.0010765668
42	0xba9dde23	-0.0012044351
43	0xba6c1767	-0.0009006173
44	0xba7a2b81	-0.0009543226
45	0xba9f3f71	-0.0012149644
46	0xba94acb3	-0.0011342972
47	0xba886338	-0.0010405546
48	0xbaa5e4f9	-0.001265674
49	0xba96e1a5	-0.0011511339
50	0xba8cf7d0	-0.0010755006
51	0xbaac55d4	-0.0013148137
52	0xbaadc274	-0.0013256804
53	0xba9a68ee	-0.0011780539
54	0xba902272	-0.0010996594
55	0xbaa64515	-0.0012685383
56	0xba9852fe	-0.0011621413
57	0xbaa9423e	-0.0012913418
58	0xbab15a2a	-0.0013530899
59	0xba8ffb32	-0.0010984896
60	0xba95c146	-0.0011425398
61	0xbac087b8	-0.0014688885
62	0xba7839b0	-0.00094690453
63	0xba93e722	-0.0011284093
64	0xbaac4de4	-0.0013145772
65	0xbabd8012	-0.0014457724
66	0xbaa19385	-0.001232729
67	0xbac2d778	-0.001486524
68	0xba6c9424	-0.000902476
69	0xba9d0708	-0.0011980245
70	0xbab4a95c	-0.0013783383
71	0xba72aa78	-0.0009256969
72	0xbaa3d680	-0.0012499839
73	0xbaa3f46e	-0.0012508759
74	0xbaa7a9b0	-0.001279166
75	0xba92faf6	-0.0011213708
76	0xbaa2fc8a	-0.0012434882
77	0xba8996c0	-0.0010497198
78	0xbaa3ea7e	-0.0012505797
79	0xbad2ad27	-0.0016073332
80	0xba9b0f76	-0.0011830169
81	0xba929ab3	-0.001118502
82	0xba8afc51	-0.0010603761
83	0xba998d68	-0.0011715116
84	0xba9ff8d9	-0.00122049
85	0xbab455b8	-0.0013758456
86	0xba9fcc26	-0.0012191578
87	0xba87791e	-0.0010335778
88	0xba91f4c3	-0.0011135567
89	0xba88130b	-0.0010381652
90	0xba940f72	-0.0011296107
91	0xbaa659d1	-0.0012691562
92	0xba64da29	-0.0008730018
93	0xbaa3ae3b	-0.0012487838
94	0xba6b55ef	-0.00089773437
95	0xbaa0860c	-0.001224698
96	0xbab97c14	-0.0014151358
97	0xba61e061	-0.0008616504
98	0xbaadc82c	-0.0013258508
99	0xbaafc3d0	-0.0013409797
100	0xbaab2437	-0.0013057058
101	0xbaa21c72	-0.0012368097
102	0xba97b47c	-0.0011574174
103	0xbaaa2a15	-0.0012982512
104	0xbaaedbf2	-0.0013340695
105	0xbac7bceb	-0.0015238797
106	0xba984e36	-0.0011619988
107	0xbaa142e8	-0.0012303265
108	0xba8aac15	-0.0010579849
109	0xba98f870	-0.001167072
110	0xba98597d	-0.0011623349
111	0xbaceca1d	-0.0015776787
112	0xba8ce80f	-0.0010750311
113	0xbaa343a7	-0.0012456075
114	0xba82c85c	-0.0009977925
115	0xba918174	-0.0011101202
116	0xba7cc7ed	-0.00096428284
117	0xbaa5f532	-0.0012661575
118	0xba9d6810	-0.0012009162
119	0xba9903d2	-0.0011674112
120	0xbab0da68	-0.0013492825
121	0xba8787fe	-0.0010340211
122	0xba93663f	-0.0011245682
123	0xba858c6a	-0.0010188941
124	0xbaa2ec2b	-0.0012430003
125	0xbac61dcb	-0.001511508
126	0xbaa01cc4	-0.0012215604
127	0xbaae5bf8	-0.0013302555
128	0xba9b05d1	-0.0011827295
129	0xbabb559d	-0.0014292483
130	0xbac5f4bf	-0.0015102847
131	0xba9d2228	-0.0011988329
132	0xba8bbda1	-0.0010661372
133	0xbaa2bd29	-0.0012415993
134	0xba802875	-0.0009777682
135	0xbaa6ce4b	-0.0012726275
136	0xba9d64bf	-0.0012008174
137	0xbabc0406	-0.0014344461
138	0xbaafc8c2	-0.0013411271
139	0xba937d5b	-0.0011252569
140	0xba86d2ab	-0.0010286173
141	0xbabe362b	-0.0014511993
142	0xba94c009	-0.0011348735
143	0xba86375d	-0.0010239888
144	0xba958ecf	-0.0011410358
145	0xba8e1a46	-0.001084157
146	0xbaaa4774	-0.0012991265
147	0xbaa4fd8b	-0.0012587769
148	0xbacfc792	-0.0015852323
149	0xba8624c7	-0.0010234349
150	0xba873799	-0.0010316252
151	0xba8d1623	-0.0010764044
152	0xbaa468ca	-0.0012543437
153	0xba9d6b14	-0.0012010061
154	0xba95868e	-0.0011407898
155	0xba79ca53	-0.0009528745
156	0xba868f10	-0.0010266025
157	0xbab89f45	-0.0014085552
158	0xbab6f7f0	-0.0013959389
159	0xba96149b	-0.0011450233
160	0xba86a4fd	-0.0010272559
161	0xba74c7eb	-0.00093376514
162	0xbaa4d3ce	-0.001257533
163	0xba7fa505	-0.0009752068
164	0xba8ce2db	-0.001074876
165	0xba8dd54a	-0.0010821011
166	0xbaa53743	-0.001260497
167	0xbac75080	-0.0015206486
168	0xba892be8	-0.0010465356
169	0xbab56edf	-0.0013842246
170	0xba89bb38	-0.0010508066
171	0xbaa0d061	-0.0012269133
172	0xba9ae010	-0.0011816043
173	0xba9ff409	-0.0012203465
174	0xbaa0d1d9	-0.0012269571
175	0xbaa5763e	-0.001262374
176	0xba8e211a	-0.0010843605
177	0xbaa40fb3	-0.0012516886
178	0xbaa841a4	-0.0012836945
179	0xba93bbfa	-0.0011271231
180	0xba6f3081	-0.0009124354
181	0xbaa54877	-0.0012610097
182	0xba8fddd7	-0.0010976148
183	0xbab4f30c	-0.0013805344
184	0xba9b9c2b	-0.0011872103
185	0xba9750eb	-0.0011544501
186	0xbaa2172a	-0.0012366523
187	0xba916762	-0.0011093433
188	0xba7dd93b	-0.0009683554
189	0xba7b4765	-0.0009585529
190	0xbaafe310	-0.001341911
191	0xbabdeeff	-0.0014490782
192	0xbaa5f979	-0.001266285
193	0xbaa31a36	-0.0012443725
194	0xbaa129a0	-0.001229573
195	0xba7f4d99	-0.0009739041
196	0xbaa962a9	-0.001292308
197	0xbaa553d8	-0.0012613488
198	0xba895f3a	-0.001048065
199	0xba9b1344	-0.0011831303
200	0xbaa7c3e9	-0.0012799475
201	0xba6486de	-0.00087176065
202	0xbaa11325	-0.0012289031
203	0xba8eb257	-0.001088689
204	0xba8198be	-0.000988744
205	0xba84ce8a	-0.0010132354
206	0xba8279cf	-0.0009954515
207	0xba931567	-0.0011221588
208	0xba9b1087	-0.0011830487
209	0xbaaaf87a	-0.0013044022
210	0xbab37e07	-0.0013694175
211	0xbabeed70	-0.0014566611
212	0xba8c5103	-0.0010705296
213	0xba9aecf6	-0.0011819887
214	0xba79f464	-0.0009535013
215	0xbaa11cca	-0.0012291905
216	0xba85f255	-0.0010219315
217	0xbaa5bfa9	-0.001264562
218	0xba8eade5	-0.0010885565
219	0xba942627	-0.0011302874
220	0xbab53a86	-0.0013826645
221	0xba9962c9	-0.0011702414
222	0xbabace8b	-0.0014252228
223	0xba904214	-0.0011006021
224	0xba867ff1	-0.0010261518
225	0xbada691c	-0.0016663405
226	0xba9eda77	-0.0012119551
227	0xbab567d6	-0.001384015
228	0xbaa39984	-0.0012481664
229	0xbab0a417	-0.0013476637
230	0xbaa42fd0	-0.0012526456
231	0xbaadfc35	-0.0013274016
232	0xba7f5b74	-0.00097411056
233	0xba91583e	-0.001108892
234	0xba9a7838	-0.0011785096
235	0xbaa64dd6	-0.0012687992
236	0xba9c28a3	-0.0011913966
237	0xba89150e	-0.0010458545
238	0xbab6171b	-0.0013892384
239	0xba96fe6d	-0.0011519917
240	0xba9cd9fa	-0.0011966818
241	0xbaa76532	-0.0012771247
242	0xba85de11	-0.0010213276
243	0xba93ea27	-0.0011284993

model.feature_nns.1.model.0.weights f4 [1, 272]
0	0x3d0b1b8f	0.03396183
1	0x3d1cc459	0.03827319
2	0x3cfea5fc	0.031085007
3	0x3d1184eb	0.03552715
4	0x3d0d1ca0	0.034451127
5	0x3d19cefc	0.03755091
6	0x3cdf4b1f	0.0272575
7	0x3d1232fb	0.03569315
8	0x3d17b80a	0.037040748
9	0x3cfc8499	0.030824946
10	0x3d184cc4	0.037182584
11	0x3d06fc50	0.032955468
12	0x3d1b02c4	0.037844434
13	0x3cf4546e	0.029825415
14	0x3d183909	0.037163768
15	0x3d1e15d0	0.03859502
16	0x3d1b6769	0.037940416
17	0x3d172b56	0.036906563
18	0x3d1da6b3	0.038489055
19	0x3d08b3bb	0.03337453
20	0x3d1d8cce	0.03846436
21	0x3d1ca11a	0.038239576
22	0x3cfc0d94	0.030768193
23	0x3d189b20	0.037257314
24	0x3cfc849f	0.030824957
25	0x3cc471cd	0.023980046
26	0x3c96ff71	0.01843235
27	0x3ca36af8	0.019948468
28	0x3d0f8c51	0.035045926
29	0x3d1c00f4	0.038086846
30	0x3d0d29c7	0.03446367
31	0x3d186a3e	0.037210695
32	0x3cb51a54	0.02210728
33	0x3d08eeab	0.033430737
34	0x3d173f8a	0.03692583
35	0x3cedf546	0.02904762
36	0x3d14573e	0.036216013
37	0x3ce89935	0.028393367
38	0x3d1b7994	0.037957743
39	0x3cd4fe0c	0.026000045
40	0x3d155904	0.036461845
41	0x3cfd7053	0.03093735
42	0x3d136fe8	0.035995394
43	0x3d1c7db3	0.038205814
44	0x3cfa522d	0.030556763
45	0x3c6249f1	0.013811574
46	0x3d05707d	0.03257798
47	0x3c43d643	0.011952939
48	0x3d17e9e1	0.03708828
49	0x3d0e2ce1	0.03471077
50	0x3d081e85	0.03323223
51	0x3cff6509	0.031176107
52	0x3d028be2	0.031871684
53	0x3d1b9ddd	0.037992347
54	0x3d011438	0.031513423
55	0x3d196fbf	0.037460085
56	0x3cb1aec0	0.021689773
57	0x3c843a91	0.016141208
58	0x3cd3944f	0.025827555
59	0x3d19e1c8	0.037568837
60	0x3cfcfad4	0.030881323
61	0x3cf2362b	0.029566845
62	0x3d0e5fe3	0.034759413
63	0x3d1cdeaa	0.038298286
64	0x3ce0b4ac	0.027429901
65	0x3ceeb7a5	0.029140303
66	0x3d102b55	0.035197575
67	0x3d15ad87	0.03654244
68	0x3d0ccd5a	0.034375526
69	0x3c9af6eb	0.018916568
70	0x3cb32c91	0.021871837
71	0x3d069ee9	0.032866392
72	0x3d121bf6	0.035671197
73	0x3d0ccd5a	0.034375526
74	0x3cad80f4	0.021179654
75	0x3d1204ee	0.035649233
76	0x3d05c109	0.032654796
77	0x3d116d65	0.035504717
78	0x3cd05ac5	0.025433907
79	0x3cef17fb	0.02918624
80	0x3d03c20f	0.03216749
81	0x3d08b3bd	0.033374537
82	0x3d11033d	0.03540348
83	0x3ce8cde0	0.028418481
84	0x3d0f8c53	0.035045933
85	0x3d16a6e0	0.03678024
86	0x3d0a3afb	0.033747654
87	0x3d04cd5a	0.0324224
88	0x3d1b5525	0.037922997
89	0x3d1b02c0	0.03784442
90	0x3d1ba6eb	0.038000982
91	0x3cebd370	0.028787345
92	0x3d1753b2	0.036945052
93	0x3d110f20	0.035414815
94	0x3d13c8a1	0.036080007
95	0x3d10bbc2	0.03533531
96	0x3d00cae0	0.031443477
97	0x3d0a73c2	0.0338018
98	0x3d186072	0.037201352
99	0x3cbfe44f	0.023424296
100	0x3c7e4dcd	0.015521479
101	0x3cc7fe02	0.024413113
102	0x3d05d127	0.032670166
103	0x3cf17d8a	0.029478807
104	0x3d11bf45	0.0355828
105	0x3d15a2f5	0.03653236
106	0x3d15192b	0.036400955
107	0x3d0dd2ff	0.03462505
108	0x3d0a3afd	0.03374766
109	0x3cdf87cb	0.02728643
110	0x3d0cf52d	0.034413505
111	0x3d14ce28	0.03632942
112	0x3d159870	0.03652233
113	0x3cef1803	0.029186254
114	0x3d110f1f	0.03541481
115	0x3c6ca01e	0.014442472
116	0x3d1a9d2a	0.03774754
117	0x3d142b97	0.036174383
118	0x3d0580a6	0.03259339
119	0x3cd6eb31	0.026235195
120	0x3d1a3fff	0.037658688
121	0x3cae0b18	0.021245524
122	0x3d1a9d2b	0.037747543
123	0x3cfd974a	0.03095593
124	0x3d12ddfe	0.03585624
125	0x3cd6a5b8	0.026202068
126	0x3d07684a	0.033058442
127	0x3d0cda99	0.03438816
128	0x3d1cd5e4	0.03828992
129	0x3cedc464	0.02902431
130	0x3cb4258e	0.021990564
131	0x3d004915	0.031319696
132	0x3cf3a191	0.029740127
133	0x3ce166a8	0.02751477
134	0x3cfe3284	0.031029947
135	0x3cebd371	0.028787347
136	0x3d14c36a	0.036319174
137	0x3cfe328a	0.031029958
138	0x3d12f4a6	0.035877846
139	0x3d1563ad	0.03647201
140	0x3d102b54	0.03519757
141	0x3ce4fd11	0.027952703
142	0x3cf2362b	0.029566845
143	0x3d0895fc	0.03334616
144	0x3d04cd56	0.032422386
145	0x3d1e6aad	0.038675953
146	0x3d1d9553	0.038472485
147	0x3c97d0ca	0.018532176
148	0x3d0a4937	0.03376123
149	0x3ce648cc	0.028110884
150	0x3d17b80d	0.03704076
151	0x3cc0ace3	0.023519939
152	0x3d01810d	0.031617213
153	0x3d19a8e6	0.03751459
154	0x3cd3dd64	0.025862403
155	0x3d18df47	0.03732231
156	0x3cd4b665	0.025965879
157	0x3d1e37dc	0.03862749
158	0x3d0fc9bb	0.035104495
159	0x3d036cea	0.03208629
160	0x3d0a2cc5	0.0337341
161	0x3d128ea5	0.035780568
162	0x3ce2c502	0.027681831
163	0x3d1d0a74	0.038340047
164	0x3d17902a	0.03700272
165	0x3cb8c6fd	0.022555823
166	0x3d10a3d7	0.0353125
167	0x3d1dda11	0.038538042
168	0x3cf60bf7	0.030035002
169	0x3d1e1e57	0.038603153
170	0x3ce41c14	0.02784542
171	0x3ca7cc1e	0.020483073
172	0x3cb76d2d	0.022390926
173	0x3d138620	0.036016583
174	0x3d1ccd22	0.038281567
175	0x3d1842f8	0.03717324
176	0x3d0600f5	0.032715756
177	0x3d19a8e6	0.03751459
178	0x3d10f751	0.03539211
179	0x3ccbab66	0.024862003
180	0x3d0f673c	0.03501056
181	0x3d050ef9	0.032484982
182	0x3d169c9d	0.03677045
183	0x3d1e15d0	0.03859502
184	0x3d02c056	0.031921707
185	0x3d137b12	0.03600604
186	0x3c9f5bc8	0.019452944
187	0x3d01a527	0.031651642
188	0x3ceb3b78	0.02871488
189	0x3d07f153	0.03318913
190	0x3cca0673	0.024661278
191	0x3d0f7399	0.035022352
192	0x3d192c9b	0.037396055
193	0x3cafa1d5	0.021439472
194	0x3d1d133e	0.03834843
195	0x3d132cdc	0.035931453
196	0x3ceb088d	0.0286906
197	0x3d09c8ca	0.033638753
198	0x3cd58c73	0.026067948
199	0x3d1e5149	0.03865174
200	0x3cc413fd	0.023935312
201	0x3d1dc8f9	0.03852174
202	0x3cedf53c	0.0290476
203	0x3d10df94	0.03536947
204	0x3cdd9b03	0.027051454
205	0x3d0be959	0.034158085
206	0x3d12ddff	0.035856243
207	0x3d08b3bb	0.03337453
208	0x3d12a55b	0.035802227
209	0x3cf0069e	0.02930003
210	0x3ce2c504	0.027681835
211	0x3cad80f2	0.02117965
212	0x3cb60b4d	0.022222186
213	0x3cfa7ae1	0.030576171
214	0x3d0b52d7	0.03401455
215	0x3d05d124	0.032670155
216	0x3cfe5936	0.031048398
217	0x3cb7e162	0.022446338
218	0x3d0580a6	0.03259339
219	0x3d1a1a6d	0.037622858
220	0x3cf5318f	0.029930858
221	0x3ccab015	0.024742166
222	0x3d0f4e7d	0.03498696
223	0x3cd6eb33	0.026235199
224	0x3d00b87a	0.03142593
225	0x3d0dd2fe	0.034625046
226	0x3d0a6584	0.03378822
227	0x3d1c869d	0.038214315
228	0x3d1543cc	0.03644161
229	0x3ca73153	0.020409262
230	0x3d0d5e0f	0.03451353
231	0x3d09d722	0.033652432
232	0x3d0f5af7	0.03499886
233	0x3d171712	0.036887236
234	0x3d188798	0.037238687
235	0x3ce12b8e	0.027486589
236	0x3d17ae1a	0.03703127
237	0x3d11e21c	0.035616025
238	0x3d081e85	0.03323223
239	0x3d1563a7	0.03647199
240	0x3d18f29e	0.037340753
241	0x3ccca2b8	0.024979934
242	0x3ce12b8e	0.027486589
243	0x3d15cd00	0.036572456
244	0x3d1bf7ef	0.038078245
245	0x3cf14f2b	0.029456696
246	0x3cd90d29	0.026495533
247	0x3cab4a8f	0.020909576
248	0x3cf95bad	0.030439222
249	0x3d0620c1	0.03274608
250	0x3cdfc474	0.027315356
251	0x3d021067	0.031753924
252	0x3d004913	0.03131969
253	0x3d0c62cc	0.034273908
254	0x3d17357a	0.036916234
255	0x3d1982da	0.037478305

model.feature_nns.1.model.1.weight f4 [1, 272]
0	0xb9c12efe	-0.0003684684
1	0xb99a7d8a	-0.00029466703
2	0xb8bb4732	-8.930116e-05
3	0xb9fed61a	-0.00048606173
4	0xb9ee4458	-0.00045445818
5	0xb95f3628	-0.00021287112
6	0xb98f3de9	-0.00027321212
7	0xb98dc03c	-0.00027036841
8	0xba079ddd	-0.0005173365
9	0xb9d048e5	-0.00039727162
10	0xb9da8d79	-0.00041685606
11	0xb9612c7d	-0.00021474245
12	0xba0acae5	-0.0005294516
13	0xb8dda632	-0.000105690575
14	0xba0afd82	-0.0005302058
15	0xba26720e	-0.0006349393
16	0xb9c36bf8	-0.0003727374
17	0xb940c3cc	-0.00018383487
18	0xb9776308	-0.00023592648
19	0xb9b54853	-0.00034576896
20	0xb9810d31	-0.00024614626
21	0xb97bb559	-0.00024004783
22	0xb9396908	-0.00017682102
23	0xb9fad680	-0.0004784353
24	0xba038179	-0.00050165463
25	0xb9925d16	-0.00027916644
26	0xb8f3d23f	-0.00011626304
27	0xb9b38e22	-0.00034247438
28	0xb9a23c22	-0.0003094385
29	0xb9eb1fb6	-0.0004484632
30	0xb95be167	-0.00020969436
31	0xb96c4c95	-0.00022535243
32	0xb9521f64	-0.00020038855
33	0xb985cf07	-0.00025521984
34	0xb9b890e1	-0.00035203158
35	0xb9c8936c	-0.0003825681
36	0xb9969db1	-0.0002872772
37	0xb9c54929	-0.00037629277
38	0xb85fa80d	-5.3323853e-05
39	0xb9ab690c	-0.00032693928
40	0xba1e719f	-0.00060441525
41	0xb9e844c7	-0.0004430173
42	0xb91d2ee4	-0.00014990155
43	0xb961c13b	-0.00021529656
44	0xb98285db	-0.00024895262
45	0xb865b18b	-5.4763204e-05
46	0xb9a7e983	-0.00032026702
47	0xb9460ce4	-0.00018887554
48	0xb9b676f9	-0.00034802387
49	0xb8ba4703	-8.882398e-05
50	0xb907d4cb	-0.00012953875
51	0xb9a1d450	-0.00030866498
52	0xb784ab5f	-1.5815427e-05
53	0xba21c3ce	-0.000617084
54	0xb9adb55b	-0.00033132252
55	0xb9c9b72a	-0.00038474175
56	0xb9a24c7b	-0.0003095603
57	0xb986bbf8	-0.0002569852
58	0xba089e05	-0.0005211535
59	0xb9a8d88f	-0.00032204806
60	0xb9a8642e	-0.00032118097
61	0xba133fd3	-0.00056171155
62	0xb9873281	-0.00025786835
63	0xb9e125d4	-0.00042943528
64	0xb9e0e96c	-0.00042898522
65	0xba035a28	-0.0005010688
66	0xb97145b1	-0.00023009513
67	0xba1044a1	-0.00055033906
68	0xb9a2600d	-0.0003097061
69	0xb8f26ce3	-0.00011559741
70	0x379671c1	1.7934364e-05
71	0xb9f1cceb	-0.00046119778
72	0xb97632db	-0.00023479333
73	0xb9f48cbe	-0.00046644168
74	0xb9ccb603	-0.0003904552
75	0x389198cc	6.9425994e-05
76	0xb99b985b	-0.00029677417
77	0xb93b7c14	-0.00017879932
78	0xb9755152	-0.00023395315
79	0xb95b8b95	-0.00020937466
80	0xba0a62d0	-0.00052790064
81	0xb95d895b	-0.00021127371
82	0xb9a501d6	-0.0003147262
83	0xb9842802	-0.0002520681
84	0xb93d4aa5	-0.00018052252
85	0xba13e0c0	-0.00056410953
86	0xb9b15d2e	-0.00033829495
87	0xb960f26f	-0.00021452618
88	0xb9aae565	-0.0003259584
89	0xb9958f7f	-0.00028526408
90	0xb91de869	-0.00015059266
91	0xba416fb6	-0.0007379012
92	0xba15b1a7	-0.0005710371
93	0xb9cce2c1	-0.00039078857
94	0xb903a775	-0.00012555516
95	0xb98ec778	-0.00027232966
96	0xb97d4bbe	-0.00024156176
97	0xb9bb03e0	-0.00035670307
98	0xb8fc19f7	-0.00012021133
99	0xb993734a	-0.00028123922
100	0xb92818a4	-0.00016030908
101	0xb9401dea	-0.00018321691
102	0xba1e7c9f	-0.00060457917
103	0xb98b0bce	-0.0002652094
104	0xb99124ca	-0.00027683965
105	0xb945f519	-0.0001887869
106	0xba04fece	-0.0005073369
107	0xb8200ee7	-3.816085e-05
108	0xba1874e2	-0.0005815757
109	0xba3db099	-0.0007236093
110	0xb8abbe75	-8.189391e-05
111	0xb9369bde	-0.00017414938
112	0xba0aff1a	-0.00053022953
113	0xb9a4d752	-0.00031440944
114	0xba10357b	-0.0005501133
115	0xba0a7319	-0.0005281433
116	0xb9eea16a	-0.0004551516
117	0xb9c45be7	-0.00037452506
118	0xb9267943	-0.00015876167
119	0x38701920	5.724386e-05
120	0xb959a3f7	-0.00020755814
121	0xba0e65dd	-0.0005432049
122	0xb9de9b1d	-0.00042458708
123	0xb974ff74	-0.00023364817
124	0xb9f1c711	-0.00046115418
125	0xb9dc0274	-0.00041963498
126	0xba50153a	-0.00079377333
127	0xb93d4434	-0.00018049852
128	0xb9f1261e	-0.00045995502
129	0xb9f0f75e	-0.0004596067
130	0xb818adbc	-3.6401427e-05
131	0xba052a8c	-0.00050798873
132	0xb8889f2e	-6.514635e-05
133	0xba0ac74a	-0.00052939786
134	0xb8fba051	-0.00011998474
135	0xb8e621ce	-0.00010973551
136	0xb9b8d079	-0.0003525054
137	0xb97ddf2e	-0.00024211101
138	0xb9f484fd	-0.0004663839
139	0xb9d6cc84	-0.00040969637
140	0xb99898a5	-0.00029105428
141	0xb9a84e5e	-0.00032101845
142	0xb9c226a6	-0.0003703136
143	0xb97e2bc6	-0.00024239635
144	0xb9ac103c	-0.00032818492
145	0xb9b21eff	-0.000339739
146	0xb95edf72	-0.0002125481
147	0xb9e57fb5	-0.00043773433
148	0xb9a6ed9c	-0.0003183902
149	0xb991d3fd	-0.000278145
150	0xba2b86b5	-0.0006543205
151	0xb9d4fee0	-0.00040625688
152	0xb8bdd629	-9.052113e-05
153	0xb8858cb7	-6.3681444e-05
154	0xb810c03c	-3.4511308e-05
155	0xb94784bd	-0.00019027568
156	0xb9cdac31	-0.0003922894
157	0xba0c4413	-0.000535072
158	0xb9b85fe4	-0.0003516666
159	0xb98b5aaf	-0.0002657971
160	0xb9456d4c	-0.000188281
161	0xba11b1a7	-0.00055577833
162	0xb9dcc649	-0.00042109404
163	0xb9970f52	-0.0002881238
164	0xb9ae374a	-0.0003322906
165	0xb83f8496	-4.566143e-05
166	0xb9dd5512	-0.00042215787
167	0xba23d053	-0.0006248999
168	0xb854d623	-5.074417e-05
169	0xb95a2816	-0.00020805033
170	0xb9fa8a5a	-0.00047786796
171	0xb973bc00	-0.00023244321
172	0xb9eebcc4	-0.0004553554
173	0xb99a9ccf	-0.0002949
174	0x3528aec0	6.283917e-07
175	0xb9aeef7f	-0.00033366305
176	0xb991971e	-0.00027769146
177	0xb712135a	-8.706784e-06
178	0xb92f9322	-0.00016744112
179	0xb94bbd47	-0.000194301
180	0xb934734b	-0.00017209088
181	0xb97656a9	-0.00023492672
182	0xb9bd655c	-0.00036124408
183	0x34088920	1.2715873e-07
184	0xb9c319ee	-0.00037212617
185	0xb9f71be1	-0.00047132283
186	0xba0b5f23	-0.00053166057
187	0xb8646867	-5.445667e-05
188	0xb9e3933f	-0.0004340652
189	0xb9b89371	-0.00035205067
190	0x3920e822	0.00015345265
191	0xb9b802c5	-0.00035097278
192	0xb9783ae4	-0.00023673062
193	0xb9a3a930	-0.00031215837
194	0xb9880350	-0.0002594241
195	0xb9a9f60d	-0.00032417514
196	0xb9b5676d	-0.00034600068
197	0xb9221f73	-0.0001546124
198	0xb976f845	-0.00023552876
199	0xba01be07	-0.0004949276
200	0xb999958a	-0.0002929385
201	0xb9e0b655	-0.00042860457
202	0xb96ade78	-0.00022398855
203	0xb9b0f9fe	-0.00033755595
204	0xb8858dd8	-6.368355e-05
205	0xb90de6b8	-0.00013532757
206	0xb9a71767	-0.00031870158
207	0xba130ec9	-0.0005609808
208	0xba095b01	-0.0005239696
209	0xb9aa6176	-0.0003249754
210	0xb80d3c88	-3.3673394e-05
211	0xba06fc58	-0.00051492965
212	0xb9b16f9a	-0.0003384322
213	0xb9b312cb	-0.00034155542
214	0xb97771bf	-0.0002359813
215	0xb927e9e7	-0.00016013496
216	0xb9df08da	-0.0004254047
217	0xb9b30320	-0.0003414387
218	0xb979fc42	-0.00023840464
219	0xb9a14c93	-0.00030765365
220	0xb8b73356	-8.735682e-05
221	0xb8a87958	-8.033466e-05
222	0xb9735358	-0.00023205334
223	0xb9ad8255	-0.00033094236
224	0xba02eb22	-0.0004994144
225	0xb9b7330f	-0.00034942522
226	0xb7b838b0	-2.1960906e-05
227	0xb9611c31	-0.00021468174
228	0xb96641ba	-0.00021958994
229	0xb9c54e8c	-0.0003763329
230	0xb9bc99ee	-0.0003597284
231	0xb9802ba3	-0.00024446574
232	0xb998fe3a	-0.00029181113
233	0xb9ab58f4	-0.00032681937
234	0xb9d23da6	-0.00040100253
235	0xb84a5429	-4.8238933e-05
236	0xb985eec3	-0.00025545628
237	0xb981683c	-0.00024682458
238	0xb81a2404	-3.6750003e-05
239	0xb9cb6b28	-0.00038799015
240	0xb9186d4c	-0.00014536566
241	0xb9aece25	-0.00033341456
242	0xb9eb3c3a	-0.00044867565
243	0xb98379ef	-0.00025077115
244	0xba034045	-0.00050068303
245	0xb934d3ea	-0.00017245082
246	0xb9143288	-0.00014133204
247	0xb85c5c62	-5.2538126e-05
248	0xb9f3d26c	-0.00046505348
249	0xb969a661	-0.00022282593
250	0xba18e3e2	-0.0005832297
251	0xba08a49e	-0.0005212518
252	0xb9ceea94	-0.00039466156
253	0xb99b7bc1	-0.00029656108
254	0xb9ec5c20	-0.00045082066
255	0xb8db0d76	-0.00010445241

model.feature_nns.2.model.0.weights f4 [1, 316]
0	0x3d1c24e1	0.038121108
1	0x3cfaa38d	0.030595565
2	0x3cdf0df7	0.027228339
3	0x3d1a1a6d	0.037622858
4	0x3d17ae1c	0.037031278
5	0x3cf70e96	0.030158322
6	0x3cf06524	0.029345103
7	0x3ce61212	0.028084788
8	0x3cf90885	0.03039957
9	0x3d0f98b3	0.035057735
10	0x3d0c7d97	0.03429946
11	0x3d04ddb9	0.032438014
12	0x3d09d720	0.033652425
13	0x3ce5a3cd	0.028032208
14	0x3d0fa507	0.03506949
15	0x3c8bfe6e	0.017089095
16	0x3d00ef9d	0.031478513
17	0x3c43d638	0.011952929
18	0x3cf0652c	0.029345118
19	0x3d0023ab	0.031284016
20	0x3d083c94	0.033260897
21	0x3d19a8e7	0.037514593
22	0x3c48eea3	0.012263927
23	0x3d134e7f	0.03596353
24	0x3d1a93ed	0.03773873
25	0x3c8e00fc	0.017334454
26	0x3d0d5e14	0.034513548
27	0x3d0f421e	0.034975164
28	0x3c7e4dd5	0.015521486
29	0x3d1e83fd	0.038700093
30	0x3d1e5149	0.03865174
31	0x3cefa791	0.029254707
32	0x3cb7e16d	0.022446359
33	0x3d15192d	0.036400963
34	0x3cd6eb28	0.026235178
35	0x3cb7e167	0.022446347
36	0x3d119c56	0.035549484
37	0x3d0fc9bc	0.0351045
38	0x3d09abf9	0.03361127
39	0x3d1a6eb0	0.037703216
40	0x3d1a8aa6	0.03772988
41	0x3d110f23	0.035414826
42	0x3d1184ea	0.035527147
43	0x3c8d0263	0.017213052
44	0x3d02aee7	0.03190508
45	0x3cd46e52	0.025931511
46	0x3d10afe8	0.035324007
47	0x3cafa1dd	0.021439487
48	0x3d05501f	0.032547113
49	0x3ce28b1a	0.02765422
50	0x3cd0a7ac	0.025470577
51	0x3c48eeb4	0.0122639425
52	0x3d16354d	0.036671925
53	0x3d1753b2	0.036945052
54	0x3cc587f0	0.024112672
55	0x3d0e2015	0.034698565
56	0x3cc41403	0.023935324
57	0x3c8af529	0.016962605
58	0x3cc6f304	0.0242858
59	0x3d1a1100	0.03761387
60	0x3c2b58d3	0.010458189
61	0x3d04cd5e	0.032422416
62	0x3d1bcaf7	0.03803536
63	0x3d0233e0	0.031787753
64	0x3ce12b8f	0.02748659
65	0x3d06fc4f	0.032955464
66	0x3d12f4a8	0.035877854
67	0x3cebd374	0.028787352
68	0x3cdf87cb	0.02728643
69	0x3d1a23d6	0.037631832
70	0x3cd6eb36	0.026235204
71	0x3d0437f1	0.032279912
72	0x3d08006a	0.03320352
73	0x3d069eeb	0.0328664
74	0x3d171714	0.036887243
75	0x3d122779	0.035682175
76	0x3ceba114	0.028763331
77	0x3d1a9d2f	0.03774756
78	0x3d01143a	0.03151343
79	0x3cd7fe99	0.026366519
80	0x3cf83780	0.030299902
81	0x3cd30146	0.025757443
82	0x3cfc849b	0.03082495
83	0x3d121067	0.035660174
84	0x3d16bb69	0.036799822
85	0x3d1a77fb	0.03771208
86	0x3d09d722	0.033652432
87	0x3d0c47eb	0.034248274
88	0x3d0decc1	0.034649614
89	0x3d0138ab	0.031548183
90	0x3d040596	0.03223189
91	0x3d0fa500	0.035069466
92	0x3cbaf607	0.022822393
93	0x3ce758aa	0.02824052
94	0x3cf76401	0.030199053
95	0x3d167db4	0.036740974
96	0x3d0cf52b	0.034413498
97	0x3d0fd5fa	0.035116173
98	0x3d14573e	0.036216013
99	0x3d164a11	0.03669173
100	0x3d0e9294	0.034807757
101	0x3d011438	0.031513423
102	0x3cfe0bcc	0.031011485
103	0x3d09722d	0.033556152
104	0x3d065047	0.032791402
105	0x3d050efd	0.032484997
106	0x3ccbfe49	0.024901526
107	0x3d045963	0.03231181
108	0x3d11cae7	0.035593893
109	0x3d1d6a3b	0.038431387
110	0x3d1543d2	0.03644163
111	0x3d0010ee	0.031266145
112	0x3d0eeac1	0.034891848
113	0x3d1e1e5d	0.038603175
114	0x3cab4a92	0.020909581
115	0x3d1415bb	0.036153536
116	0x3c48eeb2	0.012263941
117	0x3cd4b664	0.025965877
118	0x3ce3715c	0.027764015
119	0x3cd5d346	0.02610172
120	0x3c72e839	0.014825874
121	0x3ca55691	0.02018288
122	0x3d0e9f33	0.034819793
123	0x3cec9beb	0.028882941
124	0x3cf93208	0.030419365
125	0x3cd5d348	0.026101723
126	0x3d1c09f0	0.038095415
127	0x3d07d30a	0.033160247
128	0x3d131669	0.035910044
129	0x3d1277ce	0.035758786
130	0x3d021070	0.031753957
131	0x3d1ea5a3	0.038732182
132	0x3d07b4a5	0.03313126
133	0x3cacf563	0.021113103
134	0x3c066126	0.008201873
135	0x3d14ce29	0.036329422
136	0x3d1e48d4	0.038643673
137	0x3d17e000	0.037078857
138	0x3cfea5fc	0.031085007
139	0x3d1ea5a1	0.038732175
140	0x3d1af99d	0.037835706
141	0x3d14c372	0.036319204
142	0x3d17cc1c	0.03705989
143	0x3d0e5fe2	0.03475941
144	0x3cdd9b06	0.02705146
145	0x3d1da6b3	0.038489055
146	0x3cef77f8	0.02923201
147	0x3cd42604	0.025897034
148	0x3d1523e7	0.036411192
149	0x3d0590c4	0.032608762
150	0x3d1c1bdf	0.038112517
151	0x3ce9d3a2	0.028543297
152	0x3d053fe2	0.032531627
153	0x3cb59362	0.022165004
154	0x3d08c26e	0.033388548
155	0x3d158368	0.036502272
156	0x3cb68242	0.022278909
157	0x3d04cd54	0.03242238
158	0x3d167373	0.036731195
159	0x3d1873fe	0.037219994
160	0x3d02d1bf	0.03193831
161	0x3ce8993d	0.028393382
162	0x3d089600	0.033346176
163	0x3d1a653d	0.037694205
164	0x3d0a2ccb	0.033734124
165	0x3ce56c6b	0.0280058
166	0x3cf90885	0.03039957
167	0x3ceb6e3c	0.028739087
168	0x3d1753b1	0.03694505
169	0x3d14208b	0.036163848
170	0x3cfb1cd9	0.030653404
171	0x3d19bbf0	0.037532747
172	0x3d1c8f86	0.038222812
173	0x3d0d9237	0.03456327
174	0x3c9f5bd4	0.019452967
175	0x3d1eadfc	0.038740143
176	0x3d099d7c	0.033597454
177	0x3cee56d1	0.029094132
178	0x3d11a7e2	0.035560496
179	0x3d1b1531	0.037862007
180	0x3d1c8f87	0.038222816
181	0x3d01c8ff	0.031685825
182	0x3d1b82a2	0.037966378
183	0x3d0b7c24	0.034053937
184	0x3d0610df	0.032730933
185	0x3d1523ea	0.036411203
186	0x3cfb95b4	0.030711032
187	0x3d04ac53	0.032390904
188	0x3d0e9f36	0.034819804
189	0x3d12ffca	0.03588847
190	0x3d1c6318	0.03818044
191	0x3ced6235	0.028977493
192	0x3cf93200	0.03041935
193	0x3d006e66	0.031355284
194	0x3d0aac00	0.03385544
195	0x3cf8b53d	0.030359859
196	0x3d0f03cf	0.03491574
197	0x3ce12b98	0.027486607
198	0x3cb6823e	0.022278901
199	0x3d1364d0	0.035984814
200	0x3c8693cb	0.016427895
201	0x3cdf0dff	0.027228354
202	0x3d0f8c4d	0.03504591
203	0x3c23c0e4	0.009994719
204	0x3d0ae3f0	0.033908784
205	0x3d19d86e	0.03755992
206	0x3cff18d3	0.031139767
207	0x3c9a31e7	0.018822623
208	0x3ceb0897	0.02869062
209	0x3cdd1d6c	0.026991569
210	0x3cfc355c	0.030787162
211	0x3cf76400	0.03019905
212	0x3ca00ea2	0.019538227
213	0x3cfde51d	0.030993039
214	0x3ceb6e3d	0.02873909
215	0x3d17e002	0.037078865
216	0x3ceaa254	0.028641857
217	0x3d1260e0	0.03573692
218	0x3d02aee6	0.031905077
219	0x3c6ca02c	0.014442485
220	0x3cf26418	0.029588744
221	0x3cb2ae6c	0.021811686
222	0x3d17c212	0.037050314
223	0x3ce3e358	0.027818367
224	0x3d03c212	0.0321675
225	0x3d00b87b	0.031425934
226	0x3d029d60	0.031888366
227	0x3d1204eb	0.03564922
228	0x3c96ff7c	0.018432371
229	0x3d05f109	0.032700572
230	0x3d0b1b95	0.03396185
231	0x3cff18cf	0.03113976
232	0x3d0ccd62	0.034375556
233	0x3cd8ca01	0.02646351
234	0x3d1e2f61	0.038619403
235	0x3cd26d14	0.025686778
236	0x3cc172be	0.023614284
237	0x3d1bc202	0.038026817
238	0x3ce93729	0.028468685
239	0x3d0c983b	0.034324866
240	0x3d19e1cc	0.037568852
241	0x3d17cc1a	0.03705988
242	0x3d1b1520	0.037861943
243	0x3cd88666	0.026431274
244	0x3d0c7d94	0.034299448
245	0x3d06ecec	0.03294079
246	0x3cdb5e84	0.026778467
247	0x3d1204ee	0.035649233
248	0x3cf17d8c	0.02947881
249	0x3d12a55e	0.035802238
250	0x3d070bef	0.032970365
251	0x3d0c7d93	0.034299444
252	0x3cf68dd4	0.030096926
253	0x3d1e0d56	0.038586937
254	0x3cddd979	0.027081238
255	0x3d0b52d5	0.03401454

model.feature_nns.2.model.1.weight f4 [1, 316]
0	0xb98fec25	-0.00027451027
1	0xb99b0f2f	-0.00029575216
2	0xb9dea11c	-0.00042463175
3	0xb9a59d9a	-0.00031588675
4	0xb95d5dbb	-0.0002111112
5	0xb99b52f8	-0.0002962572
6	0xb91c565b	-0.00014909489
7	0xb97180e2	-0.00023031564
8	0xb94b1b9b	-0.00019369872
9	0xb962611a	-0.00021589213
10	0xb929474d	-0.00016143658
11	0xb914fe52	-0.00014209122
12	0xb9cd30d9	-0.0003913704
13	0xb9ecd9c4	-0.00045175676
14	0xb8ee977d	-0.00011376941
15	0xb95fa8f8	-0.00021329883
16	0xb97fd233	-0.00024397
17	0xb9a41fa8	-0.00031304103
18	0xb9964081	-0.0002865829
19	0xb995d868	-0.0002858073
20	0xb98877f0	-0.00026029302
21	0xb9c5f0eb	-0.00037754266
22	0xb94e7f57	-0.00019693129
23	0xba101f4e	-0.0005497829
24	0xb94957d0	-0.00019201566
25	0xb9c557f3	-0.00037640295
26	0xb9e98c84	-0.00044545915
27	0xb9aa1e65	-0.00032447572
28	0xb9b0da20	-0.00033731852
29	0xb9d95491	-0.00041452472
30	0xb99cae7d	-0.00029884643
31	0xb9af5789	-0.0003344382
32	0xb98614f2	-0.00025574077
33	0xb968101a	-0.00022131242
34	0xb925c932	-0.00015810577
35	0xb946b90f	-0.00018951691
36	0xb9bed0c3	-0.00036395164
37	0xb9117675	-0.00013872406
38	0xb98f8631	-0.00027375066
39	0xb92b2188	-0.00016320322
40	0xb7100f3e	-8.586618e-06
41	0xb8c0adb0	-9.187625e-05
42	0xba0ccabb	-0.00053707854
43	0xb98316b0	-0.0002500317
44	0xb9229166	-0.00015503689
45	0xb958906e	-0.0002065317
46	0xb92dd9c4	-0.0001657969
47	0xb94eaa0d	-0.0001970904
48	0xb95e6345	-0.0002120855
49	0xba2114b3	-0.0006144747
50	0xb9aebf54	-0.00033330417
51	0xb90932a9	-0.0001308421
52	0xb8400777	-4.578332e-05
53	0xb9434b66	-0.00018624737
54	0xb999e247	-0.00029351024
55	0xb9c13f35	-0.00036858922
56	0xb975799e	-0.00023410327
57	0xb9d05079	-0.00039732808
58	0xb975eb53	-0.00023452686
59	0xb975f8b2	-0.00023457667
60	0xb98b3a80	-0.00026555732
61	0xb9ccf7b4	-0.00039094465
62	0xb941dbdc	-0.00018487818
63	0xb9997d88	-0.00029275962
64	0xb9aeee5f	-0.00033365467
65	0xb987d89f	-0.00025910602
66	0xb94f4d59	-0.00019769873
67	0xb982df42	-0.00024961872
68	0xb8a0bf06	-7.6649754e-05
69	0xb99eb5ad	-0.00030271467
70	0xb9ae8e5a	-0.00033293926
71	0xb78a0028	-1.6450955e-05
72	0xb9c805c6	-0.00038151274
73	0xb992bae3	-0.00027986531
74	0xb8c881b5	-9.560903e-05
75	0xb96e45e8	-0.00022723491
76	0xb8de5d99	-0.00010603219
77	0xb91eb9eb	-0.00015137314
78	0xb906a9f1	-0.00012842544
79	0xb9a2f7c3	-0.00031083645
80	0xb979f996	-0.00023839468
81	0xb9ba8554	-0.00035576022
82	0xb9b6745f	-0.00034800448
83	0xb9483f78	-0.0001909713
84	0xb9ba9ee2	-0.00035595061
85	0xb9152aab	-0.00014225642
86	0xb9499291	-0.00019223454
87	0xb80f9b6e	-3.4238612e-05
88	0xb8f236df	-0.0001154968
89	0xb96468db	-0.00021782836
90	0xb97d5339	-0.00024158963
91	0xb9a2fdc7	-0.00031088127
92	0xb98a6d56	-0.00026402873
93	0xb9ad6ace	-0.00033076707
94	0xb9ba65f0	-0.00035552634
95	0xb9a529eb	-0.00031502484
96	0xb9ef121f	-0.00045599134
97	0xb9486ba4	-0.00019113586
98	0xb9acbe80	-0.0003294833
99	0xb8a5e858	-7.9110905e-05
100	0xb96f2261	-0.00022805623
101	0xb9490943	-0.00019172304
102	0xba07fc02	-0.00051873934
103	0xb97b718c	-0.00023979525
104	0xb9723961	-0.00023100294
105	0xb9c1a060	-0.00036931317
106	0xb8ba91cb	-8.896327e-05
107	0xb980ca5c	-0.00024564832
108	0xb8edd109	-0.000113399765
109	0xb922c764	-0.00015523803
110	0xb9df34f8	-0.0004257334
111	0xb9964e9d	-0.000286688
112	0xb96a4e46	-0.00022345138
113	0xb94550ae	-0.0001881744
114	0xb93a8c00	-0.00017790496
115	0xb847984e	-4.7587142e-05
116	0xb92e728b	-0.00016636604
117	0xb994b9eb	-0.0002836728
118	0xb8c0a845	-9.186616e-05
119	0xb93bf564	-0.00017925125
120	0xb981f393	-0.00024786274
121	0xb9a6a51a	-0.00031784998
122	0xb94a76dd	-0.00019308501
123	0xb9865dec	-0.0002562845
124	0xb9a789b9	-0.00031955334
125	0xb94be979	-0.00019446564
126	0xb987eb78	-0.00025924644
127	0xb9b8517c	-0.00035155925
128	0xb9a987a3	-0.0003233525
129	0xb95e3b17	-0.00021193583
130	0xb912be02	-0.00013994428
131	0xb9850859	-0.00025373956
132	0xb9c35e37	-0.00037263494
133	0xb96c1688	-0.00022515107
134	0xb9931c48	-0.00028059096
135	0xb92227a0	-0.00015464285
136	0xb99173aa	-0.00027742732
137	0xb9ab2243	-0.0003264119
138	0xb9b885b1	-0.00035194823
139	0xb9b8e3a2	-0.00035264815
140	0xb98719ee	-0.00025768526
141	0xb96396a7	-0.0002170453
142	0xb96bf961	-0.00022504247
143	0xb97b8bbf	-0.00023989285
144	0xb9f5d6ff	-0.00046890226
145	0xb9d8ad19	-0.00041327698
146	0xb9026ccb	-0.00012438295
147	0xb9c880b6	-0.0003824287
148	0xb9108277	-0.00013781512
149	0xb8cd1d50	-9.7806216e-05
150	0xb9257541	-0.00015779307
151	0xb9552268	-0.0002032608
152	0xba04c268	-0.0005064369
153	0xb9e513fe	-0.0004369318
154	0xb9942a8f	-0.00028260468
155	0xb9b81577	-0.00035111207
156	0xb95fadbe	-0.00021331661
157	0xb9849ebf	-0.00025295277
158	0xb9844f19	-0.00025235934
159	0xb99442ca	-0.00028278521
160	0xb9608715	-0.00021412627
161	0xb8d030f9	-9.927335e-05
162	0xb994c726	-0.00028377137
163	0x36cb0100	6.049988e-06
164	0xb97ddde7	-0.00024210625
165	0xb98bfc76	-0.00026700244
166	0xb94532e8	-0.00018806348
167	0xb9802b01	-0.00024446103
168	0xb9add64b	-0.00033156792
169	0xb93a0090	-0.00017738552
170	0xb9ac5641	-0.0003287066
171	0xb8cbf863	-9.72606e-05
172	0xb8a7f37b	-8.008532e-05
173	0xb9890906	-0.000261374
174	0xb9500177	-0.00019836971
175	0xb924072f	-0.00015642935
176	0xb7894314	-1.6362908e-05
177	0xb8c77b30	-9.512005e-05
178	0xb952f130	-0.0002011701
179	0xb92297c1	-0.00015506057
180	0xb97ab00a	-0.00023907438
181	0xb9d32f4b	-0.00040280292
182	0xb9632e54	-0.00021665666
183	0xb979ed18	-0.00023834815
184	0xb9c0a641	-0.00036744963
185	0xb9c062a3	-0.00036694584
186	0xb91594b6	-0.00014265146
187	0xb89a6b70	-7.363304e-05
188	0xb96d48ba	-0.00022629174
189	0xb998fb4c	-0.0002917893
190	0xb9962117	-0.00028634883
191	0xb95dc1fc	-0.00021148467
192	0xb9876873	-0.00025827027
193	0xb903d5bf	-0.0001257276
194	0xb9abe383	-0.0003278517
195	0xb982cd2c	-0.00024948397
196	0xb9b75126	-0.0003496494
197	0xb92a13cd	-0.0001621984
198	0xb9acb216	-0.0003293908
199	0xb9aba38e	-0.0003273752
200	0xb99c007a	-0.00029754994
201	0xb9886864	-0.00026017718
202	0xb9b63105	-0.00034750268
203	0xb8a74d80	-7.977616e-05
204	0xb907e56f	-0.00012960074
205	0xb9bc4e3d	-0.00035916446
206	0xb9d30847	-0.00040251223
207	0xb922323a	-0.00015468235
208	0xb8de174d	-0.00010590125
209	0xb9bd6f65	-0.00036131885
210	0xb9b24e84	-0.00034009304
211	0xb9de4ac7	-0.00042398853
212	0xb9932b3a	-0.0002807023
213	0xb91fc461	-0.00015236578
214	0xb9fce048	-0.00048232288
215	0xb982a261	-0.00024916514
216	0xb9c56487	-0.00037649667
217	0xb959818b	-0.00020742991
218	0xb90dbbb5	-0.00013516734
219	0xb9a0becb	-0.0003065973
220	0xb9e52e7b	-0.00043712914
221	0xb8bdf910	-9.058614e-05
222	0xb9d21016	-0.00040066306
223	0xb9c30a42	-0.0003720094
224	0xb98c93db	-0.00026813042
225	0xb938c9fc	-0.00017622852
226	0xb9a17c2e	-0.00030800834
227	0xb95cb4a6	-0.00021048132
228	0xb88fb8e9	-6.8532136e-05
229	0xb9c286ce	-0.00037103
230	0xb9ab6bc2	-0.00032695947
231	0xb9766fd2	-0.00023502044
232	0xb8f5ede2	-0.000117268195
233	0xb9806aff	-0.0002449378
234	0xb928add2	-0.00016086482
235	0xba00c019	-0.0004911437
236	0xba0cce25	-0.0005371294
237	0xb989a29c	-0.0002625183
238	0xb962a65c	-0.00021615013
239	0xb9ea511a	-0.00044692383
240	0xb96cbdfa	-0.00022577486
241	0xb98e3877	-0.0002712642
242	0xb9c28d73	-0.0003710795
243	0xb9c1dc93	-0.0003697617
244	0xb97006d2	-0.00022890724
245	0xb991f465	-0.00027838643
246	0xb9991fe2	-0.0002920619
247	0xb8c00cbc	-9.1576454e-05
248	0xb9a24657	-0.00030951455
249	0xb9877950	-0.0002583959
250	0xb944cb57	-0.00018767767
251	0xb96848b4	-0.00022152328
252	0xb9a0a58c	-0.0003064092
253	0x37afa015	2.093617e-05
254	0xb9aff990	-0.0003356454
255	0xb8dd7a47	-0.00010560877

model.feature_nns.3.model.0.weights f4 [1, 1000]
0	0x3d0e4ba0	0.03474009
1	0x3c2c08c3	0.010500136
2	0x3cf067ef	0.029346434
3	0x3cad4daf	0.021155206
4	0x3d1019a1	0.03518069
5	0x3d10d57a	0.035359837
6	0x3cf47905	0.029842863
7	0x3d181340	0.037127733
8	0x3c93202c	0.017959677
9	0x3d065a95	0.03280123
10	0x3ca28b16	0.019841712
11	0x3d0ee56e	0.03488677
12	0x3d13b17d	0.036057938
13	0x3d1c7a88	0.038202792
14	0x3d096fda	0.033553936
15	0x3d014aa0	0.03156531
16	0x3cc58e4c	0.024115704
17	0x3d0d14e7	0.034443762
18	0x3cd1d006	0.025611889
19	0x3d12959e	0.035787217
20	0x3cb48fa9	0.022041159
21	0x3d11a097	0.03555354
22	0x3d1e57fa	0.03865812
23	0x3d0516c4	0.032492414
24	0x3d1aa1d2	0.03775198
25	0x3d0e81e3	0.03479184
26	0x3d014609	0.03156093
27	0x3cf98f89	0.03046395
28	0x3ccebe4c	0.025237225
29	0x3d1b71d8	0.037950367
30	0x3d1b88d4	0.037972286
31	0x3d02d711	0.031943385
32	0x3d06ecdf	0.03294074
33	0x3d167a8f	0.036737975
34	0x3c6d7378	0.014492862
35	0x3ce7b801	0.028285982
36	0x3cd063b4	0.025438167
37	0x3c2c2dde	0.010508982
38	0x3c8a6a0d	0.016896272
39	0x3d0902f5	0.033450086
40	0x3d1040b3	0.035217952
41	0x3d05b15f	0.032639857
42	0x3cc3b855	0.023891607
43	0x3bf49012	0.0074634636
44	0x3cb7f628	0.022456244
45	0x3c83867c	0.016055338
46	0x3c92334c	0.017846726
47	0x3d0383ec	0.032108232
48	0x3d16e086	0.036835216
49	0x3cadf23f	0.021233676
50	0x3cdb4fca	0.026771445
51	0x3d1daee1	0.038496856
52	0x3cc0c3e9	0.023530917
53	0x3d153d85	0.036435623
54	0x3d0447b8	0.03229496
55	0x3d12fc74	0.03588529
56	0x3d1a285c	0.037636146
57	0x3d1ed2a5	0.038775105
58	0x3d1a2cb1	0.037640277
59	0x3cede17d	0.029038185
60	0x3cc63eaa	0.024199802
61	0x3ce2d8eb	0.027691325
62	0x3d0e502c	0.034744427
63	0x3d02f6f6	0.0319738
64	0x3d187b70	0.037227094
65	0x3ce0d82a	0.027446825
66	0x3d06e540	0.032933474
67	0x3d13fe79	0.036131356
68	0x3d135d8b	0.03597788
69	0x3d1a9e46	0.037748598
70	0x3cc2d919	0.02378516
71	0x3d1abd82	0.037778385
72	0x3cd7e13c	0.026352517
73	0x3d09ab06	0.033610366
74	0x3cd0e260	0.025498569
75	0x3d1cb37f	0.03825712
76	0x3d1c0da7	0.038098957
77	0x3cf9ea7b	0.030507317
78	0x3ce3f6e8	0.027827695
79	0x3cc8b33b	0.024499526
80	0x3cbacfd0	0.02280417
81	0x3d11bed1	0.035582367
82	0x3d0281cd	0.03186207
83	0x3c5b653c	0.013390835
84	0x3d0ceaaf	0.0344035
85	0x3cb18d0a	0.021673698
86	0x3d09fee5	0.033690352
87	0x3d19a3e1	0.037509803
88	0x3d0cada0	0.03434527
89	0x3d17bc62	0.03704489
90	0x3d1afc5a	0.037838317
91	0x3d1aa787	0.037757423
92	0x3d120a63	0.035654437
93	0x3cfa0c9e	0.030523594
94	0x3d1e361a	0.038625814
95	0x3c893bc7	0.016752137
96	0x3cecf8cc	0.02892723
97	0x3cc22085	0.023697147
98	0x3cb16e0f	0.021658925
99	0x3d0a233e	0.033725016
100	0x3d0eff31	0.03491134
101	0x3cc8b31d	0.02449947
102	0x3d06040f	0.032718714
103	0x3d108ac7	0.0352886
104	0x3cf70c1f	0.030157147
105	0x3d1aaa48	0.03776005
106	0x3d1523fb	0.036411267
107	0x3d11cd11	0.035595957
108	0x3d013e1e	0.03155338
109	0x3d18d797	0.037314977
110	0x3d1d08f6	0.038338624
111	0x3cc4225e	0.023942169
112	0x3cc5233f	0.024064658
113	0x3d08d580	0.033406734
114	0x3cf8076a	0.030276973
115	0x3c94e8d6	0.018177431
116	0x3d15d6e4	0.03658189
117	0x3cef8f5d	0.029243166
118	0x3d15cf2e	0.036574535
119	0x3cfb21a1	0.030655684
120	0x3c8710d9	0.016487526
121	0x3d0b518d	0.03401332
122	0x3d0a9f17	0.033843126
123	0x3d0aed5b	0.033917766
124	0x3d01ff22	0.031737454
125	0xbd1ee19d	-0.03878938
126	0x3cd545c8	0.02603425
127	0x3d151126	0.036393307
128	0x3d098686	0.033575557
129	0x3cf667bc	0.030078761
130	0x3d1e7dd0	0.038694203
131	0x3d029e9a	0.031889535
132	0x3d0b6d38	0.034039706
133	0x3d1246d9	0.035712097
134	0x3d0e8174	0.034791425
135	0x3cf1cd04	0.029516704
136	0x3d0cf084	0.03440906
137	0x3cfbe2e5	0.03074784
138	0x3d05e539	0.032689307
139	0x3d1871f7	0.03721806
140	0x3d179ce2	0.03701485
141	0x3d1a417c	0.037660107
142	0x3ccb44c8	0.02481307
143	0x3d0b5a04	0.034021392
144	0x3ce869fa	0.028370846
145	0x3cfaacdb	0.030600002
146	0x3d12586a	0.03572885
147	0x3d1e6b35	0.03867646
148	0x3d0a9a88	0.03383878
149	0x3d1c4f01	0.03816128
150	0x3d0526ef	0.032507833
151	0x3d1f12b2	0.03883619
152	0x3d1d141c	0.038349256
153	0x3ce46064	0.027877994
154	0x3d07b6ff	0.033133503
155	0x3cf17f54	0.02947966
156	0x3c76b75e	0.015058367
157	0x3d1d11d4	0.03834708
158	0x3d1ba18d	0.037995864
159	0x3cf8161c	0.03028398
160	0x3d115fdd	0.035491813
161	0x3d0865a7	0.03330007
162	0x3d078587	0.033086326
163	0x3cd7e390	0.026353627
164	0x3d1f0804	0.038826004
165	0x3c8e67db	0.017383507
166	0x3d148ce8	0.03626719
167	0x3d1e25e3	0.03861035
168	0x3d00d28e	0.0314508
169	0x3ce6b18c	0.028160833
170	0x3d10bbba	0.03533528
171	0x3d0d3e35	0.034483153
172	0x3d090c7e	0.03345918
173	0x3d0c9b0f	0.034327563
174	0x3d11e5e7	0.035619643
175	0x3d0bd25b	0.034136157
176	0x3d1ac6b5	0.037787158
177	0x3cdbd180	0.026833296
178	0x3cbd3880	0.02309823
179	0x3cd9e61f	0.026598988
180	0x3d01964c	0.031637475
181	0x3d058cb7	0.0326049
182	0x3d0c4081	0.034241203
183	0x3d02224d	0.031770993
184	0x3d11d726	0.035605572
185	0x3d0b4f02	0.034010895
186	0x3ca47c41	0.02007878
187	0x3d09e236	0.033662997
188	0x3c9c1fbe	0.019058105
189	0x3cade26f	0.021226136
190	0x3d00c931	0.03144187
191	0x3d1a3be4	0.037654772
192	0x3d16d76f	0.036826547
193	0x3d03af9c	0.032149896
194	0x3d0706e6	0.032965563
195	0x3d11a7e5	0.035560507
196	0x3d08613d	0.03329586
197	0x3d13b701	0.036063198
198	0x3cfc9a38	0.030835256
199	0x3d1dccb9	0.038525317
200	0x3d0f22c0	0.03494525
201	0x3d13c8e9	0.036080275
202	0x3cf14839	0.029453384
203	0x3cc51929	0.024059849
204	0x3b9d8b3d	0.0048078583
205	0x3c85f8e4	0.016354032
206	0x3ce3d63b	0.027812114
207	0x3d0e1d7c	0.034696087
208	0x3ccd48ff	0.025059221
209	0x3d0e94fd	0.034810055
210	0x3cd6d8fc	0.026226513
211	0x3d1029eb	0.035196226
212	0x3d0b70e7	0.03404322
213	0x3d119ddb	0.035550933
214	0x3d19128e	0.03737121
215	0x3cc01c13	0.023450887
216	0x3c968467	0.018373681
217	0x3d03e7c4	0.03220345
218	0x3ccd4203	0.02505589
219	0x3d0575f0	0.032583177
220	0x3d0c6cb5	0.03428336
221	0x3ccc4267	0.024934007
222	0x3d0ce123	0.034394395
223	0x3cf25dc8	0.029585734
224	0x3d13864f	0.03601676
225	0x3d0b1da9	0.033963833
226	0x3ccf0fae	0.025276031
227	0x3cda19b6	0.026623588
228	0x3c5f6459	0.013634765
229	0x3d134589	0.035954986
230	0x3ce77d27	0.02825792
231	0x3ceb6aa2	0.02873737
232	0x3ca467ce	0.02006903
233	0x3cea2718	0.028583094
234	0x3d16df37	0.036833968
235	0x3d107f69	0.035277758
236	0x3cf319cb	0.029675385
237	0x3d0dc162	0.034608252
238	0x3d157dda	0.036496975
239	0x3d159e0b	0.036527675
240	0x3d176686	0.03696301
241	0x3d129d9b	0.035794836
242	0x3cea46b9	0.028598176
243	0x3d09d1c4	0.033647314
244	0x3d1c0da8	0.03809896
245	0x3cd87bb8	0.026426181
246	0x3d09f70f	0.03368288
247	0x3d0cb944	0.03435637
248	0x3c916183	0.017746693
249	0x3d1d7fdd	0.038452018
250	0x3d196a73	0.037455034
251	0x3d13997c	0.036035046
252	0x3d173f2c	0.03692548
253	0x3d1e37ff	0.03862762
254	0x3d1200c2	0.035645254
255	0x3d131967	0.035912897
