GolfFeedback-poc/src/s3_NAM_model/output/dtl_SA/0/checkpoints/epoch=497-val_loss=6.4375.ckpt (torch, 411921 bytes, 150 tensors)

model.feature_nns.0.model.0.weights f4 [1, 46]
00000000: bc17 133d c542 f23c 76e2 e63c c359 f73c
00000010: 9076 043d e87e 0a3d 9608 c43c 8954 0a3d
00000020: a160 cc3c a314 1f3d 4a94 1b3d 28f4 073d
00000030: eedd de3c d8d9 1b3d e388 e83c 224f cd3c
00000040: 2d29 ae3c 376f 1b3d 4e78 003d f59b fd3c
00000050: 08ac f93c 497d 0a3d 3d3b 033d 12d0 1e3d
00000060: 0756 ba3c 25e6 1b3d 5680 f83c 9fd5 123d
00000070: a5b6 b53c 5be0 ef3c 507d 183d 49d7 b23c
00000080: 42f7 733c fb09 f43c b9f1 1b3d b053 c13c
00000090: 28bf ca3c 6aa6 1c3d 6f1d 183d 5421 173d
000000a0: dc49 143d 0154 073d 6961 a33c 2089 0c3d
000000b0: 738e 0c3d 303b 1a3d
0.035911307 0.029572854 0.028184157 0.030194169 0.032339633 0.033812433 0.023929875 0.033772025
0.02494842 0.03883804 0.037983216 0.03319183 0.027205434 0.03804955 0.028385585 0.025062148
0.021259869 0.03794786 0.03136473 0.030958155 0.030477539 0.033810887 0.032038916 0.03877265
0.0227461 0.03806128 0.030334633 0.035848256 0.022181818 0.029281786 0.037228882 0.021831172
0.014890494 0.029789915 0.03807232 0.023599476 0.024749354 0.038244642 0.037137445 0.03689702
0.03620325 0.033039097 0.01994391 0.03431046 0.034315538 0.0376541

model.feature_nns.0.model.1.weight f4 [1, 46]
00000000: e922 88bb 80f6 91bb 7423 8ebb 9908 91bb
00000010: 02fb 95bb 99ba 94bb 8b72 7cbb 19a3 8fbb
00000020: b378 89bb 03d1 8fbb 45e0 a3bb 3f08 9fbb
00000030: 0e11 81bb df09 92bb b867 93bb ec73 80bb
00000040: bb0a 94bb 3a98 79bb 05b0 90bb 9d79 78bb
00000050: 8be0 7dbb ec64 6ebb 6cd2 84bb 98d6 8abb
00000060: cde2 97bb f87a 8ebb e72d 9dbb e8c2 9ebb
00000070: d317 8cbb 5d77 a3bb f26d 97bb 8844 99bb
00000080: 9d6b a2bb c5af 9ebb bfa4 97bb e6da 93bb
00000090: 9016 96bb 9876 9ebb 683c 89bb 09ed 91bb
000000a0: d060 8abb 4d99 84bb 1e1c 82bb 898e 8cbb
000000b0: 49e2 87bb c830 8bbb
-0.0041545522 -0.004454434 -0.0043377224 -0.0044260737 -0.0045770416 -0.0045388457 -0.0038520421 -0.0043834564
-0.0041952967 -0.00438893 -0.0050011002 -0.004853278 -0.0039388007 -0.004456743 -0.004498448 -0.003920069
-0.0045178807 -0.003808512 -0.0044155144 -0.0037914284 -0.0038738574 -0.0036376072 -0.0040534046 -0.0042370073
-0.004635191 -0.004348155 -0.0047967318 -0.004845012 -0.004275301 -0.0049885944 -0.004621261 -0.004677359
-0.004956676 -0.0048427307 -0.0046277936 -0.0045121787 -0.0045803264 -0.004835915 -0.004188109 -0.0044533056
-0.0042229667 -0.004046595 -0.003970637 -0.0042894525 -0.0041468483 -0.0042477585

model.feature_nns.1.model.0.weights f4 [1, 1000]
00000000: 4a75 173d 4c73 1e3d 8c30 fb3c a2c7 1a3d
00000010: 932b 1e3d 2468 0f3d d2c7 733c 0458 573c
00000020: 5f68 ef3c efd8 133d 90ca 183d 9718 123d
00000030: ecee 943c 456f 023d 3b89 163d bd48 123d
00000040: 9e73 0d3d 1f97 1c3d 92e7 b83c 9b8d 083d
00000050: 4587 ce3c 7e67 5f3c e515 f13c 6607 ef3c
00000060: 0d9a 183d a838 b13c 586d 0e3d b9c2 de3c
00000070: 3c35 e53c 1938 a53c c818 143d 8274 0f3d
00000080: 6664 033d 6c29 883c fc7f 1d3d 5265 043d
00000090: 8f40 a53c e54c 1a3d c36a 5b3c eafe 123d
000000a0: ffc6 173d 196a 163d 83c0 1c3d 4f78 d23c
000000b0: 9630 7f3c 25f5 1b3d 5cc0 0f3d 1904 143d
000000c0: e9c0 133d 9a22 e13c cf89 173d 41fd 0f3d
000000d0: c068 113d e97f df3c e79c cc3c 7b39 023d
000000e0: daec a83c 740f 043d a656 0a3d d00f d53c
000000f0: 72a8 013d 63fc 163d 888b a93c 72a8 103d
00000100: 6d52 1b3d 3c9e 173d 7093 cd3c 1210 0f3d
00000110: 701d 0a3d ef85 fb3c b553 123d 3067 0c3d
00000120: 6248 d73c 0280 1b3d 7a43 ee3c 36d0 133d
00000130: 0c5c 143d 06cf 173d 4dd2 ff3c ede8 ea3c
00000140: 4b20 163d 9ad7 1d3d 8ba0 ca3c 71fd ff3c
00000150: 7b2d 1c3d 0e91 0e3d 6f78 153d 8b3a 013d
00000160: 0a89 163d 0e2c 0e3d 61a8 c43c 8130 1d3d
00000170: d3f2 943c 9a19 193d c4a8 d33c 81f0 1d3d
00000180: 0673 133d b6a3 1e3d c216 1d3d 1a91 0c3d
00000190: a926 1d3d fa28 d23c b770 cf3c 021b aa3c
000001a0: 24c6 dc3c c4b2 163d 12f8 153d 3bf4 943c
000001b0: cd22 b63c 7c37 193d ab9b 1e3d f58b 173d
000001c0: dadc 0d3d eaed f63c a874 0c3d d13f 193d
000001d0: 7cb3 b03c 9817 f13c 7470 0b3d 9673 5b3c
000001e0: efd8 073d 8816 0d3d 53c1 103d 2374 e83c
000001f0: 39e1 173d 5b6a 8b3c cb75 4e3c 5d02 0e3d
00000200: 7b0f 173d 36ad 083d f15f 1a3d e6ab 153d
00000210: 2f36 183d 15fc 023d a28b 193d 0678 be3c
00000220: 085e e13c 83b6 ea3c 19e4 173d 21df 1c3d
00000230: 6b6e e03c 0038 173d 02d5 e13c a116 103d
00000240: 98bd 1a3d 0fb4 0f3d b1ae 063d 3953 083d
00000250: 9060 063d 7765 7c3c ebd0 0d3d 7015 093d
00000260: 7319 1f3d d92e c33c ba09 1e3d e7b4 1d3d
00000270: 8438 9c3c 5e95 013d c550 133d fabe 143d
00000280: 9618 f13c e9f9 d03c adb4 eb3c be3c f63c
00000290: 9c00 133d 789c 053d 16ee 133d 130c 033d
000002a0: cad3 0e3d 3185 133d 6dbf b23c 950a ef3c
000002b0: 6084 4e3c 8481 f43c ddac c43c f568 243c
000002c0: 5caa 1d3d 35ba f03c 1461 083d c1ff d63c
000002d0: 312b 0a3d 477a 8d3c 8dee 013d c641 033d
000002e0: e758 0d3d efb8 0a3d d752 183d da90 083d
000002f0: deac ed3c f481 1e3d 4216 023d 3b7a 1d3d
00000300: e00b be3c d8fd de3c b121 af3c ee73 d63c
00000310: d3c5 093d 17c7 1a3d da30 c33c 8f21 113d
00000320: 00ab 193d 149b 1e3d 9dbb 113d 4217 f13c
00000330: 3a80 a63c 6eaa 0c3d 1f7c 163d 5e73 0b3d
00000340: 7ea9 143d 7c28 1d3d 9386 043d 015b d03c
00000350: 4387 033d d0e9 f93c 8011 173d 14f5 143d
00000360: 408b 073d 704a 163d 5153 cf3b 0e74 cf3c
00000370: 05a8 093d b6d0 0e3d 20f7 1b3d bad6 0a3d
00000380: 0c2b d93c ecf0 003d 6d35 ce3c fc0f e93c
00000390: e643 f83c 589e 173d fe04 1f3d 4c78 0e3d
000003a0: 3ea5 c43c e62b 933c affb ef3c 36ac ba3c
000003b0: 3686 ce3c 824b a33c bb59 0d3d a3d3 0b3d
000003c0: 6da7 043d f574 0a3d ddab 0c3d 01e5 0f3d
000003d0: 9643 0b3d 9bf1 003d b080 063d a0fc 943c
000003e0: 3bd7 c63c 0a49 dd3c 0455 1a3d 909b 1b3d
000003f0: c4c7 c53c 47f6 133d b7a0 053d 8cbd 0f3d
0.03697709 0.038684174 0.030662797 0.03778804 0.038615774 0.035011426 0.014879184 0.013143543
0.029224573 0.036095556 0.037302554 0.035667982 0.018180333 0.031844396 0.036751967 0.0357139
0.03453409 0.038230058 0.022571359 0.03333817 0.025210986 0.013635514 0.029429385 0.029178333
0.03725629 0.021633461 0.034772247 0.02719246 0.027979486 0.020168351 0.036156446 0.03502322
0.03207817 0.016621314 0.038452134 0.03232319 0.020172385 0.03767099 0.013392153 0.035887636
0.03705501 0.036722276 0.03826953 0.025692133 0.015575549 0.038075585 0.035095558 0.03613672
0.036072645 0.02748232 0.03699666 0.03515363 0.035500288 0.027282672 0.02497716 0.0317931
0.020620752 0.0322413 0.03377404 0.026008517 0.031654783 0.03686179 0.020696416 0.035316892
0.037920404 0.03701614 0.025094718 0.034927435 0.03371948 0.030703513 0.03572436 0.034278095
0.026279632 0.037963875 0.02908491 0.036087237 0.036220595 0.037062667 0.031228209 0.02867552
0.03665189 0.03853569 0.024734756 0.03124878 0.03812931 0.034806304 0.036491808 0.03154997
0.036751784 0.034709983 0.02400607 0.038376335 0.018182194 0.03737793 0.02583731 0.03855944
0.035998367 0.038730346 0.03835178 0.034318067 0.038366947 0.025654305 0.025322301 0.020764831
0.02694995 0.036791578 0.03661353 0.018182864 0.022233391 0.03740643 0.038722675 0.036998708
0.03463445 0.030142743 0.03429094 0.037414376 0.02156996 0.029430196 0.03404279 0.013394257
0.03316587 0.034445316 0.03534062 0.02837569 0.037080023 0.017018488 0.012601326 0.034670223
0.036879998 0.03336831 0.037689153 0.03654089 0.03716105 0.031978685 0.03748668 0.023250591
0.027510658 0.028651481 0.037082765 0.03829873 0.027396401 0.03691864 0.02756739 0.03517783
0.037778467 0.035083827 0.032881442 0.033282492 0.032806933 0.0154050505 0.034623068 0.03346771
0.03884263 0.02382605 0.038583495 0.0385026 0.019069918 0.03163659 0.0359657 0.036314942
0.029430669 0.025509791 0.028772676 0.030058261 0.035889253 0.032619923 0.03611573 0.031993937
0.034869947 0.036015693 0.021819795 0.02917985 0.012604803 0.029846914 0.024008209 0.010034789
0.038492545 0.029385665 0.033295706 0.026245 0.033732597 0.01727022 0.03172164 0.03204515
0.034508612 0.033867773 0.037188377 0.033341266 0.029013094 0.03869815 0.031759508 0.038446646
0.023199022 0.027220652 0.02137837 0.026178326 0.033635926 0.037787523 0.023827005 0.035432395
0.037516594 0.038722113 0.035579313 0.029430036 0.020324815 0.034342222 0.036739465 0.03404557
0.036294453 0.038368687 0.032354902 0.025434019 0.032111418 0.030506998 0.036881924 0.036366537
0.033091784 0.036692083 0.0063270708 0.025323894 0.0336075 0.03486701 0.038077474 0.033896185
0.026509784 0.03147976 0.02517196 0.028450005 0.030305814 0.037016243 0.03882312 0.034782693
0.024004575 0.017965268 0.029294817 0.022787195 0.025210481 0.019933466 0.0345094 0.03413738
0.032386232 0.033802945 0.03434359 0.035130505 0.034 0.031480413 0.03283757 0.018186867
0.024272552 0.027012367 0.037678733 0.037990153 0.024143107 0.03612354 0.032623973 0.035092875

model.feature_nns.1.model.1.weight f4 [1, 1000]
00000000: e997 80b9 1f87 e2b9 3431 d8b9 5479 00ba
00000010: cdf5 44b9 8ef9 f8b8 97ef d0b9 6a8f 49b9
00000020: 6f72 95b9 341e bdb9 7579 f6b9 fc1a 62b9
00000030: 25bf 8ab9 00db fbb9 a452 0fb9 60d7 a1b9
00000040: f184 edb9 98df 0bb9 cac5 b4b9 122b ceb9
00000050: d4cd f1b9 f194 ebb9 b35e dcb9 4972 34b9
00000060: d6fe b2b9 d49c 49b8 958f 98b9 029b e1b9
00000070: 45b5 a6b9 4677 feb9 dc19 f1b9 72c0 21b9
00000080: eaaf afb9 7ee6 a8b9 8164 b0b8 e994 03b9
00000090: 3c42 0fb9 8a15 95b9 1667 25b9 7580 d0b9
000000a0: e888 2fb9 c385 9fb9 64eb 01b9 46e8 beb9
000000b0: 2c5d ddb9 f2f4 4bb9 7f18 d0b9 8c5c d7b9
000000c0: 7c53 99b9 ff7d 96b9 c3fe 13b9 c42f beb9
000000d0: f5fe 66b9 c10a 05ba 7349 bbb9 beed aab9
000000e0: bc35 71b9 a06c 8ab9 7917 e0b8 4102 a6b9
000000f0: 4d0b e7b9 474c cbb9 3ff8 8eb9 ce26 92b9
00000100: c781 85b9 a1be b1b9 35e0 a4b9 11e0 c5b9
00000110: 3848 9eb9 54ad 5bb9 e9df dbb9 2937 7ab9
00000120: c1bf 32b9 e7d9 cfb9 a40c 15ba dc75 e8b9
00000130: 1796 deb9 2cd7 85b9 9506 8db9 42c8 c1b9
00000140: f15f a0b9 3f09 f6b9 4bd9 8bb9 95d7 b9b9
00000150: 4b36 3bb9 6d67 beb8 32d8 c0b9 f97a f2b9
00000160: cc5f 61b9 c850 94b9 1983 11b9 15c3 8db9
00000170: 90de 9cb9 6bd4 08ba 4bdb eab9 88ba beb9
00000180: 396d 02ba c685 74b9 847e 35b9 6e67 ebb8
00000190: e324 f8b9 6e9e 01ba 3312 beb9 ebf3 83b9
000001a0: 7115 7bb9 a512 9db9 6fb7 76b9 773f 20ba
000001b0: faee 77b9 bd12 a9b9 2116 35b9 6cef b8b9
000001c0: 2409 8eb9 8e31 a5b9 7e03 d0b9 9cba 69b9
000001d0: 8a4e 8bb9 271d e8b8 47b5 47b9 4cea 93b9
000001e0: effb 07b9 91e7 22b9 f841 0ab9 4653 c8b9
000001f0: e498 8fb9 5bf2 c7b9 0c13 3ab9 e712 81b9
00000200: 36d5 9fb9 0cfa 14ba 2142 a6b9 7773 16b8
00000210: 783d b1b9 0c85 8cb9 48d4 3eb9 e27f afb9
00000220: 9246 67b9 3087 94b9 59cf fdb9 0627 25b9
00000230: ac56 67b9 1ba9 b9b9 f38a b2b9 93e6 a8b9
00000240: 8057 a5b9 2294 f3b9 38c0 62b9 a484 c8b9
00000250: 96b0 cfb9 819a 73b9 fe26 b0b8 423c 90b9
00000260: f1de 55b9 e4aa ccb9 b9a2 7eb9 2042 1eb8
00000270: 4d46 47b9 16ae 8eb8 f759 afb9 6a8f 80b9
00000280: b74f 5ab9 e45a b0b9 63b4 54b9 8d37 9bb9
00000290: 6abe 9fb9 d301 55b9 1ff1 1cba c36a d6b8
000002a0: 8604 85b9 6ea7 cbb9 197f 06ba 337c 94b9
000002b0: f62e 89b9 5bc9 f0b9 06b7 0dba 70e2 0cb9
000002c0: 19f5 b6b9 3a51 91b9 ffb9 6eb9 2eef 69b7
000002d0: 0f9d 5fb9 69c5 8cb9 dcf3 00b9 9b64 c6b9
000002e0: cd9b 11ba a626 0cba facb bab9 5ed1 c3b9
000002f0: 66ec aab9 5bd6 a2b9 1b00 0fba ec4d 46b9
00000300: a1bf e3b9 c044 d1b8 3bb7 80b9 79f6 07b9
00000310: 31a0 76b9 9f9e d4b9 37bc d3b9 5844 82b9
00000320: d922 04ba 0746 0c37 94e7 b0b9 1536 aab9
00000330: dcc1 a4b9 5968 44b9 ebbf 9fb9 b3b4 9ab9
00000340: 835d 02ba 4203 80b9 1ede 3cb9 a9fd f7b9
00000350: bc99 8eb9 858c 0aba 74af cab9 7fb3 97b9
00000360: b758 a6b9 67f0 f6b9 f1d9 65b9 637e 8cb9
00000370: 834e b6b9 114b b0b9 53a4 20b9 7390 bdb9
00000380: 6c17 01ba 1d00 69b9 a5a5 cdb9 35a8 f0b9
00000390: aaeb 72b9 9ed3 3ab9 6502 5eb9 a339 82b9
000003a0: 0f85 bab8 876f 5fb9 a638 afb9 c1a2 96b9
000003b0: 958c bfb9 2f7a 25b9 3eb2 ddb8 0656 a5b9
000003c0: 998c 16b9 3b44 99b9 0f30 c2b9 8cc1 0dba
000003d0: 2bc9 f3b9 42ca eeb9 ac1b e4b9 ecc0 b9b9
000003e0: 3f97 65b9 0ebc 98b9 f1e1 d7b9 3a91 8eb9
000003f0: 19ec f7b8 96aa ffb9 e3b0 c9b9 0946 8ab9
-0.00024527244 -0.00043206752 -0.0004123539 -0.0004900892 -0.00018783585 -0.00011872045 -0.0003985136 -0.0001922228
-0.00028504754 -0.00036071392 -0.0004701127 -0.00021563092 -0.00026463825 -0.00048037618 -0.00013668329 -0.0003086878
-0.00045303212 -0.00013339368 -0.0003447964 -0.00039323472 -0.00046120456 -0.00044933663 -0.00042032226 -0.00017208712
-0.00034140673 -4.8068192e-05 -0.00029098676 -0.00043030834 -0.00031797044 -0.0004853552 -0.0004598637 -0.00015425848
-0.00033509667 -0.00032215187 -8.411054e-05 -0.00012548607 -0.00013662217 -0.00028435542 -0.00015774029 -0.0003976856
-0.00016740302 -0.00030426504 -0.00012390089 -0.0003641268 -0.00042221823 -0.00019450838 -0.00039691103 -0.00041076948
-0.00029244635 -0.00028704104 -0.00014113919 -0.00036275212 -0.00022029488 -0.000507515 -0.00035722143 -0.00032602058
-0.00023003569 -0.00026402343 -0.000106855245 -0.00031663667 -0.00044068173 -0.00038776008 -0.00027269308 -0.00027876202
-0.00025464428 -0.000339021 -0.00031447565 -0.0003774171 -0.00030189916 -0.00020950037 -0.0004193776 -0.00023862407
-0.00017046837 -0.00039644467 -0.00056857825 -0.000443383 -0.00042454965 -0.00025528052 -0.0002689852 -0.00036961032
-0.0003058906 -0.00046927665 -0.00026674042 -0.0003544657 -0.00017853935 -9.0791706e-05 -0.00036782172 -0.0004624946
-0.00021493359 -0.00028288946 -0.00013877115 -0.00027038963 -0.0002992046 -0.0005219641 -0.00044795344 -0.000363786
-0.0004975382 -0.00023319488 -0.00017308636 -0.000112249385 -0.0004732973 -0.00049445673 -0.00036253183 -0.00025168
-0.00023945213 -0.00029959265 -0.00023528723 -0.00061129726 -0.00023644781 -0.00032248153 -0.00017269749 -0.00035273598
-0.0002709116 -0.00031508174 -0.00039675453 -0.00022290129 -0.00026570662 -0.00011068052 -0.0001904565 -0.0002821259
-0.00012968456 -0.00015535789 -0.00013185281 -0.00038209016 -0.00027388998 -0.00038136807 -0.00017745438 -0.0002461888
-0.00030485698 -0.0005683012 -0.00031711257 -3.5870322e-05 -0.0003380587 -0.00026802009 -0.00018198893 -0.0003347388
-0.00022056166 -0.00028329482 -0.00048410406 -0.00015750164 -0.00022062164 -0.00035411943 -0.0003405433 -0.00032215248
-0.00031536445 -0.0004645894 -0.00021624647 -0.00038245798 -0.00039613683 -0.00023231843 -8.399597e-05 -0.00027510716
-0.00020396315 -0.00039037236 -0.00024283947 -3.773172e-05 -0.00019004308 -6.803514e-05 -0.0003344563 -0.00024520914
-0.00020819796 -0.00033637055 -0.00020285095 -0.00029605292 -0.00030468713 -0.00020313943 -0.00059868576 -0.00010224201
-0.00025371107 -0.00038843922 -0.00051306334 -0.00028321295 -0.00026165665 -0.0004592639 -0.0005405996 -0.00013435795
-0.00034896357 -0.00027717074 -0.00022766738 -1.3943571e-05 -0.00021325446 -0.00026849963 -0.00012297876 -0.0003784046
-0.0005554527 -0.0005346335 -0.0003562866 -0.0003734929 -0.00032601057 -0.00031058755 -0.0005455033 -0.0001891178
-0.0004343959 -9.978702e-05 -0.0002455058 -0.00012966421 -0.00023520064 -0.00040553973 -0.00040385287 -0.00024846452
-0.0005040593 8.360955e-06 -0.00033741875 -0.0003246522 -0.00031424954 -0.00018730889 -0.00030469833 -0.000295078
-0.0004973041 -0.0002441649 -0.00018011822 -0.00047300503 -0.00027198892 -0.0005285221 -0.00038659165 -0.000289347
-0.00031728085 -0.0004709989 -0.00021920331 -0.00026797046 -0.0003477224 -0.00033625265 -0.00015320005 -0.00036156512
-0.00049244496 -0.00022220654 -0.00039224062 -0.0004590169 -0.0002316671 -0.00017817176 -0.00021172462 -0.00024838475
-8.893955e-05 -0.00021308484 -0.00033420807 -0.0002873149 -0.000365351 -0.00015781143 -0.000105713014 -0.00031535345
-0.00014357491 -0.0002923327 -0.0003703837 -0.0005407564 -0.00046498454 -0.0004554559 -0.00043508166 -0.00035429688
-0.00021895485 -0.0002913181 -0.00041176335 -0.00027192553 -0.000118218544 -0.00048764487 -0.00038469498 -0.0002637359

model.feature_nns.2.model.0.weights f4 [1, 104]
00000000: 26e7 133d ec35 d83c 6d04 1c3d 588d 9b3b
00000010: 76a1 0b3d 98cd c23c bc88 153d 31ff ee3c
00000020: a026 173d a360 073d 7ef2 063d 4cfb c33c
00000030: a92e ff3c 8ddd f23c 2b92 183d 4549 923c
00000040: 23e7 cd3c d827 1e3d 49f1 c83c de8a 173d
00000050: 8e18 dd3c 891f 093d b2b9 143d e7be f63c
00000060: 44d5 1b3d 3aa8 173d 227a 163d 07be 183d
00000070: 19ce 1a3d 446e 243c 3085 c33c f0c4 cf3c
00000080: 8cc6 1a3d bee9 0c3d 2d46 1e3d 7b0a 023d
00000090: 187f 173d 63f1 053d fdaf 053d 6dc7 d63c
000000a0: 002f 033d 2ffc 0e3d 8e80 023d 90b0 0d3d
000000b0: d6ce 0e3d 747a 143d fb43 f73c e823 0d3d
000000c0: c6bc d03c e443 1f3d 1f2c d43c 5725 0a3d
000000d0: 4424 143d 96d0 053d 1f21 1e3d cd60 0d3d
000000e0: cfe8 f93c d695 d73c 6991 f03c 2156 e73c
000000f0: 06a0 663c a32e 933c 4c20 ed3c 245e 573c
00000100: be18 053d c7b3 9d3c 4003 de3c edb3 663c
00000110: 5742 153d 7741 0c3d 8776 123d 3635 183d
00000120: 7ed1 173d 978f 153d 3903 df3c 4bfc f73c
00000130: ab2c d93c 3eaa 0b3d 133a f83c fb2c 1c3d
00000140: 6c71 c53c 0f70 fd3c 0009 1e3d 3a6a 1b3d
00000150: 6d2f df3c ea22 3f3c f009 0a3d cbd1 1a3d
00000160: d049 0b3d 4eeb bc3c ff66 033d 7dac 083d
00000170: 2ed3 193d a5b6 1b3d 2cef fc3c 6436 183d
00000180: 593b 1a3d 81c7 153d 3f49 103d 925b 1b3d
00000190: 72bb 173d 1bfb f53c bf0a 533c 6cc6 1b3d
0.036109112 0.0263929 0.03809016 0.004747074 0.034089528 0.023779675 0.036507353 0.02917442
0.03690207 0.033051144 0.032946102 0.023923539 0.031150179 0.02964666 0.03724877 0.017857203
0.025134629 0.038612217 0.024529116 0.03699767 0.026989248 0.03347734 0.036309905 0.030120326
0.038045183 0.037025668 0.03673757 0.0372906 0.037794206 0.010036055 0.02386722 0.025362462
0.037787005 0.0344026 0.038641144 0.031748276 0.03698644 0.032700907 0.03263854 0.02621814
0.032027245 0.03490847 0.03186088 0.03459221 0.034865223 0.036249593 0.030183783 0.03445807
0.02548064 0.038883105 0.025899945 0.033727016 0.036167398 0.032669626 0.038605805 0.034516145
0.03050652 0.026316565 0.029366212 0.028239312 0.0140762385 0.017966574 0.028946064 0.0131450035
0.0324943 0.019250764 0.02710116 0.014080984 0.03644022 0.03424212 0.035757568 0.03716012
0.03706502 0.03651389 0.027223216 0.03027167 0.026510557 0.034097902 0.03030113 0.038128834
0.024101935 0.030937223 0.0385828 0.037943102 0.027244294 0.011666039 0.033700883 0.03779773
0.03400594 0.02306142 0.032080647 0.033367623 0.037554912 0.03801598 0.030875765 0.037161246
0.037654255 0.036567215 0.035226103 0.037929125 0.037043996 0.030026963 0.01288098 0.038031027

model.feature_nns.2.model.1.weight f4 [1, 104]
00000000: 7e79 1ebb 5e14 15bb 183b 29bb de5d 1dbb
00000010: e372 15bb 44df 0fbb 0cde 22bb b557 14bb
00000020: 5e55 19bb 4db4 1ebb 1baa 16bb d30b 17bb
00000030: 5d3d 13bb 0f9e 21bb 35c8 25bb 1fa4 1fbb
00000040: 3f9c 17bb 33be 1ebb 1133 0bbb 6b48 1ebb
00000050: a7fc 17bb c40a 1bbb 8d53 26bb 7a64 11bb
00000060: d128 1ebb 5a04 16bb 39f7 1bbb a007 16bb
00000070: 84e3 1dbb 3e4d 10bb d073 25bb 0faa 1fbb
00000080: 68c7 26bb cf0c 1dbb 8852 19bb 5b80 12bb
00000090: b148 1dbb 75ca 13bb a4a1 18bb d2ca 1dbb
000000a0: ab35 22bb ad6e 2ebb 8bcd 2abb d027 18bb
000000b0: a307 18bb 037d 12bb ea42 0ebb bc37 20bb
000000c0: 7fe5 11bb 5a94 16bb 5c00 27bb 8b54 0fbb
000000d0: 1a79 0cbb 884f 1dbb ca3a 22bb 2941 17bb
000000e0: 46af 18bb 7e96 0fbb 0a3a 1ebb 21a7 16bb
000000f0: 139b 19bb 3dde 20bb 4d94 15bb 5270 16bb
00000100: d33f 1cbb 2fcf 16bb ea73 19bb b4a5 1abb
00000110: 7b7c 1abb f204 1fbb c2eb 1dbb 6b56 22bb
00000120: 2382 13bb 5b73 18bb 4925 21bb dca9 1abb
00000130: 2ae3 1dbb fd74 24bb 8ba0 1dbb f0ba 1cbb
00000140: 7c1a 19bb 4607 1dbb 729c 16bb e610 0cbb
00000150: 0dcc 27bb bad1 13bb d915 23bb b1d4 0ebb
00000160: 7341 18bb a63e 12bb b564 1abb 820d 16bb
00000170: 441e 16bb 076f 21bb 8fa4 1fbb 67ab 1dbb
00000180: 74cf 15bb f56f 19bb 9b4b 19bb c48b 13bb
00000190: a64c 1dbb 8937 19bb 968f 27bb 0ae0 20bb
-0.0024181302 -0.0022747735 -0.0025822576 -0.0024012248 -0.0022804074 -0.0021953145 -0.0024851589 -0.0022635285
-0.002339683 -0.0024216354 -0.0022989574 -0.002304782 -0.0022466995 -0.002466086 -0.0025296335 -0.0024359298
-0.0023133901 -0.0024222254 -0.0021240155 -0.0024152051 -0.0023191364 -0.002365754 -0.002537939 -0.0022185133
-0.0024133215 -0.0022890777 -0.002379848 -0.0022892728 -0.0024091909 -0.0022018696 -0.0025246032 -0.0024362837
-0.0025448445 -0.0023963933 -0.002339514 -0.0022354338 -0.0023999626 -0.0022551094 -0.0023289705 -0.002407719
-0.0024751227 -0.002661626 -0.0026062455 -0.002321709 -0.0023197911 -0.0022352345 -0.0021707364 -0.0024447283
-0.0022262034 -0.0022976608 -0.0025482392 -0.002187046 -0.0021434487 -0.0024003703 -0.002475428 -0.002307961
-0.002329783 -0.0021909769 -0.002414348 -0.00229878 -0.0023438379 -0.0024546527 -0.002282399 -0.0022955132
-0.0023841753 -0.0023011675 -0.0023415037 -0.0023597302 -0.0023572731 -0.0024264422 -0.0024096821 -0.0024770747
-0.0022507987 -0.0023262117 -0.0024588874 -0.002359978 -0.00240917 -0.0025094145 -0.002405199 -0.0023915134
-0.0023361733 -0.0023960634 -0.0022981432 -0.0021372377 -0.0025603801 -0.0022555427 -0.0024884848 -0.0021794254
-0.002323237 -0.0022315173 -0.0023558561 -0.0022896235 -0.0022906223 -0.0024632828 -0.002435956 -0.0024058463
-0.0022859247 -0.002341268 -0.0023391012 -0.0022513727 -0.0024001985 -0.0023379049 -0.0025567762 -0.00245476

model.feature_nns.3.model.0.weights f4 [1, 78]
00000000: 5b27 1e3d 321c 1f3d 601c 0c3d a558 153d
00000010: 3653 1f3d 1469 153d 39e2 1b3d 0525 093d
00000020: 8d9a 133d 8456 093d e12d fc3c 7272 143d
00000030: 2d3b d23c 71ef e93c b259 a53c 0584 f73c
00000040: 4683 183d c963 e43c 4f5b 1a3d 53af 033d
00000050: 117c 033d b2f7 943c e1ca f83c c1da ce3c
00000060: 0b8b 193d bd94 a03c 1c48 d43c 16c2 0f3d
00000070: 3d6e 133d a0e3 1a3d aa50 1b3d 17ad 183d
00000080: e458 143d e017 1c3c fed9 f23c 7509 063d
00000090: b59b 153d 3862 143d f339 1d3d 370c 133d
000000a0: 4c93 133d 7ad8 113d b0c6 703c ecb6 063d
000000b0: 22ba 0f3d 6e27 153d e669 903c 733c 0c3d
000000c0: ebcc 053d 0d5d 983c 07b2 e03c 6124 193d
000000d0: c17f c53c 2c88 8f3c aab5 1c3d d5a9 0b3d
000000e0: 800d 1c3d e3bc aa3c 06b2 b63c da39 003d
000000f0: 06a0 083d adc3 1d3d 7e22 d83c 6636 033d
00000100: 6186 173d 44b7 173d bc99 a93c 3411 0d3d
00000110: 851d 1a3d 410a 1b3d 605a e23c 7fe5 113d
00000120: 97e6 b83c 1c67 143d e42b 163d 821e e93c
00000130: be7f e93c 9357 a33c
0.03861175 0.03884525 0.034206748 0.03646149 0.038897716 0.036477163 0.03805754 0.03348257
0.036036063 0.033529773 0.030783596 0.036241956 0.025662983 0.028556557 0.020184372 0.030214319
0.037234567 0.027879613 0.037684735 0.032149624 0.03210074 0.018184517 0.030370178 0.025250794
0.037486117 0.019602174 0.02591329 0.035097204 0.035993803 0.037814736 0.037918724 0.037274446
0.036217585 0.009527177 0.029644962 0.032723863 0.036525447 0.03622648 0.038385343 0.03590032
0.036029145 0.03560684 0.014695808 0.03288929 0.03508962 0.036414556 0.017628621 0.034237336
0.032666128 0.018599058 0.02742864 0.03738821 0.02410877 0.017520986 0.038259186 0.03409751
0.038098812 0.020842021 0.022301685 0.03130517 0.033355735 0.03851669 0.026383635 0.0320343
0.036993388 0.03704001 0.02070319 0.034440234 0.03762581 0.037851576 0.027630985 0.035619255
0.022570891 0.036231145 0.03666295 0.02845693 0.028503295 0.01993922

model.feature_nns.3.model.1.weight f4 [1, 78]
00000000: 51dc 6fbb 315e 2ebb 6e59 49bb 2127 55bb
00000010: a6ca 50bb f8bc 3abb 5987 46bb 086b 56bb
00000020: 49da 4bbb 11dc 44bb 5ecd 3fbb a956 46bb
00000030: 0609 42bb c5c5 6bbb 4e62 5ebb a8ae 5dbb
00000040: db89 61bb 7972 5bbb fae4 62bb 2391 40bb
00000050: f149 5ebb 631b 54bb e59b 3fbb baca 4abb
00000060: dbd0 53bb 72cd 42bb 697b 4bbb 8adf 45bb
00000070: 519c 63bb bfad 4dbb d39a 46bb ed86 59bb
00000080: c3f5 59bb 1581 57bb 5364 52bb c171 4ebb
00000090: c47f 47bb 359d 41bb 8a57 3cbb c105 59bb
000000a0: adcd 4abb cc4a 50bb 1a47 42bb 799d 43bb
000000b0: 7746 38bb 8201 72bb e207 3ebb 50b4 43bb
000000c0: 652f 43bb 8b43 39bb e9fc 3ebb 5410 5ebb
000000d0: 8aa1 54bb 859a 40bb eef2 4fbb b01b 4abb
000000e0: 4060 57bb 9d9a 21bb b401 53bb cb3d 46bb
000000f0: af92 47bb 2f70 4ebb 0be0 6abb dc28 50bb
00000100: 806d 3fbb a27f 3bbb 12f6 41bb 45fe 35bb
00000110: 6f5a 56bb de60 42bb ca54 52bb 3c1b 56bb
00000120: a554 49bb 95e3 5ebb d591 31bb a018 39bb
00000130: 93cf 3ebb f432 35bb
-0.0036599825 -0.0026606435 -0.003072347 -0.0032524543 -0.003185907 -0.0028493982 -0.0030293076 -0.0032717604
-0.003110545 -0.0030038396 -0.0029266695 -0.0030264056 -0.002960743 -0.0035976034 -0.0033933106 -0.0033826027
-0.0034414444 -0.003348498 -0.0034621344 -0.0029383383 -0.0033918584 -0.0032364957 -0.0029237207 -0.0030943588
-0.0032320532 -0.0029724506 -0.00310489 -0.0030193054 -0.0034730623 -0.0031384078 -0.0030304685 -0.0033191994
-0.0033258058 -0.0032883335 -0.0032103255 -0.0031500908 -0.0030441144 -0.0029543166 -0.00287387 -0.0033115002
-0.0030945346 -0.0031782864 -0.002964443 -0.00298485 -0.0028118172 -0.0036927168 -0.0028996398 -0.0029862113
-0.0029782888 -0.0028269019 -0.0029142445 -0.0033884244 -0.0032444918 -0.0029388976 -0.003173049 -0.0030839257
-0.0032863766 -0.0024658807 -0.003219706 -0.0030249234 -0.003045242 -0.0031499972 -0.0035839106 -0.0031762635
-0.0029209554 -0.002861001 -0.0029596132 -0.0027769965 -0.0032707711 -0.0029659788 -0.0032093995 -0.0032670042
-0.0030720618 -0.0034010161 -0.002709498 -0.0028243437 -0.0029115423 -0.0027648779

model.feature_nns.4.model.0.weights f4 [1, 182]
00000000: cf73 173d c3b1 173d 5380 0d3d 620e 0f3d
00000010: 7f7f 1e3d 40a5 c13c 49e2 0f3d 093d 1c3d
00000020: e8ad d93c b0e2 d53c abfd 063d ba5a 1d3d
00000030: 1b02 023d cdbf f83c d562 1b3d e21d 6a3c
00000040: 46bb 173d 89f3 083d 1864 c53c 0ae5 163d
00000050: 9a11 f13c 0b1d af3c bb53 1f3d 6a11 103d
00000060: 580f b73c ba3e 093d efda 183d 4335 df3c
00000070: a2cf fb3c d78d 123d 9859 023d dbb0 b03c
00000080: c6a5 b53c a2a0 183d 6303 dc3c 3df0 013d
00000090: 7a3f 033d 30ef 063d 9c4e 0f3d 9c59 133d
000000a0: fd63 133d 6736 b43c e6cf 163d 161e e13c
000000b0: cbcf c63c 1f75 1b3d 49ae 113d 6d97 1c3d
000000c0: 18a0 f13c e6a2 183d 77da 1b3c 7c34 b13c
000000d0: 82f1 123d 6c19 1a3d cb7d db3c 10b8 e63c
000000e0: 2dbb 113d 27a8 013d 6238 ba3c 03e1 1a3d
000000f0: e15b f53c 1040 ab3c 80e3 1b3d 6724 1a3d
00000100: c2c8 183d 57b5 eb3c 4f18 123d 3846 e23c
00000110: 4da6 043d f1a8 ba3c 6f97 793c ed16 ea3c
00000120: a758 8a3c 0b62 f93c 252a 1f3d 3f6b d93c
00000130: 2649 023d 535b 073d 4eed a33c 4bba 123d
00000140: ebae 123d 51a5 493c cbae 123d 9743 113d
00000150: c971 163d 3f7d 053d 2386 1d3d 79a7 033d
00000160: 43de 053d ffe5 073d 868c 1a3d 5eba 173d
00000170: 6642 bf3c bfe3 173d 1994 013d 0625 fe3c
00000180: ff0a 033d fbb3 f03c 3029 1c3d 6b7e 0a3d
00000190: 539f 1a3d 89b8 033d 834a fc3c a377 ed3c
000001a0: 43a2 bd3c 9620 113d bd5c d03c fb2e f53c
000001b0: c335 0a3d 62c8 183d 4246 ed3c 98ab ed3c
000001c0: 4b12 6a3c 4e93 ae3c 50c1 fc3c c570 833c
000001d0: 5fe8 d53c 12e3 1b3d b2ed c83c 4eea 153d
000001e0: 5df4 0d3d 571d e13c 3846 0b3d 2cac f43c
000001f0: 069c 143d 4d03 193d a984 f03c 21a2 d83c
00000200: f847 a33c fb4d 143d ef55 1f3d 8a35 ff3c
00000210: 6a0b 033d b95d 123d 29bb d63c 34d5 c63c
00000220: df4e 063d 098a 153d f4dd 0c3d 0c83 db3c
00000230: 2c19 1e3d 417d 163d 9fbf f83c 876c 4e3c
00000240: 79b2 143d 499d 793c 4299 0d3d 64b8 f53c
00000250: 694a fc3c b3d9 e83c 745c 053d bc97 1d3d
00000260: ff0d e93c bf5e d83c 90e3 103d fbff 1d3d
00000270: 3bec 193d 9a18 e43c 512e 033d 305c 023d
00000280: 790e 943c 7222 1e3d 5e5f 063d 28df be3c
00000290: 8be5 ec3c 2ce5 f03c dddd e53c 4ea6 043d
000002a0: 577f 083d c171 0f3d 185b f23c 75e8 fe3c
000002b0: 7ee5 eb3c 9d14 0c3d d361 1b3d 9c24 f43c
000002c0: da03 e83c 93e5 123d 2752 1c3d a713 113d
000002d0: cf8e 1c3d 4c13 0c3d
0.036975678 0.03703476 0.034546208 0.034925826 0.03869581 0.023638368 0.03512791 0.038144145
0.026572183 0.02610907 0.03295676 0.0384166 0.03174029 0.030364895 0.03793605 0.014289351
0.037043832 0.03343538 0.02409558 0.036839522 0.029427338 0.021376153 0.03889821 0.035172857
0.022346184 0.033507086 0.037318166 0.027247077 0.030738655 0.0357798 0.031823725 0.021568706
0.022173773 0.037262566 0.026857084 0.03172325 0.032042958 0.03294295 0.034987077 0.03597413
0.035984028 0.021998597 0.03681936 0.027480166 0.024269005 0.037953492 0.035566602 0.03823035
0.029495284 0.037264727 0.009512535 0.021631472 0.03587485 0.0376219 0.026793381 0.02816394
0.035578895 0.031654503 0.022731964 0.037812244 0.029951038 0.02090457 0.038058758 0.037632372
0.037300833 0.028772993 0.035667714 0.027621374 0.03238516 0.022785636 0.0152338585 0.028575385
0.016887976 0.030442258 0.03885855 0.026540397 0.03180804 0.033046078 0.020010617 0.035822194
0.035811346 0.012307481 0.035811227 0.03546485 0.036729608 0.032590147 0.038458 0.032142136
0.03268267 0.033178326 0.03773167 0.037042968 0.02334709 0.03708243 0.031635378 0.031023514
0.03199291 0.029382696 0.038125217 0.033811968 0.0377496 0.03215841 0.030797249 0.028987711
0.023148661 0.035431467 0.025434846 0.029929629 0.033742677 0.037300475 0.028964166 0.029012486
0.014286588 0.021310475 0.030853897 0.016044984 0.02611178 0.038058348 0.024527404 0.036600403
0.03465687 0.02747981 0.034002513 0.029867254 0.036281608 0.037356663 0.029360132 0.026444497
0.019931778 0.03620718 0.038900312 0.03115346 0.031993307 0.035733912 0.026212292 0.024271585
0.03279006 0.036508594 0.03439136 0.026795886 0.038598225 0.036740545 0.03036481 0.012599117
0.036303017 0.015235254 0.034569986 0.02999515 0.0307972 0.02842412 0.032558873 0.038474783
0.028449057 0.026412366 0.03537327 0.0385742 0.037578803 0.027843762 0.032026593 0.031826198
0.018073307 0.03860707 0.032805793 0.023299769 0.028918048 0.029406153 0.028059894 0.032385163
0.033324566 0.035020594 0.029584453 0.031116704 0.028795954 0.034199346 0.03793509 0.029802613
0.028322149 0.03586347 0.038164284 0.035419133 0.03822213 0.03419809

model.feature_nns.4.model.1.weight f4 [1, 182]
00000000: fc30 0abb 2553 daba 17e4 bcba 2dc7 d1ba
00000010: 9474 08bb 9b82 a0ba 3054 c6ba 10c6 d7ba
00000020: 4ea3 f2ba adc2 d2ba faeb abba 0968 17bb
00000030: eedf eaba 5957 f8ba b8fb e1ba c3fb ccba
00000040: 983e 0abb 8fb2 00bb e6a5 d3ba 079a d7ba
00000050: 9955 b0ba 0aa6 f5ba e01d fdba 2a60 c7ba
00000060: e88f eaba 49f1 d6ba 2512 11bb 6a38 b8ba
00000070: 4743 dcba b481 f2ba c8f7 9dba 0397 c5ba
00000080: e022 ebba 4200 f2ba bf24 09bb f9b0 e4ba
00000090: 3d60 c0ba fb60 f1ba 1cc9 f4ba 9a36 c9ba
000000a0: 4a18 d6ba 0c25 c4ba baad edba 0a22 fbba
000000b0: 2601 beba 2843 0ebb cd97 beba 062f ffba
000000c0: 0bf5 e5ba 2c6c b7ba 1cfa d4ba 96f5 d2ba
000000d0: 0ab2 f8ba d70d 09bb dca2 d2ba 949a a7ba
000000e0: 457d d3ba 7b3a faba a7a2 d4ba 19fc f6ba
000000f0: 66b6 d8ba 25ff d5ba f9c9 f8ba 1a5a edba
00000100: 752d b3ba 298d f4ba acb4 c7ba 4319 fbba
00000110: c0a8 c7ba fe88 f2ba 16d1 cbba b51a c6ba
00000120: 91ec c3ba e739 e2ba f0a3 08bb 76b5 fbba
00000130: 5e4a f0ba 873e c4ba 6f58 b4ba 9f77 e3ba
00000140: f149 00bb f023 fdba 6df5 04bb 6002 03bb
00000150: cd4f f1ba e17e 0abb d2ec f8ba 9b8b faba
00000160: f74f 02bb 5109 edba b005 dfba 259c 07bb
00000170: 63e9 e0ba 674c 0fbb 222a 9eba be76 ebba
00000180: 3fa9 e2ba 0335 04bb cf3c faba ee13 09bb
00000190: f0ff f3ba d1f4 a7ba b87b 0abb 0628 d1ba
000001a0: 55c8 0ebb 130c 03bb 870b edba d89e faba
000001b0: 6bef eeba a003 c2ba 02b6 00bb c399 c9ba
000001c0: d354 0dbb 827f f6ba b489 05bb 2188 03bb
000001d0: 01f2 e2ba a6c9 d9ba fea7 05bb feb8 f4ba
000001e0: eb6f f9ba 3201 ddba b875 05bb f685 ffba
000001f0: 295b fdba 62e7 13bb 6cfa 90ba 4abd efba
00000200: 660f d1ba 9684 03bb a6cd 17bb f4cf cdba
00000210: bdfc b9ba 95d8 c5ba f013 f2ba e2e1 bbba
00000220: ebd1 0ebb 9bc6 feba a77d 07bb e5c0 ecba
00000230: 56e4 f3ba cc9a f3ba fb20 fcba b3b7 e8ba
00000240: 69ce 92ba 0b3c c1ba a061 a4ba bbef 03bb
00000250: a576 caba f415 aeba 6bab daba 4624 00bb
00000260: ae1a fdba 41c9 d8ba 028a f6ba 36fe f4ba
00000270: a570 e9ba ce2a dfba 76a8 e5ba 72dc f4ba
00000280: 37a0 a1ba af9b f5ba 0efd e2ba f557 daba
00000290: e86c aaba b35f c4ba dac3 deba aa51 f5ba
000002a0: 9288 c7ba ff94 dfba c393 08bb 683e f1ba
000002b0: 11e9 d7ba c11c 1bbb bcf9 0dbb bfa1 bfba
000002c0: 9a81 f2ba 2f75 ebba 38ad f6ba 79c5 ecba
000002d0: 904a 16bb 544d 10bb
-0.0021086326 -0.0016656859 -0.0014411238 -0.0016004794 -0.002082144 -0.0012245955 -0.0015131291 -0.0016462225
-0.0018511803 -0.0016079746 -0.0013116591 -0.0023102781 -0.001791952 -0.001894693 -0.0017241156 -0.0015638996
-0.0021094438 -0.001963768 -0.0016147464 -0.0016449102 -0.0013453244 -0.00187415 -0.0019311272 -0.0015211154
-0.0017895671 -0.0016398813 -0.002213606 -0.0014054899 -0.0016804718 -0.0018501789 -0.0012051994 -0.0015074912
-0.0017939471 -0.0018463212 -0.0020926443 -0.0017447761 -0.0014677119 -0.0018415743 -0.0018675658 -0.0015351356
-0.0016334143 -0.0014964654 -0.001813344 -0.0019159925 -0.0014496192 -0.0021707509 -0.001454109 -0.001946897
-0.0017544342 -0.001399403 -0.0016248855 -0.0016094919 -0.0018973958 -0.002091279 -0.0016070264 -0.0012787157
-0.0016135356 -0.0019090915 -0.0016222791 -0.0018843442 -0.0016533851 -0.0016326649 -0.0018981091 -0.0018108517
-0.0013670163 -0.0018657792 -0.001523634 -0.0019157309 -0.0015232787 -0.0018503962 -0.0015549983 -0.001511416
-0.0014947822 -0.0017259688 -0.0020849667 -0.001920386 -0.001833271 -0.0014972248 -0.0013759265 -0.0017354375
-0.0019575323 -0.0019313078 -0.0020287887 -0.001999043 -0.0018410623 -0.0021132755 -0.0018991476 -0.0019115092
-0.0019884089 -0.0018084442 -0.0017015245 -0.0020692435 -0.0017159398 -0.0021865608 -0.0012067 -0.0017964465
-0.0017292871 -0.00201732 -0.0019091609 -0.002091642 -0.0018615704 -0.001281405 -0.002113087 -0.0015957362
-0.0021786888 -0.001999621 -0.00180851 -0.0019120825 -0.0018229311 -0.0014802106 -0.0019639735 -0.0015380908
-0.0021565452 -0.0018806311 -0.0020376267 -0.0020070153 -0.0017314554 -0.0016615882 -0.002039432 -0.0018670855
-0.0019030547 -0.0016861318 -0.0020364355 -0.001949488 -0.0019329536 -0.0022568335 -0.001106096 -0.0018290665
-0.0015950024 -0.002006804 -0.0023163348 -0.0015702234 -0.0014189702 -0.0015094454 -0.0018469077 -0.0014334286
-0.0021792601 -0.0019437851 -0.002067426 -0.0018062858 -0.0018607478 -0.0018585562 -0.0019235903 -0.0017754942
-0.0011200431 -0.0014742626 -0.0012541302 -0.0020131904 -0.0015446736 -0.0013281689 -0.0016683167 -0.001955287
-0.0019310319 -0.001653947 -0.001880944 -0.0018691483 -0.001781006 -0.0017026307 -0.0017521519 -0.001868142
-0.0012331073 -0.0018738414 -0.0017317848 -0.0016658293 -0.0013002427 -0.0014982134 -0.0016995624 -0.0018716354
-0.0015223196 -0.0017057954 -0.0020840026 -0.0018405439 -0.0016472657 -0.0023668262 -0.0021663746 -0.0014620348
-0.0018501759 -0.0017964 -0.0018819934 -0.0018064223 -0.0022932626 -0.0022018747

model.feature_nns.5.model.0.weights f4 [1, 1000]
00000000: dbda d13c 2b79 183d 83fd da3c 4f2c f53c
00000010: 7bb1 763c 857f e23c 05a3 163d a529 053d
00000020: 3d71 183d ae89 193d b4b6 733c 57d5 083d
00000030: 7c43 d13c 66bf db3c 1a86 143d 20e6 023d
00000040: bde9 033d 6203 c23c 2b1f 093d da3b 1e3d
00000050: aa10 1e3d ea28 d93c 66c7 073d c685 c33c
00000060: dbca ff3c 73bc e43c 9450 043d d82b 103d
00000070: 0545 1c3d 7b92 043d c3ff f13c 1453 153d
00000080: 2641 d13c 1223 fe3c 8fef 183d 3374 9b3c
00000090: fd99 0a3d 838c 1c3d 09db 113d 4474 123d
000000a0: 5634 0b3d eccb 053d f8fb 0c3d fe95 093d
000000b0: ad04 fb3c 8bc9 0a3d 4f47 183d 1c91 e73c
000000c0: b765 113d 824e 1b3d e7b5 d63c ec18 053d
000000d0: 833e 153d 04bc 0f3d 1726 023d cbd2 1d3d
000000e0: ec6a b83c 92e9 043d cd6d 193d 3da2 963c
000000f0: 3994 1a3d 6265 8b3c 177c 023d 833e 033d
00000100: d9f8 fb3c c758 e13c 444f 183d 3234 0b3d
00000110: 4d95 043d 7a40 063d cdd6 103d 1172 173d
00000120: 163c ee3c c871 0f3d 6367 f93c 2a7a a63c
00000130: 8083 e23c 5eaa ed3c 9f7d de3c c657 8a3c
00000140: d636 ef3c 9f0c e23c 06fc 033d d0bb 183d
00000150: e681 183d 1892 fe3c 5d62 043d 7896 013d
00000160: 414f 1a3d b765 c23c e11c 043d 8c9d e53c
00000170: 3be1 c73c fe66 163d e29b ca3c 3081 443c
00000180: 9d88 0a3d 76cc 193d e8a4 843c 0471 0c3d
00000190: fcef df3c 76cd 1a3d b92b 1d3d 6f03 093d
000001a0: 0cab bf3c 976d 8f3c 25da 1b3d cb2a e03c
000001b0: 8546 183d 8605 113d 130c 1d3d 53ef ac3c
000001c0: 1b13 013d 3a81 043d 40de fa3c c7fd 033d
000001d0: 3c34 e83c eb7e e23c 7ff1 0d3d e1bb 0f3d
000001e0: 6717 aa3c 4f1a af3c cd76 073d b2e2 d33c
000001f0: cdb0 1d3d f7f1 193d 064f 033d ff24 d63c
00000200: b813 6a3c 1166 d93c 95dc 133d a99b a23c
00000210: b163 1a3d 8806 e23c 2326 0a3d 76f3 ef3c
00000220: ad3c db3c 1732 1e3d 6fb0 1c3d f11f 0c3d
00000230: 5d6d 833c 2aab ed3c a40c 943c 447f dc3c
00000240: d4b9 da3c b503 f53c f5f5 163d 0f0c 3f3c
00000250: a005 1a3d 90b3 f03c 9899 073d 2d42 0f3d
00000260: 6039 e83c ba3f f83c 5c65 143d fb77 973c
00000270: 5839 1e3d 9ccf d73c 01f6 1b3d cc59 ff3c
00000280: e332 ff3c 6139 f93c bdda 9f3c 16cf 113d
00000290: 8500 f53c 3420 043d 8d5a 163d a89c 1a3d
000002a0: 47f8 173d f3a8 073d f0bb e63c d9d8 193d
000002b0: d96d 183d d51e f43c 06c4 123d 9452 103d
000002c0: a68d 053d 04f6 173d 90ca 013d 7f2f 093d
000002d0: 2f9d c13c bfb2 9d3c 6dd8 083d fec9 ab3c
000002e0: 55fc 0a3d e871 1c3d a9a5 d03c 52a8 133d
000002f0: cf35 023d c04d 5f3c 2432 163d 4b43 143d
00000300: 1a34 a53c a2fd 1e3d 3b3d 093d e364 8b3c
00000310: fe50 1d3d c25d 123d c5ec ac3c e911 f93c
00000320: 9a03 143d 039b fe3c 41ec fc3c bd12 163d
00000330: 1a9a 493c b68a cd3c 70cc fb3c b37c 0d3d
00000340: 28b4 0c3d fbdd c73c eaab 1e3d 38af 113d
00000350: afd4 f43c a9ae 123d 5592 133d e38d 103d
00000360: c215 a73c d9f6 173d fcdc 033d f275 fe3c
00000370: a2ce e13c 387a 973c e54c 0f3d 661d 153d
00000380: 3375 c03c e757 133d 9102 dd3c 3a57 d03c
00000390: 9564 e03c 9b27 183d 2f87 163d ef07 153d
000003a0: adb4 1b3d df6c 193d c669 f63c 760c 183d
000003b0: 4520 1c3d 5aee a13c 9fa8 1c3d df51 173d
000003c0: 41f7 0c3d 8608 d53c 0653 0a3d 8893 ae3c
000003d0: cdf1 143d 3a7c 1d3d 0691 163d 6d80 ff3c
000003e0: fdba b23c 1c6d 9e3c 4717 053d adcb 1c3d
000003f0: 5338 053d eb2a 103d dcd8 183d b11d 003d
0.025617054 0.03722493 0.026732212 0.029928355 0.015056963 0.027648697 0.03677656 0.03251042
0.037217367 0.037484817 0.014875103 0.03340658 0.025544874 0.026824664 0.0362607 0.031957746
0.032205332 0.023683254 0.03347699 0.038631298 0.03859011 0.026508767 0.033149146 0.0238675
0.031224659 0.02792189 0.032303408 0.035198063 0.03815176 0.032366257 0.029540902 0.036456183
0.02554376 0.031022582 0.037337836 0.018976307 0.03383826 0.03821994 0.03560928 0.03575541
0.03398546 0.03266518 0.034419984 0.03359031 0.030641878 0.033883613 0.03717738 0.028267436
0.035497393 0.037916668 0.026209785 0.03249447 0.03643657 0.035091415 0.031774607 0.038531106
0.022511922 0.032449313 0.03745823 0.018387908 0.037739012 0.017016117 0.031856623 0.032042038
0.030758308 0.027508153 0.03718497 0.033985324 0.032368947 0.032776333 0.0353611 0.036974017
0.029081386 0.03502062 0.030444806 0.020321924 0.027650595 0.029011901 0.02715951 0.016887557
0.029200953 0.027593909 0.03222277 0.037288487 0.037233256 0.031075522 0.03232037 0.03163764
0.03767324 0.023730142 0.032254104 0.028029226 0.02439939 0.036719315 0.024732534 0.011993691
0.03382169 0.037548505 0.016191915 0.034287468 0.027336113 0.0377936 0.038371775 0.03345054
0.023396991 0.017508311 0.038049836 0.027364155 0.037176628 0.03540566 0.038341593 0.021110212
0.03151236 0.032349803 0.030623555 0.032224443 0.02834522 0.02764841 0.034654137 0.035091285
0.020763112 0.02137485 0.03307228 0.025864933 0.03849869 0.03758427 0.032057784 0.026140688
0.014286928 0.026537927 0.036099035 0.019849615 0.03769273 0.027591005 0.033727776 0.029290896
0.02676233 0.03862199 0.038254198 0.03421015 0.01604336 0.029012281 0.018072434 0.026916154
0.026699938 0.029908994 0.036855657 0.01166059 0.03760302 0.029382497 0.033105463 0.03497522
0.028347671 0.030303825 0.036229476 0.018489828 0.038628906 0.026344113 0.038076404 0.031170748
0.031152194 0.030422868 0.019513482 0.035597883 0.029907474 0.032257274 0.03670745 0.037747055
0.03710201 0.033120107 0.028165787 0.037560318 0.037214134 0.029799858 0.035831474 0.035235003
0.03260579 0.037099853 0.03168732 0.03349256 0.023634521 0.019250272 0.033409525 0.02097034
0.03393205 0.038194567 0.025469618 0.036049195 0.031789597 0.013629377 0.03666891 0.036196988
0.020166446 0.0388161 0.03350566 0.01701588 0.03840732 0.035733946 0.021108994 0.030404048
0.036136247 0.031079775 0.030874373 0.036638964 0.012304807 0.025090557 0.030737132 0.03454275
0.034351498 0.02439784 0.03873817 0.035567492 0.029886572 0.0358111 0.036028225 0.035291564
0.020396117 0.037100647 0.03219317 0.0310621 0.02756435 0.018490896 0.03498544 0.03640499
0.023493385 0.035972502 0.026978763 0.025432218 0.027391711 0.037147146 0.036750015 0.03638452
0.038014103 0.037457343 0.030079734 0.03712126 0.038116712 0.019766975 0.038246747 0.036943313
0.034415487 0.02600504 0.033770584 0.021310583 0.03636341 0.03844855 0.0367594 0.031189168
0.021817679 0.019339137 0.032492902 0.038280178 0.032524418 0.03519718 0.03731619 0.031278316

model.feature_nns.5.model.1.weight f4 [1, 1000]
00000000: 9f4d ddb9 ee5c c4b9 a9d9 23ba 6675 f2b9
00000010: 09b1 ebb9 8484 eeb9 df96 04ba d94b fbb9
00000020: 23a7 03ba 1573 edb9 a715 10ba 7858 deb9
00000030: e1d7 f2b9 1476 f5b9 3044 02ba e29c ffb9
00000040: f94c e0b9 f00d dbb9 1ea7 feb9 12ad dbb9
00000050: 4392 dcb9 37a1 e1b9 ce59 e0b9 b34e ebb9
00000060: 7c13 f2b9 d46d 0bba c029 f1b9 ab39 dfb9
00000070: 6b14 c6b9 fc9f f3b9 5d3f 06ba 2e30 d8b9
00000080: 82f9 f5b9 066a 10ba bc84 ffb9 da68 18ba
00000090: 96ab 00ba 4352 e3b9 def8 19ba e524 eab9
000000a0: aae6 fab9 d100 0bba 9187 02ba a19d fcb9
000000b0: b7fd 08ba 9e4c 09ba da26 07ba e4b9 eeb9
000000c0: 8bd4 07ba 8a87 00ba 0cee f3b9 6629 03ba
000000d0: 8d20 0dba e70b b4b9 0c57 0aba db21 d4b9
000000e0: 0508 0bba dc01 dab9 780b 0dba 4fe1 04ba
000000f0: 6b8a 08ba cbdc e8b9 5554 f1b9 e406 ecb9
00000100: 3d40 05ba c657 fbb9 64f1 c2b9 e12f f0b9
00000110: 42e4 0fba 2500 01ba 1887 c5b9 371d 02ba
00000120: fc0b 0aba e817 c6b9 789b 03ba bdf7 beb9
00000130: 7bd7 0cba d3c9 e7b9 ddc3 e6b9 2eb9 eeb9
00000140: ceaf ffb9 4381 0fba eedf 18ba 6662 22ba
00000150: f3bd ffb9 e5a6 d9b9 03b8 eeb9 cbad f0b9
00000160: 8034 e0b9 e907 e9b9 a83a f6b9 8a5f f2b9
00000170: 592b c8b9 864e 02ba c2d2 beb9 a3d1 f8b9
00000180: e267 b0b9 d2b9 c5b9 54c7 f7b9 f138 04ba
00000190: 5270 d0b9 53ea dfb9 c032 e5b9 106c 0fba
000001a0: 1872 dab9 9f9b ffb9 90b3 d7b9 1987 ddb9
000001b0: 19d5 0fba e83d f6b9 4056 03ba 59a6 0bba
000001c0: 05b2 06ba 8c41 f6b9 9f8f a0b9 d595 efb9
000001d0: acbb f1b9 693b ebb9 e806 09ba aea9 0cba
000001e0: 0494 c3b9 81c8 d4b9 632c ffb9 318a abb9
000001f0: b075 02ba 2758 02ba edd4 15ba 5af1 e5b9
00000200: 515f bab9 b7c7 d8b9 0ded ecb9 4638 bcb9
00000210: 4581 e6b9 5d79 d9b9 3db7 e9b9 2c36 dfb9
00000220: a72d eab9 d67b d6b9 efdc fcb9 9154 dbb9
00000230: 49aa f0b9 59f5 0eba 183b c5b9 1009 ffb9
00000240: ebdc f0b9 34c2 fdb9 17bc 07ba a63d dab9
00000250: 61ab 14ba ef15 fcb9 58f8 e3b9 03f4 fdb9
00000260: b27c f9b9 bcc4 d4b9 cd2e 10ba 3656 ccb9
00000270: ec64 e8b9 6df7 b8b9 80f5 06ba 20a3 e3b9
00000280: dd0e dcb9 70e3 d2b9 c804 00ba 19bb e8b9
00000290: 0a3d ebb9 71d3 d5b9 5eab f5b9 3b77 b0b9
000002a0: 59ef fdb9 2909 01ba 042a cdb9 909b ccb9
000002b0: 9b15 04ba 1804 efb9 25bd 05ba ea42 03ba
000002c0: 4f2b 04ba bb5f c6b9 bef7 0dba 8406 07ba
000002d0: b951 f1b9 1109 e9b9 5979 e2b9 2b46 f3b9
000002e0: a18a ecb9 9f49 0eba ec05 15ba a4c1 f9b9
000002f0: 762c cdb9 6c3f eeb9 c349 00ba 26dc 09ba
00000300: 3fd6 01ba 8b28 03ba 2dee d5b9 ebaa fdb9
00000310: 6e83 cbb9 089d bdb9 123b cbb9 7ef6 f0b9
00000320: 408f fab9 79b2 02ba 0a66 d8b9 8e58 06ba
00000330: f93d e0b9 7d77 11ba 8717 e3b9 03ff fdb9
00000340: d66b 05ba 9968 d5b9 8e26 f1b9 2725 e7b9
00000350: 60b6 17ba b855 e2b9 cf03 17ba e12e e8b9
00000360: aaf9 0eba a589 d8b9 514a 09ba 9573 d5b9
00000370: e4e2 f4b9 367a 11ba 359d b2b9 d11a a8b9
00000380: dd0a aab9 dbf1 07ba c12a e4b9 e784 15ba
00000390: 7896 05ba 7b0b c7b9 c0d5 06ba eea9 f1b9
000003a0: 3276 eeb9 40a0 d5b9 601e 02ba a540 ffb9
000003b0: 949e c2b9 adcf d2b9 646c bfb9 3537 fab9
000003c0: 217d d3b9 8861 d8b9 e851 ccb9 3442 08ba
000003d0: 26ba 19ba 46b1 01ba 23b6 dab9 84f1 18ba
000003e0: 0b11 cfb9 1431 c7b9 fe06 ddb9 3324 fab9
000003f0: f95a 16ba d54b e5b9 e448 09ba 9cfb dab9
-0.00042210237 -0.0003745327 -0.00062503904 -0.00046245306 -0.00044954594 -0.0004549363 -0.0005057882 -0.00047930962
-0.0005022159 -0.00045289905 -0.00054963905 -0.00042409054 -0.0004631868 -0.00046818017 -0.0004969267 -0.00048754277
-0.00042781958 -0.0004178132 -0.00048571167 -0.00041899882 -0.00042070643 -0.0004303546 -0.0004279152 -0.00044881328
-0.00046172354 -0.0005318795 -0.00045998208 -0.0004257684 -0.00037780716 -0.0004646777 -0.0005121136 -0.00041234627
-0.0004691594 -0.0005508963 -0.00048736285 -0.0005813964 -0.0004908381 -0.00043358104 -0.0005873571 -0.00044659447
-0.00047855574 -0.0005302551 -0.00049793074 -0.00048182628 -0.0005225795 -0.0005237552 -0.00051556306 -0.00045533397
-0.00051815127 -0.00049030094 -0.0004652593 -0.0005003422 -0.00053835736 -0.00034341143 -0.0005277253 -0.00040461015
-0.0005303624 -0.00041581586 -0.0005380432 -0.0005068974 -0.0005208614 -0.00044414992 -0.00046029934 -0.00045018562
-0.00050831196 -0.00047939847 -0.00037182414 -0.0004581204 -0.000548903 -0.0004920981 -0.0003767542 -0.000496346
-0.0005266068 -0.00037783314 -0.000502042 -0.00036424203 -0.0005372685 -0.00044210124 -0.00044014948 -0.00045532867
-0.00048768375 -0.00054742786 -0.0005831708 -0.0006194472 -0.00048778913 -0.0004151381 -0.00045531997 -0.00045905853
-0.00042763725 -0.00044447117 -0.0004696448 -0.0004622902 -0.0003817927 -0.00049708073 -0.0003639665 -0.00047458438
-0.00033646735 -0.00037713215 -0.00047260022 -0.00050438853 -0.00039756537 -0.0004270846 -0.00043716095 -0.00054711197
-0.00041665207 -0.00048753337 -0.0004114178 -0.0004225306 -0.0005486771 -0.000469669 -0.00050101057 -0.0005327217
-0.00051382213 -0.00046969613 -0.00030624584 -0.00045697266 -0.00046106928 -0.00044866957 -0.00052271644 -0.00053658604
-0.0003730358 -0.00040585178 -0.0004867046 -0.00032718622 -0.0004976643 -0.0004972242 -0.00057156273 -0.00043858105
-0.000355477 -0.0004134753 -0.00045190044 -0.0003590008 -0.00043965332 -0.00041479888 -0.00044577746 -0.00042574236
-0.00044665972 -0.00040909526 -0.00048229794 -0.00041833942 -0.0004590324 -0.000545343 -0.00037618796 -0.00048644142
-0.00045940964 -0.00048400613 -0.0005177869 -0.00041626132 -0.00056712894 -0.00048081527 -0.00043481844 -0.00048437723
-0.00047585886 -0.0004058237 -0.0005500138 -0.00038974144 -0.0004432568 -0.0003527956 -0.00051482767 -0.00043418352
-0.00041972744 -0.00040223775 -0.0004883525 -0.00044389887 -0.0004486817 -0.00040784062 -0.0004685772 -0.0003365817
-0.00048434248 -0.00049223244 -0.0003913195 -0.00039025815 -0.000503862 -0.00045588682 -0.0005101732 -0.00050072244
-0.0005041854 -0.00037836828 -0.00054156396 -0.0005150812 -0.0004602799 -0.00044447978 -0.0004319649 -0.0004640085
-0.00045116714 -0.00054278405 -0.00056847814 -0.00047637254 -0.00039133773 -0.0004544215 -0.0004893804 -0.000525894
-0.00049528846 -0.0005003295 -0.0004080398 -0.00048383264 -0.000388171 -0.00036165887 -0.00038763188 -0.00045960018
-0.00047790445 -0.0004985701 -0.00041274755 -0.000512489 -0.00042770783 -0.0005549116 -0.00043314343 -0.0004844592
-0.0005089616 -0.00040704457 -0.00045995828 -0.00044087434 -0.0005787369 -0.00043169945 -0.00057607604 -0.00044285416
-0.0005454073 -0.00041301284 -0.0005237209 -0.0004071264 -0.00046708353 -0.0005549522 -0.00034067934 -0.00032063437
-0.0003243302 -0.00051858806 -0.00043519403 -0.0005703703 -0.0005095969 -0.0003796479 -0.00051435456 -0.0004609371
-0.0004548296 -0.0004074592 -0.00049636327 -0.00048685554 -0.00037120713 -0.00040209052 -0.00036511116 -0.00047724848
-0.00040338284 -0.00041271397 -0.00038970937 -0.00051978533 -0.0005864225 -0.0004947375 -0.00041715903 -0.00058343285
-0.00039494815 -0.00037992804 -0.00042157614 -0.00047710686 -0.0005735602 -0.00043734783 -0.0005236997 -0.00041767664
